runs/dumbbell_seed3/models/nowcast_sage_seed42.pt (torch, 272397 bytes, 14 tensors)

in_lin.weight f4 [96, 15]
0.18348409 0.20230302 -0.07690808 0.22436082 -0.0565723 0.05210213 -0.16660665 0.2530036
0.24719082 -0.16253453 0.23912583 0.14171904 0.20660686 -0.011683382 0.10238655 0.011443245
0.1737592 0.08543969 -0.1578017 0.06581446 -0.118961684 0.016875146 -0.11232597 0.1638124
-0.19894178 -0.11907583 -0.1002848 -0.16451618 -0.02215754 -0.2522878 0.2510279 -0.19388999
0.21678102 0.052690215 -0.08383835 0.15955399 0.060343128 0.23439556 0.05402094 -0.05400725
0.09504589 -0.052313134 0.10301174 0.20480512 0.12864852 -0.10315248 0.117946185 0.0589404
0.101925716 -0.15737353 -0.25559327 -0.14927614 -0.11502197 0.22532718 0.0938383 0.118508354
0.15471786 -0.0076587363 0.19174314 -0.18595907 -0.005502964 -0.22529715 0.057336114 -0.14113274
0.07911634 -0.05379354 0.19176388 -0.09506578 -0.21087505 -0.19020824 0.24849284 0.14902772
0.25448504 -0.22513698 -0.26001102 -0.25352576 -0.13609141 0.05177777 0.13014211 0.21454376
-0.13334046 -0.2179431 0.24802235 -0.0852703 0.18348801 -0.045322027 0.24932492 -0.12953247
-0.18148713 -0.01783848 -0.025317088 -0.08987159 0.07164513 0.13085589 -0.18723895 -0.13784418
0.16072476 -0.010300198 -0.020070344 -0.17801721 -0.0926023 0.12879533 -0.13339292 -0.15756091
0.06200624 -0.12991637 -0.15000692 -0.09806584 -0.16604812 -0.16440506 0.2580979 0.10351711
0.14783141 -0.17591266 -0.10611933 -0.023976838 0.10239367 -0.22799815 -0.12476244 -0.23311856
-0.009712112 -0.10353503 -0.028523168 -0.18273777 -0.17722647 -0.1506337 -0.13855882 -0.19250451
0.2274989 -0.07068226 0.23221879 0.092424594 -0.21011175 0.17794956 -0.07957453 -0.06634649
-0.20719923 -0.22643057 0.0784004 -0.056401964 0.100522794 -0.16612034 0.31283674 -0.16249
-0.0048216973 0.080254555 0.22743498 0.1850575 0.24726218 -0.2030076 0.04684573 -0.09778174
-0.046443067 -0.17968306 0.23518269 -0.1895052 0.121607855 0.20848486 0.0641754 -0.1442772
0.21629956 0.13288492 0.06207621 -0.24920115 0.06425411 -0.06811195 -0.11595236 0.19210057
0.04994538 -0.14285536 -0.13068451 -0.042296346 0.19435072 -0.01582346 -0.09721073 -0.038286503
-0.14227417 0.049973633 0.20269737 -0.2200137 0.11011936 0.123511896 0.09605809 -0.1203296
0.13476488 0.13568692 0.14821588 -0.02923887 -0.047353815 0.049556144 -0.01949948 -0.06872357
0.15948935 0.077587344 -0.049538873 -0.047689505 0.005770442 -0.0062235454 0.06137718 0.07235601
-0.23451088 -0.08351715 0.27200413 0.11821926 -0.021400742 -0.21305534 -0.10134358 -0.25317615
-0.09107437 0.0664963 0.17022054 0.08544165 -0.22259228 -0.18795033 -0.040748082 0.24976857
0.039749753 0.06084525 0.116179705 -0.077960856 -0.16285327 0.28308922 -0.11559321 -0.070074394
-0.25831446 0.15089652 0.16625819 0.072025545 -0.20878012 -0.25482678 -0.2097037 0.16962822
0.19992866 0.20481427 0.13141243 0.050699044 0.06967426 -0.15159889 -0.26598105 -0.27580988
0.13066594 -0.12801407 -0.02778918 -0.15450056 -0.04704992 -0.18172939 -0.13830349 0.085735165
-0.07658416 0.15956728 -0.08360605 -0.188597 -0.041075554 -0.14983197 -0.096996605 -0.20963962
00000000: 41e3 3b3e 8628 4f3e fc81 9dbd d8be 653e
00000010: 5bb8 67bd 0b69 553d ef9a 2abe b089 813e
00000020: 971f 7d3e 746f 26be 67dd 743e cc1e 113e
00000030: c090 533e a86b 3fbc 0ab0 d13d 737c 3b3c
00000040: efed 313e 01fb ae3d c596 21be bbc9 863d
00000050: 2fa2 f3bd bf3d 8a3c 280b e6bd 70be 273e
00000060: 65b7 4bbe 07de f3bd 1e62 cdbd ee76 28be
00000070: bb83 b5bc de2b 81be bb86 803e 198b 46be
00000080: d8fb 5d3e b2d1 573d 71b3 abbd 1f62 233e
00000090: 5b2a 773d 6405 703e 1045 5d3d b536 5dbd
000000a0: 6ba7 c23d 4c46 56bd d2f7 d23d 6fb8 513e
000000b0: 70bc 033e 9c41 d3bd c58d f13d 7d6b 713d
000000c0: 6ebe d03d 8726 21be 1fdd 82be d8db 18be
000000d0: a390 ebbd 2bbc 663e 4b2e c03d 82b4 f23d
000000e0: 5c6e 1e3e 23f6 fabb 5058 443e 0e6c 3ebe
000000f0: 3552 b4bb 4cb4 66be 46d9 6a3d 1a85 10be
00000100: bf07 a23d 9d56 5cbd c05d 443e d9b1 c2bd
00000110: a1ef 57be f3c5 42be e874 7e3e b99a 183e
00000120: dd4b 823e 4f8a 66be 2a20 85be 21ce 81be
00000130: 8c5b 0bbe ed14 543d f943 053e 5cb1 5b3e
00000140: 678a 08be 7a2c 5fbe 92f9 7d3e 32a2 aebd
00000150: 48e4 3b3e 97a3 39bd 084f 7f3e 29a4 04be
00000160: c3d7 39be 0122 92bc c865 cfbc 990e b8bd
00000170: afba 923d 16ff 053e 91bb 3fbe 0627 0dbe
00000180: 0895 243e 29c2 28bc 906a a4bc 254a 36be
00000190: 46a6 bdbd ece2 033e 2798 08be a657 21be
000001a0: 41fa 7d3d cc08 05be 6a9b 19be bed6 c8bd
000001b0: 8508 2abe cd59 28be 6825 843e c700 d43d
000001c0: 1e61 173e 7322 34be 1755 d9bd 136b c4bc
000001d0: c6b3 d13d 5978 69be 7383 ffbd a2b6 6ebe
000001e0: 8d1f 1fbc 2c0a d4bd 6ba9 e9bc 9c1f 3bbe
000001f0: db7a 35be b83f 1abe 5de2 0dbe e71f 45be
00000200: 79f5 683e dcc1 90bd c3ca 6d3e 1b49 bd3d
00000210: 8927 57be 6938 363e f9f7 a2bd abe0 87bd
00000220: 092c 54be 6add 67be 6490 a03d bf05 67bd
00000230: e5de cd3d 731b 2abe 232c a03e c763 26be
00000240: 54ff 9dbb 805c a43d b7e4 683e b77f 3d3e
00000250: 4c32 7d3e 39e1 4fbe 4fe1 3f3d cb41 c8bd
00000260: 163b 3ebd d6fe 37be bbd3 703e a70d 42be
00000270: 8a0d f93d 0e7d 553e 646e 833d 67bd 13be
00000280: a27d 5d3e fc12 083e a043 7e3d 962e 7fbe
00000290: a997 833d 477e 8bbd 6e78 edbd 03b6 443e
000002a0: 8793 4c3d ad48 12be 29d2 05be ef3e 2dbd
000002b0: e003 473e 33a0 81bc 6b16 c7bd 4fd2 1cbd
000002c0: 52b0 11be 27b1 4c3d e68f 4f3e 454b 61be
000002d0: 4286 e13d cef3 fc3d 1bba c43d 5e6f f6bd
000002e0: ceff 093e 83f1 0a3e e7c5 173e 5b86 efbc
000002f0: 13f6 41bd 62fb 4a3d 60bd 9fbc f1be 8cbd
00000300: 2d51 233e 1de6 9e3d 46e9 4abd 1256 43bd
00000310: fa15 bd3b e2ee cbbb a366 7b3d 632f 943d
00000320: 9f23 70be 0a0b abbd 2044 8b3e f01c f23d
00000330: 9c50 afbc 2e2b 5abe 398d cfbd 4ea0 81be
00000340: 3385 babd 362f 883d 4b4e 2e3e 08fc ae3d
00000350: 3bef 63be 0d76 40be 76e7 26bd 55c3 7f3e
00000360: a3d0 223d de38 793d a0ef ed3d f1a9 9fbd
00000370: 02c3 26be 12f1 903e 22bc ecbd 2a83 8fbd
00000380: cb41 84be 9e84 1a3e 963f 2a3e 2182 933d
00000390: 75ca 55be a878 82be 91bc 56be 05b3 2d3e
000003a0: 19ba 4c3e d5ba 513e fb90 063e cda9 4f3d
000003b0: 61b1 8e3d bd3c 1bbe ab2e 88be f436 8dbe
000003c0: 4bcd 053e 1f16 03be 22a6 e3bc 6535 1ebe
000003d0: 6bb7 40bd 4517 3abe 6e9f 0dbe eb95 af3d
000003e0: 28d8 9cbd 9b65 233e a639 abbd 921f 41be
000003f0: d73e 28bd 8d6d 19be 28a6 c6bd c5ab 56be

in_lin.bias f4 [96]
-0.13124505 -0.019613141 -0.08099115 -0.2187547 -0.23678103 -0.11868186 0.048371226 0.051176596
-0.21452549 -0.12811938 0.025878647 -0.273575 0.1275695 0.22393829 0.05066017 -0.14708267
0.060936928 0.058762703 0.1556333 -0.17065248 -0.24700786 0.057168685 0.028224785 -0.07064292
-0.11781151 -0.108082935 0.2029057 -0.035844956 0.20062873 0.15952943 0.04077796 0.059504
0.049581558 0.195872 -0.2606985 0.085409194 -0.008210658 0.101607464 -0.03616126 -0.13912776
-0.0028294204 0.1216644 -0.11071417 -0.10325851 -0.09859859 -0.1625987 0.13319732 0.19932507
-0.030562824 0.26420367 -0.100032225 -0.1765122 -0.08469323 -0.16778658 -0.14748327 -0.12502292
-0.19733396 0.07586354 0.18872817 0.242965 0.22965382 -0.06384459 0.037407853 -0.14817025
0.10518373 -0.23419861 0.109567724 -0.0054915026 0.049012512 0.08609122 -0.1686289 0.20059268
0.114008084 0.14841056 -0.000291284 0.09894783 0.17351831 0.051229585 0.2108673 -0.09408508
0.161766 0.064561464 0.15595819 0.23914865 0.045472883 -0.13476615 -0.042428423 0.07043349
0.05051648 -0.086336836 0.18440138 0.17495683 -0.23987974 -0.08593305 -0.009806638 -0.14933518
00000000: 1a65 06be bdab a0bc b0de a5bd 3b01 60be
00000010: ba76 72be 7a0f f3bd e820 463d 8d9e 513d
00000020: 92ac 5bbe ba31 03be 75ff d33c 0612 8cbe
00000030: 94a1 023e 1450 653e 0a81 4f3d d79c 16be
00000040: 0099 793d 29b1 703d 565e 1f3e 86bf 2ebe
00000050: a1ef 7cbe b629 6a3d aa37 e73c 3cad 90bd
00000060: 2947 f1bd 965a ddbd 83c6 4f3e 29d2 12bd
00000070: 9e71 4d3e af5b 233e ca06 273d 77ba 733d
00000080: 0816 4b3d ab92 483e 467a 85be 04eb ae3d
00000090: ff85 06bc 9317 d03d d41d 14bd 8277 0ebe
000000a0: cc6d 39bb 2f2b f93d 1cbe e2bd 3379 d3bd
000000b0: 0fee c9bd 4680 26be e164 083e df1b 4c3e
000000c0: e35e fabc b445 873e b2dd ccbd 9dbf 34be
000000d0: a573 adbd 3fd0 2bbe db05 17be 0206 00be
000000e0: ea11 4abe 585e 9b3d f541 413e d1cb 783e
000000f0: 5f2a 6b3e f4c0 82bd fa38 193d f1b9 17be
00000100: 916a d73d c3d1 6fbe 0b65 e03d 10f2 b3bb
00000110: 58c1 483d 9850 b03d 0ead 2cbe 2b68 4d3e
00000120: 127d e93d f0f8 173e 7ab7 98b9 29a5 ca3d
00000130: c9ae 313e 1dd6 513d 99ed 573e aeaf c0bd
00000140: fca5 253e cd38 843d 81b3 1f3e 62e3 743e
00000150: c641 3a3d 2300 0abe 6dc9 2dbd 6f3f 903d
00000160: 5eea 4e3d 5ed1 b0bd b7d3 3c3e e227 333e
00000170: 09a3 75be abfd afbd 05ac 20bc 52eb 18be

layers.0.lin_self.weight f4 [96, 96]
0.016290003 -0.030212712 -0.060195614 -0.050600223 -0.00055380695 0.14376992 0.043251112 0.11881674
0.053802546 0.07920988 0.06674876 0.020654302 -0.08582817 -0.030178122 0.010966929 0.004566953
0.054483727 0.041903052 0.09032135 0.020682592 -0.017536523 -0.0655578 -0.022110261 -0.021937432
0.087734975 0.025589379 0.11899585 -0.005069605 -0.044524487 -0.027342021 0.041271854 0.08010326
0.0033173976 -0.013908342 -0.0021467719 0.0026401565 -0.00090795057 -0.06829511 0.041369658 -0.033659823
-0.09590591 0.051344182 -0.04656645 0.00013433 -0.045109313 -0.007165822 -0.095275864 0.055085134
-0.062217552 0.095568165 0.020165704 0.01975956 0.059755143 0.09439905 -0.021979406 -0.038951077
0.057450168 -0.05206291 0.031938 -0.06390626 0.0015686074 -0.047123764 -0.039742637 0.10905007
-0.07258305 0.11793404 -0.077659406 -0.015563161 0.012807092 0.07994993 -0.019032793 0.027545193
0.02955339 0.055049732 0.020722596 0.034764457 -0.025597045 -0.07439808 0.110236295 -0.06314407
-0.04432256 0.004620171 0.11379582 -0.011267803 -0.039374206 -0.010286752 0.06616138 0.042069778
0.11409857 -0.050345037 0.118028976 -0.07032008 0.04848701 0.051891956 0.099302486 -0.024118172
-0.01329125 0.019074285 -0.07115889 -0.08466801 -0.056896657 0.07205052 0.06983011 0.044756312
0.04288662 0.10320933 -0.020284364 0.02763499 -0.028945813 -0.0025405064 0.1359371 -0.061361525
0.033514082 -0.0759448 0.013259551 -0.036846854 0.044441044 -0.041288543 0.11642743 -0.029285567
0.110855296 -0.09172156 0.09850575 0.0026131289 -0.03649156 -0.0064808927 0.12779136 0.0922951
-0.0687446 0.0059711873 -0.078496754 0.05474447 0.061847012 -0.046265326 -0.027123807 0.023899952
-0.08597262 0.05918353 -0.012713229 0.093776576 0.042619593 -0.071100175 0.07466755 0.012809633
-0.09840667 0.042081926 0.09834938 0.10324451 0.061667666 0.06986401 -0.055639047 -0.14328514
-0.054416094 0.061399505 -0.06186525 -0.02576296 0.11818883 0.11116526 -0.032281924 -0.035927843
0.049641065 0.112922564 -0.0010925316 -0.02243041 -0.05539127 0.057636835 0.122131296 -0.03975605
0.07230804 0.06264875 0.112804085 -0.010042487 0.05688449 0.083587 0.099996865 0.11269915
-0.04338191 0.06534369 0.10122087 -0.054757733 0.06918931 0.0006917536 0.09102151 -0.032656997
0.04487807 0.035914194 0.0012933576 -0.046845224 -0.028732672 0.07338707 0.11712493 -0.0197004
0.020328252 -0.05692988 -0.045210246 0.07068753 0.08481987 0.03859419 0.026756149 0.026345022
0.061266784 0.021647919 -0.02004675 0.07851581 0.008478059 0.07791911 -0.0007002001 0.056848146
0.09025778 0.061057195 0.038344443 0.10557988 0.01259587 0.04104844 0.13889016 0.14725731
0.0063113053 0.06295741 0.07013673 0.026270865 0.04404942 -0.042868137 0.119480684 0.14162983
-0.060901098 -0.07578629 -0.10326222 -0.036658783 -0.057584833 -0.033884313 0.017621132 0.05669447
0.020742213 0.06903284 -0.011679587 -0.0361999 -0.07426506 0.018378953 0.08651107 0.039973788
-0.06293375 -0.019310122 -0.03959481 -0.0726446 0.119510576 -0.032994356 -0.06433895 -0.08533924
0.051327877 0.0016126994 0.031233128 0.05675483 -0.05630869 -0.07284769 0.015671378 -0.20957027
00000000: 9d72 853c a680 f7bc ad8f 76bd 2e42 4fbd
00000010: 5b2d 11ba 6c38 133e 1428 313d 3156 f33d
00000020: 0f60 5c3d ca38 a23d 93b3 883d 3633 a93c
00000030: aec6 afbd 1c38 f7bc a2ae 333c 61a6 953b
00000040: 542a 5f3d 89a2 2b3d 66fa b83d 8a6e a93c
00000050: c1a8 8fbc 2b43 86bd 9420 b5bc 21b6 b3bc
00000060: 65ae b33d d1a0 d13c 19b4 f33d ee1e a6bb
00000070: 4f5f 36bd 60fc dfbc ad0c 293d 2e0d a43d
00000080: b268 593b d1df 63bc dbb0 0cbb 7a06 2d3b
00000090: 8803 6eba 4ede 8bbd 3b73 293d e2de 09bd
000000a0: 516a c4bd 474e 523d 76bc 3ebd efda 0c39
000000b0: 8bc4 38bd 46cf eabb fe1f c3bd f3a0 613d
000000c0: d5d7 7ebd 3eb9 c33d 8c32 a53c cdde a13c
000000d0: cfc1 743d 4a54 c13d 280e b4bc 2a8b 1fbd
000000e0: de50 6b3d eb3f 55bd 6cd1 023d 49e1 82bd
000000f0: bb99 cd3a d904 41bd 2dc9 22bd a555 df3d
00000100: 6ca6 94bd 6787 f13d e50b 9fbd a1fc 7ebc
00000110: d6d4 513c cabc a33d a9ea 9bbc 75a6 e13c
00000120: f319 f23c d47b 613d 6fc2 a93c 2d65 0e3d
00000130: e5b0 d1bc 055e 98bd 91c3 e13d ae51 81bd
00000140: 938b 35bd ce64 973b c80d e93d 979c 38bc
00000150: d946 21bd c489 28bc 9e7f 873d 5c51 2c3d
00000160: 83ac e93d 9936 4ebd 2db9 f13d f903 90bd
00000170: 519a 463d a98c 543d 1a5f cb3d 7993 c5bc
00000180: 8bc3 59bc ad41 9c3c c1bb 91bd 6c66 adbd
00000190: 780c 69bd 398f 933d 1703 8f3d 6552 373d
000001a0: e1a9 2f3d 6a5f d33d 652b a6bc c662 e23c
000001b0: c51f edbc a07e 26bb 1833 0b3e 3956 7bbd
000001c0: 1046 093d f388 9bbd 963e 593c baec 16bd
000001d0: d007 363d 2d1e 29bd 8171 ee3d 49e8 efbc
000001e0: 1a08 e33d 83d8 bbbd 62bd c93d 0741 2b3b
000001f0: 2d78 15bd ab5d d4bb bddb 023e 3705 bd3d
00000200: f8c9 8cbd f3a9 c33b e8c2 a0bd bd3b 603d
00000210: 4b53 7d3d b680 3dbd bf32 debc d5c9 c33c
00000220: 6a12 b0bd 6e6a 723d 264b 50bc ef0d c03d
00000230: e291 2e3d f89c 91bd 4deb 983d 7fdf 513c
00000240: 7089 c9bd 195e 2c3d 666b c93d dc71 d33d
00000250: 3c97 7c3d dd14 8f3d c5e5 63bd 57b9 12be
00000260: 69e3 5ebd 0c7e 7b3d 6b66 7dbd d80c d3bc
00000270: fc0c f23d 9daa e33d 0d3a 04bd 1329 13bd
00000280: 6e54 4b3d f243 e73d 4733 8fba fbbf b7bc
00000290: f5e1 62bd 9a14 6c3d f91f fa3d 3dd7 22bd
000002a0: 3d16 943d fd4d 803d d405 e73d 3e89 24bc
000002b0: b6ff 683d a92f ab3d 28cb cc3d d0ce e63d
000002c0: 3bb1 31bd ead2 853d e34c cf3d a549 60bd
000002d0: 20b3 8d3d cc56 353a 7c69 ba3d 58c3 05bd
000002e0: 11d2 373d c31a 133d e185 a93a c7e0 3fbd
000002f0: c860 ebbc f64b 963d 32df ef3d bc62 a1bc
00000300: 6f87 a63c 4e2f 69bd 612e 39bd a0c4 903d
00000310: 0ab6 ad3d f114 1e3d b62f db3c 84d1 d73c
00000320: e1f2 7a3d fa56 b13c 1539 a4bc e6cc a03d
00000330: 8fe7 0a3c 0e94 9f3d a28d 37ba 9ad9 683d
00000340: 12d9 b83d 1c17 7a3d 100f 1d3d 443a d83d
00000350: e85e 4e3c 6922 283d 3939 0e3e 9fca 163e
00000360: 11cf ce3b d1ef 803d d9a3 8f3d ff35 d73c
00000370: 2a6d 343d 8096 2fbd 4ab2 f43d 6907 113e
00000380: 6e73 79bd d835 9bbd 257b d3bd 8527 16bd
00000390: 13de 6bbd 47ca 0abd 315a 903c 7638 683d
000003a0: 93eb a93c 1761 8d3d bd5b 3fbc 5946 14bd
000003b0: 4818 98bd 758f 963c b72c b13d 8ebb 233d
000003c0: 69e3 80bd 4330 9ebc 2b2e 22bd b1c6 94bd
000003d0: f6c1 f43d 1725 07bd 24c4 83bd 57c6 aebd
000003e0: 2e3d 523d 3661 d33a 9edc ff3c c177 683d
000003f0: f1a3 66bd 2b31 95bd 4361 803c 9799 56be

layers.0.lin_self.bias f4 [96]
0.027516196 0.1042404 0.02369565 0.01824782 -0.068295345 0.019645687 -0.092153884 -0.08743179
0.014500569 -0.0502722 -0.057741005 -0.00017355707 0.06240999 0.0616679 -0.04723743 -0.0010603192
0.103999145 0.034967475 0.078849964 -0.019208023 -0.093145326 -0.041070875 0.05333123 -0.011249522
-0.041699853 0.082450934 -0.076953515 0.01897963 0.06048135 -0.0459521 0.05757205 0.012147823
-0.061931606 -0.039777827 -0.03673243 -0.0994912 0.06609115 0.09721454 -0.061745014 0.019076265
0.049120985 0.03270708 -0.053309616 -0.05445039 0.10613398 0.053614736 0.1114343 0.0813218
0.018419895 0.08008144 0.009748596 0.0070162923 -0.04521585 0.087175764 -0.01606479 0.0050459704
-0.1131066 0.045510527 -0.057146966 -0.015348664 -0.0037623118 0.048046764 0.013926437 -0.0009811949
-0.055325553 -0.05783182 0.046308104 -0.029919405 -0.081559554 -0.024060994 -0.09150207 0.03138788
0.01758591 0.10294742 -0.06370491 -0.04647866 0.03527359 -0.026746843 0.085551515 0.07076799
0.0028229775 -0.05520487 0.06562444 -0.038033694 0.047983523 0.07718092 -0.08387292 -0.07033193
-0.048903443 0.038102742 0.017900893 0.014001834 0.03824719 0.034394924 -0.040744495 0.014833834
00000000: a569 e13c fe7b d53d 611d c23c 747c 953c
00000010: 6ede 8bbd feef a03c 2dbb bcbd 700f b3bd
00000020: cb93 6d3c 39ea 4dbd d581 6cbd dffc 35b9
00000030: 9ea1 7f3d 7b97 7c3d 097c 41bd 69fa 8aba
00000040: 81fd d43d 0e3a 0f3d 177c a13d 255a 9dbc
00000050: fac2 bebd ef39 28bd d971 5a3d ea4f 38bc
00000060: 77cd 2abd 09dc a83d ce99 9dbd 2b7b 9b3c
00000070: 4bbb 773d 4538 3cbd abd0 6b3d aa07 473c
00000080: ffab 7dbd 13ee 22bd bf74 16bd 0bc2 cbbd
00000090: cc5a 873d 6b18 c73d 57e8 7cbd d445 9c3c
000000a0: 1633 493d dcf7 053d 2f5b 5abd 5f07 5fbd
000000b0: c65c d93d 209b 5b3d ab37 e43d 0b8c a63d
000000c0: 52e5 963c bd01 a43d 93b8 1f3c ede8 e53b
000000d0: 4134 39bd 3589 b23d 4e9a 83bc ab58 a53b
000000e0: 6fa4 e7bd 3f69 3a3d f012 6abd f678 7bbc
000000f0: 1e91 76bb afcc 443d b62b 643c 709b 80ba
00000100: 0c9d 62bd 0fe1 6cbd 91ad 3d3d 8a19 f5bc
00000110: b208 a7bd 901b c5bc 7065 bbbd 9490 003d
00000120: 5410 903c 19d6 d23d b877 82bd 6860 3ebd
00000130: 0a7b 103d 321c dbbc a235 af3d cfee 903d
00000140: b401 393b 801e 62bd 1b66 863d 38c9 1bbd
00000150: 5f8a 443d 0811 9e3d 91c5 abbd 300a 90bd
00000160: fa4e 48bd 9f11 1c3d e5a4 923c f367 653c
00000170: 16a9 1c3d b1e1 0c3d b3e3 26bd 9c09 733c

layers.0.lin_neigh.weight f4 [96, 96]
0.12923458 0.02842116 -0.0040423525 -0.041074023 0.04717709 0.0847447 0.06563053 0.04106788
0.04023737 0.13742137 -0.00010418284 -0.0053951326 -0.030057738 0.023945544 0.10509039 0.12167581
-0.04289995 0.15553758 -0.02006107 0.092229865 0.03963339 0.0057463264 -0.011140944 0.041465666
-0.0072474503 -0.027995124 0.063430086 0.13724197 0.034851175 0.01355763 -0.03384729 0.09945171
0.12297848 -0.024955377 0.012883906 -0.071379356 0.043215163 -0.043529805 -0.079922184 -0.040271685
0.033119667 0.033241805 0.02234536 0.14669688 -0.04127462 -0.03657543 0.0778906 -0.0031822165
-0.05632647 0.10143584 -0.006803396 0.08757781 -0.008303559 -0.106798775 0.011342908 -0.118721865
0.08954769 0.09484122 -0.015712291 0.11656175 -0.01895669 0.0746416 0.035179283 -0.0142691545
0.13145003 0.106779225 -0.09421502 0.055290096 0.09826417 -0.06201037 -0.040942628 -0.0715695
0.081307046 0.07006591 0.08974425 0.044087578 0.019387525 0.00041307142 -0.014894431 0.06518913
-0.014707197 0.04688116 0.045759927 0.014372925 0.00017036694 -0.04226149 0.03408927 -0.04757402
0.01124193 -0.063070744 -0.042284183 0.17561074 0.08896914 0.062407933 0.0037457559 0.09406941
0.08803984 0.026440302 -0.0031731764 -0.013489227 0.0044960487 0.046432126 0.04811606 0.06402642
0.025612317 0.011036408 0.045147408 0.030205786 -0.09072064 0.0680123 0.14698748 -0.059219167
0.060370084 0.11079793 -0.052757923 0.08006149 -0.023659864 0.07766906 -0.054054596 0.18499006
0.06890152 -0.054815885 0.133176 0.043150388 0.008585367 0.044775955 0.078442976 0.06282354
-0.027673498 -0.0661734 -0.07305147 -0.035051703 0.010344404 0.007987126 0.008582102 -0.05628579
0.011229777 0.054191448 -0.11430562 0.097907014 0.053430036 0.050073028 0.014922437 0.13637416
-0.08674495 0.14579202 0.084218465 0.014261881 0.10942398 -0.13499561 0.14264615 -0.020442868
0.1219351 0.14126468 -0.04025414 0.11743062 0.0620314 -0.101501994 0.09506294 0.10642042
0.042809166 0.19555536 -0.00096483267 0.08812751 -0.08871679 -0.07724526 0.014225324 0.012882361
-0.071964644 -0.040385943 0.073881514 0.085092545 -0.038823813 -0.03073077 0.0669807 0.003478182
-0.042826593 0.1165066 -0.025991797 0.05606791 0.02844359 -0.122741535 0.013585041 -0.017316246
0.12871513 -0.031438254 0.05670557 0.15806758 -0.062197134 -0.043273944 0.16255145 0.19003469
0.08203986 0.043665998 0.03301108 0.10138641 -0.007467303 0.22027873 -0.04010119 0.0047074063
0.03160671 0.086513944 0.103658676 0.044588856 -0.020502608 0.09079571 0.14212354 0.07824986
-0.0267618 0.12058468 0.083258875 0.07858509 0.040300068 0.069587156 -0.046752814 0.11658333
0.00036462783 0.08315893 0.07783865 0.02987362 0.03232615 -0.028842108 0.108158074 0.08870472
0.009140887 -0.06310835 -0.020025326 -0.050614633 0.044222135 0.031810082 0.021948546 -0.06407294
-0.026946679 -0.07278636 -0.15233803 0.08900433 -0.005765091 -0.09617985 -0.07145168 0.00033196085
-0.10768183 0.09165308 0.01979997 0.04510796 0.118453674 -0.13867767 0.12136823 -0.17527954
0.1469858 0.14946859 0.08724511 -0.02521593 0.049704332 -0.06957966 0.012744877 0.105111055
00000000: 1256 043e 7ed3 e83c b675 84bb 3c3d 28bd
00000010: c43c 413d a18e ad3d 4d69 863d cb36 283d
00000020: f1cf 243d 30b8 0c3e bc7c dab8 a7c9 b0bb
00000030: a53b f6bc 7229 c43c a139 d73d 2b31 f93d
00000040: dcb7 2fbd 3e45 1f3e 1d57 a4bc 03e3 bc3d
00000050: 9f56 223d ae4b bc3b 8288 36bc e7d7 293d
00000060: 057c edbb 0856 e5bc a2e7 813d 2989 0c3e
00000070: 1bc0 0e3d d220 5e3c 75a3 0abd 57ad cb3d
00000080: 24dc fb3d 386f ccbc 0517 533c 572f 92bd
00000090: 6202 313d 4f4c 32bd 3eae a3bd ecf3 24bd
000000a0: 7da8 073d 8f28 083d 9e0d b73c b537 163e
000000b0: 930f 29bd 1ed0 15bd 1b85 9f3d bc8c 50bb
000000c0: 96b6 66bd 98bd cf3d 06ef debb ff5b b33d
000000d0: a70b 08bc 51b9 dabd 9bd7 393c 7324 f3bd
000000e0: c764 b73d 1d3c c23d 10b7 80bc edb7 ee3d
000000f0: 0f4b 9bbc b2dd 983d 2718 103d 2cc9 69bc
00000100: d69a 063e 11af da3d cef3 c0bd de77 623d
00000110: ba3e c93d 96fe 7dbd 75b3 27bd 0893 92bd
00000120: 4f84 a63d b77e 8f3d d5cb b73d 2d95 343d
00000130: 96d2 9e3c 8291 d839 c607 74bc e181 853d
00000140: 75f6 70bc 7606 403d c36e 3b3d 6b7c 6b3c
00000150: 87a4 3239 621a 2dbd 31a1 0b3d fadc 42bd
00000160: 1230 383c 3c2b 81bd 2e32 2dbd 4dd3 333e
00000170: 7435 b63d 769f 7f3d 5b7b 753b 76a7 c03d
00000180: 3b4e b43d 5599 d83c 11f5 4fbb eb01 5dbc
00000190: 9753 933b 9d2f 3e3d 5915 453d 4920 833d
000001a0: ecd0 d13c 0dd2 343c 7dec 383d 2072 f73c
000001b0: becb b9bd 084a 8b3d e383 163e cc8f 72bd
000001c0: 9f46 773d 06ea e23d b118 58bd 47f7 a33d
000001d0: 55d2 c1bc f510 9f3d 5a68 5dbd 096e 3d3e
000001e0: 3d1c 8d3d 9f86 60bd 4a5f 083e 76be 303d
000001f0: a4a9 0c3c fe66 373d b6a6 a03d a1a9 803d
00000200: 88b3 e2bc eb85 87bd 029c 95bd 6092 0fbd
00000210: 937b 293c 6fdc 023c f29b 0c3c ee8b 66bd
00000220: 19fd 373c daf7 5d3d 1119 eabd 7983 c83d
00000230: 74d9 5a3d 6019 4d3d 3d7d 743c aba5 0b3e
00000240: 56a7 b1bd 814a 153e bb7a ac3d aaaa 693c
00000250: ae19 e03d 4a3c 0abe d511 123e cd77 a7bc
00000260: 1cb9 f93d b0a7 103e 86e1 24bd 777f f03d
00000270: a314 7e3d 47e0 cfbd 5cb0 c23d f3f2 d93d
00000280: aa58 2f3d aa3f 483e d3ec 7cba 327c b43d
00000290: 26b1 b5bd c332 9ebd 5511 693c 8a10 533c
000002a0: 3362 93bd bb6b 25bd 314f 973d 0045 ae3d
000002b0: b805 1fbd 19bf fbbc 2d2d 893d 36f2 633b
000002c0: f06a 2fbd 039b ee3d c0ec d4bc 77a7 653d
000002d0: 8802 e93c ea5f fbbd cb93 5e3c cdda 8dbc
000002e0: e6cd 033e 66c5 00bd 1a44 683d 78dc 213e
000002f0: 6cc2 7ebd 0540 31bd e373 263e 7498 423e
00000300: 8404 a83d 1edb 323d a036 073d aea3 cf3d
00000310: 47b0 f4bb bf90 613e 2541 24bd 9640 9a3b
00000320: 0a76 013d 392e b13d 004b d43d cea2 363d
00000330: 16f5 a7bc 1af3 b93d d588 113e 7641 a03d
00000340: 903b dbbc 1af5 f63d a183 aa3d 38f1 a03d
00000350: af11 253d b683 8e3d e17f 3fbd 3ec3 ee3d
00000360: 852b bf39 3b4f aa3d df69 9f3d 86b9 f43c
00000370: 6d68 043d 4946 ecbc fb81 dd3d d2aa b53d
00000380: a9c3 153c f33e 81bd 270c a4bc 4a51 4fbd
00000390: 4522 353d 4a4b 023d 70cd b33c ac38 83bd
000003a0: 48bf dcbc 0411 95bd 80fe 1bbe e747 b63d
000003b0: 17e9 bcbb f1f9 c4bd 4255 92bd 080b ae39
000003c0: 4b88 dcbd 9cb4 bb3d 8c33 a23c 20c3 383d
000003d0: d797 f23d 8501 0ebe e88f f83d 7b7c 33be
000003e0: 7283 163e 4b0e 193e 90ad b23d a391 cebc
000003f0: c596 4b3d c87f 8ebd e3cf 503c 7744 d73d

layers.1.lin_self.weight f4 [96, 96]
0.10542225 0.10881636 -0.100341335 0.06914304 0.028190566 -0.08768663 -0.10775994 -0.029331734
0.19363846 0.027638491 0.0062177265 -0.04537723 -0.056103166 0.09070274 0.00649333 0.113633566
-0.030398907 -0.105095804 -0.095772 0.148571 0.015019826 0.025889078 0.19041401 -0.05197093
-0.026915522 -0.073884554 -0.020677468 0.0071259844 0.031406682 -0.07069724 -0.0017289551 0.074635886
0.055329725 0.028819565 -0.022183465 -0.004007969 -0.030377405 0.06731293 0.06386923 -0.14722201
0.04669555 -0.13305141 0.07258047 -0.1134347 0.089231566 -0.06455513 -0.096835464 0.001522676
0.035772085 -0.1656694 0.05314735 -0.13048764 0.039495196 -0.018455388 -0.075714484 -0.009725562
-0.079170994 -0.025000973 0.03333644 -0.17008197 -0.030764677 0.033596218 0.0889355 0.059106104
0.1059123 0.07852573 -0.059654757 -0.0612557 -0.0989493 0.037615493 0.06855993 -0.07331227
0.12551248 -0.025693325 0.081081554 -0.004909025 0.079720125 -0.048586443 0.025189226 0.12291884
0.030080872 -0.059688583 0.06916711 -0.021169813 0.008829912 -0.12685397 -0.1404033 0.061627697
0.04798261 -0.0907538 0.11281854 -0.12076469 0.0033134297 -0.033001985 -0.055693742 0.045000177
0.05695969 0.027519342 0.06601896 -0.03775321 0.029152783 -0.07318423 -0.012275203 0.010187833
-0.10291137 0.045301005 0.09792004 0.007735425 -0.0010203552 -0.032680996 0.033573452 -0.0279682
0.11539012 0.046985313 -0.037653495 0.032508064 0.027218701 0.14966469 -0.11412488 -0.039795317
-0.011493119 0.025894267 0.10494237 0.06012573 0.12739907 -0.051561117 -0.05037309 0.05611906
0.093279906 0.13678612 0.04614682 0.024883443 0.079651244 0.092987835 -0.09367858 -0.012345055
0.014428808 0.0057071527 -0.028985264 -0.055691477 -0.02048297 -0.002845659 0.03701061 -0.04058439
0.1503726 0.05197849 0.13328639 -0.012379255 0.11263908 0.067964025 -0.06577775 0.07154803
0.041530933 -0.026062783 0.09253906 0.020953367 0.0031024017 -0.0018891968 -0.02641966 0.042686857
0.017406605 -0.021926686 0.117396966 -0.05343195 -0.046551373 0.06070323 0.13660276 -0.024187226
-0.018335804 -0.01488033 0.064031295 0.034113497 -0.03446949 -0.040875074 -0.03150264 -0.13164206
-0.022990897 0.006562002 0.062086616 0.099246085 -0.075539134 0.07022413 0.10283217 0.11766836
0.08001956 -0.004011505 -0.25157043 -0.017417293 -0.0065292483 0.011367846 0.09586342 0.14581063
0.06992087 0.003697119 0.048832156 -0.0214282 -0.08887512 -0.0042887195 0.021003623 0.03646188
0.008569609 0.0637633 0.10202236 0.043008022 -0.064751476 0.0141717605 0.035296563 -0.065698266
0.034099653 0.083079875 -0.03512232 0.08172106 -0.056322202 0.08162572 -0.034762546 0.08615061
-0.032412797 0.03831479 -0.036415555 0.01166674 0.069041066 -0.05795076 0.08766819 0.08493104
0.11525227 -0.02025126 0.05069621 0.10817279 0.050239205 -0.011865943 0.08788877 0.10123487
-0.02999713 -0.009569515 -0.014912828 0.11178313 0.020488687 -0.015452975 0.029316796 -0.028365409
0.11257857 0.059514362 0.039260115 -0.00073273253 0.06879784 0.11290759 0.07196374 0.09558112
-0.0041389978 0.0840031 -0.029551618 -0.04533632 0.077811785 0.03408331 0.029182505 -0.04193075
00000000: 9fe7 d73d 1ddb de3d c27f cdbd de9a 8d3d
00000010: e7ef e63c 0c95 b3bd 3eb1 dcbd 1b49 f0bc
00000020: 2949 463e 1e6a e23c 12be cb3b 79dd 39bd
00000030: 6fcc 65bd 5cc2 b93d 00c6 d43b b7b8 e83d
00000040: 2107 f9bc 783c d7bd 1c24 c4bd ff22 183e
00000050: b715 763c 5515 d43c e4fb 423e 78df 54bd
00000060: f17d dcbc c950 97bd cb63 a9bc 1781 e93b
00000070: 4ba4 003d b7c9 90bd 1b9e e2ba b3da 983d
00000080: 6ca1 623d 0217 ec3c 19ba b5bc 4855 83bb
00000090: 09da f8bc 5ddb 893d dfcd 823d 5ec1 16be
000000a0: d543 3f3d a13e 08be 12a5 943d 7450 e8bd
000000b0: 0abf b63d 7b35 84bd ac51 c6bd 8794 c73a
000000c0: c085 123d 3da5 29be 09b1 593d 8d9e 05be
000000d0: b7c5 213d c12f 97bc 3210 9bbd f757 1fbc
000000e0: 6724 a2bd d7ce ccbc ca8b 083d f829 2ebe
000000f0: 3406 fcbc 309c 093d d123 b63d 3e19 723d
00000100: 8ce8 d83d 19d2 a03d 8c58 74bd 42e7 7abd
00000110: eea5 cabd b412 1a3d 2669 8c3d be24 96bd
00000120: 5886 003e cf7a d2bc 160e a63d e3db a0bb
00000130: 4e44 a33d 9402 47bd a359 ce3c dfbc fb3d
00000140: 296c f63c 047c 74bd 7ca7 8d3d 516c adbc
00000150: 56ab 103c 02e6 01be e2c5 0fbe 536d 7c3d
00000160: 6a89 443d 21dd b9bd 680d e73d 7a53 f7bd
00000170: 2026 593b 172d 07bd 1f1f 64bd 1b52 383d
00000180: 904e 693d 3e70 e13c f334 873d 1ca3 1abd
00000190: d1d1 ee3c 9de1 95bd ef1d 49bc deea 263c
000001a0: 32c3 d2bd 8c8d 393d 4d8a c83d 7379 fd3b
000001b0: 70bd 85ba 82dc 05bd 5184 093d 911d e5bc
000001c0: a851 ec3d ac73 403d 8d3a 1abd 2d27 053d
000001d0: c1f9 de3c b341 193e 4eba e9bd 6a00 23bd
000001e0: a34d 3cbc 3720 d43c 06ec d63d 6646 763d
000001f0: e774 023e c031 53bd 0354 4ebd 19dd 653d
00000200: 8909 bf3d a911 0c3e 7304 3d3d 5dd8 cb3c
00000210: 3120 a33d 6870 be3d 8eda bfbd ea42 4abc
00000220: cf66 6c3c 1103 bb3b 8172 edbc bf1c 64bd
00000230: e7cb a7bc 3c7e 3abb 7098 173d d13b 26bd
00000240: 46fb 193e 66e7 543d 3a7c 083e 5cd2 4abc
00000250: 51af e63d b930 8b3d 7cb6 86bd c687 923d
00000260: 571c 2a3d 9e81 d5bc 1e85 bd3d 65a6 ab3c
00000270: aa51 4b3b ed9e f7ba 0b6e d8bc 6ad8 2e3d
00000280: 4c98 8e3c 989f b3bc d26d f03d 76db 5abd
00000290: a7ac 3ebd f3a3 783d 98e1 0b3e 4a24 c6bc
000002a0: f834 96bc a1cc 73bc d722 833d 98ba 0b3d
000002b0: e12f 0dbd 9f6c 27bd ea08 01bd 2dcd 06be
000002c0: 6857 bcbc 1006 d73b 894e 7e3d 8841 cb3d
000002d0: 43b4 9abd abd1 8f3d ac99 d23d 1cfc f03d
000002e0: 4ce1 a33d f172 83bb d7cd 80be b6ae 8ebc
000002f0: 4ef3 d5bb 3440 3a3c 0a54 c43d 624f 153e
00000300: ac32 8f3d 5d4b 723b 3a04 483d 318a afbc
00000310: 2904 b6bd 6388 8cbb ca0f ac3c 0d59 153d
00000320: 8c67 0c3c 5596 823d 19f1 d03d 2e29 303d
00000330: 6c9c 84bd ac30 683c 2193 103d d08c 86bd
00000340: 14ac 0b3d c825 aa3d 6cdc 0fbd 5f5d a73d
00000350: 1cb2 66bd 632b a73d 2c63 0ebd bb6f b03d
00000360: 48c3 04bd f8ef 1c3d 7a28 15bd db25 3f3c
00000370: 6765 8d3d c75d 6dbd 618b b33d 53f0 ad3d
00000380: 6209 ec3d f8e5 a5bc d4a6 4f3d b289 dd3d
00000390: a0c7 4d3d 5f69 42bc 07ff b33d 3a54 cf3d
000003a0: 8bbc f5bc 74c9 1cbc ef54 74bc 8eee e43d
000003b0: e4d7 a73c 7a2e 7dbc c729 f03c 935e e8bc
000003c0: 988f e63d 55c5 733d 37cf 203d d914 40ba
000003d0: e2e5 8c3d 183c e73d ba61 933d 09c0 c33d
000003e0: 6ea0 87bb d109 ac3d 3c16 f2bc 94b2 39bd
000003f0: c95b 9f3d f19a 0b3d 2610 ef3c 94bf 2bbd

layers.1.lin_self.bias f4 [96]
0.09273833 0.05219267 0.0857988 0.067882165 -0.04767845 -0.03518239 -0.012791026 0.124945
0.039118815 -0.045691095 0.045213077 -0.029594013 0.08816679 -0.046609905 0.03382243 0.14301948
0.045619793 0.13284531 0.124801084 0.038150847 0.12336538 0.024278358 0.11914007 0.13847528
-0.060422514 0.01768021 0.06717481 -0.031893015 0.20046957 -0.029300597 -0.04732134 -0.015180198
0.07217769 0.14350201 -0.05479036 0.0618659 0.06751148 0.14596239 0.13982694 -0.019272124
0.026756208 0.032299686 0.14393882 0.054261357 0.040603083 0.0717019 -0.03518059 0.045374084
-0.036512446 0.0014435253 0.1103835 0.06545832 0.009921579 0.11633124 0.06824847 -0.04021267
-0.039134134 0.088090986 0.123679735 0.13317972 0.07254097 -0.014735174 -0.02132495 0.054511473
0.102157444 0.036772694 0.07197576 0.113047265 0.08165829 -0.027257977 0.0394755 -0.02083866
0.043911226 -0.043503717 0.11014911 0.06452983 0.081208676 0.22440518 -0.041114867 0.056147225
-0.007355928 0.08397632 0.08249874 0.05485241 0.047660742 0.111115076 -0.0051486483 -0.022069536
-0.031722017 0.09255439 -0.06124956 0.014381245 0.081021294 -0.016126478 0.1212003 0.14010233
00000000: 98ed bd3d fbc7 553d 48b7 af3d ce05 8b3d
00000010: 7a4a 43bd 691b 10bd 7491 51bc 2ae3 ff3d
00000020: 0d3b 203d 9626 3bbd 5931 393d 256f f2bc
00000030: ca90 b43d 07ea 3ebd 6389 0a3d b373 123e
00000040: d2db 3a3d 9a08 083e b697 ff3d 1044 1c3d
00000050: fda6 fc3d 68e3 c63c b6ff f33d 77cc 0d3e
00000060: 997d 77bd 16d6 903c f292 893d 40a2 02bd
00000070: e547 4d3e ce07 f0bc 05d4 41bd 5db6 78bc
00000080: e6d1 933d 31f2 123e db6b 60bd 1967 7d3d
00000090: 7543 8a3d 2a77 153e cb2e 0f3e 93e0 9dbc
000000a0: d62f db3c ad4c 043d b364 133e 2841 5e3d
000000b0: 6b4f 263d 72d8 923d 8619 10bd 2dda 393d
000000c0: 138e 15bd ac34 bd3a bf10 e23d 030f 863d
000000d0: 1e8e 223c 133f ee3d dbc5 8b3d 0ab6 24bd
000000e0: 1d4b 20bd 0c69 b43d cd4b fd3d 4460 083e
000000f0: 5c90 943d cd6b 71bc a9b1 aebc 6c47 5f3d
00000100: ec37 d13d f79e 163d 0768 933d 5385 e73d
00000110: 763c a73d 1f4c dfbc 10b1 213d d6b5 aabc
00000120: 42dc 333d f430 32bd db95 e13d 3728 843d
00000130: bc50 a63d 79ca 653e 1068 28bd a2fa 653d
00000140: ff09 f1bb c7fb ab3d 19f5 a83d ecac 603d
00000150: e937 433d 4d90 e33d feb5 a8bb 2ccb b4bc
00000160: f2ee 01bd 288d bd3d d2e0 7abd 509f 6b3c
00000170: 7eee a53d ad1b 84bc dd37 f83d fc76 0f3e

layers.1.lin_neigh.weight f4 [96, 96]
0.0151216835 0.049226046 -0.07026389 -0.032339465 -0.045507893 -0.067092896 -0.009984576 -0.058654554
0.1637684 -0.061294578 -0.061656263 0.0114516355 0.010333458 0.10660351 -0.011898813 0.108933225
0.06532758 0.015064575 -0.09278727 0.09154527 -0.074698955 0.041863464 0.20445117 -0.10595641
-0.04949218 0.032249007 -0.12678446 -0.06167857 0.027250996 0.024311736 0.10677901 -0.025281582
-0.1006143 -0.08941968 -0.0014278621 -0.028842518 -0.07407493 0.019275432 0.049689166 -0.088257164
0.11377509 -0.021499656 -0.08795208 -0.053725198 0.08116866 0.093127415 -0.0020887463 -0.022569973
0.12973046 -0.10149655 0.048794154 0.024217011 -0.03989529 0.12404886 0.010626499 -0.054046106
0.08079109 0.087274946 0.10153919 0.021934263 0.046758812 -0.11057662 0.09271088 0.06475074
-0.053846363 -0.013325373 -0.038967915 -0.027145477 0.002600421 -0.053848132 -0.0060647256 -0.06441973
0.0365793 -0.00013068451 -0.047848277 0.047179025 0.026770025 -0.13617443 -0.044823717 0.17924538
-0.034810282 0.08758954 0.013686632 -0.0700249 -0.053744487 -0.049337085 -0.11488575 0.021241665
-0.11163723 0.05340734 0.10801746 -0.007792707 -0.0072732423 -0.006391329 -0.030836048 0.07365795
0.10698896 0.14165165 0.017765468 -0.015054081 -0.067965984 0.01899809 0.04207327 -0.00083245884
-0.1265577 0.04414691 0.13468617 0.12738822 -0.0044852328 0.12177849 -0.019348571 0.024277052
-0.0600994 0.12711172 -0.044180743 0.07814086 -0.08835627 0.13346837 -0.1440105 0.09000969
-0.059269324 0.021351863 0.09867662 0.14571615 0.041083716 0.10394777 0.10830672 0.11727602
0.1037324 0.025395587 0.047749452 -0.03261972 0.044336397 0.0906111 0.026675822 -0.045129225
-0.009524017 0.095166884 -0.033548422 0.119136825 -0.009580115 -0.013854088 0.02161465 0.019480102
-0.0487641 0.043369066 0.016951364 0.11285285 0.025161074 0.03335219 0.08540744 0.10971879
-0.11371786 0.012303724 -0.011856872 0.14193793 0.027625268 0.016743084 -0.006730933 -0.08903512
-0.050242435 -0.039831914 0.092896305 0.04586399 -0.040610746 0.04957906 0.0055217003 0.07953476
0.10839077 0.135409 0.035167854 0.14076702 0.13530587 0.019891132 -0.03452463 -0.11525956
0.115030505 0.044738654 -0.047731027 0.021805983 0.10333424 0.08544639 0.13016403 0.07905862
0.005699243 -0.090742275 -0.035683353 -0.0394097 -0.021499466 0.040880155 0.037526786 -0.032825716
0.08804306 0.07874497 0.015590797 0.018619467 -0.08599356 0.11254653 0.09718647 -0.040733173
-0.067378916 0.059023548 -0.052771166 -0.04590795 0.053702053 0.0072603035 -0.104438916 0.111139394
-0.036538925 -0.061448447 0.04296305 -0.03782898 0.08798712 0.035342705 -0.10020554 0.08134846
-0.012109586 -0.020672956 0.103265695 0.14785962 -0.06234014 0.09324566 -0.058260936 0.081708595
-0.04885918 0.02933557 -0.02803685 0.11446851 0.067689486 0.027405892 0.10698616 -0.04033161
-0.047637243 0.11489556 0.103426814 0.07191292 -0.010070227 -0.04250104 0.13490435 0.044707
-0.051604945 0.11868417 0.03419974 -0.06701864 -0.020706324 -0.04991906 0.0020327417 0.020614555
-0.09249435 0.09479904 -0.049298238 0.14496413 -0.055501856 -0.045968164 0.027197123 0.012510167
00000000: f0c0 773c 40a1 493d 84e6 8fbd 6376 04bd
00000010: 7c66 3abd 0068 89bd 5996 23bc c23f 70bd
00000020: e7b2 273e 0610 7bbd 478b 7cbd a49f 3b3c
00000030: aa4d 293c f152 da3d 3df3 42bc 6218 df3d
00000040: 77ca 853d 68d1 763c 4107 bebd 167c bb3d
00000050: c4fb 98bd 0679 2b3d a65b 513e adff d8bd
00000060: 50b8 4abd 8917 043d c9d3 01be aba2 7cbd
00000070: 7b3d df3c 6829 c73c f4ae da3d 521b cfbc
00000080: df0e cebd aa21 b7bd 1a27 bbba 2547 ecbc
00000090: 99b4 97bd 83e7 9d3c de86 4b3d 2cc0 b4bd
000000a0: ea02 e93d 0c20 b0bc 3820 b4bd f40e 5cbd
000000b0: c13b a63d 96b9 be3d 59e3 08bb aae4 b8bc
000000c0: 10d8 043e 6cdd cfbd 61dc 473d c162 c63c
000000d0: 3e69 23bd 540d fe3d c41a 2e3c 735f 5dbd
000000e0: cd75 a53d 35bd b23d c7f3 cf3d 7caf b33c
000000f0: 2b86 3f3d ff75 e2bd 34df bd3d 099c 843d
00000100: 018e 5cbd aa52 5abc d29c 1fbd 3160 debc
00000110: d36b 2a3b dc8f 5cbd 9bba c6bb 7eee 83bd
00000120: 2dd4 153d 5b08 09b9 8efc 43bd cb3e 413d
00000130: d04c db3c 4f71 0bbe 1399 37bd 1a8c 373e
00000140: 3a95 0ebd 2562 b33d e53d 603c 3769 8fbd
00000150: 2e23 5cbd af15 4abd 3849 ebbd 0003 ae3c
00000160: 0fa2 e4bd a8c1 5a3d 4238 dd3d f759 ffbb
00000170: 6154 eebb 5b6e d1bb e19b fcbc fbd9 963d
00000180: 071d db3d 210d 113e e388 913c 64a5 76bc
00000190: c031 8bbd e2a1 9b3c 0555 2c3d 5e39 5aba
000001a0: 5798 01be 64d3 343d 2ceb 093e 0f72 023e
000001b0: dcf8 92bb 0067 f93d e580 9ebc abe0 c63c
000001c0: ca2a 76bd 9329 023e def6 34bd 5108 a03d
000001d0: 22f4 b4bd efab 083e 7d77 13be 0057 b83d
000001e0: 64c4 72bd 1aea ae3c f816 ca3d 9d36 153e
000001f0: 6647 283d 92e2 d43d eacf dd3d 692e f03d
00000200: a771 d43d 680a d03c ee94 433d 419c 05bd
00000210: 159a 353d 5092 b93d 4187 da3c 6cd9 38bd
00000220: 9f0a 1cbc dbe6 c23d 126a 09bd 02fe f33d
00000230: eaf5 1cbc 42fc 62bc 3511 b13c bc94 9f3c
00000240: ddbc 47bd c3a3 313d 96dd 8a3c 651f e73d
00000250: 991e ce3c 4e9c 083d 19ea ae3d 3fb4 e03d
00000260: e9e4 e8bd 8f95 493c 5343 42bc 2d58 113e
00000270: 634e e23c cb28 893c 298f dcbb 0c58 b6bd
00000280: 03cb 4dbd ca26 23bd 6b40 be3d e1db 3b3d
00000290: 7457 26bd 6a13 4b3d 61ef b43b 1fe3 a23d
000002a0: fbfb dd3d a8a8 0a3e 2b0c 103d 3b25 103e
000002b0: 9f8d 0a3e baf2 a23c b369 0dbd 340d ecbd
000002c0: 1d95 eb3d e13f 373d 9c81 43bd 76a2 b23c
000002d0: e7a0 d33d 84fe ae3d b849 053e 7ce9 a13d
000002e0: b7c0 ba3b 16d7 b9bd b528 12bd 116c 21bd
000002f0: a61f b0bc f371 273d b0b5 193d 4274 06bd
00000300: eb4f b43d 0b45 a13d 8b70 7f3c da87 983c
00000310: 641d b0bd cc7e e63d b309 c73d d4d7 26bd
00000320: f5fd 89bd adc2 713d 9426 58bd f909 3cbd
00000330: aff6 5b3d d7e7 ed3b 12e4 d5bd 0d9d e33d
00000340: d7a9 15bd 5eb1 7bbd 06fa 2f3d 8ff2 1abd
00000350: 9732 b43d 83c3 103d 9038 cdbd 059a a63d
00000360: 4967 46bc 555a a9bc f77c d33d 8368 173e
00000370: 6058 7fbd 95f7 be3d 05a3 6ebd d656 a73d
00000380: 9020 48bd 2651 f03c 89ad e5bc 776e ea3d
00000390: c9a0 8a3d 5282 e03c 8f1b db3d c232 25bd
000003a0: 451f 43bd 5d4e eb3d 70d1 d33d 1547 933d
000003b0: 98fd 24bc 9215 2ebd 5e24 0a3e b01e 373d
000003c0: b55f 53bd b010 f33d 0715 0c3d 1241 89bd
000003d0: 4fa0 a9bc ee77 4cbd bf37 053b dbdf a83c
000003e0: ae6d bdbd 0026 c23d f3ec 49bd 7a71 143e
000003f0: ea55 63bd 1d49 3cbd 80cc de3c 72f7 4c3c

layers.2.lin_self.weight f4 [96, 96]
0.071934685 -0.041217636 0.029148081 0.016768444 -0.06814617 -0.1221092 0.0669933 -0.022257147
-0.08423408 -0.025186956 -0.011701753 -0.09827149 0.057392716 0.056693826 -0.01930042 0.058290068
-0.04921457 -0.011023252 -0.0872612 0.027780667 -0.08104993 -0.019664066 -0.089244835 0.07360677
-0.023883289 0.05146396 -0.03156182 0.0131631335 0.015532534 -0.039699562 0.0044698627 0.019234557
-0.04464562 -0.012707336 -0.017858077 0.123431504 0.031763677 0.012835007 -0.10516378 0.05028512
-0.030310031 -0.026995774 -0.040957782 -0.0382872 0.17474964 -0.04587473 -0.12541418 0.023554657
-0.108818196 0.09193406 0.030403448 0.060820825 -0.055674143 0.077522844 0.032504708 0.069916196
-0.027483111 -0.04528923 0.098986484 -0.035174545 0.0027312264 0.02797364 0.060971495 0.014610366
-0.055279966 0.118470654 -0.04768799 -0.059233204 -0.019588836 0.0142753525 -0.0998012 -0.06444205
-0.05912352 -0.016478747 0.07137019 -0.068813026 -0.05016878 0.19831255 0.016770268 -0.03894612
0.023381313 -0.065984614 -0.00049926253 -0.052004676 0.023437558 0.027306577 0.0677452 0.05164162
0.00064190105 0.06375489 0.11437064 -0.07019808 0.0035101345 0.00052545953 -0.04074767 0.047059357
0.2311183 0.0038638636 -0.015916584 0.028517978 -0.09712265 0.038098324 -0.041794516 -0.06915978
-0.016553216 0.0986991 -0.054034095 -0.07279775 0.1835329 -0.03135063 -0.047040258 0.02394464
0.03446117 0.01769829 0.08203511 -0.10267143 -0.056797113 0.047753256 -0.09840097 0.15530819
0.027517281 0.0027904864 0.01255471 -0.074232325 0.16100508 -0.06680059 0.0032142054 -0.01365283
0.06925825 -0.08839988 -0.072287306 0.22909209 0.09096452 -0.015125519 0.041803636 -0.015845936
0.07165005 -0.07221811 -0.06173387 -0.01337237 0.003253013 0.04689102 -0.0648718 0.051518913
-0.10446718 -0.06484887 -0.036055867 0.004772353 0.08905793 0.0369497 -0.07562945 -0.101612076
0.02772362 0.022035934 0.056540355 -0.0984606 -0.06453394 0.05239433 0.07130336 -0.0016311668
-0.0904639 0.22270799 0.02903327 -0.05701095 -0.045141388 -0.0012160055 0.07750763 -0.024230426
0.039551083 0.028791972 -0.07454717 -0.0997396 0.057236087 0.07887876 0.037127484 0.05022169
-0.0046587423 -0.074713066 0.07229416 -0.055002697 0.11876622 0.11104895 0.05793757 0.09642911
-0.047483243 0.04559253 -0.101153545 -0.035539836 0.065229185 -0.10283252 0.026130127 -0.056481257
-0.1324886 -0.06832962 -0.024628699 0.059464056 0.11997719 0.033059847 0.024114514 -0.043064296
-0.04350098 -0.0580135 0.10051335 -0.04375756 0.0058015687 0.057550736 -0.0321037 -0.04669538
-0.011222221 -0.0760632 0.13505541 -0.04554367 -0.06325566 -0.051323514 0.030548248 0.020060966
-0.062654324 0.02507712 0.00687894 0.018666955 -0.050892483 -0.011415084 0.06669539 0.027595308
0.105718516 0.10214401 0.017995566 -0.144884 0.029899394 -0.05241838 0.05875104 0.022915302
0.014443058 -0.08008838 -0.03593434 0.06392992 0.11161175 -0.027011884 -0.07094211 0.032902706
0.065603144 -0.018136092 0.0017374705 0.12126405 -0.03325268 0.06366849 0.0120116975 0.11182395
0.0766647 0.06420373 0.08611085 0.013676122 -0.002916452 -0.058096558 0.12620999 0.088234596
00000000: 7e52 933d d3d3 28bd f5c7 ee3c fa5d 893c
00000010: 3890 8bbd 6314 fabd c933 893d 9f54 b6bc
00000020: eb82 acbd e054 cebc b6b8 3fbc 9042 c9bd
00000030: a014 6b3d c937 683d ea1b 9ebc 91c1 6e3d
00000040: 3895 49bd df9a 34bc 00b6 b2bd 4894 e33c
00000050: 81fd a5bd 8916 a1bc ffc5 b6bd 25bf 963d
00000060: e3a6 c3bc e0cb 523d f846 01bd 2faa 573c
00000070: 2b7c 7e3c 029c 22bd ed77 923b ca91 9d3c
00000080: 53de 36bd 6e32 50bc 1a4b 92bc a8c9 fc3d
00000090: a11a 023d ec49 523c 1c60 d7bd c5f7 4d3d
000000a0: be4c f8bc 3e26 ddbc 59c3 27bd 0ad3 1cbd
000000b0: 92f1 323e 24e7 3bbd 936c 00be b2f5 c03c
000000c0: 13dc debd ed47 bc3d a710 f93c 421f 793d
000000d0: 920a 64bd 4cc4 9e3d a823 053d 3930 8f3d
000000e0: 4324 e1bc 3381 39bd 6db9 ca3d 2f13 10bd
000000f0: 60fe 323b fa28 e53c 3fbd 793d 5160 6f3c
00000100: 3f6d 62bd bea0 f23d 7b54 43bd 849e 72bd
00000110: c478 a0bc 2be3 693c 9264 ccbd 32fa 83bd
00000120: 812b 72bd 70fe 86bc 892a 923d d8ed 8cbd
00000130: c77d 4dbd 7212 4b3e cd61 893c f785 1fbd
00000140: 2b8a bf3c f122 87bd f1e0 02ba db02 55bd
00000150: 1f00 c03c 0bb2 df3c ffbd 8a3d 2a86 533d
00000160: 4045 283a ec91 823d 273b ea3d 03c4 8fbd
00000170: 490a 663b febe 093a 07e7 26bd 50c1 403d
00000180: 47aa 6c3e e038 7d3b 7f63 82bc 899e e93c
00000190: 3de8 c6bd fd0c 1c3d ba30 2bbd a5a3 8dbd
000001a0: 9c9a 87bc c122 ca3d db52 5dbd fd16 95bd
000001b0: 0cf0 3b3e 8569 00bd 49ad 40bd 8d27 c43c
000001c0: 2827 0d3d 01fc 903c 0602 a83d 6645 d2bd
000001d0: 17a4 68bd eb98 433d 7386 c9bd 1c09 1f3e
000001e0: ec6b e13c 98e0 363b 45b2 4d3c 1e07 98bd
000001f0: 84de 243e bfce 88bd 6ba5 523b 1fb0 5fbc
00000200: 45d7 8d3d ff0a b5bd 5e0b 94bd 1e97 6a3e
00000210: 9b4b ba3d 06d1 77bc 4a3a 2b3d 56cf 81bc
00000220: 43bd 923d 17e7 93bd a8dc 7cbd c917 5bbc
00000230: 8030 553b cc10 403d 82db 84bd 7f05 533d
00000240: e4f2 d5bd 7ccf 84bd 51af 13bd 6661 9c3b
00000250: 0164 b63d 9258 173d 9de3 9abd fe19 d0bd
00000260: a51c e33c b484 b43c dc96 673d b6a5 c9bd
00000270: 5f2a 84bd 709b 563d 7f07 923d e0cc d5ba
00000280: 2345 b9bd 900d 643e 2ed7 ed3c 5084 69bd
00000290: 2de6 38bd 6062 9fba 52bc 9e3d e37e c6bc
000002a0: 5100 223d 24dd eb3c 30ac 98bd 4744 ccbd
000002b0: 6370 6a3d 308b a13d fd12 183d 42b5 4d3d
000002c0: 5da8 98bb 2a03 99bd f60e 943d 824a 61bd
000002d0: b43b f33d a26d e33d f24f 6d3d a07c c53d
000002e0: ca7d 42bd 3cbf 3a3d 9729 cfbd 3892 11bd
000002f0: e196 853d db99 d2bd d90e d63c e458 67bd
00000300: 17ab 07be 66f0 8bbd 20c2 c9bc 9590 733d
00000310: 9ab6 f53d c369 073d cd8b c53c 3064 30bd
00000320: 152e 32bd 909f 6dbd f1d9 cd3d 213b 33bd
00000330: 161b be3b 52ba 6b3d 2b7f 03bd a843 3fbd
00000340: 68dd 37bc 06c7 9bbd f74b 0a3e 008c 3abd
00000350: 2f8c 81bd 9b38 52bd 5240 fa3c e556 a43c
00000360: e950 80bd 886e cd3c bb68 e13b 71eb 983c
00000370: a374 50bd 5506 3bbc 9897 883d 8e0f e23c
00000380: f382 d83d e130 d13d 706b 933c 795c 14be
00000390: 93ef f43c a8b4 56bd eea4 703d dfb8 bb3c
000003a0: 93a2 6c3c 6005 a4bd e32f 13bd b1ed 823d
000003b0: b494 e43d 0748 ddbc 194a 91bd fdc4 063d
000003c0: f15a 863d 2492 94bc d6bb e33a 4959 f83d
000003d0: f633 08bd a064 823d b6cc 443c f503 e53d
000003e0: 6202 9d3d 3f7d 833d e35a b03d d011 603c
000003f0: f221 3fbb a8f6 6dbd 313d 013e 57b4 b43d

layers.2.lin_self.bias f4 [96]
0.09142137 0.1593618 0.18209448 0.0024408905 0.10455406 0.18468504 0.15841636 0.17436473
-0.047052417 0.045420356 0.13980521 0.07660494 0.11742847 0.016834388 0.14755781 0.023815652
0.04460503 0.014890287 0.11329999 0.016562812 0.08363383 -0.08362453 0.027233902 0.0204692
-0.018270403 0.07573312 0.040525917 0.015134974 0.0032564495 0.13204944 0.0016026656 0.065322444
0.10263984 0.09766172 0.07315738 0.11430921 0.038726714 -0.016318263 0.24602802 0.06760087
0.011061638 0.03049315 0.18412784 0.16800468 0.16254684 -0.02655038 0.040733308 -0.09442304
0.037884485 0.113129154 0.020771993 0.06927868 0.021656776 0.18568806 0.14168891 -0.0011794665
0.12432202 0.15860558 -0.015193577 0.24013497 0.01514992 0.09206325 0.16502815 0.057325896
0.13961428 0.030819297 0.14499995 0.04895446 0.00497686 0.123140685 0.06610786 0.059884787
0.025336454 0.17450917 0.078650594 0.050948653 -0.042812575 0.25575984 -0.011022702 0.16098309
0.05857608 0.017448977 0.085281976 -0.041102514 0.0647216 0.14998305 0.1033445 0.17305683
0.06299678 0.16960908 0.050470836 -0.005219818 0.14484195 0.06140449 0.18911348 0.15886246
00000000: 213b bb3d bd2f 233e fa76 3a3e 59f7 1f3b
00000010: 7020 d63d 131e 3d3e e637 223e ab8c 323e
00000020: 09ba 40bd b20a 3a3d 1929 0f3e 0de3 9c3d
00000030: 567e f03d 45e8 893c 6519 173e 0b19 c33c
00000040: c4b3 363d 64f6 733c d309 e83d bcae 873c
00000050: 3748 ab3d 5643 abbd a219 df3c 06af a73c
00000060: d0ab 95bc f719 9b3d 81fe 253d aff8 773c
00000070: 286a 553b f837 073e 8910 d23a c6c7 853d
00000080: d634 d23d de02 c83d 89d3 953d f21a ea3d
00000090: e79f 1e3d e1ad 85bc c5ee 7b3e 5372 8a3d
000000a0: df3b 353c c5cc f93c 028c 3c3e 6b09 2c3e
000000b0: ae72 263e 2f80 d9bc f8d7 263d de60 c1bd
000000c0: c32c 1b3d 42b0 e73d 072a aa3c fbe1 8d3d
000000d0: 8d69 b13c 0325 3e3e e616 113e 5498 9aba
000000e0: 8b9c fe3d 8069 223e 7bee 78bc f1e5 753e
000000f0: 5f37 783c a88b bc3d 24fd 283e 8fce 6a3d
00000100: 0cf7 0e3e c078 fc3c de7a 143e 7984 483d
00000110: ed14 a33b 2f31 fc3d 8f63 873d c049 753d
00000120: 658e cf3c 88b2 323e 9013 a13d 89af 503d
00000130: 3d5c 2fbd f4f2 823e 9098 34bc c0d8 243e
00000140: 79ed 6f3d 28f1 8e3c 51a8 ae3d 1c5b 28bd
00000150: c28c 843d 2895 193e 48a6 d33d cf35 313e
00000160: 7504 813d 01ae 2d3e 82ba 4e3d 020b abbb
00000170: 7351 143e 4683 7b3d f7a6 413e d7ac 223e
