runs/dumbbell_seed3/models/nowcast_sage_seed999.pt (torch, 272416 bytes, 14 tensors)

in_lin.weight f4 [96, 15]
00000000: a55c 233e 1cfb 9d3d f98a 2dbe 0ef3 4f3e
00000010: a8a1 7cbb 67d0 833e 55be 563e ad7a 68be
00000020: 5635 b8bd 23c1 833e e87e 50be adb6 28be
00000030: 4e61 8abd f542 0b3c 530c 673e 2b5d 82be
00000040: a635 1d3e 31cf d7bd db63 b03c 43eb 1abe
00000050: d44b 10be 53fd 143e 2c13 973e 5a76 143e
00000060: 8799 fc3d b7c8 a8bc bde4 2b3e 5b1e 02be
00000070: a78e 79be 7571 5ebc f5fb d2bb e5ce 5bbe
00000080: bd5e db3d 6438 ca3c e6dc e93d 052b 8ebd
00000090: bf95 8b3d 714e 243e 6a73 2abe 59dd 9b3d
000000a0: a78c a6bd 339d ae3e d08e f5bc 48bb c23d
000000b0: 096f 873d d4d2 953c 780e df3c ad55 90bd
000000c0: a7c1 56be 9ff3 153e 3a64 593e b7ff 453e
000000d0: 4370 14be cbbe 3abe f89c 0d3e 2195 ef3d
000000e0: b6ec 843e f82e 683e 1b2c 32be 2ef2 4fbe
000000f0: 2bc5 7cbe a609 26be 8525 3fbe f925 733e
00000100: 2b9a e1bd c453 11be efab 4dbe 93cb ac3e
00000110: 72f5 513e a059 0ebe bad3 adbd f02a ab3e
00000120: 474d a7bd aa76 75bd f791 803d 2aed d03d
00000130: 74c7 4dbd 57b5 28be 6590 28bd 1eab 343e
00000140: ca40 51be 3653 2fbe cb88 ba3e e8d9 c13c
00000150: a7f3 1fbe dedd 2a3e 1a4f 913e b318 3a3e
00000160: de03 83bd 831c 53be 4655 3b3e 899e 7fbd
00000170: f9fc 2c3e 0095 883d f5e9 acbd 04b6 43be
00000180: 70ab 2d3d 3ab6 dfbd b3b1 39be 4e33 eebc
00000190: 1205 333e bfad 723c bb2f 453d 8013 e03d
000001a0: 7983 073e 6d9d 56be 3410 513d 8391 29be
000001b0: 331c 5dbe f951 8d3d 360c 0d3d b7e1 373c
000001c0: 8183 a83e 17ee 76be 3a09 4dbe 9dd8 65be
000001d0: 0214 883e 894e 6f3e a8ef 02be a306 45be
000001e0: 6e7f 1dbe 39ef 9ebd 5bcc 553e 982d 02bd
000001f0: 78de 00be f331 f3bc 3477 a9bd 3ce8 fb3d
00000200: effd b2bc 3b71 2abd 4673 2a3e 3aa5 2bbe
00000210: 5e67 063e 7525 ac3d 4686 13bd 76fd 7fbe
00000220: 8fa7 41be 4022 3cbe d094 ab3d 0210 5bbe
00000230: fca9 6b3e bd56 6c3e 6433 863e d6c8 31be
00000240: 5a65 653e 20ac 22be 4e32 8f3e 3451 5e3e
00000250: b25e f8bd 3262 c83d 2e49 1cbe 42bb 223d
00000260: f2bd 133d a555 6e3e 8164 d73c 7141 83be
00000270: 89a8 06be 3bd5 b3be b0e3 1a3d 4706 15be
00000280: 5dca bb3d e937 14be fc49 b9bd 35eb 46be
00000290: 6f58 70be 957a 2dbe 0187 273e b543 283e
000002a0: a487 4fbd e295 cbbd 03dd 1e3e 6838 5d3e
000002b0: 9667 92bd 1e2e 823e 292a 60bc 60bf 02be
000002c0: 18ab 833e edb8 733e 994c e5bd 08ea 113e
000002d0: caaf 21be ff65 2e3e c9a3 02be 7638 223e
000002e0: 032a 6ebe 40ee 8abd 433f 543e e59a a03e
000002f0: 4838 7b3b b06e ddbc ca8b e93d aeea a83d
00000300: af0a 43be 5ce4 86be 251a 23bd ff3b 53be
00000310: 62de 5fbe 7609 6d3e 06aa dbbb 2ad8 2e3e
00000320: 7bf9 8dbd 7383 86bd 846a c5bd 256d a5bd
00000330: 9a8c 993e 83f8 2f3e e76a f5bd 7474 d03d
00000340: 2301 d03d 9706 143c 0cdd 55be 1676 4cbd
00000350: 837b 49be d42d 203e 76ff 803e 8693 a4bd
00000360: 5caa 1ebe aac7 a13e 90d2 803e 65c0 2c3e
00000370: 1281 b63d cf15 5f3e 16a4 b7bc 5ca4 dfbc
00000380: 8fb5 e8bd 6035 82bd 33a1 3abd 5a38 61be
00000390: 846e 7f3d 683b 79be 43be 2f3e c9e2 51be
000003a0: b0b1 9f3e 8a08 d93c 2afc f73d ef06 2fbe
000003b0: d50f 813e 580c d23c 672f bfbd bd4a 99bd
000003c0: 3742 20be 29dc 3cbd d1ef 213d 1adc 533e
000003d0: e01d 02be aea4 0ebd 7f74 1c3d c810 62be
000003e0: a40b a1bd 7293 a3bd 8aa6 d73d 6fef 2e3e
000003f0: 46cc 93be af30 813e 473a 0f3e a4a1 593c
0.1595331 0.07713911 -0.16947545 0.20307562 -0.0038548503 0.25744936 0.20971043 -0.22703047
-0.08994548 0.2573329 -0.20360911 -0.16475935 -0.06756841 0.0084998505 0.22563295 -0.25461707
0.15352497 -0.105375655 0.02153199 -0.15128808 -0.14091426 0.1454976 0.29506814 0.14498273
0.123339705 -0.02060352 0.16786475 -0.12706892 -0.24370824 -0.013576855 -0.006438727 -0.21465643
0.10711429 0.024685092 0.11419086 -0.06941799 0.06815671 0.16045548 -0.1664559 0.07610578
-0.08132296 0.34104308 -0.029975325 0.09508377 0.06612975 0.018289007 0.027228579 -0.07047591
-0.2097231 0.14643715 0.2122964 0.19335829 -0.1449595 -0.18236844 0.1382941 0.11698366
0.25961846 0.22674167 -0.17399637 -0.20307228 -0.24684589 -0.16214618 -0.18666656 0.23744954
-0.11015733 -0.1419211 -0.20085119 0.33749065 0.20503786 -0.13901377 -0.08487649 0.33431196
-0.08169036 -0.05992762 0.062778406 0.102014855 -0.05023904 -0.16475426 -0.04115333 0.17643401
-0.20434871 -0.17121586 0.3643249 0.023663476 -0.1562029 0.16686198 0.28380662 0.18173485
-0.06397222 -0.20616345 0.18294248 -0.06240705 0.16893376 0.066690445 -0.08443061 -0.19112402
0.042399824 -0.10923429 -0.18134193 -0.029077198 0.17482403 0.014811932 0.048141222 0.10941219
0.13233747 -0.2095849 0.051040843 -0.16559415 -0.21592788 0.06900401 0.034435473 0.011223248
0.3291283 -0.24114262 -0.20023051 -0.22445913 0.26577765 0.23369803 -0.12786734 -0.19240813
-0.15380642 -0.07760472 0.20878737 -0.031781763 -0.12584865 -0.029686904 -0.08274689 0.123001546
-0.0218496 -0.04161189 0.16645536 -0.16762248 0.13125369 0.08405582 -0.036016725 -0.24999031
-0.18911575 -0.1837244 0.08377993 -0.21392825 0.23014063 0.23079963 0.26211083 -0.17361769
0.22401944 -0.15885973 0.27968067 0.21710664 -0.12127437 0.09784354 -0.15262291 0.039729364
0.036069818 0.23274858 0.026293041 -0.25635865 -0.13150229 -0.3512362 0.037814796 -0.14553176
0.09169457 -0.14474453 -0.090473145 -0.19425662 -0.23471235 -0.16941293 0.16360094 0.16432078
-0.050666466 -0.09940697 0.15513997 0.21603549 -0.07148664 0.2542581 -0.013681927 -0.12768316
0.25716472 0.23801012 -0.111962505 0.14249432 -0.15789714 0.17031096 -0.12757792 0.1584185
-0.23258214 -0.06783724 0.20727257 0.31368175 0.0038333107 -0.027030319 0.11403616 0.082478866
-0.19047044 -0.263461 -0.039819855 -0.20628355 -0.21862176 0.2314814 -0.006703618 0.17074648
-0.0693235 -0.06568041 -0.09639457 -0.08077458 0.29990083 0.17184643 -0.11983281 0.10178462
0.10156467 0.009034774 -0.20885104 -0.049917303 -0.19676022 0.15642482 0.251949 -0.0803595
-0.15494674 0.31597644 0.25160646 0.16870268 0.08911337 0.21785663 -0.02241711 -0.027300052
-0.113627546 -0.06357837 -0.045563888 -0.21994153 0.062361255 -0.24339068 0.17162423 -0.20496668
0.31190252 0.02649333 0.12108643 -0.17092489 0.2520739 0.025640652 -0.09335213 -0.07484958
-0.15650259 -0.0461084 0.039535347 0.20689431 -0.12706709 -0.03482502 0.038197037 -0.22076714
-0.078635484 -0.07987107 0.10529812 0.17083524 -0.28866786 0.25232455 0.13987075 0.013283167

in_lin.bias f4 [96]
00000000: b414 6c3e 22bc 8c3d 3833 893e 363a 53be
00000010: ad4d fc3d 2773 2ebe 6a3d 91bb 24b1 dbbd
00000020: 1bc4 6e3d c5f8 eebd ed63 b5bd 6647 36bb
00000030: 70a4 7dbc 6c04 363d 0259 c4bb 5554 33be
00000040: f858 853c a132 2abb 70e9 93bc a08e 5a3e
00000050: 4912 8b3d 2b8b f43c 7117 e3bb 85f2 f0bd
00000060: eee7 4fbe 13ac 1ebe bd09 7cbd fb25 3b3e
00000070: bde6 03bd 0641 6dbe ecc7 7cbe 7c14 4d3e
00000080: b8d9 0bbe a7c3 f6bc 4c84 423b d8dd 6a3e
00000090: 3d0a 87bd 0803 373e 18cd d93c ee65 633d
000000a0: 6bf3 74be fd1a 1d3e b86c 2c3d 2f48 63bd
000000b0: 895b f73d 8613 71bd fea2 8e3d b846 64be
000000c0: 1610 773e 2052 2e3a 1a8c 553e 772e 43bd
000000d0: 7dd2 febd d773 5f3e e6b6 f63d 558b 043e
000000e0: 8951 9abd 8f8a 4bbc 4d75 103d 26e8 c63d
000000f0: 1114 61be 75fe 60be 51b3 e93d 3673 afbb
00000100: 6976 563e ac41 0b3e 658f 4b3e d0c4 6dbd
00000110: 565b 0a3d ea24 193e e135 24be 6aaa 85be
00000120: 4fe6 5b3e e305 463e ab8d 3bbe 3fae 7b3e
00000130: 0d03 8ebd 1e13 32be 6dc7 363e 3512 aa3d
00000140: abc1 02be ee59 323d dd90 66bd 2319 3b3e
00000150: 6fba a7bd 8f76 593d 00f7 ff3d 17f1 96bc
00000160: 3c2e 783e c47b 3bbe d67d 51be 5758 86bd
00000170: a83c 9fbd 8554 15bd 0fe5 0ebd 86a5 ee3d
0.23054773 0.06871821 0.2679689 -0.20627674 0.12319503 -0.17036115 -0.00443237 -0.10727146
0.05829249 -0.11668543 -0.0885695 -0.0027813553 -0.0154810995 0.04443781 -0.005992056 -0.17512639
0.016277775 -0.0025970119 -0.018055648 0.2134347 0.06790597 0.029851517 -0.0069302847 -0.11765007
-0.20303318 -0.15495329 -0.061532725 0.18276207 -0.03220247 -0.23169336 -0.24685639 0.20027345
-0.13657272 -0.030122591 0.0029680906 0.22936189 -0.0659375 0.1787225 0.026587054 0.05551713
-0.23920982 0.15342326 0.04209587 -0.05548876 0.12078006 -0.05885651 0.06964682 -0.22292602
0.2412723 0.0006649811 0.20854226 -0.047651734 -0.12442491 0.21821533 0.12046604 0.12943776
-0.07535083 -0.012423172 0.035268117 0.097122476 -0.21980311 -0.21972068 0.11411155 -0.0053543104
0.20943607 0.1359927 0.1987892 -0.058049023 0.03377851 0.14955488 -0.16036178 -0.26106578
0.21474575 0.19338183 -0.18315761 0.24578188 -0.06934176 -0.17390105 0.17849512 0.08304254
-0.12769191 0.043542795 -0.056290496 0.18271308 -0.08189856 0.053091582 0.124982834 -0.018425507
0.24236387 -0.18308932 -0.20458159 -0.06559818 -0.07775241 -0.036457557 -0.034886416 0.11652665

layers.0.lin_self.weight f4 [96, 96]
00000000: 7656 f1bc b7b3 a0bd 65e1 8f3c 3346 dfbc
00000010: 0702 2ebd cf02 583d 61dd c73d 5ac4 dd3c
00000020: 6f9e e13d 73a0 f83c 6414 f2bd d641 12bd
00000030: ce61 28bd ea18 19bc d68a 16bd fbed ff3d
00000040: 9d18 133d 3510 94bd ffa5 803c 4390 b23d
00000050: ee94 17bd a8f5 85bd a5d7 dbba 9339 bb3c
00000060: 8536 dbbc 65f3 2b3d d8f3 bd3d 906e 4e3d
00000070: ba04 e33d 1f40 aabb 5fe4 46bd 330a d83d
00000080: 999c 97bd 03c8 b73d d837 d43d a800 5a3d
00000090: 0a01 b2bd c8ef 193d 8fc7 f93d 3bd5 abbd
000000a0: 9887 abbd ce73 6d3d 7bd6 853d 769c 6c3d
000000b0: abc6 213d 2d33 8e3b 4ed0 a13d 7f32 cfbc
000000c0: 7866 753d 8935 133e fd02 b53d 3f9e 93bc
000000d0: 57a6 c93c d7ce c63d 8e2c 933d c032 5fbc
000000e0: cca6 e8bd a8d1 ac3c aa81 6e3d 5e39 a93b
000000f0: ee15 d6bd e8aa 423d cb8d c13d 981b 2fbb
00000100: 4fd4 eb3c 6d48 a6bd ec8c 3bbc d89f f0bd
00000110: ede1 03bd aa17 813d 70df 1e39 b5ed e5bd
00000120: f418 a1bc 8f69 f1bc 157c 9f3d af18 4abc
00000130: 3071 8a3d 3cb0 afbd d659 a2bd 4311 c1bd
00000140: ea1e 03bc 416f 013d acfd 88bd 9be0 8b3c
00000150: 19f2 edbc 8793 6f3d 4f32 573d 3495 203d
00000160: 0494 d3bc 9ec2 53bc ed58 84b9 0a25 fc3d
00000170: 0be8 68bd bc8d abbd 5e27 c33c 5ba6 023e
00000180: 6ddf 37bd 6c15 b93d 3d6c d8bc f698 dc3c
00000190: 52cd 0ebb 33c3 0d3e 9786 b53d 4cd9 a53d
000001a0: 7e00 87bd 6700 cb3d 33e1 15be b515 f03b
000001b0: 9138 72bc 5bc1 93bd 9866 25bd a38a 423a
000001c0: 6435 00bc 6553 8dbd 8603 e13d af6d 483d
000001d0: a588 f13c ceaa b13d 35dd 83bb b8e1 1fbe
000001e0: f17b 013d 590d 85bd 6bce 7439 2b64 c7bc
000001f0: a1fc 9abc 43c6 22bd 8cad 92bd 0a49 8dbd
00000200: 3674 1a3d 7415 663e 62fb dc3c f803 093e
00000210: 6042 a53d 492e 5abd ad6f 41bd e32e eebd
00000220: 5ced d0b9 3eed 603d 122e 143d d490 8e3d
00000230: ee8d 4d3d a26f 163d 87ab be3c 6765 3b3d
00000240: 0a66 db3d ecd9 b93d 9f52 6ebd a144 48bd
00000250: 5ce7 c83d 81ce 0a3e 4709 003e 5607 40bd
00000260: 4f3b 29bc 6d3e c0bb 55b3 243d e820 54bd
00000270: 2273 97bd 4cba d3bc 11e0 4b3b 8fee a53d
00000280: 6263 74bd 2d35 ac3d 2112 0a3e 9a17 a8bd
00000290: f600 55bd 0d5f 6abd 7b91 a93d f207 8a3a
000002a0: 02ce f83b 4464 9abd b7d4 b4bc 3d68 cc3d
000002b0: a204 c13d ac9b d3bd 615f 753d 1b04 b13d
000002c0: 6750 f3bd 38a1 a13d 6e6b da3c 5d92 443c
000002d0: fa5d 4c3d 31f0 a43d ff93 06bb 3663 153e
000002e0: 2f26 2fbd 5d3e 0c3e 5631 52bd 2419 9ebd
000002f0: e216 783d 44a5 14bd 4c9a b33d 24bc a4bc
00000300: cd76 0e3c b4a9 503d 96ee 87bb 9918 a23c
00000310: 0024 723d 4aa0 bc3d c1dc abbd c12e 033e
00000320: 653f 673d ad94 e63d 91f1 f8bd 3a29 a9bd
00000330: 785a 763c 0b6b 593d 9d8c bcbb 0b23 07bd
00000340: f122 0dbd 8d57 cd3c 5a9e 5abd 4666 9dbd
00000350: 7dd9 5a3c c589 94bb 8bb0 8bbc a38e 35bb
00000360: fa3a 99bd 4335 d43c f7d4 7fbd bc51 823d
00000370: 9dd1 a2bd f96c f93c e1d0 67bd c165 4abd
00000380: fdc3 e33d e55e f33d 71ae f33d c6a9 77bd
00000390: b0d2 efbc 81d0 f4bc a575 993c 9e01 f9bc
000003a0: 15a6 583d d4cc b53c db9a 9d3c 2716 be3b
000003b0: 15db b9ba bf5c 0b3c 0638 aabd 8385 453c
000003c0: 347a 30bd 9707 943d b194 92bc 0868 febd
000003d0: fff7 9dbc a1e4 8cbc 9d66 70bd d0da 2d3d
000003e0: e4b5 9bbb a7f3 c5bd f5b8 c13d b971 183d
000003f0: cc21 76bd c9aa 2d3d 2726 79bd 57b4 0c3d
-0.029460173 -0.07846778 0.017563531 -0.027255153 -0.042482402 0.052737053 0.097590216 0.027071167
0.11016547 0.030349946 -0.118202955 -0.035707317 -0.0411089 -0.009344319 -0.036753498 0.12496563
0.035912145 -0.07229654 0.015704153 0.08718922 -0.037007265 -0.06540996 -0.0016772641 0.022854602
-0.026759395 0.041980166 0.09275025 0.05039841 0.11084886 -0.005195632 -0.048557635 0.1054882
-0.074029155 0.08973696 0.10362214 0.053223282 -0.086916044 0.03758219 0.12196266 -0.0839028
-0.08375472 0.057971768 0.065350495 0.0577664 0.039496105 0.0043395967 0.07901059 -0.025292633
0.059912175 0.14375891 0.088384606 -0.018019794 0.02461545 0.0970742 0.071862325 -0.01362294
-0.11359939 0.021096066 0.058229126 0.0051643094 -0.104534015 0.04752627 0.09450873 -0.0026719328
0.02878776 -0.08119283 -0.011447173 -0.11749238 -0.03219788 0.06303342 0.00015151291 -0.1122698
-0.019665219 -0.02946928 0.07787339 -0.012334987 0.0675987 -0.08578536 -0.07927291 -0.094271205
-0.008002976 0.03160024 -0.06689009 0.017074874 -0.029046105 0.058490302 0.052538212 0.03920479
-0.025827415 -0.012924818 -0.00025243257 0.12311752 -0.05686192 -0.08376643 0.023822483 0.12758772
-0.04489081 0.09037289 -0.0264188 0.026928406 -0.002178986 0.13843994 0.088635616 0.08098087
-0.06591891 0.09912186 -0.14636688 0.0073268064 -0.014783994 -0.07214614 -0.040381044 0.0007421171
-0.007825229 -0.06900672 0.10987 0.048932727 0.029484103 0.086751565 -0.0040241727 -0.15613449
0.03161234 -0.064966865 0.0002334655 -0.024339756 -0.018919291 -0.03973986 -0.07162008 -0.06898697
0.037708484 0.22469121 0.026975337 0.1338042 0.08069301 -0.053266797 -0.047225643 -0.11630037
-0.00039849698 0.05491375 0.03617675 0.069612175 0.050184183 0.036727555 0.02327515 0.045751
0.10712822 0.090747684 -0.058184262 -0.048893575 0.09809753 0.13555337 0.12503539 -0.046881996
-0.010329082 -0.0058668167 0.040210087 -0.051789194 -0.07395007 -0.02584567 0.0031108896 0.08102142
-0.05966509 0.0840858 0.13483478 -0.08207627 -0.05200287 -0.057219554 0.08279701 0.0010530932
0.0075929174 -0.075386554 -0.022074087 0.099808194 0.09424712 -0.103324264 0.059905414 0.08643361
-0.1188057 0.07892078 0.026662555 0.011997786 0.04989431 0.080536254 -0.002053499 0.14588627
-0.042761024 0.13695665 -0.05131658 -0.07719639 0.060568698 -0.036290422 0.08769664 -0.020109244
0.0086953165 0.05094309 -0.0041483147 0.01978712 0.059116364 0.0921026 -0.08391715 0.12810804
0.056456942 0.112588264 -0.1215545 -0.082598165 0.015036218 0.0530806 -0.005754067 -0.032992404
-0.03445715 0.025066162 -0.053373672 -0.07685523 0.013357517 -0.004533025 -0.017051956 -0.0027703426
-0.07481952 0.025904303 -0.06245896 0.06363246 -0.07950137 0.03044747 -0.056595687 -0.049413446
0.11121366 0.11883334 0.118985064 -0.060464643 -0.029275268 -0.029884579 0.018732855 -0.030396279
0.052892763 0.022192396 0.01923888 0.0058009806 -0.0014179671 0.008505999 -0.08311467 0.012055757
-0.043085292 0.0722801 -0.017893167 -0.12422186 -0.019283293 -0.017198863 -0.05869161 0.042445004
-0.0047519077 -0.096656136 0.09459106 0.03721783 -0.060090825 0.0423992 -0.0608274 0.034351673

layers.0.lin_self.bias f4 [96]
00000000: 69d2 fdbc 2bf9 eebb a738 99bd 5997 083d
00000010: 754a da3c f61f 8cbd 8fac aabd 942c c2bb
00000020: 5d24 683d 3658 d93c 31a2 fe3c dd45 edbc
00000030: f5d6 983d be2b 6f3d 3519 363d 64e7 7b3d
00000040: 5d80 88bd f94d 4c3d 5076 47bd ecb5 b83d
00000050: f0a6 f93c ff45 b7bc b1cc af3d 5e45 91bc
00000060: add6 34bc 0570 6fbc f059 b5bd 1f3b 0ebd
00000070: 15e2 b8bb e3c3 94bd d6b0 733a 46fe c5bd
00000080: 2e36 6a3d a360 bcbd 64ef 103d 5627 8c3b
00000090: 4e21 863d b2c4 d73d 8e22 bf3d fc53 9cbd
000000a0: b56a a9bd eb75 933c 5f86 90bd ca16 9f3c
000000b0: 8126 7e3d 2e5b eb3c 2738 c4bd 5088 a33d
000000c0: aa4d 6fbd 8624 d43d 3e7c 5b3c 5dae 753d
000000d0: a39c cf3d f900 d83d cd8e 043d 582b 2dbc
000000e0: 6d77 69bd b231 403d df7a 82bd 08c5 213d
000000f0: 3b3c 03bd 5ee9 55bd aeac f13d c55a 8bbd
00000100: 6cb8 453d b3fa bebc 437f 74bd cac8 753d
00000110: 8306 703d 9fae 863b bdb2 8dbd 911d 283d
00000120: 1c7d ba3d cbbe b93d 9f25 1cbd 0737 4dbd
00000130: 6a50 01bd edcf 8e3d 45d0 973d 4380 08bd
00000140: 7f59 9ebc 518f 0f3e c132 9a3d 03ce 3fbc
00000150: 90c2 613d 582e b5bd 1a13 46bd 5e53 e23d
00000160: 2eca 093c 5af7 aabb 1342 233d a67d dabc
00000170: 51e3 b8bd 0905 a5bd e4b3 32bd 6fa8 b73d
-0.03098412 -0.0072928867 -0.07481509 0.03334746 0.026646832 -0.068420336 -0.08333694 -0.0059257243
0.056675304 0.02653132 0.031083198 -0.028963977 0.07462875 0.058391325 0.044457633 0.06149997
-0.06665108 0.049879048 -0.048696816 0.09019074 0.03047511 -0.022372244 0.08583964 -0.017733272
-0.011037511 -0.01461411 -0.08855045 -0.03472435 -0.0056421855 -0.07263925 0.0009296065 -0.096676394
0.057180576 -0.091981195 0.03538455 0.00427715 0.06549321 0.105355635 0.09332763 -0.07633206
-0.08272306 0.018000564 -0.07056879 0.019420046 0.06204844 0.028730001 -0.09581023 0.07984984
-0.058423676 0.10358529 0.013396321 0.05998074 0.10137298 0.105470605 0.032362748 -0.010569416
-0.05699866 0.046922393 -0.06371092 0.039494544 -0.032039862 -0.05222451 0.11800514 -0.06804422
0.04827158 -0.023312902 -0.05969168 0.06000594 0.05859996 0.004110172 -0.06918857 0.04104382
0.09105894 0.09069594 -0.038121816 -0.050101306 -0.03157083 0.069732524 0.07412771 -0.033325445
-0.019329784 0.14019515 0.07529212 -0.011706832 0.05511719 -0.0884673 -0.04835806 0.11051057
0.00841002 -0.005217475 0.039857935 -0.026671242 -0.09027732 -0.08057601 -0.04362859 0.08967673

layers.0.lin_neigh.weight f4 [96, 96]
00000000: 3028 14bd 03f5 253e ce41 463d 2159 f83c
00000010: 899d 23bb f5b2 263d 8d60 b43d a072 83bc
00000020: 581c c33d 9cc1 243d 3b9c 0bbe f1bd 933d
00000030: c53d 143d 0b85 97bd bf72 b43d aab7 4e3e
00000040: dc4f 4ebd 21b1 bbbd 74a1 6fbd bc7e f03d
00000050: 86bf 90bd fe0d 033b da79 cbbc 95ff e9bd
00000060: 4f38 0c3e afe1 58bc 2527 8e3b cb1e acbd
00000070: a2ce 053d 7236 97bd e495 5ebd 62b4 d93c
00000080: 09c7 a8bd 54d2 593e 6f66 e43d cfac 9f3a
00000090: 74eb 5ebc b7e2 37ba 39d7 103e 0f87 70bd
000000a0: 90ec 20bc 388b 63bd 4b09 d3bc a7b1 7f3d
000000b0: 21c7 d039 f002 5abd 7805 b73d 7739 363c
000000c0: 08d0 fa3c d1f9 d33c 6d5f d43d 0cbb 683d
000000d0: 5881 9dbd 4657 813d 4c38 2dbd 1d16 c33d
000000e0: 7600 c63a 9377 133e 13c4 4d3d 91a6 863c
000000f0: c926 d7bc 1c0a 803d d4f0 7d3c 7413 8b3d
00000100: a381 1ebc 41db 893d 5c7d b7ba 4407 dd3c
00000110: 4b22 aa3d a73e c3bd ea75 df3d c5fe edbd
00000120: 7dbd 28bd e6f3 1fbd b132 7e3d 4151 95bc
00000130: d2c9 963d 118f 3cbc daaf b03d 7d87 cb3c
00000140: 5458 05be e0ad 31bd 1e42 b03d 496b 633c
00000150: ebaa 863d 3579 af3d 2de6 ca3d b6f8 f2bc
00000160: 2e19 733c f6bd 143e 6704 123e 50f8 47bd
00000170: 93d5 0cbd 8986 98bd 50e9 053e d3d8 3b3e
00000180: 7792 dcbd 9b42 8a3d 5268 c83c c199 093d
00000190: 639f fb3d 5c13 153e 3009 55bb 0893 1d3d
000001a0: bea6 59bd 3f65 003e 4c9d 05be 203c 873d
000001b0: 0cc3 3d3d beea 28bc c384 003e 13f2 3a3d
000001c0: f009 e13d 57f1 85bd e0e9 e53d cc64 663d
000001d0: edeb e9bc 3456 153e 3c85 f63d 7028 babb
000001e0: 40ef 1e3e 3a17 cebc 35b8 8a3d 7486 063b
000001f0: ffea 1d3d d595 3cbd 4d32 253d 8940 243d
00000200: 8317 bbba f60d 743d c4a3 733c 343e 123e
00000210: 8bba 7dbd bb85 a73d f3cd 343d 9c7c 14be
00000220: 1301 ecbc 1d52 3ebc 757c 58bd 3506 97bd
00000230: 4ef6 b9bd fe75 d53b 8d53 40bd c078 dc3d
00000240: fa95 453d ca20 a0bd efe8 253d e758 de3c
00000250: 73cd 433d e840 7c3d 7752 dc3d c80f 5e3d
00000260: 5392 5dbd 945f 583c 4745 b4bc ff70 5c3d
00000270: 1dfa ceba d939 443d 0074 be3d 7387 15bd
00000280: 96c7 0bbe c1f6 abbd b3da 023e fa23 9a3d
00000290: 56cd 2d3c 6ce6 3fbc 14b2 123e ddbd 23bd
000002a0: 2fcf aabd d505 9a3b dcf3 b43c 8ad5 70bd
000002b0: 7d5c 803b 9649 b83c 9bb4 063d caae 3dbd
000002c0: c034 e0bd 76ca b9bd d89a acbd 1dd3 453d
000002d0: f9f5 cc3d 4fa2 25bd 06a0 093e 894e 1f3d
000002e0: 80ef 173e 4a11 173d a89a 5c3d 2aac 733d
000002f0: 9abe 8f3d 9479 93bd 9a3c 1a3e 61cd 543d
00000300: 5557 85bd 915b 143e 18f3 263c 2412 303d
00000310: d852 453d 0a5a e13d b145 2b3d bb6c 143e
00000320: 203f 99bb 33c2 1e3d a5ba 17be 7216 8abc
00000330: 5abc a83d 7685 96bd 3bac ec3d b576 093e
00000340: 1933 4d3d ed44 9ebd 4a63 89bd c578 f73c
00000350: 4d84 423b e5e6 f73d d0ee 293e ba5e 47be
00000360: 5223 8e3c 31bc d53d a080 8abc f4c2 603c
00000370: 87c0 c73d 170a b8bd 077b c1bd 825c e33d
00000380: 8210 5f3d 625d 763e 0a5a 79bc aaab aa3a
00000390: 62ae cb3d e96c 813d efa8 a7bc 78e2 1cbd
000003a0: da62 f4bd 3e01 7b3d c9bc b83d 448b 913a
000003b0: 9117 783d 52d8 b83d 1b77 143d b077 da3c
000003c0: fb7d 18bd 3c76 953b f28a f13d 614f a03d
000003d0: 3475 b13d 942c da3d 954f f53d 2eb6 6fbb
000003e0: cd3c ee3c af57 9a3d ac9d 2e3b 7fdc 4dbc
000003f0: 02d2 1b3d ad0c 933d 5d2f 4ebd 81fd c23d
-0.03617114 0.16206746 0.0484026 0.030315937 -0.0024965724 0.04069801 0.08807478 -0.016045868
0.095268905 0.040223703 -0.13633816 0.07213963 0.03619172 -0.07398423 0.088109486 0.2018725
-0.05036913 -0.09164644 -0.058503583 0.11742923 -0.0706778 0.0019997354 -0.024838377 -0.114257015
0.13693355 -0.013237401 0.0043381625 -0.08404311 0.032667764 -0.073834315 -0.054342166 0.026575271
-0.08241088 0.2127164 0.1115235 0.0012182238 -0.013605941 -0.0007014679 0.14144601 -0.058722552
-0.009822026 -0.05555269 -0.025761267 0.06242528 0.00039821214 -0.053225458 0.0893659 0.011122099
0.030616775 0.025875958 0.103697635 0.056819007 -0.07690686 0.06315474 -0.042290017 0.09525702
0.0015106339 0.14401083 0.05023582 0.016436847 -0.026263611 0.06251928 0.015499312 0.0679082
-0.0096744625 0.067312725 -0.0013999152 0.026981004 0.08307322 -0.09533434 0.10911162 -0.11620859
-0.041196335 -0.03905096 0.06206006 -0.018227221 0.07362713 -0.011508719 0.08627291 0.02484488
-0.13021976 -0.04337871 0.08606361 0.013880559 0.06575569 0.0856804 0.09907184 -0.02965961
0.014837546 0.1452559 0.14259492 -0.048820794 -0.034383368 -0.074475355 0.13077283 0.1834443
-0.107701235 0.06750985 0.024463806 0.033593897 0.1228626 0.14558166 -0.0032506697 0.038470298
-0.053137533 0.12538622 -0.13048285 0.06603265 0.04632859 -0.010309873 0.12550645 0.045641016
0.109882236 -0.065401725 0.11226249 0.05624847 -0.028554881 0.14583665 0.12037131 -0.00568109
0.15520954 -0.02515756 0.06773416 0.0020526918 0.038554188 -0.04604133 0.040331174 0.040100608
-0.0014273975 0.059583627 0.014870588 0.14281541 -0.06194548 0.08179804 0.04414172 -0.1450066
-0.028809106 -0.011616257 -0.052853066 -0.07374231 -0.09080182 0.00651431 -0.04695468 0.10765219
0.048238732 -0.07818754 0.040505346 0.027142001 0.047803354 0.061585337 0.107579164 0.05421427
-0.054094624 0.013206381 -0.02200569 0.0538187 -0.0015791092 0.04790673 0.09299469 -0.036506128
-0.13650355 -0.08396674 0.1277874 0.07526393 0.010608038 -0.011712652 0.14325744 -0.03997599
-0.083402984 0.0047004023 0.022088937 -0.058797397 0.0039172755 0.022496026 0.032887083 -0.04630927
-0.10947561 -0.090718195 -0.084279716 0.048297036 0.10007853 -0.040437993 0.1343995 0.038893256
0.14837456 0.036881723 0.05385843 0.05949036 0.07018776 -0.072009236 0.1506218 0.051953677
-0.06510798 0.14488055 0.010189794 0.04298605 0.04817471 0.11003502 0.04181451 0.14494602
-0.0046767145 0.03875942 -0.14817293 -0.016856406 0.0823905 -0.073496744 0.11556288 0.1342419
0.05009756 -0.0772799 -0.06708391 0.030208955 0.0029680908 0.121045865 0.16595006 -0.19469729
0.017350826 0.10436285 -0.016907036 0.013718355 0.097535186 -0.089862995 -0.09447294 0.11101629
0.054459102 0.2405906 -0.015219221 0.001302113 0.0994537 0.06319601 -0.020466296 -0.038301915
-0.11932917 0.06128048 0.09020383 0.0011104126 0.06056935 0.09025635 0.0362464 0.0266684
-0.03722952 0.004561214 0.1179408 0.0782764 0.08664933 0.10653034 0.1197807 -0.0036577093
0.029081726 0.075362556 0.0026644273 -0.012564777 0.038042076 0.07180152 -0.050338138 0.09521008

layers.1.lin_self.weight f4 [96, 96]
00000000: 65e9 87bd 3f55 70bd 2a2a 133d 9e79 1ebd
00000010: d407 6b3d 0396 e73c 0153 4fbd 5198 613d
00000020: 4f7f 563d 460c c5bd 6799 133e b2fc 863d
00000030: 036f a13d 5f21 babd 6a44 4c3d bb97 b93d
00000040: 3ab5 e33d 1cf8 343d c64c ccbd 00c9 ef3c
00000050: ee9b 2cbd 51aa 98bc 7b0f a33d 8017 1b3d
00000060: ab3a 8bbd a274 5a3d 9d84 543d 5da4 8abd
00000070: ecfb 9c3c 26c1 21bb 2e29 9fbc 18cf 3fbd
00000080: e94b 433c f947 ecbd cc16 1abe 495e d2bd
00000090: fca7 9abd 066c 5abd 9a4f c73d 1fec 73bd
000000a0: 7d03 b73d 5719 af3d 0c3a 3b3d 44b9 c73d
000000b0: 1039 f33d 8f04 b43d 5251 b0bd 5d3b 46bd
000000c0: fa3c 20be 6e74 753d 1031 913d 105f 063e
000000d0: 5176 d23d 6ff5 c7bb 25c6 0b3d 863b a6bd
000000e0: b193 cfbc 4e1e 9fbd 22c5 b4bd a4fa 22bd
000000f0: a19d d9bb 2255 b7bd b215 873d f836 003d
00000100: d5b0 abbd 44e6 6d3d ac77 e8bd a7ee 40bc
00000110: a53c a4bd 34f1 84bd 4842 063e d447 7bbc
00000120: 0f2e aebd 5fc3 a2bd b33d e7bc e8bf d0bd
00000130: 1978 633d c3c5 89bd f1c6 673d 3642 823d
00000140: 396b cd3b 91c9 df3d 4407 043d 2caf a73d
00000150: 8d20 00be 73a7 dd3c f0d1 c3bd 0a3e 863c
00000160: da5c 5cbd 22d3 a3bd 6af3 463d 93f3 29bc
00000170: c992 3fbd c2f7 bc3d d7bb 64bd cd1b c2bd
00000180: 3817 403d f288 0b3e 4108 ac3d 099e d73d
00000190: 9e3e 7e3c f72d f73d 20a9 f73d bbc0 973d
000001a0: 2910 a1bb 4e4a 8c3d fb7a 60bd cee4 633d
000001b0: 16cd 85bd fd24 133d 64ea e53d e8b9 b83d
000001c0: 9b8a 0d3c 52b0 ce3d d7c3 403d f885 6ebc
000001d0: 8aa3 be3d e1ac 4b3c 1fd6 823d 4267 ac3d
000001e0: 33c3 a83d 8695 e03d 80b4 963d 7fc2 463b
000001f0: 386a 07bd fd1b 23bc e8ef 5bbd d2ff 91bd
00000200: c48f 6e3d 9200 60bd 8e01 8b3d ede3 fc3c
00000210: 6ae5 943d 0bbf 9f3d 7c02 b03d 9595 fa3d
00000220: 5ba0 453d 23a3 f83d 0a40 533c a422 953d
00000230: fd53 d53d e4b0 9f3c f3bb 05bd 7e1c d7bc
00000240: daca 38bd 4560 31bc 20f5 e83d 151f ee3c
00000250: 0662 883d 16f6 893d 86a4 003e e326 dd3b
00000260: d2bb c13c 9f11 7abd 7432 b23d 2efd 92bc
00000270: 6ba8 cc3c af81 653c 66a8 4abc 5364 5cbb
00000280: 6e3b 95bd 6acf 84bc 55ae 0ebd 123c 23bc
00000290: 6abb ac3d 3b15 b83b 14bc 06bd ffa5 153c
000002a0: 6e22 b93c 5d13 653d 4522 aabd da75 913d
000002b0: e4c9 773d 35a9 83bd 6e8c 743d a52a 7abc
000002c0: 9eb3 21bd 77b1 e3bd 92db ee3c 5a13 54bd
000002d0: 0e18 563d 413c c93c 4d10 b6bd 2bac 0dbd
000002e0: b300 c63d ccb4 90bc 454e 9b3d f7f3 0d3d
000002f0: 6319 863c 7922 073e 8cc0 713d 6764 673d
00000300: 8db3 27bd e293 403b 7a5a 62bc a8b8 06bd
00000310: 4665 2c3b dfb4 6f3d 87df 2f3d 78e3 8c3d
00000320: 13a1 7a3c fb56 763d 692e 623d 12e1 02bc
00000330: 44b4 2fbd d9b5 0bbb d07b 96bc c657 bd3c
00000340: aa0f 26bd 6d7c f63b c95a ed3d dde3 853c
00000350: e129 de3d 2f4b 163d 7f3a b23d de38 d03d
00000360: 670a 66bd cb2f df3d aded 9c3d 52fc ac3c
00000370: 99c2 2c3d 9ec9 1ebd 41cb d13d e9f3 853c
00000380: e412 fa3d 4264 4c3d 5624 34bd 38a4 a63d
00000390: 9d1b ccbc abf2 d63d cb44 bc3d 44b2 fa3c
000003a0: 1457 ca3d bca8 1bbd 0880 dbbb 8c81 f23d
000003b0: 7ed7 e139 04a9 2a3d 610d 2fbd 0575 b4bc
000003c0: 6973 d73d 98fa 71bd 026e 7abb 631e 5bbd
000003d0: bbbd c43d b442 bb3d b5f0 f63c 2dc2 b33d
000003e0: c35b bc3c e10a 2dbb a943 0a3e 43ec d33d
000003f0: 84fb ec3d 8cb2 cf3d 421a 0cbc ad19 2e3c
-0.06636313 -0.058675047 0.035928883 -0.038690202 0.057380512 0.028269773 -0.050616268 0.0550769
0.052367505 -0.096214816 0.14413987 0.065911666 0.07882502 -0.09088396 0.049869932 0.090621434
0.111185506 0.044181928 -0.09975581 0.029270649 -0.042140894 -0.0186359 0.07961937 0.03786421
-0.067982994 0.053333886 0.051884282 -0.06769631 0.019163094 -0.0024681776 -0.019428816 -0.04682836
0.011919954 -0.11537165 -0.15047759 -0.1027189 -0.07551572 -0.053325675 0.0973198 -0.059551354
0.08936212 0.08549755 0.045709655 0.097521335 0.11876118 0.08789932 -0.086092606 -0.048396457
-0.1564826 0.05992549 0.07089436 0.13122201 0.10276473 -0.006102256 0.034124512 -0.08116822
-0.02533898 -0.07769452 -0.088266626 -0.03978981 -0.0066411053 -0.08951785 0.06595935 0.031302422
-0.083833374 0.058080927 -0.113509506 -0.011775649 -0.080193795 -0.06491318 0.13111222 -0.015336949
-0.08504879 -0.0794742 -0.028227663 -0.10192853 0.055534456 -0.06727173 0.05658621 0.06360285
0.0062688855 0.109271176 0.03223349 0.08187708 -0.12512417 0.027057385 -0.09561527 0.016387004
-0.053799488 -0.07999255 0.04857198 -0.010373014 -0.046770845 0.092269436 -0.0558432 -0.09477959
0.046897143 0.13626459 0.08400012 0.1052819 0.015517859 0.12069314 0.12092805 0.07409807
-0.0049152565 0.0685011 -0.054804783 0.055638127 -0.06533258 0.035923947 0.11226347 0.09019834
0.008639003 0.10092224 0.047061767 -0.014558308 0.09308536 0.012431354 0.063884966 0.08418132
0.08240356 0.10966019 0.073586464 0.003032833 -0.033060282 -0.009955403 -0.05369559 -0.07128872
0.058242574 -0.054688044 0.06787406 0.030870402 0.0727032 0.078001104 0.08594224 0.12235562
0.04824863 0.12140491 0.012893686 0.07281998 0.1041641 0.019493528 -0.032649945 -0.026258703
-0.04511533 -0.010826175 0.11374879 0.029067555 0.066593215 0.0673639 0.1256276 0.0067490204
0.02364913 -0.06105196 0.087010294 -0.017942991 0.024982652 0.01400797 -0.012369251 -0.0033629134
-0.07286726 -0.016212184 -0.034834225 -0.009963052 0.08434184 0.0056177652 -0.03289421 0.009133815
0.022599425 0.05592667 -0.08307318 0.071025565 0.060495272 -0.06428758 0.059704237 -0.015268956
-0.039477937 -0.11117833 0.029157434 -0.051776268 0.052269034 0.024564864 -0.08889828 -0.03458802
0.09668102 -0.017664336 0.07583288 0.03465649 0.016369527 0.13196744 0.059021518 0.056492236
-0.040942717 0.002938502 -0.013815517 -0.032890946 0.002630548 0.0585221 0.04293778 0.06879324
0.015297192 0.060141545 0.05522004 -0.007988231 -0.042896524 -0.0021318106 -0.018369585 0.023113143
-0.040542282 0.007522157 0.115895815 0.016344005 0.108478315 0.036692794 0.087025635 0.101670966
-0.056162264 0.10897788 0.076625206 0.02111641 0.04217777 -0.038766496 0.10243846 0.016351657
0.12210634 0.0499003 -0.043979965 0.08136791 -0.02491551 0.10495504 0.09192809 0.030602582
0.0987989 -0.038002715 -0.006698612 0.11841115 0.00043075898 0.041665092 -0.04273737 -0.022028456
0.105200596 -0.059076875 -0.0038212542 -0.053495776 0.09606501 0.09143582 0.030144075 0.087772705
0.022992974 -0.002640419 0.13502373 0.10347798 0.1157141 0.10141477 -0.008551182 0.010626239

layers.1.lin_self.bias f4 [96]
00000000: 9c57 8e3d ad0f 21bc 5309 823d 646a 8b3e
00000010: b86f cb3d e1d9 1d3d 40c6 ce3d 4111 e3bc
00000020: f9bf 3e3c 945a b23d 1eb9 7039 1b1d 41bd
00000030: 447e b23d 866e 8abc 221c 30bc f4cc dfbc
00000040: 5e01 193d 4f79 bd3d 0c7f 89bd 1332 7e3e
00000050: 77e0 17bd 6a89 ef3d 9ded 39bd 6ae5 673d
00000060: 5320 9abd 3ff5 f23d 1bd7 853d bbd5 223e
00000070: 3950 143d d118 ba3d 0659 2cbd 0be5 c73c
00000080: 7ca8 093e d03a 2a3e a9d7 093e e276 033e
00000090: e98d 63bd 058d 4d3d 009c b93d 0ff6 fd3d
000000a0: e3f1 7a3c 2274 8dbc ce02 0e3d eb75 d13d
000000b0: c1b9 f03d b4e9 5a3d a0b2 573c 33ef 653c
000000c0: 581b 0e3e da3e 0a3e d8fa 48bc 73c6 ed3d
000000d0: 1c36 c23d 5ed7 053c e5a2 36bd 5bfb 1bbd
000000e0: 572e 103e b5ce 8f3c fb08 4a3d 7a31 0c3e
000000f0: 18d4 c13a bc87 523d 948e d63c 7792 37bc
00000100: 30ea 00bd 1636 b33d c56e 483e b7aa f83b
00000110: 308a 06bd f831 fc3d 197c 1c3e 261c 9ebc
00000120: 63f2 9ebc fbe1 6b3e 3ea1 2a3e 24c4 603e
00000130: 61e6 dd3d c165 5f3d 1534 8f3d eed7 513d
00000140: 8d9e 003e 74a9 db3d a666 d43c e472 80bc
00000150: 3c5b bb3d ee85 823d f523 453e 2c57 b83d
00000160: b353 0f3d 5402 1bbd 9029 063b b292 8c3e
00000170: 1f57 f3bd 7f7f 09bc f563 683d d60a 223c
0.06950304 -0.009830398 0.06349435 0.27229607 0.09933418 0.038537864 0.10096407 -0.027718188
0.01164245 0.08708683 0.00022957145 -0.047146898 0.087154895 -0.016898405 -0.010748895 -0.027319409
0.03735482 0.092516534 -0.067136854 0.2482379 -0.0370793 0.116961315 -0.04539262 0.05661527
-0.075256966 0.11863183 0.06535169 0.15901844 0.03620932 0.090867646 -0.042077087 0.024401208
0.13443178 0.16623998 0.13461174 0.12838319 -0.055555258 0.050183315 0.09062958 0.124004476
0.015316459 -0.01726729 0.034670644 0.10227569 0.1175418 0.053445533 0.013165146 0.01403408
0.13877618 0.13500538 -0.012266837 0.11610117 0.09482977 0.008169023 -0.044588942 -0.038081508
0.14080177 0.01755462 0.04932497 0.13690749 0.001478794 0.051398978 0.026191033 -0.0112043535
-0.03147334 0.087505504 0.19573505 0.00758871 -0.03284663 0.12314218 0.15281714 -0.019300532
-0.019402688 0.23035423 0.16663072 0.21949822 0.10834957 0.0545404 0.06992356 0.051231317
0.12560482 0.1072568 0.025927853 -0.015679784 0.09148261 0.06373201 0.19251998 0.09001002
0.03499193 -0.037844017 0.002047155 0.2745567 -0.118818514 -0.008392214 0.05673595 0.009890279

layers.1.lin_neigh.weight f4 [96, 96]
00000000: 22a2 dcbd a6fa 323c 99b3 47bb 68ce 4a3d
00000010: a37e 85bd b711 febd 4b42 ef3d d60b fdbd
00000020: 3976 05bc b44f e7bd b17e 323c 24ac e0bd
00000030: 6c5f 8d3d 9d18 1fbd b264 3e3c e691 d3bc
00000040: 39fc 72bd 4373 e73c dc9d 16be 6f45 e7bd
00000050: 462c 32bb 3768 08b9 f0f0 13bc 8adf c23b
00000060: ff2a 1cbd a58b 743c 85dc 253d be54 8dbd
00000070: e05c 653c 6336 2abd 9625 ca3d 2604 85bc
00000080: 3172 aabd 387b 713d 13bf b9bc fa49 f0bd
00000090: 2656 313d e2a0 eebd 873e 553b 4a8f b4bd
000000a0: 4be2 8ebd 73f1 8bbd b360 d23d 7b82 8e3d
000000b0: d828 ee3c e283 1cbd 996c 7e3a ade2 d23d
000000c0: 1695 1fbe 34a8 263c 39f1 7c3d fba6 0c3e
000000d0: 151a e43d 6c70 c1bd c261 8cbd 3826 b23c
000000e0: 2d10 c4bd 1411 7b3d 7f63 a1bd b7fe bfbd
000000f0: 4de6 50bd 4eb9 b8bc 6f8e 723b 5e7e 283d
00000100: 87bc a6bd 4656 7f3d ea92 5c3c 2fc2 debd
00000110: be82 dc3c cd12 a7bc 40e4 76bd 610e 23bd
00000120: ac7b a13c 15f0 10bd 3f3b a7bd e1ce 90bd
00000130: c6e5 b6bd f3fc d0bc ae33 9abd 20a7 18bd
00000140: 6039 bebc 01f8 7b3e a507 683d f43f 413d
00000150: bae1 8bbd fe61 653c 9ca4 bf3d 4394 823d
00000160: bbfa 7abd dc0a aebd 5185 6e3d fcc3 ca3d
00000170: c6fc c0bc 35d4 203e 2c2f a43d a22c 723d
00000180: 5bda 933d a980 b33d 8320 a43d 945d 76bd
00000190: 1dc3 f7bc 8f63 9a3d 78a5 8b3d 0e0d 1e3d
000001a0: 3994 e33d 21c8 e03d 6ba1 14bd 464b 033e
000001b0: 569f be3d 80a8 ef3d ff2e 683d a888 2d3d
000001c0: 03c7 b3ba 50d9 853d 6671 ce3d ae0e 4dbd
000001d0: 842a 90bd d512 4d3d 6150 1b3e fef8 0239
000001e0: fb09 133e b2e3 b83d c35f 463d eb91 52bb
000001f0: 9868 413d b0ed 423d 4534 7b3d 5315 b53d
00000200: 2378 c23d 4928 8f3d 4e07 933d 2f8e fe3d
00000210: 0c07 47bd 06ff 44bb 0a52 2c3d 7279 703c
00000220: 3ca9 ca3d 0e45 8a3d 1160 973b e0ed b73d
00000230: beac 24bc e4b5 9d3d 5e9f a7bc e9b7 dd3d
00000240: b613 f8bc 7b44 54bd 1e76 ec3c e53d ae3c
00000250: 28e9 e43d 3f59 e93d e063 b6bc 2e46 bc3b
00000260: 8347 753d 0c3d 893d 9f78 ff3d b78b c6bc
00000270: adb6 683d cc07 633c 6ba8 a43d cf6b 03bd
00000280: 4bf8 d53d eed5 19bd f829 323d 3b0f 963d
00000290: 58ad 7c3d f5a4 d73c 5e71 8dbd 10f2 44bd
000002a0: 1627 f1bc d6c5 113d 5d69 263d 908f 7bbc
000002b0: c5ae 863c d1f1 383d 7d6a 82bd 4ec8 a7bd
000002c0: 6ac6 9c3d 2967 543d 7cf0 603d fa69 b13c
000002d0: bdfd dc3c ee28 e53b fe20 cebc baa1 073b
000002e0: 48f1 cd3d 205f 593d 14b8 463c aab0 1a3c
000002f0: dbac aebd 709f ba3d dd50 9c3d 525f 34bd
00000300: a559 4bbd 1f3f ff3d d5bb 4bbd 123a f03d
00000310: 1f0c 4d3d e7f1 acbb d868 a23d 8e27 413d
00000320: 7338 8d3d b3a4 773c b763 323c 6b6b 753d
00000330: 618a 033e dd24 87bd 8fd6 15bd 802a 9e3d
00000340: 5eaf 08bd 5192 5ebc f717 133e c7c9 2f3d
00000350: d402 f1bc 7876 b6bc b9dc bc3c f634 833c
00000360: 6c93 553c 1102 7c3d 912b ed3d cd30 c43c
00000370: a7ac 153e 8bc2 c4bc 17ba de3d 86b4 0e3d
00000380: d787 88bd e6c2 fbbc 82ec b53d 0822 3dbd
00000390: e774 993d 0b53 843d 392c 963c 67ca 4e3d
000003a0: b9d4 37bd 9e06 903c a922 1b3c 24d2 8b3d
000003b0: b34d 863c 932e 703d e339 cf3d 2638 b93d
000003c0: 9930 42bd 5329 453b ae4e 853d 532b e43d
000003d0: 9c75 553d 5313 8db9 acf7 c4bb f986 edbb
000003e0: 1b61 80bd 5da1 af3d 9aa1 363d 54b7 073e
000003f0: 9f1f 6d3c 6f6a a73d 7e49 e13c ebda 24bd
-0.10773112 0.010924017 -0.0030472039 0.04951325 -0.06518295 -0.124057226 0.11682566 -0.12355773
-0.008145862 -0.11294499 0.010894463 -0.10970333 0.06902966 -0.038841832 0.011620687 -0.025826406
-0.05932257 0.028253203 -0.14708656 -0.1129254 -0.0027187034 -0.00013008794 -0.009029612 0.005947058
-0.03812694 0.014925872 0.040493507 -0.06900929 0.013999194 -0.041555773 0.0987045 -0.01623733
-0.083225615 0.0589554 -0.02267412 -0.1173286 0.04329505 -0.1165178 0.003253849 -0.08816393
-0.06976756 -0.06833162 0.1027235 0.06958481 0.02907221 -0.03821171 0.00097055134 0.10297141
-0.15584216 0.010171939 0.061753485 0.13735573 0.11137787 -0.09445271 -0.06854583 0.02174674
-0.09573398 0.061295584 -0.078803055 -0.09374755 -0.051000882 -0.022549298 0.0037011167 0.04113614
-0.081414275 0.062338136 0.013462761 -0.10876881 0.026917811 -0.020394707 -0.06027627 -0.039808635
0.019712292 -0.03538521 -0.08165597 -0.07070709 -0.089305446 -0.02551124 -0.07529388 -0.037268758
-0.023220718 0.24606325 0.056647915 0.04718013 -0.06830163 0.014000414 0.093575686 0.06375935
-0.06127427 -0.08498165 0.05823261 0.09900662 -0.023558032 0.1570595 0.0801681 0.059124596
0.072193824 0.08764774 0.080140136 -0.060147837 -0.030244404 0.075385205 0.0681867 0.03858667
0.111122556 0.109756716 -0.036286753 0.12821683 0.09307735 0.11702061 0.056685444 0.042366654
-0.0013715926 0.0653559 0.10080223 -0.050062828 -0.07039359 0.050066788 0.15167381 0.00012490523
0.14359276 0.090278044 0.04843117 -0.003213043 0.04721889 0.047589958 0.061329145 0.08841958
0.094955705 0.06990106 0.07179128 0.12429463 -0.048590705 -0.0030059232 0.042070426 0.014677392
0.0989556 0.067514524 0.0046196063 0.08980918 -0.010050951 0.077007085 -0.020461734 0.10826094
-0.030282836 -0.05182312 0.028864916 0.021269748 0.111772835 0.113939755 -0.022264421 0.0057456708
0.059882652 0.06701097 0.124741785 -0.024236543 0.05681484 0.013856839 0.08039936 -0.032085236
0.10447749 -0.037557535 0.043497056 0.07327124 0.06168875 0.026323775 -0.06906389 -0.04808241
-0.029437583 0.03558906 0.040627826 -0.015354052 0.016440758 0.04515249 -0.06367967 -0.08192502
0.07655032 0.051856194 0.054916844 0.021656979 0.02697646 0.0069934046 -0.025162216 0.0020695762
0.10055786 0.053069234 0.012128849 0.009441534 -0.08529063 0.091124415 0.07632611 -0.044036217
-0.04964604 0.12463211 -0.049739677 0.11729826 0.050060388 -0.0052778604 0.079301536 0.047156863
0.068955325 0.015114951 0.010888032 0.059916895 0.12845756 -0.06598828 -0.036581572 0.0772295
-0.03337037 -0.013584689 0.1436461 0.04291704 -0.029420294 -0.022273287 0.023054468 0.016016465
0.013035636 0.06152541 0.11580575 0.023949051 0.14616643 -0.024018547 0.108753376 0.03484013
-0.066665344 -0.030732583 0.08883001 -0.046175033 0.074930005 0.06461152 0.018331634 0.050485995
-0.044880603 0.01758128 0.009468713 0.068271905 0.016394472 0.058638167 0.10118463 0.090439126
-0.047409628 0.0030084446 0.065091476 0.11141076 0.052114114 -0.00026908013 -0.00601097 -0.007248756
-0.062685214 0.085756995 0.04458771 0.13253528 0.014472871 0.081745975 0.027500864 -0.04024784

layers.2.lin_self.weight f4 [96, 96]
00000000: 89db 243e c9ef 8bbd a76d 6abb c97b f03d
00000010: c1be 973d b104 933d 5548 09bd ee2f a5bc
00000020: b3b6 50b8 0244 ca3d aa33 973d 0add 573d
00000030: f756 80bb bc72 0a3d 9ac7 493d bb7a 69bd
00000040: 5a36 61bd 90a6 47bd fc70 41bc 0d31 443d
00000050: e68c 32bd 9fef abbb 432d 853b e56b 8d3d
00000060: ee66 a33d 4365 0e3d 0898 c3bd 7e44 063e
00000070: cb4f 253d 0292 023d 0797 eebd dde0 a23d
00000080: f718 2a3b b932 e5bc b774 163b 9caf 6e3d
00000090: dc2e 5f3d bd5b b8bd d972 5f3d 663b 0ebd
000000a0: 5676 f43d e5d4 263d e8ea 0a3d f1a9 40bd
000000b0: 2192 4a3d f4c2 8fbd 9028 5abd d848 5c3d
000000c0: 67b9 bcba 4f6c 093d 4b03 1fbd 5451 1b3e
000000d0: d99a 253d fa6a 0ebd 0cd5 dfbb 7d7f bdbb
000000e0: d6cf 053e ed41 e5bc 3205 2dbc bbb8 c4bc
000000f0: c668 12bd 43bd c83b fcc6 993a 4679 713c
00000100: ab46 b53d 64bf 403e 77dd 483e 9492 4fbc
00000110: 81c9 3cbd 84a7 8bbb 8088 383d 3af3 aa3d
00000120: 7eb3 9d3d 252b ee3d ffb1 453e b0c1 e33d
00000130: 2d8e 81bd 7a66 743d 8c05 e23c ce4c c1bd
00000140: f597 5c3d 0742 5fbd f10e dabc 5922 813c
00000150: dcdd bcbb 8a21 c53c 3307 c13d 34e8 6fbd
00000160: 0027 e03b 07a2 63bc 7f06 a0bd f0db e63d
00000170: 4fd4 bd3d 1f8d 9fbd 2303 ec3d 44b1 c93a
00000180: eca8 5c3d 5755 d0bd 768a babc bbe5 e83c
00000190: efb3 5c3a 3490 a63d 5172 ad3d fcca cdbd
000001a0: d536 bdbd e2b2 993d 1feb 983d b529 fa3c
000001b0: 8f2a 293d a35c 9cbd 3cda 6dbb b658 223d
000001c0: d018 973b 2507 dbbc d363 993c a57b 9cbc
000001d0: a061 e3bc f20d 51bd f5cb 243d e051 6abd
000001e0: 04c3 c8bd 3abb 66bd b9bb c5bd a805 ccba
000001f0: 651a 173d 2788 c1bd 90d5 a1bd ea6a 8e3d
00000200: 8b5b c03d 5b08 80bd b931 27bd 114d 8e3c
00000210: 04c2 bc3d aacd 33bd ace1 3bbd 8e1f 8cbb
00000220: 521e a8bd 8f7c 1e3d 7d89 5bbd bb31 71bd
00000230: 6117 cfbd efcc 943c 26f4 9fbc 33ee 693d
00000240: 7c7f aabd 9bb7 ca3c 611f efbc ead0 94bc
00000250: 60db a73c 2e57 95bd 060c b5ba 6149 ae3c
00000260: 44d8 41bd aaf9 26bd e82c 373d c629 3abd
00000270: 73f7 bfbd 4064 cbbd ee1d 993d fd2b ab3d
00000280: 6729 7ebd fa5d f5bc 0925 92bd 56db 223d
00000290: 3285 223c 1ab9 c4bb a5ba 9cbc 0edf dc3c
000002a0: d927 c03d 7358 173d 1050 923d 588d fabc
000002b0: 9f0a a2bc 1a25 adbd 8feb cdbd 2231 67bd
000002c0: e57b a03d d8ef 69bd 0732 423c aa23 67bc
000002d0: 56ed 07bd 7e6d d93c 8219 4c3c 234e cfbb
000002e0: b3ab 23bd 7807 a53d d8f2 953d 6420 7bbd
000002f0: f046 f53c 01b5 cebd d51d 6bbd bb1a cfbd
00000300: ab60 86bd 385d af3d 95b5 cbbd 4235 debc
00000310: 0bdb d8bb e33c 89bd ccbd 9b3d d9b4 adbd
00000320: 8640 89bd f014 cb3c af9e 83bc c5c6 9dbd
00000330: 39dd 903d 6525 6cbd 2c78 2dbd 1c94 ab3d
00000340: 4308 babc c97d 8e3d 923c e8bb bef3 6cbd
00000350: 34cc c7bd 02b9 833c f800 113d b5ef e4bb
00000360: f077 56bd 349c a63d 2e1f 00bd 99da c53c
00000370: d896 753b c14d 613d 42ac 88bc 83b3 9c3d
00000380: ccd9 e4bc 8296 37bd 1e35 ebbc 305d 6a3c
00000390: 74dc 743c e081 c93d e326 203c ae38 733d
000003a0: 010f cbbd 4c23 95bc b55f fbba 390f dabb
000003b0: 8a45 d43b 7a98 6abd 5d65 363d 4674 aebc
000003c0: 7b1a 633d 837f eb3c 9ab8 e1bc f295 843d
000003d0: bc38 bd3d 36b3 c4bd 634d 17bd 2749 723d
000003e0: 32e1 89bd 301e 853d ee18 c2bd 65bc 48bd
000003f0: 7e45 313c e7ad afbd d6ba 45bc 1092 97bc
0.16099371 -0.06832845 -0.0035770924 0.1174236 0.0740943 0.07178629 -0.033516247 -0.020164456
-4.9761216e-05 0.09876253 0.07382901 0.052701034 -0.003916617 0.033800825 0.04926262 -0.05700181
-0.054983474 -0.04874283 -0.011806723 0.04789834 -0.043591402 -0.005247071 0.0040642335 0.06905345
0.07978617 0.03476454 -0.09550482 0.13112065 0.0403593 0.031877525 -0.116499 0.079530455
0.0025954822 -0.027978288 0.002295775 0.058272943 0.054488048 -0.09001873 0.054552887 -0.034724616
0.11936633 0.040730376 0.03391543 -0.04703707 0.049455766 -0.07019606 -0.05326134 0.053780407
-0.0014398516 0.033550557 -0.0388215 0.15167743 0.040430877 -0.03476999 -0.006830817 -0.00578302
0.13067564 -0.027985537 -0.010560321 -0.024013868 -0.03574445 0.0061260774 0.0011732276 0.0147383865
0.088513695 0.1882301 0.19615732 -0.012669224 -0.046090607 -0.004261913 0.04505205 0.08347173
0.07700251 0.11629323 0.19306181 0.11120927 -0.06325946 0.05966804 0.027590536 -0.094384775
0.053855855 -0.054506328 -0.026618453 0.015763449 -0.0057637524 0.024063844 0.09425201 -0.058571056
0.0068405867 -0.013893611 -0.07813739 0.112724185 0.0926901 -0.077905886 0.11524036 0.0015387912
0.053872034 -0.10172527 -0.022771101 0.028429857 0.0008419146 0.08132973 0.0846907 -0.10048482
-0.09238974 0.07504822 0.07466721 0.030537466 0.041300353 -0.076348566 -0.0036293408 0.039635383
0.004611112 -0.026736805 0.018724358 -0.019101927 -0.027756512 -0.05103869 0.04023357 -0.05720699
-0.09802821 -0.056330897 -0.09654946 -0.001556565 0.036890406 -0.09449797 -0.07902062 0.06953986
0.093924604 -0.06251594 -0.040818904 0.017370733 0.09216693 -0.04389731 -0.045869514 -0.0042762225
-0.08208908 0.038693007 -0.053597916 -0.058885317 -0.10111881 0.018164126 -0.019525599 0.05711193
-0.08325097 0.024745753 -0.029189767 -0.018166024 0.020490348 -0.07292019 -0.0013812787 0.021275224
-0.047325388 -0.040765442 0.04472056 -0.045449995 -0.09373369 -0.099312305 0.07476412 0.083579995
-0.062051203 -0.029952038 -0.0713597 0.039759956 0.009919452 -0.006003511 -0.019131968 0.02696183
0.093826 0.036949586 0.07144177 -0.030584976 -0.019780455 -0.08454342 -0.10054695 -0.05644334
0.07836131 -0.0571135 0.011852748 -0.014107624 -0.033185326 0.026541468 0.012457253 -0.0063264533
-0.039958667 0.08058065 0.073217094 -0.061310187 0.029941052 -0.100931175 -0.057401497 -0.1011252
-0.06561407 0.08562702 -0.099467434 -0.027125005 -0.006617909 -0.06701066 0.0760456 -0.084817596
-0.0670176 0.024790257 -0.016066877 -0.07703928 0.07073445 -0.05765285 -0.042350933 0.08377859
-0.022709018 0.06957585 -0.0070872987 -0.05784964 -0.097557455 0.01607943 0.035401314 -0.006986583
-0.052360475 0.08135262 -0.031279735 0.024152087 0.0037473943 0.055005793 -0.016683701 0.07651427
-0.027935885 -0.04482127 -0.028711852 0.014304444 0.014945138 0.09839225 0.009774896 0.059380226
-0.09914971 -0.018205307 -0.0019178303 -0.0066546467 0.0064780163 -0.05727432 0.04453026 -0.021295678
0.055445176 0.028747326 -0.027553845 0.06473912 0.09239337 -0.09604494 -0.036939036 0.059151795
-0.06732406 0.064998984 -0.09477411 -0.049007792 0.010819791 -0.08578091 -0.012068471 -0.018502265

layers.2.lin_self.bias f4 [96]
00000000: 3114 093e c5ef ad3c 0d12 a2bd 814d 053e
00000010: 808a 84ba 4d61 8e3c 2f18 c4bd d27f a83c
00000020: 7ed9 0a3e 4aee 113e f462 193e f156 b4bd
00000030: f465 6b3d 9c2e 193d 1eb9 1c3e 9353 923c
00000040: fe84 0c3e 13cb f13c c10d 053d edff 323e
00000050: f6aa d83b 6553 083e d3c1 823d c117 8c3c
00000060: 73ea 0a3d 41cd 353e c80d b33d 9476 a83d
00000070: d673 1c3d 12c3 093e 641e 103e 29a1 2a3c
00000080: 459b 73bd c1f5 94bb 13a5 f93d fcae b33d
00000090: a349 613c 4127 2e3e 61b7 2a3e c200 933c
000000a0: 8f4e cf3d a2ec 7dbd 8518 2e3e 9cb3 95bb
000000b0: 7a55 c33d 3405 523d 8736 dd3c 8cd8 ff3d
000000c0: a7d5 ea3d 0401 b93d 04ea 0d3e cc48 643d
000000d0: 007d 5a3d 65f1 433a 051c 41bb 9d04 203e
000000e0: 2d81 a23d bcc2 1a3c 556f 2a3e e646 1e3e
000000f0: d397 f33c 83b2 07bd 140b 1b3e ad56 283e
00000100: dcf9 c13d 34e9 cf3d dc5c c63d db34 5f3e
00000110: a0e7 a83d f4b2 31bc 39be 3c3d ab42 ea3d
00000120: 6102 ef3d 0c1a 343e 8353 2d3e 1b77 193e
00000130: 0a49 3a3e b5d6 3c3e 6089 91bc 7377 49bd
00000140: d5c4 1e3d 6fa1 ce3d 8e85 033e c9cd 883d
00000150: 8e2a e13d 23ad b43a 2013 1c3e 325f 973d
00000160: fea4 003c cc42 233e 1520 1f3e 5405 a83d
00000170: 3938 1a3e 0e55 853c e793 ad3d 41da 8f3c
0.13386609 0.021232495 -0.07913599 0.13017847 -0.0010112077 0.017380381 -0.09574925 0.020568762
0.13559529 0.14251056 0.14979154 -0.08805645 0.057470277 0.037397966 0.15304992 0.017862117
0.13722607 0.029515779 0.03248382 0.1748044 0.006612177 0.13313062 0.06384625 0.01710117
0.033914994 0.1775408 0.08742863 0.08225742 0.038196407 0.1345332 0.14074093 0.0104144
-0.05947425 -0.0045458977 0.121896885 0.0877361 0.0137504665 0.17007162 0.16671516 0.017944697
0.10122406 -0.06199325 0.17001541 -0.0045685302 0.09537788 0.051274493 0.02700354 0.12492475
0.11466532 0.09033397 0.13858801 0.055733487 0.053341866 0.000747463 -0.0029466164 0.1562676
0.079347946 0.009445842 0.16644032 0.15456733 0.029735481 -0.033129226 0.15140945 0.16439314
0.09471485 0.10151902 0.0968568 0.21797507 0.08247304 -0.010845888 0.046079848 0.11438497
0.116703756 0.17588061 0.16926388 0.14986841 0.18191925 0.18441279 -0.0177657 -0.04918618
0.038761932 0.10089385 0.12843916 0.066798754 0.10994445 0.0013784509 0.1524167 0.07391204
0.007851837 0.1594345 0.15539582 0.08204141 0.1506051 0.016275909 0.08475476 0.017560126
