outputs/models/lead1_greedy4.pt (torch, 382424 bytes, 13 tensors)

in_lin.weight f4 [96, 15]
00000000: d002 483e bd8b 4e3e efb0 7fbd 1907 663e
00000010: 5bb8 67bd 0b69 553d e431 09be fa50 583e
00000020: c695 853e 6b37 36be 38c2 673e f80c dd3d
00000030: 2b9f 523e 0fe1 ac3c adde d53d 4c59 22bd
00000040: 4ac9 4e3e 755b af3c fc1c f1bd bbc9 863d
00000050: 2fa2 f3bd 5902 e4bc 98f8 54be 2569 663e
00000060: 1d9b 14be 2023 99bd 443e 34be 4d74 46be
00000070: c080 863a 1252 83be 320b 6b3e cf2a 34be
00000080: 186a 483e c7fb b03d 71b3 abbd 1f62 233e
00000090: 527b 7b3d c4aa 8a3e b2cd 913d 5ae2 75bd
000000a0: c167 a63d bb93 ffbb d6f3 243e 18d0 433e
000000b0: 65d5 c23d 7947 e1bd e44c 083e 77b9 3d3d
000000c0: e0da eb3d 8726 21be 1fdd 82be b017 edbd
000000d0: 2531 28be d53e 743e 6bff c43d 3692 e93d
000000e0: 8572 ec3d 5191 03bc e5b6 533e aeee 39be
000000f0: 178a ac3c 057f 42be faf4 ac3d afbe cabd
00000100: bf07 a23d 9d56 5cbd eb22 603e d3e1 2abe
00000110: ffdb 2bbe 6fde 2bbe 6ca2 5f3e dade 933d
00000120: 8351 903e 503f 61be 5311 8fbe 2932 6dbe
00000130: b669 0abe bda2 993d be1f 063e 5cb1 5b3e
00000140: 678a 08be 57aa 0cbe 78ea 4e3e d243 43bd
00000150: 4c84 3b3e 554a 16bd 3ae1 593e d9e6 1bbe
00000160: fb05 18be 28ad e83d 8477 633d 3eb5 83bd
00000170: 858a 1e3e 3444 353e 91bb 3fbe 0627 0dbe
00000180: 569b 783e 2842 0fbe f682 adbd e9c0 40be
00000190: 588e efbd 5312 403c 15d0 9abd c353 4dbe
000001a0: cb47 683d 549e 50be 3048 7cbe d9c8 2dbe
000001b0: 09a0 81be cd59 28be 6825 843e 4d22 ae3c
000001c0: 6a18 563d 5f46 89be 9c99 49be 6fea e7bd
000001d0: 2c44 563c c1d7 28be fa41 04be 7a17 07be
000001e0: 906d f5bc 4549 87bd 9cb4 45bd 366b 14be
000001f0: db7a 35be b83f 1abe 8118 6fbd 3f92 2dbe
00000200: 02dc 7e3e 34aa c5bc 77e8 783e fafb ea3d
00000210: f1ba 3ebe ccde 133e fba9 cdbd a607 1abe
00000220: 4a86 30be de1c 9ebe bb34 ed3d bf05 67bd
00000230: e5de cd3d 07cb 2ebe 07d4 583e 7ddc 53be
00000240: 8af8 d3bd 6b2d 14bc 2d07 1d3e 83f3 963e
00000250: 7f50 363e 4b72 75be ee07 5e3d f889 9abd
00000260: 33da 1fbd 0369 21be bbd3 703e a70d 42be
00000270: f3e9 1c3e 7e43 213e 6f4c fc3d cecb f2bd
00000280: 34ab 773e 44e4 fc3d 7acc e23d 6e84 81be
00000290: 0f6f 1f3d dcff 3fbd d9da eabd 5fc8 5a3e
000002a0: 78c3 853d ad48 12be 29d2 05be e8bb a7bc
000002b0: 3123 173e e31a 80bd 2e59 13be ca0f aebd
000002c0: 9e03 42be 8b95 bc3d 76b6 4a3e 9cdd 4dbe
000002d0: 73b5 793d 70e1 ea3d 5298 433d 3bad e2bd
000002e0: ceff 093e 83f1 0a3e 5e10 b73d ccb9 02bd
000002f0: 8de9 9cbd a05a 223d 39b5 72bd f705 82bd
00000300: 4800 093e a873 6f3e 899c b3bc 0c56 a8bd
00000310: d590 f93b e083 0cbd f932 873d 632f 943d
00000320: 9f23 70be 7fca bcbd c1ee 883e 7de2 013e
00000330: 28f4 74bc 6b14 1ebe ef18 ddbd dbd9 33be
00000340: b4b3 cabd 1dde 523d 4e97 003e 5594 073e
00000350: c7df 84be 8567 11be 76e7 26bd 55c3 7f3e
00000360: 8b04 4e3d e82b 5a3a 74c9 183e 3dd2 a3bd
00000370: 46d5 1cbe a326 833e 2de6 4bbd c1a9 9ebd
00000380: 6b22 93be de41 343e 6aec 3b3e 8eac c73d
00000390: e4b1 44be a878 82be 91bc 56be 9862 3d3e
000003a0: 6fbf 3d3e 8cd2 813e 1609 193e bb66 8e3d
000003b0: 33e2 703d 414f 34be 9e47 69be bfe3 82be
000003c0: c95f 9e3d 25d3 1ebe 09db a4bd efe4 34be
000003d0: 6bb7 40bd 4517 3abe 7ce4 49be fdc9 6a3d
000003e0: a22a d7bd 7f37 063e 0da7 e3bd 41f5 5ebe
000003f0: c082 433c 5367 14be c640 2ebd 81ce 87be
0.19532323 0.20170493 -0.062424596 0.22463645 -0.0565723 0.05210213 -0.13397938 0.2112464
0.2609083 -0.17794578 0.22632682 0.10793489 0.2056853 0.02110341 0.10442863 -0.03963594
0.20193973 0.021405915 -0.117731065 0.06581446 -0.118961684 -0.02783315 -0.20797956 0.22501047
-0.14512296 -0.07477403 -0.17601877 -0.19380303 0.0010261759 -0.25648552 0.2295349 -0.17594455
0.19571722 0.08641773 -0.08383835 0.15955399 0.061396904 0.2708341 0.071193114 -0.06003032
0.08125258 -0.0077995933 0.16108641 0.1912235 0.09513358 -0.109999605 0.13310581 0.04631945
0.115163565 -0.15737353 -0.25559327 -0.11576784 -0.16424997 0.23852094 0.096190296 0.11404841
0.1154528 -0.008030252 0.20675237 -0.18157455 0.02106194 -0.18993767 0.08445163 -0.09899651
0.07911634 -0.05379354 0.2188832 -0.16687708 -0.1678314 -0.1678407 0.21839303 0.0722024
0.28187189 -0.21996808 -0.27942905 -0.23163666 -0.13516888 0.07501743 0.13098046 0.21454376
-0.13334046 -0.13736854 0.2020663 -0.0476721 0.18312186 -0.036691982 0.21277323 -0.1522478
-0.14846031 0.11361152 0.0555339 -0.064310536 0.15482529 0.17701799 -0.18723895 -0.13784418
0.24278006 -0.1399008 -0.084722444 -0.1882359 -0.11697072 0.011723119 -0.0755922 -0.20051484
0.056709092 -0.20372897 -0.24636912 -0.16971149 -0.2531741 -0.16440506 0.2580979 0.02125659
0.052269377 -0.268115 -0.19687504 -0.113240115 0.013077777 -0.16488554 -0.12915793 -0.1319255
-0.02995947 -0.06605772 -0.048267946 -0.14494023 -0.17722647 -0.1506337 -0.058372978 -0.1695032
0.24888614 -0.02412901 0.24307428 0.11473842 -0.18626 0.14440459 -0.10042187 -0.1504198
-0.17238727 -0.308814 0.11582323 -0.056401964 0.100522794 -0.17069636 0.21174632 -0.20689578
-0.103501394 -0.009044032 0.15334769 0.2948266 0.17804144 -0.2396938 0.05420678 -0.07545847
-0.03902645 -0.15762715 0.23518269 -0.1895052 0.1532362 0.15748402 0.12319266 -0.11855279
0.24186403 0.12348226 0.11074157 -0.25296348 0.038924273 -0.046874866 -0.11467523 0.21365498
0.06531423 -0.14285536 -0.13068451 -0.020475343 0.14759518 -0.06255128 -0.14389488 -0.08499105
-0.18946692 0.092082106 0.19796166 -0.20104069 0.06096406 0.1146878 0.047752686 -0.11068197
0.13476488 0.13568692 0.08938669 -0.03191547 -0.07661734 0.039637208 -0.05925486 -0.06348794
0.13379014 0.23383963 -0.021925228 -0.08219537 0.0076161423 -0.034305453 0.06601519 0.07235601
-0.23451088 -0.092183106 0.26744655 0.12684055 -0.0149507895 -0.15437476 -0.10795771 -0.17563574
-0.09897557 0.051481355 0.12557718 0.13240178 -0.2595198 -0.14199646 -0.040748082 0.24976857
0.0502973 0.00083225826 0.14920598 -0.07999084 -0.15315732 0.25615415 -0.04978006 -0.07747222
-0.28737196 0.17603251 0.18351904 0.09749709 -0.19208485 -0.25482678 -0.2097037 0.18494642
0.18530057 0.25355947 0.14944872 0.06953188 0.05880947 -0.17608358 -0.22781226 -0.2556438
0.07733113 -0.15510233 -0.0804959 -0.17665456 -0.04704992 -0.18172939 -0.19716066 0.057321537
-0.105061784 0.13107108 -0.11115847 -0.21773244 0.011933029 -0.1449254 -0.04254224 -0.26524737

in_lin.bias f4 [96]
00000000: b0b7 06be 8e32 e2bb 8992 70bc 1592 5fbe
00000010: af27 6dbe 0487 0fbe d691 023e ee9a 153e
00000020: f346 46be a758 3cbd 1873 213d fcdf 68be
00000030: f6b2 0d3e 1d34 843e a13d ae3d 073d 37be
00000040: 80d2 b53d f722 e83d 718c 6a3e 6ff7 ebbd
00000050: 4bac 6ebe e979 ee3d 650e 823c 5361 80bd
00000060: 3074 c9bd 5dea 03be 538c 843e 52aa 3cbb
00000070: 4e4d 453e f36d 773e 4715 ac3d 373d a83d
00000080: 3edc e23b ab15 423e c98d 65be b796 ce3d
00000090: 15d4 babc d34b fd3d 1f48 973d c9d9 bcbd
000000a0: 7ba4 99bc 942e 333e 80c1 fdbd 1530 0abe
000000b0: 48de f8bd 8e89 c9bd 2781 ff3d 46a9 543e
000000c0: 93dd c4bc 7fd8 8d3e 593e acbd 3c5e 14be
000000d0: 027b acbd 7e73 0dbe f4b0 2fbe c9f4 51be
000000e0: f40f 55be dd7b bb3d 83cf 3c3e 24e7 853e
000000f0: d0d6 8c3e 4379 943a 5125 603d bf81 a0bd
00000100: 6616 0b3e 42e7 5ebe 31f4 193e e326 c83d
00000110: ecfe d53d 37a7 e53d 4dd4 8ebd 2bff 723e
00000120: bdf2 363e 18c0 333e cfa3 923d 8894 213e
00000130: 1af5 433e 483e dc3d 8d2a 5f3e 5a3f 1cbd
00000140: 5dd7 2c3e 978f a23d f4d5 243e 38da 903e
00000150: 290f db3d b261 d5bd 876d 1ebc 2809 b73d
00000160: bb35 ab3d 7e6a e4bd 5521 443e 75e2 333e
00000170: cdbd 14be 389d c73b 1c71 8c3c 2004 f8bd
-0.13156009 -0.0069029992 -0.014683374 -0.2183307 -0.2315967 -0.14016348 0.12750944 0.14609882
-0.19363002 -0.045982983 0.039416403 -0.22741693 0.138378 0.2582101 0.085078485 -0.17894374
0.0887804 0.11334794 0.22905137 -0.115218036 -0.23307912 0.11644346 0.015876004 -0.06268563
-0.09836614 -0.12882371 0.2588831 -0.0028788042 0.1926777 0.24163036 0.08402496 0.08214801
0.0069232276 0.18953578 -0.22417368 0.1008734 -0.022806207 0.12367978 0.07386803 -0.09221227
-0.018755188 0.17498237 -0.12390423 -0.13494904 -0.12151772 -0.098406896 0.12475806 0.20767698
-0.024031436 0.27704236 -0.08410329 -0.14489073 -0.084218994 -0.13813588 -0.17157346 -0.20503534
-0.20806867 0.091544844 0.18438534 0.2615291 0.2750764 0.0011327643 0.054723088 -0.07837247
0.13582763 -0.21767905 0.15034558 0.09773042 0.10449013 0.11213534 -0.06974087 0.23730151
0.17866035 0.17553747 0.0716015 0.15779316 0.19136468 0.10754067 0.21793576 -0.038146354
0.1687903 0.07937544 0.16097242 0.28291488 0.10696251 -0.104190245 -0.009669668 0.08937293
0.08359858 -0.11153124 0.1915334 0.17566855 -0.14525528 0.00609174 0.017143779 -0.12110162

layers.0.lin_self.weight f4 [96, 96]
00000000: 4187 d63c b898 45bd ee17 a1bc da0e 0cbd
00000010: 26a9 14bd 9093 0f3e f8a9 133d 7cb9 d43d
00000020: d8a1 3a3d 99dc f43d f156 9c3d f464 893b
00000030: dbdc c7bd ad4c 9abb 9bbc 213d 56b6 853c
00000040: b635 5e3d c711 483d ff6a ae3d f91f 643c
00000050: dbb8 debc ac61 14bd 4e0e 92bd b7f5 d9bc
00000060: 55e8 713a 219d 653d 5018 1f3e d092 0d3c
00000070: 99ab 2abc bd26 4ebc ccd6 823d 2e5c 273d
00000080: be0e 933c b1ff 8d3c da6b 7a3a a9f9 ef3c
00000090: ef46 bd3b b0ad b3bd e8cb 2fbd dc7d c3bc
000000a0: ca67 0cbd f7c7 863d dcf7 9f3d c466 303c
000000b0: ab52 43bd 9f38 f8bc a87d bfbd e495 343d
000000c0: 0e8c 17bd c440 f33d aa8f 273c e8b1 053c
000000d0: 71da 473d ea13 b93c 27aa f6bc 5ae5 a83b
000000e0: 0434 1c3d b252 4bbd 501c 2a3d 575b 58bd
000000f0: f667 3f3d 1594 12bd 5784 6dbd 20a1 743d
00000100: e9c5 73bd e5b7 d63d ea89 9cbd 2e40 e23c
00000110: 878a 6d3c 4e03 a83d d2d7 62bc 35d7 fe3c
00000120: 8bef 013e fc7d 893d 63e7 3e3d 6809 c23c
00000130: f2e3 0dbd 514c 66bd bea5 f43d 7b8b 94bd
00000140: c08f aabc fcaf 423a b9db ef3d b913 8f3c
00000150: a4a2 643c e366 cebc b5b4 403d 2fc7 153d
00000160: 8154 e43d ecff 66bd 3597 063e 8105 c4bd
00000170: b56d 113d 3d2d 733d 9ef3 d23d 0dcd 80bb
00000180: 90a0 83bc be80 edbb 4726 76bd dc08 b7bd
00000190: 982b 8cbd 10e2 d0bb d1b8 993d 3765 b73c
000001a0: 86b4 17bb 3046 173e a26b 1fbd f23c 363c
000001b0: 5262 00bb d1f8 47bd 447a 033e 012b d7bd
000001c0: 4e0d 013d ef4e 94bd fa78 953c 8712 2bbd
000001d0: c282 8d3d 4ac5 82bd d9fc 7d3d cb2b 97bd
000001e0: dc49 1d3b c6da bdbd a8ea e03d d351 91bc
000001f0: caa9 fe3c b971 5e3c 6e27 fd3d 7b56 b13c
00000200: e371 93bd dee7 a4bb 1596 93bd a5da 2b3d
00000210: 6fca 0d3d a831 a7bc 9e8b f5bd c5f4 0a3d
00000220: 3cb5 a5bd ab55 a23d bf11 173e 425a 843d
00000230: b52f 663d 4da7 dfbd 959f 7c3d f4b8 28bd
00000240: 631f 44bd 7d69 963b 1ef3 9e3d 34b9 a03d
00000250: 4818 eb3c 97b3 543b 035d d2bd 089f 22bb
00000260: 1460 fbbd 41e6 833d 9eb4 a1bd ac90 06bd
00000270: 6547 103e ad08 0e3e 4c6f 57bd 7f5d a0bd
00000280: 6a19 633d 3da6 9a3d ee3c 9dba 745f 2a3d
00000290: 1b6e 6cbd 9c2f 973d 8ce9 323e 193d 16bd
000002a0: 50c5 fd3d 161a 683d 16af cf3d d6f6 8d3b
000002b0: 98d1 3c3d f39a c03d 260a 703d 4302 b83d
000002c0: 7d1a a8bc df38 943d 2792 a33d 2d42 c7bc
000002d0: 2ec5 b33d a54c 30bc 7d40 c23d a3ff 1abd
000002e0: 560f 4c3d ebcb 883d 433a 08bd 5a09 b8bd
000002f0: fce2 aebc e34f a03d f3be aa3d c88a 97bc
00000300: d369 f93c 049f b9bd a882 1abc 3c82 b43d
00000310: 11d3 563d 7aef b63c 5d9f d23a a0e9 0c3d
00000320: d8f2 5f3d f5e1 7c3d bcbc 99bc b3c8 743d
00000330: 7db4 53bb e44c c73d a8ea ae3c 786a 8c3d
00000340: 9508 c43d 7f85 973d 45fa 153d 0f62 cc3d
00000350: 8b4b e03c dd04 303d 1dac df3d e4c6 0a3e
00000360: 82a1 50bd 5f77 c33d 50e9 d83d e971 0f3d
00000370: 7da5 b23d 200f f6bc 0624 093e 8ae4 df3d
00000380: 3a12 3cbd 86dc 20bd 3c65 dbbd 619c c9bc
00000390: 7049 5abd 4f13 95bd b249 05bd 100b 883d
000003a0: bf0a 9d3d 097e a93d c23a dd3d df00 f4bc
000003b0: 3cf6 bfbd 32e5 313a 9567 be3d 43e3 103d
000003c0: 6929 66bd 1516 09bc 6e89 29bd db20 a1bd
000003d0: a2c1 df3d cbda 8fbd c8ff 8cbd c4d7 48bd
000003e0: 774e f83c e1aa b03b f4a3 343d 3cbc 933d
000003f0: b2c2 0cbd 3f3f 8cbd 6c89 5f3c dfc3 f1bd
0.026187541 -0.048241347 -0.01966473 -0.03419385 -0.036294125 0.14021134 0.036050767 0.10386941
0.045564502 0.11956138 0.0763377 0.0041929428 -0.09758922 -0.0047088475 0.03948651 0.016322296
0.05425044 0.04884508 0.08516502 0.0139236385 -0.027187755 -0.03622596 -0.07131635 -0.026606424
0.00092280406 0.056058053 0.15536618 0.00864096 -0.010416889 -0.012582478 0.063886255 0.040859394
0.017951366 0.017333837 0.00095528143 0.029293852 0.005776278 -0.08773363 -0.04291907 -0.023863725
-0.03427867 0.06581109 0.07810947 0.010766689 -0.04768626 -0.030300437 -0.09350139 0.04408826
-0.0369988 0.118775874 0.010227123 0.008160092 0.048792306 0.022592504 -0.030110432 0.005154294
0.038135543 -0.04963941 0.041530907 -0.052821483 0.046730004 -0.035785753 -0.057987537 0.059723973
-0.059514914 0.10484294 -0.076434925 0.027618494 0.0144983595 0.08203755 -0.013845401 0.031108478
0.12689035 0.06713483 0.046607386 0.023686126 -0.034641214 -0.056225125 0.11945675 -0.07253166
-0.020820498 0.00074267364 0.11711831 0.01746546 0.013954792 -0.025195545 0.047047336 0.03656691
0.1114893 -0.05639641 0.13143618 -0.09571362 0.035505015 0.059369314 0.103003725 -0.003930694
-0.016067773 -0.0072480133 -0.060095098 -0.08937237 -0.06844252 -0.006374605 0.07505954 0.02238713
-0.0023148372 0.14772868 -0.038921006 0.011122929 -0.0019589853 -0.048821274 0.1283961 -0.10506249
0.03150683 -0.07241618 0.018246163 -0.041765716 0.06909706 -0.06385286 0.062008712 -0.073814
0.0024000322 -0.09270243 0.10982257 -0.017739212 0.031086821 0.013576918 0.12361036 0.021647682
-0.071994565 -0.0050325235 -0.0720636 0.041956563 0.034616884 -0.02040942 -0.119895205 0.033924837
-0.08091208 0.07926496 0.14752863 0.06462528 0.05619784 -0.10920582 0.061675627 -0.04119201
-0.047881495 0.004590212 0.07761215 0.07847825 0.028698102 0.0032455677 -0.10271647 -0.0024814028
-0.12274185 0.06440402 -0.07895778 -0.032852814 0.14089735 0.13870497 -0.052596375 -0.07830333
0.05544416 0.07551239 -0.0011996308 0.041594937 -0.057722192 0.07382128 0.17471904 -0.03667936
0.1239115 0.056665502 0.10140817 0.0043324037 0.04609832 0.09404554 0.05860343 0.089848064
-0.020520443 0.0723741 0.07986861 -0.024323547 0.087778434 -0.010760461 0.094849564 -0.03784145
0.049819313 0.06679519 -0.033258688 -0.08986159 -0.021348469 0.07827737 0.08337202 -0.018498793
0.030445969 -0.09063533 -0.009430565 0.08813903 0.052447382 0.022330988 0.0016069222 0.03440249
0.054674953 0.061738927 -0.018766753 0.059761714 -0.0032303624 0.097314626 0.021352127 0.06856245
0.095719494 0.07398509 0.03661563 0.09979641 0.027379772 0.042973388 0.109215 0.13552433
-0.050935276 0.095442526 0.10591376 0.035020743 0.08722971 -0.030036509 0.13392648 0.10932262
-0.04591582 -0.039272808 -0.10712668 -0.0246107 -0.05329269 -0.072790734 -0.032540984 0.06642735
0.07668065 0.082759924 0.10802223 -0.029785572 -0.09373137 0.0006786167 0.092971005 0.035372984
-0.056191836 -0.008367081 -0.04139083 -0.07867595 0.109256044 -0.07024153 -0.06884724 -0.049033895
0.030310852 0.005391464 0.04410167 0.07213637 -0.034365363 -0.06848001 0.013643604 -0.118049376

layers.0.lin_self.bias f4 [96]
00000000: 7ea8 253d 99f3 003e 5745 1e3d 55a7 0d3d
00000010: 104c 1ebd e7d1 453d 1a68 9abd d1f7 d4bd
00000020: f3d4 41bc 81f0 99bd 0f58 84bd cb2c babc
00000030: 44f2 a43d 331a b03d 5364 823b 2447 583c
00000040: f63c ea3d a057 423d 5a61 cb3d 2628 2dbd
00000050: 264d 3ebd 1093 4bbd b9c6 fd3c b805 1e3b
00000060: 543d e1bc 5088 c63d 6f48 89bd 86f6 0e3d
00000070: eb3e 0c3d 48ef 2abd 81b0 9f3d 2ea0 183d
00000080: 3967 fcbc 5a9f 07bd eb50 95bc dc44 98bd
00000090: 7713 ba3d 118b fa3d 75bf 56bd 8495 e43c
000000a0: 3602 d93c 7ff4 343d 2419 1cbd b9c3 0fbd
000000b0: f2ab 083e d52e b13d 6390 093e 9eef d23d
000000c0: f037 d93c 5131 cd3d 16e5 11bc 36fb ad3c
000000d0: 5a11 fcbc b751 d83d 059f 783b f3bb 2e3d
000000e0: a81c 80bd 0e7c 863d 9dfe 5cbd 522e 78bc
000000f0: d117 a33c e535 853d 6370 1f3d 8e8b 3c3d
00000100: b16f 56bd e0e1 abbd 9a85 6e3d 0881 42bc
00000110: 5705 9bbd ce63 12bd a618 e4bd b20d 3f3d
00000120: cca6 ff3c 357c ed3d 4586 66bd 8e66 f5bc
00000130: bd73 563d 38c5 1ebb e58c f03d b6bb e03c
00000140: 843a c03c 4b71 11bd 5996 7c3d 9200 bbbc
00000150: c9f2 893d 8857 713d 1db3 77bd 2586 6cbd
00000160: 537f 0cbd 7c0a b43d 2a71 c5bc 06cf 1d3d
00000170: f526 273c 9d1a 1b3d 6b2d dbbc 16b8 ed3c
0.04044389 0.12592925 0.038640346 0.03458341 -0.038646758 0.04829588 -0.07539387 -0.1039883
-0.011830556 -0.075165756 -0.06462108 -0.022726437 0.08054021 0.08598747 0.0039792447 0.013200555
0.114374086 0.047446847 0.09930678 -0.042274617 -0.046460293 -0.049700797 0.030978547 0.0024112295
-0.027495064 0.09693968 -0.06703269 0.03490307 0.03423969 -0.041732103 0.07797337 0.037262134
-0.03081094 -0.033110954 -0.018227061 -0.07435009 0.09085744 0.12233556 -0.05242868 0.027903326
0.026490312 0.044178482 -0.038109913 -0.035098765 0.13346842 0.086515106 0.13433985 0.102996096
0.02651593 0.10019172 -0.008904716 0.02123795 -0.030769993 0.10562461 0.003793658 0.04265971
-0.06255466 0.0656663 -0.053953756 -0.015147762 0.019908817 0.0650442 0.03892554 0.046031527
-0.05235261 -0.083926916 0.05823288 -0.011871584 -0.07569378 -0.035739712 -0.11137514 0.04664392
0.031207465 0.11595956 -0.056280393 -0.029956128 0.05235647 -0.0024226438 0.117456235 0.027433258
0.023465402 -0.035508435 0.06166682 -0.02282742 0.06735761 0.058921367 -0.06047355 -0.057745118
-0.034301113 0.08791062 -0.024101812 0.03852751 0.010202159 0.037867177 -0.026755055 0.029018443

layers.0.lin_neigh.weight f4 [96, 96]
00000000: 7757 8f3d 1f20 493d 01fa bf3c 0a1b b9bd
00000010: c47b 4b3d c287 67bb 14c6 963d 1297 803d
00000020: 337b 1fb9 7e61 8b3d a7f0 f3bc 1399 783c
00000030: adca e9bb 5537 133d ca02 933d eff9 d33d
00000040: e547 cbbc af14 d43d 7e6d 1bbc 470e c93d
00000050: d43f 513d 72c1 833c 70a7 aabc bac0 e4bc
00000060: 5827 b6bd 560c 7cbd 0054 033d 955a de3d
00000070: e20f 873d 12ac b83c de5a 6fbd ac87 a63d
00000080: e1c2 9f3d 68cf 17bd abc5 293d 16c1 9dbd
00000090: 41a8 d0bc 1c08 28bd 5c5e 25be e59f c3bb
000000a0: 8e47 033d 0080 5d3d f23d e23d f394 ab3d
000000b0: b364 e9bd 2c13 ebbc 8230 5e3d 43ee 9dbd
000000c0: 12ef cfbc 0a03 8b3d 7694 84bd 0c4d b33d
000000d0: cbea 71bd c39a 09be f950 91bd f7d5 a3bd
000000e0: 0311 493d 4a7c 0e3d a774 47bd 143c c93d
000000f0: 6abf 2dbd 0a95 ad3d ac92 483d 7cf0 cdbd
00000100: d5b4 d53d 25ba 183d 409c 8dbd 601f ab3d
00000110: 005b f63d 3f4b 9bbd 8323 e1bc 51bb a0bd
00000120: d22a f03d 23b9 713d e576 dd3d bb22 b93c
00000130: b67b 05bc e024 acbb 74b3 6dbd 4f29 843d
00000140: 4dc2 50bd 0317 523c 54fb 7a3c fb0f 443d
00000150: 1188 12bd 5d47 8dbc d7bd 473d 89f8 9bbd
00000160: f47e fabc d4a0 c4bd ffa1 26bd 4387 d43d
00000170: e0a7 bb3d 498b b03d df71 55bd 3069 163d
00000180: 2162 ae3c 2af3 4d3d 0d98 9f3c f0af 9cbd
00000190: 0779 a6ba c02f 88bd 2749 8e3d c4d1 b03d
000001a0: 8cac 4abd 7a03 66bd 8b06 283c 1d9e 293d
000001b0: a14a 9ebd ce68 b83d dd46 c63d 0d89 b8bd
000001c0: 9b62 a03d 494f 373d 06a7 0abd 0c93 aa3d
000001d0: 9c97 27ba c5a7 d63d 86f4 95bd 3b0a f83d
000001e0: 8434 9cbc 9ae9 d8bd 8535 ad3d f2a0 48bc
000001f0: f45d 2d3d 1d0f 373d 9f64 333d 632c 8c3d
00000200: 653e cfbd bd96 b5bd 17ad 4ebd f75a 09bd
00000210: ed88 a4bd d4a7 da3c 484d 97bd 8f6a c9bc
00000220: 898f 9bbc 4a9c a43d eabe ddbc a9e6 bc3c
00000230: 1331 473c 9e8b 543d 6e8a c2bb 1e86 313d
00000240: a3cc d5bc db3f f33d d495 523c 32a7 8c3c
00000250: 7572 633d 0e0f 2fbe f593 293d 520c 9b3d
00000260: 18f1 0a3d 8d26 973d 95f2 8fbd 462c c63d
00000270: 39f4 783d 9edd bfbd bb15 cd3d fe51 513c
00000280: 72c2 b43c 6282 0c3e 4b3f b63c a4e3 123e
00000290: 2b86 75bd 1db8 b1bd b73f b73b 98f9 333c
000002a0: 9827 563c 7ab1 37bd f6da bb3d c4d2 843d
000002b0: d5d5 8ebd 7c04 21bd 6269 c13c eaf2 a13c
000002c0: a9fa b9bd 33c1 a33d 9dcf 42bd 25dd ac3d
000002d0: 0df6 88bc 7431 c9bd 2cb2 dd3c 16ed 2abd
000002e0: e382 be3d c5df 49bd 5fd0 c23d a40f dc3d
000002f0: 1706 64bd 7001 69bc 981f b53d f091 d33d
00000300: 9977 b43c 73e4 9a3d 5d37 8a3d 2f00 4d3d
00000310: 4b5e e1ba daa7 123e 317b f5bc 7b83 f03c
00000320: 0bbf 02bc 685d 3a3d 1d03 a03d 5130 9a3d
00000330: 5cad 5c3c a4f5 db3d 70f4 fb3d 18c4 643d
00000340: 5e79 a3bb 7589 8a3d 03d6 c33d 0a2f b33d
00000350: a040 433d 5360 b03d fcc8 57bd 3f53 593d
00000360: 4423 98bd 83b0 443d a5db 763d 74d6 453c
00000370: 4c66 9e3d df6a 23bc 72cf c43d 2d2d 893d
00000380: 1adc 1fbd 6faf a0bd 22c6 133c 5401 71bd
00000390: c992 b6bc bf23 1b3d 8c1d 29bd 0a50 b9bc
000003a0: 0a31 c2bc 951d 4bbd c302 bbbc 2dc0 133d
000003b0: 5877 97bd 8ad7 b5bd fd97 cebd bcb8 91bd
000003c0: 1c47 8cbd e93d 843d a5f7 1abd ff15 8a3d
000003d0: 9433 8a3d ed59 0bbe fe23 193d 975a dfbd
000003e0: 9961 cb3d 4212 b53d c26e 503d 465e 2abd
000003f0: 089a fb3c 5c26 6cbd 32ee 0a3d db09 0b3d
0.069991045 0.0491029 0.02343464 -0.090383604 0.04967858 -0.003532872 0.07361999 0.062788144
-0.00015209317 0.068057045 -0.029777838 0.0151732145 -0.0071347565 0.03594144 0.07178266 0.103504054
-0.024814555 0.103555076 -0.009486554 0.09817176 0.051086262 0.016083453 -0.020831794 -0.02792393
-0.08894223 -0.061535202 0.03206253 0.10857121 0.06594826 0.022542987 -0.058436267 0.08131346
0.07800842 -0.037063032 0.041448276 -0.07702844 -0.025470855 -0.04102336 -0.16149276 -0.0059699886
0.03205066 0.05407715 0.110469714 0.08378019 -0.1139616 -0.028695665 0.05424548 -0.077114604
-0.025382552 0.06787689 -0.06473629 0.0875493 -0.059061807 -0.13437943 -0.070955224 -0.07999795
0.04908849 0.0347865 -0.048695233 0.09825912 -0.042418875 0.084756926 0.048968002 -0.100556344
0.104348816 0.037286896 -0.06914568 0.08355594 0.120290756 -0.075827114 -0.027482754 -0.07848228
0.11726917 0.05901445 0.10813693 0.022599569 -0.008147171 -0.0052534193 -0.058032468 0.064531915
-0.05096655 0.012822869 0.01531871 0.047866803 -0.035774294 -0.017245943 0.04876503 -0.07615764
-0.030578114 -0.09600988 -0.040681835 0.103773616 0.09162879 0.086203165 -0.05211055 0.03672141
0.021287026 0.050280727 0.019481683 -0.07650745 -0.0012700864 -0.066497326 0.069475465 0.086337596
-0.04948096 -0.05615566 0.010255466 0.041410554 -0.07729078 0.09004365 0.09681485 -0.09010515
0.078313075 0.044753347 -0.033850692 0.08328828 -0.0006393136 0.10481218 -0.0732203 0.12111326
-0.01906801 -0.10591431 0.08457474 -0.012245404 0.04232593 0.044692148 0.04379713 0.068444036
-0.10119323 -0.08866642 -0.05045804 -0.033534016 -0.08033929 0.026691355 -0.07387787 -0.024586944
-0.018989341 0.08037622 -0.027068574 0.023059206 0.012157696 0.05189096 -0.0059369123 0.043340795
-0.026098555 0.11877414 0.012853105 0.017169569 0.055529077 -0.17095587 0.04140087 0.07570709
0.03392133 0.073804 -0.07028691 0.09676413 0.060779784 -0.09368442 0.100139104 0.012775896
0.022065375 0.13721612 0.022246977 0.1434465 -0.059942406 -0.08677695 0.005592312 0.010984801
0.013070963 -0.04484699 0.09172623 0.06485513 -0.06974379 -0.039310917 0.02360982 0.01976915
-0.09081013 0.07995834 -0.047561277 0.084406175 -0.016718889 -0.098238856 0.027062498 -0.04173001
0.093023084 -0.04928567 0.095124 0.10745171 -0.05566987 -0.014221534 0.08843917 0.1033057
0.022029685 0.075631045 0.06748841 0.050049003 -0.0017194239 0.14321843 -0.029965969 0.02935957
-0.0079801185 0.045499235 0.07813094 0.07528747 0.0134690665 0.107402116 0.12302482 0.055851072
-0.0049888333 0.06764499 0.09562304 0.08749206 0.047669053 0.086121224 -0.052681908 0.053057905
-0.074286014 0.048019897 0.060268063 0.012075055 0.07734355 -0.0099742105 0.096098796 0.0669807
-0.039028265 -0.07845961 0.0090194065 -0.058839157 -0.02228679 0.037875887 -0.041287944 -0.022621173
-0.023705024 -0.04958876 -0.022828465 0.036071945 -0.0739581 -0.088790014 -0.10087583 -0.071153134
-0.068495005 0.06457121 -0.03783383 0.06742477 0.06748119 -0.13608523 0.03738784 -0.109059505
0.09930725 0.08841373 0.050886877 -0.041593812 0.030713096 -0.05765377 0.033918567 0.033944946

layers.1.lin_self.weight f4 [96, 96]
00000000: 30b5 283d 83b1 273d 83df a6bd d012 4b3c
00000010: e8e6 5e3d 63c3 2e3b d5ea 5fbd fa26 3bbd
00000020: 7822 653d d26c 0a3d 0368 a53c 02af 9fbd
00000030: 9c5a d3bd e38b 8d3d 3888 3abb 9e11 953d
00000040: af50 dbbd 73c4 89bd 721c cabd cd56 c13d
00000050: 276c 233c 3a59 ca3c 4115 8e3d c2a5 90bb
00000060: 0f21 a83c f2c4 abbd c1b8 8b3c 4f8e 863d
00000070: d58a 76bc dada 90bd 9b32 58bd 5bec 27bb
00000080: c0e2 5c3d e14b e73b ac3f 96bd 4b72 b13b
00000090: 29e2 50bd 0e92 fdbb dfcd 823d ec84 babd
000000a0: 6a39 e0bc 3c47 90bd 4fce b03d 434b bebd
000000b0: 64d3 c5bc 1c50 c8bd 4fa4 b0bd bfaf 40bd
000000c0: ea5b 993c 9d28 c8bd 471c 2bbc 86fa 90bd
000000d0: 1802 7e3d bb93 95bd 8f18 c2bd 9140 9fbc
000000e0: 8128 b3bd b850 3ebd 4814 0a3d d1c8 b4bd
000000f0: ebe1 2ebd 4ffa 423d 95b2 943d 7186 933d
00000100: 6879 983d a8d4 aa3d 9138 36bd 3eb0 39bd
00000110: d646 f4bc 1cda 803c 12be 2c3c 6ac8 91bd
00000120: 0030 aa3d e9fb 12bd 2b03 9e3d 53c0 5fbb
00000130: 2540 1b3d 02ed b1bb a20d 1e3d fbfc 7dbd
00000140: ff1c d63c fd7d 88bd c62a 533d d819 7fbd
00000150: b435 673c 018b c6bd c36f 93bd 9a7a a83d
00000160: 3f76 8b3d dae9 d2bd 0ce8 82bd 3d6f e6bd
00000170: 1c2f 2b3c 09f4 14bd 1e2d a1bc cbe5 043d
00000180: 0400 0f3d eae2 323d fc32 bd3c 4512 86bd
00000190: 4277 a03d be85 a8bd 2472 2fbd edf3 0abd
000001a0: ddeb 73bd 79df 8a3b 5dc3 47bb cf0b 0fbd
000001b0: 37f9 ffbc 6c3e 4dbd 9653 973d 8cd3 96bd
000001c0: f190 af3d af4c c83c fa14 8cbd 2a8f efbb
000001d0: fda2 313d 5586 823d e957 80bd 4c57 95bd
000001e0: 60ab 29bd 9d80 ff3c d222 e53d 5d50 cb3c
000001f0: ef3b ba3d 87f9 90bd 9296 c5bd daa6 233d
00000200: 9416 9a3d c1d7 dc3d 09b7 5c3c d102 8abb
00000210: f89f 843d c4d3 963d 6e94 bebd df0e 41bd
00000220: a84b 923d c05f acbc 1501 92bd 7e33 97bd
00000230: 24c5 eebc ba53 2cbb 332b 693c 069a 8dbd
00000240: e228 c23d 81df 003c f0e0 be3d cfdc 17bd
00000250: 5a83 bc3d 4e07 253d d6bd afbd d4d6 ad3d
00000260: 8493 973d 1db2 8fbd e4e1 ab3d a70e b4bc
00000270: def9 f0bc d48c c9bc 40a0 4cbd c8e3 273d
00000280: 68bf 87bd 5c39 76bd 7423 db3d 9cf9 a0bd
00000290: 9af5 74bd 26ce 8b3d 502b c03d 566f 45bd
000002a0: b522 43bd 1e36 6abd 7958 873d ee36 6d3c
000002b0: 8c12 9bbd 89ce 2dbd aae2 72bd 40c2 b43d
000002c0: a671 50bd e958 82bc 3238 8e3d 8874 9e3d
000002d0: 897c c4bd 8e95 3b3d e9a1 c63d 5fea c43d
000002e0: 1722 273d fd10 ab3b b680 3fbd f697 37bd
000002f0: 2f9f 6cbd b4f8 2cbd 3014 8f3d 7db5 e13d
00000300: 697c b93d 2133 ae3c fac0 f13c a79b 113c
00000310: 03c9 08bd a4d5 3f3b 9efb 183d 2b7f 0e3c
00000320: 6c5b 403d a51e 153d 8473 143c d2af 5d3c
00000330: 13e3 83bd d3d5 0b3d 89bd a63d 1e31 98bd
00000340: 47a2 263d 7a73 ad3d 5abd 09bd ffdb 433d
00000350: 6bcc 79bc a9b8 8cbc d89f 33bc 3825 983d
00000360: 89d4 01bd f880 963d 2278 a2bc 68ac 48bb
00000370: 7418 2a3d c294 8ebd 80b7 c13d 88dc d73d
00000380: a87d 043e 1c20 78bc a2b5 6e3d 3357 c23d
00000390: 35e2 923d b76d 243b a724 b63d fabd b43d
000003a0: 3400 f13c bdd6 58bb 06d4 b7bc e150 f03d
000003b0: c025 2c3d eca4 ba3c 31c8 553d 1255 5ebc
000003c0: 8d7e 213d 0619 453d 1c96 7d3c 0aa6 38bb
000003d0: da2b 823d 1694 f33d 82a0 a93d ee3d 033e
000003e0: c014 823d a4a7 b73d bb8b f4bc dcb6 6bbd
000003f0: d950 bd3d 7900 263d b7e4 283d 0aca 2cbd
0.04118842 0.040940773 -0.081481 0.012394622 0.054419428 0.0026666753 -0.054667313 -0.045691468
0.055941075 0.033795185 0.020191198 -0.07797052 -0.10320017 0.06911447 -0.002846254 0.07278751
-0.107087485 -0.06726923 -0.09868707 0.09440384 0.009974516 0.02470075 0.069376476 -0.004414291
0.020523576 -0.08387174 0.017055871 0.06570112 -0.015047749 -0.070729926 -0.052782636 -0.0025623057
0.053927183 0.007058606 -0.07336363 0.005415236 -0.050996933 -0.0077383583 0.06386923 -0.09107384
-0.027371127 -0.07044837 0.086331 -0.09291699 -0.02414865 -0.09780905 -0.086250894 -0.047042605
0.018720586 -0.09773371 -0.010443754 -0.070790336 0.062013716 -0.07303568 -0.094773404 -0.019439967
-0.0874796 -0.0464637 0.033710748 -0.08827365 -0.04269592 0.047601994 0.07260624 0.07203377
0.074450314 0.08341342 -0.04448754 -0.045334093 -0.029818933 0.015729003 0.010543363 -0.07118304
0.083099365 -0.03588477 0.07715448 -0.0034141734 0.03790297 -0.005429865 0.03858722 -0.06200884
0.026136873 -0.06664655 0.051554464 -0.062280506 0.014111925 -0.09694482 -0.07199051 0.082265094
0.06809663 -0.1029851 -0.06391916 -0.11251686 0.0104482435 -0.036365543 -0.019674834 0.03244571
0.034912124 0.043673433 0.0230956 -0.065464534 0.078352466 -0.08228634 -0.042833462 -0.033924032
-0.05955111 0.004238066 -0.0030481436 -0.03492337 -0.031246765 -0.05010836 0.073889896 -0.07364568
0.08572567 0.024450628 -0.068399385 -0.0073107677 0.04336833 0.06373278 -0.062667675 -0.07292041
-0.0414232 0.031189257 0.11188282 0.024818594 0.09093463 -0.070788436 -0.0964786 0.039954044
0.07523838 0.10783339 0.013471373 -0.0042117615 0.06475824 0.0736461 -0.093056545 -0.047133323
0.071433365 -0.02104175 -0.07129113 -0.07382868 -0.029146738 -0.0026295022 0.014231491 -0.06914143
0.09480454 0.0078657875 0.09320247 -0.037075814 0.09204741 0.04029017 -0.0858113 0.08488241
0.07401183 -0.07016394 0.083926946 -0.021979643 -0.029416021 -0.024603285 -0.049957514 0.040988714
-0.06628305 -0.060113296 0.107001215 -0.07860109 -0.059804536 0.06826429 0.09383261 -0.04820188
-0.04764052 -0.057180516 0.06608672 0.014478428 -0.07571897 -0.042433295 -0.059298195 0.08826113
-0.050889634 -0.015911536 0.06944312 0.0773707 -0.09594066 0.045796923 0.09698851 0.09615015
0.040803995 0.005220531 -0.046753608 -0.044822656 -0.057768997 -0.04222937 0.06986272 0.11020944
0.090569325 0.021264615 0.029510964 0.008887208 -0.033394825 0.0029271627 0.037349336 0.008697311
0.046962187 0.036406178 0.009060744 0.013530688 -0.06439795 0.034139466 0.0814162 -0.07431243
0.040682103 0.08469291 -0.033627845 0.047817226 -0.015246491 -0.017177897 -0.010963403 0.07428974
-0.03169683 0.073488176 -0.019832674 -0.003062034 0.041527227 -0.06961967 0.09458828 0.1054011
0.12938559 -0.015144374 0.058278687 0.09489288 0.07172052 0.002508981 0.0889371 0.08825298
0.029419042 -0.0033086978 -0.022439968 0.117341764 0.04202819 0.022783719 0.05219287 -0.013570087
0.03942733 0.048119567 0.015477683 -0.002817514 0.0635602 0.118934795 0.082825676 0.12816593
0.06351614 0.08967522 -0.029851785 -0.057547435 0.09243936 0.040527795 0.041233744 -0.042184867

layers.1.lin_self.bias f4 [96]
00000000: 2804 7dbd dfaf 6b3c e218 963d a9c9 203d
00000010: 0e90 8cbd 0726 2ebd 813c 0ebd 6573 db3d
00000020: 14e8 5b3c da46 33bd f566 2f3d 6f63 00bd
00000030: 1c36 993c bff7 84bd d084 e0bc a8a7 003e
00000040: cd2d 1c3d 4def fd3d 6e90 d43d a747 143d
00000050: 4357 de3d d7f2 f6bc 5be6 cb3d b524 7839
00000060: 8d9e 8bbd 59cb 873d 5b26 2a3d 0101 70bd
00000070: eae9 b53d 3d7c 60bd dd4c 8abd b8ac 57bc
00000080: 16a1 a23b d583 e93d 1f58 65bd 6025 47bd
00000090: f6fc b53c 4866 023e 296f 043e 6a74 cebc
000000a0: 07b4 ae3c c214 e23b 3e96 063e 039b 453d
000000b0: 6084 0b3d 0ae3 503d f7cf 38bd 71b3 77bc
000000c0: 2942 4fbd 7f52 7e3d df11 cf3d 82f3 5f3d
000000d0: 7614 80bc 2056 d03d 3e00 3b3d 0326 7cbd
000000e0: 3141 71bd 04dd 953d 4205 de3d ba62 f33d
000000f0: 3d5c 523d 2153 9ebd 1e20 17bd b127 213d
00000100: fb31 bc3d dca3 05bd 88de 7e3d 72e8 c63d
00000110: 30a9 8f3d ddbf 9639 ebde 143a d018 39bd
00000120: b34e 013d 1d1e 78bd 8299 ac3d dfdb 433d
00000130: 200f 893d ecfe 9f3d d93e 7fbb e40d 953c
00000140: 14f4 55bc d742 963d 53ae 913d 25b6 663d
00000150: e5fd 153c 7a70 563d 95ba debc fc3d 4bbd
00000160: 2897 c2bd 768b b63d 74e4 cdbd 3f44 dbbc
00000170: df24 9bbc 5a1e 233c 210d d83d 9695 dc3d
-0.06177154 0.014385193 0.07328965 0.039254818 -0.06863414 -0.042516734 -0.03472567 0.10715369
0.013422031 -0.04376874 0.042822797 -0.031344827 0.01870256 -0.06492566 -0.02740708 0.12563956
0.038129617 0.123991586 0.1037911 0.036201145 0.108564876 -0.030145092 0.09956046 0.00023664797
-0.068173505 0.06630582 0.041540485 -0.058594707 0.08882506 -0.054805983 -0.06752942 -0.013163738
0.0049630506 0.11402098 -0.055992242 -0.048619628 0.022215348 0.1273433 0.12933029 -0.025201995
0.021326078 0.006899447 0.1314325 0.048243534 0.03406179 0.05099777 -0.045120206 -0.015118466
-0.050600205 0.062090393 0.101108305 0.054675587 -0.015634757 0.10172677 0.045654528 -0.06155969
-0.058900062 0.07317546 0.108408466 0.11884065 0.051357497 -0.07730699 -0.036895864 0.039344493
0.091892205 -0.03262697 0.06222394 0.09712304 0.07014692 0.0002875318 0.00056789693 -0.04518968
0.031569194 -0.060575593 0.08427717 0.047817107 0.06692338 0.07812294 -0.0038947372 0.0181951
-0.013058681 0.073369674 0.07113328 0.05632605 0.009154771 0.05235336 -0.027188579 -0.04961966
-0.09501487 0.08913319 -0.100533396 -0.02676594 -0.01893848 0.009955967 0.10549379 0.10770719

layers.1.lin_neigh.weight f4 [96, 96]
00000000: d275 67bd 4c31 b1bc 092a d2bd bc6c 92bd
00000010: f5bd 10bd c160 0cbd 239b 5e3d 8295 bbbc
00000020: 7bcb e63c 853c a7bd 0524 31bd 9fe8 4d3c
00000030: 32a8 34bd 6ab4 af3d 3e1e 8abc f82f 9f3d
00000040: ff7c 0f3d bfff 023d 8632 debd c4a5 4c3d
00000050: 588d a6bd db66 bc3d 3b46 773d c0f9 6bbd
00000060: 24b6 2e3b 8188 a43c 0f6e cfbd 9de4 ff3b
00000070: 420f a4bb db02 cc3c 4434 823d d5d5 83bd
00000080: d315 d2bd 1d74 9dbd 07e5 c0bb 68c4 09bd
00000090: 269e 9ebd 6385 53bd c244 4b3d fdd7 99bd
000000a0: 71ed 8d3d b279 493d b62c 40bd c51b 02bd
000000b0: 5483 2f3c 7061 5d3d d223 9ebc 0a67 95bd
000000c0: ced1 a13d f3ae 0dbd b0c5 0b3d 4b73 9e3d
000000d0: c594 1d3c 5512 a53d b039 1bbd 495a 91bd
000000e0: 5bf5 1e3d e9c0 a23d c7f3 cf3d 2dfd cb3d
000000f0: 922f 933c a9c4 dcbd 11d5 8d3d 6004 b13d
00000100: 86bc d9bd 13f2 81ba 2b9c 69bb 097b babc
00000110: e8d7 453d 7139 72bd f041 32bd de95 c3bd
00000120: b081 17bd 1d17 83bd 711b 57bd 133e 6c3d
00000130: d1c6 debc 8ba2 b0bd 3dc9 79bd 8dea 023d
00000140: c8df 79bd d486 b33d ce7b 283d 17da 8dbd
00000150: 0a6c aabd 7f20 24bd bd1e cebd 593e 5e3d
00000160: 0447 b8bd 4854 243d 9247 82bd 62e6 b83c
00000170: 0ceb b63c 5293 2b3d 37bf fe3c cc03 853d
00000180: 4a97 a03d d345 0e3e aefc b5bc 9c14 89bd
00000190: aa90 48bc 8214 efbc bf6c 66bb 8c67 39bd
000001a0: 3a79 a3bd e530 d0bc 0287 d33d 486c ad3d
000001b0: 6692 05bd 56f3 b13d bbd4 193d ece4 52bc
000001c0: 7197 ffbd 61a0 ba3d cddd b5bd 0335 e73c
000001d0: b8e1 a8bd 9baa d13d 9fd3 adbd 1d9f 553d
000001e0: 543c bdbd f65c b239 8ab3 c13c fa3f c63d
000001f0: 6377 1fbb 67be af3d 4049 a63d 8760 9a3d
00000200: 47ff a33d 6a18 b3bc 26ac 493c 1077 89bd
00000210: 4368 d33c 3ad7 773d fd8e ae3c 04be a8bd
00000220: aab6 45bd 01bd 2d3d dc62 a5bd ab30 c03d
00000230: f486 1cbd 22a0 23bc a594 3abc 1765 2ebd
00000240: 0635 96bd 44b9 9a39 347f f4bc 7769 993d
00000250: 7aa8 aabb ef60 13ba 6558 673d 477f df3d
00000260: 4b55 a6bd d9f1 dfbc b3a0 9abc 16e1 b93d
00000270: d42b abbb b3b2 a7bc 2f0e 1bbd d8d0 5c38
00000280: ed26 babd 4478 c2bd 0613 393d 62e4 223c
00000290: b38d d7bd f238 54bc f941 17bd 84ff 473d
000002a0: 9d6c 9f3d d275 c43d 2b26 e53c 0e03 cf3d
000002b0: c177 c63d 05d4 9bbc 8a97 8cbd 3f1a 9fbb
000002c0: 490d aa3d d222 4d3d 5091 12bd 1710 68bc
000002d0: 720a 893d aa6b 483d f562 a53d 4f5f 1c3d
000002e0: fcde bcbc a353 b1bd b2bb 843d c55f 82bd
000002f0: ccb5 8abd 9c83 6f3b ff7d cf3b 7bc5 97bd
00000300: 9fc5 a53d b642 b03d e963 43ba caa0 08bd
00000310: 4a1e 6ebc f17c 9f3d 443e 9a3d 3f3f b9bd
00000320: 961d f1bc 901e c5bb 1d63 82bd a533 aabd
00000330: 8512 493d 5e59 9a3b be0b 27bd fe1a c33d
00000340: 796e ddbd cfe3 b0bd 7c02 c33c 193d 9dbd
00000350: a775 e23d 73de 613c fd1e a5bc 0607 653d
00000360: bb19 11bd 6fa1 52bd 418c b43b a221 e93d
00000370: cbff b9bd 783a ab3d 65fb 84bd 4a36 2b3d
00000380: 74da 4abd 43bd 8ebb 1f27 1cbd e41c d43d
00000390: 9967 833d c7fd b73c fdf7 ce3d d5b9 72bd
000003a0: 310d 69bd 718e 863d 380d a03d cde1 593d
000003b0: ff6f 76bc 8321 5abc 10ee 003e b3e0 cebc
000003c0: eb85 65bd 6d93 c33d fb7c ab3a 5b95 b4bd
000003d0: 9fd0 1abd f6a1 80bd 4933 bbbb c61c 303d
000003e0: 2adf 05bd 90e2 a43d 3b2a 5ebd dd90 d33d
000003f0: 9bcf 76bd 1570 94bd 829a 8b3c bb37 003e
-0.056508847 -0.021629952 -0.10261924 -0.07149646 -0.035337407 -0.03427196 0.05434717 -0.02289844
0.028173199 -0.0816584 -0.04324724 0.012567668 -0.044105716 0.08579333 -0.016860124 0.07772821
0.035031315 0.03198218 -0.1084948 0.049962774 -0.08132428 0.091993056 0.06036971 -0.057611227
0.0026658857 0.020084621 -0.10128414 0.0078092352 -0.0050067017 0.024903705 0.06357625 -0.064372696
-0.10258069 -0.076881625 -0.005886677 -0.033634573 -0.07745008 -0.05164088 0.04962612 -0.075118996
0.06930054 0.049188323 -0.04691764 -0.031764764 0.010712463 0.054048 -0.01930419 -0.07295044
0.07901345 -0.034590673 0.034124076 0.07736834 0.009617989 0.08060137 -0.037896812 -0.07097299
0.038808208 0.07946951 0.10153919 0.09960399 0.01796702 -0.107796974 0.06925405 0.086434126
-0.10631661 -0.0009914063 -0.0035646062 -0.022763746 0.048301607 -0.05913681 -0.043519914 -0.09550069
-0.036988914 -0.06400893 -0.052516405 0.057676386 -0.027194412 -0.086247526 -0.06098293 0.031961966
-0.06100443 0.08765951 0.041133694 -0.06926363 -0.08321388 -0.040070053 -0.100644566 0.054258678
-0.0899792 0.04011944 -0.06361307 0.022570793 0.022328876 0.041888542 0.031097038 0.06494865
0.07841356 0.13893823 -0.022215214 -0.06693384 -0.012241522 -0.029184584 -0.0035160033 -0.045264766
-0.079821065 -0.02541394 0.10328485 0.08467919 -0.03261032 0.08688991 0.03755639 -0.012871962
-0.12480057 0.09112621 -0.08880196 0.02822352 -0.082461774 0.102376185 -0.08487629 0.052153695
-0.09240022 0.00034020067 0.023645181 0.09680171 -0.0024332635 0.08581238 0.0811944 0.075379424
0.08007675 -0.021862227 0.01230911 -0.067121625 0.025806552 0.06050799 0.021308417 -0.082393676
-0.048269905 0.042416576 -0.080754966 0.09384283 -0.03821464 -0.009986909 -0.011387979 -0.042576876
-0.07334332 0.00029511203 -0.029845811 0.07490819 -0.0052080723 -0.0005622049 0.056480784 0.10912948
-0.08121737 -0.027337002 -0.018875455 0.09076135 -0.0052237306 -0.020470953 -0.037855323 5.264659e-05
-0.09089456 -0.09495595 0.045184158 0.009942146 -0.10525074 -0.01295303 -0.03692815 0.048827663
0.07784388 0.09592785 0.027972301 0.101080045 0.0969081 -0.019021997 -0.06864841 -0.0048554237
0.08303315 0.050082035 -0.035783112 -0.014163992 0.066914454 0.0489308 0.08075515 0.03817683
-0.023055546 -0.086585306 0.064811125 -0.06365923 -0.06772956 0.003654695 0.0063321586 -0.07410713
0.08094334 0.08606474 -0.00074535474 -0.033356465 -0.014533589 0.077875026 0.075314075 -0.09045266
-0.029433053 -0.006015606 -0.063665606 -0.08310632 0.049089927 0.0047103604 -0.040782683 0.09526633
-0.108120866 -0.08637201 0.023804896 -0.07677669 0.11057597 0.013785946 -0.020156378 0.0559149
-0.03542493 -0.051423486 0.0055098836 0.11383368 -0.09081992 0.083607614 -0.06493262 0.04179982
-0.04952474 -0.004356058 -0.038123246 0.10357073 0.06416244 0.022459878 0.10105894 -0.059259254
-0.056897346 0.06570137 0.07815021 0.053193856 -0.01504135 -0.013313654 0.12590814 -0.02525363
-0.056035917 0.095496036 0.0013083512 -0.0881755 -0.037796613 -0.062808916 -0.005712901 0.04299619
-0.03268353 0.08051026 -0.054239493 0.10330365 -0.06025658 -0.072479405 0.017041449 0.1252126

net.0.weight f4 [96, 96, 3]
00000000: 8c00 49bc de4f 66bc aff2 9b3b d7cd ba3c
00000010: ebe2 9bbc cbac 52bd 21c4 653d 2db4 cf3c
00000020: 86ac e6bc 1473 8bbc e91e 8a3c 525b 72bd
00000030: e1ff a5bc 7b03 8e3d 37ec 92bb fdfa 4e3d
00000040: 6372 1e3c ae95 653b b834 dfbc 0200 7e3d
00000050: efb4 f1bc 0a10 d738 cdc0 c0bc 70ef 6bbc
00000060: 1482 0fbc 3bc4 5e3d 84ca 613b 2e1e a53c
00000070: 01ae 0abd 45a6 cebc 4fdd c23c d895 363d
00000080: e8f4 bfbb 026e e0bc 422d eabb 8fb6 923a
00000090: 92c8 4c3c 5fa2 903c ea58 5ebd 92f4 143d
000000a0: 874f 5f3c bfe0 3ebc 5b03 b9bc 400e 70bc
000000b0: 04b9 783d 1263 f3bc 3a7d e5bc 53b7 ea3c
000000c0: 0aa9 31bd 95e4 ab3d a957 363d cc6b 6c3d
000000d0: 4cea 343c 341f 873d 74fa 283d c8a4 a83d
000000e0: ffbd 223c 8bfc b9bb 4046 be3d c0c5 a5bb
000000f0: 0990 003c 5e56 433d adec 293d 2a25 9f3c
00000100: 273c 91bc e1bd a73c 56e4 1abc a120 103b
00000110: d8f5 933c 2cd9 233c d4cb 48bd 4863 e6bc
00000120: 4084 6cbc 8ec1 183d 1670 703d d045 06bd
00000130: 28c3 0fba 6979 863d 3165 853c 885d ccba
00000140: f664 343c 84be bbbc 1c3c b33c 71b7 b4bc
00000150: d19c 1b3c 6d3e f43c 1429 853d 9744 0e3d
00000160: 605e f23c 85e9 543d f387 8c3d bc9d 01bb
00000170: 171e 00bd a84f 42bb 4a1b 76bc 4663 813c
00000180: 071e 663d 6d82 843c 620e 543b 4b99 353d
00000190: 04ff 24bc 94e6 393d b47d acbc 6ca8 34bd
000001a0: af72 04bc 9eac 823d 9390 8cbc c57e 13bd
000001b0: ad7c 8b3c 561f 88bc c2e9 03bd 7e35 303d
000001c0: a131 6c3d cfc9 b03c 9d64 8b3d f00b 52bc
000001d0: b269 f1bb fb23 243d 4103 4dbd 481c 7ebc
000001e0: 0030 f23c 4c70 083d 057b bd3c 07fc b6bc
000001f0: 9be9 363d c0c3 dfbc 4225 8f3c 6375 ad3c
00000200: d0a4 643d 5b29 1bbd 1779 21bc 83d4 893d
00000210: 975a 873d 6eeb b53c 4026 373d 1ec1 0f3b
00000220: 3437 a63d 819b a0bc 5e14 23bc 4985 1d3d
00000230: 98f2 eebb fed8 1f3d d172 85bc 2848 1b3d
00000240: 19af 12bd 7e3a c7bb 9d84 59bc 8704 ee3c
00000250: 57c9 bd3d 553c 1f3d def4 20bd 0ae9 d0bc
00000260: a82f 0e3d c0e4 483d 055b 9a3d 069f e5bc
00000270: 46fe 0abd d118 993d 062d 663d 1cbb 893c
00000280: 569b 00bd 7f20 953d d02c 1b3d cae0 9d3b
00000290: 665b edba c709 013c 3e60 ab3d 3996 663c
000002a0: e96b 593d 571f 6e3d 6a0c 3abc b685 4dbd
000002b0: 1ade 893d 9909 b1bc 63e9 f23c bd51 863d
000002c0: 8da5 f5bb 93fe d5bc 40d5 aa3d faf7 9cbc
000002d0: 7ba2 713d 139a a33d c294 8a3d 8b2e 5c3d
000002e0: 1bac 46bc 2744 383d d160 42bd 1190 0c3d
000002f0: 4ad4 f1bc ebb1 0cbd f244 753d 704b b1bc
00000300: b957 b43b 1533 8fbc 2b9d 3dbc 9cd1 c53c
00000310: dd9c 5a3d 1800 5c3c 84ed 813b b254 f3bb
00000320: 075c d8bc eb96 9ebc 2729 ad3d 714d 3bbc
00000330: 5041 193d bd0a 713d dd90 9abc 7408 03bd
00000340: 6ff8 0f3c 15ac 1dbd 95b0 6b3d 8dcb f8bc
00000350: 5452 53bd 2b85 febc 1d7f d93c 1506 893d
00000360: 85e4 2bbd 8d2e 0e3d e4ec 2b3c b0ae 743c
00000370: 3add 213d c6fc bbbb fc38 e43c d5b3 3b3d
00000380: fc5f 6d3d 7ef3 613d 4911 203d 9ae6 c4bc
00000390: 4574 c23b 0cc7 8cbc 6667 f53c b88c 833c
000003a0: a764 a3ba 9e30 63bd e0d4 17bd 6c44 673d
000003b0: 6865 2f3d 4f64 50bd 332e 7ebd 2137 21bc
000003c0: 4378 0e3d 55b9 ab3b d56a 243b f735 743d
000003d0: e72d 273c 3b20 003d f015 b23b 1d42 9a3d
000003e0: 577d 283d 2ea7 f73c a86a 103d fe17 8cbb
000003f0: 0c57 93bc be05 00bd cabf 823d 96c0 c53c
-0.012268197 -0.014057128 0.0047591547 0.02280323 -0.019029101 -0.05143432 0.056095246 0.02535447
-0.028158437 -0.017022647 0.016860442 -0.05916912 -0.020263614 0.069342576 -0.0044837254 0.05053233
0.009670827 0.0035031843 -0.027246818 0.062011726 -0.029505221 0.000102549864 -0.023529435 -0.014400348
-0.00875904 0.05438636 0.0034452984 0.020155992 -0.03385735 -0.025225768 0.023787169 0.044576496
-0.0058580525 -0.027396206 -0.0071465084 0.0011193323 0.012498992 0.01765555 -0.054284014 0.036366053
0.013629801 -0.011650263 -0.022584608 -0.014651835 0.06072332 -0.029710326 -0.028013814 0.028651869
-0.0433741 0.08393208 0.044517193 0.05771999 0.011042189 0.065977484 0.041254476 0.082345545
0.009932994 -0.0056758574 0.09290743 -0.005058974 0.007846841 0.047689788 0.041485477 0.0194269
-0.017728878 0.020476284 -0.009453854 0.0021992105 0.018061563 0.010000508 -0.04902251 -0.028123513
-0.014435828 0.037293963 0.058700643 -0.032781422 -0.00054840976 0.06566126 0.016283603 -0.0015591839
0.011010399 -0.022917993 0.021879248 -0.022060128 0.009497837 0.029814923 0.06501976 0.03473338
0.029586017 0.051980514 0.06861868 -0.0019777855 -0.031278696 -0.002964953 -0.015021155 0.015794408
0.05618098 0.016175473 0.0032357206 0.044335645 -0.010070566 0.045385912 -0.021056034 -0.044105932
-0.008083983 0.0638058 -0.017158782 -0.03600957 0.017027223 -0.016616505 -0.03220535 0.043019764
0.057664517 0.021580605 0.068063 -0.012820229 -0.007367336 0.040073376 -0.05005193 -0.015509672
0.029563904 0.03331022 0.02312995 -0.022336973 0.044656377 -0.02731502 0.01747382 0.021174138
0.05582124 -0.037881237 -0.00985553 0.067299865 0.066090755 0.022206988 0.044714212 0.0021935175
0.08115998 -0.0196054 -0.009953586 0.03845719 -0.007292103 0.0390253 -0.0162901 0.03791061
-0.035811517 -0.006079971 -0.013276246 0.029054893 0.09266918 0.038875896 -0.039296024 -0.025501747
0.034713417 0.049046278 0.07536892 -0.02802993 -0.0339339 0.074754365 0.05619528 0.016812854
-0.03139814 0.07281589 0.037884533 0.0048180567 -0.0018108904 0.007875866 0.08367966 0.014073902
0.053081427 0.058135357 -0.011355499 -0.050176345 0.06731816 -0.021611022 0.029652303 0.06558559
-0.007496542 -0.026122367 0.083414555 -0.019161213 0.058992844 0.07988372 0.067666546 0.053755324
-0.012125994 0.04498687 -0.047455613 0.03431708 -0.029520173 -0.034349363 0.059880204 -0.021642417
0.0055036214 -0.017480412 -0.011573116 0.024147801 0.053372253 0.013427757 0.0039650816 -0.007425868
-0.02641107 -0.019359073 0.08455115 -0.011432038 0.037415802 0.05884813 -0.018867904 -0.031990483
0.0087872585 -0.03849419 0.05754145 -0.030370498 -0.051592186 -0.031069359 0.02654987 0.06690613
-0.04196598 0.034712363 0.010493491 0.014934227 0.03951762 -0.00573692 0.027859204 0.045825798
0.057952866 0.055163853 0.039078984 -0.02403574 0.0059342706 -0.017184757 0.02995653 0.01605831
-0.001246591 -0.055466287 -0.037068248 0.056461737 0.042821318 -0.05087691 -0.062055778 -0.009839804
0.03478266 0.005240599 0.002508809 0.059621777 0.010203815 0.031280737 0.005434744 0.07532141
0.04113516 0.030231085 0.035257965 -0.004275321 -0.017985843 -0.031255476 0.06384237 0.024139684

net.0.bias f4 [96]
00000000: 6415 083b 2c7b 4dbd 0429 243d 1e90 bfbc
00000010: 8c5e df3b 85dc 1a3d ccdb a13d ff8e 6a3d
00000020: ed2d 623d c358 af3c 9b42 c63c ccf7 363d
00000030: 41c6 413d 44a5 833d c2d2 c03c 7cc1 493d
00000040: 7941 3e3c 3ccf 003d a496 1ebd 30e6 b63d
00000050: 6ffe d73c 6b68 1ebd 6c4a 433c 5f6f 2c3d
00000060: 259d 803d e953 9f3c 6ec1 293c 86c5 b03d
00000070: b9d7 a03d 5a72 a0bc ab70 b03d 4770 683d
00000080: 0101 df3c 33ce 8bbc cbae 2f3c 7bd5 a13c
00000090: 2d35 4c3c 6bdd 963d a2b1 a13d d143 a33d
000000a0: 631e 5f3c 1c23 7c3c 106f d6bc 011c 603d
000000b0: cba4 1d3d 87a1 b03b fd10 673d 13a1 9abc
000000c0: aeb3 383d 5555 2f3d e591 f2ba 4125 3c3d
000000d0: ae2a 91bc 31cb 213c c47b bcba df84 93bb
000000e0: f2e8 123b 5fad 9fbb b76f 88bc 4a69 143d
000000f0: 5aee 563d b848 853c 1052 003d 0982 c73a
00000100: 12f8 b93c a1d5 b13d 85bb 443c 51fb d3bc
00000110: db7b 243c 6198 bf3c 8cf7 e33c 4bd2 c7bc
00000120: bd6b 2c3d b43b bc3d 893c 4f3c 72f1 1bbb
00000130: a2c5 9dbc 0e5d 323d f89b 98bc bd4e 853d
00000140: ab4d 5b3d a357 bbbc 3f9f 803d 11f8 08bc
00000150: c41a 103d 0cee 093d d12f 5bbb f428 423d
00000160: 1623 b83b 1585 f03c e0ae 03bc 9e54 843c
00000170: 6658 803d 0439 1f3d 6e69 e2bc 794f bf3c
0.0020764703 -0.050166294 0.040078178 -0.02338415 0.006816691 0.03780796 0.07903251 0.057265278
0.05521958 0.02140463 0.024201682 0.04466991 0.04730821 0.06428006 0.023537997 0.049256787
0.01161229 0.031447634 -0.03871788 0.089306235 0.02636644 -0.0386738 0.011919599 0.0420984
0.06279973 0.019449191 0.010361059 0.086314246 0.07853646 -0.019585777 0.0861524 0.0567477
0.027222158 -0.017066097 0.010722826 0.019755116 0.01246385 0.07366451 0.07895209 0.07971919
0.013618085 0.01538923 -0.026176006 0.054714207 0.038487237 0.0053903493 0.056412686 -0.018875634
0.04509323 0.04280599 -0.0018506615 0.045933966 -0.017720547 0.009875105 -0.0014380147 -0.0045019235
0.0022416678 -0.0048729624 -0.016654832 0.036233224 0.052473404 0.016270027 0.03132826 0.0015221249
0.022701297 0.086833246 0.012007599 -0.025876673 0.010039295 0.02338809 0.027828 -0.024392268
0.042094935 0.09191075 0.01264871 -0.0023795036 -0.019259278 0.043545775 -0.01862906 0.06509159
0.053540867 -0.022868937 0.06280374 -0.008359925 0.035181776 0.033674285 -0.003344525 0.047402337
0.005619417 0.029360333 -0.008037299 0.01615363 0.06266861 0.038872734 -0.027638163 0.023353325
