outputs/models/lead1_sage_no_next_seed999.pt (torch, 382402 bytes, 13 tensors)

in_lin.weight f4 [96, 14]
0.10554936 0.09347809 -0.24320838 0.24797863 -0.003990149 0.26648542 0.14814761 -0.35470656
-0.16144843 0.30761325 -0.18989418 -0.21023457 -0.01927219 0.05291489 0.22394486 -0.18527488
0.15859398 -0.034346856 0.01742192 -0.15659803 -0.116195805 0.24695577 0.18836027 0.14109243
0.1439301 -0.007996144 0.030169751 -0.20771144 -0.23788108 0.08690734 0.016422028 -0.24518196
0.14325856 -0.018454153 0.116581105 -0.05656214 0.102576956 0.0322081 -0.181611 0.17296451
-0.032350674 0.32452288 -0.123869605 0.14784615 0.1679352 0.033095777 0.033992413 -0.048414268
-0.22489232 0.22291757 0.25554538 0.21228649 -0.2733114 -0.16675438 0.12412058 0.07178873
0.12492633 0.30451736 -0.21791387 -0.14405927 -0.24374953 -0.19502886 -0.11489093 0.32997742
-0.017680096 -0.123321846 -0.2118391 0.26438925 0.17379592 -0.14756979 -0.11283681 0.2515505
-0.16795462 -0.011161048 0.24631868 0.11562231 -0.067528844 -0.23773482 -0.07337133 0.24987188
-0.16054691 -0.24918604 0.30176455 -0.0053245756 -0.17732605 0.11045439 0.16841541 0.1634158
-0.06900919 -0.20479855 0.2142265 -0.11259541 0.23349023 -0.0065606944 -0.09832131 -0.20418108
0.08761295 -0.18859012 -0.27777565 -0.12013077 0.090443715 -0.0741622 0.13275224 0.08676653
0.127719 -0.22758962 0.012499881 -0.18281938 -0.26644105 0.05732903 0.037089072 0.083177425
0.1907765 -0.25119528 -0.17359737 -0.2602974 0.16934073 0.25002098 -0.15247467 -0.21123998
-0.14934726 -0.14555332 0.22861919 -0.01578244 -0.17472807 -0.062458117 -0.04857672 0.09781872
-0.079458885 -0.10009081 0.12809995 -0.18700717 0.23232819 0.19782658 0.011668208 -0.41308063
-0.4074163 -0.16365728 0.03417388 -0.2368461 0.22368395 0.20404388 0.11471879 -0.21614046
0.24365026 -0.198625 0.17631306 0.28096795 -0.07046435 0.15880279 -0.05504134 -0.044499148
0.12674639 0.123193555 0.019594973 -0.29798406 -0.1439899 -0.26323742 0.13865489 -0.16400208
0.1355022 -0.10492521 -0.29493156 -0.13699248 -0.07263505 -0.15966187 0.26375854 0.21073414
-0.036746234 -0.11440301 0.15424399 0.23531012 -0.19584273 0.25557643 0.0016067758 -0.09536508
0.20071222 0.23601241 -0.10097898 0.21439114 -0.14723249 0.23495796 -0.11873297 0.15954384
-0.23860537 -0.08140968 0.25533736 0.21609414 -0.025716864 0.08108416 0.13419019 -0.048644703
-0.27884042 -0.21530601 0.009300162 -0.19825044 -0.22331886 0.22569099 -0.0009940865 0.14979345
-0.07175664 -0.054228943 -0.17660727 -0.1289975 0.27007195 0.11867776 -0.18916184 0.13301359
0.15554921 -0.008001809 -0.20024735 -0.065444216 -0.18310052 0.14664292 0.260792 -0.08317999
-0.13206573 0.29277724 0.27978003 0.18334636 0.05651072 0.15176766 -0.08806886 0.038414
-0.07592953 -0.012866299 -0.090404 -0.18335417 0.028225621 -0.25193328 0.16169792 -0.16817231
0.24976593 0.035593443 0.14148857 -0.18940301 0.14748918 -0.052062515 -0.061975498 -0.042714573
-0.25040275 -0.06340418 -0.013119575 0.22760631 -0.16624822 -0.07044981 -0.024736127 -0.28983024
-0.15340821 -0.13500556 0.053015064 0.20719387 -0.23915525 0.26962492 0.15483807 0.083726205
00000000: 432a d83d 7171 bf3d 9e0b 79be 1cee 7d3e
00000010: ccbf 82bb c770 883e 02b4 173e 199c b5be
00000020: bd52 25be 7c7f 9d3e 9f73 42be bb47 57be
00000030: b6e0 9dbc 49bd 583d cd51 653e b3b8 3dbe
00000040: 7666 223e 4aaf 0cbd 6ab8 8e3c 3c5b 20be
00000050: 11f8 edbd f9e1 7c3e 84e1 403e 897a 103e
00000060: 6a62 133e 4202 03bc 8e26 f73c 4fb2 54be
00000070: 1997 73be 7afc b13d 7d87 863c fb10 7bbe
00000080: 5fb2 123e 2a2d 97bc 13c2 ee3d b4ad 67bd
00000090: de13 d23d a4ec 033d 3cf8 39be 9c1d 313e
000000a0: 2482 04bd dd27 a63e 59af fdbd fb64 173e
000000b0: 34f7 2b3e 708f 073d a13b 0b3d 0a4e 46bd
000000c0: 2c4a 66be 8144 643e d8d6 823e a161 593e
000000d0: 79ef 8bbe a9c1 2abe ee32 fe3d f805 933d
000000e0: 60d9 ff3d b3e9 9b3e d024 5fbe 4684 13be
000000f0: 7a99 79be a5b5 47be f04b ebbd cdf2 a83e
00000100: d9d5 90bc 2a90 fcbd 59ec 58be 075e 873e
00000110: 8ff7 313e 891c 17be fc16 e7bd 3acb 803e
00000120: 4cfc 2bbe d4dc 36bc f73a 7c3e 64cb ec3d
00000130: 904c 8abd c270 73be b543 96bd 6ade 7f3e
00000140: 6966 24be a02a 7fbe e280 9a3e c779 aebb
00000150: f694 35be e935 e23d 1775 2c3e 7956 273e
00000160: b154 8dbd b6b6 51be 315e 5b3e 6c98 e6bd
00000170: 1018 6f3e 18fb d6bb af5c c9bd d814 51be
00000180: 6b6e b33d c51d 41be 9c38 8ebe 1f07 f6bd
00000190: 8e3a b93d 5ae2 97bd 34f0 073e a7b2 b13d
000001a0: c5c8 023e 410d 69be 4dcc 4c3c 0135 3bbe
000001b0: f66a 88be d8d1 6a3d b6ea 173d ed58 aa3d
000001c0: ea5a 433e ab9c 80be 82c3 31be b345 85be
000001d0: a867 2d3e c002 803e 5222 1cbe 4b4f 58be
000001e0: 7dee 18be ee0b 15be 261b 6a3e 2d4a 81bc
000001f0: eaeb 32be 15d4 7fbd 62f8 46bd 2e55 c83d
00000200: 57bb a2bd 69fc ccbd a22c 033e cf7e 3fbe
00000210: 71e7 6d3e 0d93 4a3e 032c 3f3c 4e7f d3be
00000220: df98 d0be c695 27be e9f9 0b3d c987 72be
00000230: 680d 653e e1f0 503e aff1 ea3d ed53 5dbe
00000240: 747f 793e 5a64 4bbe 698b 343e 08db 8f3e
00000250: 9d4f 90bd 339d 223e 0773 61bd bd44 36bd
00000260: cec9 013e e74c fc3d a385 a03c 5e91 98be
00000270: 1772 13be 0ec7 86be 8cfb 0d3e 29f0 27be
00000280: 17c1 0a3e 07e3 d6bd 4501 97be c247 0cbe
00000290: afc1 94bd 677e 23be 5c0b 873e b1ca 573e
000002a0: 3883 16bd 204c eabd 23f2 1d3e 23f5 703e
000002b0: ff8a 48be eada 823e 739a d23a c44e c3bd
000002c0: 8187 4d3e 3dad 713e 11ce cebd 5a89 5b3e
000002d0: 1dc4 16be d298 703e 452a f3bd 765f 233e
000002e0: f754 74be 1eba a6bd 94bb 823e c847 5d3e
000002f0: 2cac d2bc 740f a63d 2769 093e ab3f 47bd
00000300: 2cc4 8ebe 2e79 5cbe b55f 183c 2a02 4bbe
00000310: b3ad 64be 8a1b 673e 024c 82ba 7463 193e
00000320: 25f5 92bd 2b1f 5ebd 89d8 34be ec17 04be
00000330: df46 8a3e 530d f33d a4b3 41be b734 083e
00000340: 4b48 1f3e 051a 03bc a40d 4dbe 9e07 86bd
00000350: b47e 3bbe 9029 163e 8786 853e 455a aabd
00000360: 3d3c 07be e6e6 953e 543f 8f3e 26bf 3b3e
00000370: c977 673d fb68 1b3e 725d b4bd 0058 1d3d
00000380: f180 9bbd 2bcd 52bc bb25 b9bd 32c1 3bbe
00000390: 6b39 e73c 66fd 80be 2494 253e 5d35 2cbe
000003a0: a4c2 7f3e 6eca 113d 61e2 103e ddf2 41be
000003b0: 6707 173e 813f 55bd 05da 7dbd 7af5 2ebd
000003c0: ca34 80be 0dda 81bd 7cf3 56bc a111 693e
000003d0: f93c 2abe fd47 90bd 6ba3 cabc a164 94be
000003e0: 0b17 1dbe e63e 0abe 5326 593d a12a 543e
000003f0: 1de5 74be 470c 8a3e df8d 1e3e a578 ab3d

in_lin.bias f4 [96]
-0.10221177 0.102016665 0.22758844 0.03871905 0.18492979 0.021951484 0.088228084 0.13932337
-0.107641995 0.21740818 -0.118530735 -0.19021979 0.15591662 0.21505502 0.10651842 -0.02747179
-0.060766477 -0.081884794 -0.21077769 0.27823457 -0.24420962 0.2960076 -0.077347256 -0.13656314
0.1297247 0.2624314 0.17669432 -0.06216814 -0.15858783 -0.18680657 0.15598637 -0.048599813
0.11260054 0.16190086 -0.12357972 0.14867528 -0.006917761 0.010231061 0.25749734 -0.124333
0.0975696 0.28361633 0.18499301 -0.24650969 0.2061489 0.21984573 -0.14574948 0.21606717
-0.015022849 0.10921115 0.07404978 0.09011502 0.050983213 0.218586 -0.048394717 0.07604505
0.13920246 0.12314591 -0.25245538 0.010644956 0.013749567 -0.17628261 0.17711449 0.26825503
-0.2131059 -0.09381281 0.21379726 0.085442595 -0.15007341 -0.12079393 0.26890066 -0.037118994
0.08584731 0.027083457 -0.11876419 -0.033453263 0.24887598 0.06829351 -0.042206753 -0.15510869
-0.15538166 -0.17252722 -0.022622809 -0.21823227 -0.19781563 0.018623319 -0.2569194 0.17080282
0.23335393 0.08183444 0.0968474 -0.02668459 0.12335632 0.23565672 0.08258332 0.06691601
00000000: 6854 d1bd 1dee d03d f20c 693e de97 1e3d
00000010: 3c5e 3d3e 99d3 b33c edb0 b43d c9aa 0e3e
00000020: 6873 dcbd 40a0 5e3e 3ec0 f2bd fac8 42be
00000030: 9ba8 1f3e 6237 5c3e 5426 da3d 850c e1bc
00000040: 45e6 78bd 37b3 a7bd 1bd6 57be c374 8e3e
00000050: 1612 7abe 4f8e 973e 3d68 9ebd 35d7 0bbe
00000060: 8dd6 043e 695d 863e 5bef 343e 05a4 7ebd
00000070: d964 22be 394a 3fbe e4ba 1f3e 9910 47bd
00000080: 1d9b e63d 57c9 253e 5d17 fdbd 553e 183e
00000090: 63ae e2bb 2ea0 273c b1d6 833e 4da2 febd
000000a0: 92d2 c73d 2936 913e cf6e 3d3e 096d 7cbe
000000b0: b218 533e 3d1f 613e 5a3f 15be b640 5d3e
000000c0: 6522 76bc 18aa df3d 69a7 973d 398e b83d
000000d0: c6d3 503d 02d5 5f3e 8a39 46bd 82bd 9b3d
000000e0: 178b 0e3e ec33 fc3d d541 81be 2e68 2e3c
000000f0: dd45 613c 6e83 34be 805d 353e b958 893e
00000100: 6f38 5abe ee20 c0bd abed 5a3e 87fc ae3d
00000110: d8ac 19be cf62 f7bd 59ad 893e 160a 18bd
00000120: b7d0 af3d 20de dd3c a43a f3bd 4a06 09bd
00000130: 58d9 7e3e 78dd 8b3d fde0 2cbd d0d4 1ebe
00000140: 5f1c 1fbe faaa 30be 7853 b9bc 4878 5fbe
00000150: 2e90 4abe ee8f 983c f18a 83be efe6 2e3e
00000160: 55f4 6e3e d198 a73d ee57 c63d a499 dabc
00000170: 3da2 fc3d ff4f 713e 7221 a93d 430b 893d

layers.0.lin_self.weight f4 [96, 96]
0.04308914 0.064174294 0.16174135 -0.025150016 0.19560546 -0.13429992 0.038889542 -0.027528701
0.007493019 0.035234418 -0.034746032 0.0074507287 -0.0026748276 0.09783709 -0.009093224 -0.05053413
0.039160144 0.027548108 -0.07754344 0.07691483 -0.015463689 0.07454939 -0.011224432 -0.08848008
-0.10761488 -0.061804723 0.04958719 0.10359359 -0.006458211 -0.1612396 -0.080314726 0.066713095
-0.024715448 0.0036993006 0.030108664 0.14599879 0.012415908 0.11332289 0.041783098 0.06657143
-0.08065657 0.19867116 0.025618115 -0.0054589272 0.10824649 -0.0035064456 0.033609215 0.014211892
0.11756416 0.014861489 0.08266919 -0.018296394 0.044897575 0.075816356 0.047957595 0.06996262
0.037002843 0.058097348 0.031268455 0.1085104 -0.112291716 -0.13741678 0.13386233 0.035170052
0.053860236 0.10489349 0.07404301 0.05534897 0.04838292 0.07989958 0.014245065 -0.07202656
0.071328424 0.07237915 -0.013666208 0.10985649 0.023409916 -0.110109374 0.057979338 0.078458354
0.084117025 -0.007587034 0.14162794 0.10144471 0.06567853 0.046187207 -0.009705383 -0.010256301
0.09288924 -0.12545168 -0.06258163 -0.03385349 0.043930832 0.004287637 0.051677614 -0.0023593688
-0.02412231 -0.09817214 -0.018996103 -0.039532952 -0.09084398 0.0015629282 0.093018696 -0.09067486
0.09345569 -0.022808645 -0.09920027 -0.040499926 -0.059826832 -0.02962768 -0.058314577 0.0729023
0.066832855 -0.10621899 -0.05622867 0.05016605 -0.023781633 -0.08458998 -0.0035788838 0.05847873
-0.052222826 0.064348854 0.09694632 0.071926884 0.08593492 0.039697215 0.03807219 0.07286673
-0.07260267 -0.06428786 0.031562723 0.024124172 -0.08148765 0.0208561 0.07839367 -0.076099895
-0.047238708 0.05179171 -0.0026656147 0.07901716 0.015192545 -0.011720286 0.06721313 -0.047319323
0.033737436 0.093461305 0.07069349 0.010898059 0.0044440147 0.07386915 0.051215887 -0.045325004
-0.09544738 0.007942076 0.03627578 -0.0019781052 -0.084033385 0.050107658 0.09070312 -0.0030410779
0.047521215 -0.085164614 -0.0476035 -0.098975256 -0.072700165 0.028123414 -0.03609072 -0.098534904
-0.025820876 -0.057223808 0.06105207 -0.056324765 0.04869201 -0.06756245 -0.10567224 -0.09788475
0.05287557 0.024648817 -0.07550043 0.007025874 -0.029877895 0.038315624 0.037557315 -0.05030836
-0.05772406 -0.064716786 -0.0028750035 0.091153786 -0.06514293 -0.10565549 -0.009637649 0.09104397
-0.09467728 0.0865027 0.020857051 0.054600902 0.08404802 -0.015993673 0.09088577 0.03166899
-0.085830964 0.104335755 -0.018245012 0.019066216 -0.043231647 -0.027023403 -0.08099538 -0.029909726
0.016346218 -0.018021721 -0.0418936 0.013894918 0.0057269875 0.1112013 -0.015055226 -0.0923812
-0.032428816 -0.05372653 0.058669463 0.0049902294 0.0022305837 -0.10005349 0.020772364 -0.08317765
0.05641488 0.06801662 -0.013384256 0.13360669 0.0766318 -0.014936957 -0.08084936 -0.05499628
0.017411932 0.18241946 0.04673726 0.07283272 0.11358813 0.05055016 0.04062918 0.14064994
0.08707137 0.09683737 -0.038607247 -0.010716781 0.15137002 0.11584444 0.10135669 -0.055357344
0.044504467 0.041455403 0.050266594 -0.020545622 -0.07210794 -0.08030609 0.05038076 0.119384885
00000000: 3d7e 303d d06d 833d 869f 253e 6807 cebc
00000010: cc4c 483e eb85 09be a44a 1f3d df83 e1bc
00000020: 0088 f53b f751 103d db51 0ebd 3e25 f43b
00000030: 294c 2fbb d05e c83d bffb 14bc e0fc 4ebd
00000040: 6366 203d 92ac e13c 18cf 9ebd 8685 9d3d
00000050: 6a5b 7dbc 5aad 983d aee6 37bc 0b35 b5bd
00000060: 3165 dcbd f326 7dbd f01b 4b3d e028 d43d
00000070: 679f d3bb fe1b 25be 0c7c a4bd e0a0 883d
00000080: 0d78 cabc f76f 723b 72a6 f63c b580 153e
00000090: 186c 4b3c d515 e83d c124 2b3d 9a56 883d
000000a0: 462f a5bd 7470 4b3e 15dd d13c cde0 b2bb
000000b0: 56b0 dd3d 65cc 65bb d1a9 093d ffd8 683c
000000c0: 7ac5 f03d 9a7d 733c 774e a93d 52e2 95bc
000000d0: 85e6 373d 9b45 9b3d 2f6f 443d 9048 8f3d
000000e0: 4b90 173d 7cf7 6d3d 5a13 003d b33a de3d
000000f0: 33f9 e5bd fcb6 0cbe 3513 093e 790e 103d
00000100: 8d9c 5c3d 66d2 d63d dda3 973d 9ab5 623d
00000110: 2b2d 463d 64a2 a33d 2264 693c a982 93bd
00000120: a314 923d 853b 943d 3be8 5fbc 70fc e03d
00000130: 27c6 bf3c 0681 e1bd be7b 6d3d c6ae a03d
00000140: 8c45 ac3d a79c f8bb ea06 113e 3ec2 cf3d
00000150: 7782 863d cc2e 3d3d 5403 1fbc 0b0a 28bc
00000160: b73c be3d 6876 00be cc2a 80bd f5a9 0abd
00000170: d1f0 333d 4e7f 8c3b e8ab 533d a49f 1abb
00000180: 279c c5bc 7a0e c9bd b79d 9bbc 4eed 21bd
00000190: 690c babd 2bdb cc3a 9680 be3d beb3 b9bd
000001a0: b265 bf3d 32d9 babc 8329 cbbd 40e3 25bd
000001b0: fb0c 75bd c0b5 f2bc 44db 6ebd cd4d 953d
000001c0: aadf 883d 5889 d9bd 0950 66bd eb7a 4d3d
000001d0: b3d1 c2bc 833d adbd b58b 6abb 6587 6f3d
000001e0: 9ae7 55bd 55c9 833d cb8b c63d 674e 933d
000001f0: a6fe af3d 8c99 223d 96f1 1b3d 273b 953d
00000200: b5b0 94bd 5ba9 83bd ea47 013d 0ea0 c53c
00000210: ffe2 a6bd 69da aa3c dc8c a03d 43da 9bbd
00000220: 607d 41bd 8b23 543d 98b1 2ebb c0d3 a13d
00000230: 27ea 783c 7106 40bc 0aa7 893d e8d1 41bd
00000240: 4430 0a3d a468 bf3d c0c7 903d c68d 323c
00000250: 199f 913b b548 973d c0c7 513d b6a6 39bd
00000260: ea79 c3bd 7b1f 023c ea95 143d 19a3 01bb
00000270: b219 acbd b03d 4d3d 8fc2 b93d d24c 47bb
00000280: 9ba5 423d c96a aebd e3fb 42bd 8ab3 cabd
00000290: d3e3 94bd 1363 e63c ddd3 13bd abcc c9bd
000002a0: 4d86 d3bc 8363 6abd bc11 7a3d ccb4 66bd
000002b0: 4671 473d 2f5e 8abd b06a d8bd cd77 c8bd
000002c0: 0e94 583d 51ec c93c f89f 9abd 4e39 e63b
000002d0: 7dc2 f4bc d8f0 1c3d b3d5 193d 2410 4ebd
000002e0: 1070 6cbd 3c8a 84bd 8e6a 3cbb d6ae ba3d
000002f0: a869 85bd e861 d8bd 3be7 1dbc 4375 ba3d
00000300: 29e6 c1bd 5428 b13d 68dc aa3c 32a5 5f3d
00000310: 5e21 ac3d 2a05 83bc 5222 ba3d 58b7 013d
00000320: 25c8 afbd fcad d53d 9076 95bc c130 9c3c
00000330: ab13 31bd 2f60 ddbc e8e0 a5bd 3e05 f5bc
00000340: 81e8 853c 4aa2 93bc a098 2bbd 83a7 633c
00000350: 74a9 bb3b 82bd e33d 32aa 76bc 5b32 bdbd
00000360: 14d4 04bd 5a10 5cbd 644f 703d 1485 a33b
00000370: fc2e 123b d8e8 ccbd ce2a aa3c 0b59 aabd
00000380: 4a13 673d 4c4c 8b3d a349 5bbc 31d0 083e
00000390: 22f1 9c3d 23ba 74bc 5994 a5bd c843 61bd
000003a0: 78a3 8e3c 2bcc 3a3e 926f 3f3d 5229 953d
000003b0: e5a0 e83d af0d 4f3d c86a 263d 8a06 103e
000003c0: 7952 b23d ac52 c63d a222 1ebd 7095 2fbc
000003d0: be00 1b3e da3f ed3d 1994 cf3d 62be 62bd
000003e0: 514a 363d 24cd 293d 58e4 4d3d 4b4f a8bc
000003f0: 54ad 93bd 8577 a4bd 0e5c 4e3d 1080 f43d

layers.0.lin_self.bias f4 [96]
0.13711172 0.0053624217 0.10411492 -0.059494216 0.030185781 -0.015982682 0.123393774 0.048800137
-0.044857185 -0.107528135 -0.004217433 0.073944986 0.1430119 0.054268546 -0.025568664 -0.07036053
0.05603777 0.08065955 0.13583286 0.060769793 0.05567035 0.10162523 -0.05426138 -0.054908913
-0.015666166 0.102560915 -0.09650302 0.07302619 0.05425242 0.0927391 0.03969257 0.02622433
0.0159757 0.01779169 -0.05712843 0.095463686 -0.005577492 0.09144795 -0.099064074 -0.022478895
0.08465834 0.035119347 0.008560554 -0.07652107 0.0047515635 0.087178685 -0.094917975 0.06133253
0.027202118 0.043296374 0.0051515866 -0.06547531 -0.02871581 0.05114326 0.054911878 0.06451597
0.055006202 -0.052499883 0.051230595 0.027942108 0.11422191 0.029495494 0.040499445 0.060527444
0.05241842 0.03337861 0.088954344 0.034876917 -0.03825498 -0.007858891 -0.07118477 -0.0090502305
-0.03486107 0.08684992 0.09680848 0.072766505 -0.013071985 0.019525826 0.07275052 -0.037432484
0.09634823 0.09408402 0.018127589 0.06354119 -0.042558447 0.08872401 0.12535715 -0.11174934
0.059403 -0.05280123 -0.07817 -0.032391846 0.12500036 0.12050983 0.008999818 -0.110038765
00000000: 0467 0c3e 41b7 af3b 343a d53d 35b0 73bd
00000010: 2c48 f73c 1dee 82bc e0b5 fc3d a7e2 473d
00000020: 2bbc 37bd b637 dcbd 6432 8abb 7870 973d
00000030: b671 123e b248 5e3d 6075 d1bc 2e19 90bd
00000040: dc87 653d d630 a53d c517 0b3e bfe9 783d
00000050: 9806 643d e320 d03d 2e41 5ebd 2be8 60bd
00000060: 5556 80bc 750b d23d 60a3 c5bd c18e 953d
00000070: c937 5e3d ffed bd3d ad94 223d 68d4 d63c
00000080: 79df 823c e1bf 913c 80ff 69bd 7782 c33d
00000090: 65c3 b6bb 1049 bb3d 1be2 cabd a925 b8bc
000000a0: 5a61 ad3d 4ed9 0f3d 9141 0c3c 14b7 9cbd
000000b0: 01b3 9b3b bd8a b23d 5b64 c2bd d237 7b3d
000000c0: fad6 de3c 8a57 313d a4ce a83b eb17 86bd
000000d0: 6b3d ebbc 987b 513d 47eb 603d f320 843d
000000e0: 2f4e 613d 1e0a 57bd 2cd7 513d d9e6 e43c
000000f0: 2ded e93d 89a0 f13c bfe2 253d a0eb 773d
00000100: b2b4 563d 02b8 083d b22d b63d 19db 0e3d
00000110: 41b1 1cbd 94c2 00bc 52c9 91bd 6b47 14bc
00000120: 7bca 0ebd 5fde b13d 8643 c63d 9b06 953d
00000130: e12b 56bc a0f4 9f3c 3afe 943d ce52 19bd
00000140: 3952 c53d 1faf c03d 4f80 943c e221 823d
00000150: c451 2ebd efb4 b53d a05d 003e d7dc e4bd
00000160: 8f50 733d 1a46 58bd 9817 a0bd 50ad 04bd
00000170: 1800 003e dccd f63d f973 133c 015c e1bd

layers.0.lin_neigh.weight f4 [96, 96]
-0.11011351 0.010924341 -0.03231519 0.048165888 0.1055039 -0.14711812 -0.07172568 0.009349367
0.03559309 0.040404808 0.03997205 -0.1380909 0.07906023 0.0901577 0.016112296 0.057659958
-0.01572988 0.10916966 -0.13537572 0.10179966 0.032557305 -0.003906829 0.085710704 -0.0014152335
-0.033921514 0.0074601504 -0.08031983 -0.05345593 0.036301933 -0.08952797 0.023718726 -0.06467468
0.067968525 -0.107945524 0.029391317 -0.00030786474 0.060337193 0.102849185 0.13580008 -0.059675608
-0.073843405 0.08886684 -0.017491866 0.01679289 0.08774101 0.029723732 -0.0637803 0.11984283
-0.07244708 0.11925974 0.05950067 0.05674641 0.11723927 0.119424514 0.05024138 0.0028012595
-0.04410375 0.079901986 -0.097647846 0.033021785 -0.017235713 -0.049648985 0.12516817 -0.034589022
0.055929497 -0.014526075 -0.05837171 0.08758985 0.05221346 -0.00075393176 -0.045567125 0.09127987
0.12702104 0.101289324 -0.089191735 -0.060619008 -0.021257404 0.0941884 0.078667596 -0.0020447695
0.05222635 0.06241159 0.18651856 -0.0145293325 0.07787575 -0.04605769 -0.09797067 0.1151635
0.02038929 -0.012037097 0.07579856 0.009080274 -0.04813814 -0.07794519 0.018542772 0.045867864
-0.052659597 0.0795247 0.004831602 0.0022521757 -0.10286812 -0.07747105 0.09019258 -0.10472489
0.09358039 -0.062406957 -0.069931634 0.043126922 -0.039648246 -0.091669045 0.0016562312 0.08176011
-0.08846084 -0.06037892 -0.09620669 0.036746386 -0.057931434 -0.07370829 -0.08583672 -0.053108502
0.05362443 -0.048919532 -0.020883765 -0.07322259 -0.06062828 -0.07625324 -0.007384999 -0.006804985
-0.0742884 0.05249975 0.09143699 -0.06611988 -0.02761991 -0.04836244 0.06359442 -0.060832962
0.036485188 -0.08573485 -0.06652799 0.059052672 -0.009913178 -0.089824975 0.066260785 0.014564
-0.022242885 0.05298941 0.026432648 0.045427613 -0.083545595 -0.003994568 -0.10228329 0.015378008
-0.009898497 0.09078005 0.020592475 0.007948422 -0.007265699 0.02555298 0.012536272 0.045078445
-0.0105776265 0.06864089 -0.07319505 0.049760297 0.09470466 -0.10304891 0.0060384856 -0.1019104
-0.052182246 -0.04216598 0.016674284 -0.063048825 0.008683294 -0.052887056 0.06904929 -0.0012825947
-0.061910726 -0.032626603 0.09316167 -0.0016055878 0.042944543 0.051029958 0.032007024 -0.07207125
-0.07865854 0.029457668 0.0872451 -0.06843818 -0.022696706 -0.072857715 0.06427417 0.08404768
-0.16529025 0.025624316 0.036619764 0.061245896 0.14610463 -0.040587198 -0.0032256758 0.0062427516
-0.05728645 0.06417598 0.07833443 -0.07336729 -0.0030842458 0.019423233 0.044971753 -0.02201972
0.11111333 0.03705076 0.0053037484 0.0041385135 -0.021301983 0.12925892 0.068965875 0.09169127
0.06643173 -0.021340549 0.1151023 0.012333556 -0.005490735 -0.07682473 0.12469316 0.018678108
0.003025792 -0.07746111 -0.0037775354 0.10835316 -0.06875215 0.055787276 0.005384193 -0.07788389
0.004033068 0.054398533 -0.04182225 -0.05217682 -0.006434648 -0.016700618 -0.036376737 0.15123382
0.03393405 0.021260152 0.025694024 0.04886028 0.060204703 0.022619795 0.069216244 0.015086338
-0.010520884 0.030991316 -0.06815445 0.085716896 0.015647799 0.008337873 0.11601441 -0.0032781735
00000000: 3183 e1bd 02fc 323c ef5c 04bd 9849 453d
00000010: 6e12 d83d 22a6 16be eae4 92bd 162e 193c
00000020: 0fca 113d 837f 253d bbb9 233d b367 0dbe
00000030: 54ea a13d 9aa4 b83d effd 833c d92c 6c3d
00000040: f3db 80bc 5894 df3d ef9f 0abe 577c d03d
00000050: cf5a 053d db04 80bb 1889 af3d 5b7f b9ba
00000060: 49f1 0abd 4774 f43b b97e a4bd 9bf4 5abd
00000070: 56b1 143d 715a b7bd c64d c23c 2974 84bd
00000080: 1533 8b3d 8b12 ddbd 0fc6 f03c e868 a1b9
00000090: 2224 773d 98a2 d23d 2d0f 0b3e 696e 74bd
000000a0: 363b 97bd d1ff b53d 1a4b 8fbc 3e91 893c
000000b0: 8fb1 b33d 2f7f f33c 3f9f 82bd 2870 f53d
000000c0: 225f 94bd 733e f43d f9b6 733d ec6e 683d
000000d0: 241b f03d d794 f43d e8c9 4d3d 5695 373b
000000e0: 22a6 34bd a7a3 a33d 98fb c7bd da41 073d
000000f0: e931 8dbc bc5c 4bbd 162c 003e 38ad 0dbd
00000100: 5416 653d c6fe 6dbc 2d17 6fbd 4f62 b33d
00000110: c8dd 553d 81a3 45ba 98a4 3abd f1f0 ba3d
00000120: ce11 023e c770 cf3d 28aa b6bd a34b 78bd
00000130: 0224 aebc d9e5 c03d 7a1c a13d 8a01 06bb
00000140: 4ceb 553d 4ca3 7f3d b9fe 3e3e 700c 6ebc
00000150: 527d 9f3d fda6 3cbd d9a4 c8bd d7da eb3d
00000160: 7107 a73c 3e37 45bc 473c 9b3d 6ec5 143c
00000170: 802c 45bd baa1 9fbd 03e7 973c f1df 3b3d
00000180: 97b1 57bd d9dd a23d 6a52 9e3b 3d99 133b
00000190: 85ac d2bd 24a9 9ebd e3b6 b83d 017a d6bd
000001a0: 13a7 bf3d 709e 7fbd 5138 8fbd dba5 303d
000001b0: 3366 22bd fbbc bbbd e615 d93a d871 a73d
000001c0: f52a b5bd e34f 77bd 0308 c5bd 6183 163d
000001d0: 8349 6dbd 5ff4 96bd 2acb afbd 4d88 59bd
000001e0: 4aa5 5b3d d95f 48bd 6e14 abbc baf5 95bd
000001f0: 5c55 78bd a92a 9cbd ddfd f1bb 5afc debb
00000200: 8424 98bd fa09 573d 5143 bb3d dc69 87bd
00000210: 2643 e2bc b217 46bd cb3d 823d fc2b 79bd
00000220: 7e71 153d c195 afbd d43f 88bd 37e1 713d
00000230: e26a 22bc 28f6 b7bd bcb3 873d d89d 6e3c
00000240: b636 b6bc 6c0b 593d 4889 d83c 4e12 3a3d
00000250: f419 abbd dde4 82bb e779 d1bd 0af4 7b3c
00000260: 4e2d 22bc e4ea b93d 8db1 a83c 193a 023c
00000270: 1a15 eebb 7c54 d13c f064 4d3c 2da4 383d
00000280: c84d 2dbc 9893 8c3d 49e7 95bd 74d1 4b3d
00000290: 84f4 c13d 4f0b d3bd 7dde c53b 66b6 d0bd
000002a0: 0dbd 55bd 3cb6 2cbd 8298 883c be1f 81bd
000002b0: 6044 0e3c 19a0 58bd b769 8d3d bd1c a8ba
000002c0: 1a96 7dbd 79a3 05bd 8ccb be3d 9672 d2ba
000002d0: 9ee6 2f3d ca04 513d cc19 033d 179a 93bd
000002e0: bb17 a1bd 3551 f13c 8fad b23d 5129 8cbd
000002f0: 71ee b9bc 6d36 95bd 2da2 833d 3121 ac3d
00000300: d941 29be 16ea d13c 9bfe 153d fadc 7a3d
00000310: 749c 153e c33e 26bd dc65 53bb ff8f cc3b
00000320: 32a5 6abd b26e 833d cd6d a03d 9741 96bd
00000330: 0f21 4abb 791d 9f3c 4d34 383d b362 b4bc
00000340: 638f e33d 8ac2 173d 11cb ad3b 5e9c 873b
00000350: 7f81 aebc 735c 043e fb3d 8d3d a2c8 bb3d
00000360: 5c0d 883d 60d2 aebc c1ba eb3d af12 4a3c
00000370: a0eb b3bb 4956 9dbd 215f ff3d d502 993c
00000380: 5e4c 463b eea3 9ebd 8790 77bb 43e8 dd3d
00000390: edcd 8cbd 3381 643d e26d b03b 9781 9fbd
000003a0: d427 843b ffd0 5e3d cf4d 2bbd 5cb7 55bd
000003b0: bdd9 d2bb bccf 88bc c6ff 14bd 0add 1a3e
000003c0: 6efe 0a3d c529 ae3c 467c d23c b821 483d
000003d0: 3599 763d 264d b93c 3fc1 8d3d b02c 773c
000003e0: c95f 2cbc 80e1 fd3c 8f94 8bbd 578c af3d
000003f0: d02f 803c 939b 083c f798 ed3d a0d6 56bb

layers.1.lin_self.weight f4 [96, 96]
0.06197381 0.008337337 0.08237712 0.015589024 -0.011779945 -0.021017516 0.055205695 -0.05915846
-0.086131714 0.037904944 -0.012599927 0.07861058 -0.07015019 0.0144408895 -0.0024370677 0.13920932
-0.05369925 0.062426396 0.097669944 0.05491155 -0.08223244 -0.05213956 -0.028319303 0.1122942
-0.04398986 0.029738713 -0.050730105 0.015486472 -0.08645252 0.021550678 -0.0756993 0.016726771
0.14607272 -0.091781676 -0.075509675 0.05854971 -0.068999775 0.07014739 0.04986716 0.13197495
0.13047409 0.051635325 -0.08317572 0.06410703 0.05476704 0.023734858 -0.08992196 0.01310855
0.064610355 -0.023509352 0.050277777 0.010898592 0.06604953 -0.037359703 -0.061498985 0.09776977
-0.0652747 0.01988877 0.00045391428 -0.0053569213 0.08165438 0.022759074 0.0844602 -0.00427424
0.08456438 0.021204064 -0.063213766 -0.07701515 0.09719294 0.0056560044 0.09786202 0.08250544
0.065903775 0.12058972 0.040362205 0.11871532 0.06962194 0.005156311 0.103732854 0.08921417
-0.03886693 -0.020583134 -0.018719107 0.013283783 0.06369362 -0.06726508 0.003755522 -0.008341505
0.08105152 0.10921958 -0.08040986 -0.00046440706 -0.04649535 0.013939282 -0.065446034 -0.019202936
-0.047120195 -0.07790511 0.058288604 -0.08156516 0.06335246 0.07017695 -0.10336729 0.07525957
0.020409439 -0.044982363 0.09774232 0.06762828 0.096730374 -0.12346617 0.07243611 0.07105264
0.10044477 0.039376546 -0.039399818 0.020651989 -0.052425906 -0.008528992 0.09865892 0.050005585
-0.05556616 0.028397348 0.055914227 -0.036676247 -0.051301043 -0.010564 -0.07442119 -0.045935642
0.0626834 -0.102518156 -0.11110877 -0.064444676 -0.06211567 -0.010514386 0.08197014 -0.049043708
0.09134156 0.060898185 0.06525612 0.07912974 0.07330114 0.121052876 -0.08500619 -0.11512701
-0.07749611 0.036749873 0.09291904 0.05492464 0.08791471 0.0043913275 0.0019829446 -0.059348427
-0.02626503 -0.08381513 -0.09053506 0.023380121 0.025783038 -0.080705255 0.033353344 0.040245973
-0.09337979 0.058080927 -0.08343842 -0.012924656 -0.043598466 -0.05019623 0.10133447 0.033620276
-0.07923174 -0.06285915 -0.020089028 -0.056985788 0.07687714 0.024176892 0.04856724 0.0776355
0.017255262 -0.07563056 -0.008110979 0.0430611 -0.1012867 -0.0094381375 -0.11893016 0.005357103
-0.038978938 -0.109284066 0.046117466 -0.045995396 -0.05481039 0.031398777 -0.04009548 -0.0851782
0.023552757 0.09728985 0.049357533 0.026550954 0.055778593 0.09967833 0.10096634 0.079632714
-0.030335305 0.04055156 -0.0675639 0.026157554 -0.09439176 -0.016011856 0.110549495 0.05619311
0.03028279 0.077431135 0.012896013 -0.050444394 0.051521264 -0.0047745504 0.042248774 0.077367604
0.051558994 0.08203898 0.040295426 -0.003495809 -0.07918557 -0.005765716 -0.09729505 -0.07374618
0.05237091 -0.09109884 0.015143024 0.037722774 0.046285383 0.05810289 0.053365692 0.092893206
0.032652486 0.100558974 -0.016052289 0.046763156 0.09333999 0.07348835 -0.037585296 -0.054312803
-0.036337305 -0.029660316 0.101945184 0.022983084 0.039240852 0.018652383 0.07754356 -0.012799914
0.0044184155 -0.09069534 0.04575476 -0.014361195 0.04336154 -0.026930805 -0.046164453 -0.03811799
00000000: 40d8 7d3d 5399 083c 56b5 a83d 1b69 7f3c
00000010: ac00 41bc ed2c acbc 5e1f 623d 2450 72bd
00000020: d365 b0bd 3742 1b3d ed6f 4ebc 95fe a03d
00000030: e7aa 8fbd 7b99 6c3c 36b7 1fbb e38c 0e3e
00000040: bff3 5bbd d2b2 7f3d 2e07 c83d efea 603d
00000050: 7b69 a8bd 4b90 55bd e2fd e7bc 80fa e53d
00000060: b62e 34bd 9a9e f33c 5fca 4fbd f9ba 7d3c
00000070: 050e b1bd 0c8b b03c 3c08 9bbd 9506 893c
00000080: 1694 153e 08f8 bbbd d1a4 9abd d2d1 6f3d
00000090: c14f 8dbd 6fa9 8f3d 8241 4c3d 7124 073e
000000a0: 009b 053e 907f 533d 0858 aabd 8c4a 833d
000000b0: 6753 603d 9b6f c23c 0129 b8bd 3ec5 563c
000000c0: 6f52 843d af96 c0bc 12f0 4d3d 0290 323c
000000d0: fa44 873d 7d06 19bd 5ce6 7bbd 843b c83d
000000e0: beae 85bd c6ed a23c 58fb ed39 1d89 afbb
000000f0: 693a a73d 3d71 ba3c 78f9 ac3d ed0e 8cbb
00000100: 1730 ad3d 25b4 ad3c 3876 81bd 1eba 9dbd
00000110: 180d c73d 0156 b93b e26b c83d 9df8 a83d
00000120: 8ff8 863d bef7 f63d d752 253d 0521 f33d
00000130: f395 8e3d 46f6 a83b e471 d43d ebb5 b63d
00000140: ee32 1fbd f69d a8bc d058 99bc 39a4 593c
00000150: cd71 823d 46c2 89bd 341f 763b cfaa 08bc
00000160: 57fe a53d 84ae df3d edad a4bd a97b f3b9
00000170: e871 3ebd 9661 643c 9208 86bd 7a4f 9dbc
00000180: 1b01 41bd b78c 9fbd 08c0 6e3d a20b a7bd
00000190: efbe 813d efb8 8f3d 3bb2 d3bd b021 9a3d
000001a0: b231 a73c 6d3f 38bd 202d c83d b280 8a3d
000001b0: 931a c63d d5db fcbd 6259 943d 0c84 913d
000001c0: fdb5 cd3d 4d49 213d b461 21bd 5c2e a93c
000001d0: 8cbc 56bd 2fbd 0bbc b00d ca3d a8d2 4c3d
000001e0: 5799 63bd 8ea1 e83c 5106 653d d539 16bd
000001f0: 0b21 52bd a114 2dbc 236a 98bd 0327 3cbd
00000200: 2860 803d 0af5 d1bd ff8c e3bd 92fb 83bd
00000210: 006d 7ebd 8844 2cbc f6df a73d 0ee2 48bd
00000220: 4911 bb3d 6070 793d 00a5 853d c60e a23d
00000230: e81e 963d 92ea f73d ba17 aebd b6c7 ebbd
00000240: 48b6 9ebd 0987 163d 564c be3d a9f8 603d
00000250: a10c b43d 20e5 8f3b 4af4 013b 5617 73bd
00000260: c329 d7bc 44a7 abbd 726a b9bd ab87 bf3c
00000270: f336 d33c cc48 a5bd 849d 083d f6d8 243d
00000280: e73d bfbd 44e6 6d3d c3e1 aabd f0c1 53bc
00000290: 4e94 32bd 909a 4dbd 7288 cf3d 6ab5 093d
000002a0: 4044 a2bd 4cbc 80bd bf91 a4bc ee69 69bd
000002b0: c371 9d3d 9e0e c63c 71ee 463d 5cff 9e3d
000002c0: e85a 8d3c 32e4 9abd e9e3 04bc d660 303d
000002d0: 676f cfbd 6ba2 1abc a891 f3bd a38a af3b
000002e0: 61a8 1fbd 53d0 dfbd abe5 3c3d ab65 3cbd
000002f0: dc80 60bd 019c 003d 283b 24bd e871 aebd
00000300: b6f1 c03c e73f c73d 202b 4a3d 6381 d93c
00000310: 1878 643d 2724 cc3d 71c7 ce3d 7a16 a33d
00000320: bf81 f8bc 6519 263d f15e 8abd 5e48 d63c
00000330: 7850 c1bd 4c2b 83bc c667 e23d bf2a 663d
00000340: 9d13 f83c 3794 9e3d cd49 533c c89e 4ebd
00000350: f607 533d d573 9cbb 0d0d 2d3d e872 9e3d
00000360: 862f 533d 0e04 a83d d10c 253d f119 65bb
00000370: 0b2c a2bd 55ee bcbb a142 c7bd 3d08 97bd
00000380: e182 563d 0792 babd 721a 783c 3283 1a3d
00000390: be95 3d3d 4cfd 6d3d fc95 5a3d cb3e be3d
000003a0: 9dbe 053d ddf1 cd3d 1780 83bc b98a 3f3d
000003b0: 0929 bf3d 0f81 963d 0af3 19bd 1a77 5ebd
000003c0: 6dd6 14bd 31fa f2bc a3c8 d03d 0547 bc3c
000003d0: 04bb 203d e2cc 983c 28cf 9e3d bbb6 51bc
000003e0: 5bc8 903b 7abe b9bd 5869 3b3d 384b 6bbc
000003f0: df9b 313d fe9d dcbc f016 3dbd 9c21 1cbd

layers.1.lin_self.bias f4 [96]
0.07682305 -0.03247906 -0.016634282 0.13321428 0.08962751 0.05439834 0.021619828 0.108856484
0.15538697 0.0025975117 0.017360419 0.09446532 0.014910156 0.08868393 0.08415053 -0.054743346
-0.020502415 0.14317401 0.09778891 0.11319568 -0.025479103 -0.0055249613 -0.027115632 0.0134964
0.1245584 -0.0050355964 -0.0008859183 0.04978765 0.06642146 0.015004017 0.1053515 0.08489308
0.06931098 0.0712904 -0.07594729 0.13065685 0.119404264 0.054997552 -0.03292559 -0.022597535
0.061407194 0.08702539 -0.060313243 -0.072666824 0.072202995 0.04378237 0.1105369 -0.08977951
0.086876534 0.0017311377 0.07130625 -0.021738779 0.061171412 0.083813615 0.081210315 0.134912
0.0054236567 -0.08461273 -0.10640535 -0.010698678 -0.028219402 0.009103602 -0.016493909 -0.0031408593
0.06542301 -0.047779743 -0.046651103 0.11414485 -0.017891001 0.074412875 0.0024219577 0.014710414
0.052305132 0.029212585 -0.022851706 0.0732372 0.025125593 0.09884338 0.15285791 0.015098562
0.018087044 0.010499749 -0.01399372 -0.06575739 0.07301132 -0.011188217 -0.038374793 0.07270713
-0.03543096 0.05457281 0.14633222 -0.030147154 0.052081745 0.09829887 0.1200611 0.0549141
00000000: 6755 9d3d c308 05bd 9e44 88bc 5369 083e
00000010: a18e b73d cbd0 5e3d 111c b13c 26f0 de3d
00000020: c31d 1f3e 043b 2a3b 7037 8e3c 0977 c13d
00000030: ba49 743c ec9f b53d 1d57 ac3d 8f3a 60bd
00000040: aef4 a7bc 359c 123e 8d45 c83d 23d3 e73d
00000050: 8db9 d0bc bc0a b5bb 9a21 debc 0120 5d3c
00000060: 7918 ff3d a501 a5bb f93c 68ba 23ee 4b3d
00000070: f907 883d 69d3 753c 87c2 d73d 6cdc ad3d
00000080: eaf2 8d3d b400 923d 418a 9bbd e9ca 053e
00000090: 398a f43d 1d45 613d fcdc 06bd 771e b9bc
000000a0: 1c86 7b3d 5e3a b23d 050b 77bd 58d2 94bd
000000b0: 2adf 933d 2455 333d 2c61 e23d 52de b7bd
000000c0: 53ec b13d 58e7 e23a 0309 923d 8615 b2bc
000000d0: e08e 7a3d 79a6 ab3d 9851 a63d 5f26 0a3e
000000e0: eeb8 b13b 7049 adbd 0ceb d9bd 8249 2fbc
000000f0: 602c e7bc 4627 153c 3c1e 87bc e0d6 4dbb
00000100: 80fc 853d b1b4 43bd 3a15 3fbd c6c4 e93d
00000110: 2690 92bc c765 983d b5b9 1e3b f303 713c
00000120: e83d 563d 3b4f ef3c 8033 bbbc 63fd 953d
00000130: 30d4 cd3c 666e ca3d c986 1c3e f65f 773c
00000140: 482b 943c 2407 2c3c ea45 65bc cfab 86bd
00000150: f586 953d c94e 37bc e32e 1dbd 7ae7 943d
00000160: 0e20 11bd bd87 5f3d 1dd8 153e 2af7 f6bc
00000170: ab53 553d eb50 c93d 98e2 f53d 9bed 603d

layers.1.lin_neigh.weight f4 [96, 96]
-0.07300043 -0.044339985 0.046462722 0.06217151 0.02175853 -0.0048680617 0.049624577 -0.038177628
-0.032042574 0.02632925 0.034723874 -0.07419443 0.06881186 -0.03359885 -0.030605905 -0.044119373
0.006549611 0.0552829 -0.08176793 0.10208416 -0.011086087 0.101246975 -0.095509596 -0.08700177
-0.06733012 0.04719516 0.008482917 0.017860522 -0.0034423657 0.06845992 -0.083857186 -0.013826377
0.1071308 0.09373937 0.12088934 0.086622715 -0.061396252 0.0200855 0.053443033 0.09640039
-0.03177755 -0.04652177 0.01908469 0.048655283 0.08057414 -0.002318941 -0.042765096 0.004281111
0.1138374 0.11953639 -0.06270198 -0.019155564 0.056774598 -0.009690506 -0.052325733 -0.08409756
0.016306363 -0.013277382 0.04719699 0.10652733 -0.038203314 0.025787577 -0.006760183 -0.078971885
-0.03055635 -0.060704485 -0.043276966 -0.029078213 -0.06106775 0.09538872 0.0015079062 -0.053033058
0.00334885 0.0470391 -0.07549579 -0.025120772 0.08650859 0.029543692 0.05459009 0.03817282
0.114593655 0.08564122 4.7784037e-05 -0.043909043 0.030103978 0.021628194 0.037035134 0.054043166
0.010976634 -0.058354035 -0.04759987 0.09401606 -0.085968606 -0.03329685 0.032293268 -0.011361839
-0.06445389 0.015947029 -0.004693444 0.0077081164 -0.056722548 -0.09573364 0.046075515 -0.06662113
-0.0017227662 -0.0693525 -0.03407339 -0.07183123 0.09111013 -0.012851375 0.04540151 -0.0668958
-0.059664916 0.010637338 -0.08933727 -0.08790888 0.021929856 0.015518139 0.07149576 0.026638694
0.059681047 -0.015725061 0.038682114 0.014656836 0.016123831 -0.044146236 0.064542405 -0.015452232
-0.03674643 0.08607148 0.06866814 -0.07341698 0.059530407 -0.06349738 -0.056886736 -0.07043007
-0.09204792 -0.098208405 0.10505594 0.051458705 0.045028422 -0.09478555 0.0017814065 0.05134298
-0.062568925 -0.021635268 0.05254584 0.07898365 0.0793642 -0.06168211 -0.08550799 0.028899187
-0.09857814 0.07272275 -0.036011763 -0.044384565 -0.019599603 -0.0018069827 -0.06655565 0.043909032
-0.08471996 0.062462136 0.08344007 -0.08741174 0.012048855 -0.023656238 -0.09999114 0.0056526433
0.0042321575 0.009634799 -0.10417143 -0.020561494 -0.057572268 0.017299041 -0.0794254 -0.023801355
0.0100721335 0.05234572 -0.006899675 0.023022726 -0.05745906 -0.035816222 0.077828884 0.043471225
-9.342926e-06 -0.055434696 0.05823261 0.108346105 -0.031264495 0.0917622 0.08998647 0.080788806
0.05181959 0.054352045 0.053860575 -0.10368644 -0.020179987 0.044730864 0.009455121 -0.00023547385
0.07118342 0.07857232 -0.0758691 0.08711433 0.048755385 0.08814163 0.028167678 -0.020996613
0.036301117 0.029228175 0.075487465 -0.09323695 -0.079538666 0.026751619 0.08012422 -0.024041662
0.09731697 0.07120592 0.032470312 -0.04193468 0.002286911 0.026287887 0.019312404 0.085745886
0.085282415 0.04086367 0.039028738 0.06994269 -0.053536337 -0.036653854 0.0170273 -0.014661904
0.05454701 0.046591084 -0.027307965 0.036290463 -0.051698644 -0.0025992158 -0.02741212 0.08696922
-0.06657751 -0.07775209 0.0069305017 -0.0010031856 0.068518825 0.0839142 -0.056600057 -0.0333006
0.020092104 0.043779373 0.08969015 -0.08171765 0.009625908 -0.03573138 0.04145805 -0.07877767
00000000: 4081 95bd d89d 35bd b24f 3e3d 8ea7 7e3d
00000010: f23e b23c 4384 9fbb 2443 4b3d 2560 1cbd
00000020: 133f 03bd 70b0 d73c 9f3a 0e3d 40f3 97bd
00000030: 3ced 8c3d f39e 09bd 3cb9 fabc 84b6 34bd
00000040: 1f9e d63b 5270 623d f275 a7bd 8011 d13d
00000050: 6ba2 35bc 935a cf3d 899a c3bd fc2d b2bd
00000060: 60e4 89bd b64f 413d effb 0a3c 3b50 923c
00000070: 5099 61bb b734 8c3d 51bd abbd 0788 62bc
00000080: 6567 db3d 6dfa bf3d d594 f73d 4067 b13d
00000090: a37a 7bbd 598a a43c 15e7 5a3d 916d c53d
000000a0: 2d29 02bd 9d8d 3ebd 7f57 9c3c c34a 473d
000000b0: 0e04 a53d 60f9 17bb 742a 2fbd 9048 8c3b
000000c0: 9523 e93d 7fcf f43d e569 80bd 21ec 9cbc
000000d0: 7b8c 683d eec4 1ebc 8253 56bd 573b acbd
000000e0: ec94 853c 6089 59bc a251 413d 002b da3d
000000f0: 147b 1cbd 7840 d33c 8684 ddbb 03bc a1bd
00000100: 4f51 fabc 44a5 78bd 3043 31bd 6f35 eebc
00000110: 2d22 7abd 295b c33d f0a4 c53a 3139 59bd
00000120: 6178 5b3b 12ac 403d 899d 9abd 14ca cdbc
00000130: 6a2b b13d 9d05 f23c dc99 5f3d 1a5b 1c3d
00000140: 14b0 ea3d aa64 af3d b86b 4838 f8d9 33bd
00000150: 9e9c f63c 9c2d b13c 27b2 173d 5e5c 5d3d
00000160: 57d7 333c a404 6fbd 15f8 42bd 7e8b c03d
00000170: 4f10 b0bd 4762 08bd f245 043d 0227 3abc
00000180: 6700 84bd 58a3 823c 76cb 99bb 5e94 fc3b
00000190: e755 68bd 0010 c4bd aeb9 3c3d a970 88bd
000001a0: 71ce e1ba af08 8ebd 8a90 0bbd 401c 93bd
000001b0: f397 ba3d 938e 52bc eff6 393d aa00 89bd
000001c0: 3363 74bd 3b48 2e3c 75f6 b6bd 9209 b4bd
000001d0: 3ea6 b33c cb3f 7e3c 5e6c 923d 6439 da3c
000001e0: 1d74 743d d8d1 80bc 2371 1e3d 3a23 703c
000001f0: 2016 843c afd2 34bd cf2e 843d 5c2b 7dbc
00000200: 6d83 16bd 3e46 b03d e2a1 8c3d a45b 96bd
00000210: 28d6 733d ea0a 82bd 1102 69bd a43d 90bd
00000220: 9f83 bcbd 7d21 c9bd 9227 d73d 5dc6 523d
00000230: b96f 383d ed1e c2bd 157e e93a 044d 523d
00000240: 2324 80bd 723c b1bc 4f3a 573d 2ec2 a13d
00000250: b389 a23d 61a6 7cbd d01e afbd fdbd ec3c
00000260: 56e3 c9bd aaef 943d 1281 13bd 97cc 35bd
00000270: 598f a0bc 47d8 ecba 544e 88bd f5d9 333d
00000280: a981 adbd 4cd8 7f3d a1e2 aa3d ed04 b3bd
00000290: 9068 453c baca c1bc 28c8 ccbd cf39 b93b
000002a0: e9ad 8a3b 47db 1d3c d557 d5bd 9470 a8bc
000002b0: e6d0 6bbd b8b6 8d3c c9a9 a2bd 0ffb c2bc
000002c0: 9705 253c 7768 563d ab16 e2bb 289a bc3c
000002d0: 315a 6bbd 08b4 12bd c064 9f3d e20e 323d
000002e0: 90bf 1cb7 7e0f 63bd 5185 6e3d 90e4 dd3d
000002f0: 330f 00bd d2ed bb3d d44a b83d 9a74 a53d
00000300: c740 543d 40a0 5e3d e89c 5c3d 8e59 d4bd
00000310: 8050 a5bc b637 373d a7e9 1a3c 88e9 76b9
00000320: 9dc8 913d 86ea a03d 4261 9bbd ff68 b23d
00000330: bab3 473d 9983 b43d e7bf e63c 1701 acbc
00000340: 7bb0 143d ed6f ef3c 2c99 9a3d 04f3 bebd
00000350: 2be5 a2bd 3626 db3c 2b18 a43d 05f3 c4bc
00000360: 1f4e c73d 69d4 913d 97ff 043d b3c3 2bbd
00000370: 00e0 153b b259 d73c 0c35 9e3c 8a9b af3d
00000380: 8ca8 ae3d aa60 273d 99dc 1f3d 1d3e 8f3d
00000390: eb48 5bbd 5a22 16bd d67c 8b3c 7c38 70bc
000003a0: b06c 5f3d 4bd6 3e3d f4b4 dfbc 4fa5 143d
000003b0: f5c1 53bd 9b57 2abb 628f e0bc eb1c b23d
000003c0: ca59 88bd 7d3c 9fbd 4319 e33b 537d 83ba
000003d0: 9953 8c3d 35db ab3d 76d5 67bd 3666 08bd
000003e0: 3298 a43c 0052 333d 78af b73d 955b a7bd
000003f0: fcb5 1d3c 115b 12bd ebcf 293d 3056 a1bd

net.0.weight f4 [96, 96, 3]
0.06818897 0.051606435 0.041144326 0.032927543 0.035352524 0.0042025414 -0.009573897 0.08412295
-0.04589093 -0.017174574 0.04297699 0.04634405 -0.027446138 0.049122274 -0.006681334 0.039219756
-0.043158088 0.0510338 0.031544082 0.009942088 0.058691047 0.042681646 0.018132081 0.09465555
-0.007313682 0.07863243 -0.008235176 0.022638798 -0.0019819394 0.0008211116 0.045986205 0.04242147
-0.010883602 0.012884969 0.061242234 -0.0083190715 0.01795775 0.042308882 0.054943964 0.032733686
0.07517862 -0.0053546396 0.06241896 0.08454144 0.08636956 0.066535406 0.07908653 -0.0056197005
0.018398259 0.066006474 0.072487496 0.01811999 0.052225284 0.06501247 -0.0015791454 0.046487764
-0.02014191 -0.02663193 -0.0121218655 0.04017333 -0.0016556584 -0.027342211 0.040566683 0.05487854
0.048493486 0.00810076 -0.0258679 0.08672228 0.052908827 0.06441766 0.0904891 0.08135564
0.034555245 -0.027207252 0.036746804 0.04973386 -0.0018388048 0.048346363 0.027391847 0.037855975
0.011020979 -0.012495316 0.051042736 0.03658381 0.048013058 0.016007688 0.036926452 -0.0076823807
0.029256219 0.08914677 -0.011424297 -0.0005930704 -0.021554574 0.061011456 -0.033335555 -0.019245397
0.06494159 1.8452185e-05 0.028637797 0.033936612 0.07358937 0.08293889 -0.000673605 -0.017643664
0.023024479 0.071493186 0.06445574 0.08132057 0.0012799063 0.068944596 0.064604655 0.0042495583
-0.021419533 -0.052047145 0.02591315 0.0017154003 0.0040021674 0.01540878 0.020848835 0.0036580237
0.059730113 0.08386659 -0.018469939 0.02216819 0.037106615 0.006351475 -0.030238142 0.06467144
0.0041163256 -0.039932903 0.020434784 0.028745333 0.024973314 -0.03519587 0.0186506 -0.04043055
0.05931944 0.03496292 0.06307368 0.010456926 0.08112142 -0.05955045 -0.020918434 0.020171981
0.01836857 0.046508573 0.011106308 0.03301695 0.03727645 -0.008908001 0.04202878 0.040341984
0.0667729 -0.00031887754 0.026272189 0.005157484 -0.0104153585 0.0040600393 0.011682466 0.024093036
0.056604613 0.07478337 0.050324008 -0.027316166 -0.025984159 0.03354213 0.009150962 0.09615022
0.05316857 0.026159868 0.070629284 0.0051374147 -0.036566183 0.043301307 0.02854252 -0.06957319
0.05199072 -0.022511411 0.04363133 0.045280382 0.025017908 0.061259754 0.027578427 -0.048774023
0.003409946 0.0076384526 -0.020778956 0.03520334 0.0849156 -0.045257237 0.08027394 0.027935864
0.046010148 -0.024306603 0.009344768 0.029827433 -0.0023436234 0.042002603 0.048896197 -0.04884607
-0.05334124 0.03360687 0.054743044 0.0110735735 0.038906787 -0.018698405 0.021803014 0.042982966
0.039026435 0.013014628 0.015649913 -0.012053189 -0.02073361 -0.022917192 0.03846343 -0.051761936
-0.041187774 0.0012190582 -0.026749862 -0.0040697544 0.019016054 -0.050960544 -0.060059357 0.082100004
0.0327123 -0.026661832 -0.020311391 0.011867065 0.054503575 -0.018239437 -0.016334753 0.0144434925
-0.014111025 0.04527345 -0.000560378 -0.0062974673 -0.026427636 0.02945898 0.004477774 0.055565618
-0.029478218 0.042109877 0.019393807 0.0045155147 0.046849895 -0.008383482 -0.0038137112 0.020739539
-0.026503766 -0.028635977 0.038170405 -0.01759666 -0.037558556 -0.027521506 0.07768285 0.07148823
00000000: a9a6 8b3d 4561 533d f486 283d 08df 063d
00000010: cfcd 103d 79b5 893b d6db 1cbc a748 ac3d
00000020: 21f8 3bbd b1b1 8cbc a408 303d 42d3 3d3d
00000030: b9d6 e0bc 7034 493d 18ef dabb e5a4 203d
00000040: 89c6 30bd d108 513d 5e34 013d 24e4 223c
00000050: 0666 703d f3d2 2e3d bb89 943c c5da c13d
00000060: 9da7 efbb 0a0a a13d d5ec 06bc 0075 b93c
00000070: 6de3 01bb de3f 573a 085c 3c3d 23c2 2d3d
00000080: 2351 32bc 7a1b 533c 23d9 7a3d b74c 08bc
00000090: 221c 933c 144c 2d3d ec0c 613d c213 063d
000000a0: 40f7 993d f975 afbb 06ab 7f3d 1024 ad3d
000000b0: 86e2 b03d b743 883d 1ef8 a13d 7725 b8bb
000000c0: f2b7 963c 672e 873d 5374 943d 6070 943c
000000d0: 2eea 553d 4225 853d 54fb ceba f469 3e3d
000000e0: a600 a5bc 352b dabc ca9a 46bc ca8c 243d
000000f0: ad02 d9ba c6fc dfbc 4029 263d 52c8 603d
00000100: 1ba1 463d 0db9 043c ebe8 d3bc 739b b13d
00000110: edb6 583d 68ed 833d 5952 b93d c99d a63d
00000120: cd89 0d3d bee1 debc d183 163d bbb5 4b3d
00000130: 0d04 f1ba d606 463d de64 e03c de0e 1b3d
00000140: 5691 343c 27b9 4cbc 3012 513d e8d8 153d
00000150: 57a9 443d 8e22 833c 3140 173d 7bbc fbbb
00000160: bdaa ef3c 9592 b63d f92c 3bbc 4878 1bba
00000170: 3893 b0bc 26e7 793d dd8a 08bd 86a8 9dbc
00000180: 1900 853d c4c9 9a37 d099 ea3c 1e01 0b3d
00000190: 06b6 963d dddb a93d de94 30ba 7289 90bc
000001a0: d59d bc3c 056b 923d 5f01 843d 668b a63d
000001b0: 87c2 a73a d332 8d3d 724f 843d e13f 8b3b
000001c0: 0478 afbc 632f 55bd d047 d43c 48d7 e03a
000001d0: 9d24 833b 1c75 7c3c 2dcb aa3c 74bb 6f3b
000001e0: 90a7 743d 3fc2 ab3d 454e 97bc 109a b53c
000001f0: 1bfd 173d 0920 d03b fbb5 f7bc 7672 843d
00000200: 3ee2 863b af90 23bd d966 a73c 557b eb3c
00000210: d694 cc3c 8b29 10bd 25c9 983c 819a 25bd
00000220: f1f8 723d 4735 0f3d c62c 813d 8753 2b3c
00000230: fd22 a63d 2ceb 73bd 235d abbc b63f a53c
00000240: af79 963c c67f 3e3d 3bf7 353c c83c 073d
00000250: 31af 183d ddf2 11bc 5f26 2c3d a33d 253d
00000260: 3bc0 883d 052f a7b9 c638 d73c 1d00 a93b
00000270: 2ea5 2abc 140a 853b d067 3f3c c25e c53c
00000280: 3dda 673d 0628 993d 8c20 4e3d 27c6 dfbc
00000290: bbdc d4bc 7963 093d ebed 153c 68ea c43d
000002a0: 49c7 593d 384d d63c 16a6 903d c257 a83b
000002b0: 6cc6 15bd b65c 313d 01d2 e93c 637c 8ebd
000002c0: 39f4 543d da69 b8bc c4b6 323d ec77 393d
000002d0: 5bf2 cc3c 82eb 7a3d 27ec e13c 45c7 47bd
000002e0: 6779 5f3b fc4b fa3b a138 aabc 6131 103d
000002f0: 3be8 ad3d a75f 39bd aa66 a43d c1d9 e43c
00000300: 2375 3c3d a41e c7bc cc1a 193c a958 f43c
00000310: 7a97 19bb ec0a 2c3d 6147 483d d112 48bd
00000320: 587c 5abd 5ba7 093d 3e3a 603d ef6d 353c
00000330: b95c 1f3d 662d 99bc 3c9c b23c e80e 303d
00000340: 2fda 1f3d 4e3b 553c 3f34 803c bd7a 45bc
00000350: 88d9 a9bc d6bc bbbc d48b 1d3d 5304 54bd
00000360: 83b4 28bd cec8 9f3a 8722 dbbc 935b 85bb
00000370: 8ec7 9b3c 01bc 50bd cd00 76bd 0c24 a83d
00000380: 55fd 053d ea69 dabc 1364 a6bc 146e 423c
00000390: 243f 5f3d df6a 95bc 76d0 85bc 66a4 6c3c
000003a0: ee31 67bc a770 393d 55e6 12ba fc5a cebb
000003b0: c57e d8bc f553 f13c 4aba 923b c698 633d
000003c0: 4e7c f1bc 687b 2c3d c3df 9e3c e2f6 933b
000003d0: ade5 3f3d df5a 09bc 75ef 79bb f7e5 a93c
000003e0: 6d1e d9bc ff95 eabc 9258 1c3d df26 90bc
000003f0: 00d7 19bd c874 e1bc 3018 9f3d 6c68 923d

net.0.bias f4 [96]
0.09082236 0.122268125 -0.064904004 -0.062884346 0.034446213 0.017098643 0.016780399 0.06557262
-0.042827863 0.07064357 0.12685932 -0.0034668709 0.10751115 0.016158665 0.075870536 0.03469577
0.053575076 -0.024962327 0.02774522 0.0050840327 0.11752173 0.10828309 0.0814889 0.0049370085
0.08252794 0.024565695 0.08503753 0.07825122 0.009722803 0.034138262 0.102322005 0.062703416
0.037208397 0.024953762 0.020055339 0.043185204 -0.014727744 0.024266621 0.07432801 -0.0017944666
0.049525373 0.012676473 0.1071356 0.11936091 0.09277302 0.040331002 0.007783257 0.050534207
0.03563576 -0.047648903 0.109100714 0.03631459 0.038255576 0.110045515 0.091169395 0.028884156
0.005289086 0.09093102 0.09173839 -0.038409688 0.044713594 0.10790064 0.07120229 0.017154524
0.029091587 0.022160402 0.060530514 0.053871293 0.035904888 0.08708266 -0.026348647 0.04360434
0.03669625 -0.05591242 -0.023048664 0.07184633 -0.035669953 0.035071816 0.05896916 0.12703
0.054966986 0.047680438 -0.0039130356 0.10495694 0.08356634 0.028209046 0.07549953 0.062242538
0.04980787 0.023271631 0.107203275 -0.022570381 0.011461027 0.024114542 0.062476758 0.009155047
00000000: 1301 ba3d b667 fa3d 64ec 84bd 82c9 80bd
00000010: 7917 0d3d 7412 8c3c 0c77 893c f04a 863d
00000020: 456c 2fbd 93ad 903d 69e7 013e 7134 63bb
00000030: ce2e dc3d 2d5f 843c 0362 9b3d 271d 0e3d
00000040: 8a71 5b3d cb7d ccbc f249 e33c f597 a63b
00000050: 3caf f03d 86c3 dd3d a7e3 a63d a1c6 a13b
00000060: 6904 a93d ff3d c93c 2828 ae3d 2d42 a03d
00000070: 644c 1f3c 90d4 0b3d 338e d13d a66a 803d
00000080: d567 183d d56b cc3c 184b a43c f8e2 303d
00000090: a34c 71bc cbca c63c 4939 983d 4f34 ebba
000000a0: 1edb 4a3d fbb0 4f3c e969 db3d 7e73 f43d
000000b0: c8ff bd3d 1f32 253d b10a ff3b f5fc 4e3d
000000c0: cdf6 113d 7f2b 43bd 3270 df3d 9cbe 143d
000000d0: e1b1 1c3d 8b5f e13d 05b7 ba3d 779e ec3c
000000e0: 1250 ad3b 0b3a ba3d 56e1 bb3d 7a53 1dbd
000000f0: 9a25 373d 03fb dc3d 82d2 913d a587 8c3c
00000100: 7b51 ee3c bb89 b53c d8ee 773d 25a8 5c3d
00000110: 0111 133d 6558 b23d 1ed9 d7bc 779a 323d
00000120: cf4e 163d 6c04 65bd 8dd0 bcbc 2b24 933d
00000130: a81a 12bd 77a7 0f3d a589 713d 2714 023e
00000140: 1025 613d 904c 433d ec38 80bb aaf3 d63d
00000150: d424 ab3d a816 e73c 7f9f 9a3d 08f2 7e3d
00000160: 5603 4c3d 26a4 be3c 648d db3d 85e5 b8bc
00000170: 08c7 3b3c dc8b c53c a1e7 7f3d 0dff 153c
