outputs/models/lead1_sage_seed42.pt (torch, 382560 bytes, 13 tensors)

in_lin.weight f4 [96, 15]
0	0x3e418ac6	0.18900594
1	0x3e381f2f	0.17980646
2	0xbd8b9ea2	-0.06817366
3	0x3e4fb34d	0.20283242
4	0xbd67b85b	-0.0565723
5	0x3d55690b	0.05210213
6	0xbe1f0a42	-0.15531257
7	0x3e57a8e7	0.21060525
8	0x3e79522b	0.24347751
9	0xbe56318a	-0.20917335
10	0x3e528883	0.20559888
11	0x3ddbbd14	0.10729423
12	0x3e5331c8	0.20624459
13	0x3cabf8a4	0.020992585
14	0x3ddef094	0.108857304
15	0xbcd814a4	-0.02637703
16	0x3e4cfd38	0.2001847
17	0x3d37421a	0.044740774
18	0xbdf49511	-0.11942495
19	0x3d86c9bb	0.06581446
20	0xbdf3a22f	-0.118961684
21	0xbcfb04f3	-0.030642008
22	0xbe820296	-0.25392598
23	0x3e803fc3	0.25048646
24	0xbe2bd67d	-0.1678104
25	0xbdad65bb	-0.08466669
26	0xbe634ae6	-0.2219654
27	0xbe3934a8	-0.18086493
28	0x3d207858	0.03917727
29	0xbe707253	-0.23481111
30	0x3e4178ae	0.18893692
31	0xbe2f210d	-0.17102452
32	0x3e1edb2f	0.155133
33	0x3dbaec66	0.09127121
34	0xbdabb371	-0.08383835
35	0x3e23621f	0.15955399
36	0x3d54a859	0.05191836
37	0x3e89c580	0.26908493
38	0x3d80ad82	0.06283094
39	0xbd96929c	-0.07352182
40	0x3d9706dd	0.07374356
41	0xbc1c73e8	-0.009549119
42	0x3e240e27	0.16021024
43	0x3e4d39d7	0.20041595
44	0x3dc31c74	0.095269114
45	0xbd9213b4	-0.07132664
46	0x3dea801d	0.11450217
47	0x3d8acd8c	0.06777486
48	0x3dc58d4a	0.096460894
49	0xbe212687	-0.15737353
50	0xbe82dd1f	-0.25559327
51	0xbe097c53	-0.13426332
52	0xbe46930a	-0.19392028
53	0x3e5d979d	0.21639867
54	0x3db70155	0.08935801
55	0x3db1f85b	0.08689948
56	0x3dafae9c	0.08578226
57	0xbd41becd	-0.047301102
58	0x3e7e5efc	0.24840921
59	0xbe1275f3	-0.14302807
60	0xbbe263eb	-0.006908884
61	0xbe2a6e56	-0.16643652
62	0x3d67594b	0.05648164
63	0xbd97a13b	-0.07403799
64	0x3da207bf	0.07911634
65	0xbd5c569d	-0.05379354
66	0x3e437213	0.19086485
67	0xbe12e4e9	-0.14345135
68	0xbe13df16	-0.1444057
69	0xbe13e185	-0.14441498
70	0x3e779f55	0.24181874
71	0x3dc3d8d7	0.09562843
72	0x3e75b9f7	0.23996721
73	0xbe5c638c	-0.21522349
74	0xbe81695d	-0.25275698
75	0xbe80a4d1	-0.25125745
76	0xbe16bd96	-0.14720759
77	0x3d807320	0.06271958
78	0x3df3da20	0.119068384
79	0x3e5bb15c	0.21454376
80	0xbe088a67	-0.13334046
81	0xbe195f7d	-0.14977832
82	0x3e5398d8	0.20663774
83	0xbd5f9e1d	-0.054594148
84	0x3e272d38	0.16325843
85	0xbd3bdb0e	-0.045863204
86	0x3e5e8f98	0.21734464
87	0xbe0f5533	-0.13997345
88	0xbe2b484d	-0.167268
89	0x3e05b452	0.13057068
90	0x3d116c6b	0.035503786
91	0xbddc8853	-0.10768189
92	0x3e0a0e57	0.13482033
93	0x3e08e3c5	0.13368137
94	0xbe3fbb91	-0.18723895
95	0xbe0d2706	-0.13784418
96	0x3e47658c	0.19472331
97	0xbe2f318e	-0.17108747
98	0xbe0ce3ee	-0.13758823
99	0xbe48b0fb	-0.19598763
100	0xbe1a4751	-0.15066268
101	0xbc9f7257	-0.019463701
102	0xbdb96036	-0.09051554
103	0xbe399274	-0.18122274
104	0x3dae2361	0.08502842
105	0xbe47587e	-0.19467351
106	0xbe730a44	-0.23734385
107	0xbe24d95e	-0.16098544
108	0xbe7a172b	-0.244229
109	0xbe2859cd	-0.16440506
110	0x3e842568	0.2580979
111	0x3cf8ad84	0.030356176
112	0x3d7b2e17	0.06132325
113	0xbe84a3ae	-0.25906128
114	0xbe40543a	-0.1878213
115	0xbdd55f8f	-0.10418617
116	0x3cb54d8e	0.022131708
117	0xbe5574f8	-0.20845401
118	0xbdd489f3	-0.10377874
119	0xbdd7d0a2	-0.105378404
120	0x3c021e28	0.00794176
121	0xbdd141d7	-0.10217636
122	0xbc25e666	-0.010125732
123	0xbe3967cc	-0.18106002
124	0xbe357adb	-0.17722647
125	0xbe1a3fb8	-0.1506337
126	0xbdc174d6	-0.09446113
127	0xbe584334	-0.21119386
128	0x3e561151	0.20905043
129	0xbd7068a8	-0.058693558
130	0x3e59d4bd	0.2127256
131	0x3d959a11	0.073047765
132	0xbe677b6a	-0.22605672
133	0x3e3e7db2	0.18602636
134	0xbd82081a	-0.063492015
135	0xbe05001d	-0.12988324
136	0xbe001933	-0.12509613
137	0xbe8e8c40	-0.27841377
138	0x3e271797	0.16317593
139	0xbd6705bf	-0.056401964
140	0x3dcddee5	0.100522794
141	0xbdfbb8bf	-0.12291097
142	0x3e612d71	0.21989991
143	0xbe814cc5	-0.25253883
144	0xbe584f38	-0.2112397
145	0xbd41ff8f	-0.04736286
146	0x3e256093	0.16150121
147	0x3e8fecf2	0.28110462
148	0x3e78a1d8	0.24280488
149	0xbe462669	-0.1935059
150	0x3d08ce60	0.03339994
151	0xbd895cba	-0.06707139
152	0xbd74dbe4	-0.059780017
153	0xbe18ecff	-0.14934157
154	0x3e70d3bb	0.23518269
155	0xbe420da7	-0.1895052
156	0x3e185082	0.14874461
157	0x3e213873	0.1574419
158	0x3deebbfb	0.11656948
159	0xbe06b0e2	-0.13153413
160	0x3e70f07a	0.23529235
161	0x3dfcce4b	0.12344035
162	0x3dc45179	0.09585852
163	0xbe72b8da	-0.23703328
164	0x3d14e7a0	0.036353707
165	0xbd92d9b7	-0.07170432
166	0xbdbf6261	-0.09344936
167	0x3e415576	0.18880257
168	0x3da37ab4	0.07982388
169	0xbe1248ad	-0.14285536
170	0xbe05d229	-0.13068451
171	0xbd399645	-0.045309324
172	0x3e2d275d	0.16909547
173	0xbd282584	-0.041051403
174	0xbdfaaa05	-0.1223946
175	0xbd8207c9	-0.06349141
176	0xbe2bff7a	-0.16796675
177	0x3d36b42f	0.04460543
178	0x3e675de0	0.22594404
179	0xbe813236	-0.2523362
180	0x3d0c052a	0.034184612
181	0x3ddc8d38	0.10769123
182	0x3cac76bc	0.02105271
183	0xbdf0e886	-0.117631
184	0x3e09ffce	0.13476488
185	0x3e0af183	0.13568692
186	0x3d92bc1e	0.07164787
187	0xbd22c865	-0.039741892
188	0xbdd9aa64	-0.106282026
189	0xbd384711	-0.04498965
190	0xbdb5f255	-0.08884112
191	0xbd920d4d	-0.07131443
192	0x3e1ca997	0.15299068
193	0x3e7bf29c	0.24604267
194	0xbd2d8456	-0.042362534
195	0xbda36c9b	-0.07979699
196	0x3c76ddb0	0.015067503
197	0xbcc68ba3	-0.024236506
198	0x3d96c347	0.07361465
199	0x3d942f63	0.07235601
200	0xbe70239f	-0.23451088
201	0xbdac9a62	-0.08427884
202	0x3e88479d	0.26617137
203	0x3dda7d3f	0.1066842
204	0xbd39a601	-0.04532433
205	0xbe3826c6	-0.17983541
206	0xbddfb559	-0.10923261
207	0xbe2dee01	-0.16985323
208	0xbda171e5	-0.07883052
209	0x3d581b9c	0.052760705
210	0x3df0fc03	0.117668174
211	0x3e0f7924	0.14011055
212	0xbe83188a	-0.2560466
213	0xbe096122	-0.1341596
214	0xbd26e776	-0.040748082
215	0x3e7fc355	0.24976857
216	0x3d6d6219	0.05795488
217	0x3b121a6c	0.002229358
218	0x3e0e6172	0.1390436
219	0xbdcfafbd	-0.10140941
220	0xbe2306db	-0.15920584
221	0x3e83ddd4	0.2575518
222	0xbd83a070	-0.064270854
223	0xbd861535	-0.06547014
224	0xbe94fac8	-0.2909758
225	0x3e208425	0.15675409
226	0x3e325077	0.17413507
227	0x3da0ef5f	0.078581564
228	0xbe4e377a	-0.2013835
229	0xbe8278a8	-0.25482678
230	0xbe56bc91	-0.2097037
231	0x3e30cd33	0.17265777
232	0x3e46421e	0.19361159
233	0x3e7cbec9	0.24682154
234	0x3e0812b9	0.13288392
235	0x3d715c54	0.05892594
236	0x3d897666	0.06712036
237	0xbe4af73a	-0.19820872
238	0xbe50dfc4	-0.2039786
239	0xbe786d01	-0.24260332
240	0x3da4aafc	0.08040425
241	0xbe1baae1	-0.15201904
242	0xbd9f55e6	-0.07780056
243	0xbe316e38	-0.17327201
244	0xbd40b76b	-0.04704992
245	0xbe3a1745	-0.18172939
246	0xbe46c53d	-0.19411178
247	0x3d777ba5	0.06042065
248	0xbdd0d1af	-0.10196244
249	0x3e096403	0.13417058
250	0xbddd4e16	-0.10805909
251	0xbe5bc8bc	-0.21463293
252	0xbceef77c	-0.029170744
253	0xbe0303dc	-0.12794441
254	0x3b25f2b8	0.0025321674
255	0xbe85706e	-0.2606234

in_lin.bias f4 [96]
0	0xbe084fb6	-0.13311657
1	0xbcd4c456	-0.025972527
2	0xbcb877db	-0.022518089
3	0xbe83f06e	-0.2576937
4	0xbe82c59d	-0.25541392
5	0xbdf6bf59	-0.120482154
6	0x3dd8f0f8	0.10592836
7	0x3e0c3fa0	0.13696146
8	0xbe6da49a	-0.23207322
9	0xbd89a18a	-0.06720264
10	0x3d1eb7e2	0.038749583
11	0xbe7f804c	-0.24951285
12	0x3e0f5a98	0.13999403
13	0x3e830cb5	0.25595632
14	0x3dbef7e4	0.09324625
15	0xbe450add	-0.19242425
16	0x3db02e3d	0.08602569
17	0x3ddf8038	0.10913128
18	0x3e6710a9	0.22564949
19	0xbdf5f830	-0.12010229
20	0xbe59f7f8	-0.21285999
21	0x3de56aea	0.11202033
22	0x3bfcbc64	0.0077128876
23	0xbd630fe7	-0.055435088
24	0xbdec286a	-0.11531146
25	0xbe1e6951	-0.15469863
26	0x3e890f35	0.26769415
27	0xbb24e9ec	-0.0025163842
28	0x3e4d53e2	0.2005153
29	0x3e6b17bf	0.22958277
30	0x3dbbb4e7	0.09165364
31	0x3dbf00da	0.09326334
32	0xbbb696fe	-0.005572199
33	0x3e3b8172	0.18311098
34	0xbe7cc9d4	-0.24686366
35	0x3da01d65	0.078181066
36	0xbc729b41	-0.014807523
37	0x3dc6d850	0.09709227
38	0x3dcc4ee6	0.09975986
39	0xbdf0de6e	-0.11761175
40	0xbd04c5d5	-0.03241523
41	0x3e37531d	0.17902799
42	0xbe261182	-0.16217616
43	0xbe0b0c6e	-0.1357896
44	0xbe16cb87	-0.14726077
45	0xbe01fded	-0.12694521
46	0x3de5402a	0.11193879
47	0x3e5b4d2a	0.21416155
48	0xbd6eb32a	-0.058276333
49	0x3e944771	0.28960755
50	0xbdc155df	-0.09440207
51	0xbe145e3c	-0.14489073
52	0xbda0ebcb	-0.07857474
53	0xbe004995	-0.1252807
54	0xbe1deee1	-0.15423156
55	0xbe5d604e	-0.21618769
56	0xbe5121f2	-0.20423105
57	0x3db2bfa4	0.08727959
58	0x3e3d6ed1	0.18499304
59	0x3e8202c5	0.25392738
60	0x3e8cc755	0.27495828
61	0xbc764f82	-0.015033605
62	0x3d233e76	0.03985449
63	0xbc6ab9d7	-0.014326534
64	0x3e0c7d62	0.13719705
65	0xbe45811b	-0.19287531
66	0x3e13c248	0.14429581
67	0x3dd12b12	0.10213293
68	0x3de18d65	0.11013297
69	0x3dbe22cd	0.092839815
70	0xbdbbd4f0	-0.09171474
71	0x3e63252d	0.2218215
72	0x3e491e28	0.1964041
73	0x3e1d6471	0.15370347
74	0x3d9870f5	0.0744342
75	0x3dc84ac9	0.09779889
76	0x3e393434	0.1808632
77	0x3da0ca07	0.07851034
78	0x3e5badcc	0.21453017
79	0xbd0a3491	-0.033741537
80	0x3e1f2230	0.15540385
81	0x3d90e1a4	0.070742875
82	0x3e1e3b56	0.15452322
83	0x3e8d44ed	0.2759165
84	0x3de5c7c0	0.1121974
85	0xbe02d939	-0.12778176
86	0xbcd27baf	-0.025693743
87	0x3d937f95	0.07202069
88	0x3d9c4aa9	0.07631428
89	0xbe176ea3	-0.14788298
90	0x3e593657	0.21212135
91	0x3e33e9bd	0.17569633
92	0xbe1d0b5f	-0.15336369
93	0x3bd4c731	0.006493472
94	0x3cd46ffa	0.0259323
95	0xbddea3d6	-0.10871093

layers.0.lin_self.weight f4 [96, 96]
0	0x3abe02a4	0.0014496637
1	0xbd211aa4	-0.039332047
2	0xbd9602e2	-0.073247686
3	0xbd5c38e8	-0.053765208
4	0xbd4df98d	-0.05028682
5	0x3d9c2607	0.07624441
6	0x3d02fb04	0.03197767
7	0x3de99977	0.11406224
8	0x3bb10368	0.0054020174
9	0x3e2b99f0	0.16757941
10	0x3c83c569	0.016085343
11	0xbcf32f26	-0.029685568
12	0xbd0b5201	-0.034013752
13	0xbcfb5f03	-0.030684954
14	0xbc934cdf	-0.017980991
15	0xbca50ae3	-0.020146793
16	0x3d67f6c4	0.05663182
17	0x3cd0312d	0.025414074
18	0x3dc25768	0.09489328
19	0xbadced53	-0.0016855396
20	0x3c01d587	0.007924444
21	0xbdb33075	-0.08749477
22	0xbda8e96a	-0.08247645
23	0xbd950a88	-0.07277399
24	0x3d1a7312	0.037707396
25	0x3d04bdfe	0.032407753
26	0x3dbffc78	0.093743265
27	0xbd455ea7	-0.04818597
28	0x3db1293c	0.08650443
29	0xbd1248c9	-0.035713945
30	0xbc12b4ec	-0.008954268
31	0x3ca1e806	0.019763958
32	0xbc939d0e	-0.018019225
33	0xbc9c4f6c	-0.01908084
34	0xbc95b4bc	-0.018274657
35	0x3c4f3f3f	0.012649356
36	0xbd27bd09	-0.040951762
37	0xbd75683a	-0.05991385
38	0xbe07a206	-0.13245401
39	0xbd25005b	-0.040283542
40	0xbd944e9d	-0.07241557
41	0x3d861f22	0.06548907
42	0x3d864df3	0.065578364
43	0xbd254c6c	-0.040356085
44	0xbc32ac01	-0.010905267
45	0xbda01dba	-0.0781817
46	0xbde1463f	-0.109997265
47	0xbb195278	-0.0023395102
48	0xbc68d347	-0.014210529
49	0x3d5a6448	0.053318292
50	0xbbcdc46a	-0.006279518
51	0x3c05b1e8	0.008160092
52	0x3bcd313a	0.006261972
53	0xbd976a58	-0.0739333
54	0xbd828000	-0.0637207
55	0xbd1e58a8	-0.038658768
56	0xbbd9968a	-0.00664026
57	0xbd966c26	-0.073448464
58	0x3c951938	0.018200502
59	0xbd986ee9	-0.074430294
60	0x3c98658b	0.018603107
61	0xbd1a4920	-0.037667394
62	0xbd64b85c	-0.05583988
63	0xbd5ac0dc	-0.05340658
64	0xbdd62080	-0.10455418
65	0x3d9fd8bb	0.0780501
66	0xbd380111	-0.044922892
67	0x3e0f069a	0.13967362
68	0x3ca24992	0.019810472
69	0x3dae8f4d	0.08523426
70	0x3da86195	0.08221737
71	0x3c8c83e9	0.017152743
72	0x3dd7a447	0.1052938
73	0x3d556882	0.05210162
74	0xbc2761fb	-0.010216231
75	0x3d2baf7a	0.041915394
76	0xbcceaa01	-0.025227549
77	0xbdaed2b6	-0.08536284
78	0x3d968965	0.07350425
79	0xbd8df354	-0.06931177
80	0xbd010c54	-0.031505898
81	0xbc0d4d90	-0.008624449
82	0x3dc3abc6	0.095542476
83	0x3c87a000	0.016555786
84	0xbd7e52cd	-0.062090684
85	0xbd00e032	-0.03146381
86	0x3d5ff37c	0.054675564
87	0x3cdf5985	0.027264366
88	0x3dccce58	0.100002944
89	0xbd307a7d	-0.043085564
90	0x3dc975a6	0.09836893
91	0xbde01d04	-0.10943034
92	0x3c8c7c94	0.017149247
93	0x3d694fc1	0.056960825
94	0x3d2ab78a	0.041678943
95	0xbd8f2ff2	-0.06991567
96	0xbd05f30a	-0.032702483
97	0xbcb04dbe	-0.021521445
98	0xbda31c24	-0.07964352
99	0xbdee89be	-0.11647366
100	0xbe02f7f9	-0.12789907
101	0xbb9db0ae	-0.0048123216
102	0x3d7fe9e7	0.062478926
103	0x3cc2d2eb	0.023782214
104	0xbc10eb31	-0.0088451365
105	0x3e4a8598	0.19777524
106	0xbd9fffce	-0.07812463
107	0xbbbd8f47	-0.0057849023
108	0xbcc43b95	-0.023954192
109	0xbd06d7d7	-0.032920685
110	0x3dee01a3	0.11621406
111	0xbdf209cf	-0.11818277
112	0x3c3b8cb3	0.0114471195
113	0xbdbb910e	-0.09158526
114	0xbc513243	-0.012768331
115	0xbdb435c8	-0.087993205
116	0x3dd1c5fe	0.10242842
117	0xbd51eb70	-0.05124992
118	0x3d25275f	0.04032075
119	0xbd9978da	-0.07493754
120	0x3da243ce	0.07923089
121	0xbded0a17	-0.1157419
122	0x3da845b6	0.08216421
123	0xbd94aa01	-0.07258988
124	0x3dc22115	0.09478966
125	0xbcb778a7	-0.022396399
126	0x3db586a5	0.08863572
127	0x3d1cff3b	0.038329344
128	0xbde0da44	-0.10979131
129	0xbaebe7eb	-0.0017998194
130	0xbdbb234d	-0.091375925
131	0x3cd9436e	0.02652141
132	0x3c8edc24	0.017438956
133	0xbcc7c5eb	-0.024386367
134	0xbe37bac5	-0.1794234
135	0xba3316dd	-0.0006831715
136	0xbda342be	-0.079717144
137	0x3d55b1dc	0.052171573
138	0x3de9b038	0.11410564
139	0x3d67e2b0	0.05661267
140	0x3d3127ee	0.04325097
141	0xbe1b9597	-0.15193783
142	0x3d6b858f	0.05750042
143	0xbd2a2fb6	-0.041549407
144	0xbd3fba11	-0.046808306
145	0x3aec8bf8	0.0018047085
146	0x3d5d8d68	0.054089934
147	0x3da0b934	0.07847825
148	0xbb0ef11c	-0.0021811193
149	0xbd54f1bc	-0.05198835
150	0xbddc2242	-0.10748722
151	0xbc02acd8	-0.0079757795
152	0xbdd5b16e	-0.10434233
153	0x3d41c69e	0.047308557
154	0xbdaf6d1f	-0.08565735
155	0xbd27df3a	-0.04098437
156	0x3e035355	0.12824757
157	0x3da28b79	0.079367585
158	0xbd75a046	-0.0599673
159	0xbe17ce80	-0.14824867
160	0x3ca31787	0.01990868
161	0x3dbb1852	0.09135498
162	0x3c9f396e	0.019436564
163	0x3d90fc62	0.07079388
164	0xbd8f5dcc	-0.07000312
165	0x3d5bf67b	0.05370186
166	0x3e653981	0.22385217
167	0xbd8f0f5f	-0.06985354
168	0x3e074680	0.13210487
169	0x3d2f4ccc	0.04279785
170	0x3d749295	0.059710104
171	0xbca1805c	-0.019714527
172	0x3c9ef3e2	0.019403402
173	0x3d98102f	0.07424962
174	0x3d59f141	0.053208593
175	0x3df01581	0.117228515
176	0xbd4752b0	-0.04866284
177	0x3d47cfab	0.048782032
178	0x3d35d571	0.044393007
179	0xbd4b579f	-0.04964411
180	0x3da1dea2	0.07903792
181	0xbc592bcf	-0.013255074
182	0x3d8d4b21	0.06899095
183	0xbd720c17	-0.05909356
184	0x3cdd560d	0.027018571
185	0x3d581333	0.052752685
186	0xbd2e9cbc	-0.042629942
187	0xbdb6948c	-0.08915052
188	0xbd91d443	-0.07120564
189	0x3d6d24ab	0.057896297
190	0x3d663d83	0.056211006
191	0xbd63de52	-0.055631943
192	0x3d020dea	0.03175155
193	0xbdd44573	-0.10364809
194	0xbbf9ab4d	-0.0076192976
195	0x3daa5677	0.08317273
196	0x3d626dfc	0.05528067
197	0x3cac4fe1	0.021034183
198	0x3c0eae13	0.008708495
199	0x3d273cb4	0.040829375
200	0x3d094100	0.033509254
201	0x3e14afc1	0.1452017
202	0xbc7250e1	-0.014789791
203	0x3d83f8a9	0.064439125
204	0x3c407036	0.011745503
205	0x3db79a7c	0.089650124
206	0x3cac7848	0.021053448
207	0x3d8c6325	0.06854848
208	0x3dbdaa0b	0.09260949
209	0x3d93a2a4	0.072087556
210	0x3d2963ba	0.041354872
211	0x3db35887	0.087571196
212	0x3d0ef196	0.034898363
213	0x3d7dff57	0.06201109
214	0x3dc717d5	0.097213425
215	0x3e13b169	0.14423145
216	0xbc5f53ec	-0.013630848
217	0x3dc26a35	0.09492914
218	0x3decf6a0	0.115704775
219	0x3cf9ca82	0.030492071
220	0x3deab17d	0.114596345
221	0xbd01a696	-0.03165301
222	0x3e11451f	0.14186524
223	0x3dea4ee2	0.11440827
224	0xbd407fa5	-0.04699673
225	0xbd1d6f3d	-0.038436163
226	0xbdc750d6	-0.09732215
227	0xbcc8e67e	-0.02452397
228	0xbd476bee	-0.048686914
229	0xbdab0718	-0.083509624
230	0xbdd1f749	-0.10252244
231	0x3da23973	0.07921114
232	0x3d9b217e	0.075747475
233	0x3da27d15	0.07934014
234	0x3db42961	0.08796955
235	0xbcdb4c71	-0.026769849
236	0xbdc2d3f8	-0.09513086
237	0x3bcbfde9	0.006225337
238	0x3daf74f3	0.08567228
239	0x3d04315f	0.032273646
240	0xbd994fd7	-0.07485931
241	0xbb2b5aa7	-0.0026146562
242	0xbd8026a2	-0.062573686
243	0xbda120db	-0.07867595
244	0x3dd7725e	0.10519861
245	0xbe11b1c7	-0.14227973
246	0xbd8fa86b	-0.07014545
247	0xbd9f40c9	-0.07776029
248	0x3cd9484a	0.026523728
249	0x3c146ac4	0.009058658
250	0x3d2fd83e	0.042930834
251	0x3d927a0e	0.07152186
252	0xbc15d834	-0.009145785
253	0xbdbcdf7e	-0.09222315
254	0x3c9c7071	0.019096585
255	0xbe3b94a8	-0.18318427

layers.0.lin_self.bias f4 [96]
0	0x3d3e8d35	0.046521384
1	0x3de6416e	0.112429485
2	0x3d4d8152	0.050172158
3	0x3d26ec8a	0.040752925
4	0xbd1c3a9b	-0.038141828
5	0x3d682242	0.056673296
6	0xbd8ae6fd	-0.06782339
7	0xbdd08bba	-0.10182901
8	0xbc41d4f3	-0.011830556
9	0xbda16ee1	-0.078824766
10	0xbdb575a4	-0.08860329
11	0xbcbffa38	-0.023434743
12	0x3dbc42b6	0.091924116
13	0x3dc444d9	0.09583444
14	0x3c94d375	0.018167237
15	0x3c82195b	0.015881231
16	0x3e0f3c25	0.13987787
17	0x3d5ca4e4	0.05386819
18	0x3debff1f	0.1152327
19	0xbd2d2826	-0.042274617
20	0xbd1bb5ee	-0.0380153
21	0xbd96a98d	-0.07356558
22	0xbb5cd204	-0.0033694515
23	0x3c4b03fc	0.012391087
24	0xbd0fac6c	-0.035076544
25	0x3dc81b98	0.09770888
26	0xbde0c881	-0.10975743
27	0x3d4fe7f1	0.050758306
28	0x3d0c2c0b	0.03422169
29	0xbd3bf578	-0.045888394
30	0x3daeeb68	0.08540994
31	0x3d638d46	0.05555465
32	0xbc83842c	-0.016054235
33	0xbccc6e87	-0.024955047
34	0x3b1bb7cf	0.0023760682
35	0xbd82db0e	-0.063894376
36	0x3dd19909	0.10234267
37	0x3e0d04f0	0.13771415
38	0xbd56bf75	-0.05242868
39	0x3d216746	0.03940513
40	0x3caeae4c	0.021323346
41	0x3d205c14	0.039150313
42	0xbce05a65	-0.027386853
43	0xbcef15d5	-0.029185215
44	0x3e12f65a	0.14351788
45	0x3d9fdf55	0.07806269
46	0x3e125a15	0.14292176
47	0x3de2e91a	0.11079617
48	0x3cfd0fc8	0.030891314
49	0x3ddf4442	0.10901691
50	0xbc2adb27	-0.010428227
51	0xbc49491e	-0.012285499
52	0xbcfdbe4e	-0.030974533
53	0x3df3b195	0.118991055
54	0x3c84cde0	0.01621145
55	0x3d7c79c1	0.06163955
56	0xbd3731ec	-0.044725344
57	0x3dabe88b	0.083939634
58	0xbd6ed6f8	-0.05831048
59	0xbb8acd92	-0.0042359317
60	0x3d1bede2	0.03806866
61	0x3d8ed8d5	0.06974951
62	0x3d584665	0.05280151
63	0x3d6b6003	0.05746461
64	0xbd50dcbc	-0.05099176
65	0xbdb03bf2	-0.08605184
66	0x3c931013	0.017952
67	0xbbb59092	-0.0055409158
68	0xbd642b28	-0.05570522
69	0xbd7138fc	-0.058892235
70	0xbde41ebc	-0.111386746
71	0x3d6ad88b	0.057335418
72	0x3d1cd7b1	0.038291637
73	0x3df652a1	0.12027479
74	0xbd668645	-0.056280393
75	0xbc771f96	-0.015083214
76	0x3d93e201	0.07220841
77	0x3c088b2f	0.008333965
78	0x3e0c4125	0.13696726
79	0x3d365b3a	0.044520594
80	0x3cf3bd5b	0.029753378
81	0xbd3432eb	-0.04399387
82	0x3d7c9659	0.06166682
83	0xbc4b89bb	-0.012422974
84	0x3d959c04	0.07305148
85	0x3d62f782	0.055411823
86	0xbd63c79c	-0.055610284
87	0xbdd1171f	-0.10209488
88	0xbcc2c3ed	-0.023775065
89	0x3dc8b25c	0.09799644
90	0xbc38d9c3	-0.011282387
91	0x3d472c1c	0.04862605
92	0x3c1029ec	0.008799057
93	0x3d79e641	0.061010603
94	0xbc7d52c0	-0.015461624
95	0x3d1a7e02	0.037717827

layers.0.lin_neigh.weight f4 [96, 96]
0	0x3d4099ab	0.04702155
1	0x3d5bc130	0.053651035
2	0xbb958b48	-0.0045637228
3	0xbdf086d1	-0.11744464
4	0x3c950b34	0.018193819
5	0xbd8381e9	-0.06421263
6	0x3d92499f	0.07142948
7	0x3d6937e0	0.056938052
8	0xbd4d808e	-0.050171427
9	0xbd24632a	-0.040133633
10	0xbd6f832b	-0.0584747
11	0xbc829160	-0.01593846
12	0xbd1f406a	-0.03887979
13	0x3d40c4a4	0.04706253
14	0x3cca1642	0.024668816
15	0x3d9faa31	0.07796133
16	0xbcef5d48	-0.029219285
17	0x3d935c94	0.07195392
18	0xbc841f5f	-0.01612824
19	0x3d8dc092	0.069214955
20	0x3e1bedaf	0.15227388
21	0x3b05d52d	0.0020421252
22	0xbd405850	-0.04695922
23	0xbd309acc	-0.043116376
24	0xbd8246af	-0.06361138
25	0xbdbd65ce	-0.09247933
26	0xbc64bbe4	-0.013960812
27	0x3d4de8d5	0.050270874
28	0x3d813cb3	0.063104056
29	0xbc1d0848	-0.009584494
30	0xbdd013bb	-0.10160013
31	0x3dc19c4b	0.09453639
32	0x3d2372bb	0.039904337
33	0xbd68fab9	-0.056879733
34	0x3cb00086	0.021484625
35	0xbd8181c8	-0.06323582
36	0xbda4241c	-0.080147
37	0xbd2400a7	-0.040039685
38	0xbe74e4d6	-0.23915419
39	0xbcd76424	-0.026292868
40	0xbc559696	-0.013036391
41	0x3d758b1f	0.05994713
42	0x3d5cf943	0.053948652
43	0x3d5055f2	0.050863214
44	0xbdcd0bcf	-0.10012018
45	0xbd804f31	-0.062651046
46	0x3d39780c	0.0452805
47	0xbde3366f	-0.11094367
48	0xbc348bf6	-0.011019697
49	0x3d64db48	0.055873185
50	0xbdc57178	-0.09640783
51	0x3db34d0c	0.0875493
52	0xbda9a4b6	-0.08283369
53	0xbe53e3c3	-0.20692353
54	0xbdcd63fd	-0.10028837
55	0xbc67bc9f	-0.014144092
56	0x3a99244f	0.0011683794
57	0x3bc31e43	0.005954535
58	0xbd628e34	-0.055311397
59	0x3db24402	0.08704378
60	0xbcf87358	-0.030328438
61	0x3d818d0c	0.06325731
62	0x3d011f70	0.03152412
63	0xbe3861bb	-0.18006031
64	0x3dd45f11	0.10369695
65	0x3d0645cb	0.032781404
66	0xbd95eea4	-0.07320908
67	0x3e26fc58	0.16307199
68	0x3e020328	0.12696517
69	0xbdc34b2a	-0.09535821
70	0xbdb51c86	-0.08843331
71	0xbdb59b4a	-0.0886751
72	0x3e211298	0.15729749
73	0x3d5ace80	0.05341959
74	0x3dc7beab	0.09753164
75	0x3c248eae	0.010043783
76	0xbcbfd7b2	-0.023418281
77	0xbd02375f	-0.031791087
78	0xbd944d37	-0.0724129
79	0x3dbb590a	0.09147842
80	0xbd9ecfa2	-0.077544466
81	0xbc3f6eda	-0.011684144
82	0x3cd03e16	0.02542023
83	0x3cf06817	0.029346509
84	0xbdba069a	-0.090832904
85	0xbd126de4	-0.03574933
86	0x3cd5e01a	0.026107837
87	0xbdaee697	-0.08540075
88	0xbd9ac156	-0.07556407
89	0xbdc82211	-0.09772123
90	0xbcb742fa	-0.022370804
91	0x3e005432	0.12532118
92	0x3db08c8b	0.086205564
93	0x3db72b95	0.089438595
94	0xbdbc14b7	-0.091836385
95	0xbd1946cc	-0.037421033
96	0x3cada886	0.021198522
97	0x3cd573d3	0.026056206
98	0x3ca07cb1	0.019590707
99	0xbda2c239	-0.07947201
100	0xbc15584f	-0.009115293
101	0xbd89b30d	-0.06723604
102	0x3d8486a1	0.06470991
103	0x3d7ade7b	0.06124733
104	0xbd4b043b	-0.04956458
105	0xbd8d1440	-0.06888628
106	0x3b8a9a66	0.0042298315
107	0x3d085178	0.03328082
108	0xbda332e3	-0.0796869
109	0x3d99a839	0.07502789
110	0x3dc18f65	0.094511785
111	0xbdae6ca8	-0.08516818
112	0x3d5ca3ff	0.053867336
113	0x3d2230d7	0.03959736
114	0xbd5655a2	-0.05232776
115	0x3d70c6c3	0.058783304
116	0x3d6a9597	0.057271566
117	0x3dc4f4b6	0.096169874
118	0xbddbf8a4	-0.10740784
119	0x3dfe7fdf	0.12426733
120	0x39244b54	0.0001566832
121	0xbdd560e0	-0.10418868
122	0x3da6d94c	0.08146915
123	0xbcdc8385	-0.026918182
124	0x3cab81cd	0.020935917
125	0x3d17123e	0.03688263
126	0x3d30d32e	0.043170147
127	0x3d83211d	0.064028
128	0xbdcf1c81	-0.101128586
129	0xbdbba891	-0.09163011
130	0xbd550d68	-0.05201474
131	0xbd28e774	-0.041236356
132	0xbda1b178	-0.078951776
133	0x3bf5e4e8	0.0075040944
134	0xbe1b7e03	-0.15184788
135	0xbcc7a7d9	-0.024372028
136	0xbb238781	-0.0024952593
137	0x3d773bb5	0.060359675
138	0xbdcfd79f	-0.10148548
139	0x3ce4d918	0.02793555
140	0xbc43cb02	-0.011950256
141	0x3d26b6c3	0.04070164
142	0xbc019fa9	-0.007911601
143	0x3d1e8ba8	0.038707405
144	0xbd1cf28c	-0.03831725
145	0x3decc9b3	0.115619086
146	0xbc15a747	-0.00913412
147	0x3c8ca732	0.017169569
148	0x3d5d2e80	0.053999424
149	0xbe77cd6a	-0.24199453
150	0x3d334220	0.043764234
151	0x3d3c70ce	0.046006016
152	0x3d327470	0.043568075
153	0x3d952d93	0.07284083
154	0xbd8a6e17	-0.06759279
155	0x3db502d0	0.08838427
156	0x3d850edf	0.06496977
157	0xbe04ef04	-0.12981802
158	0x3d961d17	0.07329767
159	0xbdb7e3f1	-0.08979023
160	0x3c834b62	0.016027156
161	0x3e1978b6	0.14987454
162	0x3b3198b4	0.0027099075
163	0x3e2cf1c0	0.16889095
164	0xbd9faf19	-0.07797069
165	0xbdba09a3	-0.09083869
166	0xbd8e9e2f	-0.06963765
167	0x3c0bb121	0.008526118
168	0x3c81dad5	0.015851418
169	0xbd2a93dd	-0.04164492
170	0x3da2b173	0.07944002
171	0x3d536a8d	0.051615287
172	0xbdca5ece	-0.09881364
173	0xbd2e0566	-0.042485617
174	0x3c8ed484	0.01743532
175	0x3d30f1d9	0.043199394
176	0xbdc8b464	-0.09800032
177	0x3d973775	0.073836245
178	0xbd6f39b4	-0.05840464
179	0x3d53d6e1	0.051718596
180	0xbc77fe9c	-0.015136387
181	0xbdc0adad	-0.09408126
182	0x3ce5d4e7	0.028055621
183	0xbd48706c	-0.04893534
184	0x3d9346d6	0.07191245
185	0xbdace51a	-0.08442135
186	0x3dcff196	0.10153501
187	0x3dd28dae	0.102809295
188	0xbd5ac2e2	-0.05340851
189	0xbd1175f0	-0.035512865
190	0x3db03afe	0.08605002
191	0x3dde68be	0.10859822
192	0x3d010213	0.03149612
193	0x3d80632f	0.06268918
194	0x3d85d0f8	0.06533998
195	0x3d577e2a	0.052610554
196	0xbc19d889	-0.009390005
197	0x3e21aaa3	0.15787749
198	0xbd0a2b25	-0.033732552
199	0x3d028f92	0.0318752
200	0xbc838a77	-0.016057236
201	0x3dd1d24f	0.10245191
202	0x3dacbf23	0.08434894
203	0x3d81ce9b	0.06338235
204	0x3c0368fb	0.008020635
205	0x3de86103	0.113466285
206	0x3e0715e5	0.13191946
207	0x3d6c7f00	0.057738304
208	0xbb1db017	-0.0024061257
209	0x3d9c626e	0.076359615
210	0x3dbffdf6	0.09374611
211	0x3da07a6c	0.0783585
212	0x3dabdbc7	0.083915286
213	0x3daf58c7	0.08561855
214	0xbd7f261a	-0.062292196
215	0x3d96c93c	0.07362601
216	0xbd71f5b8	-0.059072226
217	0x3d6880ff	0.056763645
218	0x3d94cea4	0.07265976
219	0x3ca38906	0.019962799
220	0x3d9d7ff9	0.076904245
221	0xbc5ab897	-0.013349674
222	0x3dec333b	0.11533209
223	0x3da16a83	0.078816436
224	0xbcf64a56	-0.030064743
225	0xbd920271	-0.07129372
226	0x3acece78	0.0015778085
227	0xbd3c6a37	-0.045999732
228	0xbb6c012e	-0.0036011445
229	0x3cdcc7fa	0.026950825
230	0xbe07a6c9	-0.13247217
231	0xbce84248	-0.028351918
232	0xbc0456a4	-0.008077297
233	0xbd2b3ee4	-0.041808024
234	0xbd64d318	-0.055865377
235	0x3d677c9a	0.056515314
236	0xbdb3b4a5	-0.087746896
237	0xbdbcb82c	-0.092148155
238	0xbdd3bb86	-0.10338502
239	0xbd6c8c29	-0.057750855
240	0xbdbb8a9f	-0.09157299
241	0x3da6ff04	0.08154109
242	0xbd43cd4b	-0.047803205
243	0x3d8a15ff	0.06742477
244	0x3d8dfe0a	0.0693322
245	0xbe63cecf	-0.2224686
246	0x3d40f874	0.047111943
247	0xbe1efddf	-0.15526532
248	0x3de0d64d	0.10978375
249	0x3dc61553	0.09672036
250	0x3d5e2488	0.054234058
251	0xbd24290d	-0.04007821
252	0x3d10aa2a	0.03531853
253	0xbd855079	-0.065094896
254	0x3d0241cb	0.031801026
255	0xbd937c29	-0.07201416

layers.1.lin_self.weight f4 [96, 96]
0	0x3d3c3e6f	0.04595798
1	0x3d3b95bb	0.04579709
2	0xbdaf4af4	-0.08559218
3	0x3cec8286	0.028870832
4	0x3d5ee6e8	0.054419428
5	0x3c405948	0.011740036
6	0xbd7b2d36	-0.061322413
7	0xbd3b26fa	-0.045691468
8	0x3d652278	0.055941075
9	0x3d0a6cd2	0.033795185
10	0xb9dc96a1	-0.00042073897
11	0xbd9faf02	-0.07797052
12	0xbdba623e	-0.091007695
13	0x3d9d6df6	0.07686989
14	0x3bd0359d	0.0063540475
15	0x3d9502f7	0.07275956
16	0xbdc864ea	-0.09784873
17	0xbd768797	-0.060187902
18	0xbdc68bfa	-0.09694667
19	0x3dc156cd	0.09440384
20	0x3c7615b7	0.015019826
21	0x3d171054	0.036880806
22	0x3d9fd67b	0.07804581
23	0xbbe94340	-0.0071186125
24	0x3c481b9a	0.012213612
25	0xbd9d66ea	-0.07685645
26	0x3c0bbd82	0.008529069
27	0x3d8c3e5e	0.06847833
28	0xbc768ad5	-0.015047749
29	0xbd90dada	-0.070729926
30	0xbd58329b	-0.052782636
31	0xb8a0e12d	-7.671337e-05
32	0x3d6a65a9	0.057225857
33	0x3bbb25f6	0.0057113124
34	0xbd7c2551	-0.061559025
35	0xbc2161d9	-0.009849989
36	0xbd1428d1	-0.036171738
37	0xbc43da9f	-0.011953979
38	0x3d82cddf	0.06386923
39	0xbdb45aa5	-0.088063516
40	0xbcfb52df	-0.030679164
41	0xbd66328a	-0.05620054
42	0x3da9be94	0.08288303
43	0xbdb79c47	-0.089653544
44	0xbcdc2809	-0.026874559
45	0xbdc1c7a1	-0.09461904
46	0xbd945084	-0.0724192
47	0xbd26e75b	-0.04074798
48	0x3c995bea	0.018720586
49	0xbdb89d4b	-0.09014376
50	0xbc2b1c47	-0.010443754
51	0xbd640ad5	-0.055674393
52	0x3d6b311c	0.05741988
53	0xbd87077e	-0.06593226
54	0xbdb603de	-0.08887456
55	0xbc5181ab	-0.012787263
56	0xbdb141a5	-0.08655099
57	0xbd2ad7f0	-0.04170984
58	0x3cf8525e	0.030312713
59	0xbdc5d80a	-0.09660347
60	0xbd356ad6	-0.04429134
61	0x3d5304cf	0.051518258
62	0x3d9aba56	0.07555072
63	0x3d81f07e	0.06344698
64	0x3d853bdc	0.06505558
65	0x3daad4a8	0.08341342
66	0xbcc7dfe7	-0.024398757
67	0xbd39b03e	-0.045334093
68	0xbcd8bb7e	-0.02645659
69	0x3cb463e6	0.022020292
70	0x3c2cbe12	0.010543363
71	0xbd8a1394	-0.067420155
72	0x3da78c47	0.08181053
73	0xbd28514d	-0.04109316
74	0x3d9e032b	0.07715448
75	0xbc07eeb6	-0.008296659
76	0x3d02519d	0.031816114
77	0xbc4129bc	-0.011789735
78	0x3d122367	0.035678294
79	0xbd93b0f4	-0.072114855
80	0x3cca349b	0.024683287
81	0xbd749df6	-0.059720956
82	0x3d532ac6	0.051554464
83	0xbd487c57	-0.048946705
84	0x3c450fd2	0.012027698
85	0xbdc68b01	-0.09694482
86	0xbdb35c88	-0.08757883
87	0x3db02069	0.08599932
88	0x3d9eedd7	0.07760208
89	0xbdb9dd21	-0.0907538
90	0xbd80fc97	-0.06298178
91	0xbdbf8351	-0.093512185
92	0x3c2b2f1c	0.0104482435
93	0xbcf97e82	-0.030455831
94	0xbb6fc8f6	-0.0036588288
95	0x3d04e5cb	0.03244571
96	0x3d2fa65b	0.04288326
97	0x3ba491de	0.0050222715
98	0x3d3868a2	0.04502166
99	0xbd0f37be	-0.03496527
100	0x3da07742	0.078352466
101	0xbd79e77d	-0.06101178
102	0xbd0cc936	-0.034371577
103	0xbd0af3ed	-0.033924032
104	0xbd73ebdd	-0.05955111
105	0x3b9d66f4	0.0048035327
106	0xbb696605	-0.0035613787
107	0xbd0f0bcf	-0.03492337
108	0xbce4171e	-0.027843054
109	0xbcb6025f	-0.022217928
110	0x3da57c01	0.080802925
111	0xbd81b55d	-0.063334204
112	0x3df97c23	0.1218188
113	0x3d55e5cb	0.0522211
114	0xbd3bea7e	-0.045877926
115	0xbbef8f2a	-0.0073107677
116	0x3d897025	0.06710843
117	0x3dc45f23	0.095884584
118	0xbcc6dd38	-0.024275407
119	0xbd30a208	-0.043123275
120	0xbcc35423	-0.02384383
121	0x3d26d301	0.040728573
122	0x3d8db4fe	0.06919287
123	0x3d7a322d	0.061083008
124	0x3dce36f2	0.10069074
125	0xbd90f987	-0.070788436
126	0xbd894d6b	-0.067042194
127	0x3d8db853	0.06919923
128	0x3dd92cbf	0.10604238
129	0x3e0bf63d	0.13668151
130	0x3d3a883e	0.045540087
131	0x3ca276bc	0.019832008
132	0x3da1c542	0.07898952
133	0x3dcbbb18	0.09947795
134	0xbdbe946e	-0.093056545
135	0xbcb474d0	-0.022028357
136	0x3da3c2a4	0.07996109
137	0x3b9714e4	0.0046106447
138	0xbd22f65b	-0.039785724
139	0xbd4672f5	-0.048449475
140	0x3b3e81f0	0.0029069148
141	0x3c8ecb91	0.017431052
142	0x3d09e8a7	0.03366914
143	0xbd5179ae	-0.051141433
144	0x3dbc7919	0.09202785
145	0x3d1305f9	0.035894368
146	0x3dbce364	0.09223059
147	0xbd1448c9	-0.036202226
148	0x3de2f0d4	0.110810906
149	0x3d67e245	0.05661227
150	0xbd8a105d	-0.06741402
151	0x3dee8013	0.11645522
152	0x3dcf062f	0.10108601
153	0xbcf435ba	-0.029810775
154	0x3db776b6	0.08958189
155	0xbbbbaf2a	-0.0057276683
156	0xbb95ddb2	-0.0045735473
157	0xbbf212d6	-0.0073874993
158	0xbc03ecd4	-0.00805207
159	0x3bafd1c7	0.0053655836
160	0xbdc84a24	-0.09779766
161	0xbd76395c	-0.060113296
162	0x3db6541a	0.0890276
163	0xbd9aa5ce	-0.07551156
164	0xbb4a0ada	-0.0030829222
165	0x3cf33bcd	0.029691601
166	0x3dc4ffc8	0.09619099
167	0xbc52e82d	-0.012872738
168	0xbd06394c	-0.032769486
169	0xbd301ff8	-0.042999238
170	0x3d875879	0.06608672
171	0x3dbbb5ed	0.09165559
172	0xbd5f25cd	-0.05447941
173	0xbc82d3c4	-0.015970118
174	0xbd0d1a42	-0.03444887
175	0x3d88596e	0.06657682
176	0xbd14a4aa	-0.03628985
177	0x3bef7023	0.007307069
178	0x3d8e3832	0.06944312
179	0x3def2f1b	0.116789065
180	0xbda70121	-0.08154512
181	0x3d2d8065	0.042358775
182	0x3df3d258	0.11905354
183	0x3da4f0fb	0.08053776
184	0x3cd317fb	0.02576827
185	0x3cf541ac	0.029938541
186	0xbd112c4d	-0.03544264
187	0xbbd52b5d	-0.0065054134
188	0xbd3dfe81	-0.046385292
189	0xbc2c3464	-0.010510538
190	0x3dc529f5	0.09627143
191	0x3e0ab144	0.13544184
192	0x3d978fb3	0.07400455
193	0x39d4fbbd	0.0004062335
194	0x3d1e4967	0.03864422
195	0x3cfb7e1f	0.030699788
196	0xbd08c903	-0.033394825
197	0x3ca12481	0.019670727
198	0x3cedcafd	0.029027456
199	0x3beee5f2	0.007290595
200	0x3d405b6c	0.046962187
201	0x3d09ff3c	0.033690676
202	0x3ce80dec	0.028326951
203	0x3c5dafd2	0.013530688
204	0xbd96464c	-0.07337627
205	0x3d4afecf	0.04955941
206	0x3db7f65a	0.08982535
207	0xbd974938	-0.07387012
208	0x3d81bb6b	0.06334575
209	0x3dc5e901	0.096635826
210	0xbcd50824	-0.026004858
211	0x3d43dbff	0.047817226
212	0xbc2b7c67	-0.010466672
213	0x3d0bd21a	0.034135915
214	0x3d0a2989	0.033731017
215	0x3db93695	0.09043614
216	0xbd33f3cf	-0.043933686
217	0x3d8e2972	0.06941499
218	0xbd9b8061	-0.07592846
219	0x3c45387e	0.012037395
220	0x3d626424	0.055271283
221	0xbd89d062	-0.06729199
222	0x3dc4f62e	0.096172675
223	0x3df98c36	0.12184946
224	0x3e0cd999	0.13754882
225	0x3b8b1040	0.0042438805
226	0x3d8e6d06	0.06954388
227	0x3dda4736	0.10658114
228	0x3d9f356d	0.07773862
229	0x3c4b175d	0.012395707
230	0x3db624a7	0.0889371
231	0x3dc10e2b	0.094265305
232	0x3ce50ac2	0.027959231
233	0x3b80b646	0.0039279787
234	0xbc2c1cc2	-0.010504903
235	0x3e0086e2	0.12551454
236	0x3d56e6a1	0.05246604
237	0x3d190a12	0.03736312
238	0x3d74f256	0.059801422
239	0xbc849d98	-0.016188428
240	0x3d2fcdf4	0.04292102
241	0x3d67e853	0.056618046
242	0x3c561401	0.013066293
243	0xbca7a214	-0.020463027
244	0x3daa873d	0.08326576
245	0x3dffe0ae	0.12494026
246	0x3db78d65	0.08962516
247	0x3e150ad7	0.14554916
248	0x3d9433a7	0.072364144
249	0x3dd614e4	0.10453203
250	0xbcc80151	-0.02441469
251	0xbd55935c	-0.052142486
252	0x3dd0ef07	0.10201841
253	0x3d7555bb	0.059896212
254	0x3db41643	0.087933086
255	0xbd4a56f4	-0.04939933

layers.1.lin_self.bias f4 [96]
0	0xbd91e84a	-0.07124384
1	0x3d345a71	0.044031564
2	0x3dc707a7	0.097182564
3	0x3d8dbda3	0.06920936
4	0xbd17f415	-0.03709801
5	0xbdb1261e	-0.086498484
6	0xbd4556e9	-0.048178587
7	0x3dad9cca	0.08477171
8	0x3cbce639	0.023058997
9	0xbd21998d	-0.039453078
10	0x3d8c67fd	0.06855772
11	0xbd221c4c	-0.039577767
12	0x3b1b0cb7	0.0023658702
13	0xbd8316e2	-0.06400849
14	0x3bb1cafa	0.005425808
15	0x3e15ffe5	0.14648397
16	0x3d211994	0.039331034
17	0x3e0f082f	0.13967966
18	0x3e03cdf3	0.12871532
19	0x3d8338a4	0.06407288
20	0x3e06f3a9	0.13178886
21	0xbcfe46e4	-0.031039663
22	0x3df75c11	0.12078107
23	0xb981584f	-0.00024670592
24	0xbd0dd466	-0.034626387
25	0x3dbafbfc	0.091300935
26	0x3d84ea1c	0.06489965
27	0xbd84015a	-0.0644557
28	0x3dd844ac	0.10559973
29	0xbd871ec3	-0.06597664
30	0xbd487cbb	-0.048947077
31	0xbcf2b842	-0.029628877
32	0xbbbe1a22	-0.005801455
33	0x3e07feae	0.13280746
34	0xbd95aab5	-0.073079504
35	0xbd17fbc3	-0.037105333
36	0xbc3ff146	-0.011715239
37	0x3e191714	0.1495021
38	0x3e107fce	0.14111254
39	0xbd412bde	-0.047160976
40	0x3d3741ee	0.04474061
41	0x3c9c1e05	0.019057283
42	0x3e2792a5	0.16364534
43	0x3d7f3dfa	0.062314965
44	0x3c18defd	0.009330508
45	0x3d942b80	0.072348595
46	0xbcbf2596	-0.023333352
47	0x3c737613	0.014859694
48	0xbd212df1	-0.039350454
49	0x3d962c67	0.07332688
50	0x3e00b24b	0.12568013
51	0x3d9b9fe6	0.075988576
52	0x3c0f36d2	0.0087410975
53	0x3ded42f3	0.11585035
54	0x3d68df6b	0.056853693
55	0xbd0e9410	-0.034809172
56	0xbcee9870	-0.029125422
57	0x3dbd786f	0.092514865
58	0x3e0a06a6	0.13479099
59	0x3e041215	0.12897523
60	0x3d924291	0.07141603
61	0xbd496fc8	-0.04917887
62	0xbc968ea8	-0.01837857
63	0x3d75f42f	0.060047325
64	0x3df25ae4	0.11833742
65	0xbca00316	-0.019532721
66	0x3dafb8b3	0.085801505
67	0x3de9975f	0.11405825
68	0x3dbd0b2d	0.09230647
69	0x3cb7d1d5	0.022438923
70	0x3d0c22d7	0.034212913
71	0xbd10fd27	-0.035397675
72	0x3d775e42	0.060392626
73	0xbd1b4bc4	-0.037914053
74	0x3dc55d92	0.09636988
75	0x3d760e4b	0.060072225
76	0x3da7aab8	0.08186859
77	0x3d8207f5	0.06349174
78	0xbd4a5cf0	-0.04940504
79	0x3c6f6a3e	0.014612732
80	0x3b1ea99a	0.0024209977
81	0x3dbc2590	0.09186852
82	0x3da1aed5	0.07894675
83	0x3d556b4d	0.052104283
84	0xbc4860cb	-0.0122301085
85	0x3d91749d	0.0710232
86	0xbc67d0d1	-0.014148907
87	0xbd9d8b3c	-0.076925725
88	0xbdcfea4a	-0.10152109
89	0x3dd962c2	0.1061454
90	0xbddd4702	-0.10804559
91	0x3bdbc764	0.006707119
92	0xbae071df	-0.001712378
93	0x3d026024	0.031829968
94	0x3e04ca42	0.1296778
95	0x3df02b11	0.11726964

layers.1.lin_neigh.weight f4 [96, 96]
0	0xbd353de8	-0.04424849
1	0xbd0c41d0	-0.03424245
2	0xbdc6be44	-0.09704259
3	0xbda0ac96	-0.07845418
4	0xbd1d0159	-0.038331363
5	0xbd1f2a9b	-0.03885899
6	0x3d8a48cd	0.06752167
7	0xbcbb9582	-0.02289844
8	0x3ce6cb7b	0.028173199
9	0xbda73c85	-0.0816584
10	0xbd56db9b	-0.052455526
11	0x3c1abf08	0.009444959
12	0xbd564685	-0.052313346
13	0x3dbb28dd	0.091386534
14	0xbca52199	-0.020157622
15	0x3da0806a	0.07836993
16	0x3cbde4bf	0.023180364
17	0x3cd4e3bc	0.025987498
18	0xbdebdb33	-0.11516418
19	0x3d4ca5c4	0.049962774
20	0xbdc67b50	-0.09691489
21	0x3dc8afe8	0.097991765
22	0x3d922d6f	0.07137572
23	0xbd865158	-0.06558484
24	0x3c838f9f	0.016059695
25	0x3cf296d2	0.029612932
26	0xbdb1f183	-0.08688643
27	0x3a606f6a	0.0008561524
28	0xbba40f42	-0.0050067017
29	0x3cad204e	0.021133568
30	0x3d5103e0	0.051029086
31	0xbda16db0	-0.07882249
32	0xbde161b4	-0.110049635
33	0xbdbb3b5a	-0.0914218
34	0xbc40d604	-0.011769775
35	0xbd257312	-0.040392943
36	0xbdaa636a	-0.08319743
37	0xbd6cf07f	-0.057846542
38	0x3d4b44c2	0.04962612
39	0xbdac9324	-0.08426502
40	0x3d8ded71	0.06930054
41	0x3d260a24	0.040537015
42	0xbd539b8b	-0.05166201
43	0xbd11e16f	-0.03561538
44	0x3b2bca78	0.002621321
45	0x3d360791	0.04444081
46	0xbce5720d	-0.028008485
47	0xbd9d7436	-0.07688181
48	0x3db21e22	0.08697154
49	0xbce3ec7e	-0.02782273
50	0x3d0bc5b0	0.034124076
51	0x3dba45c2	0.090953365
52	0x3a8e0759	0.001083593
53	0x3d92fca8	0.071770966
54	0xbd339cd2	-0.043850727
55	0xbd7fd325	-0.062457222
56	0x3d19078e	0.03736072
57	0x3d902d2f	0.07039868
58	0x3dcff3c7	0.10153919
59	0x3db897e2	0.09013344
60	0x3b8cbac8	0.004294727
61	0xbde8a359	-0.11359281
62	0x3d86aa2f	0.06575429
63	0x3d9a7ded	0.0754355
64	0xbde746e1	-0.11292816
65	0xbb911aac	-0.0044282284
66	0xba67bc32	-0.0008839994
67	0xbcdfd303	-0.027322298
68	0x3d61365f	0.054983493
69	0xbd957a1d	-0.07298682
70	0xbd3d6eca	-0.046248235
71	0xbdd29a56	-0.102833435
72	0xbd3c75e2	-0.04601086
73	0xbd91a699	-0.07111854
74	0xbd571b71	-0.052516405
75	0x3d5e8675	0.054327447
76	0xbd107b7d	-0.035274018
77	0xbdc26804	-0.09492496
78	0xbd7395c6	-0.059469007
79	0x3cecdf39	0.028915035
80	0xbd83bb25	-0.06432179
81	0x3db33eb7	0.08752196
82	0x3d287bce	0.041133694
83	0xbda398e0	-0.07988143
84	0xbdbbb526	-0.09165411
85	0xbd24207f	-0.040070053
86	0xbdc88c14	-0.09792343
87	0x3d8996c5	0.0671821
88	0xbdbb6b3d	-0.091513135
89	0x3d160939	0.03662989
90	0xbd8b4aae	-0.068013534
91	0x3c93dcdc	0.01804965
92	0x3ca52bbc	0.020162456
93	0x3cfa4a29	0.03055294
94	0x3ced29cf	0.0289506
95	0x3d7e2bec	0.062053606
96	0x3dc924d2	0.09821476
97	0x3df7a315	0.12091652
98	0x3c01c1f0	0.007919773
99	0xbde921b8	-0.113833845
100	0xbc2e16c5	-0.010625546
101	0xbc7c5614	-0.015401382
102	0x3c8b2006	0.016983043
103	0xbd39678c	-0.045264766
104	0xbda3793a	-0.079821065
105	0xbcdaf80e	-0.02672961
106	0x3df5f9e7	0.12010556
107	0x3db65cbf	0.08904409
108	0xbc1474b4	-0.009061027
109	0x3d6c2783	0.05765487
110	0x3d1c6d5d	0.038190234
111	0xbbbe13d4	-0.0058007035
112	0xbe0be581	-0.13661768
113	0x3daea2d2	0.08527149
114	0xbd9002cd	-0.07031784
115	0x3ce73503	0.02822352
116	0xbdf8e177	-0.12152379
117	0x3db4bfcf	0.08825647
118	0xbdad550f	-0.08463489
119	0x3d953e42	0.07287265
120	0xbdb52a4d	-0.08845959
121	0x3d4389b2	0.04773874
122	0x3d896011	0.06707776
123	0x3df6f351	0.12058128
124	0x3c62677f	0.013818621
125	0x3db8d73e	0.09025429
126	0x3dce4856	0.10072391
127	0x3db34da9	0.08755047
128	0x3dba42b5	0.090947546
129	0xbd2ae66d	-0.041723657
130	0x3d2042bf	0.039126154
131	0xbd42270c	-0.04740052
132	0x3d15fc2a	0.036617436
133	0x3da1a495	0.0789272
134	0x3cae8efd	0.021308417
135	0xbd82dfd4	-0.06390348
136	0xbd45b6aa	-0.048269905
137	0x3b74eb9f	0.0037371886
138	0xbda7f08c	-0.082001776
139	0x3dd43c1b	0.10363027
140	0xbcbc0bf2	-0.022954915
141	0xbd011c13	-0.031520914
142	0x3c3e6d48	0.011622734
143	0xbdc2c2dc	-0.09509823
144	0xbd50f04e	-0.051010422
145	0x3cb52bfc	0.0221157
146	0xbcf47f34	-0.029845811
147	0x3d8daa50	0.0691725
148	0x3bdf36e0	0.0068119615
149	0x3c918d3c	0.017767541
150	0x3d9e21bf	0.0772128
151	0x3e04ee4c	0.12981528
152	0xbdc37ddb	-0.095454894
153	0xbc2bcee9	-0.010486343
154	0xbc9aa20d	-0.0188761
155	0x3dc823ac	0.09772429
156	0x3c992987	0.01869656
157	0xbcc4db9b	-0.024030497
158	0xbca86d34	-0.020559885
159	0x3c71b2fd	0.014752147
160	0xbd8a66bd	-0.06757877
161	0xbdc586f8	-0.09644884
162	0x3d1ffe15	0.03906067
163	0x3d098c37	0.033580985
164	0xbc66244e	-0.014046742
165	0xbd0e4fb2	-0.034743972
166	0xbd03e6cb	-0.032202523
167	0x3d45eaab	0.0483195
168	0x3db4c7b3	0.08827152
169	0x3de015ec	0.10941681
170	0x3ce5262b	0.027972301
171	0x3d42ddf3	0.04757495
172	0x3df7de44	0.12102941
173	0xbbba09d6	-0.005677442
174	0xbda43a5a	-0.08018942
175	0xbce89bc9	-0.028394597
176	0x3dca0407	0.098640494
177	0x3d421629	0.047384415
178	0xbd129150	-0.035783112
179	0x3b947dc6	0.004531595
180	0x3d851405	0.06497959
181	0x3d486baa	0.0489308
182	0x3da65e8f	0.08123504
183	0x3d20a25d	0.03921734
184	0xbb568940	-0.0032735616
185	0xbd850bd3	-0.06496396
186	0x3db02a16	0.08601777
187	0xbd49c76d	-0.049262453
188	0xbd813ed9	-0.06310815
189	0x3cd74c1f	0.026281415
190	0x3cd1c4ff	0.02560663
191	0xbdaa18eb	-0.08305534
192	0x3db6c543	0.089243434
193	0x3d9a2576	0.07526676
194	0x3c952b78	0.018209204
195	0xbd9b1b44	-0.0757356
196	0xbc7c6abd	-0.015406308
197	0x3d9fe1b2	0.0780672
198	0x3dadc817	0.0848543
199	0xbdb93f3f	-0.09045266
200	0xbcf11d96	-0.029433053
201	0xbbe4fdb6	-0.0069882525
202	0xbd6cf8f6	-0.057854615
203	0xbdb243fe	-0.08704375
204	0x3d73ffdd	0.059570182
205	0xbd1fed47	-0.039044645
206	0xbd0eace0	-0.034832835
207	0x3dc06d41	0.093958385
208	0xbdd161f4	-0.10223761
209	0xbdcab7ef	-0.09898364
210	0x3cf86fae	0.03032669
211	0xbd9d3d19	-0.07677669
212	0x3d641815	0.05568703
213	0x3b1d5ef6	0.00240129
214	0xbd1817ef	-0.0371322
215	0x3d81b28b	0.063328825
216	0xbd2d1caa	-0.042263664
217	0x3cccfda0	0.025023282
218	0x3d8a02a8	0.06738788
219	0x3df976d3	0.12180867
220	0xbdb49965	-0.0881832
221	0x3db69450	0.08915007
222	0xbd5d7c3e	-0.054073565
223	0x3d809c18	0.062797725
224	0xbd2c8916	-0.042122923
225	0xbcd67254	-0.026177563
226	0xbcdf4885	-0.02725626
227	0x3dec03f4	0.115241915
228	0x3d8bc29f	0.068242304
229	0x3cf9b81f	0.030483304
230	0x3dcef7fd	0.10105894
231	0xbd5ab8a1	-0.053398732
232	0xbd690d31	-0.056897346
233	0x3cff2079	0.031143414
234	0x3d7f5a32	0.062341876
235	0x3d5d433e	0.054019205
236	0xbc110f06	-0.0088536795
237	0xbd66c264	-0.05633773
238	0x3e0bb4e6	0.13643226
239	0xbd741252	-0.059587784
240	0xbd4831ae	-0.048875503
241	0x3dc6f880	0.09715366
242	0x3aab7cfb	0.0013083512
243	0xbdd196ba	-0.10233827
244	0xbd24ab4b	-0.04020242
245	0xbd673ce5	-0.056454558
246	0x3b60bf85	0.0034293842
247	0x3d5125ac	0.051061317
248	0xbd395226	-0.04524436
249	0x3dae768d	0.085187055
250	0xbd660d4b	-0.05616502
251	0x3ddf8f75	0.10916034
252	0xbd548c01	-0.05189133
253	0xbda00958	-0.07814282
254	0x3cbc9d47	0.023024214
255	0x3e08419c	0.13306278

net.0.weight f4 [96, 96, 3]
0	0xbb8466e2	-0.004040585
1	0xbc2f5309	-0.0107009495
2	0x3c67c311	0.014145629
3	0x3cd56877	0.02605079
4	0xb94c7f54	-0.0001950239
5	0xbde88735	-0.11353914
6	0x3d0ff19f	0.035142537
7	0x3ce744b8	0.02823101
8	0xbda7409f	-0.08166622
9	0xbc580d87	-0.013186819
10	0x3cb15089	0.021644847
11	0xbdf3863b	-0.11890837
12	0xbd66ecc0	-0.056378126
13	0x3dab5f36	0.083677694
14	0xbd4dd272	-0.050249524
15	0x3d2e5948	0.042565614
16	0xbd134f1c	-0.035964116
17	0xbc1a2804	-0.0094089545
18	0xbd3d21f1	-0.046174947
19	0x3c31f022	0.010860475
20	0xbd5a2a1e	-0.053262822
21	0xbc3e1675	-0.011602034
22	0xbdeb8486	-0.11499886
23	0xbc5e0f1e	-0.013553409
24	0xbd2078f9	-0.03917787
25	0x3d8021fd	0.06256483
26	0xbce662ed	-0.028123343
27	0x3ce53bb3	0.027982568
28	0xbcf7e616	-0.03026108
29	0xbd0cc992	-0.03437192
30	0x3c88afa0	0.016685307
31	0x3d5d5473	0.054035615
32	0xbd9460f7	-0.07245057
33	0xbd0765a5	-0.03305592
34	0xbc1c0aaf	-0.009524032
35	0x3c969064	0.018379398
36	0xbc52e2f0	-0.012871489
37	0xbcc1ee37	-0.02367316
38	0xbcc5627c	-0.024094813
39	0x3b0baeb5	0.002131385
40	0x3c0f43eb	0.00874422
41	0xbd41a7f7	-0.047279324
42	0xbd962664	-0.07331541
43	0xbdae6026	-0.085144326
44	0x3e030a3a	0.1279687
45	0xbd6a7768	-0.05724278
46	0xbcdd5080	-0.027015924
47	0x3b5cf290	0.0033713914
48	0xbdc07179	-0.09396643
49	0x3da2007a	0.07910247
50	0xbca2d92b	-0.019878944
51	0x3d287771	0.041129533
52	0x3b88da72	0.0041764313
53	0x3c7e3318	0.015515111
54	0x3c814186	0.015778314
55	0x3d8341fe	0.064090714
56	0xbd7e0515	-0.062016565
57	0xbc90c62d	-0.017672623
58	0x3db49ac4	0.08818582
59	0xbd9c4f05	-0.07632259
60	0xbb1f1bb1	-0.002427798
61	0x3d6568f5	0.056008298
62	0x3ca7dc37	0.020490749
63	0x3a3f54ef	0.0007298728
64	0xbcc4eaca	-0.024037737
65	0x3c7d1f10	0.0154493
66	0xbccd88e6	-0.025089692
67	0x3b33356c	0.0027345074
68	0xbd042751	-0.032264058
69	0xbbc0ea28	-0.0058872886
70	0xbd126ed7	-0.035750236
71	0xbcbf297a	-0.023335207
72	0xbd08430e	-0.033267073
73	0x3d7da593	0.061925482
74	0x3cbf0c99	0.023321437
75	0xbd83e5a5	-0.064402856
76	0x3c96bae5	0.018399665
77	0x3cb24b8b	0.021764537
78	0xb87da9dc	-6.0478094e-05
79	0x3c000f90	0.00781621
80	0xbcf2d526	-0.029642653
81	0xbd109273	-0.035295915
82	0xba176f30	-0.0005776761
83	0xbd628df3	-0.055311155
84	0xbd072f06	-0.03300383
85	0x3cf5ed8d	0.0300205
86	0x3d395f64	0.045256987
87	0x3c328ab7	0.01089733
88	0x3cb91384	0.022592314
89	0x3cb4d800	0.022075653
90	0x3d3b6f69	0.045760546
91	0x3b595343	0.00331612
92	0xbd9272e3	-0.07150819
93	0x3c01cdb9	0.007922583
94	0xbcb83c8a	-0.022489805
95	0x3c4ab18c	0.012371432
96	0x3d5e87ea	0.054328837
97	0x3b438729	0.00298352
98	0x3a941bab	0.001129975
99	0x3cb1ef2d	0.021720493
100	0xbb503528	-0.0031769965
101	0xbc21295a	-0.009836519
102	0xbd00192b	-0.031274002
103	0xbd45cd5f	-0.04829156
104	0xbc88a4be	-0.016680118
105	0x3d6cdff7	0.057830777
106	0xbd0db02f	-0.03459185
107	0xbd937196	-0.07199399
108	0x3d195989	0.037438903
109	0xbc25abfb	-0.010111804
110	0xbc699622	-0.014256986
111	0x3cf2aa3d	0.029622192
112	0x3d779fda	0.06045518
113	0xbce9c904	-0.028538235
114	0x3ceb7ff1	0.02874753
115	0xbc09118a	-0.008365998
116	0xbd32aace	-0.043619923
117	0x3cee3611	0.029078515
118	0xbd3e32fd	-0.046435345
119	0xbc52bfec	-0.012863141
120	0x3cbb1720	0.022838175
121	0x3d334fd0	0.043777287
122	0xbcc276c2	-0.023738269
123	0xbd63205e	-0.05545079
124	0x3d24aa8f	0.04020172
125	0xbd74ac51	-0.059734646
126	0xbb98ef11	-0.004667171
127	0x3d04927c	0.03236626
128	0x3c7cd9a2	0.015432747
129	0xbd6bec72	-0.05759854
130	0xbc457fab	-0.012054364
131	0x3c9ec9f8	0.019383416
132	0x3d1aa929	0.03775898
133	0x3d202079	0.03909347
134	0x3ce02646	0.027362
135	0xbce32deb	-0.027731856
136	0x3dab1dce	0.08355294
137	0xbd2ece3a	-0.04267714
138	0xbd0d0b6a	-0.034434713
139	0x3d2ca3c3	0.042148363
140	0xbd61a40e	-0.055088095
141	0xbd8cd762	-0.068770185
142	0xbd993dcf	-0.07482492
143	0x3e34c6d4	0.17653972
144	0xbd96929e	-0.07352184
145	0xbc85a2c2	-0.01631296
146	0xbd6dc230	-0.05804652
147	0x3c8df003	0.01732636
148	0x3db42e52	0.087978974
149	0xbca50ab7	-0.02014671
150	0xbd535ad6	-0.0516003
151	0xbc9b1e58	-0.018935367
152	0xbc95132a	-0.018197615
153	0x3ca37464	0.01995296
154	0x3dace516	0.08442132
155	0xbda4ac4c	-0.080406755
156	0xbd513646	-0.05107715
157	0x3d81ff78	0.06347555
158	0x3ce92ace	0.028462794
159	0xbc660bf9	-0.01404094
160	0xbcf344b9	-0.029695855
161	0x3cae213a	0.021256078
162	0x3c92074c	0.017825745
163	0xbcc03829	-0.02346428
164	0xbd5f1636	-0.05446454
165	0xbcce94a2	-0.025217358
166	0x3da12d46	0.07869963
167	0xbce106f2	-0.027469132
168	0x3d228917	0.03968152
169	0x3d866acf	0.06563341
170	0xbd945502	-0.072427765
171	0xbd96d715	-0.073652424
172	0x3d977582	0.0739546
173	0xbd6e566f	-0.0581879
174	0xbc19717c	-0.009365436
175	0x3d9ec85a	0.07753058
176	0xbd142f47	-0.0361779
177	0xbd5bd0b6	-0.05366584
178	0x3d8a1bb2	0.06743564
179	0xbd49a5a2	-0.049230225
180	0x3d2c555e	0.0420736
181	0x3d9fe495	0.078072704
182	0x3cba48fa	0.022739876
183	0x3d088797	0.033332434
184	0x3d59c6da	0.053168155
185	0x3cc4ead4	0.024037756
186	0xbd8142cc	-0.063115686
187	0x3d1751ea	0.036943354
188	0xbdaa27a3	-0.08308341
189	0xbd3e3454	-0.046436623
190	0x3d5a03a2	0.05322612
191	0xbd972a13	-0.07381072
192	0xbbaf0bf4	-0.005342001
193	0xbca5c7ce	-0.020236876
194	0xbd880c70	-0.06642997
195	0x3cb5562d	0.022135818
196	0xbcb06b05	-0.021535406
197	0x3c03e674	0.00805055
198	0xbbe654dd	-0.0070291595
199	0xbc3141f6	-0.010818949
200	0xbd965f16	-0.07342355
201	0xbd6e09a4	-0.058114663
202	0x3dc3676d	0.09541211
203	0xbd568734	-0.052375033
204	0x3c29055c	0.010316219
205	0x3d5f4647	0.05451038
206	0xbd9d2377	-0.0767278
207	0xbd955fd2	-0.07293667
208	0x3cbbbe79	0.022917973
209	0xbda6d76a	-0.08146556
210	0x3c663480	0.014050603
211	0xbd74c5a3	-0.059758794
212	0x3bc5217a	0.0060159536
213	0xbd5eebdb	-0.054424148
214	0x3d1870d7	0.037216987
215	0x3cf0c8ad	0.029392565
216	0xbd73848f	-0.05945259
217	0x3d2003ae	0.03906601
218	0xbceb3439	-0.028711425
219	0x3aef39fb	0.0018251532
220	0x3d4d2af8	0.050089806
221	0xbd44ae00	-0.0480175
222	0x3c5a74de	0.013333527
223	0x3d59549f	0.053059217
224	0x3c8e7844	0.017391331
225	0x3c75733b	0.014981086
226	0x3d29c731	0.04144973
227	0xbd5f0393	-0.054446768
228	0xbc030f78	-0.0079992935
229	0xbce511c3	-0.027962571
230	0xbbe6eeba	-0.0070475014
231	0x3b9611e0	0.0045797676
232	0xb9f09d7c	-0.00045893702
233	0xbd63309e	-0.055466287
234	0xbd4f09e6	-0.05054655
235	0x3cea1482	0.028574232
236	0x3d20df1c	0.039275274
237	0xbddbee23	-0.1073878
238	0xbd127f60	-0.035766006
239	0x3df05085	0.11734108
240	0x3cf80186	0.030274164
241	0xbc26c170	-0.010177955
242	0xbc1e4dca	-0.009662101
243	0x3d1f1d78	0.038846463
244	0x3c14113d	0.009037313
245	0x3c5267a3	0.012842092
246	0xbcc7092e	-0.02429637
247	0x3d6228fe	0.055214874
248	0xbadc8c72	-0.0016826524
249	0x3ce365e5	0.027758548
250	0x3d40d9d9	0.047082756
251	0x3be81b06	0.0070832996
252	0xbc858c8e	-0.016302373
253	0xbca57e24	-0.02020175
254	0x3d666dc8	0.05625704
255	0xbd0126b0	-0.031531036
