outputs/models/lead1_fixed8.pt (torch, 382406 bytes, 13 tensors)

in_lin.weight f4 [96, 15]
0	0x3e4a552c	0.19759053
1	0x3e514a23	0.20438437
2	0xbd7658e0	-0.06014335
3	0x3e68c6c9	0.2273208
4	0xbd67b85b	-0.0565723
5	0x3d55690b	0.05210213
6	0xbe070210	-0.1318438
7	0x3e5a3a78	0.21311367
8	0x3e873692	0.2640882
9	0xbe341aae	-0.17588302
10	0x3e6a83f1	0.22901894
11	0x3ddfca29	0.10927231
12	0x3e57a140	0.21057606
13	0x3c8b30e5	0.016991088
14	0x3dc6b666	0.097027585
15	0xbd3f3053	-0.046676945
16	0x3e616b4c	0.22013587
17	0x3c89af48	0.016807213
18	0xbdcbd7be	-0.09953259
19	0x3d86c9bb	0.06581446
20	0xbdf3a22f	-0.118961684
21	0xbc1a63ac	-0.009423178
22	0xbe22b35f	-0.15888737
23	0x3e652e75	0.22381003
24	0xbdd84e4e	-0.105618104
25	0xbd872f06	-0.06600766
26	0xbdf9d4fd	-0.121988274
27	0xbe16fd6a	-0.14745107
28	0xbb728304	-0.003700436
29	0xbe882b74	-0.26595652
30	0x3e6d430a	0.23170105
31	0xbe6658e4	-0.22494847
32	0x3e4aa230	0.19788432
33	0x3d30411b	0.04303084
34	0xbdabb371	-0.08383835
35	0x3e23621f	0.15955399
36	0x3d1ea6d2	0.03873331
37	0x3e4f6728	0.20254195
38	0x3cb5799c	0.022152714
39	0xbdb3349a	-0.08750267
40	0x3d81a392	0.06330027
41	0xbd9b6649	-0.07587869
42	0x3df43c84	0.11925605
43	0x3e64f6d4	0.22359782
44	0x3e1df292	0.15424564
45	0xbdef0526	-0.11670904
46	0x3e036fa4	0.12835556
47	0x3d363877	0.044487443
48	0x3de22fd6	0.1104428
49	0xbe212687	-0.15737353
50	0xbe82dd1f	-0.25559327
51	0xbdf6f4df	-0.12058424
52	0xbe22ac63	-0.15886073
53	0x3e711afa	0.23545447
54	0x3daabb14	0.083364636
55	0x3ddb29c6	0.10701327
56	0x3df6d275	0.1205186
57	0xbb144103	-0.0022621758
58	0x3e4d7dd4	0.20067531
59	0xbe421051	-0.18951537
60	0x3ccc6df3	0.024954772
61	0xbe47c9ad	-0.19510527
62	0x3db4f17e	0.088351235
63	0xbdd4c682	-0.10389425
64	0x3da207bf	0.07911634
65	0xbd5c569d	-0.05379354
66	0x3e641e50	0.22277188
67	0xbe3074a5	-0.17231996
68	0xbe316ed1	-0.1732743
69	0xbe317141	-0.17328359
70	0x3e5a0f9a	0.21295014
71	0x3d8941ed	0.067020275
72	0x3e8b9d97	0.2726867
73	0xbe64f6c5	-0.2235976
74	0xbe8f9f32	-0.28051144
75	0xbe847f13	-0.258782
76	0xbde00396	-0.10938184
77	0x3d559820	0.05214703
78	0x3e209a7a	0.15683928
79	0x3e5bb15c	0.21454376
80	0xbe088a67	-0.13334046
81	0xbde48555	-0.111582436
82	0x3e54bc00	0.20774841
83	0xbd4bd336	-0.049761973
84	0x3e393097	0.18084942
85	0xbd225c89	-0.03963903
86	0x3e5f7a44	0.21823984
87	0xbe0958d6	-0.13412794
88	0xbe3b9431	-0.1831825
89	0x3da5095d	0.080584265
90	0x3d71984a	0.058983125
91	0xbd631230	-0.055437267
92	0x3e22052f	0.1582229
93	0x3e3e557d	0.18587299
94	0xbe3fbb91	-0.18723895
95	0xbe0d2706	-0.13784418
96	0x3e7d8f56	0.2476171
97	0xbe106b94	-0.14103538
98	0xbdc3d3fc	-0.09561917
99	0xbe494ec3	-0.19658951
100	0xbde2fcda	-0.11083384
101	0x3c389f69	0.011268475
102	0xbd12a977	-0.035806146
103	0xbe4f5ea8	-0.20250952
104	0x3d8027aa	0.06257565
105	0xbe50d409	-0.20393385
106	0xbe7c7f3d	-0.24657913
107	0xbe2e0740	-0.16994953
108	0xbe81b3a4	-0.25332367
109	0xbe2859cd	-0.16440506
110	0x3e842568	0.2580979
111	0x3cac9b46	0.021070134
112	0x3d54426d	0.05182116
113	0xbe898114	-0.2685629
114	0xbe4a0f2e	-0.19732353
115	0xbde8d567	-0.11368828
116	0x3c52d211	0.012867467
117	0xbe50a8c6	-0.20376882
118	0xbe026eb5	-0.12737544
119	0xbdd94c74	-0.106102854
120	0xbd7742fe	-0.060366623
121	0xbdf3f579	-0.119120546
122	0xbda16874	-0.07881251
123	0xbe4ab2a1	-0.19794704
124	0xbe357adb	-0.17722647
125	0xbe1a3fb8	-0.1506337
126	0xbdfcfad9	-0.12352533
127	0xbe6999bb	-0.2281255
128	0x3e44ce9d	0.19219442
129	0xbd9aba23	-0.07555034
130	0x3e4a9962	0.19785073
131	0x3d860fa5	0.06545953
132	0xbe697d2f	-0.2280166
133	0x3e8297a1	0.2550631
134	0xbe0c2231	-0.13684918
135	0xbde9c263	-0.114140294
136	0xbe714725	-0.23562296
137	0xbe8b5234	-0.27211154
138	0x3d54b837	0.051933493
139	0xbd6705bf	-0.056401964
140	0x3dcddee5	0.100522794
141	0xbe707e53	-0.23485689
142	0x3e2dbb47	0.16965972
143	0xbe575d96	-0.21031794
144	0xbd82827a	-0.06372543
145	0x3d0fbd0d	0.035092402
146	0x3de9251f	0.113840334
147	0x3e6e57d9	0.23275699
148	0x3e6e8ba4	0.23295456
149	0xbe562839	-0.20913781
150	0x3d822a6f	0.0635575
151	0xbd5a41da	-0.053285457
152	0xbcf31398	-0.029672429
153	0xbe0aa0bc	-0.13537878
154	0x3e70d3bb	0.23518269
155	0xbe420da7	-0.1895052
156	0x3e2a3ad8	0.1662401
157	0x3e20314a	0.15643802
158	0x3e02ead4	0.12784892
159	0xbdec05eb	-0.11524566
160	0x3e7db7f9	0.24777211
161	0x3df9c7ec	0.12196335
162	0x3d9a73b8	0.07541603
163	0xbe822d92	-0.25425392
164	0x3d519fb6	0.051177703
165	0xbd3003fb	-0.042972546
166	0xbe03d0b4	-0.12872583
167	0x3e5ecb18	0.21757162
168	0x3d50980f	0.050926264
169	0xbe1248ad	-0.14285536
170	0xbe05d229	-0.13068451
171	0xbc886c71	-0.016653271
172	0x3e08f8c5	0.13376148
173	0xbd9c7006	-0.07638554
174	0xbe218399	-0.15772857
175	0xbdca64f2	-0.09882535
176	0xbe50613a	-0.20349589
177	0x3dd9e99b	0.1064026
178	0x3e3f77d3	0.18698053
179	0xbe839abb	-0.25703987
180	0x3d76ff6b	0.06030218
181	0x3dfba9e5	0.12288264
182	0x3d407811	0.046989504
183	0xbdd1efe9	-0.10250837
184	0x3e09ffce	0.13476488
185	0x3e0af183	0.13568692
186	0x3dc53306	0.096288726
187	0xbd805b11	-0.062673695
188	0xbd3eeede	-0.04661452
189	0x3d70206c	0.05862467
190	0xbd0bd96a	-0.03414289
191	0xbdc08f20	-0.09402299
192	0x3e279b19	0.16367759
193	0x3e56f771	0.20992829
194	0xbcbd4433	-0.023103809
195	0xbda34fff	-0.079742424
196	0x3c8b6529	0.01701601
197	0xbcf5d970	-0.030010909
198	0x3d9a7d3e	0.07543419
199	0x3d942f63	0.07235601
200	0xbe70239f	-0.23451088
201	0xbdaaaa93	-0.08333316
202	0x3e8c1373	0.2735859
203	0x3ded4d56	0.11587016
204	0xbd9843bb	-0.074347936
205	0xbe78df8b	-0.24304025
206	0xbdcddeb3	-0.10052242
207	0xbe52c8eb	-0.20584457
208	0xbdb1eec6	-0.086881205
209	0x3dd89d2a	0.10576852
210	0x3e007418	0.12544286
211	0x3e02a7e3	0.12759356
212	0xbe84d4e1	-0.25943664
213	0xbe165385	-0.14680298
214	0xbd26e776	-0.040748082
215	0x3e7fc355	0.24976857
216	0x3d3a4af6	0.045481645
217	0x3c21350d	0.009839308
218	0x3e1fd67d	0.15609165
219	0xbda1522d	-0.07877002
220	0xbe1e1368	-0.1543709
221	0x3e87913b	0.2647799
222	0xbd97e7f7	-0.07417291
223	0xbd9d00d3	-0.07666173
224	0xbe9500a2	-0.29102045
225	0x3e381d77	0.1797999
226	0x3e3eefa3	0.18646102
227	0x3dcf6ebd	0.101285435
228	0xbe41abb9	-0.18913163
229	0xbe8278a8	-0.25482678
230	0xbe56bc91	-0.2097037
231	0x3e40c48b	0.18824975
232	0x3e40f071	0.18841721
233	0x3e830ed1	0.25597242
234	0x3e1a0f67	0.15044938
235	0x3d929d90	0.07158959
236	0x3d7ab8f7	0.061211552
237	0xbe364f1c	-0.17803615
238	0xbe6c5e26	-0.2308279
239	0xbe844867	-0.2583649
240	0x3d9f2cc5	0.07772211
241	0xbe1e6ea2	-0.1547189
242	0xbda42223	-0.080143236
243	0xbe349557	-0.17635094
244	0xbd40b76b	-0.04704992
245	0xbe3a1745	-0.18172939
246	0xbe497bb5	-0.19676097
247	0x3d6bd556	0.0575765
248	0xbdd6a4f6	-0.104806826
249	0x3e067a69	0.13132633
250	0xbde32162	-0.11090352
251	0xbe5e8f4f	-0.21734355
252	0xbcafadc4	-0.021445163
253	0xbe11fcd1	-0.14256598
254	0xbcf07176	-0.029350977
255	0xbe899e48	-0.26878572

in_lin.bias f4 [96]
0	0xbe02549e	-0.12727591
1	0x395186ba	0.00019981983
2	0xbd42b2be	-0.047533743
3	0xbe589541	-0.21150686
4	0xbe68306b	-0.2267472
5	0xbde688f5	-0.11256591
6	0x3e027cca	0.12742916
7	0x3e15cda9	0.14629234
8	0xbe2755aa	-0.16341272
9	0xbda87593	-0.082255505
10	0x3d320184	0.043458477
11	0xbe5a509b	-0.21319811
12	0x3e141eb0	0.14464831
13	0x3e82dfd0	0.2556138
14	0x3daedb57	0.085379295
15	0xbe330c3e	-0.17485139
16	0x3db53c4b	0.088493906
17	0x3df012d2	0.1172234
18	0x3e6a736d	0.22895594
19	0xbdf0211d	-0.11725066
20	0xbe614a16	-0.22000918
21	0x3dc14a41	0.09437991
22	0x3c9bcf03	0.01901961
23	0xbd6a51dd	-0.057206977
24	0xbdb3dd23	-0.08782413
25	0xbe036adc	-0.12833732
26	0x3e836007	0.256592
27	0xbc960f45	-0.018317828
28	0x3e3dbd73	0.185293
29	0x3e7841ab	0.242438
30	0x3da47845	0.08030752
31	0x3da23d33	0.07921829
32	0x3c5aabbb	0.013346608
33	0x3e46c5cc	0.19411391
34	0xbe558f56	-0.2085546
35	0x3dcdfa7f	0.10057544
36	0xbc8d2404	-0.017229088
37	0x3e01595a	0.12631741
38	0x3d8c310f	0.06845295
39	0xbdb06f7a	-0.086150125
40	0xbc532893	-0.012888092
41	0x3e309ab8	0.1724652
42	0xbe17edbe	-0.14836785
43	0xbe02d59c	-0.12776798
44	0xbdc812ca	-0.09769209
45	0xbda51c98	-0.080620944
46	0x3dfe2cb2	0.12410869
47	0x3e592d23	0.21208625
48	0xbcf6f435	-0.030145744
49	0x3e8ed03e	0.2789325
50	0xbdb2bba0	-0.08727193
51	0xbe145e3c	-0.14489073
52	0xbdaac99d	-0.08339236
53	0xbe3266bf	-0.17422007
54	0xbe1fa896	-0.15591654
55	0xbe58bec3	-0.2116652
56	0xbe505db0	-0.20348239
57	0x3dbf7a70	0.09349525
58	0x3e40b8e3	0.18820529
59	0x3e86872d	0.26275006
60	0x3e8552a9	0.26039627
61	0x3bc62221	0.006046549
62	0x3d5bc95b	0.053658824
63	0xbd98dd6d	-0.074641086
64	0x3e096190	0.13416123
65	0xbe79efe5	-0.24407919
66	0x3e193eb8	0.14965332
67	0x3db9359b	0.090434276
68	0x3ddf180d	0.10893259
69	0x3de68c7a	0.112572625
70	0xbdc97bda	-0.09838076
71	0x3e7168c9	0.23575129
72	0x3e34c022	0.17651418
73	0x3e3b9a75	0.1832064
74	0x3d6ff47d	0.05858277
75	0x3e25af70	0.16180205
76	0x3e4d812b	0.20068805
77	0x3db9d080	0.09072971
78	0x3e6191e9	0.22028317
79	0xbd039dd7	-0.03213295
80	0x3e327101	0.1742592
81	0x3da7935c	0.081824034
82	0x3e2a4add	0.1663012
83	0x3e8ef089	0.2791789
84	0x3dcf348e	0.10117446
85	0xbdb6d495	-0.089272656
86	0xbc1cea2d	-0.009577316
87	0x3dba5ee2	0.09100129
88	0x3d95015d	0.07275651
89	0xbddadc93	-0.106866024
90	0x3e4e69c3	0.20157532
91	0x3e40a9ec	0.1881482
92	0xbe0dc088	-0.13842976
93	0x3be24582	0.0069052586
94	0x3ce6ec60	0.028188884
95	0xbdfd6451	-0.123726495

layers.0.lin_self.weight f4 [96, 96]
0	0x3cbe9440	0.02326405
1	0xbd300677	-0.042974915
2	0xbd6a199f	-0.05715334
3	0xbd0d0cef	-0.034436163
4	0xbd161632	-0.03664226
5	0x3e14766c	0.144983
6	0x3d17dbae	0.037074737
7	0x3dea0673	0.11427011
8	0x3cf3f68a	0.029780645
9	0x3db04ca0	0.08608365
10	0x3d999c67	0.075005345
11	0x3c661eeb	0.014045457
12	0xbdc61f36	-0.09673922
13	0x3ceede95	0.02915887
14	0x3d0af9d0	0.033929646
15	0x3c6ed414	0.014576931
16	0x3d560033	0.052246284
17	0x3d424807	0.047431972
18	0x3db2498d	0.08705435
19	0x3c8a43bf	0.016878007
20	0xbcdc43ca	-0.026887793
21	0xbda92447	-0.082588725
22	0xbd911133	-0.070833586
23	0xbcea2b6a	-0.028585155
24	0x3cb97aed	0.022641623
25	0x3d1fdf38	0.039031237
26	0x3e1eacec	0.15495652
27	0xbca585e0	-0.020205438
28	0xbcc51e8e	-0.024062421
29	0xbca876ea	-0.020564515
30	0x3d80f6e3	0.0629709
31	0x3cfea6d4	0.03108541
32	0x3c9de2bf	0.01927316
33	0x3c6355ea	0.013875464
34	0x3bf9af81	0.0076197986
35	0x3a351907	0.00069083314
36	0x37cdb90c	2.4524074e-05
37	0xbdb15f31	-0.086607344
38	0xbd4493a0	-0.04799235
39	0xbc942c20	-0.018087447
40	0xbd2210fb	-0.039566975
41	0x3d708ea3	0.05872978
42	0x3d1e2414	0.038608626
43	0x3c50e73c	0.012750443
44	0xbcf2ace8	-0.029623464
45	0xbc9ed65f	-0.01938933
46	0xbdc07d7c	-0.09398934
47	0x3d505f62	0.050872214
48	0xbd0fcf42	-0.035109766
49	0x3df34fe1	0.1188047
50	0x3bd8f4f4	0.0066209976
51	0x3c05b1e8	0.008160092
52	0x3d4f4791	0.05060536
53	0x3d3ee6d9	0.046606872
54	0xbcf75424	-0.030191489
55	0x3bfaade5	0.0076501244
56	0x3ca5f897	0.020260138
57	0xbd480394	-0.048831537
58	0x3d30b1d5	0.043138344
59	0xbd59061f	-0.052984353
60	0x3ca3aa94	0.019978799
61	0xbd35115b	-0.044206005
62	0xbd675a37	-0.05648252
63	0x3d56d5e0	0.05245006
64	0xbd6f68f8	-0.058449715
65	0x3d12a3de	0.035800807
66	0xbd87c62c	-0.06629595
67	0x3cf734e7	0.030176593
68	0x3c93b359	0.018029856
69	0x3da8691f	0.08223175
70	0xbc91784a	-0.017757554
71	0x3cec45bd	0.028841848
72	0x3e027e6d	0.1274354
73	0x3d931a0a	0.07182701
74	0x3c843d27	0.016142441
75	0x3cf0b40e	0.029382732
76	0xbc6d4683	-0.014482143
77	0xbd8b5f92	-0.06805338
78	0x3df24726	0.11829977
79	0xbdb9519e	-0.0904877
80	0xbce21451	-0.027597578
81	0x3b3a026e	0.0028382796
82	0x3de844fe	0.11341284
83	0x3b1fa07c	0.002435713
84	0x3d224030	0.039611995
85	0xbc929801	-0.017894747
86	0x3d592461	0.05301321
87	0x3d15823e	0.03650116
88	0x3dd96b95	0.10616223
89	0xbd59dc0f	-0.05318838
90	0x3e02cca3	0.12773375
91	0xbda961fe	-0.08270644
92	0x3d1b92f6	0.03798195
93	0x3d6ece26	0.058302067
94	0x3dde2d96	0.108485386
95	0xbaf7918e	-0.0018887983
96	0xbd2426d8	-0.040076107
97	0x3ccd658a	0.025072832
98	0xbd706358	-0.05868849
99	0xbdb8e893	-0.09028735
100	0xbdb3a835	-0.08772317
101	0x3bb224d2	0.005436518
102	0x3d820849	0.063492365
103	0x3cfe8ff7	0.031074507
104	0xbb9bc9d8	-0.0047542863
105	0x3deb54a6	0.11490755
106	0xbd8d1481	-0.068886764
107	0x3d10e446	0.03537395
108	0x3c76d150	0.015064552
109	0xbd583b20	-0.05279076
110	0x3dbaaeec	0.09115395
111	0xbddee1b4	-0.10882893
112	0x3c9ccd12	0.019140754
113	0xbdb78d23	-0.089624666
114	0x3c28bc18	0.010298751
115	0xbd3c7e1e	-0.046018712
116	0x3da413c8	0.080115855
117	0xbda91566	-0.082560346
118	0x3d627ad2	0.05529291
119	0xbdba8577	-0.09107488
120	0x3cd1d8de	0.025616106
121	0xbdacc863	-0.08436658
122	0x3d8c3345	0.068457164
123	0xbd2b2740	-0.04178548
124	0x3d3ed7f7	0.04659268
125	0x3cbc95da	0.023020674
126	0x3d87fcb6	0.06639998
127	0x3ca5cf31	0.020240398
128	0xbda66ab6	-0.08125822
129	0x3c978f38	0.01850091
130	0xbd6fb648	-0.058523446
131	0x3d66f1e6	0.056383036
132	0x3c0e1eae	0.008674307
133	0xbcf3e716	-0.029773276
134	0xbdfeeda9	-0.12447674
135	0x3d44dfe8	0.048065096
136	0xbd898aec	-0.0671595
137	0x3d65d139	0.056107733
138	0x3dc06ee8	0.09396154
139	0x3d909b4a	0.07060869
140	0x3d49a919	0.04923353
141	0xbdc712f5	-0.09720413
142	0x3d3d70b6	0.046250068
143	0xbd3d52dc	-0.0462216
144	0xbd33931f	-0.043841477
145	0xbc7e23a7	-0.01551143
146	0x3d71f379	0.059070084
147	0x3da0b934	0.07847825
148	0xbb8c5ea9	-0.0042837453
149	0x3cdbdddd	0.026839191
150	0xbdd59deb	-0.10430511
151	0xbb9f88b2	-0.0048685903
152	0xbdbbd26b	-0.091709934
153	0x3d2d3492	0.042286463
154	0xbda96dec	-0.08272919
155	0xbcaad8e2	-0.02085537
156	0x3dd6fb9e	0.10497211
157	0x3ddc6c35	0.10762826
158	0xbd6e934d	-0.058245946
159	0xbdac7398	-0.08420485
160	0x3c881007	0.016609205
161	0x3d07bc08	0.033138305
162	0x3bbd3b18	0.005774867
163	0x3d112d66	0.035443686
164	0xbd84d1bc	-0.06485316
165	0x3d678f67	0.056533244
166	0x3e34f4c0	0.1767149
167	0xbd3bce1f	-0.04585087
168	0x3dbb3adb	0.09142085
169	0x3d83be80	0.06432819
170	0x3d99fb43	0.075186275
171	0xbc1582b0	-0.009125397
172	0x3cba4e3b	0.022742381
173	0x3d9af27b	0.07565781
174	0x3d3d0ed5	0.046156723
175	0x3dae3b71	0.08507431
176	0xbc0ced8f	-0.00860156
177	0x3d58d145	0.05293395
178	0x3d96eea5	0.073697366
179	0xbd521aec	-0.051295206
180	0x3d41c766	0.0473093
181	0xbcef345e	-0.029199775
182	0x3de16b80	0.11006832
183	0xbd51807c	-0.051147923
184	0x3cdefdbd	0.027220601
185	0x3d4af5ba	0.04955075
186	0xbd47fd4e	-0.048825555
187	0xbdbe7b95	-0.09300915
188	0xbd31aff0	-0.043380678
189	0x3d885ca5	0.066582955
190	0x3d332947	0.043740537
191	0xbdb06d8c	-0.086146444
192	0x3cd5c6d3	0.026095783
193	0xbdc38f4d	-0.09548817
194	0xbd3f089e	-0.046639077
195	0x3db745bc	0.08948848
196	0x3d60bc03	0.054866802
197	0x3cbd2840	0.023090482
198	0xbb0c84aa	-0.0021441379
199	0x3d17325f	0.036913272
200	0x3cf25aa2	0.029584233
201	0x3c20ed2e	0.009822173
202	0xbca4ae23	-0.020102566
203	0x3d8f14db	0.069864
204	0xbbdaf87b	-0.006682453
205	0x3deaa959	0.11458082
206	0x3c85d196	0.01633529
207	0x3d84159b	0.064494334
208	0x3dba9038	0.09109539
209	0x3d8eac66	0.06966476
210	0x3d1e263a	0.038610674
211	0x3dd17b70	0.10228622
212	0x3ca1f699	0.019770907
213	0x3bc51e3e	0.006015568
214	0x3dd22b2a	0.10262139
215	0x3e034f51	0.12823226
216	0xbd4312d1	-0.047625367
217	0x3da7ab4e	0.08186971
218	0x3dcdf47e	0.10056399
219	0x3a7f4e40	0.0009739138
220	0x3d748a7c	0.05970238
221	0xbd1e999d	-0.038720716
222	0x3e0386c0	0.12844372
223	0x3dc4292f	0.09578168
224	0xbd390d8d	-0.04517894
225	0xbd2fca6b	-0.04291765
226	0xbdcfafa1	-0.101409204
227	0xbd628e76	-0.055311643
228	0xbd749d42	-0.059720285
229	0xbd983ce0	-0.07433486
230	0xbd1e166a	-0.038595594
231	0x3d91bff0	0.07116687
232	0x3d9a915e	0.07547258
233	0x3d9dbbef	0.07701861
234	0x3d98cbe2	0.074607626
235	0xbcf6d77b	-0.030132046
236	0xbda536bb	-0.0806708
237	0x3bbae942	0.005704076
238	0x3db75663	0.08952024
239	0x3d201411	0.039081637
240	0xbd5f6860	-0.0545429
241	0xbc55c4a5	-0.013047372
242	0xbd50013d	-0.05078243
243	0xbda120db	-0.07867595
244	0x3ddcd13b	0.10782095
245	0xbd40402d	-0.046936203
246	0xbd909174	-0.07058993
247	0xbd38e325	-0.045138497
248	0x3b562181	0.0032673778
249	0x3b314dc1	0.0027054402
250	0x3d2e049b	0.04248486
251	0x3d94ee01	0.07271958
252	0xbd432c73	-0.047649812
253	0xbd8cae08	-0.06869131
254	0x3bfa9de9	0.007648219
255	0xbdf76945	-0.120806254

layers.0.lin_self.bias f4 [96]
0	0x3d300766	0.042975806
1	0x3de38d95	0.11110989
2	0x3d1bd723	0.038046967
3	0x3d13390d	0.03594308
4	0xbd0d164a	-0.034445085
5	0x3d2f30e3	0.04277123
6	0xbd93f2d3	-0.072240494
7	0xbdd776df	-0.1052072
8	0xbc41d4f3	-0.011830556
9	0xbd99e5bf	-0.07514524
10	0xbd77b2a4	-0.0604731
11	0x3c8b82fb	0.01703023
12	0x3daa3a7a	0.08311935
13	0x3db1a4e9	0.08674032
14	0xbc23fb4b	-0.010008643
15	0x3c2ed0f1	0.010669933
16	0x3e0406be	0.12893197
17	0x3d528199	0.051393125
18	0x3dcfc89b	0.10145684
19	0xbc183773	-0.009290564
20	0xbd4f4cec	-0.050610468
21	0xbd8a2a4e	-0.0674635
22	0x3ca30f6b	0.019904813
23	0x3b649d90	0.0034883954
24	0xbcb179d3	-0.021664536
25	0x3db01e8a	0.08599575
26	0xbd8b1a4f	-0.06792127
27	0x3d1e5247	0.038652685
28	0x3d0d8e5d	0.034559596
29	0xbd265599	-0.040608976
30	0x3da30ec6	0.07961802
31	0x3d2010ca	0.03907851
32	0xbce43505	-0.027857313
33	0xbcda7d09	-0.02667095
34	0xbc824960	-0.015904129
35	0xbd912e80	-0.07088947
36	0x3dbeaf50	0.09310782
37	0x3dfdbb78	0.123892725
38	0xbd56bf75	-0.05242868
39	0x3cf32e4c	0.029685162
40	0x3d9278ef	0.071519725
41	0x3d493cf8	0.04913041
42	0xbd17e69b	-0.037085157
43	0xbd0208bb	-0.031746607
44	0x3e09ebe3	0.1346889
45	0x3db42d5c	0.08797714
46	0x3e0843fd	0.13307185
47	0x3dcd81b2	0.10034503
48	0xbc1ad569	-0.009450295
49	0x3dd43053	0.103607796
50	0xbb7e5562	-0.0038808216
51	0x3cc8f1d9	0.024529384
52	0xbcd51188	-0.026009336
53	0x3de1a802	0.11018373
54	0x3be9f077	0.0071392613
55	0x3d32b42c	0.043628857
56	0xbd74db76	-0.059779607
57	0x3d8d4c4e	0.068993196
58	0xbd6ec1e1	-0.058290366
59	0xbcaf5255	-0.021401564
60	0x3cafbe83	0.021453148
61	0x3d862c13	0.06551375
62	0x3d259164	0.04042186
63	0x3d2e42b8	0.042544097
64	0xbd3b3073	-0.0457005
65	0xbdac42f7	-0.0841121
66	0x3d719903	0.058983814
67	0xbc6ad80a	-0.014333734
68	0xbd83a0fe	-0.06427191
69	0xbc9bf4a6	-0.019037556
70	0xbdf6abbb	-0.12044474
71	0x3d48a0c1	0.048981432
72	0x3d063fd8	0.03277573
73	0x3df5ebeb	0.120078884
74	0xbd668645	-0.056280393
75	0xbce3d119	-0.027809666
76	0x3d668952	0.056283303
77	0xba7097f3	-0.00091779156
78	0x3df1ea8f	0.118123166
79	0x3cd38e91	0.025824817
80	0x3cd0d5e7	0.025492622
81	0xbca7df9d	-0.02049237
82	0x3d7c9659	0.06166682
83	0xbc98c36b	-0.01864787
84	0x3d8d8277	0.0690965
85	0x3da4c5a3	0.08045509
86	0xbd80d364	-0.062903196
87	0xbd72c762	-0.059272178
88	0xbcec2cdb	-0.028829983
89	0x3db60377	0.088873796
90	0xbca0e3a4	-0.019639798
91	0x3d274919	0.040841196
92	0x3c3d27af	0.011545106
93	0x3d539871	0.05165905
94	0xbcc7df60	-0.024398506
95	0x3d0a5765	0.033774752

layers.0.lin_neigh.weight f4 [96, 96]
0	0x3d99750c	0.07493028
1	0x3d0887ba	0.033332564
2	0x3cc480ab	0.023987135
3	0xbda95ddc	-0.082698554
4	0x3d6087ae	0.054816894
5	0x3c01dbd5	0.007925947
6	0x3d9a213d	0.07525871
7	0x3d81421f	0.0631144
8	0xbd9cd859	-0.076584525
9	0x3d7c196d	0.061547685
10	0xbcd6e253	-0.026230967
11	0x3caaab9e	0.020833787
12	0xbb24b5b8	-0.0025132727
13	0x3d2ea62c	0.042638943
14	0x3da15adf	0.078786604
15	0x3dd99c90	0.10625565
16	0xbcc3d448	-0.023904935
17	0x3dd8d936	0.10588305
18	0xbbdd4605	-0.0067527317
19	0x3dcec872	0.10096826
20	0x3d6f7d6b	0.058469217
21	0x3c5c6446	0.013451641
22	0xbcca6adc	-0.024709158
23	0xbcc2fb81	-0.023801567
24	0xbdc4057f	-0.09571361
25	0xbd8f8552	-0.07007851
26	0x3d1e6504	0.038670555
27	0x3dca565f	0.09879755
28	0x3d3ec19a	0.04657135
29	0x3cd7c613	0.026339566
30	0xbd6512df	-0.0559262
31	0x3d9f9fd2	0.07794155
32	0x3dae1119	0.08499355
33	0xbd165de5	-0.03671064
34	0x3d36db7a	0.044642903
35	0xbdb67ccf	-0.08910524
36	0xbc9ff4ba	-0.019525874
37	0xbd375171	-0.044755403
38	0xbe263678	-0.16231716
39	0xbb818cb9	-0.003953543
40	0x3d13fda9	0.03613058
41	0x3d643567	0.05571499
42	0x3df301c7	0.118655734
43	0x3dbc9553	0.09208169
44	0xbdb8a2b0	-0.09015405
45	0xbce1cf8c	-0.027564786
46	0x3d62dbd5	0.05538543
47	0xbd8d0409	-0.06885535
48	0xbcea6475	-0.028612355
49	0x3d990d1c	0.074732035
50	0xbd88ceae	-0.06680046
51	0x3db34d0c	0.0875493
52	0xbd5ab6a3	-0.053396832
53	0xbdd4258a	-0.103587225
54	0xbd836d5d	-0.06417344
55	0xbda25883	-0.079270385
56	0xbc775eac	-0.015098255
57	0x3d26d198	0.040727228
58	0xbd3450e8	-0.04402247
59	0x3dccec1d	0.100059725
60	0xbd0f8057	-0.035034504
61	0x3db8f3ae	0.09030853
62	0x3d38cf85	0.04511978
63	0xbddaecc7	-0.10689693
64	0x3de1451b	0.10999509
65	0x3ce2419b	0.027619174
66	0xbd9426c8	-0.072339594
67	0x3db4a39c	0.088202685
68	0x3df8e914	0.12153831
69	0xbd92ddfb	-0.07171246
70	0xbc6de0d9	-0.01451894
71	0xbd9bdb7b	-0.07610222
72	0x3df90d4e	0.12160741
73	0x3d83143a	0.06400342
74	0x3dd88dd2	0.10573925
75	0x3ce0829d	0.027406031
76	0xbb3e3afc	-0.0029026857
77	0xbb96ea2b	-0.0046055517
78	0xbd632bb8	-0.055461615
79	0x3d166ada	0.036722995
80	0xbd4f18e8	-0.05056086
81	0x3c9cfe3d	0.019164199
82	0x3c91952c	0.017771326
83	0x3d49c55d	0.049260486
84	0xbcefa083	-0.029251343
85	0xbc4681f4	-0.012115944
86	0x3d559a65	0.052149195
87	0xbd983fe6	-0.07434063
88	0xbcd6d994	-0.026226796
89	0xbdbe4217	-0.092899494
90	0xbd0c52bd	-0.034258593
91	0x3dee5643	0.11637547
92	0x3dc4bcc4	0.09606317
93	0x3db56f98	0.088591754
94	0xbd33ee0d	-0.043928195
95	0x3d3aa8e3	0.04557122
96	0x3ca90fd3	0.020637428
97	0x3d173573	0.036916208
98	0x3c96b4fd	0.018396849
99	0xbd9e8805	-0.077407874
100	0xbb9eb86e	-0.004843763
101	0xbd8c1860	-0.06840587
102	0x3d8bfc6e	0.068352565
103	0x3d8a0768	0.06739694
104	0xbddecd1a	-0.10878964
105	0xbda5b22d	-0.08090625
106	0xbb4c2893	-0.0031152114
107	0x3d4c7899	0.0499197
108	0xbd692927	-0.05692401
109	0x3ddb8fdc	0.107207984
110	0x3d9ea422	0.077461496
111	0xbdc9ca4b	-0.098530374
112	0x3d7847f2	0.060615487
113	0x3cfd48ab	0.03091844
114	0xbd45aa47	-0.048258092
115	0x3d8885da	0.06666155
116	0x3cdb26e0	0.026751935
117	0x3dae09de	0.08497976
118	0xbdca7b91	-0.0988685
119	0x3de62da2	0.112391725
120	0xbd4cf118	-0.050034612
121	0xbdff798f	-0.12474357
122	0x3d90f3b4	0.07077733
123	0xbcae886a	-0.021305282
124	0x3afd1b92	0.0019310585
125	0x3d371cb0	0.044705093
126	0x3cede0ef	0.02903792
127	0x3d8ff5ad	0.07029281
128	0xbdd42df1	-0.10360325
129	0xbde58620	-0.11207223
130	0xbd4d2cf1	-0.050091688
131	0xbd21eb7c	-0.039531216
132	0xbdaf542a	-0.08560975
133	0x3c7be0a3	0.015373382
134	0xbd9dec66	-0.07711105
135	0xbcdcd798	-0.026958272
136	0xbd3dac16	-0.046306692
137	0x3d825e43	0.06365635
138	0xbcee41e2	-0.02908415
139	0x3c5c355d	0.013440457
140	0x3d39e88f	0.0453878
141	0x3cf77d2b	0.030211052
142	0xbc22645e	-0.009911625
143	0x3c99a67f	0.01875615
144	0xbc6bea2e	-0.0143990945
145	0x3de9b3ea	0.11411269
146	0xbb00e572	-0.001966801
147	0x3c8ca732	0.017169569
148	0x3d486db6	0.048932754
149	0xbe259be6	-0.16172752
150	0x3d2be05f	0.041962024
151	0x3db952bf	0.09048986
152	0x3af38061	0.0018577689
153	0x3d922702	0.071363464
154	0xbd88ebea	-0.06685622
155	0x3d9f2fba	0.07772775
156	0x3d61335f	0.054980632
157	0xbdcc7027	-0.09982329
158	0x3d96c418	0.07361621
159	0x3b8c9144	0.004289778
160	0x3bbc2aeb	0.005742421
161	0x3db7548f	0.08951675
162	0xbb529bab	-0.0032136242
163	0x3e0aa17b	0.13538162
164	0xbd9e9217	-0.07742708
165	0xbdaeb037	-0.08529704
166	0x3d0ab8ce	0.03386765
167	0x38b7eb10	8.769904e-05
168	0x3cf360b3	0.029709196
169	0xbd55b394	-0.052173212
170	0x3db75fef	0.08953845
171	0x3d8463f2	0.064643756
172	0xbd9d6cf2	-0.07686795
173	0xbd521882	-0.051292904
174	0x3c1a990a	0.009435901
175	0x3c436e52	0.011928158
176	0xbdbbe1b0	-0.09173906
177	0x3daf851b	0.0857031
178	0xbd5b78a4	-0.05358185
179	0x3d8ff2b3	0.07028713
180	0xbcaa4201	-0.020783426
181	0xbdc6fbd7	-0.097160034
182	0x3ca3f8c3	0.02001608
183	0xbd41dd22	-0.04733003
184	0x3dc45e3a	0.09588285
185	0xbd1bd1ac	-0.038041756
186	0x3dcf1b03	0.10112574
187	0x3dd74bdd	0.10512517
188	0xbd7dd78f	-0.06197315
189	0xbcef4765	-0.029208848
190	0x3d95334f	0.07285177
191	0x3db1d298	0.08682746
192	0x3cb99590	0.022654325
193	0x3d7466a8	0.059668213
194	0x3d816fcb	0.06320151
195	0x3d63d70d	0.05562501
196	0x39af4b6c	0.00033434795
197	0x3e1aca13	0.15116148
198	0xbcfc15f3	-0.030772185
199	0x3cdc62d3	0.026902592
200	0xbdb6cfb3	-0.08926334
201	0x3c5269b1	0.012842582
202	0x3d9be5ec	0.076122135
203	0x3d9fb8b7	0.077989034
204	0x3c755b31	0.014975355
205	0x3ddc640d	0.10761271
206	0x3dfca312	0.12335791
207	0x3d612bf1	0.054973546
208	0xbbe821f4	-0.0070841257
209	0x3d89446c	0.067025036
210	0x3dc2d937	0.09514087
211	0x3db2ee71	0.08736885
212	0x3d5a38f6	0.05327698
213	0x3d9e856f	0.07740294
214	0xbd705da4	-0.058683053
215	0x3d54a165	0.05191173
216	0xbda90944	-0.082537204
217	0x3d0d8ebc	0.03455995
218	0x3d72aaaa	0.05924479
219	0xbb8ab580	-0.0042330623
220	0x3d611731	0.054953758
221	0xbc24e07f	-0.01006329
222	0x3db5970a	0.08866699
223	0x3d702c2d	0.05863588
224	0xbd12dc73	-0.035854768
225	0xbda7275f	-0.08161806
226	0x3c2061bf	0.0097889295
227	0xbd97601e	-0.0739138
228	0xbcb18b9c	-0.021673016
229	0x3d0911bd	0.033464182
230	0xbd3444c1	-0.04401088
231	0xbcbbb830	-0.022914976
232	0xbcb4efda	-0.022087026
233	0xbd52a758	-0.051429123
234	0xbcae7262	-0.021294776
235	0x3d271d6c	0.040799543
236	0xbd606737	-0.054785933
237	0xbdb89304	-0.09012416
238	0xbdd11f57	-0.10211056
239	0xbd83027c	-0.06396958
240	0xbd91a3df	-0.07111334
241	0x3d85806f	0.065186374
242	0xbd2bb47f	-0.04192018
243	0x3d8a15ff	0.06742477
244	0x3d8dcf10	0.0692426
245	0xbde46e68	-0.11153871
246	0x3d240f80	0.040053844
247	0xbddcf699	-0.10789222
248	0x3d0a6563	0.033788096
249	0x3db86b53	0.090048455
250	0x3d55ea6a	0.052225508
251	0xbd2f0da3	-0.042737614
252	0x3d08909b	0.03334103
253	0xbd64b29b	-0.055834394
254	0x3ce7881e	0.028263148
255	0x3cdebec8	0.027190581

layers.1.lin_self.weight f4 [96, 96]
0	0x3d1ff735	0.039054114
1	0x3d82da21	0.06389261
2	0xbda2dfc3	-0.079528354
3	0x3ca90bf0	0.020635575
4	0x3d5ee6e8	0.054419428
5	0x3ca17004	0.019706734
6	0xbd691b6b	-0.056910913
7	0xbd3b26fa	-0.045691468
8	0x3d652278	0.055941075
9	0x3d06edec	0.032941744
10	0x3cb11501	0.02161646
11	0xbdbbb51f	-0.091654055
12	0xbdb0380a	-0.086044386
13	0x3da5d176	0.08096592
14	0x3aec8065	0.0018043636
15	0x3db83b1b	0.089956485
16	0xbe00e8dc	-0.12588829
17	0xbd506252	-0.050875016
18	0xbdd76745	-0.10517744
19	0x3db3ba97	0.087758236
20	0xbbd662cb	-0.0065425388
21	0x3d179931	0.03701133
22	0x3da7eada	0.08199091
23	0x3b5e7f4a	0.0033950382
24	0x3c1fcb25	0.009753023
25	0xbd9a0cbb	-0.075219594
26	0x3c4000a5	0.011718904
27	0x3d5b626e	0.053560667
28	0xbc768ad5	-0.015047749
29	0xbd90dada	-0.070729926
30	0xbd70bf4c	-0.058776185
31	0xbc985548	-0.018595353
32	0x3d8d1a97	0.06889837
33	0x3bf8097c	0.00756949
34	0xbd786793	-0.06064565
35	0x3b53cdb1	0.0032318647
36	0xbd15517d	-0.036454666
37	0x3c11d26e	0.008900268
38	0x3d82cddf	0.06386923
39	0xbdb248cf	-0.087052934
40	0xbc9c9a03	-0.019116407
41	0xbd63fa7a	-0.055658795
42	0x3daba9f8	0.08382028
43	0xbdc03694	-0.0938541
44	0xbd4e3ac9	-0.05034903
45	0xbdc3756e	-0.09543882
46	0xbdc13e99	-0.09435768
47	0xbd2e2ea2	-0.04252494
48	0x3c995bea	0.018720586
49	0xbda43c2a	-0.08019288
50	0xbc2b1c47	-0.010443754
51	0xbd67b0b9	-0.05656502
52	0x3d99afb8	0.07504219
53	0xbd953f35	-0.072874464
54	0xbdc13e66	-0.0943573
55	0xbc74ceea	-0.01494191
56	0xbdb2de92	-0.08733858
57	0xbd5b4962	-0.05353678
58	0x3d095aff	0.033534046
59	0xbdae40fc	-0.085084885
60	0xbd745d63	-0.059659373
61	0x3d5edd77	0.054410424
62	0x3d61a7f6	0.05509182
63	0x3da95112	0.08267416
64	0x3db677b6	0.08909552
65	0x3daad4a8	0.08341342
66	0xbd171045	-0.03688075
67	0xbd4c2ca6	-0.049847268
68	0xbd13ecc6	-0.036114477
69	0x3be7e554	0.0070768986
70	0x3a341f2a	0.0006871099
71	0xbd848904	-0.06471446
72	0x3dac9671	0.08427132
73	0xbcdabddc	-0.02670186
74	0x3d9e032b	0.07715448
75	0xbc8e3926	-0.017361235
76	0x3d17a4ba	0.03702233
77	0x3c1402a8	0.009033836
78	0x3cabe3ec	0.020982705
79	0xbd94ade7	-0.07259732
80	0x3d34b732	0.04412002
81	0xbd9bc4a3	-0.07605865
82	0x3d532ac6	0.051554464
83	0xbd29b2fe	-0.041430466
84	0x3ce6daef	0.028180568
85	0xbdc97572	-0.09836854
86	0xbd88210e	-0.0664693
87	0x3da2bdb5	0.0794634
88	0x3d9a4707	0.07533079
89	0xbde49206	-0.11160664
90	0xbd8b6279	-0.068058915
91	0xbdcc421f	-0.09973549
92	0x3c2b2f1c	0.0104482435
93	0xbd29a3b7	-0.041415896
94	0xb9fd749c	-0.000483428
95	0x3cc93ed4	0.024566092
96	0x3d379da5	0.044828076
97	0xbc087ace	-0.00833006
98	0x3ccc55f8	0.024943337
99	0xbd626e52	-0.05528099
100	0x3da07742	0.078352466
101	0xbd99194e	-0.074755296
102	0xbcf54bc6	-0.029943358
103	0xbd10586a	-0.03524057
104	0xbd73ebdd	-0.05955111
105	0x3ba7c695	0.0051201084
106	0xbc29f62c	-0.010373633
107	0xbab1a74c	-0.0013553887
108	0xbcf41b19	-0.029798077
109	0xbd28a51a	-0.041173078
110	0x3daf8694	0.085705906
111	0xbda23ea8	-0.07922107
112	0x3dd54372	0.10413255
113	0x3cf80944	0.030277856
114	0xbd76826d	-0.060182977
115	0x3d7aa7fa	0.06119535
116	0x3d7b57e8	0.06136313
117	0x3d83ba13	0.06431975
118	0xbdacc8e6	-0.08436756
119	0xbd843ba2	-0.064566866
120	0xbcad9df7	-0.021193488
121	0xbce81ba1	-0.028333487
122	0x3dbc9af4	0.092092425
123	0x3d16d474	0.036823705
124	0x3dba3bef	0.09093463
125	0xbd90f987	-0.070788436
126	0xbda4ee45	-0.08053259
127	0x3d3b99e0	0.045801044
128	0x3daaaee0	0.08334136
129	0x3df4b3f9	0.119483896
130	0x3c9401ee	0.018067326
131	0xbb35b016	-0.0027723364
132	0x3d92deec	0.07171425
133	0x3d979f7d	0.07403467
134	0xbdbe946e	-0.093056545
135	0xbd2d05b0	-0.042241752
136	0x3dca9ad4	0.09892812
137	0xbc6aff9b	-0.014343168
138	0xbd687426	-0.056751393
139	0xbd85afef	-0.06527697
140	0xbcdf0fd5	-0.027229229
141	0x3c0015c9	0.007817694
142	0x3cd9ee3d	0.026602859
143	0xbd6f4027	-0.05841079
144	0x3dc709cf	0.09718668
145	0x3c99acb7	0.018759115
146	0x3dcb6488	0.09931284
147	0xbccf56b3	-0.025309896
148	0x3dc34a21	0.09535623
149	0x3d4699fd	0.0484867
150	0xbd9d5b85	-0.076834716
151	0x3dc0eb3d	0.09419868
152	0x3dac8c8c	0.08425245
153	0xbd5dbfed	-0.054138113
154	0x3da8cb6f	0.08241927
155	0xbcbff7b9	-0.023433553
156	0xbc1388de	-0.0090048
157	0xbc9a69a9	-0.01884921
158	0xbd2bf3f5	-0.041980702
159	0x3cf504f5	0.02990959
160	0xbd87e6c4	-0.06635812
161	0xbd76395c	-0.060113296
162	0x3df59741	0.1199174
163	0xbdbbe1f6	-0.09173958
164	0xbd499127	-0.049210694
165	0x3d4e4a89	0.05036405
166	0x3d8d82ce	0.06909715
167	0xbd159f32	-0.036528774
168	0xbd13f661	-0.036123637
169	0xbd4c72f1	-0.049914304
170	0x3d875879	0.06608672
171	0x3cd12a6d	0.025532926
172	0xbd789fff	-0.06069946
173	0xbd127a56	-0.0357612
174	0xbd4d6ee4	-0.05015458
175	0x3d1f78a4	0.03893341
176	0xbd4c8dc9	-0.049939904
177	0xbd3e8fc9	-0.046523843
178	0x3d8e3832	0.06944312
179	0x3dafc2c3	0.0858207
180	0xbdb35f9e	-0.08758472
181	0x3c1446c6	0.009050077
182	0x3ddfda41	0.109303005
183	0x3ddd163c	0.107952565
184	0x3d5c711e	0.053818814
185	0x3cb75830	0.022380918
186	0xbd000494	-0.031254366
187	0xbd0e27ee	-0.03470605
188	0xbd6c9f2f	-0.057768997
189	0xbc197437	-0.009366087
190	0x3d9d6856	0.07685916
191	0x3dfd766b	0.12376102
192	0x3db45182	0.08804609
193	0xbc88018f	-0.016602306
194	0x3cdfd4c4	0.027323134
195	0x3c1284bb	0.008942778
196	0xbd08c903	-0.033394825
197	0x3bcde66e	0.006283573
198	0x3d22b7b5	0.039725978
199	0x3c296335	0.010338594
200	0x3d405b6c	0.046962187
201	0x3d154e2e	0.03645151
202	0x3c3a08b1	0.011354611
203	0x3d6eedd7	0.05833229
204	0xbd8d9b9b	-0.06914445
205	0x3d1b9a68	0.03798905
206	0x3db28aec	0.087179035
207	0xbdb2299c	-0.086993426
208	0x3d45fc05	0.048336048
209	0x3dabe1ec	0.083927006
210	0xbcfe8571	-0.03106949
211	0x3dd910df	0.10598921
212	0xbc94780e	-0.018123653
213	0x3b94421b	0.004524482
214	0xbc2d643c	-0.01058298
215	0x3d9c570a	0.07633789
216	0xbcc13757	-0.023585958
217	0x37c43904	2.339157e-05
218	0xbd18d037	-0.037307944
219	0xbb154681	-0.002277762
220	0x3d29bd81	0.04144049
221	0xbd8f8249	-0.07007272
222	0x3dc4f42f	0.09616887
223	0x3dce31ea	0.10068114
224	0x3e04f698	0.12984693
225	0xbc7af25c	-0.015316572
226	0x3d69b021	0.057052735
227	0x3dc31ff3	0.09527578
228	0x3d985bad	0.07439361
229	0x3aa82342	0.001282789
230	0x3db624a7	0.0889371
231	0x3db0a017	0.08624285
232	0x3d941e58	0.0723235
233	0xbb4e72a4	-0.0031501437
234	0xbca2593d	-0.019817943
235	0x3df04f06	0.117338225
236	0x3d281ca1	0.041042928
237	0x3cabd6f3	0.02097652
238	0x3d4fd95a	0.050744392
239	0xbc17f515	-0.009274741
240	0x3d44d0d8	0.04805073
241	0x3d5076a9	0.050894413
242	0x3cb09379	0.021554695
243	0x3be621cb	0.0070230714
244	0x3d828f97	0.06375044
245	0x3df8894a	0.12135561
246	0x3daa72c9	0.08322675
247	0x3e0753b6	0.13215527
248	0x3d878e3b	0.06618925
249	0x3db438b9	0.087998815
250	0xbcccc90f	-0.024998216
251	0xbd7534af	-0.059864696
252	0x3dc146d4	0.094373375
253	0x3d252301	0.040316585
254	0x3d29d264	0.04146041
255	0xbd22ca08	-0.039743453

layers.1.lin_self.bias f4 [96]
0	0xbd500818	-0.05078897
1	0x3cae56d2	0.021281634
2	0x3d9e1be8	0.077201664
3	0x3d3ab5ef	0.04558366
4	0xbd895767	-0.06706124
5	0xbd2cd621	-0.042196397
6	0xbcea9d87	-0.028639568
7	0x3de45174	0.111483485
8	0x3c94806a	0.018127639
9	0xbd3d4bbf	-0.046214815
10	0x3d2b213f	0.041779753
11	0xbc0fad75	-0.008769383
12	0x3d1fd23f	0.039018866
13	0xbd773973	-0.060357522
14	0xbcf43201	-0.029809
15	0x3e03c5c9	0.12868418
16	0x3d113bd1	0.035457436
17	0x3e0064fe	0.12538525
18	0x3de2ace4	0.110681325
19	0x3d1b87c2	0.037971266
20	0x3de47989	0.111559935
21	0xbcb967aa	-0.022632439
22	0x3dd9f1fc	0.10641858
23	0x3a39bb41	0.0007085093
24	0xbd87dc00	-0.066337585
25	0x3d955918	0.07292384
26	0x3d42297e	0.04740285
27	0xbd6de05d	-0.058075298
28	0x3dbf6a8f	0.09346496
29	0xbd55e713	-0.052222323
30	0xbd862362	-0.065497175
31	0xbc233c0e	-0.009963049
32	0x3cde0e32	0.027106378
33	0x3dfc0c85	0.123070754
34	0xbd6ec1af	-0.05829018
35	0xbd7e6f0a	-0.062117614
36	0x3cf7ca62	0.03024787
37	0x3e00c999	0.12576903
38	0x3e077e29	0.1323172
39	0xbce43f13	-0.027862107
40	0x3cc96458	0.02458398
41	0x3c1862a1	0.009300859
42	0x3e08c833	0.1335762
43	0x3d4ad7cf	0.049522217
44	0x3d084208	0.033266097
45	0x3d652288	0.055941135
46	0xbd2d3921	-0.04229081
47	0xbc965d4a	-0.01835503
48	0xbd4bb8ae	-0.04973667
49	0x3d7af770	0.06127113
50	0x3dd54279	0.10413069
51	0x3d62d58f	0.055379447
52	0xbbf327c1	-0.0074205105
53	0x3dd353ee	0.10318743
54	0x3d31ab77	0.043376412
55	0xbd64d9c3	-0.055871736
56	0xbd730571	-0.05933136
57	0x3d96a95c	0.073565215
58	0x3de6a962	0.11262776
59	0x3dfa0c8e	0.12209426
60	0x3d5da0cc	0.054108426
61	0xbcfaa9be	-0.030598518
62	0xbd10c75e	-0.03534638
63	0x3d241b64	0.040065184
64	0x3dbf11b2	0.09329547
65	0xbcfc1002	-0.030769352
66	0x3d8731cd	0.066012956
67	0x3dc77fe5	0.09741191
68	0x3d93db56	0.072195694
69	0x3b7fb0e2	0.0039015342
70	0xbc104a92	-0.008806841
71	0xbd36eb70	-0.044658124
72	0x3d0968f9	0.033547375
73	0xbd787367	-0.06065693
74	0x3da2699f	0.07930302
75	0x3d5a2e16	0.053266607
76	0x3d93ef14	0.07223335
77	0x3d9e8d17	0.077417545
78	0xbd148c60	-0.036266685
79	0x3c77527d	0.01509535
80	0xbc3d4a3f	-0.011553346
81	0x3d955975	0.07292453
82	0x3d94fcd3	0.07274785
83	0x3d719126	0.058976315
84	0xbc58900a	-0.013217935
85	0x3d758ea4	0.059950486
86	0xbce1d5f5	-0.027567843
87	0xbd01333c	-0.031543
88	0xbdc30573	-0.09522524
89	0x3dbcaf50	0.09213126
90	0xbdd35eee	-0.10320841
91	0xbcd7174d	-0.026256228
92	0x3a149f7b	0.00056695164
93	0x3c2736cb	0.010205935
94	0x3de5120d	0.111850835
95	0x3db4f026	0.08834867

layers.1.lin_neigh.weight f4 [96, 96]
0	0xbd2b542b	-0.041828316
1	0xbb9cc407	-0.0047841105
2	0xbda893c7	-0.08231311
3	0xbd5b2bb4	-0.053508475
4	0xbd114392	-0.03546483
5	0xbc98044b	-0.018556735
6	0x3d8ee3dc	0.069770545
7	0xbcbb9582	-0.02289844
8	0x3ce6cb7b	0.028173199
9	0xbda73c85	-0.0816584
10	0xbd0ed514	-0.034871176
11	0x3c545a1c	0.012960937
12	0xbd106c2d	-0.035259414
13	0x3dcd4b58	0.10024136
14	0xbc62c39f	-0.013840585
15	0x3dcdf6a8	0.100568116
16	0x3d2f86a9	0.04285303
17	0x3d5ccec2	0.053908117
18	0xbdc90261	-0.09814907
19	0x3d5cc3cb	0.05389766
20	0xbd98ad50	-0.07454932
21	0x3dca8ab0	0.09889734
22	0x3d95df3e	0.07317971
23	0xbd453df4	-0.048154786
24	0x3cd9b2d0	0.026574522
25	0x3d0a8c04	0.033824936
26	0xbdab9337	-0.083776884
27	0x3c934c49	0.017980712
28	0xbb8d295e	-0.00430791
29	0x3cd112cb	0.025521656
30	0x3d9ddfe2	0.07708718
31	0xbd5168bf	-0.051125284
32	0xbdc2a1a8	-0.0950349
33	0xbd8b33bc	-0.06796977
34	0x3c3e6c54	0.011622507
35	0xbc8ba3fb	-0.017045965
36	0xbd7abe67	-0.061216738
37	0xbd14034a	-0.03613595
38	0x3d4b44c2	0.04962612
39	0xbd658145	-0.056031484
40	0x3d839e7f	0.06426715
41	0x3d422777	0.047400918
42	0xbd0f6b91	-0.035014693
43	0xbc78e0dd	-0.01519033
44	0x3cbba869	0.022907453
45	0x3d7083bc	0.05871938
46	0xbc262295	-0.010140081
47	0xbd78c74e	-0.060736947
48	0x3db21e22	0.08697154
49	0xbc91953d	-0.017771358
50	0x3d0bc5b0	0.034124076
51	0x3dc08c93	0.094018124
52	0x3c97b5cf	0.01851931
53	0x3dc88821	0.097915895
54	0xbcb97c85	-0.022642383
55	0xbd618d50	-0.055066407
56	0x3d416b66	0.047221564
57	0x3dc59702	0.09647943
58	0x3dcff3c7	0.10153919
59	0x3dce02d8	0.10059136
60	0x3cf2bc2b	0.029630741
61	0xbdc4367c	-0.095807046
62	0x3db2e513	0.08735099
63	0x3dc5b7f3	0.09654226
64	0xbdb90d51	-0.09035743
65	0xba5336cf	-0.00080571783
66	0xbc1d359f	-0.009595304
67	0xbc1a6be3	-0.009425136
68	0x3d644b97	0.05573615
69	0xbd2ff6d7	-0.042960014
70	0xbd459583	-0.04823829
71	0xbdacfadc	-0.08446285
72	0xbcce34eb	-0.025171718
73	0xbd6e0243	-0.058107626
74	0xbd571b71	-0.052516405
75	0x3d889d05	0.06670574
76	0xbc376960	-0.011194557
77	0xbd932064	-0.071839124
78	0xbd788d1a	-0.06068144
79	0x3cf9e58e	0.030504968
80	0xbd4345ef	-0.047674116
81	0x3dab016b	0.0834988
82	0x3d287bce	0.041133694
83	0xbd63234c	-0.055453584
84	0xbd8da344	-0.06915906
85	0xbd1b5df7	-0.03793141
86	0xbd90251e	-0.070383295
87	0x3d9003b0	0.07031953
88	0xbda4d6d6	-0.08048789
89	0x3d65bc2d	0.05608766
90	0xbd45c56d	-0.048283983
91	0x3d01d62a	0.031698383
92	0x3cb588bd	0.022159928
93	0x3d49d51c	0.049275503
94	0x3d481805	0.04885103
95	0x3d931dfc	0.071834534
96	0x3dad442f	0.084602706
97	0x3e049abc	0.12949651
98	0xbc8480ac	-0.016174637
99	0xbd7f79bf	-0.062371965
100	0xbc81fa9b	-0.015866568
101	0xbcd6f9a4	-0.026242085
102	0x3b3e3857	0.002902528
103	0xbd39678c	-0.045264766
104	0xbda3793a	-0.079821065
105	0xbccbbb26	-0.024869513
106	0x3de05ae0	0.10954833
107	0x3dc8d85e	0.09806894
108	0xbcd9e59c	-0.026598744
109	0x3dc766ad	0.09736381
110	0x3cc5a3a0	0.024125874
111	0xbc1c05f9	-0.009522908
112	0xbdc500b9	-0.096192785
113	0x3dbf2d24	0.09334782
114	0xbdaa436a	-0.083136395
115	0x3db34d49	0.08754975
116	0xbda8148b	-0.08207043
117	0x3d42546c	0.047443792
118	0xbd9e22cc	-0.07721481
119	0x3d5f58ee	0.05452817
120	0xbdab7279	-0.08371443
121	0x3d46b97e	0.048516743
122	0x3d0ce698	0.0343996
123	0x3ddb16d4	0.106977135
124	0xbb98ab72	-0.0046591097
125	0x3dacbfc9	0.084350176
126	0x3db02065	0.08599929
127	0x3db0442b	0.08606752
128	0x3da99832	0.08280982
129	0xbc93667d	-0.017993206
130	0x3c8cae3e	0.017172929
131	0xbd828173	-0.06372347
132	0x3cdfa618	0.02730088
133	0x3d83b672	0.06431283
134	0x3cae8efd	0.021308417
135	0xbd9eb42e	-0.0774921
136	0xbcfb3c30	-0.030668348
137	0x3d690423	0.05688871
138	0xbd8fc7e1	-0.07020546
139	0x3dbcf999	0.092272945
140	0xbd0a0a00	-0.033700943
141	0xbc10c0a6	-0.0088349935
142	0xbbd93857	-0.0066290307
143	0xbd891f89	-0.06695468
144	0xbda069ae	-0.07832657
145	0x3bc33a4b	0.005957877
146	0xbcf47f34	-0.029845811
147	0x3da343c3	0.07971909
148	0xbb493673	-0.003070262
149	0x3bbda6e4	0.005787717
150	0x3d7af025	0.061264176
151	0x3de9e54a	0.114206865
152	0xbda0fa6f	-0.078602664
153	0xbcb73806	-0.022365581
154	0xbc9aa20d	-0.0188761
155	0x3dc1d4f8	0.09464449
156	0x3b14c47c	0.0022700122
157	0xbc9e384b	-0.019313952
158	0xbcfc29ad	-0.030781591
159	0x3c4686cb	0.012117098
160	0xbdad3ede	-0.084592566
161	0xbdc3f39b	-0.095679484
162	0x3d5ccd71	0.05390686
163	0x3c4eae6e	0.0126148295
164	0xbdd6fd3b	-0.10497519
165	0x3c870351	0.016481074
166	0xbd3cc3d8	-0.04608521
167	0x3d5464f3	0.051854085
168	0x3da2e9fc	0.07954785
169	0x3dcd7856	0.10032718
170	0x3ce5262b	0.027972301
171	0x3de51db0	0.11187303
172	0x3dcb94ac	0.09940466
173	0xbc584921	-0.013201029
174	0xbd875821	-0.06608606
175	0xbccc152e	-0.024912443
176	0x3db4298a	0.087969854
177	0x3d88fddb	0.06689044
178	0xbd129150	-0.035783112
179	0xbc1d4778	-0.009599559
180	0x3d91762b	0.07102617
181	0x3d673d4c	0.05645494
182	0x3d9fd92a	0.07805093
183	0x3d30db47	0.04317787
184	0xbca70db6	-0.02039228
185	0xbda5fd83	-0.08104994
186	0x3d905072	0.07046594
187	0xbd73b31a	-0.059496976
188	0xbd8d0c51	-0.06887115
189	0x3bddcbd5	0.0067686834
190	0x3c2667a9	0.01015655
191	0xbd89b1de	-0.067233786
192	0x3dabbd30	0.08385694
193	0x3db04b16	0.086080715
194	0xb986e8f9	-0.0002573205
195	0xbc5ddf6c	-0.013542037
196	0xbc6a80b6	-0.014312914
197	0x3da01955	0.07817332
198	0x3d9bfbd1	0.076163895
199	0xbdb93f3f	-0.09045266
200	0xbcf11d96	-0.029433053
201	0xbbaed0cb	-0.0053349487
202	0xbd7ad0c5	-0.061234254
203	0xbd66c6f8	-0.056342095
204	0x3d51ffc9	0.051269326
205	0x3be1db12	0.0068925703
206	0xbd8785fc	-0.06617352
207	0x3dc61cc7	0.096734576
208	0xbd6defef	-0.058090147
209	0xbdaad2f4	-0.08341017
210	0x3ccac750	0.024753243
211	0xbcc0ef62	-0.023551647
212	0x3dca2c1f	0.09871697
213	0xbcec6931	-0.028858753
214	0xbca302d5	-0.019898811
215	0x3d66ded3	0.056364845
216	0xbd0a4840	-0.03376031
217	0x3c85f887	0.016353859
218	0x3d114e36	0.03547498
219	0x3defe6b7	0.11713927
220	0xbdc66d3d	-0.09688804
221	0x3da10f22	0.078642145
222	0xbd867824	-0.06565884
223	0x3d925eae	0.07146965
224	0xbd4553c4	-0.04817559
225	0x3aef397c	0.0018251385
226	0xbd1f6494	-0.03891428
227	0x3dd31c69	0.10308153
228	0x3d83c7bd	0.064345814
229	0x3cc636b3	0.024196004
230	0x3dcef7fd	0.10105894
231	0xbd665bad	-0.056239773
232	0xbcd44b16	-0.02591471
233	0x3dbf9d2d	0.09356151
234	0x3dadd3ae	0.0848764
235	0x3d575ae6	0.052576922
236	0xbc6efb7f	-0.0145863285
237	0xbcd0d0ba	-0.025490154
238	0x3dff9682	0.12479879
239	0xbced2d25	-0.02895219
240	0xbdb40de1	-0.0879171
241	0x3dc6e8de	0.09712385
242	0x3aab7cfb	0.0013083512
243	0xbda5e02e	-0.080993995
244	0xbd184570	-0.037175596
245	0xbd7564d8	-0.059910625
246	0xbb05a588	-0.0020392854
247	0x3d18f0c3	0.037338983
248	0xbcbb9f46	-0.022903096
249	0x3da841ab	0.0821565
250	0xbd625d9c	-0.055265054
251	0x3df4860f	0.11939632
252	0xbd72f3ae	-0.059314422
253	0xbd8cafec	-0.06869492
254	0x3caaff70	0.020873755
255	0x3e001883	0.1250935

net.0.weight f4 [96, 96, 3]
0	0xbcb5c1c8	-0.022187129
1	0xbd0bcc25	-0.034130234
2	0x3cc1f6fb	0.02367734
3	0x3cc78026	0.024353098
4	0xba973479	-0.0011536024
5	0xbd84a581	-0.0647688
6	0x3d52067b	0.05127571
7	0x3cebeb56	0.02879874
8	0xbd48c50b	-0.04901604
9	0xbc0337ad	-0.00800888
10	0x3d0f9813	0.03505714
11	0xbd8e8f62	-0.06960942
12	0xbcecd34b	-0.028909346
13	0x3d934d00	0.07192421
14	0xbc97cf5f	-0.0185315
15	0x3d5ebf74	0.054381803
16	0x3cc2d420	0.02378279
17	0xbb3f8acc	-0.0029227016
18	0xbcc012dc	-0.023446493
19	0x3d95bce2	0.07311417
20	0xbd6aa4bb	-0.057286005
21	0x3bec3392	0.007208296
22	0x3ba0fe73	0.004913145
23	0xbc9553de	-0.018228468
24	0xbc574d02	-0.013140919
25	0x3d803e50	0.06261885
26	0xbb5ca389	-0.003366681
27	0x3c88b3ce	0.0166873
28	0xbcf52938	-0.029926881
29	0xbcefe661	-0.029284658
30	0x3c878b23	0.016545838
31	0x3d50e8e3	0.051003348
32	0xbcae5637	-0.021281345
33	0xbd5a5ccb	-0.05331115
34	0xbd0d89ee	-0.034555368
35	0x3d507d8f	0.050900992
36	0xbc9524da	-0.018206049
37	0xbd028f20	-0.031874776
38	0xbc5dcc9f	-0.013537555
39	0x3cfa9208	0.030587211
40	0x3c9e172b	0.019298157
41	0xbcd04c3d	-0.025426978
42	0xbc7d0311	-0.015442626
43	0xbd062e47	-0.032758977
44	0x3d5ce01c	0.053924665
45	0xbd0dff2c	-0.03466718
46	0xbccc8f9b	-0.02497082
47	0x3ce33e3d	0.027739638
48	0xbd5029d7	-0.05082115
49	0x3da9fb22	0.08299853
50	0x3cc1846e	0.023622718
51	0x3d4c6170	0.04989761
52	0x3bf546d1	0.0074852486
53	0x3d43b9aa	0.047784485
54	0x3d206b80	0.03916502
55	0x3dc19a8f	0.09453308
56	0xbc560e0b	-0.013064872
57	0xbbff7586	-0.0077959923
58	0x3dc4e05d	0.096131064
59	0xbcb6e3e4	-0.022325464
60	0x3b562d0f	0.0032680666
61	0x3d5a2bf5	0.053264577
62	0x3cfeb222	0.0310908
63	0xbb87540f	-0.0041298936
64	0xbd040a6c	-0.0322365
65	0x3d249c79	0.040188286
66	0xbc789464	-0.015172098
67	0x3c042de3	0.008067581
68	0xbbb7911e	-0.005602016
69	0x3c40b9f0	0.011763081
70	0xbd517bb0	-0.05114335
71	0xbd1f6433	-0.038913917
72	0xbccd0242	-0.02502549
73	0x3d2f9f56	0.042876564
74	0x3d4c3b21	0.049861077
75	0xbd24b568	-0.040212065
76	0x3ac79d7d	0.001522943
77	0x3d46b1b6	0.048509322
78	0x3ca3756d	0.019953454
79	0x3c95617c	0.01823496
80	0xbbe50273	-0.0069888174
81	0xbcfe8137	-0.031067474
82	0x3cd10d5a	0.025519062
83	0xbd29a328	-0.041415364
84	0x3bae4051	0.0053177257
85	0x3d1704c5	0.036869783
86	0x3d59ecaf	0.053204235
87	0x3d101a27	0.03518119
88	0x3d25a857	0.040443745
89	0x3d0fef7a	0.035140492
90	0x3d810b20	0.0630095
91	0x3afcce19	0.0019287496
92	0xbd50410d	-0.050843287
93	0x3b8eada8	0.0043541975
94	0xbc8ffdad	-0.017577017
95	0x3c624a85	0.013811712
96	0x3ce03c48	0.027372494
97	0x3d6f51e4	0.058427706
98	0xba297c36	-0.0006465347
99	0x3d3b94c0	0.045796156
100	0x3a898467	0.001049173
101	0x3cd6a97b	0.026203861
102	0xbcd0af2c	-0.025474153
103	0xbd338ede	-0.04383742
104	0xbba47e25	-0.0050199204
105	0x3d5423d8	0.051791996
106	0xbcc7d9cb	-0.024395844
107	0xbd4521de	-0.048128
108	0x3ae26713	0.001727315
109	0xbd47f4bc	-0.04881738
110	0x3c724db5	0.014789035
111	0x3d04c837	0.032417502
112	0x3d8203a0	0.06348348
113	0x3baf085e	0.0053415736
114	0x3d7e326c	0.062059805
115	0xbbe5532b	-0.00699844
116	0xbcce120c	-0.02515509
117	0x3d30a1e0	0.043123126
118	0xbd5dbaf1	-0.05413336
119	0xbc2df00f	-0.010616316
120	0x3cc316de	0.023814615
121	0x3d148480	0.036259174
122	0x3c015bb2	0.007895397
123	0xbce8d211	-0.02842048
124	0x3d3f7014	0.046737745
125	0xbd380376	-0.044925176
126	0x3c77ca83	0.015123966
127	0x3c94c098	0.018158242
128	0x3d2f7c4e	0.042843156
129	0xbd3bfa0a	-0.045892753
130	0xbbf4afb2	-0.0074672336
131	0x3d3fd737	0.046836104
132	0x3d73985a	0.059471466
133	0x3cc7ad99	0.02437477
134	0x3ceacecd	0.028663063
135	0xbb822611	-0.003971823
136	0x3dbc4863	0.09193494
137	0xbd0ab289	-0.03386167
138	0xbca5052f	-0.020144073
139	0x3d43381a	0.047660924
140	0xbcade34a	-0.021226544
141	0x3d1c6ca8	0.03818956
142	0xbc4300a5	-0.011902009
143	0x3d0ca5eb	0.03433792
144	0xbd379d96	-0.04482802
145	0xbb05b9e9	-0.0020405
146	0xbd06cb30	-0.03290862
147	0x3cbc907d	0.023018116
148	0x3dc734bc	0.09726855
149	0x3ca543e8	0.020173982
150	0xbd34866e	-0.044073515
151	0xbcc15114	-0.023598231
152	0x3cb6dc68	0.022321895
153	0x3d2d638b	0.04233126
154	0x3daa1432	0.08304633
155	0xbd360b63	-0.044444453
156	0xbd15b61a	-0.03655062
157	0x3db41670	0.08793342
158	0x3d2ef2aa	0.04271189
159	0x3c4f26a7	0.012643493
160	0xbcf88ab2	-0.030339573
161	0x3d5dec91	0.054180685
162	0x3cf7a9cf	0.030232338
163	0x3c32ab90	0.0109051615
164	0xbccf4bed	-0.025304759
165	0x3a53c204	0.0008077922
166	0x3db0b105	0.08627514
167	0x3be9a159	0.00712983
168	0x3d54f66d	0.051992822
169	0x3d8b6f9a	0.06808396
170	0xbd227349	-0.039660726
171	0xbd66b024	-0.056320325
172	0x3d8634fe	0.06553076
173	0xbce121ed	-0.027481997
174	0x3ca4ac1b	0.020101598
175	0x3d8a3e41	0.06750155
176	0xbc92b267	-0.017907334
177	0xbcd78bce	-0.026311781
178	0x3da9b51b	0.08286496
179	0xbd3dc64a	-0.04633168
180	0x3d585093	0.052811217
181	0x3d9dad46	0.07699065
182	0x3d4e9137	0.050431456
183	0x3d6af078	0.057358235
184	0x3d053a8d	0.03252654
185	0x3c94ff9e	0.018188294
186	0xbd4b5a3c	-0.0496466
187	0x3d0769f1	0.033060018
188	0xbd4264b2	-0.04745931
189	0xbd1a8a8a	-0.037729777
190	0x3d8275a9	0.06370098
191	0xbd292e26	-0.041303776
192	0xb9cdc322	-0.00039246032
193	0xbc8a4f60	-0.016883552
194	0xbd02f073	-0.03196759
195	0x3c27105f	0.010196774
196	0x3d4ee197	0.050508108
197	0x3d16e7bb	0.03684209
198	0x3ae6b319	0.0017600983
199	0xbbf0778c	-0.00733847
200	0xbd3a21c1	-0.045442346
201	0xbcf80dbd	-0.030279988
202	0x3db08151	0.08618415
203	0xbccb0345	-0.024781832
204	0x3cf132b0	0.029443115
205	0x3d7b10f8	0.06129548
206	0xbd0f6dfd	-0.035017002
207	0xbd20a92f	-0.039223846
208	0x3cb729a7	0.022358729
209	0xbd1c0d4b	-0.038098615
210	0x3d411425	0.047138352
211	0xbd4fec92	-0.05076272
212	0xbc9c067a	-0.019046057
213	0xbd1555e0	-0.03645885
214	0x3d07e7e8	0.033180147
215	0x3d469668	0.048483282
216	0xbd36f8ae	-0.044670753
217	0x3d226226	0.039644383
218	0xbc19c87e	-0.00938618
219	0x3c0a750f	0.0084507605
220	0x3d33f486	0.043934368
221	0xbd03bdaf	-0.03216332
222	0x3ce1fbc1	0.027585866
223	0x3d3ed440	0.046589136
224	0x3d007290	0.031359255
225	0x3d4dd970	0.050256193
226	0x3d36d82d	0.044639755
227	0xbd1ba6c6	-0.038000844
228	0xba309dfc	-0.00067374087
229	0xbc44a172	-0.012001382
230	0x3c535149	0.012897798
231	0x3c68be74	0.014205564
232	0x3b663be1	0.0035130905
233	0xbd63309e	-0.055466287
234	0xbd12d63e	-0.03584885
235	0x3d0f9012	0.035049506
236	0x3d48e238	0.049043864
237	0xbd600afa	-0.054697968
238	0xbd9bdee2	-0.07610871
239	0x3d3aeff8	0.04563901
240	0x3ce9405d	0.028473074
241	0x3c06b421	0.008221657
242	0xbbcafe91	-0.0061948975
243	0x3d4f8136	0.050660335
244	0x3c3858c9	0.011251637
245	0x3c94d606	0.01816846
246	0xbb8e5c29	-0.0043444824
247	0x3d9ce40b	0.07660683
248	0x3ceb87b6	0.028751235
249	0x3c4e16bf	0.012578665
250	0x3d1e61c5	0.03866746
251	0x3bf3267b	0.0074203587
252	0xbc8a2192	-0.01686171
253	0xbd57c09d	-0.052673925
254	0x3d515ce5	0.05111398
255	0x3cc24a29	0.023717003
