outputs/models/nowcast_greedy8_s1.pt (torch, 197154 bytes, 11 tensors)

in_lin.weight f4 [96, 15]
0	0x3db8ba02	0.09019853
1	0xbdc2a297	-0.09503668
2	0xbdb79108	-0.089632094
3	0x3e0fbb4a	0.14036289
4	0xbe78e96e	-0.24307796
5	0x3e1e9009	0.15484633
6	0xbcfb019d	-0.030640418
7	0x3ec336f8	0.38127875
8	0x3d7e4383	0.062076103
9	0xbc350cac	-0.0110503845
10	0x3c221685	0.009893064
11	0x3e8032c2	0.25038725
12	0x3d58da98	0.052942842
13	0xbd7644ed	-0.060124326
14	0xbcad5824	-0.021160193
15	0x3b945348	0.0045265295
16	0xbc3340a1	-0.010940702
17	0x3d3b0ed7	0.04566845
18	0x3e356057	0.17712532
19	0x3da48dfd	0.080348946
20	0xbdc4ecd9	-0.096154876
21	0xbe55cd8d	-0.20879193
22	0x3e71b6d8	0.23604906
23	0xbd7839a6	-0.060601853
24	0xbd2b7a15	-0.041864473
25	0xbd446466	-0.04794731
26	0x3ed79f3f	0.42113683
27	0x3d8d7a32	0.069080725
28	0xbe34998b	-0.17636697
29	0x3db2c75d	0.08729432
30	0x3d0a805d	0.033813823
31	0x3df0080c	0.11720285
32	0x3e075a7e	0.13218114
33	0xbeb9dc8e	-0.36301082
34	0xbe7b63be	-0.24549767
35	0xbdff0d94	-0.12453762
36	0x3e028561	0.12746193
37	0x3d4407a4	0.04785885
38	0x3e333a69	0.1750275
39	0xbd7816f5	-0.06056877
40	0x3e956002	0.2917481
41	0xbd15d24c	-0.036577508
42	0x3d116963	0.035500895
43	0x3db96702	0.0905285
44	0xbcf76c75	-0.030203084
45	0x3d9f4b82	0.07778074
46	0xbd2de2de	-0.042452686
47	0x3caf6d6d	0.021414483
48	0x3c9e386e	0.019314017
49	0xbce7e517	-0.02830748
50	0xbe7e2fd5	-0.24822934
51	0xbdeedb89	-0.11662967
52	0x3eb901ec	0.3613428
53	0xba70a856	-0.00091803574
54	0x3e8ed77e	0.27898782
55	0x3e320ed3	0.17388467
56	0x3e50b264	0.2038055
57	0xbdbef923	-0.09324863
58	0x3d4c32ca	0.049853124
59	0xbdc67d4e	-0.09691869
60	0xbdfb7694	-0.12278476
61	0xbbad792a	-0.005293985
62	0x3e496a5b	0.19669478
63	0x3d655dd3	0.05599768
64	0xbe1435a4	-0.14473587
65	0xbd2e159d	-0.04250108
66	0xbe38d85a	-0.18051282
67	0x3d5fc464	0.054630652
68	0xbe1a3e83	-0.15062909
69	0xbe23af64	-0.15984875
70	0x3e2ca3f1	0.16859414
71	0xbd3f04ee	-0.04663556
72	0x3c1ee02f	0.009697004
73	0x3dc45bb2	0.09587802
74	0x3e1ea7b2	0.15493658
75	0x3c495603	0.012288573
76	0x3e295363	0.16535716
77	0x3daab812	0.0833589
78	0xbe31d9cc	-0.17368239
79	0x3e05157d	0.12996478
80	0xbe39e719	-0.18154563
81	0xbe7c79ee	-0.24655887
82	0x3dda7a64	0.106678754
83	0x3d414b2b	0.047190826
84	0x3e78b7a4	0.24288803
85	0xbd6d72d6	-0.057970844
86	0xbe285e1e	-0.16442153
87	0x3d7123a6	0.058871888
88	0xbd2a58ff	-0.04158878
89	0xbd53863e	-0.051641695
90	0x3b934f3a	0.0044955285
91	0xbe4fc2a3	-0.20289092
92	0xbcd98553	-0.026552832
93	0x3d691abd	0.056910265
94	0xbe310745	-0.1728793
95	0xbdfae596	-0.12250821
96	0xb9a24bb0	-0.0003095544
97	0x3d4d5fb2	0.05014009
98	0xbda748ab	-0.08168157
99	0xbd317eac	-0.043333694
100	0x3e8b5772	0.27215153
101	0xbd8fb370	-0.07016647
102	0x3d4600cd	0.048340607
103	0x3df1da95	0.11809269
104	0xbcfdf78a	-0.031001825
105	0xbe61251c	-0.21986812
106	0x3e23d669	0.1599976
107	0x3d14934a	0.03627328
108	0x3db6ba93	0.08922305
109	0x3d5b2a12	0.05350692
110	0x3daa1241	0.08304263
111	0x3dceba45	0.10094122
112	0x3f048aaf	0.51774114
113	0xbe1ff466	-0.15620574
114	0x3ccaa7ea	0.02473827
115	0x3da0c280	0.07849598
116	0x3ee64141	0.4497166
117	0x3d60fa37	0.054926123
118	0xbd96acb8	-0.07357162
119	0xbdc00dc7	-0.09377628
120	0xbe41c26a	-0.1892182
121	0xbd34e1bd	-0.044160593
122	0x3e652403	0.22377019
123	0xbe754f13	-0.23955946
124	0x3e0ce433	0.13758926
125	0xbe125701	-0.14291002
126	0xbea903d6	-0.3301074
127	0xbe102a3b	-0.1407861
128	0x3d80cb7f	0.06288814
129	0x3e1980ba	0.14990512
130	0xbe8142c0	-0.2524624
131	0xbc3416ba	-0.010991747
132	0x3e46c27c	0.19410127
133	0x3e6cbf0f	0.23119758
134	0x3e834a07	0.25642416
135	0x3d8e6f4f	0.06954824
136	0x3e45a8ca	0.19302669
137	0xbd3592c7	-0.04432943
138	0xbe1535af	-0.1457126
139	0xbe5e074c	-0.21682471
140	0xbdf24d96	-0.118312046
141	0xbd8164db	-0.06318065
142	0x3d858e1f	0.06521248
143	0x3dbf3f30	0.09338224
144	0x3d3faa60	0.04679334
145	0xbe26bbd8	-0.16282594
146	0x3ea1df43	0.31615648
147	0x3e1f5d6e	0.15562984
148	0x3cc74e8b	0.024329444
149	0x3c78084b	0.015138696
150	0xbd68509f	-0.05671751
151	0x3e4a1532	0.19734648
152	0x3d562154	0.052277878
153	0xbd82a05b	-0.06378242
154	0xbe798ecc	-0.24370879
155	0xbe2a2b59	-0.16618098
156	0xbe4f2896	-0.20230326
157	0x3e219be8	0.1578213
158	0x3e576277	0.21033655
159	0xbd8cbdd0	-0.06872141
160	0xbe8b0e99	-0.27159575
161	0x3eb7e97e	0.35920328
162	0x3d91a772	0.07112016
163	0x3e03347f	0.12812994
164	0xbe1c0ede	-0.15240046
165	0x3c36e1a4	0.011162195
166	0xbd5ce4cb	-0.05392913
167	0xbdd1749a	-0.10227318
168	0xbe2c2b84	-0.16813475
169	0xbdf100a0	-0.11767697
170	0xbda1f249	-0.0790754
171	0x3db28664	0.08717039
172	0x3e88f215	0.26747194
173	0x3dd48854	0.10377565
174	0x3e8b3f44	0.27196705
175	0x3e62a3c9	0.22132792
176	0x3ec383ac	0.38186395
177	0xbda88930	-0.082292914
178	0xbdc07948	-0.093981326
179	0x3dbe9088	0.09304911
180	0x3dc1c08c	0.094605535
181	0x3da58326	0.08081655
182	0xbd878ab3	-0.06618252
183	0x3d4fb550	0.050710022
184	0xbe2a8830	-0.16653514
185	0x3e72f46b	0.2372605
186	0xbdec67b5	-0.11543218
187	0xbe85665c	-0.26054657
188	0x3e7724a6	0.24135074
189	0xbd8407fa	-0.06446834
190	0x3e888336	0.26662606
191	0xbe2be94f	-0.16788219
192	0xbe4fecac	-0.20305127
193	0xbe327e47	-0.17430983
194	0xbc4628f0	-0.012094721
195	0xbe442af9	-0.19157018
196	0x3d7a6a23	0.061136376
197	0x3e623952	0.22092178
198	0x3e4636b8	0.19356811
199	0xbe390f07	-0.18072139
200	0x3d801162	0.062533155
201	0xbe8005e4	-0.25004494
202	0x3f05f8fb	0.5233304
203	0xbd686cc0	-0.056744337
204	0x3e387c8c	0.18016261
205	0xbdac5fd4	-0.08416715
206	0x3e8e6bc0	0.27816582
207	0x3cae6176	0.021286707
208	0xbc046196	-0.008079907
209	0x3d682302	0.05667401
210	0x3d7862a0	0.06064093
211	0xbd09009e	-0.033447854
212	0xbe31a3d6	-0.17347655
213	0x3d9ae673	0.07563486
214	0x3e66845d	0.2251143
215	0x3e5a8d0d	0.21342869
216	0x3d9eefe9	0.07760603
217	0x3d1fe2d1	0.03903467
218	0xbdca9067	-0.09890824
219	0x3e38c41b	0.18043558
220	0xbead3426	-0.3382885
221	0x3ee9ced6	0.45665616
222	0xbe6a94ec	-0.22908372
223	0xbe1a37c1	-0.15060331
224	0x3e1848a8	0.14871466
225	0xbe2f8e4f	-0.1714413
226	0xbddac5b2	-0.10682239
227	0x3e5f52e4	0.21808964
228	0x3e203a76	0.15647301
229	0x3e7a0dc0	0.24419308
230	0xbd569a1b	-0.05239306
231	0xbe79c8c8	-0.24392998
232	0x3e80a836	0.25128335
233	0xbdcff773	-0.10154619
234	0xbe21505e	-0.15753314
235	0x3bbd8ee3	0.0057848557
236	0xbe374772	-0.17898348
237	0x3e30599b	0.17221682
238	0x3df8b1c9	0.12143285
239	0xbe516019	-0.20446815
240	0xbdc1893f	-0.09450006
241	0xbd84ca99	-0.06483955
242	0x3e67079f	0.22561501
243	0xbd4b97e8	-0.049705416
244	0xbe0611b1	-0.13092686
245	0x3bc16e6a	0.005903055
246	0xbe8d54da	-0.276038
247	0xbd02b557	-0.03191122
248	0xbda000dc	-0.07812664
249	0x3e8ae71b	0.27129444
250	0x3e808b5a	0.25106317
251	0x3d40c844	0.04706599
252	0xbdec0515	-0.11524407
253	0x3daf266b	0.085522495
254	0xbd231473	-0.039814424
255	0xbe55da1f	-0.20883988

in_lin.bias f4 [96]
0	0x3dc96fd5	0.098357834
1	0xbcc788e3	-0.024357265
2	0xbc0f7c53	-0.008757669
3	0xbe2f3181	-0.17108728
4	0xbeca0509	-0.39456967
5	0xbc77dd75	-0.015128483
6	0xbe5053cf	-0.2034447
7	0xbbed26ed	-0.0072373063
8	0xbdf235ca	-0.11826666
9	0xbde8c1b0	-0.11365068
10	0xbd1050bf	-0.035233255
11	0x3d47f9b8	0.048822135
12	0xbcd26d79	-0.025686966
13	0xbd06e10a	-0.032929458
14	0xbddefa2b	-0.108875595
15	0x3bc095e5	0.005877244
16	0x3c9cc6ad	0.019137705
17	0xbe182ccb	-0.14860837
18	0xbdbebe7f	-0.09313678
19	0xbe3e8f2f	-0.18609308
20	0xbc29f431	-0.010373161
21	0xbc25427f	-0.010086655
22	0xbc21cdd9	-0.009875738
23	0x3e29071a	0.16506615
24	0xbe62112d	-0.22076865
25	0xbda2fd11	-0.07958425
26	0xbdaae70b	-0.08344849
27	0xbbc2d53a	-0.0059458287
28	0xbd4b6fd5	-0.0496672
29	0xbea680c4	-0.32520115
30	0xbe64639d	-0.22303624
31	0xba9b3371	-0.0011840892
32	0x3e0ecd08	0.139454
33	0xbc617161	-0.013759942
34	0x3e54afd4	0.20770198
35	0xbddf6efa	-0.10909839
36	0x3c639a5c	0.013891783
37	0xbe4e53af	-0.2014911
38	0xbe49451a	-0.19655266
39	0xbbd514b9	-0.0065027145
40	0xbe000525	-0.12501962
41	0x3d7d837d	0.061892975
42	0x3cb156fa	0.021647919
43	0xbeac793b	-0.33686242
44	0xbc359e9e	-0.011085181
45	0xbe00fe6f	-0.12597059
46	0xbe33c090	-0.17553926
47	0xbe5b7cbe	-0.21434304
48	0xbd996156	-0.074892685
49	0x3d89afb0	0.06722963
50	0xbd80c2f1	-0.06287182
51	0x3cf06b5d	0.02934807
52	0xba71f186	-0.000922941
53	0xbc2e5033	-0.010639238
54	0x3c01a3bb	0.007912572
55	0x3db494d2	0.08817448
56	0xbd18fe0e	-0.03735166
57	0xbe5d419a	-0.21607056
58	0xbd8e74cf	-0.06955873
59	0xbe1e61ae	-0.1546695
60	0xbdab925b	-0.083775245
61	0xbe4c285a	-0.19937268
62	0xbd02d7f2	-0.031944223
63	0xbd88ab05	-0.066732444
64	0xb79f9184	-1.9022038e-05
65	0xbdec52ea	-0.11539252
66	0xbe1f84af	-0.15577959
67	0x3dc9504a	0.09829767
68	0xbc2ebd40	-0.010665238
69	0x3be8ce50	0.0071046725
70	0xbe060dfc	-0.13091272
71	0x3d0fc6ce	0.035101704
72	0xbe8acdcd	-0.2711014
73	0x3d2504e3	0.040287863
74	0x3e16aa2c	0.14713353
75	0xbd798f84	-0.060927883
76	0x3e342507	0.1759225
77	0x3e9291de	0.28626913
78	0xbd6d055b	-0.057866435
79	0xbdc191a3	-0.09451606
80	0xbc8fa6e8	-0.017535642
81	0xbd7eb6ad	-0.062185932
82	0xbea4ea8a	-0.3221019
83	0xbc9db3d6	-0.019250792
84	0xbe5d0ec9	-0.21587671
85	0x3e1f38ad	0.15548964
86	0xbd6bb624	-0.05754675
87	0x3d0b10f6	0.033951722
88	0x3db843f3	0.08997335
89	0xbe4f8761	-0.20266487
90	0x3d21c910	0.03949839
91	0xbd2cbd59	-0.042172763
92	0xbd03410a	-0.032044448
93	0xbbe90816	-0.0071115596
94	0xbbe535a6	-0.006994921
95	0x3c1eb788	0.009687312

layers.0.lin_self.weight f4 [96, 96]
0	0x3db25e19	0.08709354
1	0x3e0b19bf	0.1358404
2	0x3d3af5b3	0.045644473
3	0x3e17096f	0.14749692
4	0x3d228ff4	0.039688066
5	0xbd312dd1	-0.043256585
6	0xbdbf8064	-0.093506604
7	0x3c7212f1	0.014775024
8	0xbe23c14d	-0.15991707
9	0x3e284122	0.16431096
10	0xbbd12432	-0.0063824886
11	0x3d33a51a	0.043858625
12	0xbde22bab	-0.11043485
13	0x3e02da2a	0.12778535
14	0x3d266e43	0.040632498
15	0xbdce8b8c	-0.1008521
16	0xbcec17ad	-0.028819883
17	0x3dd196bf	0.10233831
18	0x3d12c85c	0.03583561
19	0xbe39c487	-0.18141375
20	0x3e4926cb	0.19643705
21	0xbe363b69	-0.177961
22	0xbad69394	-0.0016370886
23	0x3d8bbd17	0.068231754
24	0xbd891b29	-0.066946335
25	0x3e4f0ff2	0.20220926
26	0x3e310e40	0.17290592
27	0xbe876d05	-0.26450363
28	0xbe8f19d4	-0.27949393
29	0xbdc84c5c	-0.097801894
30	0xbe8576c2	-0.26067168
31	0xbbafaf68	-0.005361486
32	0x3e3274a0	0.17427301
33	0xbe1887ca	-0.1489555
34	0xbe8c761f	-0.2743387
35	0x3e243ac2	0.1603804
36	0xbe37ca10	-0.17948174
37	0xbd9b8c6e	-0.07595144
38	0xbdc7ec21	-0.09761835
39	0x3e4a26ff	0.19741438
40	0x3ddcf12b	0.10788187
41	0x3ce3bf49	0.027801173
42	0x3d66a0c4	0.05630566
43	0x3d3b344a	0.045704164
44	0xbe7e60bb	-0.24841587
45	0xbc55eaec	-0.013056498
46	0x3dd834fc	0.10556981
47	0x3d5b6347	0.053561475
48	0x3e2d79c6	0.16940984
49	0x3e5e94dd	0.21736474
50	0xbd22fadd	-0.039790023
51	0xbe1a8934	-0.15091401
52	0xbd9b82aa	-0.075932816
53	0x3e373e66	0.17894897
54	0x3e7bfecd	0.24608918
55	0x3e6f1c4d	0.2335064
56	0xbc1b67c1	-0.009485186
57	0xbdc100dc	-0.09423992
58	0xbe735a94	-0.23765022
59	0x3d915275	0.070958056
60	0xbd27d8c8	-0.040978223
61	0x3d39ee58	0.045393318
62	0x3e7a197d	0.24423786
63	0x3e0239a8	0.12717307
64	0xbcddf660	-0.02709502
65	0x39aec57e	0.0003333501
66	0xbd2a20d6	-0.04153522
67	0x3e4dff91	0.20117022
68	0xbd5712fa	-0.05250833
69	0x3d82faa0	0.06395459
70	0x3dc5fd88	0.09667498
71	0xbda78a96	-0.0818073
72	0xbcc35529	-0.023844318
73	0xbda2d6a0	-0.07951093
74	0x3e1e9a87	0.15488635
75	0x3dc799a4	0.097461015
76	0xbe2d791d	-0.16940732
77	0xbe797eb7	-0.24364744
78	0x3e83cd59	0.25742605
79	0x3de9b9af	0.114123695
80	0x3e05c70d	0.13064213
81	0x3dbc3fd5	0.091918625
82	0xbe715b65	-0.2357002
83	0xbca47a6f	-0.020077912
84	0xbb040340	-0.0020143539
85	0x3de8df66	0.11370735
86	0xbd16dd51	-0.036832158
87	0x3e0a6006	0.13513193
88	0xbe149ca9	-0.14512886
89	0xbd815395	-0.0631477
90	0x3e7b2211	0.24524714
91	0x3d93e344	0.07221082
92	0x3e013386	0.12617311
93	0xbe0a666d	-0.13515635
94	0xbdeb9a46	-0.11504035
95	0x3df622ad	0.12018333
96	0x3b1229cf	0.0022302752
97	0x3b8f3706	0.004370573
98	0xbdd6c07f	-0.104859345
99	0x3cb16e99	0.021659182
100	0xbab27ed3	-0.0013618119
101	0x3d94ad22	0.07259585
102	0xbdca3736	-0.09873812
103	0x3db7d467	0.089760594
104	0xbd593b87	-0.053035285
105	0x3d65cc22	0.05610288
106	0x3d8cd004	0.06875613
107	0xbc86ff50	-0.016479164
108	0xbd5ba25a	-0.053621627
109	0xbc979544	-0.018503793
110	0xbd825bf0	-0.06365192
111	0x3bc1efbc	0.005918471
112	0x3d288c0f	0.041149195
113	0x3c9aa2ae	0.0188764
114	0xbd8289d3	-0.06373944
115	0x3d533b6c	0.05157034
116	0x3dc0c8f8	0.09413332
117	0xbd1461b3	-0.036225986
118	0x3d446f2c	0.047957584
119	0xbc21649b	-0.009850646
120	0x3d2880d4	0.041138485
121	0xbd9ca67c	-0.07648942
122	0xbdbca73a	-0.092115834
123	0xbc05ef1c	-0.008174684
124	0xbdb8eb71	-0.09029282
125	0x3d01bea3	0.031675946
126	0x3dc1ba4b	0.09459361
127	0xbcb7cabc	-0.022435538
128	0xbbaba458	-0.005238097
129	0x3c121f41	0.008918584
130	0xbd673a3b	-0.056452017
131	0xbbab1c06	-0.0052218465
132	0x3caff399	0.021478461
133	0x3da90953	0.082537316
134	0xbdb25b5e	-0.08708833
135	0xbb1f35ca	-0.0024293535
136	0xbdaa8791	-0.083266385
137	0xbc487548	-0.012234993
138	0xbbc7f070	-0.0061016604
139	0xbd3d1599	-0.046163175
140	0x3d672b3f	0.056437727
141	0x3d85860d	0.06519709
142	0xbd2d94ac	-0.042378113
143	0xbc691fe1	-0.014228792
144	0xbd00204d	-0.031280804
145	0xbb31b05a	-0.002711317
146	0x3ce3a860	0.027790248
147	0x3db617ef	0.08891284
148	0xbdcd9fac	-0.100402206
149	0x3d0fb876	0.035088025
150	0xbd81250b	-0.063058935
151	0xbdaab161	-0.083346136
152	0x3d9db3a3	0.077002786
153	0xbcf917d9	-0.03040688
154	0xbd846ec8	-0.06466442
155	0x3cbdb770	0.023158759
156	0xbce0f30b	-0.027459642
157	0xbdc36be6	-0.09542064
158	0xbd6fa9d2	-0.058511563
159	0xbd309a9b	-0.043116193
160	0xbc47ce5b	-0.012195195
161	0xbd94e709	-0.07270629
162	0xbdc94efa	-0.09829517
163	0x3d62c0c7	0.055359628
164	0xbdc09e0c	-0.09405145
165	0xbc83a237	-0.016068561
166	0x3db36b44	0.08760694
167	0xbd33c0eb	-0.043885153
168	0xbd8a3a81	-0.0674944
169	0x3cc77bf2	0.024351094
170	0x3da9e613	0.08295836
171	0xbc81b2a6	-0.015832257
172	0xbc35b1a9	-0.011089721
173	0x3d285560	0.041097045
174	0x3bee7277	0.007276829
175	0x3ca02ac0	0.019551635
176	0x3d5082c9	0.050905976
177	0x3d25ddae	0.040494613
178	0xbd9ff95c	-0.078112334
179	0xbd3cb20b	-0.046068233
180	0x3d893184	0.066988975
181	0x3c38ebb3	0.011286664
182	0x3c97775c	0.018489532
183	0x3dbb1fbc	0.09136912
184	0x3d7c188e	0.061546855
185	0x3d26f93a	0.040765025
186	0x3db984cb	0.090585314
187	0xbdb7dd4d	-0.08977757
188	0x3c4b1e20	0.012397319
189	0x3cc3043c	0.02380573
190	0xbcbf0716	-0.023318809
191	0xbd49d6e2	-0.049277194
192	0x3da56f5b	0.0807788
193	0x3c226f40	0.009914219
194	0xbda4dcb2	-0.08049907
195	0x3e2d2bb4	0.16911203
196	0xbda2dab3	-0.0795187
197	0xbd5954de	-0.05305945
198	0x3d53d146	0.05171325
199	0x3cb57380	0.022149801
200	0xbd14d770	-0.03633827
201	0xbb93c539	-0.0045095948
202	0x3e021fc7	0.12707435
203	0xb97fb766	-0.00024387016
204	0xbd8f9aab	-0.070119224
205	0xbd2d0403	-0.042240154
206	0xbcc0c8bf	-0.023533223
207	0xbd19295a	-0.03739295
208	0xbd3f84ae	-0.046757393
209	0x3d2cddc3	0.042203676
210	0x3db8ea9b	0.090291224
211	0xbd577327	-0.052600052
212	0x3e400eda	0.18755665
213	0xbe21b3b0	-0.15791202
214	0xbe016d97	-0.12639461
215	0x3d93b3d2	0.072120324
216	0x3d980c7e	0.07424258
217	0x3e431d31	0.19054104
218	0x3e1a8e4d	0.15093346
219	0xbe9ed83e	-0.31024355
220	0xbe5dfe8b	-0.21679132
221	0xbd6a49a1	-0.057199124
222	0xbe8d9bd3	-0.27657947
223	0x3df8aeb6	0.121426985
224	0x3e14d238	0.14533317
225	0xbe07ede0	-0.13274336
226	0xbe47cf2e	-0.19512627
227	0x3e93cb51	0.28866056
228	0xbe47a24d	-0.19495507
229	0xbda698bb	-0.081346
230	0xbe2262ae	-0.15857956
231	0x3dd39d58	0.10332745
232	0x3d4e41b5	0.05035563
233	0x3dc47761	0.09593082
234	0x3d3786f1	0.044806425
235	0x3ca1216b	0.019669255
236	0xbe513b38	-0.20432746
237	0x3d9a38fc	0.075304
238	0x3cf1e653	0.029528772
239	0x3d355dbc	0.044278845
240	0x3e431071	0.1904924
241	0x3d91dab6	0.07121794
242	0x3c40f432	0.011776971
243	0xbd0f0871	-0.03492016
244	0xbd3eb637	-0.046560492
245	0x3d0956a3	0.03352989
246	0x3d143954	0.036187485
247	0x3ea137f1	0.31487992
248	0x3d82fedb	0.06396266
249	0xbe31340c	-0.1730501
250	0xbe219ff9	-0.15783681
251	0x3d35392b	0.044243973
252	0xbce73fef	-0.028228728
253	0x3c7c9dea	0.015418509
254	0x3df10a66	0.117695615
255	0x3e8ed82f	0.2789931

layers.0.lin_self.bias f4 [96]
0	0xbd277004	-0.04087831
1	0xbdc2ab8a	-0.09505375
2	0x3d01e101	0.03170872
3	0xbc5f4f3d	-0.013629732
4	0x3e19537b	0.14973252
5	0xbdd6967b	-0.104779206
6	0xbdba5f83	-0.09100249
7	0x3c14ee62	0.009090038
8	0xbbc60740	-0.0060433447
9	0x3c94c569	0.018160539
10	0x3d770acf	0.060313042
11	0x3e37add9	0.17937411
12	0xbbf099cf	-0.007342554
13	0xbdf1a508	-0.11799055
14	0xbddc9fc8	-0.10772663
15	0xbdf486bb	-0.1193976
16	0xbd414875	-0.04718824
17	0xbdf27bec	-0.118400425
18	0x3d4465d1	0.047948662
19	0xbdc2e390	-0.0951606
20	0xbd6ba39f	-0.057529088
21	0x3cb57849	0.022152083
22	0x38fefd40	0.00012158835
23	0x3dad978e	0.084761724
24	0xbd3b596e	-0.045739584
25	0x3db27b20	0.087148905
26	0xbba7b0a3	-0.0051174923
27	0x3d24d48b	0.04024176
28	0xbe045919	-0.12924613
29	0xbd84c368	-0.06482583
30	0x3c2570a6	0.010097658
31	0xbd9f4828	-0.077774346
32	0x3ca163af	0.019700853
33	0xbdd60ed4	-0.10452047
34	0xbc87f0f4	-0.016594388
35	0x3c77a375	0.015114655
36	0xbd9cd47f	-0.07657718
37	0x3d003194	0.03129728
38	0x3d11b61e	0.03557407
39	0xbdc4a89e	-0.09602474
40	0xbb330f75	-0.0027322446
41	0x3d4883f7	0.048953976
42	0x3bf12c34	0.0073600058
43	0xbde9a8c8	-0.114091456
44	0xbc96655b	-0.018358877
45	0x3d867a39	0.06566281
46	0x3dd9e528	0.10639411
47	0xbd9ad0ad	-0.07559333
48	0xbc9bf72f	-0.019038765
49	0xbd7b6132	-0.06137199
50	0xbce748f7	-0.028233035
51	0xbc7615ac	-0.015019815
52	0xbcbcae4a	-0.023032326
53	0x3c87e724	0.016589709
54	0xbde5b5c2	-0.11216308
55	0xbdc03c48	-0.09386498
56	0xbc123d7b	-0.008925791
57	0xbdb5a429	-0.08869202
58	0x3de23a22	0.11046244
59	0x3d5ca813	0.053871226
60	0xbd4ea981	-0.05045462
61	0x3cfbf8d5	0.0307583
62	0xbd69e74d	-0.05710535
63	0xbb51de34	-0.0032023313
64	0xbdfbc934	-0.12294236
65	0x3cfcb53f	0.030848144
66	0x3c2ec0ba	0.010666067
67	0xbd8280aa	-0.06372197
68	0x3dc0ee92	0.09420504
69	0xbbd115e6	-0.0063807843
70	0x3cf3df1c	0.029769473
71	0x3d99a8d7	0.07502907
72	0xbdc1ad51	-0.094568856
73	0x3c9f7009	0.019462602
74	0x3d909b7a	0.07060905
75	0xbcebabd4	-0.028768457
76	0xbd904d41	-0.07045985
77	0xbd017039	-0.031601164
78	0xbd3f808d	-0.046753455
79	0x3e10bdc7	0.14134894
80	0x3c58ecc2	0.013240041
81	0x3cc6a07e	0.02424645
82	0xbc22b28f	-0.009930267
83	0xbd987f18	-0.07446116
84	0xbdaaeba8	-0.08345729
85	0xbcb994da	-0.022653986
86	0x3cac32db	0.021020344
87	0x3d86bbed	0.06578813
88	0xbd8ae145	-0.06781248
89	0x3e084adb	0.13309805
90	0xbd69268d	-0.05692153
91	0xbcd25d2c	-0.025679193
92	0xbb6b5de8	-0.0035914127
93	0xbcde0d86	-0.027106058
94	0xbcb2d0fb	-0.021828165
95	0x3d4b3073	0.04960675

layers.0.lin_neigh.weight f4 [96, 96]
0	0xbdc699c7	-0.096972995
1	0x3cc940d3	0.024567043
2	0xbcbdb3e0	-0.02315706
3	0xbdae87c9	-0.08521993
4	0xbd4e515f	-0.05037057
5	0xbddc0c3a	-0.107445195
6	0xbd844cc2	-0.06459953
7	0xbe09eafb	-0.13468544
8	0xbdeb2f39	-0.114836164
9	0xbd7b17fa	-0.061302163
10	0xbbd56cc3	-0.0065132095
11	0xbdd29cb5	-0.10283796
12	0xbdb6209f	-0.08892941
13	0xbd329639	-0.043600295
14	0x3c837ff1	0.016052218
15	0xbe3d77d6	-0.18502745
16	0xbde59d61	-0.11211658
17	0xbd247e2f	-0.0401594
18	0xbded248d	-0.11579237
19	0xbe4389fd	-0.19095607
20	0x3d1a1164	0.03761424
21	0xbe6c90c0	-0.23102093
22	0x3d7373b6	0.059436522
23	0xbd86256d	-0.06550107
24	0x3d923017	0.07138079
25	0xbd05b99d	-0.032647718
26	0xbd113c81	-0.03545809
27	0xbdcd2637	-0.100170545
28	0xbe2892bd	-0.16462226
29	0xbc608e30	-0.013705775
30	0x3d5b79ad	0.053582836
31	0xbcd59d86	-0.02607609
32	0xbd4b2def	-0.049604353
33	0xbe62b444	-0.22139078
34	0xbbeccf61	-0.00722687
35	0xbd83040f	-0.063972585
36	0xbc3b495d	-0.011431065
37	0x3d12e806	0.035865806
38	0xbe348cc2	-0.1763182
39	0xbd9e046b	-0.077156864
40	0xb9d15dad	-0.0003993338
41	0xbd4c763e	-0.049917452
42	0x3b7ba55e	0.0038398127
43	0x3bfe8e91	0.00776846
44	0xbe7ba30e	-0.24573919
45	0x3e03dbe9	0.12876858
46	0xbe58301c	-0.21112102
47	0x3bd7cb83	0.00658554
48	0xbccf954e	-0.025339749
49	0xbc882c90	-0.016622812
50	0xbbf8742a	-0.007582207
51	0xbdb9d8fb	-0.09074589
52	0xbd098988	-0.033578426
53	0x3c42f141	0.01189834
54	0x3933a81d	0.00017133397
55	0xbdd0bb15	-0.10191933
56	0xbcdeb9d3	-0.027188217
57	0xbe342f6a	-0.17596212
58	0xbd271725	-0.040793557
59	0xbd0ed85a	-0.034874298
60	0xbe42d566	-0.19026718
61	0x3e071333	0.13190918
62	0x3c9f2c4d	0.019430304
63	0xbdc368dd	-0.095414855
64	0xbd8c02a4	-0.06836441
65	0xbe221168	-0.15826952
66	0xbd5f5052	-0.05451996
67	0xbd2d5dce	-0.042325787
68	0x3d2de73b	0.042456847
69	0xbd398378	-0.045291394
70	0x3e08c492	0.13356236
71	0x3bd9b692	0.0066440785
72	0xbb0ff329	-0.0021965003
73	0xbc18e4ab	-0.009331862
74	0x3d508e14	0.050916746
75	0x3d64ebd7	0.055888977
76	0xbb288090	-0.0025711395
77	0xbd8713a7	-0.06595545
78	0xb98ea673	-0.00027208365
79	0x3d9db70d	0.0770093
80	0x3d9c2d25	0.07625798
81	0x3d48eadb	0.0490521
82	0xbd0a4f43	-0.033766996
83	0x3caddaa8	0.021222427
84	0xbdb0c71f	-0.08631729
85	0xbdf4db1d	-0.11955855
86	0x3d13fca3	0.036129605
87	0xbc7f9536	-0.0155995395
88	0x3c8b48c7	0.017002476
89	0x3d982c57	0.07430332
90	0x3c720000	0.014770508
91	0x3b90422c	0.0044024196
92	0x3c50215c	0.012703266
93	0xbe26ca32	-0.16288069
94	0xbe658020	-0.22412157
95	0x3c24bdcd	0.010055018
96	0xbd1884b7	-0.03723594
97	0x3cbe012e	0.023193922
98	0xbbfd2f94	-0.007726619
99	0x3d7a76e3	0.061148535
100	0xbd90eb91	-0.07076181
101	0xb9d01bab	-0.00039693466
102	0xbd578f33	-0.0526268
103	0xbdabef66	-0.08395271
104	0x3d1417ad	0.03615539
105	0x3db5cb98	0.08876723
106	0xbcbc6c5f	-0.023000894
107	0xbd5ed3d3	-0.05440123
108	0x3db84c91	0.08998979
109	0x3d8014ec	0.062539905
110	0xbd4ddc92	-0.05025918
111	0xbd5bb55c	-0.053639755
112	0x3d0ab25d	0.033861507
113	0xbdbafd11	-0.091303
114	0x3d137f14	0.036009863
115	0x3cc3afeb	0.023887595
116	0xbc983da7	-0.018584086
117	0xbd6e0f5f	-0.058120128
118	0xbd3995fd	-0.045309056
119	0xbb896eb8	-0.004194107
120	0x3d8f1148	0.06985718
121	0xbc76c70c	-0.015062105
122	0xbdab2b6f	-0.08357894
123	0xbd730085	-0.059326667
124	0x3b8d3f2f	0.0043105106
125	0x3cbc9ff1	0.023025485
126	0xbbebd765	-0.007197308
127	0x3c80ef6d	0.015739167
128	0x3d7d11fe	0.061784737
129	0xbcfb7a64	-0.030698009
130	0xbda0b9b3	-0.07847919
131	0x3dae3a4c	0.08507213
132	0x3c02b414	0.007977504
133	0xbdaf97f4	-0.08573905
134	0x3c2156b8	0.0098473355
135	0x3b947c2d	0.0045314045
136	0xbdb0527e	-0.08609484
137	0x3c1b1799	0.009466075
138	0x3d2cdce2	0.042202838
139	0xbdc314ed	-0.09525476
140	0x3d2748e7	0.04084101
141	0xbd6fd16d	-0.058549333
142	0xbc6ce69b	-0.0144592775
143	0x3dcffcc9	0.10155637
144	0xbd86ad40	-0.065760136
145	0x3cc42ed5	0.023948113
146	0xbdb090cb	-0.08621367
147	0xbd9dcb57	-0.077047996
148	0x3d61c6c2	0.05512119
149	0x3cbc46b6	0.022982936
150	0xbdbfa375	-0.09357349
151	0x3d0bb4e8	0.034108073
152	0xbdaad1b6	-0.083407804
153	0x3db999f9	0.09062571
154	0x3dc85e91	0.09783662
155	0x3d7aeafd	0.06125926
156	0xbb596c01	-0.0033175948
157	0xbdc95b34	-0.09831849
158	0x3d40130a	0.046893157
159	0xbd680447	-0.056644704
160	0xbce0977d	-0.027415985
161	0xbd8723fb	-0.065986596
162	0x3a9dee0e	0.0012049095
163	0x3d2b35be	0.0417993
164	0x3dba2ed5	0.09090964
165	0x3b707154	0.0036688643
166	0xbbefe343	-0.007320793
167	0x3d8776b1	0.066144355
168	0x3dcff14f	0.10153448
169	0xbd2a1f0e	-0.041533522
170	0xbdcd1836	-0.100143835
171	0xbd9cdc55	-0.076592125
172	0x3c99fd4c	0.01879754
173	0xbdbb98b6	-0.09159987
174	0x3c5f8855	0.013643344
175	0x3d886454	0.06659761
176	0x3c5cc734	0.013475228
177	0x3cd14e8e	0.025550153
178	0xbdb43490	-0.08799088
179	0x3d810f52	0.0630175
180	0x3d3f679d	0.046729673
181	0xbd8fd2e8	-0.07022649
182	0x3c1504a9	0.009095349
183	0x3d29b717	0.041434374
184	0xbd9c24c7	-0.07624202
185	0x3b1cfe80	0.0023955405
186	0x3bb98612	0.0056617344
187	0x3d6d24c2	0.057896383
188	0x3da77383	0.08176329
189	0xbba08996	-0.004899214
190	0xbb333a95	-0.002734815
191	0xbcd8359d	-0.026392752
192	0x3bc799fa	0.0060913535
193	0xbcab4634	-0.020907499
194	0x3d455818	0.048179716
195	0x3d94adcc	0.072597116
196	0xbe14ecff	-0.14543532
197	0x3ca2032f	0.019776909
198	0x3cb5bfe2	0.022186223
199	0x3d415d73	0.04720826
200	0xbde28942	-0.11061336
201	0xbd08de0f	-0.033414897
202	0x3d264cc1	0.040600542
203	0xbd044ac0	-0.03229785
204	0xbdcf60cd	-0.10125885
205	0xbde6dc40	-0.11272478
206	0xbdaa1848	-0.083054125
207	0xbdfafef0	-0.12255657
208	0xbdb9dafe	-0.090749726
209	0xbd9a57da	-0.075362876
210	0xbb1bcad5	-0.002377202
211	0xbc10abfe	-0.008830069
212	0x3cded81f	0.027202664
213	0xbe49ad41	-0.19694997
214	0x3d421386	0.0473819
215	0xbc67ce17	-0.014148257
216	0x3d6ec580	0.05829382
217	0xbd26fdb8	-0.04076931
218	0x3d33f28e	0.04393249
219	0xbe6a00c0	-0.22851849
220	0xbe3ec8e0	-0.18631315
221	0xbd870ba6	-0.06594019
222	0x3ccf49d8	0.025303766
223	0x3d43c354	0.0477937
224	0x3c20b6b7	0.009809188
225	0xbe5552f7	-0.2083243
226	0xbe26c544	-0.16286188
227	0xbc0c24c0	-0.008553684
228	0xbdf94c96	-0.12172811
229	0x3cc98d61	0.024603548
230	0xbdcf3dae	-0.10119186
231	0xbad0c404	-0.0015927558
232	0x3d01649e	0.031590097
233	0x3ce984bc	0.028505675
234	0x3d8da827	0.06916838
235	0x3d7ed16d	0.062211443
236	0xbea4fdde	-0.32224935
237	0xbdab6e70	-0.08370674
238	0xbde8b568	-0.113627255
239	0xbdbe622c	-0.092960685
240	0x3db9964d	0.09061871
241	0xbcc11285	-0.023568401
242	0xbd2da9f7	-0.04239842
243	0xbdbcdbc6	-0.09221606
244	0xbdf408fd	-0.11915777
245	0xbd5999f3	-0.053125333
246	0xbd171555	-0.03688558
247	0x3e0e470e	0.13894293
248	0x3b83e5ef	0.004025213
249	0xbe0a826a	-0.13526312
250	0xbd40857b	-0.047002297
251	0xbc0ec4b8	-0.008713894
252	0xbdfc6324	-0.12323597
253	0xbbe25934	-0.0069076065
254	0x3d5cbcb3	0.053890895
255	0xbdad592b	-0.08464273

layers.1.lin_self.weight f4 [96, 96]
0	0xbe103c08	-0.140854
1	0x3d2826c2	0.041052587
2	0x3c943915	0.018093625
3	0x3daca07c	0.084290475
4	0xbdbdaea5	-0.092618264
5	0xbd08d508	-0.033406287
6	0xbdd05ef0	-0.10174358
7	0xbdb82d93	-0.089930676
8	0xbcaaaf1f	-0.020835457
9	0x3c9a0b75	0.018804291
10	0x3cebd382	0.028787378
11	0xbd1ce6b0	-0.03830594
12	0xbd644101	-0.055726055
13	0xbccf0479	-0.025270687
14	0xbc968ee7	-0.018378688
15	0xbc47bebc	-0.012191471
16	0x3d8287b5	0.0637354
17	0x3da85546	0.082193896
18	0xbb36dc48	-0.0027902294
19	0x3d47d3e6	0.048786066
20	0x3d4a739f	0.04942667
21	0xbd4381b5	-0.04773112
22	0xbe016868	-0.12637484
23	0xbc347ed2	-0.011016564
24	0xbe02f026	-0.12786922
25	0xbd979eb5	-0.07403318
26	0xbc1eb6e6	-0.009687161
27	0xbbc89d06	-0.0061222343
28	0xbbe934e8	-0.0071169026
29	0x3d7c6102	0.06161595
30	0xbd0ba34e	-0.034091286
31	0xbde3b215	-0.11117951
32	0x3c536cc6	0.012904352
33	0x3cb03efe	0.021514412
34	0x3ac35624	0.0014902991
35	0x3cf37a56	0.02972142
36	0x3d5e546a	0.054279722
37	0xbe0f5183	-0.13995938
38	0x3dbcff05	0.092283286
39	0xbd727f8d	-0.059203673
40	0xbcb3e697	-0.02196054
41	0x3c91a05a	0.017776657
42	0x3cf3750e	0.029718902
43	0xbdcee673	-0.101025485
44	0xbdca7448	-0.0988546
45	0xbdc25ec9	-0.09490735
46	0xbcec031c	-0.028810076
47	0xbd698f7e	-0.05702161
48	0xbda6ca90	-0.081441045
49	0x3af93be7	0.0019015045
50	0xbc45b5fd	-0.012067315
51	0xbc9ded57	-0.019278212
52	0xbdedfd4f	-0.116205804
53	0x3d7a953b	0.061177474
54	0xbdccd38e	-0.10001288
55	0xbda0fbcb	-0.07860526
56	0xbd35fe5b	-0.044432025
57	0x3c237f5d	0.009979096
58	0xbba792cd	-0.0051139356
59	0xbdd6534d	-0.10465107
60	0x3bcc8025	0.006240862
61	0x3d05b36e	0.03264182
62	0xbd41d26b	-0.04731981
63	0xbd3b31df	-0.045701858
64	0x3d1c1ba1	0.038112286
65	0x3d3a5a04	0.045496
66	0x3c141205	0.009037499
67	0xbc191832	-0.0093441475
68	0xbd1b7086	-0.037949108
69	0x3cfce367	0.030870153
70	0xbe2711d5	-0.16315396
71	0xbd80108c	-0.06253156
72	0xbb321755	-0.0027174552
73	0xbd8d652d	-0.069040634
74	0x3c1f94fd	0.009740111
75	0xbd23bde7	-0.039976027
76	0xbce9198e	-0.028454568
77	0x3ddb3fd0	0.10705531
78	0x3d89fc82	0.06737615
79	0xbd57fda6	-0.052732132
80	0x3cc9f5e1	0.024653377
81	0xbd5b17a0	-0.053489327
82	0x3dcb01a9	0.09912426
83	0xbddf8a68	-0.10915071
84	0xbdd63162	-0.10458638
85	0xbd8501c2	-0.06494476
86	0xbd0f98c4	-0.035057798
87	0x3ccb70d2	0.02483407
88	0xbde53222	-0.11191203
89	0xbde2c924	-0.11073521
90	0xbcb4c4dc	-0.022066526
91	0x3ce984ec	0.028505765
92	0x3bf957d9	0.007609349
93	0xbd93e1cc	-0.07220802
94	0x3d6ab252	0.057298966
95	0xbe4df798	-0.20113981
96	0xbdebf79a	-0.115218356
97	0xbcb75123	-0.022377556
98	0xbc100582	-0.008790376
99	0x3c69aba8	0.014262117
100	0x3c6cc99a	0.014452362
101	0x3bac6795	0.0052613714
102	0xbe020d19	-0.12700309
103	0xbdaab6fe	-0.08335684
104	0xbc125baf	-0.008932992
105	0xbd99d122	-0.07510592
106	0x3d393514	0.045216635
107	0xbdb1f3ac	-0.08689055
108	0x3da4892c	0.08033976
109	0x3da2bd81	0.07946301
110	0x3cfdbd0d	0.030973935
111	0x3aaf5c35	0.001337892
112	0x3d2d4645	0.042303342
113	0x3d83b222	0.064304605
114	0x3d6f17b6	0.058372222
115	0x3d441738	0.047873706
116	0xbd8b9698	-0.06815833
117	0xbde001f3	-0.10937872
118	0xbdc2747e	-0.09494875
119	0x3c283b22	0.010268005
120	0xbdbce4a4	-0.09223297
121	0x3c7a38e8	0.015272357
122	0xbdfaded5	-0.12249533
123	0xbdbbbfbe	-0.09167431
124	0x3db81ab2	0.08989467
125	0xbd0e6e23	-0.034773003
126	0xbd7bd42d	-0.061481643
127	0x3dc97a69	0.09837801
128	0x3cd63b81	0.02615142
129	0xbdc43fa3	-0.0958245
130	0xbd93c10d	-0.07214556
131	0x3d33c294	0.043886736
132	0xbc3ccc00	-0.011523247
133	0xbb6c1f11	-0.003602926
134	0xbd7f990b	-0.062401813
135	0x3da88943	0.082293056
136	0xbdb72eb8	-0.08944458
137	0xbd5bfdfc	-0.053709015
138	0x3d20df2c	0.039275333
139	0xbd096879	-0.0335469
140	0xbe09ecdd	-0.13469262
141	0x3c79b992	0.015241997
142	0x3d2cd1c9	0.042192254
143	0xbc0c7c39	-0.008574539
144	0x3d8fdc66	0.070244595
145	0x3dcd1c75	0.100151934
146	0xbd37536e	-0.0447573
147	0xbd52093c	-0.051278338
148	0xbda11904	-0.078660995
149	0x3dc3d5ad	0.0956224
150	0x3c21d4ba	0.009877378
151	0x3db7ee76	0.0898103
152	0xbcb8d562	-0.022562686
153	0xbb8b2998	-0.0042469017
154	0xbbcec3e5	-0.0063099735
155	0xbd967dab	-0.07348188
156	0xbe01aa2a	-0.12662569
157	0x3d5a4681	0.053289894
158	0xbd4307af	-0.04761475
159	0xbdd498d7	-0.103807144
160	0xbd2f9c72	-0.042873807
161	0xbc24963f	-0.010045587
162	0x3d8337fa	0.06407161
163	0x3d4fcadb	0.050730567
164	0x3b6edf4f	0.003644902
165	0x3cdac0b2	0.026703212
166	0xbd2004d5	-0.03906711
167	0xbdae9af4	-0.08525649
168	0xbdc3c66d	-0.09559331
169	0x3d78a5dc	0.06070505
170	0xbdd1eb70	-0.10249984
171	0xbe014879	-0.12625302
172	0xbbd6706d	-0.006544164
173	0x3d98e816	0.07466142
174	0x3d1e97b6	0.0387189
175	0xbd5842a9	-0.052797947
176	0xbdc13bd5	-0.0943524
177	0xbd1e7bdb	-0.038692337
178	0x3d372993	0.044717383
179	0x3d77a2c7	0.06045797
180	0xbddeed13	-0.10885062
181	0xbdf51de7	-0.11968594
182	0x3c92622b	0.017869076
183	0xbd8d9370	-0.06912887
184	0xbd567e73	-0.052366685
185	0xbc2eb733	-0.010663795
186	0xbd12e453	-0.03586228
187	0x3a7b08d1	0.0009576204
188	0xbdb809f7	-0.08986276
189	0x3b095291	0.0020953754
190	0x3cd0e805	0.02550126
191	0x3b5eca5f	0.0033995134
192	0xbd8f9529	-0.07010872
193	0xbdc82388	-0.09772402
194	0xbd931062	-0.07180859
195	0x3da01367	0.07816201
196	0xbd863607	-0.06553274
197	0x3cf97490	0.03045109
198	0xbe0fedfa	-0.14055625
199	0xbd91e6ee	-0.071241245
200	0x3d9f580e	0.07780467
201	0xbd90b74f	-0.07066213
202	0xbd23c356	-0.03998121
203	0xbd8095fa	-0.06278606
204	0xbd83ff69	-0.064452
205	0xbd140c5b	-0.036144596
206	0x3c88f2f3	0.01671741
207	0x3ba339a5	0.004981237
208	0x3e2b4830	0.16726756
209	0x3db8267c	0.08991715
210	0xbd9a02c1	-0.075200565
211	0xbd0717f8	-0.032981843
212	0xbbe80456	-0.007080595
213	0xbbd56f23	-0.0065134927
214	0xbde93c4e	-0.11388455
215	0xbd307332	-0.04307861
216	0xbd812dbe	-0.06307553
217	0x3caa6cd2	0.020803843
218	0x3c015342	0.007893385
219	0xbd091d3a	-0.03347514
220	0x3d8fa859	0.07014532
221	0xbd027b84	-0.031856075
222	0x3cec41e4	0.028840013
223	0xbd1431aa	-0.036180176
224	0xbd478153	-0.048707318
225	0xba4c3537	-0.0007789912
226	0x3cfd7469	0.030939298
227	0xbd9acfd3	-0.075591706
228	0xbd49802b	-0.049194496
229	0xbd28363e	-0.041067354
230	0xbd792646	-0.060827516
231	0xbdc77dd0	-0.09740794
232	0xbd5a6475	-0.05331846
233	0x3d080d46	0.033215784
234	0x3d69ed8a	0.0571113
235	0xbe0ae664	-0.1356445
236	0x3d335751	0.043784443
237	0xbd16d848	-0.036827356
238	0xbd3c69f5	-0.045999486
239	0xbe0f4b83	-0.13993649
240	0x3c0d8865	0.008638476
241	0x3da41b05	0.08012966
242	0x3d0d3da9	0.03448263
243	0x3d76fc35	0.060299117
244	0x3c638f4c	0.013889145
245	0xbd20fcb5	-0.0393035
246	0xbdbbb022	-0.09164454
247	0xbb8efa51	-0.004363336
248	0x3d8dd51f	0.06925415
249	0xbe27ba98	-0.16379774
250	0xbd10c344	-0.03534247
251	0x3d23d25e	0.039995544
252	0xbdb2aa1d	-0.08723853
253	0xbdb80423	-0.08985164
254	0xbc895bd3	-0.016767418
255	0x3d99f473	0.07517328

layers.1.lin_self.bias f4 [96]
0	0xbcfbc814	-0.030735053
1	0xbdab714a	-0.083712175
2	0x3d513292	0.05107362
3	0x3d075ad5	0.03304561
4	0x3e325956	0.17416891
5	0x3c37b90b	0.011213551
6	0xbe0b81ea	-0.13623777
7	0xbdea9ee4	-0.11456087
8	0xbdaa211c	-0.08307096
9	0xbd0375b6	-0.03209468
10	0x3c14b8ee	0.009077294
11	0x3e28a1ac	0.16467923
12	0x3def8919	0.11696071
13	0x3d26c599	0.040715788
14	0xbda74e50	-0.08169234
15	0xbd72f2a6	-0.05931344
16	0xbdc5247b	-0.09626099
17	0xbe02c955	-0.12772115
18	0xbcc34f5b	-0.02384155
19	0xbda0fe9a	-0.078610614
20	0xbdf7c68d	-0.120984174
21	0xbd531bad	-0.051540066
22	0xbdf4fcf2	-0.11962308
23	0xbe25e50d	-0.16200657
24	0xbdbfa269	-0.09357149
25	0xbe31a2a4	-0.17347199
26	0xbd284baa	-0.041087784
27	0xbd1982c9	-0.037478242
28	0xbdd4705f	-0.103729956
29	0xbd1f6b41	-0.038920645
30	0xbe16a1a1	-0.14710094
31	0xbe161cdb	-0.14659445
32	0x3d88d94c	0.06682071
33	0x3dbfe8de	0.09370588
34	0xbcd738dd	-0.026272232
35	0xbd3ef227	-0.046617653
36	0x3d806571	0.062693484
37	0xbd162590	-0.036656916
38	0x3d051e23	0.032499444
39	0x3e0fa730	0.1402862
40	0xbbc802e7	-0.0061038616
41	0x3ba38b78	0.004990991
42	0x3e83865d	0.2568845
43	0xbcc5e079	-0.024154888
44	0x3da28de0	0.07937217
45	0xbe0cf826	-0.13766536
46	0xbdb911ca	-0.09036596
47	0x3d617a57	0.055048313
48	0xbdc59315	-0.09647194
49	0x3c735d1d	0.014853743
50	0x3d8dc901	0.06923104
51	0x3dabccdc	0.08388683
52	0x3dd867f5	0.10566703
53	0xbe2f11cf	-0.17096637
54	0x3d23e435	0.040012557
55	0x3e5ea151	0.21741225
56	0xbe1a8aa1	-0.15091945
57	0xbb1d2c20	-0.00239826
58	0x3df3ebbc	0.11910197
59	0xbdae4d1a	-0.085108
60	0xbe05959d	-0.13045354
61	0xbdcb76e2	-0.099347845
62	0x3adb8876	0.0016749043
63	0xbcfc3130	-0.030785173
64	0xbd714de7	-0.058912184
65	0xbe1d0069	-0.15332188
66	0xbe056adf	-0.1302905
67	0xbe565b9b	-0.20933382
68	0xbe15129f	-0.14557885
69	0xbb7d500a	-0.0038652443
70	0xbddb0ebc	-0.1069617
71	0x3d9a89bb	0.07545801
72	0xbdf4f8e0	-0.11961532
73	0xbde9e3f7	-0.11420434
74	0x3d5de993	0.05417783
75	0x3e13b8a8	0.1442591
76	0x389ae1cc	7.38535e-05
77	0xbd3debf4	-0.0463676
78	0xbd184bd8	-0.037181705
79	0x3d954f60	0.0729053
80	0xbd037545	-0.03209426
81	0xbc755e8e	-0.014976157
82	0xbd8254fb	-0.06363865
83	0x3e306d1a	0.17229119
84	0xbd194301	-0.037417416
85	0x3bf4f2e0	0.007475242
86	0x3d2d3d5b	0.04229484
87	0x3e3e1bb5	0.18565257
88	0xbe2c67ef	-0.16836523
89	0xbd153c1d	-0.03643428
90	0x3c94d601	0.018168451
91	0xbdec7764	-0.115462095
92	0xbd46f9f4	-0.048578218
93	0xbb8e9bde	-0.004352077
94	0xbde3b2d2	-0.11118092
95	0xbe0e26b1	-0.13881947

layers.1.lin_neigh.weight f4 [96, 96]
0	0x3d8e933c	0.069616765
1	0x3d24df9e	0.04025232
2	0xbd5a6db5	-0.05332728
3	0xbd6cafbe	-0.05778479
4	0x3d59dc01	0.053188328
5	0xbdcbb7de	-0.09947179
6	0x3d82b37e	0.06381892
7	0xbdc10386	-0.094245
8	0xbdc51bfb	-0.096244775
9	0x3d05420d	0.032533694
10	0x3cfabe3c	0.030608289
11	0xbc3e706f	-0.011623486
12	0x3da73878	0.081650674
13	0x3d8593aa	0.06522305
14	0xbdab81b0	-0.08374345
15	0x3d57f932	0.052727886
16	0x3d7025b4	0.058629707
17	0x3cf78e0a	0.030219097
18	0xbd829543	-0.06376126
19	0x3c4b09db	0.012392486
20	0xbd5c9d6e	-0.053861074
21	0xbd7e6d7f	-0.062116142
22	0xbd76a2e3	-0.060213935
23	0x3c002588	0.007821448
24	0x3dfaa96c	0.12239346
25	0x3d924581	0.07142163
26	0xbd92328e	-0.07138549
27	0x3db512e4	0.08841494
28	0xbd9e3af6	-0.0772609
29	0x3d2baf4c	0.041915223
30	0x3d9363f3	0.07196798
31	0xbc873ca5	-0.01650841
32	0xbd1b0517	-0.03784665
33	0x3c3429da	0.010996306
34	0x3bb9f5c1	0.005675048
35	0xbd91eb90	-0.07125008
36	0xbcb489c2	-0.022038344
37	0xbddd7015	-0.108123936
38	0xbd44d9c0	-0.048059225
39	0x3d5dc7bd	0.054145563
40	0x3d08cc76	0.033398114
41	0x3cb5dd79	0.022200333
42	0xbde8b57d	-0.11362741
43	0x3d9913c0	0.0747447
44	0xbcc23204	-0.02370549
45	0x3cd0714b	0.025444647
46	0xbdcbb4b6	-0.09946577
47	0x3d275829	0.04085556
48	0x3db5b0a6	0.08871584
49	0xbce1eefc	-0.027579777
50	0xbdcea59e	-0.10090183
51	0xbd0f576e	-0.03499549
52	0x3d702455	0.0586284
53	0x3c2177b2	0.009855198
54	0xbd64ce26	-0.05586066
55	0x3d97b212	0.07407011
56	0x3d10e0be	0.03537058
57	0x3d1d6ff8	0.03843686
58	0xbddbf884	-0.1074076
59	0x3ca90b77	0.02063535
60	0xbdb45a79	-0.08806319
61	0x3d5214ac	0.051289245
62	0xbdd3e5e3	-0.10346582
63	0x3d18b2a3	0.037279736
64	0x3d81b0c1	0.06332541
65	0x3c99502e	0.01871499
66	0xbb7c6a6a	-0.0038515576
67	0x3d3500e6	0.04419031
68	0xbd5a8b1d	-0.053355325
69	0x3daf2d61	0.08553577
70	0xbcfc4601	-0.0307951
71	0x3d3256a3	0.043539654
72	0xbcba6da8	-0.022757366
73	0x3bd3dea9	0.006465752
74	0xbd124fee	-0.03572076
75	0x3df1db93	0.118094586
76	0x3dabc438	0.08387035
77	0xbd0ae2f2	-0.03390784
78	0x3d9706e1	0.07374359
79	0xbd937700	-0.07200432
80	0xbdefd7e9	-0.117111035
81	0xbddf15b3	-0.10892811
82	0xbd4628a1	-0.04837859
83	0x3ddbb662	0.10728146
84	0x3e0b827b	0.13623993
85	0x3cf881e0	0.030335367
86	0xbd8a99fd	-0.06767652
87	0xbbb3c989	-0.0054866713
88	0xbc0f3245	-0.0087400125
89	0x3cdbeec1	0.026847245
90	0x3dc8ff87	0.09814363
91	0x3d665266	0.056230925
92	0xbddff2eb	-0.10935005
93	0xbd9d2afe	-0.07674216
94	0xbd9b781e	-0.0759127
95	0x3db809c3	0.08986237
96	0x3d5bdeea	0.053679384
97	0xbb113bc9	-0.002216088
98	0x3d04c9fa	0.032419182
99	0xbd1c4690	-0.03815323
100	0x3b1e0b42	0.0024115597
101	0xbd645133	-0.0557415
102	0xbd34c9f3	-0.044137906
103	0xbdc8b74d	-0.09800587
104	0x3dcd9252	0.10037674
105	0x3d9a9f52	0.07549919
106	0xbd96d25d	-0.07364342
107	0xbe28a38c	-0.16468638
108	0x3ca8e7cd	0.020618344
109	0x3bab2655	0.0052230754
110	0xbd8c1299	-0.06839485
111	0x3d399076	0.045303784
112	0x3d105224	0.035234585
113	0xbc747650	-0.014920786
114	0x3dc2dd5b	0.095148765
115	0xbe003ee0	-0.12523985
116	0xbd4f2f4d	-0.05058222
117	0xbe1f13d8	-0.15534914
118	0xbd4335fc	-0.047658905
119	0xbdcd74d4	-0.10032049
120	0xbd775e5b	-0.06039272
121	0xbd93326a	-0.0718735
122	0xbd51c944	-0.051217332
123	0x3dba24e1	0.09089065
124	0xbdc2a896	-0.095048115
125	0xbd03b4fc	-0.032155022
126	0xbccab9b9	-0.024746763
127	0x39fe006e	0.00048446975
128	0xbd4ab1e3	-0.049486052
129	0x3dbf4c21	0.09340692
130	0x3d5ac327	0.053408768
131	0xbcb84520	-0.022493899
132	0xbd15f327	-0.03660884
133	0xbe120481	-0.1425953
134	0xbb75c11b	-0.0037499133
135	0xbda1d027	-0.0790103
136	0x3d4f2b94	0.05057867
137	0xbda6a325	-0.08136586
138	0x3b456c6c	0.003012444
139	0x3dcfadf9	0.101406045
140	0x3d1762cd	0.03695946
141	0xbd44738d	-0.04796176
142	0x3bbd825c	0.0057833623
143	0x3d41cfa1	0.04731715
144	0xbdcf54f0	-0.101236224
145	0x3c6ab665	0.014325713
146	0x3c1c52ed	0.009541255
147	0x3c565962	0.013082834
148	0x3bd62737	0.0065354365
149	0xbcf3fbed	-0.029783214
150	0xbdb0ce91	-0.086331494
151	0x3d668189	0.056275878
152	0xbc716972	-0.014734613
153	0x3b9b8d74	0.004747087
154	0xbc1815c3	-0.009282532
155	0xbc39355a	-0.011304224
156	0xbd98ef84	-0.07467559
157	0x3d3779e3	0.044793975
158	0x3c9737f1	0.018459292
159	0xbdd65863	-0.10466077
160	0xbdcaaad4	-0.09895864
161	0x3ccb78c0	0.024837852
162	0x3d104e5e	0.035230987
163	0xbd9aec9c	-0.07564661
164	0xbdfe1cb5	-0.12407819
165	0x3c0f3409	0.0087404335
166	0xbdbe3928	-0.092882454
167	0x3cfa45ec	0.03055092
168	0xbd7d6139	-0.061860297
169	0xbcee9c7c	-0.029127352
170	0x3d296004	0.041351333
171	0x3d35b54a	0.044362344
172	0xbc85f403	-0.016351705
173	0x3dcdf767	0.10056954
174	0xbde333e1	-0.110938795
175	0xbc854fe3	-0.016273445
176	0x3c725135	0.014789869
177	0x3c49eef4	0.012325037
178	0xbd8626db	-0.0655038
179	0xbdc8e4b9	-0.098092504
180	0xbba66106	-0.005077484
181	0xbd18d4dc	-0.037312374
182	0xbc928f73	-0.017890668
183	0x3dbebe1c	0.09313604
184	0xbdb11457	-0.08646458
185	0x3d25df94	0.040496424
186	0xbce79b27	-0.028272225
187	0x3d1d7afe	0.038447373
188	0x3d815102	0.06314279
189	0xbdc02b5a	-0.09383269
190	0x3cdbbb8a	0.026822824
191	0xbe71ebae	-0.23625061
192	0xbdd4bed5	-0.10387961
193	0x3d92bc82	0.07164861
194	0xbd0b7b4e	-0.03405314
195	0x3dc6d15d	0.097079016
196	0xbdcbe513	-0.09955802
197	0xbd0c421f	-0.034242745
198	0x3d6c608c	0.05770926
199	0x3ce2682b	0.027637562
200	0xbe3a1bfb	-0.18174736
201	0xbdc632c6	-0.09677653
202	0x3dbc3ea5	0.09191636
203	0xbc95e742	-0.018298749
204	0xbd9dc9c5	-0.077045
205	0xbdbe876a	-0.09303172
206	0xbd23ac35	-0.03995915
207	0xbc8e2a51	-0.017354162
208	0xbb7e5fea	-0.0038814493
209	0x3d0ffba2	0.035152085
210	0xbda00870	-0.07814109
211	0xbe184e87	-0.14873706
212	0x3d79aab0	0.060953796
213	0xbe0425c8	-0.12905037
214	0x3d3dfbb5	0.046382625
215	0x3ccb3b8f	0.024808673
216	0xbce5713f	-0.028008102
217	0x3d61fcdf	0.055172797
218	0x3d393196	0.045213304
219	0x3da08e0d	0.07839594
220	0x3caa641f	0.020799695
221	0xbdc76c20	-0.0973742
222	0xbd84a4c3	-0.06476738
223	0xbe1d8702	-0.15383533
224	0x3c9f99b9	0.01948248
225	0xbdb02a5b	-0.08601829
226	0xbde6c120	-0.112673044
227	0xbdfc4147	-0.12317138
228	0xbe0a42ea	-0.13502088
229	0x3d4cc041	0.049988035
230	0x3cbfd201	0.023415567
231	0x3a0153a8	0.0004933425
232	0xbd76f8a3	-0.060295712
233	0xbdb75adc	-0.08952877
234	0xbe179cac	-0.1480586
235	0xbdcf2d18	-0.10116023
236	0xbc53e5e8	-0.012933232
237	0xbdb2f041	-0.08737231
238	0xbdb407f9	-0.08790583
239	0xbc96a47c	-0.01838898
240	0xbdd4bde7	-0.103877835
241	0xbd1badad	-0.038007427
242	0x3cf4484a	0.029819626
243	0xbd06c321	-0.032900933
244	0xbc84f636	-0.016230684
245	0xbe040b4c	-0.12894934
246	0xbd753865	-0.059868235
247	0x3d72f408	0.059314758
248	0xbcb0dd53	-0.02158991
249	0xbdeaefcb	-0.11471518
250	0xbdd68889	-0.10475261
251	0x3dbeeb8f	0.09322273
252	0xbdea9862	-0.11454846
253	0x3d51f4ab	0.051258724
254	0xbdbab006	-0.09115605
255	0xbd6c5423	-0.057697427

mlp.0.weight f4 [96, 96]
0	0x3dc6bacd	0.09703598
1	0xbd1d3d5a	-0.038388588
2	0x3d4d5ed3	0.05013926
3	0xbd31e827	-0.04343429
4	0xbddef6a6	-0.10886888
5	0xbde86ee8	-0.11349279
6	0xbcf15aa3	-0.029462164
7	0xbde5ff12	-0.112302914
8	0xbda3cd3d	-0.079981305
9	0xbbcbcea5	-0.0062197023
10	0x3d11bde8	0.0355815
11	0x3c3bc4d5	0.011460503
12	0xbe079c2f	-0.13243173
13	0x3c133522	0.008984836
14	0xbdfcef0b	-0.12350281
15	0xbcc47d2d	-0.02398547
16	0xbb579c87	-0.0032899694
17	0xbd6f625a	-0.058443405
18	0xbde209ab	-0.11037
19	0xbc6339a5	-0.013868724
20	0xbda53df4	-0.08068457
21	0x3d21a5d2	0.03946478
22	0x3d658cab	0.056042355
23	0x3d28b2bb	0.041186076
24	0xbca7aab6	-0.020467144
25	0xbc6c55e8	-0.0144247785
26	0xbdf8d178	-0.12149328
27	0x3bf86eea	0.0075815814
28	0xbddff524	-0.10935429
29	0xbd9d2fab	-0.076751076
30	0xbddf9726	-0.10917501
31	0xbcc57fba	-0.024108756
32	0xbdcb983d	-0.099411465
33	0xbdc2f8b0	-0.095200896
34	0xbb82f46c	-0.0039964225
35	0xbcf06eb5	-0.029349664
36	0xbc9699a7	-0.018383814
37	0x3d7d39b1	0.061822597
38	0xbcbb851e	-0.022890624
39	0xbddc5ce1	-0.10759903
40	0x3d5a626a	0.05331651
41	0xbc948f68	-0.018134788
42	0xbd9ef523	-0.077616
43	0x3d6720ee	0.05642789
44	0xbcde59b7	-0.027142389
45	0x3d506511	0.050877634
46	0x3cc2feab	0.023803076
47	0x3ce0f01a	0.02745824
48	0xbdf8cb8a	-0.12148197
49	0x3d3ec626	0.046575688
50	0x3ba8f5b4	0.005156243
51	0xba99812b	-0.0011711469
52	0xbc355003	-0.01106644
53	0x3b979ed3	0.0046270876
54	0xbd67ac99	-0.056561086
55	0xbbd41ea0	-0.0064733773
56	0xbe139f7c	-0.14416307
57	0xbc545ad7	-0.012961111
58	0xbdb79147	-0.08963256
59	0xbe5d3841	-0.2160349
60	0x3d51d65a	0.051229812
61	0xbd38bafd	-0.0451002
62	0x3ddcd67a	0.10783096
63	0xbb368f02	-0.0027856235
64	0x3d09af0e	0.03361421
65	0x3a54e2ce	0.0008120955
66	0x3d6f48c4	0.058419004
67	0x3d6a2d22	0.05717195
68	0xbe1c6a96	-0.15275034
69	0x3d52a50b	0.05142693
70	0xbe15eebd	-0.14641853
71	0xbe4c7d0a	-0.19969574
72	0x3d20eba6	0.03928723
73	0xbdae9c24	-0.08525875
74	0xbd63f3c2	-0.055652387
75	0xbce714e5	-0.028208205
76	0x3d627736	0.05528947
77	0xbe0961f6	-0.13416275
78	0xbdb46295	-0.088078655
79	0xbda5a724	-0.0808852
80	0x3ce10cbb	0.02747189
81	0xbdc6e25d	-0.09711144
82	0xbc8a501a	-0.016883899
83	0xbd1bb580	-0.03801489
84	0x3d21c89c	0.039497957
85	0xbc4d2b44	-0.012522522
86	0xbc26e596	-0.0101865735
87	0xbd996856	-0.074906036
88	0x3db77918	0.08958644
89	0xbd7a7adb	-0.06115232
90	0xbd16414b	-0.036683362
91	0x3d885695	0.06657139
92	0x3da607d4	0.08106962
93	0x3d253ee0	0.040343165
94	0xbc27e276	-0.010246864
95	0xbe1ea1ba	-0.15491381
96	0xbdba5c8e	-0.09099685
97	0x3d277c86	0.04089024
98	0x3c9f7148	0.019463196
99	0x3c1c611e	0.009544639
100	0xbd46d8c6	-0.048546575
101	0x3dbe23fe	0.09284209
102	0xbcc15502	-0.023600105
103	0x3e2b0c0d	0.16703816
104	0x3dea37ea	0.11436446
105	0xbd993e3f	-0.074825756
106	0xbd239f06	-0.03994658
107	0x3c4d30c1	0.012523831
108	0x3e34fe82	0.17675212
109	0xbd34b37e	-0.04411649
110	0x3dd1cb80	0.10243893
111	0xbd74f20c	-0.059801146
112	0x3e3da46a	0.1851975
113	0x3dd2ef26	0.1029952
114	0xbca4844e	-0.020082619
115	0x3be02e93	0.0068414896
116	0x3e0de181	0.13855554
117	0xbd941a37	-0.072315626
118	0x3e2653cc	0.16242903
119	0xbc67cf81	-0.014148594
120	0x3c3841ea	0.011246184
121	0x3e449a3f	0.19199465
122	0x3e1be227	0.15222989
123	0x3dad3bac	0.08458647
124	0xbd7428e7	-0.05960932
125	0xbcf978a7	-0.03045304
126	0x3e4135c1	0.18868162
127	0x3d933e14	0.07189575
128	0x3cdbab7a	0.026815165
129	0xbe13a6c4	-0.14419085
130	0x3e1a6645	0.15078075
131	0x3d3114b1	0.043232623
132	0x3cbbf7a1	0.022945227
133	0x3d2b75b3	0.041860294
134	0xbe1b8e2e	-0.15190956
135	0x3d329532	0.043599315
136	0x3dbb2f32	0.09139861
137	0xbe07851a	-0.13234368
138	0xbe9d9e22	-0.30784708
139	0xbcd02ae3	-0.025411075
140	0xbc92a731	-0.017901989
141	0x3d811d28	0.06304389
142	0x39e06ea2	0.00042807037
143	0x3da921fa	0.08258434
144	0xbd256487	-0.040379073
145	0xbdafbf8e	-0.08581458
146	0xbd5023ce	-0.050815396
147	0x3bf1247e	0.0073590865
148	0x3d964be4	0.07338694
149	0x3e14f8d9	0.14548053
150	0xbbb716e1	-0.005587444
151	0xbd036805	-0.032081623
152	0x3b9e51b4	0.004831517
153	0x3dddf4a1	0.10837675
154	0xbc89e8fc	-0.016834728
155	0xbcc0606e	-0.023483481
156	0x3d8b81fd	0.06811903
157	0x3d3fb0ce	0.046799473
158	0xbd781848	-0.06057003
159	0x3dbcfc67	0.092278294
160	0x3cc37b85	0.02386261
161	0x3d539b75	0.051661927
162	0x3ce91c5c	0.028455906
163	0xbd7f0aef	-0.062266286
164	0x3d393479	0.045216057
165	0xbd13b127	-0.036057618
166	0xbddbe100	-0.10736275
167	0xbdb41308	-0.087926924
168	0x3e322964	0.17398602
169	0x3d7406d4	0.059576824
170	0x3d679616	0.056539617
171	0xbd1ce262	-0.038301833
172	0xbd31e426	-0.04343047
173	0x3dfb7c2a	0.12279542
174	0x3d9a53ec	0.07535538
175	0xbd1f0bf1	-0.038829748
176	0x3c4081d9	0.011749708
177	0x3d97682d	0.07392917
178	0x3e4e6c16	0.20158419
179	0xbddc8ab5	-0.10768644
180	0x3dea35e7	0.11436062
181	0x3e00d893	0.12582617
182	0xbdae9de9	-0.08526213
183	0xbd8ccf91	-0.06875528
184	0xbda1e304	-0.07904628
185	0xbd05d048	-0.032669336
186	0xbe84d580	-0.25944138
187	0x3de12ff0	0.109954715
188	0xbd7ae468	-0.06125298
189	0x3e237630	0.15963054
190	0xbc3da04b	-0.011573861
191	0xbd96a421	-0.07355524
192	0x3a491406	0.0007670525
193	0xbdde93f5	-0.10868064
194	0xbe3d09de	-0.18460795
195	0x3bc6fe2a	0.006072779
196	0xbcb422c0	-0.021989226
197	0xbe01ee8b	-0.12688653
198	0x3dd696f4	0.10478011
199	0x3b5b66e3	0.0033478073
200	0xbd471929	-0.04860798
201	0xbe00e933	-0.12588958
202	0x3d4a387c	0.049370274
203	0xbda06218	-0.0783121
204	0x3d5dd1f4	0.054155305
205	0xbd183a80	-0.037165165
206	0xbda6c9bd	-0.08143947
207	0xbd125807	-0.03572848
208	0x3cda2d5e	0.02663296
209	0x3d97f7a1	0.07420278
210	0xbc270c38	-0.010195784
211	0x3bd479a2	0.0064842263
212	0x3cb18e64	0.021674342
213	0xbcaecb11	-0.021337064
214	0x3de291ec	0.11062989
215	0xbd410886	-0.04712727
216	0xbdb78357	-0.08960598
217	0xbcdf7ae1	-0.027280273
218	0x3d60a715	0.05484684
219	0x3becdef6	0.0072287275
220	0xbcab8c33	-0.020940876
221	0x3d143527	0.036183503
222	0xbda7b870	-0.081894755
223	0xbe60e7f9	-0.2196349
224	0xbdf52586	-0.11970048
225	0xbdd06c3f	-0.10176896
226	0xbda580aa	-0.08081181
227	0xbe5425fd	-0.20717616
228	0xbddcff51	-0.10790885
229	0xbd6744bc	-0.056462035
230	0xbc8781bd	-0.016541356
231	0x3de80768	0.11329538
232	0xbe131738	-0.14364326
233	0xbd5f6161	-0.054536227
234	0xbcf24079	-0.029571759
235	0xbdd3f062	-0.10348584
236	0xbde1983c	-0.110153645
237	0xbcc29ff8	-0.02375792
238	0xbb9a1438	-0.0047021173
239	0x3d0b7e52	0.034056015
240	0xbc5fd90d	-0.013662589
241	0xbd47df5c	-0.048796996
242	0x3d970f6e	0.0737599
243	0x3d4618e5	0.048363585
244	0xbbb2e5b2	-0.0054595107
245	0xbd047433	-0.03233738
246	0xbd8b51ba	-0.068026975
247	0x3e2813d4	0.16413814
248	0x3d637305	0.055529613
249	0x3d8592d2	0.065221444
250	0x3c95009e	0.01818877
251	0x3c32ff80	0.010925174
252	0xbdb93f58	-0.09045285
253	0x3cb05793	0.021526134
254	0xbd0a38cf	-0.033745583
255	0x3deda78d	0.116042234
