outputs/models/nowcast_s2.pt (torch, 272162 bytes, 14 tensors)

in_lin.weight f4 [96, 15]
00000000: b3cd 843d b572 90bd e882 9c3d 6d09 bebc
00000010: a5e4 e13d 18c8 7b3d dc3e c5bc 5bb4 5fbe
00000020: 7fa8 493d 2508 74be b862 c63c 2a14 053c
00000030: 0568 44bd 2744 523e 0fbe 31ba db78 be3d
00000040: 3551 d53d 1e99 2abe e1c3 d5bd 2b46 7e3e
00000050: 1b7c 81be a4c6 bcbc e478 c73d 2f04 7c3e
00000060: cf86 a03c 7097 ae3d e692 d13d 39a9 07be
00000070: 0eb0 1ebe 8814 c8bd 885d 92be 93d9 00be
00000080: 0116 1d3c dab9 583e 5065 503c 7d64 f2bd
00000090: f40f 1b3e 34e0 5bbe 36cf 0c3a e8bb eebd
000000a0: 0908 89bc 3701 acbe b43a 3b3e 8e64 283d
000000b0: 90f0 23bc 5c8d 083e bb8c a43d 1084 933c
000000c0: aa12 e5ba 3a84 a13c b714 0d3e 955d 263e
000000d0: 1750 8a3e c481 483e 027f 13bd b69c 6abb
000000e0: 2c7b f43c 6ebb 233e f380 6a3c 7c76 823e
000000f0: 3f29 023e b33c 71be 07cd 923d c6c6 6e3e
00000100: 0cd9 6a3e 11f5 84bb 1fb4 9e3d dfa3 18be
00000110: 9296 1ebd 9150 183e 39dc 6abe bd3c a23e
00000120: f498 15be 4b68 5f3d 629f ecbc 5b0b 103d
00000130: dc19 6b3c 58b2 80be 3f0b 86bd 9f20 27be
00000140: eec6 603e 4ed4 30bd a49d 88be 9a5d 573d
00000150: d60c d03d 9b8e 00be 878a 0dbd 8165 0c3e
00000160: 9fe7 33be 618d 2cbe dbad 2abc 17ea 18be
00000170: 6057 313e fb5e 5a3d 6630 1e3e b48b 0d3e
00000180: 7354 3cbe 49d3 03be f7de 13be 7806 50bd
00000190: 5e95 7ebd 4abe 1dbc 924f 81be cd43 173e
000001a0: ddef e33d 290b b83d 2a7e 183e f8d7 4e3e
000001b0: d848 8abe d5c0 1f3d a741 753e cb81 37be
000001c0: 2f45 05be 71bd ebbc 3605 34be 55c1 82bd
000001d0: dc53 5abd 59fa 7a3e 9f44 fbbc ba7e 223e
000001e0: 325a 243e 22a0 093e e56d 81be e4fe 593e
000001f0: 0d5b 2e3e f888 3dbe 6b1e 96bd 1c6e d33d
00000200: b770 88be 80ff 5bbe 11bf 04be b502 353c
00000210: 7975 95bd 9fda 89be 0be9 f53d a10f d93d
00000220: 86f2 a63d fc8b 7bbe e3e3 713e 0197 9fbc
00000230: 2ea5 7bbe 341d 5fbd d520 4c3e f7b3 493e
00000240: 5e22 903d 88cb 833e 75cc 51be c2bd 453e
00000250: 2003 6e3e 5380 2ebe 4a77 293d 9021 4e3c
00000260: 12f8 6dbe 6dc1 543d c935 b1bd 06d5 61be
00000270: 0f0f 08be 84b2 da3d 0dcb 943e 3493 f73d
00000280: 62f8 20be b599 8d3e 8b46 223d 08ad 83be
00000290: 508e 76bc d30f 273e 7c14 2bbe 2258 6dbc
000002a0: e8f3 13be 577a 50be af3b 16be 3794 bd3c
000002b0: 793a 1b3e 6c9f 81bd 8674 7dbe 668d 8fbc
000002c0: 7e83 75be 2249 c63c 79f8 333e 3268 043e
000002d0: 78b9 19be 4480 cbbd 6258 e33d c395 e23c
000002e0: 865a 78be 9c25 1abe 7f31 09be aa3d 353e
000002f0: a63f 953e 2105 233e 5956 f63d 0321 0ebe
00000300: 74af 283e 41df d23d d5e3 b8bd 1d11 ccbd
00000310: 5138 343d 1785 edbd 8f6a 9a3d e233 4a3e
00000320: 5374 2ebe 4619 43be ba9e 2bbd dafc 36be
00000330: 2833 a5bb 2541 313e 3178 243e 5e6c c5bd
00000340: 28e0 22bc 1101 babd d69a 60be 98a0 a6bd
00000350: 97bf e03b 8a14 11be 3014 46be 4e76 9a3d
00000360: f8a3 dd3c 6dae babd a47f 743d 4216 693e
00000370: a1b8 4a3b 3d5c 40be ac65 803e 1a20 2f3e
00000380: 187d 6ebb ee1d 09be 37ec 0fbe 3edc 543e
00000390: 6b75 d33d 00f7 07be 7ed6 283c 2a09 da3c
000003a0: 5f4c 843d ff55 1ebd eaee 11be aa4d eebc
000003b0: 39f9 9dbd 5849 babd 5850 11be 58a8 04be
000003c0: 37df 0fbe 1922 373e 0d9f 73be 069c 2cbe
000003d0: 3524 623e cbd5 bd3d 6b84 5d3e c1c0 3f3e
000003e0: e97a d5bd 5b7f 4ebe 3c8b 89be 128a 803d
000003f0: 72e8 a13d 8424 82be 9f20 16be 091e 263e
0.064845465 -0.07053129 0.07642156 -0.023197854 0.110299386 0.06147012 -0.024077825 -0.21846144
0.049232956 -0.23831232 0.024216995 0.008122483 -0.047950763 0.2053381 -0.0006780335 0.09300395
0.1041588 -0.16659972 -0.104377516 0.24831454 -0.25289997 -0.023043938 0.09739855 0.24610971
0.019595532 0.08524978 0.10233097 -0.13248147 -0.15496847 -0.09769541 -0.28586984 -0.12582998
0.009587766 0.21164647 0.012719467 -0.11835573 0.15142804 -0.21472245 0.0005371453 -0.11656934
-0.016727464 -0.33594677 0.18284112 0.04111152 -0.010006085 0.13335174 0.08034655 0.018007308
-0.0017476876 0.01971637 0.13777433 0.16246636 0.2701423 0.19580752 -0.036009796 -0.0035798973
0.02984389 0.15989468 0.01431297 0.2548102 0.12711047 -0.23558311 0.07168012 0.23318014
0.2293436 -0.0040575345 0.07749199 -0.14906262 -0.038717814 0.14874484 -0.22935571 0.31686965
-0.14609128 0.05454282 -0.028884593 0.03516708 0.014349427 -0.25136065 -0.06545114 -0.16321038
0.21950886 -0.04317122 -0.2668277 0.0525795 0.10158698 -0.125544 -0.034555938 0.13710596
-0.17568825 -0.16850807 -0.010417427 -0.14933048 0.17318487 0.053313237 0.1544815 0.13822824
-0.1839159 -0.12873568 -0.14440523 -0.05078742 -0.062154166 -0.009627888 -0.2525602 0.14771958
0.11129735 0.08986504 0.14891878 0.20199573 -0.270087 0.03900226 0.23950826 -0.17920606
-0.13014673 -0.028776856 -0.17580113 -0.063845314 -0.05330263 0.24509563 -0.03067237 0.15868655
0.16050032 0.13439992 -0.25279155 0.2128864 0.1702692 -0.1850928 -0.073300205 0.10323736
-0.26648495 -0.21484184 -0.12963511 0.011048009 -0.07297797 -0.26924607 0.1200734 0.10598684
0.081517264 -0.24565119 0.23622088 -0.019481184 -0.2457473 -0.05447121 0.199344 0.19697557
0.07037805 0.2574122 -0.2048815 0.19310668 0.2324338 -0.1704114 0.04137353 0.012581244
-0.23239163 0.051942278 -0.08652837 -0.22053918 -0.13286994 0.106785804 0.29061165 0.12088624
-0.1571975 0.27656332 0.039618056 -0.2571795 -0.015048578 0.1631463 -0.16707033 -0.0144863445
-0.14448512 -0.20359169 -0.14671205 0.023141963 0.15159024 -0.063292354 -0.24751481 -0.017523479
-0.23975942 0.024204794 0.17575254 0.12930372 -0.15012157 -0.09936574 0.11100842 0.027659303
-0.24253282 -0.1505341 -0.13397788 0.17699304 0.29150122 0.15919925 0.12028188 -0.1387978
0.1647318 0.102964886 -0.090278305 -0.099642016 0.04399902 -0.115976505 0.07539856 0.19746354
-0.17036562 -0.1905261 -0.04189942 -0.17869893 -0.0050414987 0.17310007 0.16061474 -0.0963981
-0.009941138 -0.09082235 -0.21934065 -0.081360996 0.006858777 -0.14167991 -0.19343638 0.07542096
0.027055725 -0.091153 0.05969204 0.22762397 0.0030932801 -0.18785186 0.2507757 0.1710209
-0.003639048 -0.13390324 -0.14054953 0.2078714 0.1032513 -0.13277817 0.010305045 0.026615698
0.06459879 -0.03865623 -0.14251295 -0.029089767 -0.07713551 -0.090960205 -0.14190805 -0.12954843
-0.14049993 0.17884101 -0.23791142 -0.16856393 0.22084124 0.092692934 0.21632545 0.18725874
-0.10423834 -0.2016577 -0.2686404 0.06276335 0.079056635 -0.25418484 -0.14660881 0.16222395

in_lin.bias f4 [96]
00000000: f908 5bbe 974b 803e 3b17 c83c d3b3 703d
00000010: 211d 34bd 5f5c 0a3e 1151 15bd b01b 8dbd
00000020: 7aaf 483d 2008 8f3e 00f2 053e 6c87 ef3d
00000030: 930a 093e 3564 913b e35c 483e 9054 2dbe
00000040: d664 733e 6594 bebd bdef 323d 40f8 723e
00000050: 8c62 49bd c8dc cabd ad5f 63be 3a40 1dbd
00000060: 5049 50be f524 3c3e 79fb b5bc e582 663d
00000070: 8058 9dbc fab8 4cbe 71bb 923c c33f 343d
00000080: 21d6 15be 8633 d23c 5380 01be ba81 2f3e
00000090: 9339 04bd 6b41 6bbe 231c 823e 4b54 fd3c
000000a0: 53c7 9e3e 88cc f9bd 629c 04bd f908 46be
000000b0: 0d62 0d3e fde6 e03c 803c cd3d 059f 13be
000000c0: e976 4c3e 0688 3fbe cdc7 7c3e 4717 833e
000000d0: 73cb 00be 15d3 153d 675d dbbd 327b 7b3e
000000e0: c9f9 d9bd 594b c93c 5a00 9fbd 432c 46be
000000f0: 12d1 2e3e 6196 88bd d981 c33d c08f 4bbe
00000100: 6a55 093e 52ae 08be 1d22 79be 64d4 a5bd
00000110: 5525 efbd 14f1 57bd 7791 a7bd 899c 853d
00000120: a406 81be 0bc2 ccbb 1a8b 1fbd ca57 77bd
00000130: fe05 93bd 8fa1 123b 393a 203d f87d 323e
00000140: a6b6 41bd 6fab 573e 6f66 6f3d 5855 6f3e
00000150: 052a 45bd 62ec 393d 947b 90bd 034a ed3d
00000160: e21f 1bbe 3f99 813e a30d 54bd 62e8 fcbd
00000170: 476d 8abe 760e 21be 34fc 7f3c 453e 773e
-0.21390142 0.2505767 0.02442514 0.058765244 -0.043973092 0.135118 -0.036454264 -0.068900466
0.048995472 0.27935886 0.13080597 0.116957515 0.1338294 0.0044369944 0.19566683 -0.1692679
0.23768935 -0.09305648 0.043685663 0.23727512 -0.049166247 -0.09905392 -0.22204466 -0.03839133
-0.20340466 0.18373473 -0.022214638 0.056277175 -0.01920724 -0.19992438 0.017911645 0.04400612
-0.14632465 0.025659334 -0.12646608 0.1713933 -0.03228147 -0.22974174 0.25412092 0.030923983
0.31011447 -0.12197214 -0.0323757 -0.1933936 0.13806935 0.027453894 0.10021305 -0.1441613
0.19967236 -0.18704233 0.24685593 0.25603697 -0.1257761 0.036578257 -0.107111745 0.24558714
-0.10643346 0.024572061 -0.07763739 -0.19352822 0.17071941 -0.066693075 0.09546251 -0.19879055
0.13411489 -0.13347748 -0.2432942 -0.08097151 -0.116770424 -0.052720144 -0.08182042 0.06523997
-0.2520038 -0.0062487177 -0.038951017 -0.060386457 -0.07178877 0.0022374128 0.039118025 0.17430866
-0.047293328 0.2106149 0.058447298 0.233724 -0.048135776 0.045391448 -0.07054821 0.11586382
-0.15148881 0.2531223 -0.051770817 -0.12349011 -0.27036497 -0.15728173 0.015624095 0.24144848

layers.0.lin_self.weight f4 [96, 96]
00000000: e24e a43d 8ce1 79bc 73b1 b63c 6997 0abd
00000010: 0143 873d c02d c0bd b840 29bd 10d3 243b
00000020: 0b2c 383d ceeb a9ba 1965 dbbb 6d14 7abd
00000030: 581a f23d 853d e03d 55b2 a8bd 1b78 28ba
00000040: 9222 993c 1cc8 d3bc 9c6e 9bbd 1e07 803d
00000050: cee6 273d 7a40 d93d 037f 673d 7aef 9a3d
00000060: 8627 60bd cb50 c9bd 09e3 34bd 8982 c93c
00000070: aa13 763a 9759 0e3e 7c7b 683d 616c 82bc
00000080: d566 fc3a 9286 9a3d daa3 ca3d 858a 34bd
00000090: 24f9 7cbc cf74 e7bb dfd7 d33d 17dd 11bd
000000a0: 2d90 00be 00ed 833d d927 76bd a1f1 023e
000000b0: 9c8a 07bb bf6f 1f3e f05e 963d b31c 593c
000000c0: 452a ae3d 3801 6d3d da62 d2bc cbb1 873d
000000d0: 1c58 b73c 8172 07be 1df2 9b3d 3005 2f3d
000000e0: 54f8 b8bd 020c 3f3d adfe 98bc ef27 c23d
000000f0: c827 8fbd c3d5 56bc c7e3 30bd 9d9d edbc
00000100: 394e 82bd 8dab c73a 0bee 28bd 29ec bd3d
00000110: afe8 783d 7aeb f13d fb58 943d 7861 903d
00000120: a01f 903d c044 62bd 194c a33d b13f 69bc
00000130: b6fa 5e3d b81f a63c 508a 0dbd 89e6 143e
00000140: 5d0e 813b 87ba 963d 2079 ab3d c42d 093e
00000150: 75a9 bb3d cfc5 833d 93be 9f3d f9ee daba
00000160: 8e38 a3bb 9aec 6bbd 8a22 9ebb 594c 4b3d
00000170: 029b 27bb 79dc c0bd 7cb9 293e 952c 303d
00000180: b099 9a3b bec7 6d3d bc07 683d 22bd b73d
00000190: 523c cebb 4587 53bd 31e2 d33d ff79 853d
000001a0: 4cae b6bc 3c7e c8bd aff6 863d ace9 9e3d
000001b0: b87e e73d f2ef 6a3d 3ccb d6bd dbaf 90bc
000001c0: 3075 10bc 550c bfbc a026 4abd 0024 363d
000001d0: 03a9 85bd 4af2 17bd dc12 c6bc 3152 4abd
000001e0: 53c2 90bd 80a1 99bd 7432 c23d 27a5 d5bd
000001f0: 4ef0 083e 5a5e 153e e8b8 8d3c 554f 09be
00000200: 28c9 003d 9206 3d3d 59cd 253d c8f6 9dbc
00000210: 7fdc 7fba eebe 0c3e acb2 ca3d 92b9 d93b
00000220: 08b7 e2bd 8744 a0bd 576f 903d fdff f83c
00000230: 7101 2e3d ccad eb3c b806 0b3d 82cb 4fbc
00000240: 8010 67bc e4f4 aabc bef3 af3d 7456 cdbc
00000250: f8fa ae3d 985e da3c 7237 7b3d 0850 93bd
00000260: 7ea5 a03c b802 0c3e b04c e93c 72cc 33bd
00000270: b321 923d 42e7 54bd 703a 3f3d 6adf c43d
00000280: 8044 b1bd 86ed 75bd a515 90bd 573a c63d
00000290: 35e0 b43d e6fc 903c a6a7 953d 98a1 b03d
000002a0: c5de f53c 2edf 3d3d 318d f53d 9af1 24be
000002b0: ae34 88bd 7f7e 393c 9435 d5bb 074b 7d3d
000002c0: f9c8 b2bd de0e 283b a372 90bc a52f 673d
000002d0: bde2 a3bd 3bd1 adbd 1879 6abd 9ec8 4dbd
000002e0: 8bcd 5cbd 7ec3 09bb 826a 113d be0b 5c3d
000002f0: 98f5 a5bd 116d 0fbd 0b92 503d 1123 bbbd
00000300: 7782 403b 24a3 39bd 3b3f adbd 7372 71bc
00000310: 8c5c 7a3c af15 9a3d 5f2c debb c93b c13d
00000320: a5b3 ef3c 604c 413d fc87 183c 0248 aabc
00000330: a239 87bd b86b 823c 7803 e2bc f2c1 ab3c
00000340: 3769 093e 9347 bdbd d791 cd3d 632d 543c
00000350: a944 4d3c fe37 113d b468 c4bd b4bc 69bd
00000360: 4b01 8ebd ff46 a53d ad25 9f3b aa8f 703c
00000370: 5b9d 053c 3a30 073e f444 1bbd 9f1e ecbd
00000380: cc08 be3d a9bc 933c 3e13 12bb 61a9 873c
00000390: f7bc 74bd 69ec a33c 8b8c 20bd 8bb3 f03d
000003a0: 49a2 82bd 18f2 33bd f358 99bd 26a8 123c
000003b0: f55a 8a3d 3b90 38bd f5dd 19bc fc8e ba3d
000003c0: f1cc 0ebd c6c6 78bd d6c0 91bc ae34 78bd
000003d0: b0e8 5f3d db35 2ebd cc76 bcbd cd7f a0bb
000003e0: 684a c1bd 9fe1 8dbb 97ab d2bd c670 57bd
000003f0: e2b8 ccbd ad47 8bbd 08e2 25bc 9482 a03d
0.08022858 -0.0152515285 0.022301411 -0.033835802 0.06604577 -0.09383726 -0.041321486 0.0025150217
0.044963878 -0.0012963952 -0.0066954014 -0.061054636 0.11821431 0.10949234 -0.08237139 -0.00064265885
0.018693242 -0.025852256 -0.075894564 0.062513575 0.040991597 0.10608001 0.056517612 0.07565208
-0.054725192 -0.09829863 -0.04416183 0.024598377 0.00093870854 0.13901363 0.05675839 -0.01592082
0.001925672 0.075451985 0.098945335 -0.044077415 -0.015440259 -0.007063485 0.103439085 -0.03561124
-0.12554999 0.064416885 -0.060096595 0.12787487 -0.0020681983 0.15569972 0.07342327 0.013251471
0.08504156 0.05786249 -0.025681902 0.06625708 0.022380881 -0.13227274 0.07614539 0.042729557
-0.0903174 0.04664231 -0.018676126 0.09480273 -0.069900095 -0.013112488 -0.043185975 -0.02900582
-0.06362576 0.0015233621 -0.04124264 0.092735596 0.06076878 0.11812492 0.07243534 0.07049841
0.07037282 -0.055241346 0.07973499 -0.014236377 0.054438315 0.020278797 -0.034555733 0.14541067
0.00393848 0.07359796 0.08372712 0.13396364 0.09163181 0.06434213 0.07800021 -0.00167033
-0.004981107 -0.057598688 -0.0048258947 0.049633358 -0.002557457 -0.09417052 0.16574663 0.043011267
0.004718028 0.058051817 0.056648 0.08971621 -0.006293812 -0.051642675 0.10345877 0.065174095
-0.022299908 -0.09789702 0.0659002 0.07759413 0.113034666 0.057357736 -0.10487983 -0.01766198
-0.008817002 -0.02332131 -0.049353242 0.044467926 -0.06526377 -0.0370963 -0.024178915 -0.04939479
-0.070683144 -0.07501507 0.094822794 -0.10431891 0.13372919 0.14586774 0.017300084 -0.13409169
0.031441838 0.046148844 0.040479038 -0.019282714 -0.00097603345 0.13744709 0.0989736 0.006644436
-0.11070067 -0.078255706 0.070524864 0.030395502 0.042481843 0.028769396 0.033941954 -0.012682797
-0.014103055 -0.020868726 0.08591412 -0.025065638 0.08543962 0.026656434 0.061332174 -0.07192999
0.019610163 0.13672912 0.02847895 -0.043896146 0.07135334 -0.051978357 0.04668659 0.09612925
-0.086556435 -0.060040973 -0.07035378 0.09679096 0.088318266 0.017698716 0.07307367 0.086245716
0.030013451 0.04635542 0.11989821 -0.16107789 -0.06650673 0.011321663 -0.006506631 0.06183913
-0.08729739 0.0025643627 -0.017632788 0.05644192 -0.08002231 -0.08487173 -0.05724439 -0.05024015
-0.05390696 -0.0021021063 0.035501964 0.053722136 -0.08103484 -0.035016123 0.050920527 -0.09137548
0.0029374638 -0.0453216 -0.08459326 -0.0147367595 0.015280854 0.07523667 -0.006780192 0.09435231
0.029260466 0.047191978 0.009309765 -0.02078629 -0.066027895 0.015920505 -0.027589545 0.020966504
0.13419043 -0.09242167 0.10037582 0.012950274 0.012528577 0.03545379 -0.09590283 -0.057064727
-0.0693384 0.08070182 0.004856786 0.01468269 0.008155192 0.1320199 -0.037907556 -0.11529278
0.092790216 0.018034296 -0.0022289301 0.016560258 -0.059750523 0.02001019 -0.039196532 0.11752995
-0.0637861 -0.04393205 -0.07487669 0.0089512225 0.0675563 -0.045059424 -0.009391298 0.09109303
-0.034863416 -0.06073644 -0.017792147 -0.060597114 0.054665267 -0.04253183 -0.09202346 -0.0048980475
-0.0943802 -0.0043298746 -0.102866344 -0.052597784 -0.09996201 -0.068007804 -0.010124691 0.07837406

layers.0.lin_self.bias f4 [96]
00000000: 68be 1b3d 0848 a03d b307 13bd 9f0c 8ebb
00000010: 848a 8e3d 834e 5abd b6a1 f43c 9260 a33d
00000020: 9bae 0e3c 9ded 76bc eed0 c33d 4bde 6e3d
00000030: 2398 44bc d20c 1e3d a45b c9bc 420d b13c
00000040: 888d 123c 223e 8dbd 27fe 43bb 2886 85bd
00000050: 55b2 f33a f4c5 d0bc 2d4b 9e3d 769d 3a3d
00000060: 12df 7ebd b5bd 093e a111 29bd ceb6 ba3d
00000070: 261b f6bc 0cd5 ee3c b523 05bd 42c5 1dbd
00000080: 53c1 b83b 8704 873c c8e1 a0bd 1fb1 643d
00000090: 5aa7 c73d 7064 833d 16f0 dc3d 1240 db3d
000000a0: bb9a a13d e271 ea3a ca8b 9e38 b589 653d
000000b0: 1c02 843c c7ab 933c 2341 d6bc f50c 3bbd
000000c0: ebe6 89bd 56bc 923d 94a1 d53d c668 cc3b
000000d0: e106 08bd 7e7d 1cbd 0b26 eebc 53ea bd3d
000000e0: 7e92 e43a 2dcd ff3c 44c6 b93d 53c0 05bd
000000f0: 2dc7 a3bd 268d 5e3d c8c1 8abc 9406 3b3d
00000100: a0e2 a9bd 16c7 e33d 10c2 dbbb 62c5 cabc
00000110: a9a9 92ba 105a 293d adb4 2f3c 4566 063e
00000120: 8669 84bc a916 103d cbeb 81bd 68de adbb
00000130: bfba 24bd e94f 123e d61c 9f3d 7500 a53c
00000140: 3cf3 073d af95 8d3d 97f1 a73c bfe8 113d
00000150: 2192 c33d 3a07 d63b 8cbf 21bd 7d57 813c
00000160: d1af b33d 8599 4f3d 4299 c03c baab 88bc
00000170: 7a26 88bd 3f01 90bd a0d6 ad3d fb48 15bd
0.038023382 0.07826239 -0.035896014 -0.0043350006 0.069600135 -0.05329753 0.029862266 0.07977404
0.008708621 -0.0150713 0.095613346 0.058317464 -0.011999163 0.038586445 -0.02457983 0.021612767
0.0089448765 -0.068966165 -0.0029906125 -0.06519729 0.0018592576 -0.025485016 0.077291824 0.045560323
-0.062224455 0.13451274 -0.041276578 0.091168985 -0.030042242 0.029154323 -0.032504756 -0.038518198
0.0056382804 0.016481651 -0.07855564 0.05583298 0.09748717 0.06415641 0.1078798 0.1070558
0.078908406 0.0017886723 7.560065e-05 0.05603953 0.016114287 0.018026246 -0.026154106 -0.045666654
-0.06733497 0.071648285 0.10431209 0.006238076 -0.033209685 -0.038205616 -0.029070875 0.092732094
0.0017438678 0.031225765 0.09071019 -0.032654118 -0.07996974 0.05433383 -0.016938105 0.04566057
-0.082951784 0.11121957 -0.0067064837 -0.024752323 -0.0011189479 0.041345656 0.010724229 0.1312495
-0.016163599 0.03517786 -0.06343802 -0.005306054 -0.040217157 0.14288296 0.07769172 0.02014182
0.03319095 0.069133155 0.020500941 0.035622355 0.09549356 0.006531623 -0.039489314 0.015788788
0.08773769 0.050683517 0.023510579 -0.016683448 -0.06647964 -0.07031488 0.08488202 -0.036446553

layers.0.lin_neigh.weight f4 [96, 96]
00000000: 409b b2bd 3471 cabb a4ed b0bd 0709 a83d
00000010: a82e 46bc ebc9 46bd 4960 e43d 7e68 8b3d
00000020: dd65 383d c8fd cabd 6085 ec3d baf4 72bd
00000030: c7b7 1e3d 8ae1 3c3d 7d5c 1b3d 8440 e03d
00000040: 5b38 ab3d 2c97 203d 6edc 4a3c dde6 fbbb
00000050: d875 953c dac3 4e3d 1679 393c b201 513c
00000060: 7421 923d 7c64 b73d 979c 3c3d af10 973c
00000070: e7dc 033e e121 eb3d b873 d3bc 77a2 17be
00000080: 086a a73d bf55 4ebc a7fe 093e 08dc 933d
00000090: bcea 343d 486a 51bd aaf2 583d f84d b0bc
000000a0: e771 35bd 2432 473d 1807 6e3b aa34 9ebc
000000b0: 8bda 90bc c9ac 0c3d a6cc 223c 8d50 de3d
000000c0: 9556 ba3d b126 463a 3cd9 c33d 98c3 dcbd
000000d0: 92a7 22bb 83e1 fdbc 303b c63c a99a adbb
000000e0: cbe1 05be d72b e33d f33a ad3d 91ac 1b3e
000000f0: 7875 403d 7ca4 3dbd 658e 9b3d 7862 a73d
00000100: c94b ed3c c2c6 8cbd 820f eebc dded fbbc
00000110: fd95 15bc 938a 973d aedd b93d 0405 80bd
00000120: 461b a73d 623c 9a3c 450b bbbb 93fa 58bd
00000130: 600a c23d 4056 babb 1219 813c 78ee bd3d
00000140: 8b9b e53c b516 463d 2e55 953d 9ef3 413d
00000150: fd33 ad3d fbad 9bbd 09d7 b03b 61dd a43c
00000160: 5aad 84bd 7b6f dc3d 1863 db3d 50dd dbbc
00000170: 4b01 a03d 3a3f 55bd 48d6 dc3d 59ad b9bd
00000180: 5021 28bd 97af 09bd 1856 f9bc 4612 91bd
00000190: bf8b 023e 3dc5 ab3c 33de 6ebc b6b6 45bd
000001a0: 79d7 b63b 04b9 1fbd f2c3 0d3d 0686 0abd
000001b0: e82e 963d f674 453d 93f4 7d3d d398 92bc
000001c0: ddca 8bbc 6e07 44bd 4cdb 98bb a19a 9c3d
000001d0: 1356 373d e326 cf3d ed10 03bd b4d8 c73c
000001e0: df43 f2bc af73 01ba 581c 2c3d 26f6 9fbd
000001f0: 82d0 40bd d5ea c83d 0d28 033e e365 b8bc
00000200: 14af 63bd 29c0 e93d 934b 83bd c200 c7bb
00000210: 5e08 e5bc ec03 71bb a9c3 b23d 2616 f63b
00000220: 2093 22be 7709 073d 598b a63d 5b53 3c3d
00000230: b75f 6dbc 829c cf3d e4d2 ab3d a8af babd
00000240: 91fc 153d 0e0f 87bd 477b 143d 6fbf f43c
00000250: c4a5 783d 6255 33be 2d3e 24bd 08c8 abbd
00000260: 1912 09bd 9590 323c c747 19bd 2805 d73c
00000270: 3497 293d 151a 10bd 0571 e4bc ad38 0d3d
00000280: 587a 5a3d 3659 803d 0956 a43d cd48 823c
00000290: b93f 273e 8fb5 eabb 3ab2 f63d ba0b 07bc
000002a0: 2bcb c43c a58a 8f3d 05c3 e83d c79d 25bd
000002b0: d872 cb3d d8a7 a93d 029c a5ba 8c71 ac3d
000002c0: daf1 bc3d 5b1e 7b3d 5b6c 1bbc 0c63 55bd
000002d0: b86c 863d b0d9 af3d 0367 083d 3322 05bc
000002e0: e892 45bd 4d70 f33c 2485 d33d e28b 8f3d
000002f0: 41bf 343d a953 0cbd 8580 483e 1b94 603d
00000300: 6c33 59bd 587d 133e e030 25be 9b25 15bd
00000310: 815b 95bd 6051 80bd 3283 de3d 069e 933d
00000320: 4423 aa3c d3c0 6dbb 4a34 b43d 86f7 51ba
00000330: 6a03 1a3d 7f78 633d 5540 b93d c1f4 673d
00000340: d44e 9cba 21f1 6abd 5433 bfbb 5a69 023e
00000350: d69e b0bd de83 ee3d aa15 7d3d 2c40 79bc
00000360: fb8d aa3d cf00 5e3d bfab e33c 2035 f93c
00000370: c2fc 063e 1cb0 013e 3c35 153d 80ec 0d3b
00000380: c3ab 903d 9324 8c3d fee9 f43c 8cc8 dabc
00000390: 21a5 b23d d993 ff3c 8d30 8abc d107 3ebd
000003a0: 1646 a0bd 2774 5dba 65a1 2f3d 6221 063d
000003b0: b369 253e c66d edbb d758 9bbd 4724 213c
000003c0: d122 943d e03e d43c 6c9a 70bd c533 ffbb
000003d0: cdb0 ea3d 0d32 2dbd 66c3 193d 0fb3 ac3d
000003e0: 2701 47be 0c3d 0c3d c962 aebd 7c9b 023e
000003f0: be8e d2bc 7289 86bd 48b3 83bd a9de a6bc
-0.08721018 -0.0061780456 -0.08639076 0.08204847 -0.012096085 -0.048532408 0.111511774 0.0680704
0.04501902 -0.09911686 0.11548877 -0.05931542 0.038749482 0.04611353 0.03793 0.109498054
0.08360358 0.03920667 0.012381656 -0.007687433 0.018244669 0.050479747 0.011320373 0.012756752
0.07135287 0.08954713 0.046047773 0.018440573 0.12877236 0.11481071 -0.025812015 -0.14808069
0.08174521 -0.012593686 0.13476048 0.07219702 0.044169173 -0.05112675 0.052965797 -0.021521553
-0.04429808 0.048631802 0.0036320146 -0.019312222 -0.017682334 0.03434447 0.009936487 0.108552076
0.090985455 0.0007558866 0.095629185 -0.10779494 -0.0024819118 -0.030991321 0.024198145 -0.005297978
-0.13074414 0.11092346 0.08458509 0.15202548 0.046987027 -0.046299443 0.07595519 0.08173078
0.028966801 -0.068738475 -0.02906013 -0.03075307 -0.009129998 0.07399478 0.09075485 -0.06250957
0.08159499 0.01882762 -0.0057081305 -0.05297334 0.09474635 -0.0056865513 0.015759025 0.09274
0.02802827 0.0483615 0.07291637 0.047351472 0.084571816 -0.076015435 0.005396728 0.020125093
-0.06478377 0.10763451 0.1071226 -0.026838928 0.078127466 -0.05206225 0.107830584 -0.090662666
-0.041047394 -0.03361472 -0.03043656 -0.070835635 0.12748621 0.020968074 -0.014579344 -0.04826995
0.0055798856 -0.038994804 0.034610696 -0.03381922 0.073331654 0.048207246 0.062000822 -0.017895138
-0.017064506 -0.047858648 -0.004664814 0.076466806 0.04475982 0.10114839 -0.031998564 0.024395324
-0.02957338 -0.00049381977 0.04201922 -0.07810621 -0.04707385 0.09810416 0.12808247 -0.02250952
-0.05558689 0.11413605 -0.06410899 -0.0060730884 -0.027958091 -0.003677602 0.087287255 0.0075099645
-0.15876436 0.03296801 0.08132047 0.04597793 -0.014488152 0.10137273 0.083898336 -0.09115535
0.03661782 -0.06594668 0.03625038 0.029876439 0.06070496 -0.1751304 -0.040098358 -0.08387762
-0.033464525 0.010898729 -0.037421968 0.026247576 0.041403964 -0.035181124 -0.027885923 0.03447788
0.053339332 0.06267016 0.080242224 0.015903855 0.16332902 -0.0071627568 0.12045713 -0.008242542
0.02402266 0.07008866 0.11365322 -0.04043367 0.09934014 0.08283967 -0.0012634995 0.08420095
0.09225817 0.061308246 -0.009486283 -0.05209641 0.06563705 0.085864425 0.033301365 -0.0081258295
-0.048235804 0.029716635 0.10328129 0.070091024 0.044127706 -0.034259472 0.19580276 0.054828744
-0.053027555 0.14403284 -0.16131926 -0.036412816 -0.072928436 -0.06265521 0.10864867 0.07207875
0.02076877 -0.0036278262 0.08799036 -0.0008009601 0.037600912 0.055534836 0.090454735 0.0566299
-0.0011925348 -0.057358865 -0.005834976 0.12735501 -0.086240456 0.116462454 0.06178824 -0.015213054
0.08327862 0.05419999 0.027791856 0.03042084 0.13182357 0.12664837 0.03642772 0.0021655858
0.07064011 0.068429135 0.029896732 -0.026706956 0.08722902 0.031198429 -0.016868854 -0.046394173
-0.07825868 -0.0008447789 0.042878527 0.03274668 0.16153602 -0.007245752 -0.07585304 0.009835309
0.07233203 0.025908887 -0.05874102 -0.007788154 0.11459503 -0.04228406 0.037539862 0.0843259
-0.19434033 0.034237906 -0.085149355 0.12754625 -0.02570283 -0.06569184 -0.064306796 -0.020369845

layers.1.lin_self.weight f4 [96, 96]
00000000: 5c2a 1a3d 91cc 1e3d 93b0 00bd 89e4 55bd
00000010: c8be 9dbd 9ac7 a8bc 1570 26bc deb8 a13d
00000020: 1f63 d63d c13b b13d fd60 f13d fb38 453c
00000030: a086 be3d 31ca e33d 9046 2f3d 952c 5c3d
00000040: 53df 13bd c923 953d a2f4 733c 531b 00bd
00000050: 64b8 eb3d 1527 90bd 25b0 87bc 80c1 f2bb
00000060: 3014 903c 4754 a33b d663 663d 1e4f 953d
00000070: e7a2 4ebd 53eb c53d a971 14bd 8134 87bd
00000080: 37af af3d f8d7 70bc a08c c8bd ad71 653d
00000090: 7939 ec3d b7fb a4bc 8774 943b 6860 8d3d
000000a0: b471 23bd 4fb3 8bbd bbca 6d3d c1a3 0bbd
000000b0: 9f81 a43d 0985 8f3a 6c7e 903d aafc c63c
000000c0: ffbe f4bd 1019 e83d 62ae 2b3d 01e8 57bc
000000d0: 4429 d83c c4ae b33d 4aa2 79bc 9f6f 8b3d
000000e0: 2e1a adbd b369 303d 99e3 cc3d 73f1 38bd
000000f0: da28 84bd 2ffc 8abd 407e 8fbd 5e26 d4bd
00000100: d222 a4bd 2e78 99bc 0c09 853d 5f6d a83d
00000110: e8ba 183d c3eb 1e3d 7014 c8bb e6f4 e6bc
00000120: dea8 2d3d 3dd0 4fbd 9b11 153d ae4e 22bc
00000130: 853d 953d 46ff 36bd a780 763c 3dd9 20be
00000140: 4763 7eba 443d be3d 7252 9f3c 20fb aa3d
00000150: 6d5f 84bd 3c34 40bd 9792 4bbd 15b4 c0bd
00000160: 2353 063d ecb7 093c c012 2b3d 296d 093d
00000170: 4570 c23d 5bd6 dcbc 7c1c 3c3d 7da7 ba3d
00000180: 42b8 85bd 9034 493d a0d1 893d 0ac8 923d
00000190: a43b 9e3d 32f2 f73d d408 4ebc 9168 ebbc
000001a0: 0645 d9bb 0ec1 893d 4171 8d3d d92b a83d
000001b0: 29f8 063d 25ea 8f3c 57fa 11bd a547 713c
000001c0: 698d ae3d b4d2 ce3c 8b78 b73d 8e79 0f3e
000001d0: 948b 78bc a019 39bd fa6e f43d c263 56bc
000001e0: 8bd8 1b3d 2aab 08be 808e 6f3d 26bb f03d
000001f0: 16e9 c43d 4fe1 853c 6c0b 313d 80bc 45bd
00000200: 4f52 64bd c689 c53d d05f 283d c472 40bd
00000210: b4c0 aebc 954d 2c3d f6c8 683d f393 84bc
00000220: da90 ac3d 17dd 89bc eb49 933d 3a14 913d
00000230: f90f 3f3d 7ff0 cfbc 040e 463d dd04 6cbc
00000240: 7237 e53c 1d61 7f3d 63f3 143e d9d5 193e
00000250: 8935 273d e4f8 bb3d 2d9f cb3b 4082 aa3d
00000260: 17da f23d c13a 803c b133 913d 3672 b4bb
00000270: d17c 0a3d d562 b0bd 8717 11bd 594e b8bd
00000280: 4e9d c73c 2a4c 433d 240f f23c d345 d63d
00000290: a24b 583d 2c52 4c3d 5da0 b43d 2359 473d
000002a0: 233f ed3d 9857 bd3d 6202 7dbc 66f1 d53d
000002b0: 7b39 e83c ba79 bf3c f15b 76bc fec9 03be
000002c0: ea98 9dbb de35 a2bc 8193 033e d71a f93c
000002d0: c0ae 1abc e093 1c3d c6d9 fdbc aa38 30bd
000002e0: 6f64 0dbd e846 5b3d 1c10 913d 7560 333d
000002f0: d591 42bc 5267 40bd d6b2 4f3d 55dd 41bd
00000300: fbeb 893d 2395 7ebd c14f a7bd 4d22 15bd
00000310: cc58 7f3d 0fcc 62bd 3339 7ebd b4f6 823d
00000320: 973f 44bd e485 983c fe19 05be c43e 9dbc
00000330: 4ab9 91bd c762 fc3c a9f0 d83b fc77 d93c
00000340: 8f90 4dbd 861e 0b3c 8fb2 063d 0933 513d
00000350: ca06 bcbd 9807 28bd 89a7 223d bede 563d
00000360: 83e9 d73c f66c 103e eeb0 103d 7a60 abbd
00000370: dde7 a13d d62b 013d 2065 f13d 84b7 4f3d
00000380: 8595 a9bd f43c 14bd b93b debc 375f ccbd
00000390: 14a9 05bc 97b4 a8bb 3cbe 97bd 2ce5 a2bb
000003a0: 6fda 9c3c 481b f4bb 436a 72bd 4693 393d
000003b0: 40fc ddbc 8f05 bcbd 794b a5bb 586e a1bd
000003c0: 73dd 36bd cc5e d9bd f67c 0ebd 9947 cabc
000003d0: 7dc6 b6bd 497e 52bd 0d7b c2bd 691e 88bd
000003e0: 18ce adbd a6f6 763d 480d 32bd 1be0 65bd
000003f0: 57d8 163d 699a fcbc 4f85 3c3d 482c db3d
0.037638053 0.03876931 -0.031418394 -0.0522199 -0.07702404 -0.02060299 -0.010158558 0.07896589
0.104681246 0.08653975 0.11786077 0.012037511 0.093030214 0.11122549 0.042791903 0.053753454
-0.03610165 0.07282216 0.014889868 -0.03127606 0.11509779 -0.07038704 -0.016563484 -0.007408321
0.017587751 0.004984412 0.056247555 0.07290481 -0.050448325 0.09664025 -0.036241207 -0.06601811
0.085783415 -0.014699928 -0.09792447 0.056016613 0.115343995 -0.020139558 0.0045304927 0.06903154
-0.039903358 -0.0682131 0.058054667 -0.034091715 0.08032536 0.0010949682 0.07055363 0.024290401
-0.11950492 0.11332905 0.04191435 -0.013177873 0.026386864 0.08773568 -0.015236447 0.068083994
-0.08452259 0.043069553 0.10004348 -0.04515214 -0.06453104 -0.067863815 -0.07006502 -0.103588805
-0.08014454 -0.018734064 0.06495866 0.08223986 0.037287623 0.03879906 -0.006105952 -0.028192949
0.042397372 -0.0507357 0.036393743 -0.009906454 0.072871245 -0.04467704 0.015045322 -0.1570787
-0.00097041245 0.09289029 0.019448493 0.083486795 -0.064635135 -0.046924815 -0.049700346 -0.09409348
0.03279413 0.008405667 0.04176593 0.03355137 0.0949407 -0.026957681 0.045925602 0.09113977
-0.06529285 0.049122393 0.06729436 0.07167061 0.07726219 0.12106742 -0.012575347 -0.028736385
-0.0066305427 0.067262754 0.06906367 0.08211488 0.032951508 0.017567704 -0.035639133 0.014726554
0.085230656 0.025246955 0.089585386 0.14011213 -0.015169997 -0.045190454 0.119352296 -0.013085308
0.03804831 -0.13346544 0.058485508 0.11754446 0.0961477 0.016342787 0.043223783 -0.04827547
-0.055742558 0.09645419 0.041107 -0.04698445 -0.021332122 0.042066175 0.056832276 -0.016183829
0.08426066 -0.016829057 0.07191833 0.07083936 0.046646092 -0.025383232 0.04835321 -0.014405456
0.02798054 0.062348474 0.1454597 0.15022983 0.04082254 0.091783315 0.0062140436 0.083256245
0.118580036 0.015653016 0.070899375 -0.005506779 0.03381044 -0.08612601 -0.035422828 -0.08999319
0.024367 0.047680058 0.029548235 0.10462537 0.052806504 0.049883053 0.08819649 0.04866899
0.11584308 0.09245223 -0.015442463 0.10446434 0.028347721 0.023373473 -0.015036569 -0.12870023
-0.0048094885 -0.019801077 0.12849237 0.030408306 -0.009441078 0.038226962 -0.030987632 -0.04302279
-0.03451961 0.05353442 0.07083151 0.04379316 -0.011875589 -0.046973534 0.05070766 -0.04733022
0.06734463 -0.062153947 -0.08169509 -0.036409665 0.062340543 -0.055370387 -0.06206627 0.06394711
-0.047912207 0.018618532 -0.12998196 -0.019194968 -0.07115419 0.03080882 0.006620486 0.02654647
-0.05018669 0.008491164 0.03288513 0.05107406 -0.091809824 -0.041022867 0.039710555 0.052458517
0.026356464 0.14104065 0.035324983 -0.08368011 0.079055525 0.031535946 0.11786866 0.050712124
-0.08280472 -0.036190942 -0.027128087 -0.09979098 -0.008157987 -0.005148481 -0.07409331 -0.004971167
0.019147126 -0.0074495412 -0.05918337 0.045306467 -0.027097821 -0.09180748 -0.0050443974 -0.078823745
-0.044644784 -0.10613784 -0.03478714 -0.024692344 -0.089245774 -0.051389966 -0.09496126 -0.06646425
-0.08486575 0.060293816 -0.043469697 -0.056121927 0.03682741 -0.030835347 0.04602557 0.10701805

layers.1.lin_self.bias f4 [96]
00000000: 12c5 853d 8375 c13d 2265 d8bc f91e 9bbd
00000010: 6567 453d 331e b23d 47dc 16bd 8e0d e73d
00000020: a88b cc3c 28c7 163c 91b7 d33d e713 84bc
00000030: 48f1 2fbd 0097 ea3d 45de e93d d49b 82bd
00000040: 878c 56bc 2bbe bb3d a46e 703c 4cef cc3d
00000050: 353c e03d 6687 40bd ba85 24bb 2ff9 953d
00000060: a5a7 8fbd f300 ca3d 4d67 0a3e 3cf1 7f3d
00000070: cef1 6ebc d7ca 453a b2bf a13d 9217 c1ba
00000080: 7a64 443d 5a5f 35bd 9915 0dbd 34fb 6fbd
00000090: 3a75 8c3d 40a4 a0bc cbdb 333c 7554 f1bc
000000a0: ef4b a9bd 4bd5 b0b7 d40b 77bd 85f4 b43d
000000b0: 5ae6 023e b78f f53c 5d20 1dbc 6bfb f33c
000000c0: e7b5 933d 09e1 913d 7b37 a2bd 93b5 453c
000000d0: b564 493d c1ff 9ebc 49c6 7f3c be1b 4c3d
000000e0: a304 ec3d ef39 c73d 9a2e 543d 3eef 813d
000000f0: d90c f53d 5cb0 423d 106d 6ebd 0767 35bc
00000100: d002 83bc 0b35 c4bd 3060 ecbc 9a7c 79bd
00000110: a9b9 863c 7cf3 6abd 0045 40bd b90e cf3d
00000120: 6a1e 2ebd ef51 873d e1ba c23d a859 593c
00000130: 97f5 373d 8167 33bb 5716 bcbd d8c6 aa3d
00000140: 7bf4 44bd 4442 6abd 846b fdbb 89b2 043c
00000150: 6dcf f13d cd69 9bbd e54a ab3d 2153 94bc
00000160: 6f0d 99bd 7ae8 a13c 2e7e 49bc 098b 7bbc
00000170: 1b84 d73b 4063 e83d dafb b93d 2184 9ebd
0.06531729 0.09446242 -0.026415411 -0.07574267 0.048194308 0.08697166 -0.036831167 0.11281882
0.024968937 0.009202756 0.10337747 -0.016122771 -0.042954713 0.11454582 0.11419348 -0.06377378
-0.013095028 0.09167131 0.014674816 0.1000658 0.109489836 -0.047004126 -0.0025104121 0.073229186
-0.070143975 0.09863462 0.13515969 0.06248592 -0.014584018 0.0007545179 0.07897891 -0.0014731756
0.047947384 -0.044280387 -0.034444425 -0.058589175 0.06858297 -0.01960957 0.010977696 -0.029459218
-0.08266436 -2.1080157e-05 -0.060314015 0.08835701 0.12783185 0.029975755 -0.009590236 0.029782971
0.072124295 0.07123 -0.07920738 0.012067216 0.049168307 -0.019409062 0.01561124 0.049831145
0.11524322 0.09727847 0.051802255 0.0634446 0.11965341 0.04753147 -0.05820948 -0.011071927
-0.015992552 -0.0958043 -0.02885446 -0.060909845 0.016445952 -0.05736111 -0.046940804 0.1011023
-0.042509474 0.066074245 0.095083006 0.013266005 0.044911947 -0.0027374926 -0.091839485 0.08338708
-0.048084717 -0.057192102 -0.007733764 0.008099207 0.118071415 -0.07588539 0.083638944 -0.018106045
-0.074732654 0.019764174 -0.01229815 -0.015352973 0.0065770275 0.113470554 0.0908124 -0.07740045

layers.1.lin_neigh.weight f4 [96, 96]
00000000: d3f5 a0bc 6605 3cbd 50ed dc3d a883 4d3c
00000010: 8b86 c33d 6dce e5bc fe55 bebd 26bf 3d3d
00000020: 964f cf3c 153d e13d 819e e03d cb9f 833d
00000030: 5da4 4b3d e403 81bd 8adb 773d 4dd9 1d3c
00000040: 2faf eebc 6cb7 b0bc 4c40 e93d f304 2ebc
00000050: de21 8b3c deea 933c baa0 9fbc 1acf 8abd
00000060: 4146 c6ba 8670 c3bd e73b 9ebd ceaf 873d
00000070: 9cf1 6cbd a1dd 933d ba3d 97bb 8840 cdbd
00000080: 14c4 483d 3de0 6b3d 0ca2 183d ca1a e63d
00000090: 53b0 12bd a908 ac3d ec3b 8cbd 30fe 8cbd
000000a0: 3a3e babb 53ad bf3d 4356 c0bd f689 433d
000000b0: 55f7 563d 1c5c 4e3c 73bd ef3d f0c2 633d
000000c0: 2b31 b6bd 76c4 9b3d 18cd a6bd efab c23d
000000d0: 995e c73d d0ec 843d 08da 6e3d f3d7 95bd
000000e0: c699 9d3d d481 e73d d3fa d73d fbf1 21bb
000000f0: 1375 993d 8ada 12be 4aad babd 05ec 2abe
00000100: d887 cc3d 0e40 953d d31d 38bd fa17 213c
00000110: df95 6a3d d040 8ebd bdba 903d fc48 cdbd
00000120: 4853 94bd cdc0 9a3d 546c f03c 0f95 c13d
00000130: 719d 2e3d 3f0c fabd a308 6bbc abd8 ffba
00000140: dc92 a63d 8b5a 80bd b705 913d 9901 d33d
00000150: 786d dabc 5485 103d 6458 46bb 318f 44bd
00000160: c377 633b 8ce4 af3c 06eb 753d c50e 3bbd
00000170: 6327 883d da35 f63d e817 5f3d 22ff a83d
00000180: a98b 403d bbfd 893d 394d 6d3c 465d 8cbc
00000190: d4ed 73bd 6ce5 963b ed9a 16bd cf34 f33c
000001a0: 753c b43d 0b8f 683c f474 4939 f80b cbbd
000001b0: 4671 be3d 51bc 80bd fea3 023d 1659 a93d
000001c0: ba81 973d 7a65 2c3d dcd9 bcbc 0487 3a3d
000001d0: 9c6f 28bd 04d0 b5bd d485 2a3b 2475 3dbd
000001e0: a5ac 043e 7417 01be 1444 363d 649d a83d
000001f0: 0534 e6bc 1e90 0f3e 5fc9 86bc 4c13 a8bb
00000200: 015a 703d c826 903c bbac c03d 261b 4c3d
00000210: e21b a23d 84d3 dfbc e2ce f83d 247b 283d
00000220: 4279 d9bc 95c4 b9bc aa87 8d3d 4595 1ebc
00000230: f979 b63d abc2 5b3a b2c0 213e 1ebc b33d
00000240: b171 f43d 7606 b63c 5fae 78ba 353c 2e3d
00000250: 9057 f03c d192 503d d95f 4cbd 4007 6a3d
00000260: 4b5d 063e 1e44 f03d b51e 073c 9543 223d
00000270: 8878 003e cdef fdbd bd5d a1bc 1e4c e9bd
00000280: 3960 343d 3e21 c03d ac8c 0f3d 4d1c f53d
00000290: 1f3b 9f3d a4a8 e4bc d472 30bd 6674 523d
000002a0: eacb c23d 4b30 ba3c 8ae5 143d 834a 27bd
000002b0: c5be fd3b 642a 00bd 1e9a e0bd 226c debd
000002c0: bca7 bc3d a380 af3d 81cc b33d 6323 50bd
000002d0: 5a49 be3d c064 e63c c928 58bd 6051 803d
000002e0: 44d1 ae3d 5521 e53d eb69 17bd 5599 b4bd
000002f0: dc98 49bc ef68 143e e09f e9bc 19bf f03d
00000300: 627c e83d ca0f c8bc 11e8 dfbd 0851 93bd
00000310: c465 a13d 3e31 ec3b 5b09 77bd 6937 c63a
00000320: 4e1e a83a 8190 c2bd e29a 25bc f04c ed3d
00000330: fa08 41bc 0bae c23d 6a30 a33d af01 71bd
00000340: 3a25 9c3c d5c4 00bd 74b9 e13d 34d6 b7bc
00000350: 9b03 9d3d 0fd2 cfbc b0b8 193c 5290 38bd
00000360: 33cd 633d f82f 1d3d 4f90 22bd 85e3 acbc
00000370: b5d5 28bc 3eb2 f13c 9184 943b 0302 1bbd
00000380: 0627 d0bd 2635 f63c 8089 96bd b964 6fbd
00000390: 180f 573d a9e4 013c f118 9d3d 1d5a d8bd
000003a0: 47b8 acbd 1582 bebc 2718 8d3c 6bda c0bd
000003b0: 0998 943d bac1 93bd 8b21 81bb 1926 803d
000003c0: d52b 3f3c f13f 853d 4ba6 473d 42ed 4bbd
000003d0: b3a7 ac3d e54e 7b3d 9679 dfbd 6f72 babd
000003e0: 5c52 d1bc 9e60 6e3d e49c a03c 0fe8 1bbc
000003f0: 0e5c 6abb 2969 543d 6a7f 033d 9339 3d3d
-0.019648468 -0.045903586 0.10787451 0.012543596 0.095471464 -0.028052533 -0.092937455 0.04632487
0.025306504 0.109979786 0.10967732 0.064269625 0.049717296 -0.0629957 0.060512103 0.009634328
-0.029136268 -0.021571837 0.11389217 -0.010621297 0.016983923 0.01805633 -0.01948582 -0.06777783
-0.0015127138 -0.095429465 -0.07726269 0.06625329 -0.057847604 0.07220007 -0.0046155127 -0.10022074
0.04901512 0.057586897 0.037263915 0.11235578 -0.035812687 0.08400089 -0.06847367 -0.0688442
-0.0056836875 0.09359231 -0.09391453 0.04773899 0.052481968 0.012595203 0.117060564 0.05560583
-0.08896097 0.07605831 -0.08144587 0.0950545 0.0973484 0.06490481 0.0583134 -0.0731658
0.076953456 0.113040596 0.10545888 -0.0024710882 0.07493033 -0.14341179 -0.091150835 -0.16691597
0.09986848 0.07287608 -0.044950318 0.009832377 0.057271834 -0.06945956 0.070668675 -0.10023686
-0.07242447 0.07556305 0.02934853 0.09452259 0.042630617 -0.12209367 -0.014345321 -0.0019519528
0.0813348 -0.0626727 0.07081168 0.10303039 -0.026663527 0.0352834 -0.0030265087 -0.04798812
0.0034708835 0.021471284 0.06003859 -0.045668382 0.066481374 0.1202199 0.05446616 0.08251788
0.04700819 0.06737848 0.014483743 -0.01713432 -0.059552982 0.004604986 -0.036768842 0.029688267
0.08800594 0.01419426 0.00019212422 -0.09914392 0.09298949 -0.062859185 0.031894676 0.08268945
0.0739779 0.042088963 -0.023053102 0.045538917 -0.041122064 -0.088775665 0.002601971 -0.046254292
0.12956484 -0.12606603 0.044498518 0.08233145 -0.028100977 0.1401982 -0.016453443 -0.0051292535
0.058679584 0.017596617 0.09407946 0.04983058 0.079154745 -0.027322538 0.12148835 0.04113306
-0.026547078 -0.022676745 0.069106415 -0.009679143 0.08909983 0.0008383195 0.15796164 0.08776115
0.119357474 0.022219878 -0.00094864325 0.042537887 0.029338628 0.050921265 -0.049896095 0.05713582
0.13121526 0.11731742 0.008247067 0.039615232 0.12545979 -0.12399254 -0.019698018 -0.11391471
0.044037078 0.093813404 0.035046265 0.119682886 0.07774948 -0.027912445 -0.04307826 0.051380537
0.0951155 0.022728106 0.036351718 -0.040842544 0.0077436888 -0.031290427 -0.109668955 -0.108604684
0.0921168 0.085694574 0.087792404 -0.050814997 0.092913345 0.028124213 -0.05277327 0.06265521
0.08536008 0.11187998 -0.036966246 -0.08818308 -0.012304511 0.14493154 -0.028518617 0.11755199
0.11351849 -0.024421591 -0.10932935 -0.0719319 0.078807384 0.0072080186 -0.060311656 0.0015122715
0.0012826414 -0.09500218 -0.010107728 0.1158694 -0.011781925 0.09505852 0.079682186 -0.058839496
0.01906072 -0.031437714 0.110217005 -0.022441007 0.07666703 -0.025368718 0.009382412 -0.04505951
0.055615615 0.038375825 -0.039688405 -0.021104584 -0.010304858 0.029503938 0.0045324047 -0.037843715
-0.10163693 0.03005464 -0.07350445 -0.058445666 0.05250463 0.007928052 0.07670773 -0.10564063
-0.084335856 -0.023255387 0.01722343 -0.0941666 0.07255561 -0.07214685 -0.003940766 0.062572666
0.011668165 0.065063365 0.048742574 -0.049786814 0.084304236 0.061354537 -0.109118626 -0.09103858
-0.025551967 0.05819761 0.019606061 -0.009515776 -0.0035760435 0.0518581 0.032103933 0.046197485

layers.2.lin_self.weight f4 [96, 96]
00000000: c59e 8abc a2b0 bf3b fc3f 0b3e 48cb f6bd
00000010: b885 943d c622 383c a397 0fbc 36ad 943c
00000020: 1e87 a23d fb4c 223c 880d acbd 54f8 cbbd
00000030: 46f8 9abd 2e53 913d 4701 473d a4ef d9bc
00000040: bd77 9fbd 9931 c63d 4433 44bc 4d30 d83c
00000050: ae0c 93bd ec4b 0bbd 88e4 7e3d d61f cebd
00000060: 6ddd 973d 21d5 033c a8cf 0dbc 08a5 913d
00000070: e9c9 bd3d 2efa f4bc b7d1 463d c122 45bd
00000080: 45d5 ef3d 5ee6 28bd 8df4 afbd 654f 153c
00000090: d18f 7ebd 37e1 c5bc 3fac 073d ea9c 30bd
000000a0: 1e9e b1bc bf88 e0bc 922b 973d ffff d7bd
000000b0: 0986 153d e243 91bd 128e 02bc 243b ee3c
000000c0: 3213 e8bc d17f 0d3e c93d 853d f370 04bc
000000d0: 6e9b b3bd e033 ae3d 0188 433d 624f c73d
000000e0: f69b 103e 51b2 323d 0b8b 9b3c cb0d 6abd
000000f0: 2e18 223e d018 7bbc 1fec bdbd f81c 62bd
00000100: dd4e 1ebd fd4f c2bd 5300 cebd 9ea2 36bb
00000110: 25c8 9fbd 8c1c 923d 591f ea3b 6779 9c3d
00000120: d861 57bd c788 623b f3ac 1fbd 3e84 9f3d
00000130: 1276 1e3c ce77 043d 7956 553d 054e 873d
00000140: 7511 8ebb c2ab 92bc 10a3 97bd 58d0 06bc
00000150: 75a8 033e 79dd bcbd bae2 68bc 7d96 4f3d
00000160: 7f24 9e3c 12e7 003e 2f20 843d edce fa3c
00000170: e225 a03d db7b 833d 35b9 ed3d 7fd9 b13d
00000180: c9ce fe3d 75cf 9d3d eeea f63c 7805 3b3d
00000190: d269 2ebd f075 c6bc f4d5 dd3d 8341 313d
000001a0: b29e 3f3d 4e9d 823d b719 25bd b11b 56bd
000001b0: fa1e 18bd 5daf 4d3c e4c0 55bc 6bc1 b43d
000001c0: 4b66 3cbd 1f4e 92bd 5f7f c6bc fe7e 66bd
000001d0: ef12 b93d 3824 a33d e2af 6bbd 96a3 7dbc
000001e0: 10da 3b3d 6af9 cd3d aad0 21be d74c 713d
000001f0: f896 fb3b cd3e 553c 359c 77bd f846 6e3d
00000200: 98ac 00bd 5d81 d83d c0da e33d 7b49 7b3d
00000210: b21d 70bd 6d59 563d 0af0 bf3d 4528 88bd
00000220: ee3a d33d abd3 bbbd 9525 583d ba2e dfbc
00000230: e906 01be 20b5 453d 60e8 003e 0f7b b83d
00000240: 710f 8bba 704e e3bc 8e91 50bc 542f 603c
00000250: 9ef9 133c 68ca db3c f5e8 843d 9a52 72bc
00000260: 489c 4abe 7973 78bd de8e f1bb d855 f13d
00000270: 4517 adbd 77c5 963d e487 7bbc 3c62 1c3d
00000280: 9104 30bd 9911 1a3d 1a44 bf3d ed4d 75bc
00000290: 3762 a13d 15c2 4f3c c5cf a1bd 75b3 58bd
000002a0: e280 aabd 6a37 be3d 1492 97bd 36a2 3abd
000002b0: 2102 8d3d 44d7 f63d 781a 54bd 5bc8 ab3d
000002c0: 6bbf d33d e506 753c c930 e83d 059f a53d
000002d0: eb15 5cbd 07a0 d23d dbf4 9bbd 57c1 02be
000002e0: e0e8 cf3c 63a4 c63c 5d56 1cbd 2530 09bd
000002f0: 2ed1 abbd c4d6 213d 6f62 29bc dd5b 90bd
00000300: 14c9 ce3c 2550 913d 972d e9b9 e288 8abd
00000310: 8936 543d e403 c63d 52c8 6bbc 5c9c 51bd
00000320: 6c1b 8c3c 5142 54bd 4cc6 503d 8b66 26bc
00000330: 0911 973d 2123 09bc cc6a 8f3d d9cb a4bd
00000340: 7290 953d e9bf abbc 08be 88bd 91d1 ed3c
00000350: 79e4 853d b2a5 86bd 1326 103d 9b67 2f3d
00000360: 2d79 61bd b794 ec3c c86d 9f3d 62c8 6d3d
00000370: b6b8 c8bd c2ba 95bd a0ad 8a3c b67f 84bd
00000380: d4cb 73bd 542a 9c3d ab2e a03d 0936 253c
00000390: 1658 313d 9f7a 80bd 512e b3bd cf9d cfbd
000003a0: e8d8 aebd 160a 89bd 811c 01bd 9d8c b1bb
000003b0: e778 c43d a15c 023d 470c a4bd 8de5 7f3c
000003c0: ec38 a53c 1df6 a2bd 008b 19bd ef6f e73c
000003d0: f7a2 96bc 6dac 44bc 680b 9abb 339e f83c
000003e0: 87a4 c13d 85c7 973c 6804 713d b7d7 993d
000003f0: db9e 7eba a0c3 a1bd 860c a03d 4780 1c3d
-0.01692141 0.0058499137 0.13598627 -0.120504916 0.07252067 0.011238759 -0.00876418 0.018149
0.07935928 0.009906049 -0.084010184 -0.09959474 -0.07566886 0.070959434 0.048585203 -0.026603527
-0.0778651 0.09677429 -0.011975113 0.02639022 -0.07180153 -0.03400795 0.062229663 -0.10064666
0.074152805 0.008046419 -0.008655466 0.07111555 0.09267027 -0.029904451 0.048539843 -0.048128847
0.117106 -0.04123532 -0.08591566 0.009113167 -0.062148873 -0.024155242 0.03312325 -0.043118395
-0.021681841 -0.027408956 0.07381357 -0.10546874 0.03650478 -0.07093026 -0.0079684425 0.029080935
-0.028329466 0.1381829 0.06505925 -0.00808357 -0.0876988 0.08505988 0.047737125 0.09731938
0.14121994 0.043627087 0.0189872 -0.05714206 0.15829536 -0.01532574 -0.09273552 -0.055203408
-0.03864943 -0.09487913 -0.100586556 -0.0027867923 -0.078018464 0.07134351 0.00714485 0.07640343
-0.052583545 0.003456639 -0.038983297 0.07788895 0.009671705 0.032340817 0.05208442 0.06606678
-0.004335577 -0.017904166 -0.074041486 -0.008228384 0.1285723 -0.0922193 -0.014214212 0.050680626
0.019304512 0.12588146 0.06451451 0.030616248 0.078197256 0.06420108 0.11607591 0.08684062
0.12441785 0.07705585 0.03014132 0.045659512 -0.042581387 -0.024226159 0.10831824 0.043275367
0.046782203 0.0637766 -0.040307727 -0.052272502 -0.037138917 0.012554017 -0.013046477 0.08825954
-0.04599599 -0.07143807 -0.024230657 -0.056273453 0.090368144 0.079658926 -0.05754078 -0.015480896
0.045862257 0.100573376 -0.15802255 0.05891117 0.007677909 0.013015461 -0.060451705 0.05817315
-0.0314146 0.10571549 0.111257076 0.061349373 -0.05862207 0.052331377 0.09371956 -0.06648306
0.10313974 -0.09171232 0.052770216 -0.02724396 -0.12600292 0.048268437 0.12588644 0.090078466
-0.001060946 -0.027747363 -0.012730015 0.013683159 0.009031681 0.026829913 0.064897455 -0.014790202
-0.19786179 -0.060657 -0.0073717674 0.117839515 -0.08451704 0.07361882 -0.015352223 0.03817962
-0.042973105 0.03761444 0.09339161 -0.014972192 0.07880061 0.01268055 -0.07900957 -0.05290552
-0.08325364 0.09287913 -0.07400909 -0.045564853 0.06885172 0.120527774 -0.051783055 0.08387824
0.103392445 0.014955257 0.1133743 0.08086971 -0.05373184 0.10284429 -0.07615062 -0.12769066
0.025379598 0.024248308 -0.0381683 -0.03349318 -0.08389507 0.039511457 -0.01033841 -0.070487715
0.025242366 0.070953645 -0.0004447519 -0.067643896 0.05180982 0.09668711 -0.014391022 -0.051174507
0.01710292 -0.051821057 0.05097036 -0.010156284 0.07376296 -0.008370192 0.07002792 -0.08046693
0.073029414 -0.020965533 -0.066768706 0.029030593 0.06537718 -0.065745726 0.03519256 0.042823415
-0.055047203 0.028879507 0.07784611 0.058052428 -0.09800856 -0.07311012 0.016928494 -0.064696714
-0.059520558 0.07625261 0.07821401 0.010083684 0.043296896 -0.06273388 -0.087490685 -0.101375215
-0.08537465 -0.06691377 -0.031521324 -0.0054183737 0.09593373 0.03182662 -0.08010154 0.015618694
0.020168744 -0.07957099 -0.037486076 0.028251616 -0.018388255 -0.012004 -0.0047010668 0.030348873
0.09455209 0.018527756 0.058842093 0.075118475 -0.00097130024 -0.07898641 0.07814889 0.038208272

layers.2.lin_self.bias f4 [96]
00000000: 74b0 acbd 3fdc 01bd 99ed a9bd 895d 91bd
00000010: 6b62 7bbd 8e7b 1d3d c425 97bc 7ce0 90bd
00000020: 6441 adbc e305 9c3d 03b4 a0bd ccbc fa3c
00000030: bb8e 3abd 759a c4bd 7103 193d c123 2abd
00000040: 008f 013d c93e f93d 1340 293d 6550 e33d
00000050: f94b 6f3d 4aa3 c2bb 0499 d13d f34b b7ba
00000060: 9e7f 7b3c 9961 06bd 9626 9d3d fbd6 ac3c
00000070: c882 083e 831f e93d 0e82 49bc 4b65 093d
00000080: 8663 903d d7db 233d 0ae1 1b3b 6100 60bd
00000090: 0e12 87bd eb8d b6bc ab58 86bd e518 bdbc
000000a0: 0f94 5c3d 5007 efbb 510c d53b 397e 72bd
000000b0: 2924 b43d 7899 163b a6ed 69bd 16c5 f23c
000000c0: e636 8c3c 3946 2c3d b2ec 87ba bb29 c3bc
000000d0: 8d6b 7d3d f1f6 063d 4cb4 d03d e04d f93c
000000e0: 5fc8 933d 2552 51bd 2c6d 843d 4c55 1cbc
000000f0: 58c8 8b3d d74b b63d e2cb b93d 0908 833d
00000100: 903a b0bd 17cf 2bbd 2e34 ab3b a7f2 00bd
00000110: 6057 d53d 1be8 d83d 0e15 873c cd3b be3c
00000120: fb9d 883b 090b d73d 6a67 f83d 69b5 e43c
00000130: a7e0 38bd 9cb0 cf3d e6f4 9ebc 66fb 96bd
00000140: 05aa d5bd a6b4 0bbd d12e 863d 9a72 b73d
00000150: 4a61 853d aa64 99bd d5bf 4abc 773a 6f3d
00000160: d74f 23bc 404b 7d3c 3d22 1cbd d2f7 c63d
00000170: 09e4 163d bdb3 8d3d a4b7 df39 2839 253d
-0.08432093 -0.031704184 -0.08297271 -0.070979185 -0.061373156 0.03844791 -0.018450625 -0.07074067
-0.021149345 0.0761831 -0.078468345 0.030607603 -0.045546275 -0.09599773 0.037356798 -0.041538004
0.031630516 0.121701784 0.04132087 0.110993184 0.058422063 -0.0059398757 0.102342635 -0.0013984427
0.0153502505 -0.03280792 0.07673375 0.021098604 0.13331139 0.113829635 -0.012299074 0.033543866
0.070502326 0.040004577 0.0023785257 -0.05468786 -0.065952405 -0.022284469 -0.06559881 -0.02308316
0.053852137 -0.007294573 0.0065017124 -0.059202407 0.087959595 0.0022979658 -0.057111405 0.029634994
0.017116021 0.042059157 -0.0010370223 -0.02382361 0.061870147 0.032950345 0.10190639 0.030432642
0.07215952 -0.05110373 0.064661354 -0.009541821 0.06825322 0.08901184 0.09072091 0.06398017
-0.0860492 -0.041945543 0.005224726 -0.03148141 0.10417056 0.105911456 0.016489532 0.023221875
0.0041692234 0.10500152 0.121291 0.027918534 -0.04513612 0.101411074 -0.019403886 -0.07372169
-0.10432819 -0.034107827 0.06551898 0.089574054 0.06512697 -0.07489903 -0.012374838 0.058405366
-0.009967766 0.0154598355 -0.03811859 0.09715237 0.036838565 0.06919048 0.00042670697 0.04033771
