outputs/models/nowcast_b128L3_s0.pt (torch, 475687 bytes, 14 tensors)

in_lin.weight f4 [128, 15]
00000000: d8ba 623c 3a3d 213e 3acf 4abe 55c7 2dbe
00000010: 92aa cbbd 9ecc 8d3d 4bda 513c 54bf 3d3e
00000020: 3fa2 aa3c e98b 063e 3c0c eabb 57e5 8dbd
00000030: 253e 8ebe 1df5 10be 15e2 f7bd d3da 71bc
00000040: 8a2a bc3d c202 063e 298b 3dbe db44 e6bd
00000050: e910 c03d bdd8 4e3e a499 023e 4639 793e
00000060: 7477 0eb9 e31a a83b 6942 d33e 6dd7 3ebe
00000070: e412 59be ae97 06be 3df7 3ebc 896b 633e
00000080: 390a 88bd 4cd2 f5bd afb7 38be 679f 77be
00000090: bf1d 16be bd50 d23e 2d56 2b3e 1dba 353e
000000a0: 123a 2ebc d3cb 3a3d 7582 48bd 0b9c 0dbe
000000b0: f961 b0bd 07f8 69be d231 d33d 9abb 653d
000000c0: 56a2 32be f3a3 18bc da18 293e e852 453e
000000d0: 388f 713e 7914 523d d63e 3d3e c2c1 45be
000000e0: ab9c 273e 6339 89be 4dc3 e1bd 02ef 8bbd
000000f0: c266 133e 6b76 9bbb c2c1 02be e8f3 01bd
00000100: 5425 113e 3c7c 05bd 8562 b3bd 96d9 fa3d
00000110: e67d 443e 5794 813e cd64 58be b2c2 36bd
00000120: 7487 d3bc 805f 003e c2d5 d73d 3207 2a3e
00000130: ce96 4ebd 9db8 92be ce80 a0bd 4768 25be
00000140: 9667 76be a5fd 153e 0974 5f3e 48f3 68be
00000150: b625 8e3d 81ff f4bc a4a0 03bd 2815 47be
00000160: 5714 533d 5639 a2bd c673 493d 4c62 403d
00000170: f5bf 0e3e 81b0 513c 42d7 82be 3d83 2bbe
00000180: c23c 733d 2898 583e 9940 29be 0637 debd
00000190: 7fa9 563e 6969 a53e 1c83 44be ab7f ccbc
000001a0: a6ce 11be 2c6a 883c 5d3a 23be 468d 36be
000001b0: 09a4 993c 72ca 1e3d 5a8e d8bd 5ebc 3b3e
000001c0: 87d2 09be 5b97 983e 7af9 693e 26d8 2dbe
000001d0: f035 96bd d570 3fbd b294 e03b 1d9a a33c
000001e0: 94fd 2b3e 651e 35bd e93c 6dbd 2eb2 7e3d
000001f0: 0a9f 7dbe 86b5 1cbe f9b2 12be 8752 3fbd
00000200: ef7f 5ebd 303d 37be f7d9 74bd 979f ad3d
00000210: 6ea3 9abe 3a53 2cbd b2be 9e3d 8a06 c3bd
00000220: de6b b7bc dcfb b8bd a4cb b93c fa1c 283e
00000230: a272 7a3e e9b9 073e a0b0 ce3e b098 d83c
00000240: 7054 3fbe 38c9 24be 05b1 a53e 8364 46bd
00000250: abb6 a2bd b1b2 e9bd 4d9f 8bbe 3f1b 0fbe
00000260: 47ac b7bd 451f 623e 72f1 0e3e dafd 7ebe
00000270: ee8c 683e f045 c9be 2b78 d1bc 5a20 d2bd
00000280: 87c2 b43c e05f 4dbe 03a4 46be 53c7 82be
00000290: 0d85 a4bd 2817 76bc 635c e1bd 657c a13d
000002a0: af5e 66be 26bf 8ebc c283 683e 41be fcbd
000002b0: ea6a 763e d2d6 ce3d 77f0 66be 3ef3 2e3e
000002c0: 24c8 b8bc b005 0fbe 7694 493e 0c5a 4fbe
000002d0: 5bf9 24bd 6188 0dbd 6720 ee3d 1128 bb3d
000002e0: 4916 fe3d 55bf ba3d e32d a9bd 9442 fd3d
000002f0: 5f61 05be 4a63 4c3e 720d 5b3e 0f0f b13e
00000300: 5ca4 45be ab9e a2bd 9298 e5bd bccf 20be
00000310: fdf1 35bd b143 953d 0f02 44bd 8796 b8bb
00000320: 4af6 313c 4109 2a3e 2c5f dbbd 35c0 033d
00000330: ad45 d23c 6080 d93e 4bcb e7ba c5eb e73d
00000340: 8a06 113e 17f1 783d aaa7 873a 670b 2a3d
00000350: 250a 133d afa9 043d 09cb edba b0f0 063d
00000360: d8fd 1abe c492 0e3d 7ef2 8e3e f98f 0fbe
00000370: d7ac 0c3c 734d d03e 37c4 843c 5d30 103d
00000380: f60f 09be aa23 bd3d 7953 c7bd f58f debd
00000390: 4ceb 1e39 599d 1cbd 1c17 393b bb4b 613e
000003a0: 217d 523e 1064 8f3e cd46 4d3e ddee 43be
000003b0: d920 903e ebcd 1fbe 9d14 d6bd b047 dfbc
000003c0: 15d9 f23c d1bd de3d 6822 0ebe 2c84 adbd
000003d0: fb1d 083e eab1 7fbe dfb6 e43d c3f7 94be
000003e0: a4f1 ad3c 23f0 56bc dc3e c4bd 1924 53bd
000003f0: 5af6 023d a6f5 3a3d 9177 163d 5d50 24be
0.013838492 0.15746012 -0.19805613 -0.1697057 -0.09944643 0.06923793 0.012808393 0.18530017
0.020829318 0.13139309 -0.0071425717 -0.06928509 -0.27781788 -0.14156003 -0.121036686 -0.014761644
0.09187801 0.1308699 -0.18510117 -0.11243602 0.09378225 0.20199867 0.12753922 0.24338254
-0.00013586675 0.0051301583 0.41261604 -0.18636866 -0.21198612 -0.13143799 -0.011655626 0.2220899
-0.06642575 -0.120030016 -0.1803882 -0.24181901 -0.14659785 0.41077223 0.16732092 0.17746778
-0.010633962 0.04560454 -0.04895254 -0.13829057 -0.08612437 -0.22848521 0.10312237 0.056087114
-0.17444739 -0.009316432 0.16513386 0.19269907 0.2358979 0.051289055 0.18481001 -0.19312194
0.16368358 -0.26801595 -0.11023579 -0.068326965 0.14394668 -0.004744341 -0.12769225 -0.031726748
0.14174396 -0.032589182 -0.087590255 0.122485325 0.19188651 0.25308487 -0.21132202 -0.04461927
-0.025821425 0.1253643 0.10538818 0.16604307 -0.050436787 -0.28656474 -0.078370675 -0.1615306
-0.24062952 0.14647539 0.21821608 -0.22749054 0.069407865 -0.02990699 -0.03213562 -0.19441664
0.05153307 -0.07921092 0.049182676 0.046968743 0.13940413 0.0127984295 -0.25554854 -0.16749282
0.059384115 0.21151793 -0.16528548 -0.10850339 0.20963095 0.32306984 -0.1919064 -0.02496322
-0.14238986 0.01665219 -0.15940233 -0.17827329 0.018754976 0.038767286 -0.105740264 0.18333575
-0.13459216 0.29802975 0.22849074 -0.16976985 -0.073345065 -0.046738464 0.0068536634 0.019970948
0.16795951 -0.04421844 -0.057919417 0.062181644 -0.247677 -0.1530362 -0.14326085 -0.046709564
-0.054321226 -0.17894435 -0.05977818 0.08477705 -0.30202812 -0.04207156 0.07751216 -0.095227316
-0.022390302 -0.09032413 0.022680111 0.16417304 0.24457791 0.13254513 0.4036913 0.026439995
-0.18684554 -0.16092384 0.32361618 -0.0484357 -0.079449974 -0.11411036 -0.27269974 -0.13975237
-0.08968406 0.22082241 0.13959292 -0.24901524 0.2271001 -0.3931117 -0.025569996 -0.10260077
0.022065414 -0.20056105 -0.19398503 -0.25542697 -0.0803319 -0.015020169 -0.110039495 0.078850545
-0.22497056 -0.017425131 0.22706512 -0.123409756 0.24064222 0.100995675 -0.22552668 0.17084977
-0.022556372 -0.13967013 0.1968554 -0.20249194 -0.040276866 -0.03455389 0.11627274 0.091385014
0.12406594 0.09118525 -0.08260705 0.123662144 -0.13025425 0.19959751 0.21391848 0.345818
-0.1930098 -0.0794042 -0.11210741 -0.15704244 -0.04442023 0.07288302 -0.047853526 -0.0056331786
0.010861943 0.16605093 -0.10711512 0.032165725 0.02566799 0.42480755 -0.0017684487 0.11324266
0.1416265 0.060776796 0.001034965 0.04151478 0.035898346 0.032388385 -0.0018142174 0.03294438
-0.15135896 0.034807935 0.27919382 -0.14019765 0.00858613 0.4068409 0.016206844 0.035202373
-0.13384995 0.09235318 -0.09732718 -0.108673014 0.00015155709 -0.038235996 0.0028242534 0.22001545
0.20555545 0.2800603 0.2004654 -0.19134088 0.2815006 -0.15605895 -0.104531504 -0.027255863
0.029644528 0.10876048 -0.13880312 -0.084724754 0.13292687 -0.24970213 0.111676924 -0.29095277
0.021233387 -0.0131187765 -0.09582302 -0.051548097 0.03197322 0.045644425 0.03673512 -0.16046281

in_lin.bias f4 [128]
00000000: 65dc bfbd 14b3 bcbd e5b3 debd 8be9 da3d
00000010: 441b febd a967 9f3d 5a7f dbbd 1511 ebbc
00000020: 6693 d6bd 3778 42bd 8cdc 5bbe e34a 6fbe
00000030: fd1d 29bd 3ed3 933b 3b8a 923d 7e72 fe3b
00000040: d9ea afbd 7648 ba3c 00db 0bbe 52c4 53be
00000050: 82d0 81be 5f1e 63bd ce33 47be 14fa 36be
00000060: 3839 a6bc 8090 2a3d ff97 7fbd 5bec bd3d
00000070: 3931 9a3d cc6b 86be e27c dfbd 16ab 91bd
00000080: 9b29 0f3e 09a2 b0bd 87e1 35be 6ecb 49be
00000090: ee89 ac3d b1f9 75be e581 e4bd bfdb e33d
000000a0: bdf9 4e3e a23f bcbd d3a5 7dbe d6b4 a63d
000000b0: 069b c7bd c774 67be 1d6b 65be 4f37 51be
000000c0: 29d3 6ebe d003 cabd c2f5 adbe 3e28 c2bd
000000d0: 198b 0bbd 6351 3dbd 2fc1 a1bd e829 0cbe
000000e0: 968d 7b3d 4cfe cf3d 2d33 f73c 0fe4 69be
000000f0: f6ea 92be 0c10 29be 24be a9bc 161e 7bbd
00000100: 1856 a33a a92b fdbd 4700 e93b d941 68be
00000110: eb80 db3b 1e4c 203e 71c6 a5be 1983 7bbd
00000120: ac62 4c3d eac1 733c 7e93 6cbe c151 843d
00000130: 6a00 debd ffc4 98bd b90c 1fbe da9d 913d
00000140: d8a8 923d 145c a3bd f4fa 82bd 4a26 b73b
00000150: d348 073e da2e 44be 33c8 12be ef3b f43b
00000160: 245f 84be d104 273e 85f2 4abe 73bd e2bc
00000170: e041 62be 2012 393c 9346 803c 9875 82bd
00000180: 2a98 eebd 8c49 8c3d e758 85be 2532 b8be
00000190: 1b00 84be f70e ccbd be0b 01be e030 46be
000001a0: ab4a 82bd d1a0 143d ba95 e23d b6a0 23be
000001b0: 73e8 21be 78a8 1b3e 4e2b 0cbe 3801 303e
000001c0: a983 22be b041 b7bd 953e 0dbe e28c 143d
000001d0: f5d3 7cbd ff41 62be 44bf c33d f8eb a1bc
000001e0: 7540 56be 5e49 3dbe 683f a73d 67b9 473e
000001f0: af67 f2bb 362e 1fbd 6aa9 793d 66a8 19be
-0.09368209 -0.09213844 -0.10874156 0.10689076 -0.12407544 0.077834435 -0.1071765 -0.028694669
-0.10477333 -0.047477927 -0.2147085 -0.23368411 -0.041288365 0.004511266 0.071552716 0.0077651134
-0.085897155 0.02273963 -0.1365776 -0.20680359 -0.2535439 -0.055448886 -0.19453356 -0.17868835
-0.020290956 0.041641712 -0.062400814 0.09273597 0.0752892 -0.26254117 -0.109124914 -0.0711271
0.13980715 -0.08624656 -0.17761813 -0.19706509 0.084247455 -0.24021031 -0.11157588 0.111258976
0.20212455 -0.091918245 -0.24770288 0.081399605 -0.09746365 -0.22603141 -0.22404142 -0.20431255
-0.23322739 -0.098640084 -0.3397656 -0.09480332 -0.0340682 -0.046220195 -0.07898175 -0.13687861
0.061414324 0.10155925 0.03017577 -0.22840904 -0.28694886 -0.16510028 -0.020720549 -0.06130799
0.0012461571 -0.12361843 0.0071106288 -0.22681369 0.006698718 0.15654036 -0.3237796 -0.06140432
0.04989879 0.014877776 -0.23103139 0.06460906 -0.10839923 -0.07459449 -0.15532197 0.07110186
0.07161111 -0.07976547 -0.06395522 0.005589281 0.13211374 -0.19158497 -0.14334182 0.0074534337
-0.25853837 0.16310431 -0.19819076 -0.027678227 -0.22095442 0.011295825 0.015658652 -0.063700855
-0.11650117 0.068499655 -0.2604439 -0.35975757 -0.2578133 -0.09963792 -0.12602136 -0.19354582
-0.06361898 0.03628618 0.11063714 -0.15979275 -0.15811329 0.15200984 -0.13688394 0.17187965
-0.15870537 -0.08948076 -0.13793404 0.03626717 -0.061725575 -0.22095488 0.095579654 -0.019765839
-0.20923026 -0.18485019 0.08166391 0.19504319 -0.007397614 -0.03886243 0.06095258 -0.15005645

layers.0.lin_self.weight f4 [128, 128]
00000000: d733 3dbd 26af 2ebd 1438 98bd 3796 523c
00000010: c85c 55bc 0c77 69bd dff4 0abd 089d 1cbc
00000020: 581e 613d 8c34 5e3d 7d5b 8bbd fc0e c63c
00000030: fe7d 123c a80c c43c 51b4 adbc 599d b03c
00000040: 8a52 6abb f57f 9c3d 4d56 b9bd e734 66bd
00000050: 36db 9cbd f943 8cbd a089 f8bb d9b1 163d
00000060: a141 bcbd 7431 213d 4fed 843d 00ba 84bd
00000070: 43c9 c03b e9c9 59bd b819 ed3a 70b8 2ebd
00000080: 578a 5fbd ad3e 9cbd b9f3 96bd e9c6 5a3d
00000090: c048 6bbc 99ba 0abc eefd 2bbd bfdf 5b3d
000000a0: 9cd2 92bd d191 58bd 70f6 9bbd 183f 9fbd
000000b0: 9587 9a3d be4b 92bd 2a42 15bd f1e3 efbc
000000c0: 2baf d03c 429a d53b d6ee b4bd d75e 8f3d
000000d0: 674f ebbd 273b 0f3c 0ef8 f1bb f702 1abd
000000e0: 051c 2d3d 2b67 4a3d 8b82 58bc c401 49bd
000000f0: 5e4c 373d 0d4c 4a3d 78cb c73b 152d 08bd
00000100: f02d c4bb bbcf 9d3d 6dea 12bc bdb0 8ebc
00000110: cf42 99bd 9f77 4cbd 3d93 1e3d d018 4abc
00000120: 796f 7fbc f551 da3c 013d 88bd c62f 05bd
00000130: 8cd9 e8bc 6d35 1e3d 208b 603d e6bf ea3c
00000140: 4c0c 6d3d e8e4 b4bd aeaa 46bd b59d 45bc
00000150: 3775 bebd 67a3 0d3b a91a a4bd 0732 e93c
00000160: 2128 813d 69c3 c5bd cb56 5c3d 0bc9 a53c
00000170: 8aac 7ebd f0e2 6d3d 9446 d1bd 4345 a2bd
00000180: de0f 3cbd 1587 6abc a2ad 6bba bea1 57bd
00000190: 2494 abbd a929 27bc e43b 6b3d a05f 8b3d
000001a0: af0e 133d 5ed2 64bc f36b 8ebb ae8c 8bbd
000001b0: 6235 333c b768 e9bd dec6 3dbd d1b0 45bd
000001c0: ef78 803d dead 82bb a705 6bbd 170a 23bc
000001d0: 4ddd bbbd 794a 01bd 097d b03c ae40 80bc
000001e0: 647a 0fbd 47d9 163d ddd1 9cbd 22b2 86bd
000001f0: 5845 773d efcb 183c a5dc 1ebd da5e 2e3d
00000200: 19e7 59bb 1aad d33c 0410 8c3b 9e20 3c3c
00000210: 7463 683a e886 9fbc 8c2d ad3d 9611 adbd
00000220: d27b 88bd 5cde 053e c57f 16bd 612b 09bd
00000230: 4a29 963d 71d2 85bd 16f3 8c3c dc33 a13d
00000240: 4af3 90bc af65 52bd e7b2 87bd b638 9a3d
00000250: 055b b2bc 5a16 eabc 4fba de3c 99aa 88bd
00000260: 2ab9 653d 4cfc d2bc 362c c93d ee93 f23c
00000270: ab0d eebd ccc6 943d 918d f9bd cc6d 0ebd
00000280: 341c 34bd d9c1 a7bc 994e dcbb 7a65 47bd
00000290: db2d 803d 460e c4bd ec91 093d aefe 933c
000002a0: bc60 5b3d bf7e bbbb 7d0c bebd 20cb abbd
000002b0: 5c9a 1f3e cf4e 72bd 0b32 1abb 409b 65bd
000002c0: d720 af3c ae09 853b 3ae7 c63d dabf 003d
000002d0: 296f be3d a0bb 863d a0de 0a3c 8eb0 6dbc
000002e0: 32cd 943d ba91 ec3b 7b22 23be f21c 183d
000002f0: 84db 9b3d dacb 2bbc 727b 533d 5c28 61bd
00000300: 6051 b4ba 78bc cfbd 564f c8bd ce52 8b3c
00000310: 39b9 c63c a2a7 713d f9ba af3c 51ee 9abd
00000320: bfd2 6cbc bfcc 00be 90b5 40bd 6230 ea3d
00000330: f910 e93c 8c2c 873d 8c93 86bd 4bf9 603d
00000340: d81c fd3c 09f7 2cbd 616e 03bc 685d ee3d
00000350: 444b b13d e858 e3bc 41e7 593d dc5a e0bc
00000360: 805a 533d 2c26 20bd 24c0 483d db70 c03c
00000370: e316 6a3a bbcb 0dbc 074e 483d 8b0a 353d
00000380: a96f a93c 8a9b 023c 4d61 373d aa8f 2f3d
00000390: ff8e 16bd 2479 1cbe 0fdc fb3c 6d74 ff3c
000003a0: bda9 c13c c5bd 20bd 547e 5e3d c142 813d
000003b0: 3416 183d ac03 a7bd 3926 c5bd 6f23 643d
000003c0: 64b7 c4bc 581b b53b e31f 623c 597d 7e3d
000003d0: 52d8 343d d47d f7bc eab2 4c3d 8cdd d83d
000003e0: c037 e1bc fdb2 f03a 47fc fc3d 6c6d 44bd
000003f0: 3f2b e1bc 84e6 24bd 5941 acbc 7698 f83d
-0.046192016 -0.042647503 -0.07432571 0.012853197 -0.013022609 -0.056998298 -0.033924934 -0.009558924
0.05496058 0.05424933 -0.068045594 0.024177067 0.008941172 0.023931816 -0.021204146 0.021559404
-0.0035754764 0.07641593 -0.09049664 -0.056202795 -0.07658999 -0.06848902 -0.0075847656 0.036790702
-0.09192205 0.039353803 0.064905755 -0.06480789 0.0058833673 -0.053171072 0.001808933 -0.042656362
-0.05457529 -0.07629142 -0.07370705 0.05341235 -0.014360607 -0.00846734 -0.041990213 0.053680178
-0.07169077 -0.052873436 -0.076153636 -0.07775706 0.075453915 -0.07143353 -0.036440052 -0.029283496
0.025474152 0.006518633 -0.08834617 0.07000511 -0.11489754 0.00874213 -0.0073843068 -0.037600484
0.04226305 0.049414795 -0.013214718 -0.04907395 0.044750564 0.049388934 0.0060972534 -0.03324612
-0.0059869215 0.07705637 -0.008967024 -0.01741826 -0.07483446 -0.049918767 0.038714636 -0.012335017
-0.015590542 0.026650408 -0.066522606 -0.032516263 -0.028424047 0.03862517 0.05482018 0.028655957
0.057873055 -0.08832723 -0.048502617 -0.012061526 -0.09299701 0.0021612288 -0.080128975 0.028466238
0.06306482 -0.09656412 0.05379371 0.020237466 -0.062176265 0.058077753 -0.1021854 -0.07923367
-0.04591357 -0.014314433 -0.0008990412 -0.052644484 -0.08377865 -0.010202804 0.057430163 0.068053484
0.035902675 -0.013966171 -0.0043463646 -0.06813942 0.01093802 -0.11396926 -0.046332233 -0.04826433
0.06273066 -0.0039880117 -0.057378437 -0.009951136 -0.09173069 -0.031565163 0.021543996 -0.015655842
-0.03502883 0.036828306 -0.07657216 -0.06576945 0.060368866 0.009325965 -0.03878464 0.042570926
-0.0033249317 0.025839377 0.00427437 0.011482386 0.00088649173 -0.019473508 0.08455953 -0.0845062
-0.06664242 0.13073105 -0.036742944 -0.033488635 0.07332094 -0.06534279 0.017205756 0.078712195
-0.017694134 -0.051366504 -0.0662592 0.07530348 -0.021771917 -0.028575111 0.027188448 -0.06673164
0.05608479 -0.02575507 0.09822886 0.029611554 -0.11623701 0.0726448 -0.12185205 -0.03477268
-0.04397221 -0.020478176 -0.0067232368 -0.04868076 0.06258746 -0.09573035 0.033586428 0.018065777
0.05355905 -0.0057218964 -0.09279726 -0.083883524 0.15586227 -0.05915719 -0.0023528363 -0.05605626
0.021377964 0.004059992 0.09712072 0.031432964 0.09298546 0.065787554 0.0084759295 -0.014507426
0.072657004 0.0072195204 -0.15931122 0.03713698 0.07610229 -0.010485614 0.0516314 -0.05497013
-0.0013757162 -0.101433694 -0.09780757 0.017007258 0.024258243 0.058997758 0.02145146 -0.075649865
-0.014454543 -0.12578104 -0.04704815 0.114350095 0.028450476 0.066002935 -0.06571111 0.054925244
0.030897543 -0.04222778 -0.008021922 0.116389096 0.08656934 -0.027752355 0.053199057 -0.027387075
0.05159998 -0.039098904 0.049011365 0.023491314 0.0008929802 -0.00865453 0.048902538 0.044199508
0.020683127 0.007971654 0.044770528 0.042861618 -0.036757465 -0.15280586 0.03074458 0.031183446
0.023640508 -0.03924348 0.054319695 0.063115604 0.03713055 -0.08154997 -0.09626431 0.055697855
-0.024013229 0.0055269413 0.013801548 0.06213126 0.04415161 -0.030211367 0.049975313 0.10589132
-0.027492404 0.001836389 0.123528056 -0.047955915 -0.027486442 -0.0402589 -0.021027254 0.121384546

layers.0.lin_self.bias f4 [128]
00000000: 3699 12ba 55b6 45bd fcb5 64bd 0f03 b4bd
00000010: c7d0 95bc a892 fd3d 422d c83c 5c0e 053d
00000020: f248 9fbd 4823 a1bc 7232 353c 733d f43c
00000030: 5482 893d 143e 8dbd bc3e cdbd d960 8abd
00000040: df71 acbd f9f5 5e3d 4ea9 64bd 78e2 78bd
00000050: 0ca7 83bc a4a4 df3c 45f7 b3bd 5033 28bd
00000060: 390e 963c 7c71 a4bd 2934 45bd bcb9 84bc
00000070: 7e6e cebd 2763 153d d40b 3e3c 4b46 243c
00000080: 8c7f 8fbc 1b68 4fbc 4634 413d 06c7 a739
00000090: 2939 953c 30c3 78bc fc1d b0bd 18aa a9bd
000000a0: c536 2ebc 812d ddbd 256d 513c 9814 28bd
000000b0: 1422 6dbc a1df b23c b828 adbd db7c 2dbd
000000c0: e6e3 b5bd 82e7 f9bc 57ab 2e3d a352 8b3d
000000d0: 7794 0b3d 70b0 a8bd f0c7 b5bd 0b4d 6ebd
000000e0: ca48 85bd 51db 2c3d b0c8 2dbc b1bf 493d
000000f0: 37f4 96bd ecdd 223d 8ec3 a93c c759 a53d
00000100: 95ec 3f3d 8014 1bbd e62c 8e3d 7b99 13bc
00000110: 3a3f 603d 9cce ad3c 8026 2cbd a03c ab3c
00000120: c27a fcbc 09a6 cc3d 9b36 3abd 920a 96bc
00000130: b410 c2bd b496 13bd 1f21 5dbd e7a8 393c
00000140: 93d4 c1bd b576 1b3d c09d 8f3c 355c 753d
00000150: e5ec af3d 4ad7 78bd 0ff3 0f3d 908e c2bd
00000160: 5265 7ebd 4697 e1bb f06e 22bd a3f3 1c3c
00000170: 5d08 7bbc 995a 47bd 052b a73d 0f41 bc3c
00000180: dd30 13bb 2894 cdbc cbb4 babb f1e6 3fbd
00000190: 4ffb e73a b405 c5bd 96eb 9abd 0c80 3e3d
000001a0: eb5c b03d 9ae6 143d debe c6bc a641 c1bc
000001b0: e746 83bd e3e7 86bd 1c1b 05bd 3aa0 4ebd
000001c0: 2521 9f3c b0fb ab3d 73a7 423d 973c 23bd
000001d0: 41d0 1abd e4e2 2dbd 2a9f b43c 8c35 6cbd
000001e0: 8d9f 59bc 6152 06bd 4efb 9e3c cf58 753d
000001f0: 2d2a ddbc 3a7f 8abd cc75 cd3d 8684 27bd
-0.0005592288 -0.04826959 -0.055837616 -0.08789646 -0.01828803 0.12381488 0.024435643 0.032484397
-0.07777585 -0.019670144 0.01105939 0.029814458 0.06714311 -0.06896606 -0.10021731 -0.067567535
-0.08420157 0.054433797 -0.055825524 -0.060762852 -0.016070865 0.027300186 -0.08787397 -0.04106456
0.018317329 -0.08029458 -0.048145447 -0.016201846 -0.100796685 0.036471512 0.0115995 0.010026525
-0.017516874 -0.012659098 0.047168992 0.00032001006 0.018215733 -0.015183255 -0.08599469 -0.08284396
-0.010633175 -0.10799695 0.01278237 -0.041035265 -0.014473457 0.02183515 -0.08455032 -0.0423554
-0.08881359 -0.0305059 0.04264387 0.06802871 0.034077134 -0.08236778 -0.08876026 -0.058178943
-0.06508024 0.042201344 -0.01060693 0.049255077 -0.07370799 0.039762422 0.02072313 0.08073764
0.04685648 -0.037861347 0.069421574 -0.009008761 0.054747798 0.021216683 -0.042028904 0.020902932
-0.030820254 0.09992606 -0.045462232 -0.018315587 -0.09475842 -0.036032394 -0.053986665 0.011331773
-0.094643734 0.037955005 0.017531276 0.05990239 0.08590106 -0.06075219 0.035143908 -0.09499848
-0.062108345 -0.0068844883 -0.03965658 0.009579572 -0.015321818 -0.048670385 0.08162502 0.022980241
-0.0022459545 -0.02509506 -0.0056978217 -0.046851102 0.0017698797 -0.096202284 -0.07564466 0.046508834
0.08611473 0.03635273 -0.024260934 -0.023590874 -0.06410008 -0.06587198 -0.032496557 -0.050445773
0.019424984 0.08397615 0.047522973 -0.039852705 -0.037796263 -0.042452708 0.022048552 -0.057668254
-0.013282669 -0.032793406 0.01940694 0.059899148 -0.02699765 -0.06762548 0.100322336 -0.04089787

layers.0.lin_neigh.weight f4 [128, 128]
00000000: 64ba 86bc 7fe6 8abd 03e6 8f3c 63cc d23c
00000010: 464d b33c 25d6 5dbc 89af a8bd a94c 613d
00000020: 40aa 083d f23a 083d 7ef7 1b3d d6dc de3b
00000030: 4039 bc3c e5ff 4abd e347 e6bd 08f2 b7bc
00000040: 1505 bcbd 29d6 313d 188f afbd ed5f 5bbd
00000050: ddf6 963c 8898 6e3c 687c 833d 6729 463d
00000060: 5aca c2bb 60f1 383d 2091 b9bc 0c4f 88bd
00000070: 4273 cebc a806 24bc ec61 b8bc 93ae edbc
00000080: ba26 a1bd 599a 363c 3ce1 293c 50f0 e63c
00000090: 4926 72bd 393c 513c cae3 2a3d eaff 8abd
000000a0: 6867 56bd ed5b d73c af41 90bd 66a8 2cbc
000000b0: 2698 3ebd 2e05 64bd 593a d3bd 9733 6f3b
000000c0: cd38 83bc baba bdbd cea7 bdbc ceb0 09bb
000000d0: d018 22bc 2861 92bd a86c 01bd 39fb 3c3d
000000e0: 25ea d5bd 7a39 b6bd dd5f 3b3d b695 69bd
000000f0: 91b1 8dbd e2e2 83bd 710c 6ebb adaf 8bbc
00000100: 5e66 cdbc a98b 343b bf86 f63a 2517 96bd
00000110: a553 99bc f9c2 e8bd 2d82 c3bd 1e0f 103d
00000120: f11e 90bc a0c7 83bd f88f 94bd 1f8a 163d
00000130: 9dda cebd 4f14 9fbd 4fe9 303d 58a1 c6bd
00000140: eaf0 9cbd ab13 cb3c fbf5 bcbd 9b27 aebb
00000150: a6f7 533d 5b0c 31bc 9405 96bd 924a acbd
00000160: 8afb d8bd dfbd a83c d28e 22bc 4389 e6bc
00000170: 5176 a5bd 7d51 c0bd a960 27bd b534 b039
00000180: 13ab f43c 3cbf 1e3d ab17 ffbc b699 e7bd
00000190: 5c4c 363d 602c 10bd 3c94 94bc c81c 0ebd
000001a0: f81c 9bbd 44a3 62bd f631 2abd be38 bebd
000001b0: 0132 9bbd b7e8 18bd 72eb 8c3b 4dc3 7f3d
000001c0: ee91 023d 8fe1 133d bdcc abbc f5ad f9bb
000001d0: d792 60bd ab7f abbd 7ef1 2a3d 1489 713c
000001e0: 95f1 883d dd8f a03c 47e4 a1bd 95f1 dabd
000001f0: b9e8 763d 6c98 b4bd ce8c 50bd 1ef6 94bd
00000200: 4336 323d 0479 003e ade0 f83c 5732 0e3d
00000210: ec07 51bc 2406 80bd cd7c f73d 5522 1abb
00000220: c48f eabc a25f e5bb b89c 10be c3bc 9abd
00000230: 568b ec3d 6833 56bd 7e90 613d 4171 f63d
00000240: 4ea4 4ebc 1613 b13c adb3 39be 7dce 883d
00000250: 2026 513c cc5c bc3d 52f2 e63d 35fb 3bbc
00000260: 9c1c 34bd 225d 4dbc 13b8 cb3d 1f9f 843d
00000270: 80e8 403d 8784 13bb 5417 c33b e2e8 b93c
00000280: caf1 5abd 200a af3d 3497 69bd 8284 19be
00000290: 4cfd d8bd 1ea9 413c 5651 8d3c 3a24 cfbd
000002a0: bbf4 02be f2c3 2d3c 185a 04bc ad37 de3d
000002b0: 71b0 113e c531 78bc 0d34 e33d 2c81 0c3d
000002c0: f734 3b3d 9272 203e ce89 0e3c 4754 0a3e
000002d0: ea40 c0bb 1d73 033e 30b1 0a3e 7565 9c3c
000002e0: 34ee 8f3d ee9d 2e3d c106 45be 0b16 9d3c
000002f0: 9dc5 8b3b cc2e bfbd e04e b6bc 2a87 cfbd
00000300: 7d1f 123d 3b9f f6bb eb03 163c d165 283e
00000310: dbe8 f93d fb41 da3d 1137 08bb 1686 0abe
00000320: 1a04 bfbb df03 24be 94dc 07be f744 b63d
00000330: d736 a8bd 3ed6 5c3d 89ee 553d 54b6 a43d
00000340: 061a 91bb 1e97 033d 179a 913d 18b8 f23d
00000350: 7fcb 7f3d 6f08 6e3c 31cc 98bd 5a79 173d
00000360: 8f66 fb3d 1677 393d 1063 2b3d e850 6d3b
00000370: ac77 b53d afd3 333d c7ab 8dbd bf56 82bb
00000380: 20ed 40bd 2112 b93c d64b 053c b981 d1bd
00000390: 246b bb3d a64c 64be 86ad 993d 5f94 17bd
000003a0: fb18 e9bd ddd8 63be aa5c 8d3d 70f2 893d
000003b0: aafd fb3c 548c f8bc 202d a8bd 8a4d 013e
000003c0: cf46 d33c 98b3 6a3d d1b6 1dbd 6575 af3c
000003d0: c7a6 97bd 7260 c2bd 41ad cbbc 42c3 263e
000003e0: 62fe 003d 9505 de3c 8f0b e8bc faa8 693d
000003f0: 7211 9fbd 6790 e6bc ac06 e63c c6c6 1c3e
-0.0164463 -0.06782245 0.017565733 0.025732225 0.021887433 -0.013539826 -0.08236606 0.05500475
0.033365488 0.03325934 0.038077824 0.006801228 0.022976518 -0.049560446 -0.1124418 -0.022454277
-0.09180657 0.04341713 -0.08572215 -0.05355828 0.01842826 0.0145627335 0.06420213 0.048379328
-0.0059445323 0.04515207 -0.022652209 -0.06655702 -0.025201444 -0.010011353 -0.02250763 -0.029013908
-0.07868715 0.011145198 0.0103686415 0.028190762 -0.059118543 0.012770706 0.041721143 -0.06787093
-0.05234471 0.02628895 -0.07043778 -0.010538196 -0.04653182 -0.055669002 -0.10313863 0.0036499256
-0.016018296 -0.09264131 -0.023151305 -0.0021009925 -0.009893611 -0.07147437 -0.031597763 0.046138022
-0.1044505 -0.088976815 0.04574572 -0.05702754 -0.06918634 -0.06439759 -0.0036323334 -0.017051542
-0.025073227 0.0027549064 0.0018808468 -0.07328633 -0.018716643 -0.11365313 -0.095463134 0.035170667
-0.017592879 -0.0643456 -0.07254022 0.036752816 -0.10100291 -0.077675454 0.04319125 -0.09698743
-0.07663138 0.024789652 -0.092266046 -0.00531478 0.051749848 -0.010806168 -0.07325283 -0.08412661
-0.10594852 0.02059835 -0.009921746 -0.028141623 -0.08079208 -0.09390543 -0.040863667 0.00033608606
0.02986673 0.038756594 -0.031139215 -0.11308615 0.044506416 -0.03519857 -0.01813709 -0.034695417
-0.07573885 -0.055331483 -0.041551553 -0.092881665 -0.07577897 -0.03733131 0.004300528 0.062442113
0.03187745 0.03610378 -0.02097165 -0.0076196142 -0.054827537 -0.0837396 0.04173421 0.014742155
0.06686703 0.01959985 -0.079048686 -0.10690609 0.060280535 -0.08818135 -0.05091553 -0.07273506
0.04350878 0.12546164 0.030380571 0.034715977 -0.012758236 -0.06251171 0.12084351 -0.0023518999
-0.028633006 -0.0069999257 -0.14122283 -0.07555535 0.11550014 -0.05229512 0.05506944 0.1203332
-0.0126124155 0.021615546 -0.18134947 0.066800095 0.012765437 0.09197387 0.11276688 -0.011473467
-0.043972597 -0.012534412 0.09947219 0.064756624 0.04709673 -0.0022509412 0.0059537087 0.022694055
-0.053453244 0.08546853 -0.057028964 -0.14991954 -0.105951875 0.011820106 0.017250698 -0.101143315
-0.1278867 0.010605799 -0.008078121 0.10850463 0.14227463 -0.015148585 0.11093912 0.034302875
0.045704808 0.15668705 0.008699847 0.13508712 -0.0058671134 0.12836881 0.13544154 0.019091347
0.070278555 0.042631082 -0.19240858 0.01917555 0.0042655007 -0.09335098 -0.022254407 -0.101332024
0.03567456 -0.007526306 0.009156208 0.1644509 0.12202617 0.10657116 -0.0020784775 -0.13527712
-0.0058293464 -0.16017102 -0.13267738 0.08899873 -0.08213585 0.053915255 0.052229438 0.08042589
-0.004428151 0.03212654 0.071094684 0.11851519 0.06244993 0.014528378 -0.074608214 0.036980964
0.12275421 0.045279585 0.04184252 0.0036211554 0.08860716 0.04390305 -0.069175296 -0.003977626
-0.04710114 0.022591652 0.0081357565 -0.10229821 0.09151295 -0.22294864 0.075038 -0.037006732
-0.11381718 -0.22250696 0.0690244 0.067356944 0.030760605 -0.030340351 -0.08211732 0.12627235
0.0257906 0.05730018 -0.038504425 0.021418283 -0.07404857 -0.09491052 -0.024862887 0.16285422
0.0314926 0.027102271 -0.028325824 0.057045914 -0.07766999 -0.028145028 0.028079353 0.15310201

layers.1.lin_self.weight f4 [128, 128]
00000000: b83f 37bc 3f74 b0bd 94bb 863d 70f9 1d3d
00000010: a211 23bd 5c98 073d 14b6 a93d e126 853d
00000020: 82ee a0bd 420e f7bc 952a 3bba b4d8 b93d
00000030: 4480 27bd 2f46 bdbd d6a5 6dbd 028e a6bd
00000040: 2658 8abc 708a a3bb b34e bd3c 7a0b e6bb
00000050: b706 8dbb f470 533c b262 463d 9a9d 433d
00000060: cd21 a73d bb41 9cbd caed 85bd 5879 cdbd
00000070: c2d8 433d c4bc 83bd 4d95 babd 9ccd 6bbd
00000080: 2e9d 5cbd 32cf 973d 291d c3bc db3c ffbc
00000090: d966 de3c 44e6 653b 0324 c7bc 230f 2abd
000000a0: 996d 07bc eca8 2f3d 42c8 f0bc f1a2 503d
000000b0: 3862 5bbd 2684 2bbd d14a 3539 16a3 a9bd
000000c0: f4a2 723c 61d0 87bd 45a5 82bd 4224 2f3d
000000d0: 2c21 93bc 5619 b43c d288 be3c 03a4 743d
000000e0: 2e2c 99bd 2355 2b3c 2c97 f43c aa7d 04bd
000000f0: 1a5b a73c 6c73 48bd ae7a a63c 610f 0abd
00000100: b4b3 b7bd 6eef 71bc 7d77 803d 248c d1bd
00000110: 4ea6 543d 9c0d e6bc e698 883b 8f37 9abd
00000120: 5196 063c 36cb bcbc aacd 45bc 4502 c3bc
00000130: bcd1 30bd 8636 94bd b15d 6fbd 74ad a63d
00000140: e62b 983d 3549 0b3d 99e1 463c bd77 333c
00000150: 2d6d 6e3d f3d6 993d 623c 98bd 760a 203c
00000160: 8f72 8dbd a785 2fbd b25d 6dbc 7c63 14bd
00000170: 7a22 0b3d a1e7 10bd 55a8 93bd 4545 aebd
00000180: 2ca3 823d a664 9abd 4a42 59bd 44e0 9bbd
00000190: 4505 07bd 981e 8a3d bc56 803d ef92 4dbd
000001a0: 9de1 243d 7177 25bd b931 bebd a3ab 97bd
000001b0: 61ae 59bd 95ff 25bc 1d68 b4bc d513 8fbd
000001c0: e9fc 853d 6ed5 da3c 995e 433c 8dc9 b0bd
000001d0: 4c3a 953c b427 013d 7451 89bd 2283 663d
000001e0: ee9e 3abd e671 723c c010 61bd 9813 21bc
000001f0: 3fd9 7fbd fa6c 3a3d ecc2 463d 520c a23d
00000200: 0078 603d 4620 263b c68a 98bd 03a8 7b3c
00000210: b3f6 13bd bde6 7d3d e51c acbd a2db 98bb
00000220: c14c 1bbd 1c38 a7bd 9d45 9bbd 804a 9bbd
00000230: 29a6 6ebc c650 593d 4b42 c03c c7f8 d6bc
00000240: 3e57 6fbd 045d 8ebd 234c 70bd 0cf1 d0bc
00000250: a05d 04bd e1ac 033b a4c2 483a b24d 9bbb
00000260: f179 c5bd ab1a 95bd 98a4 5ebd afc9 5dbd
00000270: cbd6 973d 1e8c 51bd 7be6 b73c 94a1 b53d
00000280: 0ce5 333d 7423 a4bd db98 b1bd b7ff a93c
00000290: df41 8cbd fa29 c236 533d 233d 44b6 55b9
000002a0: 2429 3abd 5213 633d 05a7 6c3d 9dd1 acbd
000002b0: 8226 923c 4285 0abd bd97 98bb 1401 0a3d
000002c0: e218 01bd 011b fa3c 9809 7ebd 41ba c43b
000002d0: 5663 c5bc 893a a83d f3c8 43bc 2343 cdbc
000002e0: 8069 713d 5c75 e6bc 8d51 81bc c92a 403b
000002f0: 2f6d a53d cfa4 9ebd a2e8 09bc 9d38 fd3b
00000300: d35f 883d ee29 833d 51df 813b c390 e8bc
00000310: c815 403b b48e 9ebd 0f82 08bd d59d 8ebd
00000320: 6b34 a5bd a7a8 7b3d fe9e 4a3b 87b8 a0bc
00000330: b539 59bb d117 44bd db72 8a3d 4bdb bfbb
00000340: 392d 3f3d af83 fd3c 3cef 22bc 9c75 893d
00000350: 5656 423d 2c28 913d 7f11 bebc 2739 b23c
00000360: df85 7e3d f9ed ccbd 1bfb 21bc 37ba 623c
00000370: c40f babc 3222 aa3c 5ddf acbc cd17 febc
00000380: 9bfc 80bd aef2 d7bd 5e5f a5bb 6ac6 503d
00000390: 950d 0cbc 9fcb a9bc 42c7 4abd 478d 903c
000003a0: a499 813d 9850 f8bc 382d d0bc eebd 2d3d
000003b0: 1e02 713a b871 73bd 7488 7abd 8eec 06bb
000003c0: af8b 873d b623 263d 7a2f 8a3b b840 203d
000003d0: 43a7 403d 1462 d9bc c0fa 123d bae3 49bd
000003e0: 8eb1 2fbd 6bb5 06bd 0392 583d 24e6 95bd
000003f0: a04e aebd 6f13 553d 5b61 453d 57db 9dbd
-0.011184625 -0.08615922 0.065787464 0.03856796 -0.039811738 0.033104286 0.08286682 0.06501556
-0.07857992 -0.030158166 -0.0007139829 0.09074536 -0.040893808 -0.09241902 -0.05801948 -0.081325546
-0.016887736 -0.0049908683 0.023108816 -0.007020411 -0.004303779 0.012905348 0.048433967 0.047757722
0.08160744 -0.076297246 -0.06539495 -0.1003291 0.04781414 -0.064324886 -0.09110508 -0.05756913
-0.053860836 0.07412566 -0.023817616 -0.031156948 0.027148651 0.0035079876 -0.024309164 -0.04151834
-0.008265876 0.042885706 -0.029392365 0.050936643 -0.053560466 -0.041874073 0.00017289376 -0.08283059
0.014809359 -0.06631542 -0.06379179 0.042759188 -0.017960154 0.021984737 0.0232586 0.059726726
-0.0747913 0.01045731 0.02985724 -0.032346405 0.020429183 -0.0489382 0.02032217 -0.033706073
-0.089698225 -0.014766557 0.062727906 -0.10231808 0.051916413 -0.028082661 0.0041686175 -0.07530128
0.008214549 -0.023046117 -0.01207296 -0.023804793 -0.04316877 -0.07236962 -0.05843896 0.08138552
0.07430248 0.034005363 0.012138748 0.010953841 0.058209587 0.075117014 -0.07433392 0.009768119
-0.06906616 -0.04285207 -0.014487671 -0.03622769 0.033968426 -0.03537715 -0.07209841 -0.08509306
0.06378779 -0.075387284 -0.053041734 -0.07611135 -0.03296401 0.067441165 0.06266543 -0.050188955
0.040254224 -0.04039711 -0.092868276 -0.07405784 -0.053144816 -0.010131736 -0.022022301 -0.069862045
0.065423794 0.0267131 0.011924409 -0.08632193 0.018216275 0.031532004 -0.06704989 0.0562774
-0.045561723 0.014797663 -0.054947615 -0.009831332 -0.06246304 0.045514084 0.048525736 0.07912506
0.05480194 0.0025348826 -0.07448344 0.015359881 -0.036123943 0.061987627 -0.08403949 -0.004664854
-0.037914995 -0.08164999 -0.07581637 -0.07582569 -0.014565983 0.053055547 0.023469111 -0.026241673
-0.05843281 -0.06951335 -0.05866636 -0.025505565 -0.03231585 0.0020092058 0.0007658398 -0.0047394866
-0.09642399 -0.07280477 -0.054356188 -0.05414742 0.074140154 -0.051159017 0.022448769 0.08868709
0.043919608 -0.08014575 -0.08671733 0.020751817 -0.068485014 5.7865373e-06 0.039853405 -0.00020381162
-0.04544939 0.055438347 0.05777647 -0.08438418 0.017840628 -0.03381849 -0.0046567605 0.033692434
-0.03151787 0.030530455 -0.062020868 0.0060036485 -0.024095219 0.0821429 -0.0119497655 -0.025056427
0.058938503 -0.028132133 -0.015785957 0.0029322377 0.08077466 -0.077462785 -0.00841728 0.007727696
0.06658902 0.06404482 0.003963389 -0.02838934 0.0029309858 -0.07742062 -0.03332716 -0.06963698
-0.080666386 0.061440136 0.003091752 -0.01961924 -0.0033145968 -0.047874276 0.06760188 -0.005854999
0.046673987 0.03094658 -0.009944733 0.06711885 0.047445618 0.0708774 -0.023201702 0.021755768
0.06213939 -0.10006327 -0.009886528 0.013838342 -0.022712596 0.020768259 -0.021102602 -0.031017208
-0.06298181 -0.10544334 -0.005046769 0.050970472 -0.00854816 -0.020726977 -0.049506433 0.017645491
0.06328133 -0.030311868 -0.025412187 0.04241746 0.0009193736 -0.059434623 -0.061165288 -0.0020587775
0.066184394 0.0405614 0.0042170854 0.03912422 0.047034513 -0.026536025 0.035883665 -0.049289443
-0.04289394 -0.032887857 0.052873623 -0.073192865 -0.0851109 0.052020486 0.04818855 -0.077078514

layers.1.lin_self.bias f4 [128]
00000000: a032 08bd 8848 77bd a470 6ebd b989 8a3d
00000010: c1a3 51bd dbfb 07bd 0949 293d eb0b 41bd
00000020: f259 00be a2ad 613d c82c cdbd 5f01 01be
00000030: 2322 443d a091 bcbd c2d9 1f3c 4902 c2bc
00000040: 998d eebd f369 3e3c 3912 e83b b0ee f2bd
00000050: f3f2 90bd 6cb0 adbd b119 f3bd d423 973c
00000060: 8af6 f5bd 70e5 723d 2447 39bd 6fd3 cebd
00000070: 8989 113d 1f89 05be 4b56 19bd cd54 b3bd
00000080: b7bb 8abd 06ca c5bd 5a10 f43c 0b8c 473d
00000090: 6aa8 cdbd 6013 dc3c b1bd 303b 23e0 45bd
000000a0: 8bd9 33bd d9f6 12bd e3e0 4b3d c776 bbbd
000000b0: 8784 c3bd 885d 1abc cc57 f73d 6360 afbc
000000c0: 3ceb cdbc fb3d 11bc 38d9 be3c ead9 cebd
000000d0: 9cc5 50ba 69f7 2fbb a8d9 ef3c 480f e4bd
000000e0: a4aa 90bd a0d2 84bd f4a2 bc3c ee14 50bb
000000f0: 3641 8ebd cb72 c43a 86e6 8cbd 15f0 7f3c
00000100: cc84 64bd 48f2 13bc ce28 9d3b 3a4c a03d
00000110: cdba 8abd b13e c5bc 02ef 7abd 6016 d3bc
00000120: d840 9dba 58ce 4bbd 62bd 43bd 63f5 883d
00000130: 015b 0dbd eb7e 70bc 164b afbd 37e2 9e3d
00000140: 58ba 81bd 4c5c 013e 5a0a 80bc 36d4 8bbd
00000150: b2dc b1bd a99a 0cbd 03f8 8bbd 87a0 9bbb
00000160: 55f5 543d c2ed 0a3c 54d0 da3c aff4 3abd
00000170: d725 cfbd 4e64 65bc e6bb 9d3d 901f cabb
00000180: f401 c93c fa73 0cbe 90b8 3ebd 88bc 97bd
00000190: 5919 44bd 0b42 833d c9c6 21bd 2127 bf3d
000001a0: a79c c5bd 766d 883d a0a7 a23c 564c ebbc
000001b0: a68d 34bb ceb5 c73c ff58 453b 837b 8b3c
000001c0: e99a 98bd f3e3 9b3c d84e 82bc 4118 0abe
000001d0: 64dc 0abe 50ab f1bd 010a 7fbd 850f 04be
000001e0: 9f6d 063e fb9c b33a 4291 2b3d c845 4bbc
000001f0: 1810 c3bc 3c8d 833d 77a4 5e3d c1fc c93c
-0.033251405 -0.060371906 -0.05821289 0.0676455 -0.05118156 -0.033199172 0.041329417 -0.047130506
-0.12534311 0.05509723 -0.10018307 -0.1259818 0.047884118 -0.09207463 0.009756507 -0.02368273
-0.11648101 0.01162194 0.0070822504 -0.11861932 -0.07077589 -0.084809154 -0.118701346 0.018449701
-0.12009914 0.05930084 -0.04523386 -0.100989215 0.035531554 -0.13040589 -0.03743581 -0.08756409
-0.06774085 -0.096576735 0.029792953 0.04871754 -0.10041888 0.026864707 0.0026968534 -0.048309457
-0.043908637 -0.035879944 0.049775016 -0.09153514 -0.09546762 -0.009421714 0.12077293 -0.021408265
-0.025136583 -0.008864875 0.023296937 -0.101001576 -0.00079640164 -0.0026850349 0.029278591 -0.11135727
-0.07063797 -0.06485486 0.02302692 -0.0031750756 -0.06946032 0.0014987824 -0.06879906 0.015621205
-0.055790707 -0.009029932 0.004796124 0.07827039 -0.06773911 -0.024077745 -0.06126309 -0.025767505
-0.0011997474 -0.04975733 -0.04778803 0.06687429 -0.034510616 -0.014678697 -0.085592434 0.07757991
-0.063343704 0.12632865 -0.015629936 -0.068275854 -0.086846724 -0.034327183 -0.06834414 -0.004749361
0.05199178 0.008479537 0.026710667 -0.045643505 -0.10114639 -0.014000965 0.077018544 -0.0061683133
0.024537064 -0.13716117 -0.04656273 -0.07409006 -0.047875736 0.06409081 -0.039496217 0.09333635
-0.0964902 0.06661503 0.01985532 -0.028722923 -0.002755025 0.024378683 0.003011286 0.017026668
-0.07451422 0.019029593 -0.015906736 -0.13485815 -0.13560635 -0.118002534 -0.0622654 -0.12896545
0.13127755 0.00137034 0.041886576 -0.012406774 -0.023811385 0.06423423 0.054356065 0.024656655

layers.1.lin_neigh.weight f4 [128, 128]
00000000: 2d98 7ebd 78e0 913c e553 673d 7075 843c
00000010: fccc 3dbd ec1e 553d d21a 98bd f9f3 673d
00000020: 1c2e 6e3d bd64 9d3d 15bd 8b3b 3ef3 c9bc
00000030: 6ebc 233d 4af1 abbd 682c 82bb 6a59 183d
00000040: 6dea 9cbd d8a4 00bd f513 193d 9b76 8dbd
00000050: 9076 7fbd 9f58 69bc d68f 38bd 5c4c 323c
00000060: c4c6 95bc 9ad1 92bd e559 583d 253d 91bd
00000070: 345b 95bd 35eb 7abd b0c0 dbbd aa1a 28bd
00000080: 2217 553d b835 633d 7c10 74bd 6505 7bbd
00000090: 8ab7 a3bd eac9 e6bc 3fa9 433d d6b1 413d
000000a0: acb6 b63d 5f93 293d 001c 973d a014 493d
000000b0: 2454 81bb 2133 c33c b269 37bd b0bc 83bc
000000c0: e54c 853d 64ac 9fbd 92cb e4bc b9ea 8bbc
000000d0: 28f0 023d a261 44bb dc1e 4f3d dc51 6b3d
000000e0: db55 cebd b90e 96bd 2d67 67bd 340e aabd
000000f0: 5116 b73c d1b3 5d3d 21d0 3dbc a8a5 ebbd
00000100: 00d0 9f3d 895e 0ebd bb93 823d be06 5ebd
00000110: a253 3a3d b8dd 293c 59a5 73bd 378c 183d
00000120: 7999 323d f5d9 96bd 0801 6e3d 1a78 693d
00000130: e1fe 0ebd 5bc8 61bd b60e 393d 47e0 1fbc
00000140: d2cd 9fbd 9331 3bbd 63e3 c8bd 3f01 40bd
00000150: cc65 dabd 974d 7bbd f8b2 a3bd ae90 453c
00000160: c523 c03c 8d75 88bd b0d9 ebbd 6edc 1dbd
00000170: f284 b63c 84cf 02bb 7124 bcbb 1172 79bd
00000180: 15ac 6bbc 3628 afbc 4ee4 e9bc bee0 fc3c
00000190: e92a 30bd 1a9e 7d3d 7858 68bc 2d63 393c
000001a0: fde3 2fbd 2d1f eebb 2e38 783d 2db2 6dbd
000001b0: f944 9b3c 9478 803c e093 823c 7ea1 7bbb
000001c0: 0444 6fbd 4c85 2fbd a341 933d d0fc 2a3d
000001d0: b587 6cbc 1f05 e9bd d114 d8bc 0c86 893d
000001e0: 8b22 893a 3222 e0bd 10af 463c cafd fdba
000001f0: e487 87bd ccd7 47bd fbe3 1f3d cb21 97bd
00000200: f16b 46bd 0a73 3a3d a7aa 24bd 8e65 1cbd
00000210: 9819 093d 5ae8 473d 37b9 8e3d 27e2 a9bd
00000220: fafb 93bd 3ff9 ba3c 530e 4d3c 01a1 173d
00000230: a8af c5bd db8c 413d 20cd 45bd 66cf acbb
00000240: 0b16 6cbd 1bae f63a 86bb 943c 09dd e9bc
00000250: e60a 39bc 2cb9 30bd ae7c ea3b 4022 86bd
00000260: 3d2a c2bd 3be5 3bbd 2ff3 a3bd db40 653d
00000270: 4064 09bd 65bc 443d 9904 18bb 81e7 3e3c
00000280: 4bd0 da3a e0fe d1bc a732 893d ed5b a13d
00000290: 1b65 da3a 2983 303d 27e5 eebb 0515 463c
000002a0: 999e 5b3d 4ed4 8b3b eb01 8dbd 17dc 65bd
000002b0: 7fc5 b2bd f187 c1bc 5b7b 1b3d 4f48 91bd
000002c0: a888 a6bd 840a bcbd ae91 6ebd f52c 043d
000002d0: 703b 843d 6dcd 993d 3dce 883d 032c 59bd
000002e0: 7cbe b93c 2cb8 dbbb ece7 b6bc f431 4a3c
000002f0: 1d6c 653d 2dcd acbd 23e9 37ba 4eed 353d
00000300: 9581 0fbd bbca afbd 9e81 763d cfa3 93bb
00000310: 02d9 0a3c 5dad 54bd 4586 84bb 7e55 e8bd
00000320: 3a9e 803b a82a 8fbd ae23 1b3d 560b 203d
00000330: 486b 663d 4e86 bfbd 6c31 96bd e965 763d
00000340: c4c6 2c3d a93e 1dbd 82a9 593d 43d7 423d
00000350: a180 22bd cec1 193d 94e2 5e3d 0166 b13b
00000360: 0571 ddbc 46dc f43b 75f9 e0bc c11c 76bd
00000370: 258b 43bc a4db 773d afd2 073d c166 02bd
00000380: 31c2 52bd 528c 5bbd 7aa6 99bd 4eac cebb
00000390: 3ded 6e3b 81c1 77bc 4927 ebbc 9cae bcbd
000003a0: 22c8 923d 82f5 493d 2dde d8bb cbb3 97bd
000003b0: b381 d9bc 094d 7dbd d0d8 17bb 706b d8bc
000003c0: e841 acbd c07d 22bd 4b8e 69bd 04c9 dcbc
000003d0: 65d2 873c e565 7ebd 8560 733d b59f 81bc
000003e0: 4110 3abd 6c11 41bd 40b5 7ebb 3983 40bd
000003f0: 4deb 483b 89f6 27bd 41b6 553d 6cde 983d
-0.062156845 0.01780723 0.056476492 0.01616928 -0.046338066 0.052031443 -0.074269906 0.056629155
0.058149442 0.0768523 0.0042644837 -0.02465212 0.039974622 -0.083956316 -0.003972579 0.037194647
-0.07661901 -0.031407207 0.037372548 -0.06907388 -0.06236893 -0.01424232 -0.045059048 0.010882463
-0.018283255 -0.071688846 0.052820105 -0.070917405 -0.07292786 -0.061259467 -0.107301116 -0.041041054
0.052024014 0.055471152 -0.059586033 -0.06128444 -0.07993992 -0.028172452 0.047768828 0.04728874
0.08921561 0.04140031 0.073783875 0.049091935 -0.003946798 0.023828091 -0.044778533 -0.016081184
0.06508807 -0.07796553 -0.027929101 -0.017079698 0.031967312 -0.002996542 0.05056654 0.057451114
-0.100749694 -0.07327027 -0.05649488 -0.0830349 0.022349508 0.054126564 -0.011585266 -0.11506206
0.07803345 -0.034758125 0.063758336 -0.05420565 0.045489915 0.010367803 -0.05948386 0.037243094
0.043603394 -0.07365791 0.058106452 0.056999303 -0.03491104 -0.055122714 0.045180045 -0.009758062
-0.07802929 -0.045701575 -0.098089956 -0.04687619 -0.106639475 -0.061353292 -0.0799312 0.01205842
0.023454556 -0.06663046 -0.1151613 -0.038540296 0.02228019 -0.0019960115 -0.005741649 -0.060899798
-0.014384289 -0.021381479 -0.028551247 0.030868884 -0.043009672 0.061918356 -0.014181249 0.011315149
-0.042942036 -0.0072669 0.060600452 -0.05803125 0.018953787 0.015682496 0.015939653 -0.0038395817
-0.058414474 -0.04285173 0.071902536 0.041745007 -0.014436652 -0.1137793 -0.026377114 0.067150205
0.0010462565 -0.10944022 0.012126699 -0.0019378003 -0.06617716 -0.048789784 0.03903578 -0.07379492
-0.048442785 0.045519866 -0.04020181 -0.038182788 0.033471674 0.048805572 0.06968921 -0.08295088
-0.07225795 0.022823928 0.012515622 0.03701878 -0.096526444 0.04725347 -0.048291326 -0.0052737473
-0.05763821 0.0018820198 0.018155824 -0.02854778 -0.011294102 -0.043145344 0.0071559763 -0.065495014
-0.094807126 -0.045872908 -0.08005368 0.055970054 -0.03354287 0.04803123 -0.00231961 0.0116518745
0.0016694156 -0.02563423 0.06699114 0.078788616 0.0016662212 0.043093834 -0.0072905007 0.012089972
0.053618047 0.004267252 -0.068851314 -0.056118097 -0.08729076 -0.023624392 0.037959438 -0.0709387
-0.08131534 -0.09181693 -0.0582444 0.032269437 0.06456649 0.07509885 0.06679962 -0.05302049
0.022673838 -0.0067053046 -0.022327386 0.012341011 0.056011308 -0.08437572 -0.0007015636 0.044415765
-0.03503569 -0.0858359 0.060182206 -0.0045056115 0.00847459 -0.051923145 -0.0040443265 -0.11344431
0.003925112 -0.06990558 0.037875824 0.03907331 0.056254655 -0.093517885 -0.07333645 0.060155783
0.042181745 -0.038389836 0.05314017 0.04756857 -0.03967345 0.037538342 0.0544153 0.005413771
-0.027031431 0.0074725477 -0.0274627 -0.060086016 -0.01193503 0.0605122 0.033159908 -0.031836275
-0.051454727 -0.053600617 -0.07502456 -0.0063071614 0.0036457323 -0.0151218185 -0.028705256 -0.092129916
0.071670786 0.0493064 -0.0066182823 -0.0740734 -0.026551103 -0.061841045 -0.0023170002 -0.026418418
-0.08411008 -0.039670706 -0.057020467 -0.02695132 0.016579816 -0.062108893 0.05941822 -0.015823225
-0.045425657 -0.047135755 -0.0038865358 -0.047000144 0.0030657828 -0.0410066 0.052175764 0.074642986

layers.2.lin_self.weight f4 [128, 128]
00000000: 588c b03d 33da 523d e17c f1bc ddad 09bd
00000010: 2c49 55bd 51f0 4fbd 9a85 b6bd 4ec3 d1bd
00000020: e22a e5ba 8f9a 36bd 6749 3f3b 25c7 cf3c
00000030: e969 993d 9e6e ad3d adf0 973c c0d6 bcbd
00000040: 8ab6 f33c f09a 103d f754 92bd 6f4a 423d
00000050: 10ad 073d c433 bf3c 1619 66bd 091a 863c
00000060: 129e 6bbd 5528 0abc d379 923d 5fb0 ecbc
00000070: 9395 e4bd 4379 cebb 1779 5a3d a6f7 90bb
00000080: c227 91bd 9248 4e3d bf3b f1bd 8dd3 4c3d
00000090: 1391 433d 6196 923b b871 bfbd fe35 133d
000000a0: 0a66 dfbb cd48 93bd 92c2 b1bd 326b 2f3d
000000b0: 2f94 a2bd 5ce2 5dbd c1f1 683d d3c5 ad3c
000000c0: 1848 f7bb 5615 9bbd bf1f 92bd f9e2 ab3d
000000d0: 3f05 7dbd 8e3f 24bd 252d 063d 8430 67bd
000000e0: e76d 503d 08e1 39bd 03eb a6ba 3609 26bc
000000f0: 45e5 523d aa4a 123c 7972 b23d c076 fb3b
00000100: f653 23bd 9fc5 89bd 7968 a3bc c185 90bd
00000110: 57e0 37bd 645e 063d 29bf 70bc e7d6 95bc
00000120: a4a4 70bd 13c1 53bd a9ac 07bd 8f06 c8bd
00000130: 8227 aabd a0ee 4e3d c473 593d 3d13 a9bd
00000140: 67c0 14bb fe22 83bc e824 3e3d 6482 0ebd
00000150: bf89 563d b119 cfbc 3dae 3d3d 87c7 89bc
00000160: 0779 f1bc 5f63 20bd 1060 babb 0982 873d
00000170: 0a5a 87bd 745f 98bd 49dc 90bd 3920 863c
00000180: 4c96 413d db56 813d 60d7 5dba c33c e53c
00000190: b7a3 8e3d b806 7ebd c883 073d 7048 573a
000001a0: eefa 73bd afb9 94bd 92da d13c 213b 2dbd
000001b0: 8c97 35bd 20e2 f4bc c5fd 973a 0ef7 44bd
000001c0: 0f4b edbc 378b a2bd 0ff4 123d 48bd 3ebd
000001d0: e1d1 3fbd 0694 643c 979f 813d e5dc c83c
000001e0: 7e14 ebbc ec2c 2bbc fa15 73bd a431 1fbd
000001f0: 022f e9bc 58fb a4bd d591 f5bc 32a1 923d
00000200: d871 8d3c c392 22bd 05b2 01be 6532 833d
00000210: 3039 d03a 98fd 37bc 8108 433d 42ab e039
00000220: b623 6d3d 6300 c3bd 8257 8fbd 93b0 a8bd
00000230: a95c 79bd 0f66 833d 6304 c33b c2a6 9abd
00000240: 24c5 02bd 6e5b 53bd 0fa1 fabd a326 7b3c
00000250: cc22 2a3d 8996 31bc 80b2 b9bb 2651 ba3c
00000260: c647 a9bd 9b1c a8bd 63df 4ebd aa20 333d
00000270: cd3f 93bd c283 b4bd eb79 91bd b157 30bd
00000280: cf04 33bc 3804 2b3d 9163 e4bd 94bd 983d
00000290: 9293 693d c174 0c3c 0584 813d 3498 f93b
000002a0: 6496 283d c1d1 96bc 0836 3b3d 5143 e4bc
000002b0: aae7 a5bc 294d e23c 9cd8 f23d 5fb6 33bc
000002c0: 7220 65bd 6841 303d 3ca0 62bc fea7 743d
000002d0: 9177 fabd 83c5 91bd 620f 49be 8aa2 4cbd
000002e0: 7f53 ffbc 9c68 0abd 193f babd 2ff9 4e3c
000002f0: 7b4a 573d 265e 68bc 02c5 803c 2b13 9fbd
00000300: 7639 aa3c fda7 fdbc b85f a93d 9bae 903d
00000310: 0ea1 61bd c5e6 cabd 2b81 c9bc 841c 84bd
00000320: 49da 0b3c 16b4 343d ff7d 9a3c 391e d23c
00000330: c24a 9abc be3b a7bc 5000 80bd e13e cb3c
00000340: e80f cabd 7564 da3b 32f0 883d 6499 3bbd
00000350: 0dcd 1ebe 8e5a d5bd 762d b13c 62b7 8abd
00000360: b9fe 513d 3d9c 4ebd 4082 d4bd b626 44bd
00000370: dd3c 723d 026e e2bb a691 bdbc 3841 1f3d
00000380: 3ddb 98bd e808 8d3d 4c26 7e3c e1eb 1d3d
00000390: 9015 96bd 3baa a33d f857 1fbd 4a5f 573e
000003a0: 5923 c43c 849a 8cbc ab16 c5bb 26ea 60bc
000003b0: 052e afbd 8fb2 62bd 4d14 adbb 79fe bd3c
000003c0: fc73 d83c 8814 32bd e9f1 19bd b74e d53c
000003d0: fcb0 08bc b32c 913b 4072 8e3d 97c5 c1bd
000003e0: 9893 453c 0eee ff3c f5d4 243d 31af d7bd
000003f0: ecd3 233d 96a6 17bd b629 37bd 8029 503d
0.086205184 0.051477622 -0.029478492 -0.033613075 -0.052071735 -0.050766293 -0.08912201 -0.102423295
-0.0017484094 -0.044580992 0.0029188038 0.025363514 0.07490904 0.08468364 0.01854738 -0.09220648
0.029750127 0.03530401 -0.07145112 0.047434267 0.03312403 0.023340113 -0.056176268 0.016369836
-0.057523794 -0.0084324675 0.071521424 -0.028892694 -0.111613415 -0.0063010766 0.053338137 -0.0044240532
-0.07087661 0.050362177 -0.11778974 0.050006438 0.047745775 0.004473493 -0.09347862 0.035940163
-0.006817584 -0.0719162 -0.086796895 0.04282684 -0.0793842 -0.05417095 0.05687118 0.021212494
-0.007546436 -0.07572429 -0.07134961 0.08392901 -0.06177258 -0.040099673 0.032757897 -0.056442752
0.05088606 -0.045380622 -0.0012734834 -0.010134032 0.05148818 0.008928934 0.0871324 0.007674068
-0.039874993 -0.06727146 -0.019947277 -0.070567615 -0.04489168 0.03280486 -0.014694014 -0.01829095
-0.058750764 -0.0516978 -0.033123646 -0.09766876 -0.08308317 0.05052054 0.05308892 -0.082556225
-0.0022697689 -0.016007897 0.046421915 -0.03479232 0.05237746 -0.025280805 0.046308745 -0.016818775
-0.029476656 -0.039157268 -0.005687721 0.06616599 -0.066089705 -0.07440081 -0.07073266 0.016372787
0.047262475 0.063153945 -0.00084625743 0.027983075 0.0696482 -0.062018126 0.03308466 0.0008212393
-0.059565477 -0.07261979 0.025616918 -0.042292718 -0.04433398 -0.029892981 0.0011596015 -0.048087172
-0.028966455 -0.079367094 0.035877284 -0.04656723 -0.046831015 0.013951307 0.063292675 0.024519393
-0.028696295 -0.010447722 -0.05934713 -0.0388657 -0.028464798 -0.080557525 -0.029976765 0.07159652
0.017266199 -0.039690744 -0.12665565 0.06406096 0.0015886184 -0.011229895 0.04761553 0.00042852206
0.057895385 -0.09521558 -0.06999113 -0.08236804 -0.060879383 0.064159505 0.0059514507 -0.07551338
-0.03192629 -0.051600866 -0.12237751 0.015329036 0.04153709 -0.010839113 -0.005667031 0.022743773
-0.08265643 -0.08208581 -0.050506007 0.043732323 -0.071899034 -0.08814193 -0.07103332 -0.04305238
-0.010926439 0.04175207 -0.11151803 0.07458034 0.0570255 0.008572758 0.06324009 0.007617021
0.04115905 -0.018410565 0.045705825 -0.02786413 -0.020252068 0.027624683 0.11857721 -0.010968774
-0.055939145 0.043031126 -0.013832148 0.059730522 -0.12229837 -0.071177505 -0.19634774 -0.049959697
-0.031167744 -0.03379117 -0.09094066 0.012632652 0.052561264 -0.014182603 0.01571894 -0.07767328
0.020779353 -0.030963892 0.0827021 0.07064553 -0.055085234 -0.09907297 -0.024597725 -0.064507514
0.00853593 0.044117056 0.018858908 0.025649177 -0.018834475 -0.02041423 -0.062500596 0.024810256
-0.09866315 0.0066648074 0.066864386 -0.04580058 -0.15507908 -0.104176626 0.021628123 -0.06773259
0.051268313 -0.05044197 -0.10376406 -0.04788848 0.059140075 -0.0069100866 -0.02314074 0.038880557
-0.074636914 0.06886464 0.01551206 0.03855503 -0.073283315 0.07991453 -0.038902253 0.21032444
0.023942636 -0.017163523 -0.006014665 -0.0137277 -0.085536994 -0.055346068 -0.005281961 0.023192631
0.026422493 -0.04347661 -0.03758422 0.02603851 -0.008342978 0.0044303774 0.06955385 -0.094615154
0.012059115 0.031241443 0.040242154 -0.10531462 0.039997026 -0.037024103 -0.044717513 0.050820827
