outputs/models/nowcast_greedy8_s2.pt (torch, 197154 bytes, 11 tensors)

in_lin.weight f4 [96, 15]
0	0x3bb7c5af	0.0056082825
1	0xbd24170f	-0.040061053
2	0x3c8e9903	0.017406946
3	0x3bbba193	0.0057260483
4	0x3de1e4a5	0.110299386
5	0x3d7bc818	0.06147012
6	0xbdba0411	-0.09082807
7	0xbe3db1a6	-0.18524799
8	0x3db74e54	0.08950487
9	0xbe3050fb	-0.17218392
10	0x3e01112e	0.1260421
11	0x3d1ca43e	0.03824257
12	0xbdde621d	-0.108585574
13	0x3e1c6811	0.15274073
14	0xbd5cf1f4	-0.053941682
15	0x3deb9bae	0.11504303
16	0x3ce2b701	0.027675154
17	0xbe143107	-0.14471827
18	0xbe394f1c	-0.18096584
19	0x3e7e462b	0.24831454
20	0xbe817c1b	-0.25289997
21	0xbdf198ac	-0.11796698
22	0x3e2dc096	0.16967997
23	0x3e8f27e0	0.2796011
24	0x3d3b055f	0.04565942
25	0x3dfa0f2a	0.122099236
26	0x3e2c44d2	0.16823128
27	0xbe7fd104	-0.24982077
28	0xbd324509	-0.04352287
29	0xbd1927be	-0.037391417
30	0xbec2071d	-0.37896052
31	0xbd4e658d	-0.050389815
32	0xbe103e11	-0.14086176
33	0x3e93299e	0.2874269
34	0x3c506550	0.012719467
35	0xbdf2647d	-0.11835573
36	0x3e5739df	0.2101817
37	0xbef088ee	-0.4697947
38	0x3d28e261	0.041231517
39	0xbdd80379	-0.10547537
40	0x3da2ca5a	0.07948752
41	0xbf09b6cf	-0.5379457
42	0x3e744050	0.23852658
43	0x3d22aab2	0.03971357
44	0x3dbc2f81	0.09188748
45	0x3da7f302	0.08200647
46	0x3d1f6504	0.038914695
47	0xbd062e26	-0.032758854
48	0xbd322326	-0.04349055
49	0x3ca1843a	0.01971637
50	0x3e0d14b7	0.13777433
51	0x3df6436b	0.12024578
52	0x3ebd56df	0.3698034
53	0x3e2f4f19	0.17120017
54	0xbd2a3372	-0.04155297
55	0xbdb675a3	-0.08909156
56	0x3df6520d	0.12027369
57	0x3dd36ec4	0.10323861
58	0x3d5bc31d	0.05365287
59	0x3dd3bc91	0.103387006
60	0x3cf9e169	0.030502992
61	0xbe97ae61	-0.29625228
62	0xbccc6ef3	-0.024955248
63	0x3e2fa4c5	0.17152698
64	0x3e6ad90c	0.2293436
65	0xbb84f511	-0.0040575345
66	0xbc9dc128	-0.019257143
67	0xbe709ca0	-0.23497248
68	0xbdd9926d	-0.106236316
69	0x3d943afc	0.07237813
70	0xbea58156	-0.32325238
71	0x3e5ba963	0.21451335
72	0xbe854bf8	-0.26034522
73	0x3d4b2bdd	0.04960238
74	0xbc856a24	-0.016285963
75	0x3dfd368d	0.1236392
76	0x3d9c1414	0.07621017
77	0xbe45ceda	-0.19317189
78	0xbb979e83	-0.0046270504
79	0xbe27209f	-0.16321038
80	0x3e60c6ee	0.21950886
81	0x3c8f2901	0.017475607
82	0xbf002737	-0.5005984
83	0x3e1eb882	0.15500072
84	0x3e3260ad	0.17419691
85	0x3cc793f2	0.024362538
86	0xbe882e15	-0.26597658
87	0xbd9e4cbb	-0.07729479
88	0x3ce76656	0.02824704
89	0x3da69372	0.08133592
90	0xbcb10f94	-0.021613874
91	0xbe3642a8	-0.17798865
92	0x3e25fdef	0.16210149
93	0x3cd16984	0.02556301
94	0x3e1e3066	0.1544815
95	0x3e0d8bb4	0.13822824
96	0xbe485adf	-0.19565915
97	0xbe216906	-0.1576272
98	0xbe3174b2	-0.17329672
99	0xbda32e4a	-0.07967813
100	0xbdba75c8	-0.09104496
101	0xbd1cf5d0	-0.038320363
102	0xbe7fc6c9	-0.24978174
103	0x3d9d0db8	0.07668632
104	0x3e0d4d08	0.13798916
105	0x3cd1bf31	0.025603862
106	0x3e61a3be	0.22035119
107	0x3e0ce1cc	0.1375801
108	0xbe49cb60	-0.19706488
109	0x3d1fc0d5	0.03900226
110	0x3e7541a7	0.23950826
111	0xbe7679fa	-0.24069968
112	0xbd701669	-0.058615122
113	0x3d2e32f9	0.04252908
114	0xbdd6016c	-0.1044949
115	0x3bf4664d	0.0074584843
116	0x3c9486f8	0.018130764
117	0x3e2f4cac	0.17119092
118	0x3ceecfaf	0.029151766
119	0x3d66767a	0.05626533
120	0x3e36d60b	0.17855088
121	0x3cc4a136	0.024002653
122	0xbe8208e9	-0.25397423
123	0x3dd1d8c6	0.102464244
124	0x3e2e5b0d	0.1702692
125	0xbe3d88f8	-0.1850928
126	0xbe41ea1d	-0.18936963
127	0x3ccea342	0.025224332
128	0xbe583030	-0.21112132
129	0xbe4464ef	-0.19179128
130	0xbdc5748b	-0.096413694
131	0xbd83d53e	-0.06437157
132	0xbde0d86f	-0.109787814
133	0xbe6cbb56	-0.23118338
134	0x3e4ac935	0.19803317
135	0x3e304097	0.17212139
136	0xbd2d0c64	-0.042248145
137	0xbe434bf5	-0.19071944
138	0x3de59c64	0.1121147
139	0xbc9f9701	-0.019481184
140	0xbe7ba52e	-0.2457473
141	0xbe3bad1e	-0.18327758
142	0x3e320edb	0.1738848
143	0x3e1c4bc3	0.15263276
144	0x3b7902c7	0.003799604
145	0x3e118e3e	0.14214417
146	0xbe73d3fe	-0.23811337
147	0x3b44ef4a	0.0030049854
148	0x3ecc37aa	0.39886218
149	0xbc6902ba	-0.0142218415
150	0x3d4c654a	0.049901284
151	0x3c908dcf	0.017645745
152	0xbe32d620	-0.17464495
153	0x3d6a490c	0.05719857
154	0xbdb135c9	-0.08652837
155	0xbe61d506	-0.22053918
156	0xbdf4e19e	-0.119570956
157	0x3e798091	0.2436545
158	0x3e9866c4	0.29765904
159	0x3e03f3d1	0.12885977
160	0xbe2fe303	-0.17176442
161	0x3ecff6bd	0.40617934
162	0x3cfbaba5	0.030721495
163	0xbe811232	-0.25209194
164	0xbc36daaa	-0.011160532
165	0x3dad85a2	0.08472754
166	0x3b8a61ad	0.0042230696
167	0xbdc34ff1	-0.09536732
168	0x3c0022cb	0.007820795
169	0xbe507a57	-0.20359169
170	0xbe163baf	-0.14671205
171	0xbc635a00	-0.013876438
172	0x3e30d998	0.17270505
173	0x3e361720	0.17782259
174	0xbd50f698	-0.05101642
175	0x3e88033f	0.26564977
176	0xbe601ca8	-0.21885931
177	0xbdee9a64	-0.116505414
178	0x3e291890	0.16513276
179	0x3d922506	0.07135968
180	0xbdf8c2d4	-0.121465355
181	0xbde45a15	-0.11149994
182	0x3e0f45a9	0.13991417
183	0x3c4e0d44	0.012576405
184	0xbe785a86	-0.24253282
185	0xbe1a259c	-0.1505341
186	0xbe180d00	-0.14848709
187	0x3d5eb6d5	0.05437358
188	0x3e433b4e	0.19065592
189	0x3d99968c	0.07499418
190	0x3d7ce6b7	0.061743464
191	0xbe94656b	-0.28983626
192	0x3d5ef43f	0.05443215
193	0x3d7c63f1	0.06161875
194	0xbe06a275	-0.1314791
195	0xbd13f7cb	-0.036124986
196	0x3c44a780	0.012002826
197	0xbd190966	-0.03736248
198	0x3d2d236e	0.042270117
199	0x3e4a33e2	0.19746354
200	0xbe2e7453	-0.17036562
201	0xbe62d74d	-0.22152443
202	0xbe21d4c8	-0.15803826
203	0xbe5381b6	-0.2065495
204	0xbcb6a9b0	-0.02229771
205	0x3e23b15a	0.15985623
206	0x3d24a02b	0.04019181
207	0xbe041893	-0.129
208	0xbd4c115b	-0.04982124
209	0xbd9dbb36	-0.07701723
210	0xbe3d0eda	-0.18462697
211	0xbd2cc545	-0.04218032
212	0x3d2b4012	0.04180915
213	0xbdd18c4a	-0.10231836
214	0xbe461430	-0.19343638
215	0x3d9a764e	0.07542096
216	0x3d81b492	0.06333269
217	0xbdc68ec1	-0.09695197
218	0x3d8be915	0.06831566
219	0x3e7799bd	0.2417974
220	0x3ce22f1f	0.02761036
221	0xbe4a1a8b	-0.19736688
222	0x3df9fffd	0.12207029
223	0x3e405059	0.1878065
224	0xbdd04e15	-0.10171143
225	0xbe3dee8b	-0.18548028
226	0xbe1a076d	-0.15041895
227	0x3e200c3f	0.15629672
228	0x3dbf4476	0.0933923
229	0xbe07f700	-0.13277817
230	0x3c28d67e	0.010305045
231	0xbca1e5d1	-0.019762905
232	0x3dd1443b	0.10218092
233	0x3cd888ec	0.026432477
234	0xbdb3cb15	-0.08778969
235	0x3c388cb8	0.011264019
236	0xbd216da1	-0.03941119
237	0xbe1c777c	-0.15279955
238	0xbd7d59bf	-0.061853167
239	0xbdc85fda	-0.09783907
240	0xbd1141b4	-0.03546305
241	0x3d5f997c	0.054589733
242	0xbe10df89	-0.14147772
243	0xbe9613af	-0.29311892
244	0x3e622435	0.22084124
245	0x3dbdd5cb	0.092692934
246	0x3dc0e598	0.094187915
247	0x3e169ead	0.14708968
248	0xbd0fc137	-0.035096373
249	0xbe06a3b6	-0.13148388
250	0xbdd71d6e	-0.1050366
251	0xbb38abbb	-0.0028178531
252	0xbd949c5b	-0.07256385
253	0xbde7e7e6	-0.11323528
254	0xbd9a5a94	-0.07536808
255	0x3d13480c	0.03595738

in_lin.bias f4 [96]
0	0xbea2df5b	-0.31811032
1	0x3dd02075	0.10162441
2	0x3da03136	0.07821886
3	0xbcd6537d	-0.026162857
4	0xbe1f47d5	-0.15554745
5	0x3ce66406	0.028123867
6	0xbd04f3ed	-0.03245919
7	0xbe18f9df	-0.14939068
8	0x3d7e5b1d	0.06209861
9	0x3dca0f19	0.09866161
10	0x3d022915	0.03177746
11	0xbd597f8f	-0.053100165
12	0x3b921928	0.0044585653
13	0xbd8e05f2	-0.06934728
14	0x3d9ab7c3	0.07554581
15	0xbe70ca53	-0.2351468
16	0x3d8ebf92	0.06970133
17	0xbe516d88	-0.20451939
18	0xbcf43b3f	-0.029813407
19	0x3ddebe04	0.10876086
20	0xbda374cf	-0.07981264
21	0xbd04cb33	-0.03242035
22	0xbec6f7c5	-0.38860908
23	0xbd81d7bf	-0.063399784
24	0xbe8dd47e	-0.2770118
25	0xbc077e59	-0.00826987
26	0xbd3c6cfb	-0.04600237
27	0x3a556244	0.0008139948
28	0xbd7e9ed9	-0.062163208
29	0xbe2b800a	-0.16748062
30	0xbc014f04	-0.007892374
31	0xbc4aefb5	-0.012386252
32	0xbe3a7a76	-0.18210778
33	0xbc1f3927	-0.009718216
34	0xbe1dc230	-0.15406108
35	0x3d0e6a81	0.03476954
36	0xbda422ad	-0.080144264
37	0xbe9c30c2	-0.3050595
38	0x3e062683	0.13100629
39	0xbcf2634e	-0.029588368
40	0x3e810913	0.25202236
41	0xbe730236	-0.23731312
42	0xbe099f55	-0.13439687
43	0xbdf7ac06	-0.12093358
44	0x3d6fa8da	0.05851064
45	0xbc90208d	-0.017593646
46	0x3c95368f	0.018214492
47	0xbe7a189a	-0.24423447
48	0x3cea3ce0	0.02859348
49	0xbde4d0a3	-0.11172607
50	0x3d24a349	0.040194783
51	0x3d62a6b2	0.055334754
52	0xbdaeed2d	-0.085413314
53	0x3c8eade7	0.017416907
54	0xbe1173db	-0.14204352
55	0x3db160ad	0.086610176
56	0xbdd9a104	-0.106264144
57	0x3c2320af	0.009956523
58	0xbe31a969	-0.17349781
59	0xbdfdc5d5	-0.12391249
60	0xbbf4907c	-0.007463513
61	0xbe039a7b	-0.12851898
62	0x3cc53782	0.02407432
63	0xbe87678e	-0.26446193
64	0x3d689c84	0.05678989
65	0xbe3a66f8	-0.18203342
66	0xbe8a69f1	-0.27033952
67	0x3cc10357	0.023561163
68	0xbca9ed1a	-0.020742942
69	0xbe1d529c	-0.15363544
70	0xbdab9557	-0.08378094
71	0x3dfe056d	0.12403379
72	0xbebc0f39	-0.36730364
73	0xbe1d1c5f	-0.15342854
74	0xbd254dce	-0.040357403
75	0xb8c9b41f	-9.617977e-05
76	0xbda31de0	-0.079646826
77	0xbdb25c71	-0.08709038
78	0xbd38c799	-0.045112226
79	0x3d7e95ea	0.062154688
80	0xbde4e22c	-0.11175951
81	0x3dd24871	0.10267723
82	0xbd89cd1c	-0.06728575
83	0x3df89901	0.12138558
84	0x3beb87d2	0.007187822
85	0xbc880a82	-0.016606573
86	0xbdaa0149	-0.083010264
87	0x3da5cb1d	0.080953814
88	0xbe405d62	-0.18785623
89	0x3db931bf	0.090426914
90	0xbe4f4b9c	-0.20243686
91	0xbdf27a26	-0.11839704
92	0xbed13e88	-0.4086802
93	0xbe8de37f	-0.27712628
94	0xbc1a3e52	-0.009414272
95	0x3ddf9947	0.10917907

layers.0.lin_self.weight f4 [96, 96]
0	0x3c6e5d28	0.014548577
1	0x3d1768b9	0.036965106
2	0xbda1c4f4	-0.07898894
3	0xbc4988b8	-0.012300663
4	0xbc8e542d	-0.017374123
5	0xbe62338c	-0.22089976
6	0xbdcfa214	-0.10138336
7	0xbd2d543a	-0.042316653
8	0x3d84a7c6	0.06477313
9	0x3cfad0f7	0.03061722
10	0x3d981a76	0.07426922
11	0xbdd239fe	-0.102649674
12	0x3c9c6b17	0.019094033
13	0x3d37a53c	0.044835314
14	0xbe005c7a	-0.12535277
15	0xbddf10fe	-0.10891913
16	0xbddf3cde	-0.10900281
17	0xbe3fd959	-0.18735255
18	0xbd1da260	-0.03848493
19	0x3df54b17	0.11977213
20	0xbb693dbc	-0.0035589775
21	0x3daf949f	0.08573269
22	0xbbc7e0d4	-0.0060997996
23	0x3e3d3cb7	0.18480192
24	0xbdd8a18b	-0.10577687
25	0xbe2b7b1b	-0.1674618
26	0x3c7a68b6	0.015283754
27	0x3e282cd7	0.16423355
28	0x3deb40a7	0.11486941
29	0x3e80da75	0.2516667
30	0x3e26ad09	0.16276945
31	0x3db9667f	0.09052753
32	0x3d15fce4	0.03661813
33	0x3ac69537	0.0015150671
34	0x3e3c7784	0.18404967
35	0x3b60f1c7	0.0034323798
36	0x3d62f237	0.055406775
37	0x3e03d993	0.12875967
38	0x3e3a96a7	0.18221532
39	0x3d278aba	0.040903784
40	0xbe61f700	-0.2206688
41	0xbdf75828	-0.12077361
42	0xbcd3a4a6	-0.025835346
43	0x3e5787d6	0.21047911
44	0x3d6765d5	0.0564936
45	0x3e67ecbf	0.22648905
46	0x3df2baf4	0.11852065
47	0xbc3a1da7	-0.011359609
48	0xbd281515	-0.04103573
49	0xbd9e034b	-0.07715472
50	0x3c582164	0.013191555
51	0x3d9dffc9	0.07714803
52	0x3d6ac747	0.057318952
53	0xbd4aa629	-0.04947487
54	0x3cd51b00	0.026013851
55	0xbd188266	-0.037233733
56	0xbe18e9a1	-0.14932872
57	0x3e35e53a	0.17763224
58	0x3b12a98c	0.002237889
59	0x3e2b6326	0.16737041
60	0xbe2c9fa0	-0.16857767
61	0xbdcbafb6	-0.099456236
62	0x3c3f40e9	0.011673191
63	0x3b172cc2	0.002306745
64	0xbe6b64e3	-0.22987704
65	0x3d6c1fd6	0.05764755
66	0xbd752cb1	-0.059857074
67	0xbe2d1869	-0.16903843
68	0x3e21a998	0.15787351
69	0x3ddaa6d0	0.10676348
70	0x3e2b2e33	0.16716842
71	0xbdcc3d66	-0.09972648
72	0x3d5fab68	0.054606825
73	0x3cb913f4	0.022592522
74	0x3e4da4d2	0.20082405
75	0x3d8ddeec	0.069272846
76	0x3dedbcf4	0.116083056
77	0xbd2ccb20	-0.042185903
78	0xbcdb1dd6	-0.026747625
79	0x3e57bb4e	0.21067545
80	0x3d25bbda	0.040462352
81	0x3e237104	0.15961081
82	0x3d7c284d	0.06156187
83	0x3e43fbf1	0.19139077
84	0xbdad0182	-0.08447553
85	0xbd8ae281	-0.067814834
86	0x3c956449	0.018236296
87	0xbd2729fa	-0.040811516
88	0x3ce9bcfe	0.028532501
89	0x3b43eadf	0.0029894633
90	0xbd0d2765	-0.034461398
91	0x3dc1ab43	0.09456494
92	0xbd8cd43b	-0.06876417
93	0xbdd9eace	-0.106404886
94	0x3e89e05b	0.26928982
95	0xbd20cb00	-0.039256096
96	0xbc49276d	-0.012277466
97	0xbc2602fd	-0.010132548
98	0x3d96bc04	0.0736008
99	0x3d4a1461	0.04933584
100	0xbd57b371	-0.052661363
101	0xbd2af2e9	-0.041735563
102	0x3db0455c	0.08606979
103	0x3d2aa64c	0.0416625
104	0xbd7f129a	-0.0622736
105	0xbdedd2c9	-0.1161247
106	0xbcd2b5ae	-0.025721397
107	0x3d1f082d	0.038826156
108	0x3dc62d41	0.096766
109	0x3d3a93fb	0.04555128
110	0xbdd60c0a	-0.10451515
111	0xbcfb5f85	-0.030685196
112	0xbdb8ff87	-0.09033113
113	0xbc95abbb	-0.018270364
114	0xbd620fbf	-0.055190798
115	0xbbc272a4	-0.0059340764
116	0xbda9a413	-0.08283248
117	0xbd73f0dd	-0.059555877
118	0x3aee23bd	0.001816861
119	0xbdefc2b8	-0.117070615
120	0xbdb44b1e	-0.0880339
121	0xbda065d2	-0.07831921
122	0x3cc653cc	0.02420988
123	0xbe012798	-0.1261276
124	0x3d9d4378	0.07678884
125	0x3d5fed35	0.054669578
126	0xbd63b91b	-0.055596452
127	0xbd1b0532	-0.03784675
128	0xbc05baa3	-0.008162173
129	0x3cb79647	0.022410525
130	0xbc724c79	-0.01478874
131	0xbce3bdf3	-0.027800536
132	0xbd86d919	-0.06584377
133	0x3d8d0c72	0.068871394
134	0x3ca47be1	0.020078601
135	0xbd60e2cb	-0.054903787
136	0xbde51ff6	-0.11187737
137	0xbdd1b83f	-0.1024022
138	0x3d3406ea	0.043951906
139	0xbd2e111e	-0.042496793
140	0xbd192da9	-0.03739706
141	0xbcec44dd	-0.02884143
142	0xbb67f9b0	-0.0035396628
143	0xbceb8979	-0.028752076
144	0xbc706b25	-0.014673983
145	0xb9f45e56	-0.00046609592
146	0x3ce69d77	0.028151257
147	0xbd3ab130	-0.045579135
148	0x3d308e0f	0.043104228
149	0x3cb6b058	0.022300884
150	0x3d3930a8	0.045212418
151	0xbdb1789f	-0.08665585
152	0x3d943afc	0.07237813
153	0x3c32db99	0.010916614
154	0x395dac23	0.00021140328
155	0xbddfefea	-0.10934432
156	0x3d5939b3	0.053033542
157	0x3b3d224f	0.002885956
158	0x3b1e3330	0.0024139397
159	0x3d8131cc	0.06308326
160	0xbdb0a3eb	-0.08625015
161	0xbdc34ee9	-0.09536535
162	0xbdb7092d	-0.08937297
163	0x3d976540	0.07392359
164	0xbbf557d7	-0.007487278
165	0xbda61eda	-0.08111353
166	0xbc287fd6	-0.010284385
167	0x3dcaf77d	0.09910486
168	0x3cb48afb	0.022038927
169	0x3cea30f3	0.028587794
170	0x3c9e111e	0.019295271
171	0xbdc22c0f	-0.0948106
172	0xbde10f60	-0.10989261
173	0xbc7dfdf8	-0.015502445
174	0xbb94ffac	-0.00454708
175	0xbcf0cfc8	-0.029395953
176	0xbe039535	-0.12849887
177	0xbd88189a	-0.066453174
178	0xbc89af59	-0.016807245
179	0x3c06c155	0.008224805
180	0xbdb5dd82	-0.0888014
181	0xbdd250ce	-0.102693185
182	0xbd716193	-0.058930945
183	0xbc91d417	-0.017801328
184	0xbdba4a62	-0.09096219
185	0xbd68e034	-0.05685444
186	0x3c3bcf44	0.01146299
187	0xbcec09d6	-0.028813284
188	0xbdb19bd5	-0.08672301
189	0xbd22ea16	-0.039774023
190	0xbd6fa9f2	-0.05851168
191	0xbde92ce7	-0.113855176
192	0xbd2da831	-0.042396728
193	0xbdb2ca76	-0.087300226
194	0xbcd00a61	-0.025395574
195	0xbd5f12ea	-0.054461397
196	0xbd43c569	-0.047795687
197	0x3dd54e89	0.1041537
198	0xbcd9eb8b	-0.026601573
199	0x3d157bbd	0.03649496
200	0xbca100d9	-0.019653725
201	0x3d1f090a	0.03882698
202	0xbd896be1	-0.067100294
203	0xbd45f2a0	-0.04832709
204	0xbd749fc1	-0.059722666
205	0x3cee94d3	0.0291237
206	0xbbd4f4e3	-0.0064989193
207	0xbd2338f7	-0.039849248
208	0x3d7c8744	0.061652437
209	0xbe0d0627	-0.13771878
210	0x3dbd2f9b	0.09237596
211	0xbcaff93f	-0.021481154
212	0xbd575289	-0.052568946
213	0x3c13f625	0.009030853
214	0xbdcb6a2e	-0.099323615
215	0xbddee578	-0.108836114
216	0xbe05238f	-0.13001846
217	0x3dc94c0d	0.09828959
218	0xbd29619c	-0.041352853
219	0x3c00f3f0	0.007870659
220	0xbda61d55	-0.081110634
221	0x3d5cb83f	0.05388665
222	0xbdc0b0b9	-0.09408707
223	0x3ce43cee	0.027861085
224	0x3d7ae254	0.061251
225	0x3c94ff7f	0.018188236
226	0xbd963c48	-0.073357165
227	0xbc3c7d18	-0.011504434
228	0xbdd2d58b	-0.10294636
229	0xbd42615e	-0.047456138
230	0xbdbc0171	-0.091799624
231	0x3d949d61	0.0725658
232	0xbd975e50	-0.073910356
233	0xbdc79985	-0.097460784
234	0xbde9269d	-0.11384318
235	0xbd15583a	-0.036461093
236	0x3c1d965c	0.009618368
237	0xbdf96361	-0.12177158
238	0xbd6de414	-0.05807884
239	0x3d181f58	0.037139267
240	0x3b9f1032	0.0048542256
241	0xbd165b07	-0.036707904
242	0xbd60f0d3	-0.054917168
243	0xbd90306d	-0.070404865
244	0x3bc0069d	0.0058601634
245	0xbd7e9b67	-0.062159922
246	0xbe0f7bc9	-0.14012064
247	0xbc97e9fa	-0.018544186
248	0xbc51c506	-0.012803322
249	0xbdc8e956	-0.0981013
250	0xbdc406ce	-0.095716104
251	0xbdd52bb6	-0.10408728
252	0xbd8d67dc	-0.06904575
253	0xbd3d42d5	-0.046206314
254	0xbd632b6e	-0.05546134
255	0x3d5acfd0	0.05342084

layers.0.lin_self.bias f4 [96]
0	0x3c234c54	0.0099669285
1	0x3d2d631e	0.042330854
2	0xbd9b6677	-0.07587903
3	0xbda87f0e	-0.08227359
4	0x3d6cf848	0.057853967
5	0xbd82ee71	-0.06393135
6	0xbd06a6b5	-0.032873828
7	0x3d1c630d	0.0381804
8	0xbba3ad1e	-0.0049950024
9	0xbceb3172	-0.0287101
10	0x3d7a067c	0.06104134
11	0x3b592b72	0.0033137468
12	0xbc449823	-0.011999163
13	0xbc9f99d3	-0.019482529
14	0xbce3b648	-0.02779688
15	0x3d5932ec	0.05302708
16	0xbc0a84c8	-0.008454509
17	0xbdefd4ce	-0.11710511
18	0xbd7937be	-0.060844176
19	0xbda3b255	-0.079929985
20	0xbd630bc7	-0.055431154
21	0xbca216eb	-0.019786319
22	0x3cbe9133	0.023262596
23	0xbb1d3f48	-0.0023994017
24	0xbcf12d4d	-0.029440546
25	0x3e22acdd	0.15886255
26	0xbd8e24b9	-0.06940598
27	0x3cd2fa85	0.025754223
28	0x3b489594	0.0030606734
29	0xbcd7cef3	-0.026343798
30	0xbda38b86	-0.07985596
31	0xbdb56edb	-0.08859035
32	0x3d2bbd17	0.041928377
33	0xbce60daf	-0.028082697
34	0xbdad7865	-0.08470229
35	0x3d8f8f14	0.07009712
36	0x3d1ac587	0.037786033
37	0x3dccac08	0.0999375
38	0x3d357456	0.0443004
39	0x3d8ca0f2	0.068666354
40	0x3ce8ff9c	0.028442197
41	0x3da40ab5	0.08009855
42	0xbd2f30fc	-0.042771325
43	0x3d05799b	0.032586675
44	0x3c6036b2	0.013684915
45	0xbd1646d3	-0.036688637
46	0x3c852c5d	0.016256506
47	0xbdf5c0fe	-0.11999701
48	0xbdbf86ba	-0.09351869
49	0x3dad3b4d	0.08458576
50	0x3db2df9e	0.08734058
51	0xbadf7e49	-0.0017051186
52	0xbcd2442e	-0.025667276
53	0xbd9058c1	-0.070481785
54	0x3d2e10ed	0.04249661
55	0x3df10e2b	0.117702805
56	0xbd21a67b	-0.03946541
57	0xbd0518fb	-0.032494526
58	0x3d1790b5	0.037003238
59	0xbd6aa434	-0.057285503
60	0xbe05f1e3	-0.13080554
61	0x3d57e7d3	0.05271132
62	0xbd41add1	-0.047284905
63	0xbbecda61	-0.007228181
64	0xbdae263d	-0.08503387
65	0x3d8d6a6b	0.06905063
66	0x3b852562	0.0040632943
67	0xbd1ed959	-0.038781498
68	0xbc42e2db	-0.011894907
69	0x3c9d53df	0.019205032
70	0xbd179bed	-0.037013937
71	0x3d982189	0.07428271
72	0x3bbd0bfc	0.005769251
73	0xbc82940e	-0.015939739
74	0xbd8802d3	-0.06641164
75	0xbd511f17	-0.05105504
76	0xbd1d7041	-0.03843713
77	0x3d3b0531	0.045659248
78	0x3d443025	0.047897477
79	0xbc24c8f4	-0.010057677
80	0x3d3ec453	0.046573948
81	0x3cc15b61	0.023603143
82	0xbc45dede	-0.012077061
83	0x3b47825e	0.0030442695
84	0x3dec35b3	0.1153368
85	0x3af9cf21	0.0019058922
86	0xbd073e65	-0.03301849
87	0x3e07522b	0.13214938
88	0x3d99208f	0.07476913
89	0x3d1d35a3	0.03838123
90	0x3bef9c29	0.007312317
91	0xbbbc0d9e	-0.005738928
92	0xbd5ce197	-0.053926077
93	0xbdb88bce	-0.09011041
94	0x3d9f8b8f	0.077902906
95	0xbd70ca0d	-0.05878644

layers.0.lin_neigh.weight f4 [96, 96]
0	0xbdd7b279	-0.10532088
1	0xbe03fb54	-0.12888843
2	0xbe00bca9	-0.12571968
3	0x39f7180d	0.0004712943
4	0xbd8e1c85	-0.069390334
5	0xbd9a0e04	-0.075222045
6	0x3d6ba54f	0.057530697
7	0x3d713422	0.05888761
8	0xbc867734	-0.016414262
9	0xbe4080ce	-0.18799135
10	0xbdb98132	-0.09057845
11	0xbdb8a31f	-0.09015488
12	0xbc25e876	-0.010126224
13	0x3cdb0ef4	0.026740529
14	0x3c8f1bd9	0.017469333
15	0x3dbc2bb9	0.09188027
16	0x3befa2db	0.007313115
17	0x3cc7ca62	0.024388496
18	0xbcaad5d0	-0.020853907
19	0xbdfb2bd7	-0.12264221
20	0x3c2787d4	0.010225255
21	0xbcb58799	-0.022159385
22	0xbd0c7fb7	-0.034301486
23	0xbd58dca6	-0.0529448
24	0x3d1c4de9	0.03816024
25	0x3d8cc0ea	0.06872733
26	0xbdae7792	-0.085189
27	0xbe2f3bc7	-0.17112647
28	0x3dc680f5	0.09692565
29	0xbdfb103c	-0.12258956
30	0xbe54e111	-0.20788981
31	0xbdcf930d	-0.101354696
32	0xbd229ed2	-0.039702244
33	0xbd888089	-0.06665141
34	0x3db32ca5	0.0874875
35	0x3ca62456	0.020280998
36	0xbdbd4bb9	-0.092429586
37	0xbdda12d1	-0.1064812
38	0xbd944e9c	-0.07241556
39	0xbe3b6273	-0.18299274
40	0xbd8ec412	-0.06970991
41	0x3ce80781	0.02832389
42	0xbcb00fce	-0.021491911
43	0xbe4ddecb	-0.2010452
44	0xbe6da60a	-0.2320787
45	0xbccb09ae	-0.02478489
46	0xbd28b56d	-0.041188646
47	0x3db3654c	0.08759555
48	0x3da5621e	0.08075355
49	0xbd73f0bb	-0.05955575
50	0xbb579267	-0.003289366
51	0xbe581b39	-0.21104135
52	0xbd707069	-0.058700953
53	0xbb5ca505	-0.0033667695
54	0xbc4cd146	-0.012501067
55	0xbc8c0789	-0.017093437
56	0xbde927bd	-0.113845326
57	0xbe1aa706	-0.15102777
58	0xbd039f68	-0.032134444
59	0xbb9b8cbd	-0.004747002
60	0x3c8bbb81	0.017057182
61	0x3a1d2fd2	0.00059962005
62	0x3d252a2a	0.040323414
63	0xbd141f56	-0.036162697
64	0xbb5a4d28	-0.003331015
65	0xbe19b1fe	-0.15009305
66	0xbd407946	-0.046990655
67	0xbe039a83	-0.1285191
68	0xbe601d2a	-0.21886125
69	0xbd082bb4	-0.033244804
70	0xbdb91ee5	-0.09039096
71	0xbe14720c	-0.1449663
72	0x3d03f520	0.03221619
73	0xbdbe27cf	-0.09284937
74	0xbe6b8ed6	-0.23003706
75	0xbcc3991b	-0.023876717
76	0xbd8033b2	-0.0625986
77	0xbd0ff83b	-0.03514884
78	0xbcec8854	-0.0288736
79	0xbdbc9674	-0.09208384
80	0xbd9f3992	-0.077746525
81	0xbdb2485e	-0.08705209
82	0xbd0b6b3f	-0.034037825
83	0xbd9a82af	-0.07544457
84	0x3d841469	0.064492054
85	0xbdf51e20	-0.119686365
86	0x3d0e90f5	0.03480621
87	0xbbe807f2	-0.0070810253
88	0xbe138de9	-0.14409603
89	0x3b976c11	0.004621037
90	0x3db1adc9	0.08675725
91	0xbe40fccf	-0.18846439
92	0x3d6ff4da	0.058583118
93	0xbdecbf76	-0.11559956
94	0xbdea7278	-0.114476144
95	0xbdd08ecf	-0.101834886
96	0xbd0d79eb	-0.0345401
97	0xbdceffe1	-0.10107399
98	0x3d22a1bd	0.039705027
99	0xbdcd4835	-0.10023538
100	0x3db96cad	0.090539314
101	0x3b6c3f14	0.003604834
102	0xbd09f65e	-0.03368222
103	0xbdb2761b	-0.08713933
104	0x3c27e2c9	0.010246941
105	0xbcb7c81e	-0.02243429
106	0xbdbbeaf4	-0.09175673
107	0xbd4c3ee2	-0.049864657
108	0x3c2b4600	0.010453701
109	0x3b88fc02	0.0041804323
110	0x3d411bed	0.047145773
111	0xbd214253	-0.039369892
112	0xbd9aa953	-0.07551827
113	0xbcb01a9a	-0.02149706
114	0xbd26e71c	-0.040747747
115	0x3d0af846	0.03392818
116	0x3c3ca156	0.011513075
117	0x3da60351	0.08106101
118	0x3c9e3185	0.019310722
119	0xbd33507c	-0.043777928
120	0xbd3f124d	-0.046648312
121	0xbcdef8a9	-0.02721818
122	0xbb4d13bf	-0.0031292287
123	0xbde57cba	-0.1120543
124	0xbe3d3b2f	-0.18479608
125	0xbb2f9f26	-0.002679774
126	0x3c821edc	0.015883856
127	0x3dadaa22	0.08479716
128	0xbda0f3d8	-0.078590095
129	0x3d9c383b	0.076279126
130	0xbe28712a	-0.16449419
131	0xbceea198	-0.029129788
132	0xbdac4362	-0.0841129
133	0xbce6f949	-0.02819504
134	0xbb818bba	-0.0039534243
135	0xbd84948c	-0.064736456
136	0xbdd1d7df	-0.10246252
137	0x3d23b6bb	0.039969187
138	0x3d896a78	0.067097604
139	0x3b1d132e	0.002396773
140	0xbdbcdcb3	-0.092217825
141	0x3c942ac5	0.0180868
142	0x3d2d85ac	0.042363808
143	0xbe0bae6b	-0.13640754
144	0x3cb91fd8	0.022598192
145	0xbd8b58bb	-0.06804033
146	0xbca697fe	-0.020336147
147	0x3cae38b9	0.021267282
148	0x3c6edb60	0.01457867
149	0xbde5a0b9	-0.11212296
150	0xbd41bb4e	-0.04729777
151	0xbdf72e32	-0.12069358
152	0x3d983004	0.07431033
153	0xbe011ec2	-0.1260939
154	0xbd84f5b5	-0.064921774
155	0xbd61db3c	-0.05514072
156	0x3c92e7d6	0.017932814
157	0x3dc16596	0.09443204
158	0xbe0087e7	-0.12551843
159	0xbbb76e68	-0.0055978782
160	0x3cee26e2	0.029071275
161	0x3ca02a49	0.019551413
162	0x3d73005d	0.05932652
163	0xba37328c	-0.0006988428
164	0x3d8ab47d	0.06772707
165	0xbd9e863e	-0.077404484
166	0x3cb3e383	0.021959072
167	0xbd047cad	-0.032345463
168	0x3d14e232	0.03634853
169	0x3d025d0d	0.03182702
170	0xbc3e03d7	-0.011597595
171	0x3d65faf3	0.056147527
172	0x3d72102a	0.059097447
173	0x3d8ba4fa	0.06818576
174	0x3c832120	0.016007006
175	0x3cc34510	0.023836643
176	0x3d716932	0.058938213
177	0xbd221098	-0.039566606
178	0xbbdda06a	-0.0067635076
179	0xbdecc3e3	-0.115608
180	0x3d39bdce	0.045347027
181	0x3d84d67f	0.064862244
182	0x3c737f4e	0.014861895
183	0x3d8d73ba	0.06906839
184	0xbd404e86	-0.046949886
185	0xbc58bc33	-0.013228464
186	0x3dd47b89	0.10375125
187	0x3c19b80c	0.009382259
188	0x3cebb106	0.028770935
189	0xbcd3a0f2	-0.02583358
190	0x3dd83b78	0.10558218
191	0x3c90601e	0.017623957
192	0xbdc23b9a	-0.09484024
193	0x3dcafbe9	0.09911329
194	0xbe4cf980	-0.20017052
195	0xbdbf1e59	-0.0933196
196	0xbe0d1d74	-0.13780767
197	0xbd04bb8b	-0.032405417
198	0x3d97bb07	0.074087195
199	0x3d21134b	0.03932504
200	0xbc90b47b	-0.017664185
201	0xbc6ea6a5	-0.014566098
202	0x3d19635f	0.037448283
203	0xbd1d863b	-0.03845809
204	0x3c8c9aa0	0.017163575
205	0x3d0eb658	0.034841865
206	0x3dfb0599	0.12256927
207	0x3b94aa3d	0.0045368955
208	0xbd4feb1b	-0.050761323
209	0xbda4e9bc	-0.08052394
210	0xbcf5d2d9	-0.030007767
211	0x3db055ba	0.08610101
212	0xbe0da301	-0.13831712
213	0x3db9f250	0.090794206
214	0x3d5c1b62	0.05373705
215	0xbcd04398	-0.025422856
216	0x3d21ff07	0.039549854
217	0x3d56df54	0.052459076
218	0xbc9b1999	-0.018933104
219	0x3ccf169b	0.025279334
220	0x3d825909	0.06364638
221	0x3d9397b1	0.07206667
222	0xbcea8bd9	-0.028631138
223	0x3e1339f7	0.1437758
224	0x3cae3b49	0.021268504
225	0x3db096cf	0.086225145
226	0xbd1e75fa	-0.03868673
227	0xbd6e994f	-0.058251675
228	0x3d2ef002	0.042709358
229	0xbc47774f	-0.0121744415
230	0xbdb1961c	-0.08671209
231	0xbdc1e8f2	-0.09468259
232	0xbdbd99df	-0.09257864
233	0xbd4700de	-0.04858481
234	0x3d1caa3f	0.038248297
235	0xbd25304a	-0.040329255
236	0x3dbeb951	0.0931269
237	0xbdb1ce19	-0.08681888
238	0xbe0bec52	-0.13664368
239	0xbcb4e6ed	-0.02208277
240	0x3da9e12d	0.08294902
241	0x3ce4479f	0.027866183
242	0xbdd72ce1	-0.10506607
243	0xbca71ecc	-0.020400427
244	0x3d547d3e	0.051877253
245	0x3cefb48f	0.029260902
246	0xbc818cb2	-0.015814159
247	0x3d52ae86	0.05143597
248	0xbe50e49a	-0.20399705
249	0xbcc36102	-0.023849968
250	0xbdda7d33	-0.10668411
251	0x3d97403f	0.07385301
252	0x3ba63681	0.0050724153
253	0xbd8c8d02	-0.068628326
254	0xbe0cda7f	-0.13755225
255	0xbd77fc56	-0.06054338

layers.1.lin_self.weight f4 [96, 96]
0	0xbc82aa05	-0.015950212
1	0x3c2414c7	0.010014719
2	0xbc834630	-0.016024679
3	0xbdb3648b	-0.087594114
4	0xbda09df7	-0.078426294
5	0xbd59aa94	-0.05314119
6	0xbc2df62a	-0.010617772
7	0x3db31ec3	0.08746102
8	0x3d121485	0.0356641
9	0x3cdc135e	0.026864704
10	0x3d863324	0.06552723
11	0xbc1cbb3f	-0.009566127
12	0x3dbe86a0	0.093030214
13	0x3de76640	0.112987995
14	0x3c862b82	0.016378168
15	0x3ca49e74	0.020095088
16	0xbda2313e	-0.079195485
17	0x3974dcfe	0.0002335198
18	0xbd2cd0ef	-0.042191442
19	0xbe07a5fe	-0.13246915
20	0x3da77e32	0.08178367
21	0xbc8004c1	-0.015627267
22	0xbd728f1b	-0.059218507
23	0xbd1ae942	-0.03782011
24	0xbd38958a	-0.045064487
25	0x3dbfaa10	0.09358609
26	0x3d6663d6	0.056247555
27	0x3d4e42cd	0.050356675
28	0xbd65f21d	-0.0561391
29	0x3d755a93	0.05990083
30	0x3aba232d	0.0014201157
31	0xbbba498e	-0.005685038
32	0x3d4b0677	0.049566712
33	0xbd75b6da	-0.059988834
34	0xbdbac506	-0.091196105
35	0x3b047e67	0.0020216943
36	0x3dcc1866	0.09965591
37	0xbd32f133	-0.043687057
38	0xbc0e5ab5	-0.008688618
39	0x3d9675b9	0.073466726
40	0xbda11b0d	-0.07866488
41	0xbd7fc25b	-0.06244121
42	0x3c5d616a	0.013511995
43	0xbdef28c0	-0.11677694
44	0x3dc98614	0.098400265
45	0xbd086eaa	-0.033308662
46	0xbc8c7c30	-0.017149061
47	0xbc2c2a2e	-0.010508103
48	0xbdcca4ea	-0.09992392
49	0x3d5cc6f1	0.053900663
50	0xbd2228d1	-0.039589707
51	0xbd94b93e	-0.07261895
52	0x3cd82944	0.026386864
53	0x3d61a651	0.055090252
54	0xbd645935	-0.055749137
55	0x3d7fba48	0.06243351
56	0xbdf87840	-0.12132311
57	0x3c7f326d	0.015575987
58	0x3d570c9b	0.052502256
59	0xbd0d8483	-0.0345502
60	0xbe062fa7	-0.13104115
61	0xbd37ba80	-0.044855595
62	0xbe1065ee	-0.14101383
63	0xbd2e847e	-0.042606823
64	0xbde8e4d5	-0.11371771
65	0xbd5bfdff	-0.053709026
66	0xbc95082f	-0.018192379
67	0x3d1f1ad7	0.038843956
68	0x3b7af600	0.00382936
69	0xbc8157f3	-0.015789008
70	0xbbb9621e	-0.0056574484
71	0xbc131073	-0.00897609
72	0xbb835168	-0.004007507
73	0xbd83c1d5	-0.06433455
74	0x3d47d811	0.04879004
75	0xbc5b6737	-0.013391308
76	0x3d51ef5a	0.051253654
77	0xbc1112d2	-0.008854585
78	0x3d97d744	0.074141055
79	0xbdca6d55	-0.09884135
80	0xbd14c33b	-0.036319
81	0x3dab8257	0.0837447
82	0x3c4fa2f4	0.012673128
83	0x3d28f12e	0.041245632
84	0xbdd43086	-0.103608176
85	0xbd4cfea9	-0.05004755
86	0xbcf43c42	-0.02981389
87	0xbdd6bea8	-0.104855835
88	0xbc9c6527	-0.019091202
89	0xbd36eaf4	-0.044657663
90	0xbbe341bb	-0.006935326
91	0x3ccb7046	0.02483381
92	0xbc1b6edb	-0.009486879
93	0xbda8de62	-0.08245541
94	0xbc59f011	-0.013301865
95	0x3d05f50e	0.032704405
96	0xbde33424	-0.110939294
97	0xbbb7fb6b	-0.005614688
98	0x3cbdd24e	0.02317157
99	0x3c9de9eb	0.01927658
100	0x3db50c40	0.08840227
101	0x3d84014a	0.06445558
102	0xbd5ca43e	-0.05386757
103	0xbd4a67d6	-0.049415432
104	0xbdb72a74	-0.08943644
105	0xbce21856	-0.027599495
106	0x3bf13030	0.0073604807
107	0x3dd7ec30	0.10543096
108	0x3d06f829	0.032951508
109	0xbc8486be	-0.016177531
110	0xbddb1c91	-0.10698808
111	0xbd211fee	-0.03933709
112	0x3d177d7b	0.036984902
113	0xbd3292cc	-0.043597028
114	0x3d374ff9	0.044754002
115	0x3d912279	0.07086653
116	0xbd79f8f4	-0.061028436
117	0xbc0fcd9a	-0.008777047
118	0x3d46b677	0.048513856
119	0xbd3821b5	-0.04495402
120	0xba85930d	-0.0010190919
121	0xbdcbb8cf	-0.09947359
122	0x3d6f8e80	0.058485508
123	0x3d8a29c5	0.06746248
124	0x3db770c3	0.089570545
125	0xbd2d4fa4	-0.04231228
126	0x3dc592de	0.09647153
127	0x3ae08acf	0.0017131212
128	0xbddfcc68	-0.10927659
129	0x3d8b8651	0.06812728
130	0x3d285fd0	0.041107
131	0xbdca21b7	-0.09869712
132	0xbd87f824	-0.06639126
133	0x3cd08263	0.025452798
134	0x3cb0d559	0.021586107
135	0xbd29dbfe	-0.041469567
136	0x3d7e2e55	0.062055904
137	0x3c122ce5	0.0089218365
138	0x3c29b400	0.010357857
139	0xbc4982f5	-0.012299289
140	0x3d351f2e	0.04421919
141	0xbdaff3c9	-0.0859142
142	0xbd980a3c	-0.07423827
143	0xbd63ca99	-0.055613134
144	0xbbb7e65e	-0.0056121787
145	0x3b97d2c4	0.0046332795
146	0x3d9c38ca	0.07628019
147	0x3d9d7392	0.07688059
148	0x3d9506ac	0.07276663
149	0x3d19f196	0.03758391
150	0xbd899bc3	-0.06719162
151	0x3c24153b	0.010014827
152	0x3d5975d6	0.053090893
153	0xbc951b9e	-0.018201645
154	0x3b391375	0.0028240357
155	0xbd3d10e5	-0.04615869
156	0xbd52d36d	-0.051471163
157	0xbd67a98a	-0.05655817
158	0xbdb92a35	-0.090412535
159	0xbbe22fff	-0.0069026942
160	0xbcfac6c0	-0.03061235
161	0xbb614521	-0.003437348
162	0xbcf909ae	-0.030400123
163	0x3d0c6e2d	0.03428476
164	0xbac532e4	-0.0015045074
165	0xbd2c230e	-0.04202562
166	0x3d27f4a4	0.04100479
167	0x3d7f10a2	0.06227172
168	0x3d490b57	0.04908308
169	0x3d3dcfe1	0.046340827
170	0xbca0845a	-0.01959436
171	0x3da33854	0.07969728
172	0xbcc56d5b	-0.024099996
173	0x3dee182c	0.11625704
174	0x3cf139fc	0.029446594
175	0xbde92017	-0.11383074
176	0xbd64f486	-0.05589726
177	0xbd230c1c	-0.03980647
178	0x3db7584c	0.08952388
179	0xbd6207e2	-0.0551833
180	0xbd5f4b62	-0.05451525
181	0x3d102312	0.035189696
182	0xbd9be1e1	-0.07611442
183	0xbd009c4f	-0.031399067
184	0xbd9e380b	-0.07725533
185	0x3c01c162	0.007919641
186	0x3b98d3d5	0.004663924
187	0x3d2fc85a	0.04291568
188	0xbdd696c1	-0.10477973
189	0xbdfa3fe1	-0.12219215
190	0xbc8a81f5	-0.016907671
191	0xbde10fce	-0.10989343
192	0x3ccf8733	0.025333023
193	0xbd09543d	-0.0335276
194	0xbd4d585c	-0.050133094
195	0x3b3afb53	0.0028531149
196	0x3d7f79d0	0.06237203
197	0xbd92faaa	-0.071767166
198	0xbd556462	-0.052097686
199	0x3d4e680d	0.0503922
200	0xbd664896	-0.056221567
201	0x3d1f8319	0.038943384
202	0xbdeca9bf	-0.11555814
203	0xbda3b9df	-0.079944365
204	0xbd91b94a	-0.07115419
205	0x3d40d85f	0.047081348
206	0x3b261073	0.0025339394
207	0x3d5b7b9c	0.05358468
208	0xbdbc6d56	-0.09200542
209	0xbd51316f	-0.051072534
210	0x3d350420	0.044193387
211	0x3c9b8b82	0.018987421
212	0xbda04d79	-0.07827277
213	0xbe0c7473	-0.13716297
214	0x3db68de7	0.089137845
215	0x3d76a32e	0.060214214
216	0xbcbcf8aa	-0.023067791
217	0x3d9b450d	0.0758153
218	0x3d10b0ee	0.035324983
219	0xbcdcf251	-0.026971014
220	0x3d70c4e4	0.05878152
221	0x3d52af3a	0.05143664
222	0x3d95b198	0.07309264
223	0xb5ecc8b5	-1.7641784e-06
224	0xbde0b8ae	-0.10972725
225	0xbb23c50a	-0.002498927
226	0xbcde3bb9	-0.027128087
227	0xbdadf30c	-0.08493623
228	0x3bdb626a	0.0066950815
229	0xbc35ca9a	-0.011095667
230	0xbd70284b	-0.058632176
231	0xbb896baa	-0.0041937428
232	0x3bf8bf97	0.0075911987
233	0xbccca19a	-0.024979401
234	0xbdc83354	-0.09775415
235	0x3d041ec8	0.032255918
236	0xbccf8bde	-0.025335249
237	0xbd5920bf	-0.053009745
238	0xba1b458c	-0.0005923144
239	0xbd212f61	-0.039351825
240	0xbd88a466	-0.066719815
241	0xbe07283e	-0.13198945
242	0xba945206	-0.0011315949
243	0xbcf347c3	-0.029697305
244	0xbdb6c67d	-0.089245774
245	0xbd9e9ce2	-0.07744767
246	0xbdf4aaf1	-0.11946667
247	0xbd7197de	-0.058982722
248	0xbdcb45c0	-0.09925413
249	0x3d930f3e	0.071806416
250	0xbdb0af24	-0.086271554
251	0xbce459c1	-0.02787483
252	0x3c59f331	0.01330261
253	0xbd899a5b	-0.06718894
254	0x3cd5a595	0.026079932
255	0x3d8e15b7	0.069377355

layers.1.lin_self.bias f4 [96]
0	0x3d4d5d3b	0.05013774
1	0x3d2c29ee	0.042032175
2	0xbdc0b711	-0.09409917
3	0xbd9c9198	-0.07644957
4	0x3c900873	0.017582154
5	0x3dac53d7	0.08414429
6	0xbdbe94c4	-0.093057185
7	0x3d8f540c	0.069984525
8	0x3caae5a3	0.020861452
9	0xbb6525cf	-0.0034965163
10	0x3ddf6c13	0.109092854
11	0xbd84d589	-0.06486041
12	0xbd8f1f8c	-0.06988439
13	0x3d86f4b0	0.06589639
14	0x3dfa1996	0.122119114
15	0xbdc5d681	-0.09660054
16	0x3d0bc2a9	0.03412119
17	0x3e31cdd3	0.17363672
18	0xbcd8df29	-0.026473599
19	0x3e1834cb	0.14863889
20	0x3ddcb075	0.10775844
21	0xbdab251a	-0.08356686
22	0xbda9d0c8	-0.08291775
23	0x3d29e595	0.041478712
24	0xbe126bbc	-0.1429891
25	0xbb9c1a50	-0.004763879
26	0x3d81f1d8	0.06344956
27	0x3c889ac8	0.016675368
28	0xbd8c8412	-0.06861128
29	0xbd62b787	-0.055350807
30	0x3cb78360	0.022401512
31	0x3dd37d6a	0.10326655
32	0xbd0cd081	-0.034378532
33	0xbd92c62e	-0.07166706
34	0x3d3b59c9	0.045739923
35	0xbe05d69d	-0.1307015
36	0x3cf99502	0.03046656
37	0xb8ae5e8a	-8.314576e-05
38	0xbd9a0c02	-0.075218216
39	0xbdb1929f	-0.08670544
40	0xbdefa0fc	-0.11700627
41	0xbcc9038c	-0.024537824
42	0xbc870d89	-0.016485946
43	0x3d33f830	0.043937862
44	0x3d360fbb	0.044448595
45	0xbcfb227d	-0.030656094
46	0xbd718ba2	-0.058971055
47	0xbca381b8	-0.019959316
48	0x3cecbdac	0.028899036
49	0x3cf54840	0.029941678
50	0xbdfd6be3	-0.123740934
51	0xbd121ba5	-0.035670895
52	0xbd21e2d9	-0.03952298
53	0xbe0f9955	-0.14023335
54	0xbd9dcc23	-0.077049516
55	0xbd31b5e3	-0.04338635
56	0x3cff5826	0.031169962
57	0x3d750225	0.0598165
58	0x3cd63faa	0.026153404
59	0x3d7be092	0.061493464
60	0x3db78769	0.08961374
61	0xbd72545b	-0.05916248
62	0xbe00057c	-0.12502092
63	0xbd20fc03	-0.039302837
64	0xbbe2f302	-0.0069259414
65	0xbdddb445	-0.10825399
66	0xbdf72dfd	-0.120693184
67	0xbde9dcd4	-0.11419073
68	0xbd0e0a42	-0.03467775
69	0xbd4ac835	-0.04950734
70	0xbd83c807	-0.064346366
71	0x3cf4a017	0.029861493
72	0xbd411c43	-0.047146093
73	0xbcfb35ad	-0.030665243
74	0x3d99b6ad	0.07505546
75	0xbd004563	-0.031316172
76	0x3dfb5d1e	0.1227362
77	0xbd0cb3ef	-0.034351286
78	0xbdf1424a	-0.11780222
79	0x3c973aa4	0.01846058
80	0xbdb56ee8	-0.08859044
81	0xbdbce025	-0.0922244
82	0xbd8d0b4b	-0.068869196
83	0xbdd05b9d	-0.10173724
84	0x3d411ab3	0.047144603
85	0xbe1d7902	-0.15378192
86	0x3db03769	0.08604319
87	0xbd8b87a3	-0.0681298
88	0xbd8b246b	-0.067940556
89	0xbcc4fbaf	-0.024045793
90	0xbd1add04	-0.037808433
91	0xbd8da069	-0.069153614
92	0x3cd50906	0.02600528
93	0x3d95ca32	0.07313956
94	0x3d3d34fa	0.0461931
95	0xbd74f878	-0.05980727

layers.1.lin_neigh.weight f4 [96, 96]
0	0xbd25edec	-0.040510103
1	0xbd82d6e2	-0.06388642
2	0x3dc35937	0.09538501
3	0xbc463051	-0.0120964805
4	0x3db6da56	0.08928363
5	0xbd814edd	-0.0631387
6	0xbdaa91ba	-0.083285764
7	0x3ce1812b	0.027527412
8	0xbcc4d940	-0.024029374
9	0x3d44bf62	0.04803408
10	0x3d8860ea	0.0665911
11	0x3d6d6cfd	0.057965267
12	0x3d4ba45d	0.049717296
13	0xbd75a053	-0.05996735
14	0x3d03670a	0.032080688
15	0x3c09ed48	0.008418389
16	0xbd9e664e	-0.07734357
17	0xbd65f079	-0.056137536
18	0x3da2e721	0.079542406
19	0xbd378629	-0.04480568
20	0xbc952579	-0.018206345
21	0x3d781f86	0.060576938
22	0xbd58ed83	-0.052960884
23	0xbd948644	-0.07252172
24	0xbd4eaf45	-0.05046012
25	0xbb89e851	-0.0042086025
26	0xbd9e3be7	-0.07726269
27	0x3d119b49	0.035548482
28	0xbdaf8783	-0.08570769
29	0x3d755dbb	0.05990384
30	0x3d134dee	0.03596299
31	0xbd400e36	-0.046888553
32	0x3cec11bf	0.028817056
33	0x3d734cbe	0.05939936
34	0x3d404fac	0.04695098
35	0x3d57c720	0.052680135
36	0xbd5d632a	-0.05404965
37	0x3d915b5a	0.07097502
38	0xbd9122b1	-0.07086695
39	0xbda517b3	-0.08061161
40	0x3c09717c	0.008388873
41	0x3dd45de7	0.10369473
42	0xbe0de3f5	-0.1385649
43	0xbceda95f	-0.029011426
44	0x3cb9b9bf	0.022671578
45	0xbcbf9754	-0.023387589
46	0xbbd92944	-0.0066272337
47	0x3d0e7309	0.034777675
48	0xbdde8e21	-0.10866953
49	0x3d069fc1	0.032867197
50	0xbdd8dd94	-0.10589138
51	0x3d495870	0.049156606
52	0x3dc75e99	0.0973484
53	0x3ac9a900	0.0015385449
54	0x3cdffd8e	0.027342584
55	0xbdba1881	-0.09086705
56	0x3caacf05	0.020850668
57	0x3db2473c	0.08704993
58	0x3de26647	0.11054664
59	0xbca05970	-0.019573897
60	0x3cde3618	0.027125403
61	0xbdebef46	-0.11520247
62	0xbdfa97c0	-0.12235975
63	0xbdb5110b	-0.08841141
64	0x3d328fed	0.04359429
65	0x3cddbdec	0.0270681
66	0xbdcd4e5c	-0.100247115
67	0xbd008376	-0.03137537
68	0x3cb5b134	0.022179224
69	0xbe1e84c2	-0.1548033
70	0x3cfbf74a	0.030757565
71	0xbddab88f	-0.10679733
72	0xbe18c17c	-0.14917558
73	0x3d1e4c3a	0.038646914
74	0x3a653779	0.0008743923
75	0x3da35825	0.079757966
76	0xbaf99bce	-0.0019043626
77	0xbd741315	-0.05958851
78	0xbbfaf441	-0.007658512
79	0x3c4ddc0e	0.012564672
80	0x3d834959	0.06410474
81	0xbd48e2f9	-0.049044583
82	0x3da3d40e	0.079994306
83	0x3d63657c	0.055516705
84	0xbd5f5ffd	-0.0545349
85	0x3cbfc111	0.02340749
86	0xbd3a98e1	-0.045555953
87	0xbd8c081d	-0.06837485
88	0xbd2ec3dc	-0.042667255
89	0xbcc30df8	-0.023810372
90	0xbca6cf0f	-0.020362405
91	0xbd351805	-0.04421236
92	0xbb81cd97	-0.003961276
93	0x3d31516b	0.043290537
94	0x3c3be436	0.011467984
95	0x3db468cb	0.0880905
96	0xbc5925fd	-0.013253686
97	0xbb436f65	-0.0029821035
98	0xbd589cc2	-0.05288387
99	0xbdcb0848	-0.09913689
100	0xbd8b4811	-0.06800855
101	0xbd3c0803	-0.045906078
102	0xbd8db1c4	-0.06918672
103	0xbd03a49d	-0.03213941
104	0x3c2d91d6	0.010593852
105	0xbd5ff175	-0.05467363
106	0xbd8e7244	-0.06955388
107	0xbde4cdc8	-0.11172062
108	0x3dbe7146	0.09298949
109	0xbdf26aa1	-0.11836744
110	0xbcf3a680	-0.02974248
111	0x3cd3dcb5	0.025862077
112	0x3c9c1fd2	0.019058142
113	0xbcea5871	-0.028606625
114	0xbda04f64	-0.078276426
115	0xbcdbbed3	-0.02682439
116	0xbdb97639	-0.09055752
117	0xbcd9ccbb	-0.02658688
118	0xbd6490d9	-0.0558022
119	0xbdb5ab22	-0.088705316
120	0x3dd8a0d6	0.10577552
121	0xbd8fd815	-0.07023636
122	0x3d364414	0.044498518
123	0x3d0360b1	0.032074634
124	0xbbc439ad	-0.005988321
125	0x3db99eba	0.09063478
126	0x3d0fb147	0.035081174
127	0x3d4449e0	0.047922015
128	0xbc5b22b0	-0.013374969
129	0xbca4a7f2	-0.020099614
130	0x3dd7c3fd	0.10535429
131	0xbc9a78d9	-0.018856453
132	0x3d1768eb	0.036965292
133	0xbd5aa4a2	-0.053379662
134	0x3db2cf0f	0.087308995
135	0xbc28f6e0	-0.010312766
136	0xbd623c8b	-0.05523352
137	0x3cce9fdd	0.025222713
138	0xbb822904	-0.0039721746
139	0xbdc76183	-0.09735396
140	0x3d5f5c77	0.05453154
141	0xbd8970ed	-0.06710992
142	0x3d5c6f73	0.053817224
143	0x3d172236	0.03689786
144	0x3dbc9ac9	0.092092104
145	0xbc2b8ace	-0.010470105
146	0xbd9311d7	-0.07181137
147	0xbd139282	-0.036028393
148	0x3ddbf4ce	0.10740052
149	0x3c77b8e2	0.015119763
150	0xbd37c280	-0.044863224
151	0xbb0f7bf8	-0.002189396
152	0x3d918fe3	0.07107522
153	0x3d67c2de	0.056582324
154	0xbd476ff4	-0.04869075
155	0xbc3fa0d7	-0.011696062
156	0x3d61ad45	0.055096883
157	0xbdb33a5a	-0.08751364
158	0xbdb31aca	-0.08745344
159	0xbd15d8c9	-0.036583696
160	0xbcadee51	-0.021231802
161	0x3d0a4df8	0.033765763
162	0xbd0f30a9	-0.034958515
163	0x3d3d7603	0.046255123
164	0x3cbf302a	0.023338396
165	0xbde7341b	-0.11289235
166	0xbde2f9cc	-0.11082801
167	0x3d88f826	0.066879556
168	0x3d484218	0.048891157
169	0xbcbac0bd	-0.022796983
170	0x3b839dc7	0.0040166113
171	0xbdbab83c	-0.09117171
172	0xbd864efd	-0.065580346
173	0x3e3d8732	0.18508604
174	0xbdc5b0bd	-0.09652851
175	0xbdce2e3b	-0.100674115
176	0x3d0cfbc1	0.03441978
177	0x3d0c9c3e	0.03432869
178	0x3d085792	0.03328664
179	0xbdeb3d9c	-0.114863604
180	0x3d256012	0.040374823
181	0x3c8b6f38	0.017020807
182	0xbddc8092	-0.1076671
183	0x3cac2372	0.021012995
184	0x3cadfd5e	0.021238979
185	0x3d3d03c9	0.046146188
186	0xbddcb119	-0.10775966
187	0xbdcd641b	-0.10028859
188	0xbdcea097	-0.10089224
189	0x3d84c06e	0.064820156
190	0xbdd6bc67	-0.10485154
191	0x3d6e7460	0.058216453
192	0x3d59ae46	0.053144716
193	0xbcd9aece	-0.026572611
194	0xbe0397bf	-0.12850855
195	0xbcc9c311	-0.024629148
196	0x3da0c80c	0.07850656
197	0xbd1dbba6	-0.038509034
198	0xbd8088f3	-0.06276121
199	0x3ca567cf	0.020191101
200	0xbcbc5d12	-0.022993598
201	0xbdc58bc7	-0.09645801
202	0xbd4a1f0c	-0.049346015
203	0x3d096fc7	0.033553865
204	0xbc4108fa	-0.011781925
205	0x3db653bc	0.0890269
206	0x3cc70a69	0.024296956
207	0xbdfeac48	-0.12435204
208	0xbcdce04d	-0.026962424
209	0xbdad1b9b	-0.08452531
210	0x3d7a640e	0.061130576
211	0xbd49efa6	-0.049300812
212	0x3d82ec83	0.06392767
213	0xbda28b58	-0.07936734
214	0x3cd038fa	0.025417794
215	0xbcc84563	-0.024447149
216	0x3c393c5c	0.011305895
217	0xbd1cf9f6	-0.03832432
218	0xbd22904f	-0.039688405
219	0x3c0e2b8a	0.008677373
220	0xbcfb9d12	-0.030714545
221	0x3ca74437	0.02041827
222	0xbd61ed20	-0.05515778
223	0xbdb5ab6b	-0.08870586
224	0xbe0e9e7e	-0.13927647
225	0x3cedc3c1	0.029024007
226	0xbd968980	-0.07350445
227	0xbdcc22ca	-0.09967573
228	0x3d99129b	0.07474252
229	0xbcf16536	-0.029467206
230	0x3d83cdd0	0.0643574
231	0xbdc6896d	-0.09694181
232	0xbda29b41	-0.079397686
233	0xbd10add0	-0.03532201
234	0xbd359cdc	-0.044339046
235	0xbdd828b8	-0.105546415
236	0x3d0f761b	0.035024744
237	0xbda4956a	-0.08036311
238	0xbc0e072e	-0.008668704
239	0x3d1f3f32	0.038878627
240	0xbd3b0539	-0.045659278
241	0x3ceeeb70	0.029165
242	0x3be696dd	0.0070370273
243	0xbd8b9862	-0.06816174
244	0x3d8735c5	0.066020526
245	0x3d678f40	0.0565331
246	0xbdd704a3	-0.10498931
247	0xbdb8a9a4	-0.090167314
248	0xbd744402	-0.05963517
249	0x3cbc9862	0.02302188
250	0x3c885c91	0.016645702
251	0xbd6e0b69	-0.05811635
252	0xbd5ccffa	-0.05390928
253	0xbcd04ab3	-0.025426244
254	0x3cb2a711	0.02180818
255	0xbcab8f1c	-0.020942263

mlp.0.weight f4 [96, 96]
0	0xbc573deb	-0.013137321
1	0x3cee49bb	0.029087892
2	0x3d724e5b	0.059156757
3	0xbdd75bb2	-0.10515536
4	0x3dd6ab6f	0.10481917
5	0xbdd9bb60	-0.10631442
6	0x3b61c5a6	0.0034450083
7	0x3d99b187	0.07504564
8	0x3d60abb1	0.054851238
9	0x3d6b68c7	0.05747297
10	0xbe14db3d	-0.14536758
11	0xbdaea1d9	-0.08526964
12	0xbcd42caf	-0.025900213
13	0x3d4aa572	0.049474187
14	0x3c273ab7	0.01020687
15	0xbc885421	-0.016641678
16	0xbe563d7a	-0.20921889
17	0x3c78992d	0.015173239
18	0x3b7c04cc	0.0038455008
19	0x3d3d4f5d	0.046218265
20	0xbdddefae	-0.10836731
21	0xbc9954b9	-0.018717157
22	0x3e932a48	0.28743196
23	0xbe35f69c	-0.17769855
24	0x3d94ed3f	0.072718136
25	0x3da28b5c	0.07936737
26	0xbe2738cd	-0.16330262
27	0x3c011a61	0.007879824
28	0x3de27b8c	0.11058721
29	0xbd24e0ca	-0.040253438
30	0x3d4fe3fb	0.05075453
31	0xbeffb7ad	-0.4994482
32	0x3d48f789	0.049064193
33	0xbd6ea142	-0.058259256
34	0xbe3540b9	-0.17700471
35	0x3cfba483	0.030718094
36	0xbd98fc0e	-0.074699506
37	0xbdf73e6d	-0.12072454
38	0x3d70f7cb	0.058830064
39	0x3be8ab46	0.0071004955
40	0xbba29535	-0.0049616345
41	0xbd7111b0	-0.05885476
42	0x3db69c44	0.08916524
43	0xbdab4e2e	-0.08364521
44	0xbd89abfa	-0.06722255
45	0xbd016605	-0.031591434
46	0x3cc8cdf0	0.024512261
47	0x3daa1381	0.08304501
48	0xbc0b72ca	-0.008511255
49	0x3e86fd75	0.26365247
50	0x3c2969cd	0.010340166
51	0xbc5bf6ac	-0.01342551
52	0xbd7aa5c0	-0.061193228
53	0x3df466af	0.11933648
54	0xbea49bb5	-0.32150045
55	0x3bc01f9a	0.005863142
56	0xbd46fc0b	-0.04858021
57	0x3d29eb4d	0.041484166
58	0x3c9e147e	0.01929688
59	0xbbfca2c9	-0.007709835
60	0xbb66b66d	-0.003520395
61	0x3e81967e	0.2531013
62	0xbdc59a37	-0.09648555
63	0xbdaab252	-0.08334793
64	0xbcf79c32	-0.030225847
65	0xbdb3db7f	-0.087821
66	0xbd970d06	-0.07375531
67	0xbbd015d4	-0.0063502584
68	0xbd340a54	-0.043955162
69	0xbd3474d4	-0.04405673
70	0xbcd0389a	-0.025417615
71	0x3ba160a1	0.004924849
72	0xbd462b39	-0.048381064
73	0x3cb3c439	0.021944152
74	0xbd3d8d03	-0.046277057
75	0x3d702ac2	0.058634527
76	0xbdece193	-0.11566462
77	0x3c3edde3	0.011649582
78	0x3d5e58f4	0.05428405
79	0x3d307b88	0.04308656
80	0x3bde77f0	0.0067892
81	0x3d276c2c	0.040874645
82	0xbd3b7bf8	-0.045772523
83	0x3ea0fc76	0.31442612
84	0x3d5a37a4	0.05327572
85	0xbdc7785d	-0.09739754
86	0xbd26d7a2	-0.040732987
87	0x3b4ab078	0.0030927937
88	0x3d23b858	0.039970726
89	0x3d23f557	0.040028896
90	0x3d8dba15	0.06920258
91	0x3e3931d3	0.18085413
92	0x3d6d630f	0.057955798
93	0x3dc26df1	0.09493626
94	0x3c7c4799	0.01539793
95	0x3dc8a656	0.09797351
96	0x3d95f2b1	0.0732168
97	0x3dc0f6eb	0.09422096
98	0x3d737281	0.05943537
99	0xbc1fead9	-0.009760582
100	0xbd45aa2c	-0.04825799
101	0xbd5bbe22	-0.05364812
102	0x3d714817	0.05890664
103	0xbc0c812d	-0.00857572
104	0x3a5ffc28	0.0008544349
105	0x3c9dc4c6	0.019258868
106	0xbd822b4b	-0.06355914
107	0xbd9a5b3a	-0.07536931
108	0xbdb81fa1	-0.08990408
109	0xbb96611a	-0.004589212
110	0xbe39012b	-0.18066852
111	0x3da92f00	0.08260918
112	0xbd5dbdd9	-0.05413613
113	0xbdd9a733	-0.10627594
114	0xbd9722ea	-0.07379706
115	0xbe2d8336	-0.16944584
116	0x3d21edc4	0.03953339
117	0x3d6a5174	0.057206586
118	0xbd28d6ec	-0.04122059
119	0x3df3c7f5	0.11903373
120	0x3c2ed7c3	0.010671559
121	0x3dc3060c	0.09522638
122	0xbd2867f9	-0.04111478
123	0x3d89d23a	0.06729551
124	0x3c4094bb	0.01175421
125	0x3b40848d	0.0029375881
126	0xbde77c62	-0.11303021
127	0xbb7f2159	-0.003892979
128	0x3d0527ee	0.032508783
129	0x3d649c6c	0.055813238
130	0x3da8fa33	0.08250847
131	0x3b1ce392	0.0023939353
132	0xbde588ec	-0.112077564
133	0x3d19c58a	0.037541904
134	0x3da45c7a	0.08025451
135	0xbe0823a9	-0.13294853
136	0x3dae1adc	0.08501217
137	0xbe1d478e	-0.15359327
138	0xbd4c1277	-0.049822297
139	0xbdab16aa	-0.08353932
140	0xbdcb5f05	-0.09930233
141	0x3c91398a	0.017727632
142	0x3daeaa19	0.08528537
143	0x3d83f168	0.06442529
144	0xbccfa532	-0.025347326
145	0xbccb71ae	-0.02483448
146	0xbd54e1a8	-0.051973015
147	0xbcbb320f	-0.022851018
148	0xbc9128c0	-0.017719626
149	0xbc952516	-0.01820616
150	0xbb79eb8b	-0.003813478
151	0x3d2b1338	0.041766375
152	0xbdca642f	-0.0988239
153	0xbe3e7c1c	-0.18602031
154	0xbda92a41	-0.082600124
155	0x3dca59a8	0.09880382
156	0xbbbab6d4	-0.0056980643
157	0x3d2c539e	0.04207193
158	0xbd9d2971	-0.0767392
159	0x3c4e0bd5	0.012576063
160	0xbbd20a7a	-0.0064099403
161	0x3cd13935	0.025539974
162	0x3d5d0772	0.05396218
163	0xbd9af0d0	-0.075654626
164	0x3d3a582f	0.045494255
165	0xbe05ca0d	-0.13065358
166	0xbd946700	-0.07246208
167	0xbe56e2d2	-0.20984963
168	0xbd9ed99a	-0.07756348
169	0xbcdf616b	-0.027268132
170	0xbdec1860	-0.11528087
171	0xbdbd0ba9	-0.092307396
172	0x3ddceab6	0.10786955
173	0x3d837f6d	0.06420789
174	0xbd990975	-0.07472507
175	0x3d1367df	0.03598773
176	0x3d349c3e	0.044094317
177	0xbcba58cf	-0.022747425
178	0x3db8ee91	0.09029878
179	0xbbe64b85	-0.0070280456
180	0xbd1692ef	-0.03676122
181	0x3d70ebd6	0.05881866
182	0xbe1aa612	-0.15102413
183	0xbd93b02a	-0.07211335
184	0xbc9cb06d	-0.019127095
185	0x3d257b66	0.040400885
186	0xbdb3298b	-0.08748158
187	0xbd43232d	-0.047640968
188	0xbdda5462	-0.10660626
189	0xbc32bd71	-0.010909424
190	0x3a0eafc1	0.00054430595
191	0xbdc29c97	-0.095025234
192	0xbc1c4538	-0.009537987
193	0x3d9ccefd	0.076566674
194	0xb97bb5ea	-0.00024004994
195	0xbdc7b0d4	-0.09750524
196	0x3d5a6c72	0.053326078
197	0x3caf5d01	0.021406652
198	0xbd162ad9	-0.036661956
199	0xbdbd6b1b	-0.09248944
200	0xbd261983	-0.040551674
201	0xbd296f0d	-0.041365672
202	0x3c86075c	0.016360931
203	0x39d766ea	0.00041084673
204	0x3cc23eac	0.023711525
205	0xb913b2ba	-0.00014085593
206	0xbc2c1798	-0.010503672
207	0xbdc8e0f4	-0.098085314
208	0xbcaab8f9	-0.020840155
209	0xbcf6fe1f	-0.030150471
210	0xbd9b1fa1	-0.07574392
211	0x3cce7afb	0.025205126
212	0x3ceb0d6c	0.028692923
213	0xbdab9a91	-0.083790906
214	0x3d10d966	0.035363577
215	0xbab8e6a5	-0.0014106823
216	0xbd9864fe	-0.07441138
217	0x3d1269d2	0.03574545
218	0x3d71f3c0	0.05907035
219	0x3d1d5352	0.03840954
220	0xbdbd31d4	-0.092380196
221	0xbd7aa9d1	-0.061197106
222	0xbc809cba	-0.015699733
223	0xbdac9393	-0.08426585
224	0xbd883a94	-0.06651798
225	0x3d462974	0.048379377
226	0x3d87cb20	0.0663054
227	0x3b8837d7	0.0041570473
228	0x3c51626c	0.012779813
229	0xbe16092c	-0.14651936
230	0xbd9fc60d	-0.07801447
231	0xbe05f6f2	-0.13082483
232	0xbdb0ecb8	-0.086389005
233	0xbd8c58aa	-0.06852849
234	0x3c05fbe4	0.008177731
235	0xbd20a1d4	-0.03921683
236	0x3da0c454	0.078499466
237	0x3d38da7e	0.045130245
238	0xbd7da53f	-0.06192517
239	0x3b9e86ca	0.0048378455
240	0x3d02524c	0.031816766
241	0xbdc29940	-0.09501886
242	0xbd003098	-0.031296343
243	0x3c1df23e	0.009640275
244	0x3a86de6f	0.0010289679
245	0xbcb6b2c1	-0.022302033
246	0xbccd3887	-0.025051368
247	0x3d7ef538	0.062245578
248	0x3d4086bd	0.047003496
249	0xbda446cb	-0.08021315
250	0x3d02ca6b	0.031931322
251	0x3d52ef62	0.051497824
252	0xbb732bab	-0.0037104886
253	0xbdb575a0	-0.08860326
254	0x3de147e7	0.110000424
255	0xbb22c863	-0.0024838678
