outputs/models/nowcast_sage_no_next_seed42.pt (torch, 272229 bytes, 14 tensors)

in_lin.weight f4 [96, 14]
000000 ac 47 46 3e 00 70 4d 3e ac 1b 96 bd 4c b1 65 3e
       0.19363278 0.20062256 -0.07329497 0.22430915
000010 67 da 6f bd 93 e6 5c 3d a0 fb 12 be a7 89 72 3e
       -0.058557894 0.05393083 -0.143538 0.23685323
000020 2d 31 93 3e 7a 31 1e be c7 08 81 3e 5d 91 81 3d
       0.28748456 -0.15448561 0.2520201 0.06326554
000030 7a 20 3c 3e c1 ee c2 3c 42 4d 0c 3e 68 09 5b bd
       0.18371764 0.023795487 0.13701347 -0.053475767
000040 4e 4e 5b 3e bd 4f be 3c 7a 86 ff bd d3 84 8b 3d
       0.2141659 0.023231382 -0.12476821 0.068124436
000050 1e 9d eb bd b5 35 40 bd 49 7d fe bd 8f 75 25 3e
       -0.11504577 -0.04692622 -0.1242624 0.16158126
000060 d6 1e 68 be fa 56 cf bd 93 c8 bc bd b8 8b 34 be
       -0.22668013 -0.10124011 -0.09217944 -0.17631423
000070 9a 6a 9d 3c fb f6 5a be d4 03 71 3e 1f 3f 35 be
       0.01921587 -0.21383278 0.23536617 -0.1769986
000080 f5 48 53 3e ec 2d 36 3d 3e 8f 9d bd 7c 4e 5d 3e
       0.206333 0.04447739 -0.07693337 0.2161197
000090 78 a6 bd 3d 22 dc 84 3e 16 65 83 3d 7a 95 0d bd
       0.09260267 0.25949198 0.06415765 -0.03456638
0000a0 09 04 38 3d 91 5c ce bd 42 4c e4 3d b4 87 77 3e
       0.044925723 -0.100762494 0.111473575 0.2417286
0000b0 c1 21 1d 3e cc 00 e9 bd b3 fb 1d 3e f4 de 43 3d
       0.15344907 -0.11377105 0.15428047 0.047820047
0000c0 ef 3e 0c 3e f2 8e 63 be 44 f9 79 be 86 ce d8 bd
       0.13695882 -0.22222498 -0.24411494 -0.10586266
0000d0 55 9d 27 be 65 bc 61 3e 79 7e 9b 3d c1 05 de 3d
       -0.16368611 0.22044523 0.07592482 0.10840941
0000e0 b6 0c b3 3d 24 6a 97 3b b6 28 59 3e 62 10 39 be
       0.08742659 0.0046208072 0.21206936 -0.18072656
0000f0 60 da 89 3c 66 cb 3a be 88 78 b4 3d 1c dd f5 bc
       0.016827762 -0.18241653 0.08812052 -0.03001266
000100 7f 3c 07 3e 9c 5e 0b bc 8c 66 80 3e 1c cd 05 be
       0.13206671 -0.008506443 0.25078237 -0.13066524
000110 dc fc 35 be 7e 5a 37 be c7 cf 77 3e ff 64 2c 3e
       -0.1777224 -0.17905614 0.24200355 0.16835402
000120 68 81 84 3e c8 b9 10 be e2 b9 87 be 22 1d 56 be
       0.2587998 -0.1413337 -0.26509005 -0.20909551
000130 96 d8 17 be 0c ac 4b 3e 27 c4 26 3e b8 21 8c 3e
       -0.14828715 0.1988985 0.16285764 0.27369475
000140 a6 30 cc bd 9f 25 c7 bd 45 cb cb 3d 18 de 14 be
       -0.099702165 -0.097239725 0.0995088 -0.14537847
000150 b8 12 29 3e b1 70 2c bd 4c 86 1f 3e 57 14 3f be
       0.16511047 -0.04209966 0.15578574 -0.18660103
000160 3b 1c 0a be db df a6 3d ee df 82 3d 96 96 40 bd
       -0.13487332 0.08148166 0.063903674 -0.04701861
000170 1a bb 38 3e 59 5a 4a 3e 9f 33 3f be 92 75 fa bd
       0.18040124 0.19761027 -0.18672036 -0.12229456
000180 7b 6e 64 3e e0 91 c6 bd 20 b3 15 be bf b4 9e be
       0.2230777 -0.09695792 -0.14619112 -0.30997273
000190 e7 57 51 be 22 c6 7b 3c 42 7e 10 bd 3f a8 46 be
       -0.20443688 0.015367063 -0.03527666 -0.19400118
0001a0 26 20 3a bd 5e 89 6f be b6 63 8e be fa 4b 4b be
       -0.045440815 -0.23392245 -0.27810448 -0.19853202
0001b0 16 0f 92 be f9 4a f7 bd d2 67 a1 3e a4 cd 94 3b
       -0.28527135 -0.12074847 0.3152452 0.004541116
0001c0 84 6f d0 3d 3e 62 6b be ed de 1f be 69 59 8e bd
       0.1017752 -0.22986695 -0.15612383 -0.069506474
0001d0 06 2e 2b 3d 1b d0 70 be be fb c3 bd b2 e3 0f be
       0.04179194 -0.23516886 -0.095695004 -0.14051703
0001e0 87 fd a4 3c ae f0 a3 bd a1 9c 66 3a 49 9d 3e be
       0.020140423 -0.080048904 0.0008797143 -0.18614687
0001f0 89 06 28 be 44 fa 34 be 59 f1 96 bd 77 2e 45 be
       -0.16408743 -0.17673594 -0.07370252 -0.19256006
000200 28 bf 77 3e f0 64 0f bd 32 78 6b 3e 76 8b aa 3d
       0.24194014 -0.03500837 0.2299507 0.08327381
000210 26 66 55 be 0f 39 50 3e cd e1 61 bd 5f 27 ac bd
       -0.20839748 0.20334266 -0.05514698 -0.08405947
000220 15 57 50 be e9 09 88 be 41 46 c7 3d b9 87 23 bd
       -0.20345719 -0.2657006 0.09730197 -0.039924357
000230 f6 69 d9 3d 7d de 09 be 47 5a 4d 3e 36 44 e4 bd
       0.106159136 -0.13463779 0.2005397 -0.11145823
000240 9f 06 3d bd 6c a6 64 3d 57 14 2a 3e 02 90 98 3e
       -0.046148892 0.055822775 0.16609322 0.2979737
000250 6f bb 9d 3e a3 6b 26 be ac ad d5 3d 41 76 5b bd
       0.30807063 -0.16251998 0.10433516 -0.053579573
000260 1f 32 5b bd 56 04 71 be b9 08 80 3e 37 bc 62 be
       -0.053514596 -0.2353681 0.25006655 -0.22142111
000270 15 11 19 3e 8d a1 8c 3d 6e dd b1 3d 2d f6 13 be
       0.14947923 0.06866751 0.086848125 -0.14449377
000280 3f 6c 79 3e 50 a6 e6 3d 60 c2 38 3d e1 1e 6a be
       0.24357699 0.1126219 0.045107245 -0.22863342
000290 7e 67 41 3d 0c 4b 50 bd a1 ce 0f be 93 58 82 3e
       0.04721784 -0.05085282 -0.14043666 0.25458202
0002a0 62 d6 39 3d 45 ea 25 be 5a 13 19 be 66 df da bc
       0.045370467 -0.16202648 -0.14948788 -0.026717853
0002b0 50 cf 18 3e e0 dd 8b bd 2d e2 2a be af 6c d8 bd
       0.14922833 -0.06829429 -0.16687842 -0.10567605
0002c0 3e f3 5a be 0d 37 a6 3d 7e 57 45 3e 18 d3 80 be
       -0.21381852 0.08115969 0.19271657 -0.25161052
0002d0 c9 98 3e 3d 67 e9 1b 3e 72 78 4d 3d aa f6 d8 bd
       0.046532426 0.15225755 0.050163694 -0.105939224
0002e0 d1 99 10 3e 55 d0 04 3e 61 ab cc 3d d2 5c 40 bd
       0.14121176 0.12970097 0.099936254 -0.04696352
0002f0 4b b1 99 bd 9a 9b d9 3d ae 99 96 ba 1a ea 26 bd
       -0.07504519 0.10625382 -0.0011489892 -0.0407506
000300 11 1f 3d 3e c8 31 78 3e c7 a4 1b bd bb 60 4f bd
       0.18468882 0.2423774 -0.03799894 -0.05062936
000310 cb 3b 06 3c 17 c4 08 bd d3 61 8c 3d 4e 50 6b 3d
       0.008192967 -0.03339013 0.06854596 0.05744963
000320 50 91 78 be 41 fe c9 bd 88 33 60 3e 45 0a 04 3e
       -0.24274182 -0.09862948 0.21894658 0.12894543
000330 0a ce 36 bc a0 4a 24 be 96 0f 3f be 4c bb 80 be
       -0.011157522 -0.16044092 -0.1865829 -0.25142896
000340 53 87 b0 bd 1e 7f c3 3d 9f 7b 19 3e 04 f3 17 3e
       -0.08619561 0.0954573 0.14988564 0.14838797
000350 cf e7 82 be 6b 05 0b be 20 c3 2c bd b4 5e 84 3e
       -0.2556748 -0.13576286 -0.042178273 0.25853503
000360 27 16 73 3d d6 8f 45 3c 64 83 24 3e 22 2b 7d bd
       0.059347298 0.012058219 0.16065747 -0.061808713
000370 e4 99 52 be 02 d7 69 3e 59 95 0c be 16 38 a0 bd
       -0.20566517 0.22835925 -0.13728847 -0.078231975
000380 c8 af 8f be af b2 27 3e 81 08 41 3e 98 91 a8 3d
       -0.28063798 0.16376756 0.188509 0.08230895
000390 ae d3 3e be f7 0c 87 be 1a 0b 6e be 78 fd 96 3e
       -0.18635437 -0.2637708 -0.23246422 0.29490256
0003a0 f8 bf 40 3e 72 b8 8b 3e 43 ef 26 3e 4b 50 a9 3d
       0.1882323 0.27289158 0.16302209 0.08267268
0003b0 43 6b 84 bc 8f 1b 5d be 32 59 76 be 92 e8 85 be
       -0.016164428 -0.21592544 -0.24057463 -0.26154
0003c0 ed 31 c8 3d c3 26 12 be c5 4f 5c bd 6f 80 1d be
       0.097751476 -0.14272599 -0.05378701 -0.15381025
0003d0 b7 65 77 bd 61 6b 4c be 7a a7 3e be e3 e6 9d 3d
       -0.060399737 -0.19962837 -0.18618575 0.07710054
0003e0 bf 54 ba bd 2e 98 2e 3e ef 63 c6 bd bc 52 4e be
       -0.09098195 0.1705024 -0.096870296 -0.20148748
0003f0 eb 4b c5 bd ab 52 9e bd 7b e0 05 be 42 0c 4f be
       -0.09633621 -0.077306114 -0.13073914 -0.2021952

in_lin.bias f4 [96]
000000 2c b8 08 3d 24 9d 09 be 2c c1 c4 bd f9 9f b9 3d
       0.033378765 -0.1343885 -0.09607157 0.090637155
000010 57 74 5a be d9 d5 00 bb 64 08 5e 3c 72 d6 63 bd
       -0.21333443 -0.0019658713 0.013551805 -0.055624433
000020 e4 42 9f 3d 2c b6 f0 ba d6 ea 5b 3e 81 cf 93 bb
       0.0777643 -0.0018364838 0.21476302 -0.0045108204
000030 8e 8c 1d be 61 92 4e 3e 01 ae 15 3d 89 da 63 bd
       -0.15385649 0.20173027 0.036542896 -0.055628333
000040 57 30 25 be 8a fb 98 3d 2c 85 52 be be 64 c5 3d
       -0.16131721 0.07469852 -0.20558614 0.09638356
000050 3a f2 fe 3d ad 4d 60 be 90 79 21 be a0 12 31 be
       0.12448545 -0.21904631 -0.15769029 -0.17292261
000060 f1 ab 6a 3e d4 e1 79 3e 1e de 2e 3c a5 9c 88 3e
       0.22917153 0.24402553 0.010673074 0.2668201
000070 98 b9 b1 bd e6 8d 7c be cc 21 b5 3d 9c f8 e3 3d
       -0.08677977 -0.24663505 0.08844337 0.11131403
000080 24 4d 91 3e 1d 40 00 3d e5 ea 5b 3e 57 6d 2c 3e
       0.28379166 0.031311143 0.21476324 0.16838585
000090 12 7a 50 3e 76 6c 87 be e7 ce 78 3e 98 a6 56 be
       0.20359066 -0.26449937 0.24297677 -0.20961988
0000a0 da e6 83 3e 5e 56 f7 3b 53 a3 5d be 57 01 d0 3d
       0.25762063 0.0075481376 -0.21644334 0.101565056
0000b0 2f 99 36 bd 45 aa 39 be b8 af ae bd 1f 12 2c 3d
       -0.04457968 -0.18131359 -0.085296094 0.04200947
0000c0 88 9e 62 3e 51 e3 4c bd 53 60 1e 3e 65 6a 7e 3d
       0.22130787 -0.050021473 0.15466432 0.062113184
0000d0 9d 62 d9 3c 9e 5a 93 3d d2 b6 0d be 34 49 36 be
       0.02653628 0.07195018 -0.13839272 -0.17801362
0000e0 25 33 50 bd 58 54 79 be 10 e8 bd bd 88 1f c2 3c
       -0.050830025 -0.24348581 -0.09272778 0.023696676
0000f0 f8 8d 18 be 42 40 c6 bd 18 4a 14 bd d1 83 ce bc
       -0.14897907 -0.09680225 -0.036203474 -0.02520934
000100 2f e7 f5 bd 21 4d 12 3d 0c 7f d1 bc 65 20 a2 3d
       -0.120069854 0.035718087 -0.025573276 0.07916335
000110 65 58 a3 3c 0e a2 f0 bd de eb c7 bd b6 8d 0f 3c
       0.01993961 -0.117496595 -0.09761785 0.008761814
000120 2e 58 06 be 29 3d 10 3d 35 23 84 bc 8a da ee 3d
       -0.13119575 0.035214577 -0.01613007 0.11662777
000130 a5 f7 8c 3d ac c8 5e 3e fa 70 ea 3b 37 2e 3a be
       0.06883172 0.21756238 0.007154581 -0.18181692
000140 a5 9d 24 3e e0 b2 2c be ce 84 a1 bc 39 b3 a6 bd
       0.16075762 -0.1686511 -0.019716647 -0.08139653
000150 f9 70 b1 bd e0 64 a7 bd 87 23 85 3e 52 c0 28 3e
       -0.08664126 -0.08173537 0.26003668 0.16479614
000160 3e 89 d0 3d 1d 61 82 3e 14 5e 52 be d8 f9 b9 3d
       0.10182427 0.25464717 -0.205437 0.09080857
000170 bd b4 3e 3e 47 cc 45 3e a9 d0 43 be 11 c0 e4 3d
       0.18623634 0.19316207 -0.19122566 0.11169446

layers.0.lin_self.weight f4 [96, 96]
000000 aa ca 16 bd eb a2 e5 ba c0 d0 3a 3c 84 93 c9 bd
       -0.03681437 -0.0017519867 0.011402309 -0.098425895
000010 53 cf a9 bd c5 b4 e7 bc ac b9 5b 3d 36 eb 18 3c
       -0.08291497 -0.02828444 0.053643867 0.009333422
000020 b6 f1 b6 bd 50 e7 08 bd b8 1d 28 3d 0a c5 aa bd
       -0.089328215 -0.03342372 0.041043967 -0.083383635
000030 df 74 89 3d 17 c7 e8 3d 36 10 de 3c 3e 53 c3 bc
       0.067117445 0.113660984 0.02710734 -0.023843404
000040 69 54 76 3d ac 6f 02 3d 83 a0 08 3e 5f fc 80 3c
       0.060139094 0.03184478 0.1334248 0.01574534
000050 b8 e7 28 bd e7 70 94 3c f3 45 ef 3c 30 16 cf 3c
       -0.04123661 0.018120242 0.02920816 0.025279135
000060 03 4b 4d bd 70 d7 4a bd c8 43 bd 3d 89 58 7a bc
       -0.050120365 -0.049521863 0.09241444 -0.0152798975
000070 40 83 9f 3d 90 4e 06 3e 20 8d 60 3b 03 bd 60 3d
       0.07788706 0.13115907 0.0034263805 0.054867756
000080 45 1f 7f 3c bb ee e1 3d ed 9f ab bd a1 4f 99 3d
       0.01557142 0.11031862 -0.08380113 0.07485891
000090 96 27 2c bc 6e b7 f2 3c 80 1c 12 3d 88 9c cd bc
       -0.010507485 0.029628482 0.03567171 -0.025099054
0000a0 f4 f2 ac bb 80 98 5c 3d ed b5 08 be 1e 53 e9 3b
       -0.0052779857 0.053856373 -0.13350649 0.007120504
0000b0 0e 74 d3 bc 34 3c 79 bd 22 4e 90 3d 51 46 a9 3d
       -0.025812175 -0.06084843 0.07046153 0.08265365
0000c0 a0 c2 0f 3c 6e 0d 15 3e e4 6a 25 bd 41 2f 46 bc
       0.00877443 0.14555904 -0.040385142 -0.012096227
0000d0 06 0d 30 bd 7f 58 76 bc c6 3b eb bd 1b 64 e7 bd
       -0.04298117 -0.015035748 -0.1148601 -0.112983905
0000e0 2a fc 05 bd 3a 9d b7 3c e4 ed e5 3d 4d 88 ca 3d
       -0.032711186 0.022413839 0.11227015 0.098892786
0000f0 79 3e 03 3e 56 6d 26 bd d1 f7 39 3d 58 89 7f bd
       0.128168 -0.040631615 0.04540235 -0.06238684
000100 13 4d bb 3d 5f f6 c1 bd 81 ac 0b 3d 53 01 7d 3c
       0.0914556 -0.0947082 0.03410006 0.01544221
000110 fd b0 09 3d 34 70 52 3d f4 e9 91 3b 9a ca b7 3d
       0.033616055 0.051376536 0.004452938 0.0897419
000120 f9 c2 c1 3d 20 7b 97 3d db 1c 7d 3c 50 c6 8d 3d
       0.09461016 0.07396531 0.015448774 0.06922591
000130 6a 3b b8 3d d0 77 da 3d 47 cf d9 3d ea 58 f4 3c
       0.08995707 0.10667384 0.10635238 0.029827554
000140 21 f0 0e 3e f8 d2 3b 3c 0d bf c6 3d 2b 51 ab 3d
       0.1395879 0.011463873 0.09704409 0.08365091
000150 a9 9b d2 3c cd 52 05 bd 19 37 47 3c 0e d2 40 3d
       0.02570899 -0.032549668 0.012159132 0.047075324
000160 ad f2 70 3d d6 62 18 3c 1c 1c 27 3e bf c7 d9 3c
       0.058825184 0.009300908 0.16319317 0.026584504
000170 5f b4 7b bd 58 08 66 3c 00 ed 1d bd 7e 72 47 bd
       -0.061451312 0.014040075 -0.0385561 -0.048693173
000180 22 c4 05 3d 6f ce 07 bd ec 6b a7 bc 59 65 40 bd
       0.03265775 -0.033155855 -0.020437203 -0.046971653
000190 04 88 b9 bc 68 4d 0c 3e 17 5c 37 3d 60 a9 76 3d
       -0.022647865 0.13701403 0.044765558 0.060220122
0001a0 a2 93 bf 3c fb 01 ce 3c ba 3d a8 3d d3 42 a8 3c
       0.023385826 0.025147429 0.082148984 0.020539677
0001b0 ee 58 8d bd 52 34 2b bd 43 d5 7c bc 39 63 76 3d
       -0.069017276 -0.041797943 -0.015431705 0.06015322
0001c0 f3 58 93 3d 8a 27 f4 3c 36 9c 06 3e 85 46 bb 3d
       0.071947 0.02980401 0.13145527 0.0914431
0001d0 14 95 7e 3c c2 54 c0 bd 3b 0f 63 bd 1c 0e 9d bb
       0.015538473 -0.09391166 -0.055434447 -0.0047929417
0001e0 43 b1 c7 3c ca 45 63 3d 0f ed cb 3d 5b 27 0a bd
       0.024376517 0.055486478 0.09957325 -0.03372894
0001f0 51 3a e9 bb e2 42 b9 3b cd e1 e8 bb 97 81 81 3d
       -0.0071175476 0.005653725 -0.0071069957 0.063235454
000200 d6 da ae 3c 52 28 35 3d 1a da db 3c 5a c2 91 3d
       0.021344583 0.044227906 0.026837397 0.07117148
000210 7c f2 f3 bc 07 b6 a4 bd 30 e7 64 3d 38 c7 ba 3a
       -0.029778711 -0.080425315 0.05588454 0.0014250046
000220 67 d3 22 bd 16 b1 17 3d 28 7b 70 bd 1a af 6b 3d
       -0.03975239 0.037034117 -0.0587112 0.057540037
000230 70 79 41 bd a9 83 4f bd c8 c3 6c bd 67 6b 08 3d
       -0.047234952 -0.05066267 -0.0578039 0.03330555
000240 8f 94 90 3c e2 54 e1 3d 64 79 80 3b 7e 0a 58 3d
       0.017648963 0.11002518 0.003920721 0.05274438
000250 2d 4e e6 3c 6f 2d 05 3e 0a 6a ba bd 14 06 15 3d
       0.028113449 0.13005613 -0.091022566 0.03638275
000260 40 af a7 3d a9 6f 9c bd df 8c ac 3d 0b fb 7e bd
       0.08187723 -0.07638485 0.084253065 -0.062251132
000270 c2 52 02 3c 6e e9 aa bd 97 77 3f bd 8f 8e 9d 3d
       0.007954301 -0.083453044 -0.04674491 0.076932065
000280 36 12 13 bd bd fc 53 3d 0f 29 db bd fe 22 80 bc
       -0.03590604 0.051754702 -0.10701191 -0.015641686
000290 0f ad b3 3b b0 c6 af 3d 09 c3 4e 3c 3c 52 e1 3c
       0.0054832767 0.085828185 0.012619742 0.027505033
0002a0 78 d9 77 3d 02 ce 95 3d 32 fe 88 3b 4f bc 30 3d
       0.06051013 0.073146835 0.004180693 0.043148335
0002b0 b0 b0 36 bd e2 f5 33 bc b7 a1 ed 3d 84 16 fa bc
       -0.044602096 -0.010983916 0.1160311 -0.030528314
0002c0 84 34 61 3d f6 42 d1 bc cc 84 06 3e 10 b7 22 bd
       0.054981723 -0.025544625 0.13136595 -0.039725363
0002d0 a1 9f 9f bd ce cb 8e bc 0f fe 96 3d 8c ad 5f 3d
       -0.07794119 -0.017431166 0.073726766 0.054608867
0002e0 7a 2f 02 3e 6e 7b 62 3c 30 5f 0a 3e fb a5 04 be
       0.12713423 0.013823373 0.13512874 -0.12953942
0002f0 3e 28 25 3d 9d 6a 85 3d 01 f2 34 3d 15 f5 3d bd
       0.04032158 0.065144755 0.044176105 -0.046376307
000300 5f 54 5c bb 30 46 99 3c 69 96 2b bd a8 45 c8 bd
       -0.0033619625 0.018710226 -0.04189149 -0.09778911
000310 2e 10 b1 bd 98 58 37 3d 19 b0 77 3d b6 0e 68 bc
       -0.08645664 0.044762224 0.060470674 -0.014163664
000320 d7 0b d5 3b b4 f4 0d 3d 0c f4 d5 bc e3 c3 85 3b
       0.0065016556 0.034657195 -0.026117347 0.0040821894
000330 d3 83 d3 bc 0f 94 08 bd 0f 1a c1 3d 14 54 f5 bc
       -0.025819695 -0.033344325 0.094287984 -0.029947318
000340 68 b8 55 3d dc a3 bf bd 92 31 50 3d 0a 54 cd 3c
       0.052177817 -0.093574256 0.050828524 0.025064487
000350 35 29 b0 3d ef a4 9b bd 4f 81 b5 3d 64 c3 bc bc
       0.086016096 -0.07599818 0.08862554 -0.023042388
000360 6c 53 62 3d 96 0d 95 bd 04 2c 5a 3d 26 31 45 bd
       0.05525534 -0.07277982 0.053264633 -0.048142575
000370 df 82 d2 b9 a7 d5 b8 3c 83 fe 76 3d f1 1b 89 3d
       -0.00040151828 0.022562815 0.060301315 0.066947825
000380 59 78 8d bd fc 0b 48 3d 51 72 89 bd fe d8 e2 3d
       -0.0690772 0.048839554 -0.06711257 0.11076544
000390 4b b7 5c 3c 87 c8 34 bd 73 cf 65 bc bd e3 15 3d
       0.013471435 -0.04413655 -0.0140265105 0.03659414
0003a0 4d 5b 77 bd 8e 9a 39 3d 7b 9e 73 3b 12 e5 0a 3e
       -0.060389806 0.04531341 0.003717332 0.13563946
0003b0 a3 d3 c8 3c 5c f8 f3 bd 65 48 d8 3d 42 9f 78 bc
       0.024514979 -0.11912605 0.10560683 -0.015174689
0003c0 0b 63 06 bc 06 69 1d 3d 8b 83 8e 3d 26 c1 fa 3d
       -0.008202325 0.038430236 0.069586836 0.122438714
0003d0 52 ae 86 3b 17 ca d2 3d e6 4f 06 be 03 63 ae bc
       0.004110136 0.10292452 -0.13116416 -0.021287447
0003e0 73 f0 fb bc e9 d1 05 3d 9c 4a c2 bc 03 b0 29 bd
       -0.030754304 0.03267089 -0.023717217 -0.041427623
0003f0 8e fc e7 3d 49 61 85 3d 79 31 12 bd 16 ff 4f bd
       0.11327468 0.06512696 -0.035691712 -0.05078038

layers.0.lin_self.bias f4 [96]
000000 e6 ca bf 3c c2 e6 0a 3d d3 0a 58 3d 0a 7e 99 bc
       0.02341218 0.033911474 0.052744698 -0.018736858
000010 0f 67 0c bd 4a c4 9b bd 86 2a a7 bd fb 00 b9 3c
       -0.03427797 -0.076057985 -0.081624076 0.022583475
000020 60 82 f2 bc 29 4f 0f 3d 9e fd 23 3d 05 e6 bc 3d
       -0.029603183 0.034987602 0.04003679 0.0922356
000030 d8 39 93 3b fe dd 5a 3c 83 62 b4 3d 27 ee ed 3c
       0.0044929795 0.013358591 0.08807852 0.029044224
000040 88 90 6e 3d 32 06 1c bd 14 d2 99 bd 37 f5 c5 3d
       0.058243304 -0.038091846 -0.07510772 0.09665912
000050 ee 75 c0 3d 1b 65 24 bd e5 64 d1 3c 48 7e a7 bd
       0.09397493 -0.040135484 0.025560806 -0.08178383
000060 6d 18 ce 3c 8d 6b b6 bd 53 16 6e 3d 28 70 dc bd
       0.025158131 -0.089072324 0.05812676 -0.107635796
000070 66 a0 89 bc 2a d5 d4 3d 4c c6 0d bd 7f 52 7f bd
       -0.016800117 0.1039222 -0.03461294 -0.062334534
000080 b6 07 e6 3d 55 54 26 bd c4 91 5c 3c 49 cd 95 3d
       0.112319395 -0.04060777 0.013462488 0.07314546
000090 06 95 1c 3d f0 ca 46 bd 81 3d d1 3d b8 e0 2e 3d
       0.038228057 -0.04853338 0.10216809 0.042694777
0000a0 4c 34 3a bd 00 04 24 bd 90 32 56 bc 51 ce 49 3d
       -0.04546003 -0.040042877 -0.0130735785 0.049269024
0000b0 76 be 55 3d 35 91 d6 3c b0 15 aa 3d 6b fb f3 3d
       0.05218359 0.026192287 0.08304918 0.119131885
0000c0 bd 97 17 3d e4 3a 56 3d 5e c7 95 3d 66 47 e8 3c
       0.037009943 0.052302256 0.07313417 0.028354358
0000d0 c9 c5 f5 3c bb 3f d1 3d ac b7 b2 3d b8 d7 92 3d
       0.030001538 0.10217234 0.08726439 0.07170051
0000e0 60 27 f1 bc 06 3e 02 bd bf f0 20 bd 61 f5 90 bd
       -0.02943772 -0.03179743 -0.039292093 -0.07078052
0000f0 77 44 cc 3b 69 d9 a7 3d 29 5c 04 3d b8 5f c0 bc
       0.0062337476 0.081957646 0.032314453 -0.023483142
000100 15 f2 41 bc 05 c9 8c bd c7 2a 51 bd 71 26 93 3c
       -0.011837502 -0.06874279 -0.051066186 0.017962666
000110 b4 05 27 bd 11 8c ff 3b 84 bc cf 3d ab b0 22 3d
       -0.040776923 0.0077986796 0.101433784 0.039719265
000120 f1 65 c4 3d ec ee 4e bd 9f 00 2b 3c b6 54 cd bd
       0.09589756 -0.050520822 0.01043716 -0.10025923
000130 db 2e 74 3c 02 6a 77 bd b3 9a b6 3d e0 c2 95 bd
       0.014903749 -0.06040383 0.08916225 -0.0731256
000140 da a5 36 3d d5 b5 4c bd 33 c4 31 3d e3 39 2d 3c
       0.044591762 -0.049978096 0.0434 0.010572883
000150 57 82 55 3b 6b 70 d1 bc 58 ee 7e 3d e4 f4 02 ba
       0.003257891 -0.0255663 0.06223902 -0.0004995598
000160 63 32 e9 3c f6 20 46 bc a1 7f 56 bd ab e2 cf bc
       0.02846641 -0.012092819 -0.05236781 -0.025376638
000170 93 05 e8 3d 31 f6 eb 3d 53 d3 0d bd 6e 63 e4 3c
       0.11329188 0.11521567 -0.034625363 0.027879443

layers.0.lin_neigh.weight f4 [96, 96]
000000 56 80 df 3c 77 33 cc 3d ff 79 22 3d 64 49 7f 3a
       0.027282875 0.09970754 0.039667126 0.0009738414
000010 f6 9a 6c bc 31 d4 4b 3d 54 3b ba bd 74 90 10 be
       -0.014441242 0.04976291 -0.09093347 -0.14117604
000020 40 4c c1 3a fd f3 5a bd 71 41 34 bd 20 f3 e6 bb
       0.0014747456 -0.05345534 -0.044007722 -0.0070480257
000030 69 d3 9d 3d ec 57 8d 3d 01 05 ec bc a2 ad c1 3c
       0.07706339 0.069015354 -0.02881098 0.023642365
000040 e0 41 05 3e d9 fd 05 3d fe db 04 3e 27 e0 9a 3c
       0.1301341 0.03271279 0.12974545 0.018905712
000050 52 a9 35 bd 84 db 81 bd 42 63 c2 3c 2d bb 0e 3d
       -0.04435093 -0.063406974 0.02372897 0.034846473
000060 9d 34 30 bd 39 f0 cb 3d 0b cb a7 bd ec 9e 53 3c
       -0.043018926 0.09957928 -0.08193024 0.012916308
000070 31 10 51 3d 0a 76 b4 3b 05 26 67 3d 1a fa 05 3d
       0.051040832 0.0055072354 0.056432743 0.03270922
000080 06 23 23 bd 29 a7 b3 bc d4 0c c7 bc d3 3b 9d bd
       -0.039828323 -0.021930294 -0.02429811 -0.07677426
000090 1c 05 9b 3d bf 82 a6 3d 33 48 e0 bc ac 80 95 3c
       0.07569334 0.081304066 -0.027378177 0.018249832
0000a0 e7 ee 4d 3d 50 4a f5 3c c9 96 05 be 53 f0 95 3c
       0.050276663 0.029942662 -0.13045801 0.018303072
0000b0 47 69 ea 3d f1 bf f0 3c 1c 4b 05 3e 64 ac 9a 3d
       0.11445861 0.0293884 0.13016933 0.07552412
0000c0 1c b7 a9 3b 18 f2 00 3e e3 06 da 3b f2 d7 08 3d
       0.005179299 0.12592351 0.006653653 0.033409066
0000d0 62 29 0f bd a3 fd 0a 3e 66 38 8e bd 0b 79 cd bc
       -0.034951575 0.13573317 -0.06944351 -0.025082132
0000e0 93 ec 93 bc 81 45 99 3c 3b b6 d8 bb e6 6e 4f bc
       -0.018057143 0.0187099 -0.0066135204 -0.012660718
0000f0 8a 5a 1e 3d b3 52 88 3b a2 47 09 3d 1a 82 bb 3a
       0.038660564 0.004160249 0.03351558 0.0014305741
000100 7f 7d 10 bd 7a af b1 bd 26 1e 0c 3d a7 b2 eb bc
       -0.035275932 -0.086760476 0.03420844 -0.028771712
000110 61 a4 9f bd dd 50 ef bc 39 f8 58 bd 4f e5 f6 3c
       -0.07795025 -0.029213363 -0.0529711 0.03013864
000120 c2 ca 6f 3d 22 2d ec 3d ea 3a 3f bd 4f 83 21 bd
       0.058542974 0.11532046 -0.046687044 -0.039431866
000130 23 a5 06 3d 35 bc 1e 3d bb 25 c9 3d 9c d5 75 3d
       0.03287233 0.038753707 0.0982165 0.060018167
000140 92 5e 91 3d ec 27 29 bd b4 2d bc 3d 4e bb a9 bd
       0.07098116 -0.041297838 0.09188405 -0.08287679
000150 c3 0d 52 3d e0 bf a6 3d 17 47 76 bd d9 a7 94 bd
       0.051282655 0.08142066 -0.06012639 -0.07258577
000160 a6 d8 e9 bc 8f ac af 3d 64 34 ce 3c ea 1d 23 bd
       -0.028545689 0.08577835 0.025171466 -0.03982345
000170 ae c0 8d 3c fa c0 1a 3d fc 2c ac bd 70 89 25 3c
       0.01730379 0.037781693 -0.084070176 0.010103568
000180 20 66 a8 3d f3 ae 7b 3d 49 cf 31 3d 94 d8 ae bd
       0.08222604 0.06144614 0.043410573 -0.08537403
000190 1f b5 7d 3d 12 21 6e bc e3 97 a5 3d 56 e5 32 3b
       0.06194031 -0.014534252 0.08085611 0.002729734
0001a0 34 22 c1 bb 3e d3 6b 3d 13 ae 94 bc d7 78 da 3c
       -0.00589397 0.057574503 -0.018149411 0.026668949
0001b0 c1 78 60 3c fc 55 a3 3c 12 87 28 3d 42 e1 01 3e
       0.013700665 0.019938461 0.041144438 0.12683585
0001c0 48 26 0e bc ff 72 e1 3d fa 66 2b 3d 28 e4 1f 3e
       -0.008676119 0.11008262 0.041846253 0.15614378
0001d0 b6 84 8d 3d 3b 90 2a bc 78 a9 96 bc 22 d0 8c 3b
       0.06910078 -0.010410364 -0.018391356 0.0042972723
0001e0 a8 e9 b4 bd e2 03 5d bd 43 bc c6 3a 78 77 c2 3d
       -0.08833629 -0.05395878 0.0015162308 0.09495443
0001f0 61 1a 85 3d 5b 51 53 3d cd a8 b2 bd 73 e0 d7 3d
       0.06499172 0.05159126 -0.087236024 0.10540857
000200 8c b4 b5 3d aa 2b 53 bc 22 d1 76 3d 3e 3c 83 bd
       0.08872327 -0.012888828 0.06025804 -0.06407975
000210 4b 47 23 bd ef bb 29 bd 72 8f 8d bd 00 fe ae 3b
       -0.039862912 -0.041438993 -0.06912126 0.0053403378
000220 02 70 11 3d 62 55 03 3d e7 4b b5 3c 52 d2 0c 3e
       0.03550721 0.03206385 0.02213092 0.13752106
000230 c2 ff a3 bd af a6 8b bd 18 52 c2 3d e5 56 be bd
       -0.08007766 -0.06818902 0.094883144 -0.092939176
000240 b2 df f3 3b b1 32 bf 3d 78 a0 73 bd 00 d9 f6 3d
       0.007442438 0.093358405 -0.059479207 0.12053108
000250 3f 49 70 bd 6e a1 91 bc d5 4a 00 be 4b 51 71 bd
       -0.058663603 -0.017777171 -0.12528546 -0.058915418
000260 6b f6 c7 3d 01 4d 65 3c 0b b4 0d bc 77 2f ca 3d
       0.097637974 0.01399541 -0.008648883 0.098723345
000270 f8 0a dc bb dd 2b 43 3d 2a 6f 88 3d e3 fb 49 bd
       -0.0067151748 0.047649253 0.06661828 -0.049312484
000280 01 85 d1 3d 12 7a ba 3c 40 df b6 bd 4d 58 83 3d
       0.102304466 0.022763286 -0.089293 0.064133264
000290 5c 70 d7 3d 51 7b 85 bd 9a e5 d1 3c b4 fd 96 bd
       0.10519478 -0.06517661 0.025622178 -0.07372609
0002a0 5b 58 f4 3d e7 eb 94 3d 05 de a9 3d d9 7c 25 3d
       0.11930915 0.07271557 0.082943 0.040402267
0002b0 50 30 04 bc 0e 52 65 3d d6 4a 6e bd 82 4e e0 3d
       -0.008068159 0.055986457 -0.058176838 0.10952474
0002c0 e5 66 01 3d 60 57 18 3c 2a 13 0e 3d 3d ee cf bb
       0.03159227 0.009298176 0.034686245 -0.006345539
0002d0 f0 78 95 bd e7 28 04 bb 42 f7 86 3d d7 b5 60 bd
       -0.072984576 -0.0020165981 0.065901294 -0.054860916
0002e0 59 04 8c bc 86 f4 9d bc 0e 98 dd bb ff 90 49 3d
       -0.017091917 -0.019281637 -0.006762511 0.049210545
0002f0 4a 1d b7 3d d9 cb a6 3d 9a ab ed bd 0c 96 e1 3b
       0.08941133 0.081443496 -0.11604996 0.006884342
000300 52 93 d7 3c 48 53 64 3d e9 70 32 3d 9e f7 82 bd
       0.026315365 0.055743486 0.04356471 -0.063948855
000310 86 e0 87 3c 4e 13 66 bd f3 57 80 3d f5 5b b7 3c
       0.016586553 -0.056170754 0.06266775 0.022382716
000320 b8 3e ca bc e1 50 a0 bd e0 ad d9 3c 92 ec 81 3d
       -0.02468811 -0.078279264 0.026572168 0.0634395
000330 d1 b3 50 bd 5e 9e 6e 3d f0 c0 a3 3d fa 5b 5a bd
       -0.050952736 0.0582565 0.07995784 -0.053310372
000340 27 e9 b7 3d 3d 9f 61 3d da 55 d3 3b f5 f0 14 3e
       0.08980017 0.055083502 0.0064494433 0.14545043
000350 5f 27 3c bb 26 73 7b 3d c4 36 84 bd b2 e0 0a 3e
       -0.002870999 0.06138911 -0.06455758 0.13562277
000360 63 c2 46 bc 15 78 b6 bd dd 52 8a 3d 19 d4 31 3b
       -0.012131306 -0.089096226 0.06754086 0.0027134477
000370 fc 39 1b 3d 69 03 a4 3d 50 e5 b4 3c 79 0d 7f 3d
       0.037897095 0.08008463 0.022082001 0.062268708
000380 7f 7b 8a bd c8 89 6e bd f1 ed e6 bc 34 d6 00 bd
       -0.06761836 -0.058236867 -0.028189631 -0.03145428
000390 15 11 b0 bd dc 52 52 3b 2f 11 8e 3c 6a 3f 1c bc
       -0.08597008 0.0032092845 0.017342178 -0.0095366035
0003a0 d4 1d 25 3c 47 10 45 3d 7a 6e d6 bd 93 f6 be 3d
       0.010077912 0.048111226 -0.104702905 0.09324374
0003b0 9e 18 8b 3b d7 96 83 3c d0 a7 ad 3c f5 6b 1c 3d
       0.004244878 0.016063137 0.021198183 0.038188893
0003c0 a8 54 e9 bc bf b2 06 3e a7 38 d9 3c 49 75 4b 3d
       -0.02848275 0.13154124 0.026516272 0.0496724
0003d0 70 eb 6b 3d b1 80 3c bd 13 24 08 bb 3d d7 2b 3d
       0.057597578 -0.046021167 -0.0020773455 0.041953314
0003e0 67 b5 fd 3d 93 10 1f 3d fb 62 29 bd 69 34 ca 3d
       0.123881154 0.038834166 -0.04135416 0.09873278
0003f0 8c c5 8c 3d 0d af 06 be 9e 9a ec 3d 57 29 88 3d
       0.068736166 -0.13152714 0.115529284 0.0664851

layers.1.lin_self.weight f4 [96, 96]
000000 59 4d b6 3d cf 4c 7d 3d d6 a1 f5 3d 1c 3e db bb
       0.08901472 0.06184083 0.119937584 -0.0066907536
000010 5c 74 0a bd 2f 6b 9a 3d e9 59 4f bd e9 51 e9 3d
       -0.033802375 0.07539975 -0.050622854 0.11392576
000020 63 b3 c3 3c de d4 d0 3d 84 f6 ae 3d eb cd 31 bc
       0.02388925 0.10196851 0.08543113 -0.010852317
000030 27 6a 74 bc c6 56 be bc f3 34 01 bd 1d 6c 6d 3d
       -0.014917887 -0.023234736 -0.031544637 0.057964433
000040 4f d7 0d 3d bd e3 46 bd ef 72 40 3d 2b 81 f5 3d
       0.034629162 -0.048557032 0.04698461 0.119875275
000050 9d 69 c8 3d ae 6e 5e 3d de 6f cd 3a 4d 7b de 3d
       0.09785769 0.05430477 0.0015673598 0.108633615
000060 b6 aa 92 3d 72 91 b7 bc 51 ee 48 ba 14 24 ca bb
       0.07161467 -0.02240822 -0.00076649064 -0.0061688516
000070 71 69 b4 3d 09 2a fe bd 4d 28 c5 3c ba 41 8f 3d
       0.08809174 -0.12410361 0.024067068 0.06994958
000080 43 c4 71 3d 26 51 84 bd 19 83 66 bd 0b f9 96 bd
       0.05902506 -0.0646079 -0.05627737 -0.0737172
000090 26 f8 89 bd 22 27 67 bd 49 51 c8 3c 55 71 35 bd
       -0.06736784 -0.056433804 0.024452822 -0.044297535
0000a0 63 92 ad bd c6 d8 fd 3d fa 9a 15 3d 74 b4 27 bd
       -0.08475187 0.12394862 0.03652475 -0.040943578
0000b0 0a 42 18 bd e5 87 11 3c 39 29 8c 3d bd 38 b8 bd
       -0.037172355 0.008882497 0.068438 -0.08995197
0000c0 73 52 44 bd 6b 63 8a 3d e0 ea 2e ba cd 81 34 bc
       -0.047930192 0.06757244 -0.00066725723 -0.011017275
0000d0 76 65 cb 3d ca be 66 bd ba ac 32 3d a6 89 89 bd
       0.099314615 -0.056334294 0.043621756 -0.067157075
0000e0 e6 68 e7 3c 22 d7 ff 3b d9 2f 68 bd cf 14 b8 bd
       0.028248262 0.0078076283 -0.056686256 -0.08988344
0000f0 25 62 af 3d 80 d3 6d 3d 2e 27 12 3d 28 d3 82 3d
       0.085636415 0.05806303 0.035681896 0.06387931
000100 cf 9e ca 3d d2 79 9c 3b 47 0b 32 3b 88 a1 e3 3d
       0.098935716 0.0047752643 0.0027167366 0.11114794
000110 55 dd b4 3d 4a 8c 1e bd b3 03 a2 3c c5 0c 57 3d
       0.08831278 -0.03870801 0.019777155 0.052502412
000120 c2 8a 2d bd 46 98 a2 3d 6d 37 9a bc 01 3f 2b 3d
       -0.042368658 0.079392 -0.018825257 0.041808132
000130 b0 a9 a3 3d 21 56 3f 3c 39 2d 52 bd 1a 2b 89 bd
       0.0799135 0.01167825 -0.05131266 -0.06697674
000140 dd e0 54 3c 19 29 2b 3d 2d bc 05 3e 44 2e b7 3d
       0.012993065 0.04178724 0.13060065 0.08944371
000150 f9 db 07 3d a0 46 14 3c 6a f6 5f 3c 15 63 ab bc
       0.033168767 0.009050041 0.01366959 -0.02092127
000160 82 fa d4 ba 73 b9 9d 3d 72 04 8a bd 90 56 4c bd
       -0.0016248974 0.07701387 -0.06739129 -0.04988724
000170 c9 22 b8 bd fb 9f 04 bd 66 76 75 bd 5a f2 9c 3d
       -0.0899101 -0.03237913 -0.059927367 0.076634124
000180 a5 89 8d 3d c1 86 a8 3d 05 84 28 bd fc 80 78 3d
       0.06911019 0.08228827 -0.04114153 0.060669884
000190 97 f7 b7 3d 6b 50 79 3d 05 76 80 bc b3 b7 95 bc
       0.08982771 0.06086771 -0.015681276 -0.018276071
0001a0 c0 18 ab 3d 6d 5b 8b 3d e5 f5 44 3d eb e6 7f bd
       0.0835433 0.068045475 0.048086066 -0.06247608
0001b0 23 20 82 bd 50 26 cd 3d 4a 79 21 3d 9b cd f2 3d
       -0.06353786 0.10017073 0.03942231 0.118556224
0001c0 b3 f4 a3 bd 7c b2 ba bc 0d 53 94 bd 3e b1 02 3e
       -0.08005657 -0.022790186 -0.07242403 0.12762925
0001d0 55 ed 2a 3d c0 a3 23 3d dc 90 c1 3d 73 4e 6f 3d
       0.041730244 0.039951086 0.09451458 0.058424424
0001e0 71 b3 4f 3d b4 b3 06 bd c8 c8 29 3d 2f fc 91 3d
       0.050708238 -0.032886222 0.041451246 0.07128178
0001f0 50 63 b4 3c b1 7d 01 be b8 ad 27 bd 51 48 9d 3b
       0.022020012 -0.12645604 -0.040937155 0.0047998806
000200 6a b7 c8 3d e8 37 f4 3c 3a 79 60 bd 0e 95 e9 3c
       0.098006085 0.029811814 -0.05480311 0.028513458
000210 a9 b8 23 bc 67 e9 20 3d 91 cd bf 3d 6a d4 ab bd
       -0.009992757 0.03928509 0.093653806 -0.08390124
000220 f5 97 a1 bc 6b 27 70 bc 06 35 cb 3d 2b 91 65 bd
       -0.01972578 -0.0146578355 0.09922223 -0.056046646
000230 cb 0b 8e bb 6d 18 95 bd 68 2a 5d bd 67 81 e4 bd
       -0.004334902 -0.072800495 -0.05399552 -0.11157494
000240 46 a5 2f 3d 4f ac 97 bd 2e 5d 8b 3c ae 23 e8 bc
       0.042882226 -0.07405912 0.017012205 -0.028337326
000250 e4 ac d4 3d 01 7c fe bc 92 77 7d bd 00 e3 19 3c
       0.10384539 -0.031064989 -0.06188161 0.0093925
000260 7d 09 74 bd 62 93 50 bc f5 67 7b 3d 48 82 12 be
       -0.05957936 -0.012730451 0.061378438 -0.14307511
000270 81 31 76 bc ff a4 a0 3c 8c 3a c6 3d a5 61 d0 3d
       -0.015026451 0.019609926 0.09679136 0.10174874
000280 7a e7 00 3e b8 aa ea 3d fe be 97 b9 40 5d 3f bc
       0.12588301 0.11458343 -0.00028943265 -0.011679947
000290 f4 88 94 3c 12 04 bc 3c ec 5d 2d 3b b5 ef 32 bd
       0.01813171 0.02295116 0.0026453687 -0.043685634
0002a0 82 a5 61 3d 94 d5 dd ba 95 92 c0 3d a8 2f 14 3b
       0.05508948 -0.0016924613 0.09402958 0.0022611413
0002b0 bd 14 81 3d 95 16 de 3c ab f7 83 3d 7e 90 34 bd
       0.06302784 0.027110377 0.06443723 -0.04408311
0002c0 83 49 84 3d fb 41 3e bd 52 53 ba 3d 52 6d ab bc
       0.06459334 -0.046449643 0.09097923 -0.020926151
0002d0 1c 39 5b 3d 8c 52 96 bd 11 8b 82 bd 5f 7a e3 3d
       0.05352126 -0.07339963 -0.06374181 0.11107325
0002e0 20 e5 d3 3d 0b bb 46 bd 9f 8a f7 bc 71 23 84 bd
       0.103464365 -0.04851822 -0.030217467 -0.064520724
0002f0 3b d9 90 bd 75 e9 cf 3b 6d cf c1 3c 10 3b 74 3d
       -0.070726834 0.006344969 0.023658479 0.05962664
000300 5a ff a1 3c d2 fe ba bc 31 a3 b5 bb 25 8b c2 bd
       0.019775081 -0.022826586 -0.0055431356 -0.09499196
000310 f7 56 8e 3d c6 b2 c5 bd 01 74 6a bd d2 4a 38 bd
       0.06950181 -0.09653239 -0.057239536 -0.04499323
000320 15 93 50 bd ba 7b 40 bc 09 03 7a 3d 77 54 f8 bc
       -0.05092152 -0.011748249 0.06103805 -0.030313713
000330 af 31 12 bd 7c 2b 1f bd 14 f1 35 3d b5 aa 5b bd
       -0.035691913 -0.03885983 0.044419363 -0.053629596
000340 5e d7 a6 3d f7 d4 00 3d b0 66 c1 bd aa 71 7d 3b
       0.08146547 0.0314531 -0.09443414 0.0038672485
000350 23 71 10 3d 19 c6 cf 3d 8c 40 8c bc 89 f0 98 bd
       0.035264146 0.10145206 -0.017120622 -0.074677534
000360 bb e6 43 bd 06 fc 31 3d 62 c1 6c 3d b3 b8 08 3b
       -0.047827464 0.04345324 0.05780161 0.0020862042
000370 12 ad 8f 3d d6 3e c2 bd 3c f8 de bd e9 5d 42 3c
       0.070154324 -0.09484641 -0.10887191 0.01186321
000380 19 41 65 3d 9c ab ca 3d f7 9c 99 3b c2 76 30 3b
       0.055970285 0.09896013 0.004687901 0.0026926254
000390 bd 38 7a 3d 23 d6 81 3d cf 25 d0 bd 9c f0 57 bd
       0.061089266 0.063396715 -0.101634614 -0.052719697
0003a0 1a 30 b9 3d c5 54 42 bd d6 f7 99 bd 53 ce 9d bd
       0.09042378 -0.047444124 -0.07517974 -0.07705369
0003b0 a3 28 4b bd da fe d5 ba bf 66 98 3c 37 b4 ea bd
       -0.0495993 -0.0016326562 0.01860368 -0.114601545
0003c0 bd 86 f7 3d 72 72 bc 3c b0 28 e1 3d 42 76 3f bd
       0.12086246 0.02300379 0.10994089 -0.04674364
0003d0 6d 88 84 3d 74 45 ed 3c 22 7c be bd d4 8a 83 3d
       0.06471334 0.028963782 -0.0930102 0.06422964
0003e0 c4 9a 75 3d 80 3d 9c bd b5 67 a8 3d 5d ae 4c bd
       0.05996205 -0.07628918 0.082229055 -0.049970973
0003f0 06 9f 25 bd 0b a5 71 bd 29 17 87 bd e3 63 b1 3d
       -0.04043486 -0.058995288 -0.06596214 0.0866163

layers.1.lin_self.bias f4 [96]
000000 6e 51 32 3d bc 14 11 bd 0e ea 02 bd 66 3e d7 bc
       0.04353469 -0.035420164 -0.031961493 -0.026274871
000010 7c d0 8d bd c4 47 d3 bc 24 56 85 3d 06 18 e3 3c
       -0.06924531 -0.025791056 0.06510571 0.027721416
000020 d9 0c 25 3d 5b d5 b9 3d 43 53 c2 bc 5e e2 19 bd
       0.040295456 0.090738975 -0.023721343 -0.037569396
000030 64 cb 2d 3c d7 9f 81 3d 4d 9a 3b 3d 81 71 36 bd
       0.010607574 0.06329315 0.04580145 -0.04454184
000040 d3 41 c6 3d b9 80 bf bb 71 b7 bb 3d b4 ab fe bc
       0.09680524 -0.0058442024 0.09165848 -0.031087734
000050 62 34 96 3d 61 ce 2b bc d1 41 65 3c 66 4b bb 3d
       0.0733421 -0.010486216 0.013992743 0.091452405
000060 21 fc 30 3c 48 fd 97 3c 17 28 8f bc 0e ed 58 3d
       0.0108023 0.018553391 -0.017475171 0.052960448
000070 1c c1 bc bc ea 41 70 3c fc 2f 69 3c 71 14 82 3d
       -0.0230413 0.014664153 0.014232632 0.06351555
000080 cd cb 1f 3c b5 69 81 bd c9 fb c8 bc a2 3b d3 3c
       0.00975318 -0.0631899 -0.024534123 0.025785271
000090 ed 1e 9e bd 03 4a 37 bd ba 61 32 bc b0 e7 ce bc
       -0.077207424 -0.044748317 -0.010887558 -0.025256962
0000a0 80 ff e8 bc 5c a9 35 3b ce ba ae 3c 27 cc 40 bd
       -0.028442144 0.0027719354 0.02132931 -0.047069695
0000b0 e7 b8 4e bd 61 9e a0 3d 80 98 fc 3c df 59 0c bd
       -0.050469305 0.078427084 0.030834436 -0.034265395
0000c0 de 91 7f 3c 05 80 52 bd 53 b0 cc 3c 90 8e a9 bd
       0.015598742 -0.05139162 0.024986422 -0.08279145
0000d0 39 72 b0 bd 52 a2 c7 3d 45 5c 62 bd 5b 39 84 bd
       -0.08615536 0.09747757 -0.055263776 -0.06456252
0000e0 dd bc 24 3d 11 30 7f bc 0b 31 5b 3d 35 f7 b6 3d
       0.040219177 -0.015575425 0.053513568 0.0893387
0000f0 01 4d a8 3c c6 fc b8 bd 4e 65 b1 3c 15 4c 42 3d
       0.02054453 -0.09032588 0.021654751 0.04743584
000100 1d a4 b5 3d 9b 7e c3 bc eb b3 7c bd ee 07 11 3c
       0.08869193 -0.023864081 -0.06169502 0.008851988
000110 53 c7 93 bd 88 5d 03 bd fa 7c a1 3d 0c 62 cc 3c
       -0.072157525 -0.03207162 0.078851655 0.024949096
000120 b2 d5 ce 3d dd ff 52 bd b1 88 50 3d ff 3f 23 bc
       0.10099353 -0.05151354 0.05091161 -0.009963988
000130 a1 65 8e bd 54 f3 54 bd fa ff 75 3b 18 57 95 3d
       -0.06952978 -0.05198987 0.0037536607 0.072920024
000140 93 4d ae 3d 5b b0 8f bd 5d 6e 2a 3d ca 96 50 3d
       0.0851089 -0.07016059 0.041609157 0.050925054
000150 bb 7c 07 bd e8 64 1e bd f9 40 47 bd df 97 b7 bd
       -0.033077937 -0.03867045 -0.048645947 -0.08964514
000160 32 27 d4 3d 7a 6f 8e bd 71 d1 63 3d 46 50 bf bc
       0.103590384 -0.06954856 0.05561966 -0.023353707
000170 37 95 9b bd ac 68 89 3d 6c 3f fc 3a dd 64 18 3c
       -0.0759682 0.06709418 0.0019244975 0.009301391

layers.1.lin_neigh.weight f4 [96, 96]
000000 d3 6f 56 bd f8 0a 12 bb 92 34 2b 3d 8c e8 ce 3c
       -0.052352738 -0.002228437 0.04179818 0.025257371
000010 1e 88 a8 bd b4 af 93 bd 28 d0 83 bd 20 d9 88 3d
       -0.08229087 -0.07211247 -0.06436187 0.06682038
000020 dc 3b 09 ba 39 19 ff bc ea 9e 85 3c 67 69 ae bc
       -0.0005235055 -0.031139957 0.016311128 -0.021290494
000030 b5 02 b1 3c 0e 0b 9c bd 92 d1 13 bc f8 15 00 3e
       0.021607736 -0.07619296 -0.009022133 0.1250838
000040 9f 4a 10 3b f7 4b d0 3d bc fd 74 3d ed 84 10 3c
       0.0022017134 0.10170739 0.059812292 0.0088207545
000050 e5 e9 c3 3d 32 18 d6 bc 36 33 ab 3d 94 d6 0e 3d
       0.09566096 -0.026134584 0.08359377 0.034872606
000060 11 ef b9 bd ac 80 65 3d 26 a4 11 bb 22 9b 8c bd
       -0.090788014 0.056030914 -0.0022223084 -0.06865527
000070 e9 8f 80 3d d3 c8 f5 bd 7c d8 f3 bd d8 fe 5a bc
       0.06277449 -0.12001195 -0.119065255 -0.013366424
000080 ff a6 ba 3c 78 37 ad 3d 3a c9 62 bd 2a f8 55 bd
       0.022784708 0.084578454 -0.055367686 -0.05223862
000090 4e b7 d0 3c f6 e5 d1 3d aa ce c6 3d 78 e7 a3 bc
       0.025478031 0.1024894 0.09707387 -0.020007834
0000a0 c4 ca 22 bc ac 46 21 bc 35 e1 cf 3d fc 8b ac 3c
       -0.009936038 -0.00984351 0.10150377 0.021062844
0000b0 f6 1a 13 3c d5 04 fa 3c 3a 54 8f bd e1 0f 5e bd
       0.008978596 0.030519882 -0.06998487 -0.054214362
0000c0 ed 37 7c bd e5 36 13 3d 5e fe a1 3d 03 7b ba 3c
       -0.061576772 0.035941023 0.07909845 0.022763735
0000d0 ee 7a f7 bc 32 1f b3 3d 78 96 8f 3c 56 06 af bd
       -0.030209985 0.087461844 0.017527804 -0.0854613
0000e0 92 cb ab bd fb 60 40 3d 61 f6 b0 3d a8 3c 39 3d
       -0.08388437 0.046967488 0.08640743 0.045223862
0000f0 fb ff f7 3c fb 91 a4 bd e7 bf 79 bd ca 58 20 3c
       0.030273428 -0.08035656 -0.060974028 0.009786794
000100 c0 c9 52 3d 01 99 3b bc ff f9 32 3d 91 ed 9a 3d
       0.051461935 -0.011450053 0.043695446 0.075648434
000110 0e 00 60 3d c6 5a e7 bc cf 5d 2a bd 22 6b 86 bd
       0.054687552 -0.028241526 -0.04159337 -0.06563403
000120 3f 22 ae bb b8 47 ba bd 6a f0 81 3d f8 80 b1 3c
       -0.005314141 -0.090957105 0.063446835 0.021667942
000130 72 17 36 3d 3d bf 9e 3d ce aa 2d bd b9 51 02 3b
       0.044455953 0.077513196 -0.04239922 0.0019885136
000140 32 ee 1f bd ec cd 51 3d cc 0a 5c 3d f6 98 0b 3d
       -0.03904552 0.051221773 0.053721234 0.03408142
000150 a1 49 6b bb 24 d4 34 3d 99 bc 75 bd 76 1a 76 bd
       -0.003590204 0.044147626 -0.059994314 -0.06008383
000160 e5 ab 9b bd 89 d7 a0 3d 54 5d ad bd c7 30 f4 bc
       -0.07601146 0.0785361 -0.084650666 -0.029808415
000170 88 80 7b bd 46 23 32 bc 05 99 ac 3d a0 33 c6 3d
       -0.061401874 -0.010872668 0.08427624 0.096778154
000180 e6 85 ac bc 1e a9 28 3c 26 6c 68 bd ba 56 c2 bc
       -0.021059942 0.010294227 -0.056743763 -0.023722995
000190 57 cd 1d 3b 96 98 9c 3c e1 45 d0 3d 78 e7 1c 3a
       0.002407869 0.019115727 0.10169578 0.0005985419
0001a0 0e 79 53 3d 51 4a 5a bd 61 78 54 bc 55 36 f6 3c
       0.05162912 -0.05329353 -0.012968154 0.030055204
0001b0 e4 a7 e9 bb ba b3 ec 3d c5 70 a7 3c bd a7 03 3e
       -0.00713061 0.115577176 0.020439515 0.12856956
0001c0 86 92 87 3d 9f 95 92 3d e0 8e a2 bd a3 d9 a5 3d
       0.06619744 0.07157444 -0.079374075 0.080981515
0001d0 f4 ba 42 bd 99 bd ce 3d 73 d1 c7 3d 9f 4a 2f bc
       -0.047541574 0.10094757 0.09756746 -0.010698943
0001e0 11 e9 4a 3d 13 c6 8f 3d 4e 5a 80 bd 72 0e aa 3c
       0.049538676 0.070202015 -0.06267224 0.020758841
0001f0 74 5a 00 3d f8 d9 03 bd 3c 3e a9 3d 57 40 4a bd
       0.031336263 -0.032190293 0.082638234 -0.049377766
000200 32 a9 87 bd e9 e6 47 bd 55 92 11 3c 72 a0 c6 3b
       -0.06624068 -0.048804197 0.008884986 0.006061607
000210 29 d4 1d bd d5 c6 1a bc 4a ef a2 3d a2 75 7b bd
       -0.03853241 -0.009446819 0.07955797 -0.06139148
000220 fa 50 56 3d c9 9b b1 3d 64 5b 18 bc 6c 6d 50 3c
       0.05232332 0.08672292 -0.009299133 0.012721401
000230 5c 93 45 3d 4d d6 b2 3d 3c f2 74 3c 49 08 f6 bd
       0.048236236 0.08732281 0.014950331 -0.12013299
000240 e0 0e ed 3d 0a 5a 96 3a 96 3a 7d 3d e9 8f ee 3d
       0.11575103 0.0011470926 0.06182345 0.116485424
000250 41 d8 4b 3d bc 5d 02 3e d4 4e 8b bb a4 cf 04 bd
       0.049766783 0.1273107 -0.0042513404 -0.032424584
000260 33 6e ac 3d 7f 55 f6 3d a5 f4 02 3e 4a 79 08 3d
       0.08419456 0.12028026 0.12788637 0.033318795
000270 6c 3e 63 3d fa 34 fd bd 70 93 dd 3d 4b f1 ef 3d
       0.055479452 -0.1236362 0.10819137 0.11715945
000280 3c 98 49 bd 64 88 c7 3c 93 b2 c0 3c 82 1b c1 3c
       -0.049217448 0.024357028 0.02352265 0.023572687
000290 08 50 b1 3d 4c 35 55 bd 3b 67 93 bd 7f 5c 67 bd
       0.08657843 -0.05205278 -0.07197424 -0.056484696
0002a0 1f 38 5c bd 18 e8 0e bd d0 46 17 bd c2 c0 8b 3d
       -0.05376446 -0.03488931 -0.036932766 0.06823875
0002b0 48 2e 00 3c 00 2a 68 bd fc c4 fd bc d3 00 5f 3d
       0.007823534 -0.05668068 -0.030977719 0.054444145
0002c0 6f 65 db bc 9b e8 d0 3d 79 40 ad 3d bf ad 0f bd
       -0.026781766 0.10200616 0.08459563 -0.035077807
0002d0 e2 c0 3a bd c4 7d 95 bc bf 2f a7 bd 02 7b b1 3d
       -0.045594104 -0.018248446 -0.08163404 0.0866604
0002e0 36 87 6a bd b0 07 c5 3d 26 b1 a4 bc 27 7b 7d 3d
       -0.057257853 0.09620607 -0.020104002 0.061885025
0002f0 fb 91 44 bd 38 6f 97 3d f5 cf 92 3d 01 77 d0 3d
       -0.04799078 0.0739426 0.07168571 0.10178948
000300 89 68 bf 3d 7c 14 e7 3d cb f8 36 bb 5e 05 15 bd
       0.093461104 0.11283204 -0.0027919288 -0.03638207
000310 3e 0c 91 3c f9 cc 90 3a 61 3e ae 3c 96 4e c2 bc
       0.017706033 0.0011047415 0.021269979 -0.023719113
000320 98 aa 6e bd fc c8 3a 3b 63 e5 e5 3d b2 dd c6 3d
       -0.05826816 0.0028501144 0.11225393 0.09710254
000330 53 5d 43 bc 5b 1d b6 3d 70 02 23 3c 9b 41 41 3c
       -0.011924106 0.08892318 0.009949312 0.011795427
000340 01 32 a8 bd 3a 89 de 3d f2 4c a1 bd 25 75 50 3d
       -0.082126625 0.10866018 -0.07876004 0.050892968
000350 38 d9 87 bd 33 23 ae 3d e4 c4 a6 bd a0 bc a8 3d
       -0.06633228 0.085028075 -0.08143023 0.08239102
000360 77 66 93 bd 0c d2 1f 3d 13 cf ab 3d 9f fb b1 3d
       -0.07197278 0.039018676 0.08389106 0.08690571
000370 66 b5 03 3d 71 03 7f 3d fa 74 98 3d df ca 98 3d
       0.032155417 0.06225914 0.074441865 0.074605696
000380 43 42 cb 3d ab 82 38 bb 29 31 8c bb 73 cb 57 bd
       0.09924748 -0.0028154056 -0.0042783213 -0.05268426
000390 65 c3 0a 3d ab d5 a9 3d 7c 86 43 3d 95 ea c3 bd
       0.03387775 0.08292707 0.047735676 -0.09566227
0003a0 a4 95 a6 bd da 44 97 3d 1e ee 8d bd e1 55 e6 3d
       -0.081340104 0.07386179 -0.06930183 0.11246849
0003b0 c7 b2 d7 bc fa c1 9b bb 88 8d e5 bb c0 35 35 bd
       -0.026330365 -0.0047533484 -0.007005397 -0.044240713
0003c0 ab ab 8f bd cc 41 e5 3b cc 8c 38 bc 79 a7 c0 3d
       -0.07015165 0.006996369 -0.011264037 0.09406943
0003d0 1b 84 7d 3c 3e 19 95 3c 7f 3c 83 3d 70 63 f1 3d
       0.015473391 0.018200513 0.06408023 0.11786544
0003e0 77 33 57 bd 79 e0 41 bc 7d 39 87 3b 61 ec 96 3d
       -0.052539315 -0.011833304 0.004126726 0.073693044
0003f0 71 4f 20 3c 05 fe 8e bc 1a 39 c0 bc 13 cd a7 bb
       0.009784565 -0.01745511 -0.023464728 -0.0051208823
