outputs/models/nowcast_rand_k8_seed2.pt (torch, 272435 bytes, 14 tensors)

in_lin.weight f4 [96, 15]
000000 8f 10 52 3e b8 f1 4c 3e 35 fe 57 bd e1 62 64 3e
       0.20514129 0.20014083 -0.052732665 0.22303344
000010 5b b8 67 bd 0b 69 55 3d 1e 10 04 be 3d f4 6e 3e
       -0.0565723 0.05210213 -0.12896773 0.23335357
000020 9c 71 8a 3e 62 46 21 be 57 4d 6d 3e c5 29 05 3e
       0.27039802 -0.15749505 0.23174034 0.13004215
000030 3c 74 5a 3e a0 67 4b 3c 30 08 0b 3e fe 49 2e bd
       0.21333402 0.012414843 0.13577342 -0.042551033
000040 50 65 30 3e 78 1b 01 3d 62 dc 16 be bb c9 86 3d
       0.17226148 0.031520337 -0.14732507 0.06581446
000050 2f a2 f3 bd 47 b0 6e bd 81 a6 e5 bd 96 83 16 3e
       -0.118961684 -0.05827358 -0.11213399 0.14698634
000060 d1 ce 66 be bd d9 11 be 20 a8 a4 bd 44 57 14 be
       -0.22539832 -0.14243217 -0.0803988 -0.14486414
000070 d1 b8 73 3c 69 a6 86 be a8 54 69 3e 23 7d 30 be
       0.014875607 -0.26298836 0.227862 -0.17235236
000080 ae af 46 3e db 2f b8 3d 71 b3 ab bd 1f 62 23 3e
       0.19402954 0.08993503 -0.08383835 0.15955399
000090 1d 41 63 3d 07 84 92 3e 3e 7a 96 3d 37 54 45 bd
       0.05548202 0.28616354 0.073475346 -0.048176017
0000a0 69 6d a5 3d db bb f6 3b 3c 5e f0 3d a4 76 4d 3e
       0.08077509 0.0075297183 0.11736724 0.20064789
0000b0 be 6d f7 3d 99 f2 d5 bd 28 39 f1 3d b4 08 5f 3d
       0.120814785 -0.104466625 0.1177848 0.05445166
0000c0 49 82 cc 3d 87 26 21 be 1f dd 82 be 9b 48 06 be
       0.099857874 -0.15737353 -0.25559327 -0.13113634
0000d0 6c f7 26 be 04 6f 7c 3e 7a d2 ca 3d b3 99 f9 3d
       -0.16305321 0.24651724 0.099034265 0.12187519
0000e0 08 e6 ee 3d 51 88 a3 bb db a4 59 3e 23 d7 33 be
       0.11664969 -0.0049906154 0.21254294 -0.17562537
0000f0 b3 f1 99 3c 8a 9b 3f be 50 3f a8 3d 71 4f cc bd
       0.018792009 -0.18711677 0.08215201 -0.0997609
000100 bf 07 a2 3d 9d 56 5c bd d9 cf 5d 3e 24 fe 27 be
       0.07911634 -0.05379354 0.21661319 -0.1640554
000110 36 d4 28 be a6 d6 28 be 36 aa 62 3e d1 ee 99 3d
       -0.16487202 -0.16488132 0.22135243 0.07516254
000120 e9 8b 85 3e b7 24 65 be 4c 8e 88 be 5e e3 7e be
       0.26083305 -0.22377287 -0.26671064 -0.24891421
000130 dd 63 d4 bd bb 63 71 3d 9d 57 26 3e 5c b1 5b 3e
       -0.1037061 0.058933 0.1624436 0.21454376
000140 67 8a 08 be 05 dd d8 bd 1e 2e 6a 3e 9c eb 41 bd
       -0.13334046 -0.10589031 0.22869155 -0.047343835
000150 22 36 47 3e 5b 5f 16 bd 59 27 75 3e 4e 6d 4d be
       0.19454244 -0.03671203 0.23940791 -0.20061228
000160 3b 2f 29 be ad e4 af bc 65 a7 74 3d 28 25 de bd
       -0.16521923 -0.021471346 0.059729952 -0.10846931
000170 c3 da 22 3e b1 0e 08 3e 91 bb 3f be 06 27 0d be
       0.15903763 0.13286854 -0.18723895 -0.13784418
000180 29 0e 64 3e e2 1a d9 bd 59 a5 c0 bd 75 99 8c be
       0.22271027 -0.106008306 -0.094065376 -0.27460828
000190 b2 48 20 be 87 d5 3a 3d f0 5c 8e bc 4f fe 4a be
       -0.15652731 0.04561379 -0.0173783 -0.19823574
0001a0 ab 43 65 3d b3 e2 37 be 0b 97 63 be 22 d3 14 be
       0.055972736 -0.17957573 -0.22225587 -0.14533666
0001b0 0b 81 6a be cd 59 28 be 68 25 84 3e a4 a3 3a 3d
       -0.22900788 -0.16440506 0.2580979 0.045566216
0001c0 53 7d 9c 3d e1 e1 79 be c3 ee 30 be 90 94 b6 bd
       0.07641091 -0.24402572 -0.1727858 -0.08915055
0001d0 be 3c 18 3d 82 51 68 be 53 45 e9 bd 89 e4 1c be
       0.037167303 -0.22687343 -0.11390176 -0.15321554
0001e0 23 0b 20 3c 7e b8 f0 bd ad 48 09 bc 90 23 49 be
       0.00976828 -0.11753939 -0.008379144 -0.19642472
0001f0 db 7a 35 be b8 3f 1a be 66 56 e1 bd 83 76 66 be
       -0.17722647 -0.1506337 -0.11002807 -0.22506146
000200 fe ed 47 3e a7 78 94 bd b9 9b 4d 3e 8c 66 72 3d
       0.1952438 -0.07249575 0.20078935 0.059179828
000210 b3 e3 5f be 23 18 5e 3e af ab 91 bd 03 3a e3 bd
       -0.21864204 0.21688895 -0.07112824 -0.11095049
000220 a3 b1 26 be ed 96 89 be e5 6d 00 3e bf 05 67 bd
       -0.162787 -0.2687296 0.12541921 -0.056401964
000230 e5 de cd 3d b7 42 24 be 9e 63 6c 3e ae 62 2d be
       0.100522794 -0.16041075 0.23084876 -0.16932175
000240 0f 05 30 bd 2f f0 32 3d bb 96 30 3e 64 c8 4f 3e
       -0.042973574 0.04368609 0.17244999 0.20291287
000250 a8 e4 62 3e 40 ee 55 be 70 17 89 3d 5a c2 a3 bd
       0.22157538 -0.20891666 0.066939235 -0.07996054
000260 e2 a6 d7 bc ba 0f 26 be bb d3 70 3e a7 0d 42 be
       -0.026324693 -0.16216937 0.23518269 -0.1895052
000270 e5 b1 19 3e c8 b3 2d 3e 70 1a 06 3e 6c c4 dc bd
       0.15009268 0.16963112 0.13096023 -0.10779652
000280 31 c8 7b 3e c3 e5 0a 3e 58 bc 56 3d ac c9 7c be
       0.24588086 0.1356421 0.052425712 -0.24686307
000290 ed e9 86 3d 00 f4 f7 bc b1 0c 0a be b9 c6 6b 3e
       0.065875866 -0.030267715 -0.13481404 0.23025025
0002a0 ab ff 29 3d ad 48 12 be 29 d2 05 be 95 c2 80 bb
       0.04150359 -0.14285536 -0.13068451 -0.003929446
0002b0 2c b1 02 3e 29 ff a8 bd 28 cb 27 be 14 f4 d6 bd
       0.12762898 -0.08251793 -0.16386092 -0.10495773
0002c0 9a 75 56 be f3 2b e0 3d 45 c8 3a 3e 7d a2 83 be
       -0.20943299 0.10945883 0.1824046 -0.25709906
0002d0 e2 18 82 3d 5a 2e c8 3d 11 47 4e 3d d7 ab 02 be
       0.06352402 0.09774466 0.050360743 -0.12760864
0002e0 ce ff 09 3e 83 f1 0a 3e 9e 81 a9 3d 4c db 71 bd
       0.13476488 0.13568692 0.08276676 -0.05904703
0002f0 c1 29 a5 bd 2c a3 8e 3c 0d 51 81 bd ae 96 b9 bd
       -0.080646046 0.01741179 -0.06314287 -0.09061943
000300 6e ad 34 3e 86 fc 60 3e fd d1 7d bc 6b a1 60 bd
       0.17644283 0.2197133 -0.01549196 -0.05484144
000310 a4 ce ee 3b 61 84 3c bc 02 5e 86 3d 63 2f 94 3d
       0.007287817 -0.011506171 0.06560899 0.07235601
000320 9f 23 70 be cb 1f bc bd 73 f0 90 3e 5d 01 fb 3d
       -0.23451088 -0.091857515 0.28308448 0.122561194
000330 d2 d2 ce bb 60 48 2a be 42 0e bd bd fc 28 72 be
       -0.006311753 -0.16629171 -0.09231235 -0.23648447
000340 fb 40 9d bd f6 98 9e 3d 08 63 20 3e ce 49 0f 3e
       -0.0767841 0.07744019 0.15662777 0.13992998
000350 35 91 70 be 04 c3 09 be 76 e7 26 bd 55 c3 7f 3e
       -0.23492892 -0.13453299 -0.040748082 0.24976857
000360 dc 50 6e 3d 33 15 11 3c 27 6e 12 3e 10 45 97 bd
       0.058182582 0.008855152 0.14299832 -0.073862195
000370 16 52 2a be 17 44 87 3e d6 cb 04 be 3c d0 62 bd
       -0.16632876 0.26419136 -0.12968382 -0.05537437
000380 36 19 85 be 9e eb 37 3e eb b5 3b 3e c2 af ce 3d
       -0.25995797 0.17960975 0.18331115 0.10092117
000390 d4 f3 44 be a8 78 82 be 91 bc 56 be c7 07 41 3e
       -0.19233638 -0.25482678 -0.2097037 0.18850623
0003a0 1f 77 53 3e dc cf 85 3e fb 72 2d 3e 8b a4 9a 3d
       0.2065091 0.26135147 0.16938393 0.07550915
0003b0 f3 e3 a3 3d 4d 96 36 be ad 93 6e be dc dc 83 be
       0.08002462 -0.17830773 -0.23298521 -0.2575444
0003c0 ff bb bb 3d 70 26 10 be 59 58 87 bd e6 76 26 be
       0.09166717 -0.14077163 -0.06608648 -0.16256294
0003d0 6b b7 40 bd 45 17 3a be d8 32 3b be a1 67 92 3d
       -0.04704992 -0.18172939 -0.18281114 0.07148672
0003e0 7b d3 b9 bd 24 e3 14 3e e9 4f c6 bd a0 49 50 be
       -0.0907354 0.14539772 -0.096832104 -0.20340586
0003f0 c7 de f0 bc c8 f0 0d be 50 b6 39 bd e3 be 80 be
       -0.029403104 -0.13861382 -0.045339882 -0.25145635

in_lin.bias f4 [96]
000000 94 8b ff bd 2d e9 6a bb 6a db cc bc 6e 88 65 be
       -0.12477794 -0.003584455 -0.025006969 -0.22415325
000010 8c be 70 be 22 32 fb bd 05 e2 01 3e f5 4f f8 3d
       -0.23510188 -0.122654215 0.12683876 0.121246256
000020 12 ac 6f be ff 2d ae bd 2b 06 e4 3c 65 40 53 be
       -0.23405483 -0.08504867 0.027834972 -0.20630033
000030 39 fd 18 3e c2 45 6c 3e e2 74 5c 3d 99 96 33 be
       0.14940347 0.23073485 0.053822406 -0.17537917
000040 18 81 98 3d 92 af cc 3d 12 fb 60 3e e6 af f9 bd
       0.07446498 0.09994425 0.21970776 -0.12191753
000050 75 f9 78 be c4 bb e8 3d d0 8c 9a 3c aa 23 95 bd
       -0.2431391 0.113639385 0.018865973 -0.07282193
000060 fc 6b cd bd 95 58 00 be 0f b2 5f 3e 6a 4f e2 bc
       -0.10030362 -0.12533791 0.21845268 -0.027625758
000070 9f b8 61 3e 84 10 77 3e 19 4d 82 3d 6e e2 8f 3d
       0.22043084 0.24127394 0.063623615 0.0702561
000080 6a fa 83 3b bb 54 43 3e 00 ae 5c be 0a 31 bf 3d
       0.0040276544 0.19075291 -0.2155075 0.09335525
000090 de c3 82 bc d3 3e 21 3e 94 ce 56 3d a7 e5 a9 bd
       -0.015962537 0.15746622 0.052443102 -0.08295756
0000a0 c9 07 63 bc f6 98 1d 3e 66 89 28 be ea b4 0b be
       -0.013856837 0.15390381 -0.16458663 -0.13643232
0000b0 9a f9 85 bd 0e f9 a6 bd 37 14 f1 3d 4b 5a 45 3e
       -0.06541748 -0.08152972 0.11771434 0.19272725
0000c0 03 05 b4 bb 41 b0 88 3e af eb bb bd 3c 5e 14 be
       -0.0054937615 0.2669697 -0.091758125 -0.14489073
0000d0 0c da c9 bd 11 7f 32 be f8 e7 24 be 00 1b 33 be
       -0.09856042 -0.17431284 -0.16104114 -0.17490768
0000e0 96 33 39 be 16 7d a4 3d 09 66 36 3e fa fb 82 3e
       -0.18086085 0.08031671 0.17812361 0.25582868
0000f0 a0 a9 7c 3e 4a 18 a1 bb f9 25 8b 3d 9d 0e b2 bd
       0.24674082 -0.0049162256 0.06794352 -0.086941935
000100 f8 af f2 3d 6e 6d 66 be 0e 0c 03 3e d4 d0 6e 3d
       0.118499696 -0.22502682 0.12797567 0.058304623
000110 21 b8 9a 3d 03 8b e0 3d b3 3e e1 bd 82 af 6d 3e
       0.07554651 0.109640144 -0.10998287 0.23211482
000120 88 98 1b 3e 36 86 3b 3e 13 0a 54 3d b3 00 2e 3e
       0.15194905 0.18312916 0.05176742 0.16992454
000130 a9 85 3c 3e 71 2f b2 3d f3 0c 46 3e b9 dd 47 bc
       0.18410362 0.08700455 0.19340877 -0.012198859
000140 57 68 36 3e 67 90 9f 3d 48 28 29 3e 76 dc 88 3e
       0.1781324 0.077912144 0.16519272 0.26730698
000150 ea 6a ab 3d 5a b9 c2 bd 15 6d 25 bc 25 4e ad 3d
       0.083700016 -0.09508009 -0.010096808 0.084621705
000160 64 1f 89 3d ab 18 9c bd c8 97 3e 3e 43 a2 31 3e
       0.066954404 -0.076218925 0.18612587 0.17347054
000170 1a 87 1e be fa 3d 05 bc b8 19 69 ba cb 37 12 be
       -0.15481225 -0.008132452 -0.0008892077 -0.14279096

layers.0.lin_self.weight f4 [96, 96]
000000 3e 72 02 3d 31 b4 18 bd bf 63 b2 bc fe a2 13 bd
       0.03184723 -0.03728122 -0.021776078 -0.036044113
000010 b5 b7 ff bc b6 d4 24 3e 71 e6 13 3d b8 28 d6 3d
       -0.031215528 0.16096768 0.036108438 0.10456985
000020 ba ac 17 3d 1d 83 89 3d be 0d a6 3d bb 69 ac 3c
       0.03702996 0.06714461 0.0810809 0.02104651
000030 19 b5 b0 bd 9c e1 c2 3b 93 35 3b 3d 21 69 c9 3c
       -0.08628292 0.005947305 0.04570539 0.024586262
000040 ad 21 47 3d e9 60 73 3d 10 23 b7 3d 39 df d4 3c
       0.0486161 0.059418593 0.089422345 0.025985347
000050 a2 24 38 bc df 46 7e bd ba f6 91 bd 3a ae 6b bc
       -0.011239203 -0.062079307 -0.071271375 -0.014384801
000060 43 88 19 3d ff cc 6c 3d 3e 85 27 3e e7 11 99 3c
       0.037483465 0.057812687 0.16359422 0.018685294
000070 41 a9 82 bd 1d e3 3a bc 1c 6f 95 3d 66 40 4a 3d
       -0.06379939 -0.011406687 0.07296583 0.04937782
000080 50 a1 eb 3c a6 66 da 3c 67 54 7f 3c 0f d5 2a 3d
       0.028763443 0.026660275 0.015584088 0.041707095
000090 1e 33 4a 3c 86 17 c0 bd 22 9e cf bc 42 6e 20 bc
       0.012341289 -0.09379487 -0.025343958 -0.0097919125
0000a0 c8 51 e3 bc d8 6c 6d 3d 3b c7 85 3c 25 c0 e4 3c
       -0.027748957 0.05796513 0.016330352 0.027923653
0000b0 fd c2 89 bd 91 25 0c bc 8c a3 aa bd 0f 36 87 3d
       -0.06726644 -0.008553878 -0.08331975 0.06602108
0000c0 2b eb 43 bd ee 0e 00 3e d2 24 20 3d e8 b1 05 3c
       -0.047831696 0.12505695 0.039097615 0.008160092
0000d0 ad 60 88 3d 62 f4 51 3d ff ae 92 bc 47 04 4d bc
       0.066590644 0.051258452 -0.01790571 -0.012513227
0000e0 3e 63 6d 3d 4c 92 30 bd d9 8e 4c 3d 47 f7 2b bd
       0.057955973 -0.04310827 0.049940918 -0.04198387
0000f0 60 12 95 3c fd cd 1a bd 4f 27 83 bd 6a 74 eb 3c
       0.018197238 -0.037794102 -0.06403982 0.028742034
000100 2e 02 50 bd 68 31 ac 3d 3a 74 ad bd 7e 8a 37 3c
       -0.05078333 0.08407861 -0.08469434 0.011202453
000110 00 3a 84 3c 1a 37 a9 3d 42 c2 f7 bc 29 bb 0f 3d
       0.016140938 0.08262463 -0.030243997 0.0350906
000120 3f 45 cd 3d c6 78 91 3d 7d ef 79 3d 01 a7 f8 3c
       0.10022973 0.07103114 0.06101941 0.030353071
000130 1b be 48 bd 17 20 61 bd b2 0f 06 3e cc 2d cb bd
       -0.049009424 -0.054962244 0.13091925 -0.099208444
000140 bd 16 8f bc 65 01 13 3c 1c fc 06 3e 9e 9a 01 bc
       -0.017466897 0.0089725 0.1318211 -0.007910399
000150 d5 99 59 bb d9 7b a2 bc b7 0c 68 3d 7f 0e 46 3d
       -0.0033203263 -0.019834446 0.05665275 0.04835367
000160 29 bb 04 3e fb 92 7c bd 16 36 01 3e 1f bc 9b bd
       0.12962021 -0.06166361 0.12618288 -0.076042406
000170 b5 1b 43 3d f6 c7 74 3d 5b b0 f8 3d 91 a2 9a 3b
       0.047633845 0.05976101 0.12143012 0.0047190865
000180 4b 4e 6f bc 3c 89 4e 3c 71 d3 6a bd 94 72 ee bd
       -0.014606069 0.012605961 -0.057330552 -0.11642948
000190 c3 2d a7 bd 89 c5 37 bd 3d a8 93 3d ba 1b a5 3b
       -0.08163025 -0.04486612 0.07209823 0.0050387057
0001a0 65 1c 40 bd 06 50 0d 3d 9d f5 7b bd a2 27 01 3d
       -0.04690208 0.034500144 -0.061513532 0.031531937
0001b0 af 4f 83 bb c4 cf 88 bd b9 f9 96 3d 2a db 95 bd
       -0.0040073018 -0.06680253 0.073718496 -0.07317193
0001c0 7f 51 83 3b 1f 6a d5 bd d2 57 7a ba 68 e9 17 bd
       0.004007518 -0.104206316 -0.00095498294 -0.037087828
0001d0 bc 4c a3 bc 0a 5b 6e bd 5e 8d 31 3d ba f9 96 bd
       -0.01993405 -0.05819229 0.04334771 -0.0737185
0001e0 9d 3f 31 3d d7 75 e1 bd c9 e4 40 3d d4 ba 6a bd
       0.043273557 -0.11008804 0.047093187 -0.05730708
0001f0 ee 25 81 bc 01 e8 14 3b 5d 8b 78 3d ba 8e 84 3c
       -0.015765157 0.0022721293 0.060679782 0.016181339
000200 96 47 89 bd 29 41 09 3c de 1e 7b bd 2e 74 8f 3d
       -0.06703107 0.008377352 -0.061308734 0.070045814
000210 c6 6a 86 bc 7e c2 fc bc 2c 73 ea bd f4 7d 05 3d
       -0.016408335 -0.03085446 -0.114477485 0.03259082
000220 f9 0f f2 bd ec 11 38 3d 0f e8 7a 3d 80 9c 88 3d
       -0.11819453 0.044938967 0.061256465 0.06670475
000230 0d 25 0b 3d 15 a8 b2 bd 45 43 8e 3d c3 8b 7c bd
       0.03397088 -0.08723465 0.069464244 -0.061656725
000240 63 3d 6b bc 13 e2 30 bc 11 61 6a 3d 34 b9 a0 3d
       -0.014357897 -0.010796088 0.057221476 0.07847825
000250 70 fa d1 3c c1 52 1a 3b 41 89 e0 bd 88 7d c7 3a
       0.025632113 0.002354786 -0.10963679 0.0015219906
000260 e5 20 15 be 12 90 30 3d 29 49 5d bd 66 b7 0f bd
       -0.1456333 0.043106146 -0.05402485 -0.03508701
000270 1e 37 bf 3d 6e 43 d9 3d af 96 a2 bd 3a 61 f3 bd
       0.09336685 0.10608564 -0.07938897 -0.11883779
000280 e6 f1 83 3c 13 5b 77 3d 13 c5 11 bd 33 b9 87 bc
       0.016106557 0.06038959 -0.035588335 -0.016567802
000290 fd 51 a4 bd 7e 37 7a 3d b0 6a ee 3d fb f4 2b bd
       -0.080234505 0.061088078 0.11641443 -0.04198168
0002a0 8f 00 82 3d 9b e8 84 3d 13 a4 9f 3d 57 a3 01 bc
       0.06347763 0.064896785 0.077949665 -0.007912478
0002b0 ba 05 1d 3b c8 5e a6 3d 83 9a 30 3d b1 e0 c0 3d
       0.0023959712 0.08123547 0.043116104 0.094178565
0002c0 39 85 ea bc 8e a0 76 3d 5c e1 a3 3d 15 25 95 bd
       -0.028627979 0.06021171 0.08001968 -0.072824635
0002d0 d5 bb 8e 3c 47 75 70 bc 36 32 b8 3d 75 1f 3a bd
       0.01742355 -0.014676399 0.08993952 -0.045440156
0002e0 ed 86 28 3c 15 2a 5f 3d 00 34 ae bd e9 55 a1 bd
       0.010286075 0.054483492 -0.08506012 -0.07877714
0002f0 d6 7e fb bc b4 7f 69 3d 43 42 5e 3d 03 8d 96 bd
       -0.030700129 0.057006553 0.05426241 -0.073511146
000300 34 2e 96 3c 57 28 82 bd 6f a0 ed bc d0 9c 94 3d
       0.018332578 -0.063553505 -0.029007165 0.07256472
000310 0b a7 8a 3d 18 1d 82 3c ff 3f 95 3c 88 07 9c 3c
       0.06770142 0.015883014 0.018218992 0.01904656
000320 b6 c3 a9 3c f6 0a 72 3b 50 6e 23 bd 9a e6 b1 3d
       0.020723205 0.0036932803 -0.039900124 0.08686562
000330 04 9b af 3c c1 83 c9 3d cf a3 b6 3c 2a af 6f 3d
       0.021436222 0.09839583 0.022294907 0.05851666
000340 67 d3 9f 3d c3 b6 83 3d 72 6b 39 3d 94 e5 ee 3d
       0.07803994 0.064313434 0.045268483 0.11664882
000350 21 59 42 3c 46 4f 18 3d 7e 2a bf 3d 1f be 00 3e
       0.01186207 0.037184976 0.093342766 0.12572525
000360 14 a9 31 bd 3b d1 a8 3d fb 22 ca 3d cb 8e bc 3c
       -0.043374136 0.082430325 0.09869953 0.023017308
000370 6e f7 14 3d e5 ca 31 bd d0 f3 fc 3d 65 4c ce 3d
       0.03636878 -0.043406386 0.12351191 0.10073165
000380 0c 36 68 bd 1e ad 5d bd c9 4d bb bd ec 40 e9 bc
       -0.056692168 -0.054120176 -0.09145696 -0.02847334
000390 60 82 84 bd f8 7c 82 bd dc 9e a3 bc 33 14 a7 3d
       -0.064701796 -0.06371492 -0.019973211 0.081581496
0003a0 c8 7a 82 3d ba b3 84 3d 76 03 4a 3d ea ea 24 bd
       0.06371075 0.064795926 0.049319707 -0.040263094
0003b0 a9 a8 eb bd 05 23 b3 3c 51 44 b1 3d fc dc e7 3c
       -0.11506779 0.021867285 0.086556084 0.028303616
0003c0 24 f7 72 bd 19 87 eb bc 6a 9c 18 bd db 20 a1 bd
       -0.059317723 -0.028750943 -0.037258543 -0.07867595
0003d0 54 73 d1 3d 62 9e 4c bd c8 0a 9f bd 28 a9 81 bd
       0.10227075 -0.049955733 -0.07765728 -0.06331092
0003e0 f6 61 ff 3c 19 e3 9f bb 64 14 10 3d 60 13 77 3d
       0.031174641 -0.004879367 0.035175696 0.06032121
0003f0 82 e6 64 bd 13 bf 79 bd eb 28 c7 bb e0 5d 17 be
       -0.055883892 -0.06097324 -0.006077876 -0.14781904

layers.0.lin_self.bias f4 [96]
000000 48 98 0f 3d 4f c0 b4 3d dd 35 d3 3c 38 74 7a 3c
       0.035057336 0.088257425 0.02578252 0.015286498
000010 85 83 19 bc 87 0b 11 3d 01 fc b6 bd ba 8b d0 bd
       -0.009369736 0.035411384 -0.08934785 -0.10182901
000020 f3 d4 41 bc 88 dd 62 bd 5a 6d 63 bd bc a9 90 3b
       -0.011830556 -0.05538705 -0.055524208 0.004414765
000030 9e 06 8d 3d 06 a0 95 3d e0 25 95 bb c1 ae 23 3b
       0.06886028 0.07305913 -0.004551634 0.0024975988
000040 3d 4d e5 3d cd 3e 12 3d 32 b4 a3 3d 5d 0b d5 bc
       0.11196373 0.035704423 0.07993354 -0.026006395
000050 b6 d1 86 bd 86 fb 22 bd 67 40 99 3c fb 49 7e bc
       -0.06582968 -0.039790653 0.018707467 -0.015520568
000060 79 50 27 bd 6b e3 ec 3d d9 6c af bd 16 ca a0 3c
       -0.04084823 0.11566814 -0.08565683 0.019627612
000070 83 fc 7e 3d f0 8e a0 bc e7 91 85 3d 27 a1 a0 3c
       0.062252533 -0.019599408 0.06521969 0.019608093
000080 7a 08 47 bd 26 02 4d bd ee c0 e4 bc e4 b8 c3 bd
       -0.04859207 -0.050050877 -0.027924027 -0.095567495
000090 3e 73 a3 3d d5 73 e1 3d e2 bc ca bb 5b 1f 90 3c
       0.07980965 0.11008421 -0.0061870674 0.017593076
0000a0 ed 47 fc 3c 7d 17 12 3d 71 46 32 bd ff b0 45 bd
       0.030796016 0.03566693 -0.04352421 -0.0482645
0000b0 d0 f6 ed 3d b4 d9 54 3d ed 41 f1 3d 7f c7 cf 3d
       0.116193414 0.05196543 0.117801525 0.10145473
0000c0 0c bd 0e 3c 1c d4 ad 3d bb 4c c8 bb 77 b2 f1 3b
       0.0087120645 0.08487722 -0.0061126626 0.007376011
0000d0 93 53 28 bd db 46 be 3d f4 66 43 bc 75 84 82 3b
       -0.041095328 0.09290858 -0.011926401 0.0039830753
0000e0 cb fe 8e bd 56 cf 4c 3d 70 cb 58 bd b7 11 18 bc
       -0.06982192 0.05000242 -0.052928388 -0.009281567
0000f0 d0 e3 01 3c bb 17 3b 3d 46 c3 a0 3c a4 ee 42 3d
       0.00792785 0.045676928 0.019624364 0.047590867
000100 87 83 6e bd 54 02 79 bd 63 6b 81 3d df e9 d7 bc
       -0.058230903 -0.060793236 0.063193105 -0.026356636
000110 4b 22 d1 bd 36 c0 86 bc 8d 35 b8 bd 4c 0c 1b 3d
       -0.10211619 -0.016449075 -0.08994589 0.037853524
000120 e9 05 cc 3c 80 35 d2 3d 45 86 66 bd 0b 07 19 bd
       0.024905162 0.102641106 -0.056280393 -0.037360232
000130 19 ea 21 3d c4 af 8f bc f1 33 b9 3d 21 43 48 3b
       0.039529894 -0.017539866 0.0904311 0.003055759
000140 23 41 78 3c b6 db 74 bb 59 96 7c 3d c9 d3 07 bd
       0.015152249 -0.0037362403 0.06166682 -0.03316096
000150 ae d5 5d 3d fb 9a a7 3d e6 35 97 bd c3 c1 92 bd
       0.05415886 0.08183857 -0.07383327 -0.07165863
000160 15 8f 30 bd ae 94 37 3d 99 8f 22 bd 2f 75 a6 3c
       -0.043105204 0.044819526 -0.039687727 0.02031955
000170 58 cc 09 3c 08 82 a2 3c 4f 14 17 bd aa 20 9a 3c
       0.008410536 0.019837394 -0.036884602 0.018814404

layers.0.lin_neigh.weight f4 [96, 96]
000000 d8 5f bd 3d f0 68 5c 3d f3 79 35 3d 01 27 95 bd
       0.09246796 0.053811014 0.044305753 -0.0728283
000010 7e 43 72 3d 56 f1 0c 3d 96 fb 98 3d 8a 59 59 3d
       0.059146397 0.034409843 0.07469861 0.053063907
000020 d9 65 40 bc b6 35 a8 3d e4 4b fc bb 32 d1 dc 3c
       -0.011743032 0.082133695 -0.0076994766 0.02695522
000030 19 43 42 ba 47 e7 84 3d 5b c1 db 3d 6d c4 ff 3d
       -0.0007410511 0.06489425 0.10730239 0.12488637
000040 6c 75 fd bc a0 06 03 3e 93 87 c4 bb 4e 91 dd 3d
       -0.03093978 0.12795496 -0.005997607 0.1081873
000050 03 fb 71 3d 7e 9e aa 3c 19 b7 c2 bc 81 8d 0a bb
       0.059077274 0.020827528 -0.023768948 -0.0021141472
000060 0b 76 bc bd f5 70 24 bd b8 b0 7f 3d ff dd 0e 3e
       -0.092022024 -0.040146787 0.06242439 0.13951872
000070 2f 3b 00 3b 0d 4f 1b 3d 71 7d f2 bc dd c7 c1 3d
       0.0019566526 0.037917186 -0.02960083 0.09461949
000080 e7 8b db 3d 99 4e aa bc 44 fa 4e 3d 76 12 94 bd
       0.10720044 -0.020789431 0.05053164 -0.07230084
000090 d5 da c2 3b 6d 35 77 bd 39 dc 12 be f5 6d 28 3b
       0.005946497 -0.060353685 -0.14341821 0.0025700305
0000a0 c4 8f 5b 3d 37 04 3d 3d 36 d1 e1 3d f3 7a e2 3d
       0.053603902 0.046146598 0.11026232 0.11058607
0000b0 d6 78 f3 bd 08 df ae bc 57 68 85 3d 17 eb 3e bd
       -0.11888282 -0.021346584 0.06514042 -0.046610918
0000c0 8f cd 50 bd 4d 41 c2 3d 15 b8 f2 bc 0c 4d b3 3d
       -0.050977286 0.094851114 -0.029628793 0.0875493
0000d0 a6 00 02 bd 99 fb cf bd c9 db 22 bd 4d 77 d2 bd
       -0.0317389 -0.1015541 -0.039760385 -0.10276661
0000e0 24 11 a5 3d 86 22 6f 3d ae 97 04 bd c8 d7 e2 3d
       0.0805991 0.058382533 -0.032371216 0.11076313
0000f0 ed bf cd bc 45 7c c1 3d 6a f8 38 3d 69 78 b2 bd
       -0.025115931 0.09447531 0.04515878 -0.08714373
000100 bc cc f3 3d 26 2c 6c 3d 4d 82 9c bd 2a d2 93 3d
       0.11904284 0.05765929 -0.076420404 0.0721782
000110 65 48 e3 3d ed 1d 84 bd eb e6 31 bc 18 31 91 bd
       0.110977925 -0.064510204 -0.010858278 -0.07089442
000120 f7 fe 0a 3e dc 9f 8e 3d 4d f4 04 3e db 75 d7 3c
       0.13573824 0.069640845 0.12983818 0.026301315
000130 c0 d7 0a bb 1b 1a 10 3c ba a1 04 bd 2a ce e9 3c
       -0.0021185726 0.0087952865 -0.032380797 0.02854069
000140 17 8f 08 bd 3e 45 04 3d e2 9d 09 3d 2f d0 39 3d
       -0.033339586 0.032292597 0.033597834 0.045364555
000150 99 33 1d bc b7 cb dd bb 37 1a 6a 3d 30 d9 82 bd
       -0.009594821 -0.0067686695 0.057153907 -0.063890815
000160 da 6c 87 3a 00 94 d3 bd 32 cc 46 bb ff e0 ff 3d
       0.0010332123 -0.10330963 -0.0030334112 0.124940865
000170 f2 90 cd 3d 42 20 a3 3d c9 37 c0 bc a7 dd 86 3d
       0.10037412 0.07965137 -0.0234641 0.065852456
000180 72 ca 14 3d f1 b9 c1 3c cd 7a 2f 3d e9 ac 99 bd
       0.03632588 0.023648234 0.04284172 -0.07503683
000190 b7 ee a3 3c 50 69 56 bd 33 14 9c 3d 9f 49 1e 3d
       0.020011289 -0.052346528 0.0762104 0.03864443
0001a0 9b 64 78 bd a0 7a 98 bd 04 70 74 3b b0 5d 95 3d
       -0.06064282 -0.07445264 0.0037298212 0.0729326
0001b0 d3 02 5a bd b8 cf ae 3d 79 a1 fd 3d fb ca 8e bd
       -0.05322535 0.08535713 0.12384314 -0.06972309
0001c0 28 69 1c 3d ce 7f 42 3d cb d8 3e bd f8 b4 ca 3d
       0.038186222 0.047485165 -0.04659347 0.09897798
0001d0 85 26 ce bd 84 eb e2 3d 9a e3 d0 bd d8 72 f5 3d
       -0.10065941 0.11080077 -0.101996616 0.11984795
0001e0 4b 78 1a bd c0 2c d8 bd c5 fe c2 3d be 71 8a bc
       -0.037712377 -0.105554104 0.0952125 -0.01689994
0001f0 8c 61 10 bd 02 14 4c 3d 38 70 33 3d b6 50 48 3d
       -0.035249278 0.04982377 0.043808192 0.048905097
000200 30 08 ab bd bb c5 d7 bd c6 f6 b4 bc f3 37 b1 bd
       -0.08351171 -0.10535761 -0.022090327 -0.086532496
000210 d2 0d 7b bd 24 b1 af 3c 0f ac 91 bd 22 d3 41 3b
       -0.061292477 0.021446772 -0.07112896 0.0029575308
000220 c9 39 1e bd 31 89 1c 3d 3b 36 66 bd 1e a6 62 3c
       -0.038629327 0.038216773 -0.056204062 0.013833551
000230 f4 65 c2 3c ce 7a 81 3d 74 89 69 3b e2 cb 23 3d
       0.023730256 0.06322251 0.0035634907 0.03998936
000240 58 12 2f bd 5e 1f e8 3d f3 a5 21 3d 32 a7 8c 3c
       -0.042742103 0.11334108 0.039464902 0.017169569
000250 21 db 9f 3d 27 96 1f be 5b 90 87 3d 7d 37 8b 3d
       0.078054674 -0.15584622 0.066193305 0.06797693
000260 31 5d dc 3c cd 2b bc 3d 59 3a 82 bd 4d 30 8f 3d
       0.026899906 0.09188042 -0.06358785 0.069916345
000270 56 0d a9 3d dd 68 b9 bd 2a 63 8c 3d 67 54 65 3c
       0.08254497 -0.09053204 0.068548515 0.013997174
000280 28 89 f3 bb 1f 38 33 3e 0e ef ba bc eb 01 b8 3d
       -0.007432122 0.17501877 -0.022819068 0.08984741
000290 59 a5 dc bd 65 ae 7b bd bd 7d 11 3d 28 7a 0f 3c
       -0.10773725 -0.061445612 0.035520304 0.008757152
0002a0 b7 73 9d bb 63 55 58 bd 53 47 95 3d 7b c7 a5 3d
       -0.004805054 -0.052815806 0.07288995 0.080946885
0002b0 2b e9 ac bd f4 3e 28 bd 30 e3 7d 3c 0b e7 0c 3d
       -0.08442911 -0.04107566 0.01549606 0.034400027
0002c0 92 a7 cb bd f7 19 e9 3d f3 9b 49 bd 8a 26 60 3d
       -0.09944071 0.113819055 -0.04922099 0.054724254
0002d0 4c fa 02 3c 87 e2 98 bd ad 7b 45 3d 7f 57 f8 bc
       0.007994246 -0.07465082 0.04821365 -0.030315159
0002e0 88 94 00 3e 83 a6 98 bc f1 49 ab 3d 18 5d ca 3d
       0.1255666 -0.018634086 0.083637126 0.098810375
0002f0 17 86 28 bd 46 06 65 bd 58 44 ad 3d a7 94 eb 3d
       -0.041143503 -0.055914186 0.08460301 0.115029626
000300 1f 6c 18 3d 8b 62 91 3d 01 0e a3 3d 57 9e 7f 3d
       0.037212487 0.07098874 0.079616554 0.062406864
000310 88 24 30 bb b3 7b 2f 3e 6d 01 1c bd 30 8f e4 3b
       -0.0026877243 0.17137031 -0.038087297 0.006975077
000320 ab a3 bb bc 3e 47 ee 3c 1a e9 bb 3d 4e ed 9c 3d
       -0.022905191 0.029086705 0.0917532 0.0766245
000330 7a 97 15 3c 43 e4 01 3e 50 8d 10 3e 27 00 91 3d
       0.009130353 0.12684731 0.14116406 0.07080107
000340 3c 5c bb bc 70 9a ad 3d 0d 90 b5 3d 13 af af 3d
       -0.02287113 0.08476722 0.08865366 0.08578315
000350 da 0f 7b 3d 02 1d a4 3d 65 1c 8f bd 9f e8 8e 3d
       0.061294414 0.08013345 -0.06987838 0.06977963
000360 c1 d5 be bd 9a 9d 83 3d 23 20 99 3d f8 23 f1 3c
       -0.09318114 0.064265445 0.07476833 0.029436097
000370 e9 d2 fc 3a a6 9d 54 bb 79 70 dd 3d 48 ec 9a 3d
       0.001928893 -0.0032442599 0.10812468 0.07564598
000380 af a0 8b bc f3 ee 8a bd 54 8c 04 3c 03 2c 64 bd
       -0.017044393 -0.06783857 0.008090097 -0.055706035
000390 78 a3 35 bb 0a e0 5d 3c 57 02 d0 bc 2f d7 c5 bc
       -0.0027715843 0.013542185 -0.02539174 -0.02415046
0003a0 7d b5 f1 bb ad 69 8a bd 8d c3 15 bd d0 0a 63 3d
       -0.0073763714 -0.06758437 -0.036563445 0.055430233
0003b0 59 de a9 bd fe e1 bc bd cb d8 c1 bd c8 ed 44 bd
       -0.082943626 -0.09222792 -0.09465178 -0.04807833
0003c0 c4 f5 c6 bd 53 ed a9 3d 07 27 30 bc ff 15 8a 3d
       -0.09714845 0.08297219 -0.010751492 0.06742477
0003d0 6e f6 b3 3d 76 17 f3 bd 57 ad 77 3d 0a 31 00 be
       0.08787237 -0.11869709 0.060468044 -0.12518707
0003e0 c2 41 04 3e 6b eb d5 3d 81 75 7c 3d 49 bd 14 bd
       0.1291571 0.10445293 0.061635498 -0.03631333
0003f0 e8 29 25 3d b0 8d 72 bd 84 a7 8a 3c a0 35 36 3d
       0.040323168 -0.059217155 0.01692558 0.044484735

layers.1.lin_self.weight f4 [96, 96]
000000 48 1a 75 3d b6 b8 09 3d b2 6f 90 bd 6e ff 4e 3d
       0.059839517 0.03362342 -0.07052554 0.050536565
000010 b4 9f 6e 3d c5 9d 19 3d 53 81 00 bd fa 26 3b bd
       0.058257774 0.037503976 -0.031373333 -0.045691468
000020 78 22 65 3d aa b8 3f 3d 8f 2a 08 3d 77 2c 91 bd
       0.055941075 0.04680697 0.033243712 -0.07088559
000030 7a 13 b2 bd 08 b9 d4 3d 9c f7 15 3c 0d 7a c3 3d
       -0.08695121 0.103868544 0.009153273 0.09544764
000040 32 bc af bd c6 35 55 bd c6 a9 a6 bd bd 62 12 3e
       -0.08580817 -0.052053235 -0.081378505 0.14295478
000050 44 0b e6 3c 40 fa 4c 3d 3c 75 c3 3d ce 8f 13 3c
       0.028081544 0.050043344 0.09543845 0.009006454
000060 cd be 07 3d d7 64 4f bd 61 40 c6 3c 53 fb a7 3d
       0.033140946 -0.050633278 0.02420062 0.08202233
000070 41 12 47 bb 9d 8b 78 bd d4 97 63 bd 71 fd f9 3a
       -0.003037587 -0.06068002 -0.055564716 0.0019072724
000080 87 eb a3 3d 7d 57 b1 3c 92 fd 39 bd da 76 a4 3c
       0.08003908 0.021648163 -0.04540784 0.020076204
000090 f1 8c fd bc 75 68 a0 3c fe 6f b2 3d c4 c8 ad bd
       -0.030950995 0.019581059 0.08712767 -0.08485559
0000a0 30 31 f0 bc 25 2f 44 bd 3c 8d cb 3d c6 3f a3 bd
       -0.02932033 -0.047896523 0.09939048 -0.07971148
0000b0 df f5 6b bc 92 6a b9 bd 0d c3 95 bd 8d 47 09 bd
       -0.014401882 -0.0905353 -0.073125936 -0.0335155
0000c0 68 9e a9 3c 48 0a 8d bd 47 1c 2b bc 3b e6 40 bd
       0.020705417 -0.068867266 -0.010443754 -0.047094565
0000d0 51 1b bd 3d fa ab 8f bd 9f 8a 9b bd f7 57 1f bc
       0.09233726 -0.07015224 -0.07594799 -0.009725562
0000e0 00 95 9d bd c2 01 05 bd b6 af 01 3d 97 7d 97 bd
       -0.07694435 -0.03247238 0.03166171 -0.07397001
0000f0 c0 a4 03 bd 94 4e 92 3d c5 df bf 3d 71 42 b7 3d
       -0.03213954 0.07143894 0.093688525 0.089482196
000100 c3 a2 a1 3d 02 7f c7 3d 6e b0 9e bc c0 2b 31 bd
       0.078923725 0.09741022 -0.019371238 -0.043254614
000110 4f 75 c6 bc b1 b2 b5 3c 20 c1 9d 3c 3c 0c 7a bd
       -0.024225859 0.022179933 0.019257128 -0.061046824
000120 ad bd ca 3d 6c 3a 98 bc 2b 03 9e 3d ea 3a ba 3c
       0.09899459 -0.018582545 0.07715448 0.02273317
000130 cc 44 46 3d ab c3 88 3c 91 2c 55 3d a8 e1 7d bd
       0.048405454 0.016694864 0.052044455 -0.06198278
000140 b7 1b 55 3d 1e 5e 8c bd c6 2a 53 3d 22 a7 46 bd
       0.052028384 -0.06853889 0.051554464 -0.048499234
000150 14 98 24 3d 3e 9b a2 bd e3 09 6b bd 39 60 ca 3d
       0.040184096 -0.07939766 -0.057382476 0.09881634
000160 bd 26 b8 3d b0 b2 b7 bd 96 61 4c bd a3 a7 c6 bd
       0.08991764 -0.08969629 -0.049897753 -0.09699943
000170 8e a0 2f 3c f7 f3 e0 bc 5d 53 87 3a 6b 1e 14 3d
       0.010719432 -0.027460082 0.0010324527 0.03616182
000180 98 e1 4a 3d 8a a8 1f 3d b3 2d 1d 3d 5c 13 af bd
       0.04953155 0.03897909 0.03837366 -0.085486144
000190 6c fc 70 3c fa 0a b7 bd ce 94 d4 bc ed f3 0a bd
       0.01470862 -0.089376405 -0.025949862 -0.033924032
0001a0 dd eb 73 bd e9 ed ec 3b 3b 05 83 3d ff 35 f6 ba
       -0.05955111 0.0072305095 0.06397482 -0.0018784403
0001b0 80 13 3e bc 61 26 2d bd 92 82 46 bc 25 de a3 bd
       -0.011601329 -0.04227293 -0.012116091 -0.08001355
0001c0 62 0f c2 3d a3 39 cc 3c dd 6d 73 bd fe 31 87 3c
       0.0947559 0.024929827 -0.059430946 0.01650333
0001d0 c6 42 31 3d 1f 3b 04 3e 07 da d0 bc 60 19 90 bd
       0.04327657 0.12913178 -0.025494589 -0.0703609
0001e0 19 e6 c3 bc c6 ba 23 bd ba 11 9e 3d 12 e7 ed 3c
       -0.02391343 -0.039973043 0.07718225 0.029040847
0001f0 f8 31 de 3d 1e 83 09 bd d6 af a1 bd e6 35 13 3d
       0.108493745 -0.03357231 -0.07894866 0.035940073
000200 15 51 a1 3d c2 22 ce 3d 24 87 92 3c b2 4f 69 3c
       0.07876793 0.10065223 0.017886706 0.014240192
000210 8b 58 81 3d fb 6b 90 3d bc ab 08 be ba fe 06 bd
       0.06315716 0.07051846 -0.13346761 -0.03295777
000220 1a e4 98 3d fa 56 d3 bc 31 44 84 bd 52 8e 8e bd
       0.07465382 -0.02579831 -0.06458319 -0.06960739
000230 c3 f8 03 bd 81 7f 46 bc 4c a9 e7 3c 19 be 07 be
       -0.03221966 -0.01211536 0.02827897 -0.1325611
000240 8d 77 fc 3d 17 2f 25 3d 2c db cc 3d 49 90 17 bd
       0.1232749 0.04032811 0.10002741 -0.037002835
000250 e9 39 c0 3d 66 ec 36 3d c0 49 a8 bd 8a 42 93 3d
       0.093860455 0.04465904 -0.08217192 0.07190426
000260 b4 1c a8 3d df 87 4f bd e1 ae a7 3d 92 bb 26 bc
       0.082086 -0.050666686 0.081876524 -0.010176556
000270 c5 c6 3a bc f0 c6 e9 bc b4 ca 36 bd 63 6e aa 3d
       -0.011399929 -0.028537244 -0.044626907 0.08321836
000280 8d f7 51 bc c4 3e 07 bd ff d3 14 3d 04 45 8b bd
       -0.012815368 -0.033018842 0.036334988 -0.06800273
000290 04 73 97 bd 9c a4 1f bd f1 22 f4 3d 22 9d 49 bd
       -0.07394984 -0.038975343 0.11920727 -0.04922212
0002a0 44 ba 2c bd 97 62 2d bd 79 58 87 3d 6a 7a 60 3c
       -0.042169824 -0.04233035 0.06608672 0.013701061
0002b0 f8 04 79 bd 5b 96 2a bd 0b 04 4d bd 09 13 18 3d
       -0.060795754 -0.041647296 -0.050052684 0.03712753
0002c0 32 b2 30 bd b4 46 58 bd 32 38 8e 3d 6d a1 9b 3d
       -0.04313869 -0.052801803 0.06944312 0.07599149
0002d0 f9 3b cb bd 0a 5f 83 3d 53 e8 b2 3d 79 67 c2 3d
       -0.09923548 0.06414612 0.087357186 0.09492392
0002e0 45 ed 7e 3d e5 3c 8d bb db eb f0 bc 74 55 e0 bc
       0.062237997 -0.0043102377 -0.02940934 -0.027384497
0002f0 34 eb 5d bd c0 a4 e2 bc 13 bb 98 3d dc 05 ea 3d
       -0.054179385 -0.02766645 0.074575566 0.11426899
000300 cc 37 b5 3d 9d 9e 01 3d 16 9f f8 3c 6a 23 bf bb
       0.08848533 0.031645406 0.030349296 -0.005833079
000310 4c 25 c6 bd bd db 7c 3b 4c f6 ff 3c f2 e5 ee 3b
       -0.096750826 0.0038583123 0.031245373 0.007290595
000320 6c 5b 40 3d 81 7c 88 3d 7f 46 c8 3d 2c 63 60 3d
       0.046962187 0.06664372 0.09779071 0.054782078
000330 41 40 72 bd dd 0c 34 3d ec cb 46 ba ef 2d 9d bd
       -0.05914331 0.04395758 -0.00075834873 -0.07674777
000340 f7 62 1e 3d 2b 9e ac 3d 36 f7 08 bd be c6 b2 3d
       0.0386686 0.08428606 -0.033438884 0.08729313
000350 1c 1e ed bc e4 06 8b 3d 08 cb 91 3d 01 ae 83 3d
       -0.028945021 0.06788424 0.07118803 0.06429673
000360 3f 92 e9 bc 78 3b 79 bc dd 66 41 bd ad de 6c bc
       -0.028512118 -0.015211932 -0.04721724 -0.014457387
000370 ee e8 8a 3d 1b 2a 0d bd 14 ca b5 3d 87 3e ae 3d
       0.06782709 -0.034463983 0.08876434 0.0850802
000380 27 fe fd 3d b8 87 14 bd ba 63 5e 3d b2 64 df 3d
       0.12401991 -0.036262244 0.054294325 0.10907878
000390 fd c9 83 3d 80 97 bd 3b d8 f3 4e 3d 5e dd bb 3d
       0.064350106 0.0057858825 0.050525516 0.09173082
0003a0 9b 9e 01 3d 68 55 c7 b9 91 d5 cb bc a1 57 e6 3d
       0.0316454 -0.0003801987 -0.02488211 0.11247183
0003b0 cb a0 12 3d 89 40 1e bc b0 f1 34 3d 4b 7e c8 bd
       0.035797875 -0.009658941 0.044175804 -0.097897135
0003c0 c7 5a 9f 3d 10 9c 68 3d 18 38 a0 3c a8 d1 8b b8
       0.07780986 0.056789458 0.019557998 -6.667088e-05
0003d0 3a 13 82 3d 13 0a f2 3d a1 e6 ab 3d 6a 7f c3 3d
       0.063513234 0.11818328 0.08393598 0.09545787
0003e0 b1 46 8f 3d 24 12 b4 3d 47 45 f4 bc cf 13 5e bd
       0.06995905 0.087925225 -0.02981819 -0.05421811
0003f0 b4 db b7 3d 56 7b 19 3d ac 49 1b 3d a9 3e 17 3d
       0.08977452 0.037471138 0.037912056 0.03692499

layers.1.lin_self.bias f4 [96]
000000 0d b8 0b bd cb 72 10 3c 81 5f 70 3d 2f 93 14 3d
       -0.03411107 0.008816431 0.05868483 0.036273178
000010 f7 be ae bd fd e8 84 bd f6 ae 67 bd a7 9d b7 3d
       -0.085325174 -0.064897515 -0.05656334 0.08965617
000020 56 ce 27 3c f8 89 ad 3a 5c ec b0 3c db f5 b6 3c
       0.010242065 0.001323997 0.02159708 0.02233403
000030 e6 af 80 3d e8 97 a9 bd d9 26 10 3c ae 2d cf 3d
       0.0628355 -0.08280927 0.0087983245 0.101161346
000040 26 e8 58 3c 65 c2 e7 3d d5 d6 b7 3d 61 e2 27 3c
       0.013238942 0.11316375 0.08976523 0.010246844
000050 cf 01 ce 3d 0d 82 46 bc e3 47 ad 3d e3 dd 8b ba
       0.10058939 -0.012115967 0.08460977 -0.0010670986
000060 d8 3e c2 bd 7e 6a cf 3c a4 80 0a 3d 15 81 68 bd
       -0.09484643 0.025319334 0.033814088 -0.056763727
000070 39 9f 62 3d e2 28 81 bd 7d 4d aa bd d8 bd 68 bc
       0.055327628 -0.06306626 -0.08315561 -0.0142054185
000080 1d ef 02 3d a6 01 99 3d 04 0d 38 bc df 2a 89 bd
       0.031966317 0.074710175 -0.011233572 -0.0669763
000090 35 1e f8 3c 5c cb e4 3d c9 07 ea 3d 35 03 b2 3c
       0.030287841 0.111716 0.11427266 0.021730045
0000a0 ce 60 16 3b fc cb 91 bb e5 a9 e4 3d 9a 3d be 3c
       0.0022945884 -0.0044493657 0.11165217 0.023222733
0000b0 d3 9e e1 bb 8c 78 1d 3d 03 9d 83 bd d8 b2 1d 3c
       -0.0068853884 0.03844504 -0.06426432 0.009625159
0000c0 1a e4 88 bd 8e 12 6d 3d 67 a5 af 3d bd 0e 13 3d
       -0.06684132 0.057879023 0.0857647 0.035902727
0000d0 67 8e 71 bc 76 68 b5 3d 48 40 13 3d d5 4c 99 bd
       -0.014743424 0.08857815 0.035949975 -0.07485358
0000e0 6d 90 a2 bd c0 54 34 3d d4 72 c5 3d c6 60 d8 3d
       -0.07937703 0.044026136 0.09641042 0.10565333
0000f0 fd d0 11 3d aa ae ed bc bc 65 64 bd 32 b8 af 3c
       0.035599697 -0.02901395 -0.055761084 0.021450136
000100 c9 6b 96 3d 48 af 2a bc de 24 4b 3d 11 25 a1 3d
       0.07344777 -0.010417767 0.049595706 0.07868398
000110 eb b6 5e 3d ac 06 52 bb f6 7f e3 bb db 50 4f bd
       0.054373663 -0.0032047434 -0.0069427444 -0.05061422
000120 3c 35 54 3c 06 62 9e bd 01 71 b7 3d 8e 85 1b 3d
       0.012952145 -0.0773354 0.08957101 0.037969165
000130 ba 6b 60 3d e9 bd ae 3d ca df 29 bd b3 5c eb 3c
       0.054790236 0.08532316 -0.041473188 0.028730726
000140 51 83 de bc 56 e5 74 3d 53 e6 4a 3d 4c ed c6 3d
       -0.027162226 0.059789024 0.04953606 0.097132295
000150 bb 06 26 3c 0f 58 a6 3d 25 db 3b bd 10 47 2c bd
       0.010133441 0.081222646 -0.04586329 -0.042059958
000160 64 5b 96 bd d3 9f 96 3d 2f a5 88 bd 4a 9b 2b bd
       -0.0734165 0.07354703 -0.06672131 -0.041896142
000170 67 c4 9b bc c2 b4 a9 ba f3 23 c4 3d b6 a1 e1 3d
       -0.01901455 -0.0012947547 0.09577169 0.11017172

layers.1.lin_neigh.weight f4 [96, 96]
000000 f6 57 10 bd 66 24 26 3d a1 8c 93 bd c9 70 6d bd
       -0.035240136 0.040562056 -0.07204557 -0.05796889
000010 aa 37 97 bc 47 81 8b bc a3 d4 96 3d 82 95 bb bc
       -0.01845916 -0.017029418 0.07364776 -0.02289844
000020 7b cb e6 3c 08 c3 95 bd 64 75 d0 bc e0 cc c7 3c
       0.028173199 -0.0731259 -0.025446601 0.024389684
000030 34 a9 96 bc 1e f6 bf 3d fe 0d 4e 3c de bf d0 3d
       -0.01839123 0.09373115 0.012576578 0.10192846
000040 c8 43 79 3d 3f 73 42 3d b7 95 b3 bd 5b cf be 3d
       0.060855657 0.04747319 -0.0876879 0.09316894
000050 0c 25 76 bd 6c bc e1 3d 96 64 a9 3d f9 f7 18 bd
       -0.060093924 0.11022267 0.08271138 -0.03734586
000060 91 db d7 3c 7f 61 83 3d d3 bc a8 bd d6 f7 bf 3c
       0.026349815 0.0641508 -0.0823914 0.023433607
000070 04 3b 0d 3b 29 46 10 3d 8a 95 bb 3d 13 70 31 bd
       0.0021550069 0.03522316 0.09159382 -0.043319773
000080 a5 24 b7 bd e2 34 6e bd 28 84 81 3c 13 d5 75 bc
       -0.08942536 -0.0581559 0.015810087 -0.015004414
000090 f2 cb 59 bd 37 5f 1a bd af bd 8f 3d c5 bc 46 bd
       -0.053173013 -0.03768846 0.07018601 -0.04851987
0000a0 71 ed 8d 3d 17 7e 6d 3d 19 38 af bc ca c8 03 bc
       0.06930054 0.057981577 -0.021389054 -0.008043477
0000b0 6e cc 05 3d bf f4 80 3d 1c 52 76 3b 77 81 1e bd
       0.032665662 0.062966816 0.0037585562 -0.038697686
0000c0 22 3b c1 3d ef 1b c1 bb b0 c5 0b 3d 35 c3 dc 3d
       0.09435107 -0.0058932225 0.034124076 0.1077942
0000d0 24 cb fc 3c 44 7f c7 3d 84 b9 3a bc 60 0a 59 bd
       0.030858584 0.09741071 -0.011396769 -0.05298841
0000e0 db 13 3a 3d d0 24 d3 3d c7 f3 cf 3d 0e 37 ed 3d
       0.045429092 0.10309756 0.10153919 0.115827665
0000f0 e0 e1 16 3d 24 17 a2 bd f9 aa c9 3d c4 54 d9 3d
       0.036836505 -0.0791457 0.098470636 0.10611871
000100 07 ac aa bd fd f2 fb 3b 5f 40 26 3d 77 4c 78 3b
       -0.08333593 0.0076888786 0.040588733 0.0037887373
000110 4f 6d 65 3d 7a fd ac bc 62 19 1c bd f7 fe 9e bd
       0.056012448 -0.02111696 -0.038110144 -0.077634744
000120 5f 1b 8f bc e7 b1 3f bd 71 1b 57 bd f2 97 9a 3d
       -0.017469106 -0.04680052 -0.052516405 0.075485125
000130 8a 07 61 bb 0a 12 92 bd 22 90 9f bd 76 5f 01 3d
       -0.003433677 -0.07132347 -0.07791163 0.03158518
000140 a7 27 01 bd e6 01 f8 3d ce 7b 28 3d 75 4c 5a bd
       -0.031531956 0.12109737 0.041133694 -0.05329557
000150 04 78 7c bd e8 ef 19 bd 3b e7 af bd a7 c8 95 3d
       -0.061637893 -0.037582308 -0.085890256 0.07313662
000160 55 3b 8c bd b9 39 5f 3d 81 90 5e bd 99 2c 2a 3d
       -0.06847254 0.054498408 -0.05433703 0.041546438
000170 c9 7c b5 3c 6c b4 3f 3d 6d 42 65 3d 5c 5c ae 3d
       0.022154229 0.046802923 0.05597155 0.0851371
000180 35 ab c9 3d 57 fb 1c 3e 15 e1 d7 bb 8d f6 28 bd
       0.09847108 0.15330254 -0.006588111 -0.041250754
000190 16 fb 90 bd ef a0 40 bc 5a a0 9a 3c 8c 67 39 bd
       -0.07079141 -0.01175712 0.01887529 -0.045264766
0001a0 3a 79 a3 bd e4 82 ed 3b 3b 7c f9 3d b8 c4 f2 3d
       -0.079821065 0.0072482694 0.12181898 0.118539274
0001b0 3c 6a 9c bc a8 f7 e9 3d eb 9c 92 bd e6 b8 33 ba
       -0.019093625 0.1142419 -0.07158836 -0.000685586
0001c0 de 7c 92 bd 48 7f dd 3d 10 b7 86 bd 3e 4a 3a 3d
       -0.07152723 0.108152926 -0.06577885 0.04548096
0001d0 6d 62 52 bd 02 9b d8 3d de a3 7b bd d3 2b 84 3d
       -0.051363397 0.105764404 -0.061435573 0.06453671
0001e0 5e ba 86 bd 66 84 5a bd 19 13 96 3d 3b a2 f0 3d
       -0.065785155 -0.05334892 0.07327861 0.11749693
0001f0 44 85 ae 3c c6 ab f0 3d 2b 31 c9 3d d1 27 cb 3d
       0.02130378 0.11751513 0.09823831 0.09919704
000200 7a 98 bf 3d ea 24 3e bb 44 8a 14 3d d5 e5 55 bd
       0.093552545 -0.0029013702 0.036264673 -0.052221138
000210 f3 bc 27 3d 0a c5 aa 3d a2 66 9f bc ab 05 8a bd
       0.04095168 0.083383635 -0.019458119 -0.06739362
000220 05 4b 2b bd eb 68 99 3d 33 ba 49 bd 2d 1e d8 3d
       -0.04181959 0.07490715 -0.04924984 0.105526306
000230 6e 5d 90 bc d0 d0 5a bc 84 44 4b 3c ec fa 9e bd
       -0.017622676 -0.013355449 0.012406472 -0.07762703
000240 dc cf 56 bd b0 bb c1 3c 24 e9 02 bd bb 2e a4 3d
       -0.052444324 0.023649067 -0.03196062 0.08016726
000250 82 2a 40 3c d4 7f 9c 3c bd 14 97 3d 90 50 d5 3d
       0.011728885 0.019103922 0.073770024 0.10415757
000260 c8 10 17 bd eb c3 17 bc d0 d4 7a bc 84 ca d6 3d
       -0.03688124 -0.009263019 -0.0153095275 0.104878455
000270 97 72 76 3c c4 63 3e bb e3 42 85 bc 5c 25 4a b9
       0.015041969 -0.0029051164 -0.016267246 -0.00019278139
000280 6d 4c a3 bd 9c d9 85 bd 89 b6 dc bc c2 03 ed 3c
       -0.079735614 -0.06535646 -0.026942508 0.028932456
000290 90 42 b1 bd 51 4e 8a bd f9 bd 36 bc 3f f2 8f 3d
       -0.08655274 -0.06753219 -0.011153691 0.07028627
0002a0 f7 67 bd 3d 17 e9 dd 3d 2b 26 e5 3c 58 39 02 3e
       0.09248345 0.10835474 0.027972301 0.12717187
0002b0 29 bb e2 3d cd 06 ab bb 99 c2 f1 bc 64 58 f1 b9
       0.11070854 -0.0052193166 -0.029511737 -0.00046032958
0002c0 e9 94 be 3d d2 b4 bf bc 50 91 12 bd 12 ee d6 3b
       0.09305746 -0.023401652 -0.035783112 0.006559142
0002d0 86 a6 a8 3d 34 5d 87 3d 44 1f de 3d 7c 57 79 3d
       0.08234887 0.06609574 0.10845807 0.060874447
0002e0 f6 0c 24 bc 09 e0 b8 bd b6 43 b6 3d b3 d0 3f bd
       -0.010012856 -0.09027106 0.088996336 -0.04682989
0002f0 36 47 84 bd 62 bc f8 39 5b 7b cd 3c e4 ca 61 bd
       -0.06458895 0.00047442602 0.025083235 -0.055125132
000300 0b a7 c3 3d 0f 7b e7 3d b2 21 93 3b 1e f6 06 3c
       0.09553345 0.113027684 0.004490101 0.00823739
000310 64 8a 92 bd a5 5f af 3d 08 53 b1 3d 3f 3f b9 bd
       -0.07155302 0.085631646 0.08658415 -0.09045266
000320 96 1d f1 bc f9 e4 03 3d 01 39 69 bd 2a db 41 bd
       -0.029433053 0.032200787 -0.05693913 -0.04732815
000330 79 3a 62 3d cd dd 74 3c 80 30 1b be fb 7f d0 3d
       0.055231545 0.01494546 -0.1515522 0.1018066
000340 0e e3 1e bd 4b 05 9a bd 49 73 0f 3d bb d7 51 bd
       -0.038790755 -0.07520541 0.035022054 -0.051231127
000350 30 e5 03 3e 5a 60 ab 3c 08 41 1d bc 74 eb 79 3d
       0.12880397 0.020919967 -0.009598024 0.06101556
000360 71 d0 b6 bc f6 26 a0 bd ec 47 99 3d 75 a4 fb 3d
       -0.02231619 -0.07819931 0.07484421 0.12287227
000370 f0 2b 89 bd d2 51 f3 3d 29 19 6e bd ec 28 a2 3d
       -0.066978335 0.1188084 -0.058129463 0.079179615
000380 ff bb 39 bd a9 bc 25 3c 05 4f f7 bc 5c 9f e7 3d
       -0.045345303 0.010115781 -0.030189047 0.11309692
000390 1e 60 97 3d 01 cb 0b 3d d6 58 38 3d 4b 16 54 bd
       0.0739138 0.034129146 0.045006596 -0.051779073
0003a0 0b c4 4d bd d8 8a e0 3d d3 e2 c6 3d 33 93 78 3d
       -0.05023579 0.10963982 0.09711232 0.060687255
0003b0 24 8b d3 bb 89 34 17 bd 17 9e 0a 3e 71 6a 2b bd
       -0.006455796 -0.036915336 0.13536869 -0.041849557
0003c0 13 fc 7e bd ae 4d e0 3d 05 32 ab ba e8 bb a9 bd
       -0.062252115 0.10952316 -0.0013061172 -0.082877934
0003d0 a7 74 ef bc 75 0d 5a bd 8d 71 80 3b 84 d8 9a 3c
       -0.029230429 -0.05323549 0.0039197863 0.01890207
0003e0 7c 6e 50 3c 2a 72 b6 3d a3 bb 54 bd 21 fe fd 3d
       0.012721654 0.08908494 -0.051936757 0.12401987
0003f0 54 c4 57 bd 65 5b 6d bd b4 f5 02 3d 65 8f e4 3d
       -0.052677467 -0.05794849 0.031972602 0.11160163
