outputs/models/nowcast_routenet_seed123.pt (torch, 495552 bytes, 20 tensors)

in_lin.weight f4 [96, 15]
00000000: 98a7 bbbd 1530 a73c 48fc ecbd c5aa df3d
00000010: 9847 61be 4ad0 413e 823d 33be e13f 50be
00000020: 68ac 1abe c035 093e a928 aabd f6ca c93d
00000030: f577 5fbe 62ec 11be bfd4 a6bd 2654 7abd
00000040: d1a5 32be 4484 223e 70fc 1cbd 4abc a93d
00000050: 37f7 3a3e 896a 393d 0f82 d83d 9216 8f3e
00000060: 0e1c c1bd 7b9a ce3d af5b a3bd 5b8b 5c3e
00000070: aec3 433e 1a33 88be c394 613e 6307 d73d
00000080: a632 e63d 0b46 b43d b8ca 5b3e 8aa4 0bbd
00000090: bb57 64be 0e5a f2bd 8e8a 45be 60dc fb3c
000000a0: 56c8 64bd 0b20 3bbe 125b 2bbd 864a 7e3e
000000b0: 9842 193c 36b9 7b3c 8f31 89bd b18f 433d
000000c0: 7634 503e 12ad 213e 58b3 bb3d 48fd 273d
000000d0: 0f4f 423c 5e51 a53d 0a05 c9bc 8be3 57be
000000e0: 57b4 55be 188b 363e 6e40 d13c 7f40 4ebe
000000f0: 9f52 fe3c a0ac 5b3e 0c77 80be 50c5 30be
00000100: 7299 d2bd 86cb 293c aafa 71bd a9d3 1e3c
00000110: e6fd 74be c240 ff3d 1c55 663e 1a97 483e
00000120: 8584 26be f3f5 5dbe edf1 8c3d c348 58bc
00000130: 9354 023e e06c 8cbe d0be c43b a076 3a3e
00000140: f54f f53d d4dc fa3c 7ea1 773c 1ca0 68bb
00000150: fa43 d9bd e432 76bd 6886 45be f965 653e
00000160: faaf f93d 1847 e13d 6b58 4fbe cdaa 403e
00000170: d8b2 9c3d 5c96 2b3e 7105 d0bd 4a34 603d
00000180: a1ff 793e 8084 643e ad43 6e3e 7678 1cbd
00000190: 6a67 513e aa69 1cbe 7960 143d 085e 27be
000001a0: 2616 a7bd 4e1c 25bd 49c5 0d3d a180 853e
000001b0: b384 123e 6c5d 8fba 1aae 3b3e 1ea3 ddbd
000001c0: 6f4e f73d 150d e83a 4194 d5bb 3468 a03d
000001d0: 5a29 57be 22e3 003d 5f9d 9c3d 8707 713e
000001e0: 6af8 b7bd 3507 b83d 12a6 7e3e 7921 e9bd
000001f0: 1f55 7b3e 3545 03be 4eb1 e23d f7cb 273e
00000200: bffd d33d 4eef 633e 3d39 c3bd 40b5 053e
00000210: f671 c83c ac72 62be 69c7 a3bd 2ae3 41be
00000220: c188 c33d 73b0 fd3b 763c d93b 786b a0bd
00000230: e0bb a23a 7cc9 cabd cf02 ee3d b762 873e
00000240: 4e68 283d 9611 f8bd f6ed ecbd f432 c13c
00000250: 698a 54be 3ce2 4ebe b162 48be 61b9 9bbd
00000260: 09e2 e7bb 7906 423e 5ad2 cc3d f88e 4a3e
00000270: 103f 1abe e496 923d 0f41 54be 9aa0 1d3e
00000280: 6002 5c3d ec5a 993e 4be1 1abe 7c7b 373e
00000290: 1060 4a3e 6242 543e b6f6 b13c 11dc 6e3e
000002a0: 630b 213e 9842 453e 2567 89bc 9ef6 50be
000002b0: 5c0b 24bd 352d 2b3d 9ad0 2fbe e038 19be
000002c0: e99a 91be b1e9 e1bd 2f40 583e 32f8 6f3d
000002d0: 5363 35bc 3d48 63bb fdad 293e edb2 76be
000002e0: 4501 4cbe b6ce afbd ab65 13be a855 f43d
000002f0: f29c 2c3e 155d 87be 7e97 6ebe a2d6 87be
00000300: bfcd e23d ee6f 473e bc72 4abe bcb0 ffbd
00000310: 42e2 c93d 50a6 34be a161 713e 5696 763d
00000320: f334 93bd 9865 083d ac45 763d 2063 a1bd
00000330: 00f3 2dbe 3ce3 343d 815e 80bc 6392 a53b
00000340: 36c0 31bd 2407 323e 1d6a 6bbd 45c1 67bd
00000350: e146 f73d adca 46be a396 8d3d 1fd9 69bd
00000360: b725 0d3e e1b3 2fbe 978e b4bc fe37 cfbb
00000370: c212 75be 4098 60be b34a 0c3e 4e84 dbbd
00000380: 08eb 1a3e 1583 81be a611 03be 338f 57be
00000390: eb72 d23d 3249 f5bb 0643 45bd 39ba 2ebd
000003a0: e5df 4ebe 8379 953d 72f6 dc3b 5d53 34be
000003b0: 767d c63d cf4c cb3c 0e42 7fbe 6199 f13d
000003c0: cefb 123e 36d8 7abd 8822 31be 4b17 12bb
000003d0: f381 473e 0a03 723e a250 54be e3b6 b5bd
000003e0: 9c2f 613e 4567 103e 5350 2c3e 0514 cebd
000003f0: 59eb 703e db82 51be c01e 0fbd e478 39bc
-0.09162825 0.02040867 -0.11571556 0.109212436 -0.21999967 0.18927112 -0.17503932 -0.20336868
-0.1510483 0.1339941 -0.083085366 0.09853165 -0.21823104 -0.14250329 -0.08146047 -0.061115406
-0.17446066 0.15870768 -0.03832668 0.082878664 0.18258367 0.045267615 0.10571682 0.27946907
-0.09429179 0.100880586 -0.07976472 0.21537535 0.19117615 -0.26601487 0.22029404 0.10499456
0.11240129 0.08802422 0.2146405 -0.034092464 -0.22299092 -0.11833583 -0.19291136 0.030744731
-0.055855118 -0.18273942 -0.0418349 0.24833116 0.009354256 0.015363982 -0.06698906 0.047744457
0.20332512 0.15788677 0.091650665 0.041013032 0.011859669 0.0807216 -0.024538536 -0.21082895
-0.20869575 0.17826498 0.025543418 -0.20141791 0.031045256 0.2145257 -0.25090826 -0.17262769
-0.102831736 0.010363465 -0.059076943 0.009694018 -0.2392498 0.124635234 0.22493404 0.1958889
-0.1626149 -0.21675853 0.06882081 -0.0132009415 0.12727575 -0.27426815 0.006004192 0.18209314
0.11978141 0.030622877 0.015114186 -0.0035495823 -0.106086686 -0.060107127 -0.19289553 0.2240218
0.12191768 0.10999888 -0.20248573 0.18815155 0.07651299 0.16756576 -0.10157288 0.054737367
0.24413921 0.2231617 0.23268004 -0.038200818 0.20449606 -0.15274683 0.036224816 -0.16344464
-0.08158521 -0.040310197 0.034611974 0.260747 0.14308433 -0.0010937876 0.18328133 -0.10822128
0.12075507 0.0017704094 -0.0065179174 0.07832375 -0.21011868 0.03146661 0.07647204 0.23538028
-0.08982928 0.0898575 0.24868038 -0.113833375 0.2454419 -0.12819369 0.110689744 0.163864
0.103511326 0.22259256 -0.09532402 0.13057423 0.024468403 -0.22114056 -0.07997019 -0.18934312
0.09547568 0.0077419817 0.006629522 -0.07832998 0.001241561 -0.09901711 0.116216294 0.264425
0.041115098 -0.12112729 -0.11568825 0.023583867 -0.20755924 -0.20203489 -0.19568898 -0.076037176
-0.007076506 0.18947782 0.10001059 0.19781101 -0.15063119 0.07157686 -0.20727943 0.15393296
0.053713202 0.2995218 -0.15125005 0.179182 0.19763207 0.20728448 0.021724086 0.23326136
0.15727 0.19263685 -0.016772816 -0.20406577 -0.040049896 0.04179116 -0.17169419 -0.14963102
-0.284385 -0.11030901 0.21118234 0.058586307 -0.011071044 -0.0034680509 0.16570278 -0.24091692
-0.1992236 -0.08584349 -0.14394252 0.119304 0.16856745 -0.26438203 -0.23299977 -0.2653094
0.11074399 0.19476292 -0.1977033 -0.12484881 0.098576084 -0.17641568 0.23572399 0.060201965
-0.07187834 0.033300012 0.060125038 -0.07880235 -0.16987228 0.04416202 -0.015670063 0.005052851
-0.043396197 0.17385536 -0.057474244 -0.0565808 0.12074066 -0.19413252 0.06913497 -0.05709183
0.13783918 -0.17158462 -0.022040648 -0.0063238135 -0.23932937 -0.21933079 0.1370037 -0.107185945
0.1512872 -0.2529532 -0.12799701 -0.2105072 0.10275825 -0.007485532 -0.04815962 -0.042658065
-0.20202596 0.07298567 0.0067432458 -0.17609926 0.096918985 0.024816899 -0.24927542 0.11796833
0.14353868 -0.06124135 -0.17298329 -0.0022291716 0.19483165 0.23633972 -0.20733884 -0.088727735
0.21990818 0.14101894 0.16827516 -0.10062412 0.23527278 -0.20460074 -0.034941435 -0.0113203265

in_lin.bias f4 [96]
00000000: 10a6 7fbe b46a 76be 2e68 1abe e96c 043e
00000010: 6dcf 31be 77e5 563e e88b a43c cbf7 073e
00000020: d4d3 1a3e dc23 573e 94ed 2f3e 0b89 843e
00000030: 1fd2 21bd 4d52 0bbe 5cda f33d 5dd9 523e
00000040: 20af afbd f303 873e 3215 783e 301f 093e
00000050: e979 763e 8399 353d 185b 213e 9314 81be
00000060: 1dcd a33d e55d d03d bceb bc3d fd40 9a3d
00000070: 1f4d b2bd 8ac5 4b3e b008 853e 8ee1 2dbe
00000080: b24a 24bd 0782 813d de29 d13d 5e88 fdbd
00000090: 35f8 eabb 2787 7cbe 9992 4abe 3454 533e
000000a0: b6da 553e 53a9 1a3e bbbd b7bc 7a7f 383e
000000b0: b190 8bbd df5c c03d 8010 563e 1c31 423e
000000c0: a0f5 4e3d fe17 ffbc f663 903c 453e 043e
000000d0: 4136 493e 8241 76be 7baa 1c3c 5de9 54be
000000e0: 7c7e a3bd 6164 b23d ba78 29be 840a 9cbd
000000f0: c707 55be 3c48 e53d 3e74 a93d 955e c83c
00000100: 1b1b fb3d 5441 f63d 5cfb 0abd 7429 3b3e
00000110: 06be 7bbe 0401 62be 4556 2ebe 1e28 1d3d
00000120: 1c7f 56be 359a 4b3d 94b9 713c 880e 69be
00000130: 4428 8e3e dd10 23bd 6e55 3a3e 7d91 763e
00000140: d985 b0bd 26bc 4ebd ee4c 8f3e b889 583d
00000150: c856 643e c833 b43d ff83 123e 9468 44be
00000160: 3b01 f4bc 56df 5a3e dace 4e3c e683 50be
00000170: a36c 463d a417 0d3d 99c1 c8bc 7ded f53d
-0.24965692 -0.24064142 -0.15078804 0.12932171 -0.17364283 0.20985971 0.020086244 0.1327812
0.15119869 0.21009773 0.17180473 0.25885805 -0.039507028 -0.13605614 0.11906883 0.2059073
-0.08578324 0.263702 0.24226835 0.13390803 0.24069943 0.044335853 0.15757406 -0.2521101
0.07998107 0.10174159 0.0922465 0.07531927 -0.08706116 0.19899574 0.2598319 -0.16980574
-0.040110298 0.06323629 0.10213064 -0.123795256 -0.007170702 -0.24660932 -0.19782485 0.2063759
0.20884213 0.15103655 -0.022429338 0.18017378 -0.06814707 0.09392714 0.20904732 0.18964046
0.050527215 -0.03113937 0.01762579 0.12914379 0.19649602 -0.24048427 0.00956213 -0.20792146
-0.07983109 0.08710552 -0.1654996 -0.07619193 -0.20803748 0.11195418 0.082741246 0.024459163
0.12261029 0.12024179 -0.03393112 0.18277532 -0.24584207 -0.220707 -0.17025097 0.038368337
-0.20946926 0.04970761 0.014753718 -0.2275945 0.27765095 -0.039811004 0.18196651 0.24078937
-0.086192794 -0.0504724 0.2798838 0.052865714 0.2229873 0.08798939 0.14308165 -0.19180518
-0.029785743 0.21374258 0.012622559 -0.20362815 0.048443448 0.034446374 -0.024506377 0.12008188

layers.0.q.weight f4 [96, 96]
00000000: 9f87 2a3d 4c9e 5fbd 47af b8bc ded4 9cbd
00000010: 4a73 163d c088 8fbd ff4d 81bd 67da 8dbc
00000020: faff 473d 7e73 743d 81de cebd 5fe9 e9bd
00000030: 86e7 893d 5c46 7bbd d085 e0bd 546d 91bc
00000040: 85dd 6b3d 9021 d3bc d02b 443c 8bad e5bd
00000050: a86f 873d 6916 453d 4a18 603d 4c4f 403d
00000060: 9ba7 7dbd a5af cfbd 833f 08bc 650c 363d
00000070: ef41 7abd f8a3 da3b 4984 b4bc 714c c4bc
00000080: 0e65 d03c 0664 8f3d 8102 be3b c946 693b
00000090: ccba 3a3b 6895 663c 8164 36bd 4492 d2bc
000000a0: 64cc 373c b24a b4bd 9407 dbbb 2984 e1bd
000000b0: deda dabd 3c62 8dbc b808 f2ba 536d 873b
000000c0: 63ff 64bd 2c2c 9dbc 3ece e2bc 4f98 a5bc
000000d0: e1bf a6bd a4ea 7e3c 27ee 383c 17d6 cbbb
000000e0: c692 62bc 5984 0c3d 3a24 6e3d 6c66 65bc
000000f0: ab88 c1bd 6551 b9bd 1131 7ebc c387 c6bd
00000100: 5777 a8bd a540 23bd 123d 56bd 8b1c c7bc
00000110: 78b9 a63c 8b17 833d e937 b93d e8fe 92bd
00000120: a406 ccbd c743 5e3d 8ba5 ac3d dc60 ca3d
00000130: 358d 443c c9a7 6c3d 72cd 85bc 3032 bfbd
00000140: c8e9 c0bd 356d 9cbd 2399 c5ba 9902 19bd
00000150: 0b02 953c 6dcc ab3c 7b42 9bbd 067b a1bb
00000160: 7f46 ab3d 6f1c 4e3d 6d19 debc 7e87 d5bc
00000170: b048 55bd 20ef 8d3c b882 8fbd f283 c23d
00000180: e5e6 923a 5b6f 7bbd 3481 39bd 5b31 edbc
00000190: 36a9 89bd c90b b4bc 6770 a6bd edd4 453d
000001a0: 9a20 56bc d19d 203d 2c33 11bd f6c6 dfbc
000001b0: 0b63 2abd 796c 543c 9e4f 80bd 8368 a1bd
000001c0: 686b 1a3d d820 89bd 39d6 c33d b797 bd3d
000001d0: 334c 9b3d 596d b33d d7d2 3dbd 516b be3c
000001e0: 7b5b 1f3d fdef d93d 8d44 acbd e83a 7dbc
000001f0: 02b4 8d3d f85a 953d 92cb abbd 545e e13d
00000200: ad5f 8a3d 37e5 c23d 966d c7bc 17ec 3dbd
00000210: 3b89 393d d687 a63d f314 ca3d 1463 58bd
00000220: d59e 9a3d 4d53 dfbb 425e fbbc 0bc6 923d
00000230: 6735 7f3d 9ada 293d a166 4dbd ae7c e23d
00000240: fd0f 91b8 57d0 543c 54ae 6bbc 3e5b 8abd
00000250: de84 bfba 0d29 e43c 5449 d13c 9a5d 83bc
00000260: 7247 9f3d 7da7 113b 8c6b 8abd beeb dbbc
00000270: fb23 33bc 800c af3d 9741 be3d b260 243d
00000280: aafc d63d 2fa1 e93d 7277 113d 75b3 a73d
00000290: 2199 4b3d bf07 af3c 5347 da3d ffd6 a3bb
000002a0: 26b4 a3bd a432 99bd 7f71 8b3d b683 92bd
000002b0: 7e94 663d de1e 303c d730 a9bd 9a3f 48bc
000002c0: 04e6 3c3d 564e ae3c a6b0 5e3d b5c7 efbc
000002d0: 714f 15bd 8e8c 9f3b 9d41 97bd 5bf6 9abb
000002e0: 5411 c73c 7403 703d 3988 9bbc 167b 8e3d
000002f0: 481d 573c 7504 12bc b6c5 aabc e24b a13d
00000300: bbac 933b bd71 5cbd 3f4a 5dbd f2d7 63ba
00000310: 20f3 f43c 8e98 7dbd 76d3 b2bd b908 403d
00000320: 9334 123d 2dcb 67bd addd 4cbd 4005 b13d
00000330: 99ce 8ebd 67b1 a23d 7bc1 73bd ded3 1c3d
00000340: 47ec 14bb 3ded 393d a16a 343d 0b2c 1dbd
00000350: 57b4 abbd 62d9 333b 684d 963c 3d4c 97bb
00000360: 29a3 2f3d 0f14 dd3d d92a 38bd 9b32 223d
00000370: 2a8a 143d 4b17 833d bb09 1dbd 1ce9 bcbd
00000380: 2ccd 75bd d8b0 d33b d173 d0bd d210 b93d
00000390: c0ed b43d 6df5 ea3c af41 9abd 5b22 bdbd
000003a0: f95f 743d 677a 88bd 872c 2d3d 490a c93d
000003b0: 10d3 58bd 93c4 313d e37c 8cbb 7c41 253d
000003c0: fdd9 623d f6f0 0fbb 01ac ba3c ddb7 5ebc
000003d0: 9c71 093d c460 013d 7e22 893d c0d9 af3d
000003e0: d65c 093d ff13 ad3d 4930 cfbd 11b9 21bd
000003f0: 6f8a b4bd 3c12 11bd 504b 9e3d 7405 b0bd
0.041633245 -0.054594323 -0.022544516 -0.07657789 0.036731042 -0.07008505 -0.06313705 -0.017316056
0.048828103 0.059680454 -0.10101033 -0.11421465 0.06733613 -0.061346397 -0.10963023 -0.017752327
0.057584304 -0.02577284 0.011973336 -0.11214741 0.066130936 0.048117075 0.054710664 0.046950623
-0.06192742 -0.101409234 -0.008315924 0.044445414 -0.061098035 0.0066723786 -0.022035735 -0.023962231
0.025438812 0.070015 0.0057986383 0.003559517 0.0028492687 0.014073707 -0.04452944 -0.02570451
0.011218164 -0.088033095 -0.006684253 -0.11011536 -0.10686277 -0.017258756 -0.0018465733 0.0041329055
-0.05590762 -0.019186102 -0.027686235 -0.020214228 -0.08142067 0.015558872 0.011287249 -0.00622059
-0.013828939 0.034305904 0.058140017 -0.01400147 -0.094498955 -0.09048728 -0.015514628 -0.09693863
-0.08225887 -0.03985657 -0.052304335 -0.024305603 0.02035211 0.06400975 0.09043867 -0.07177526
-0.09962204 0.054263856 0.08430012 0.09881756 0.011996557 0.0577772 -0.016333316 -0.093357444
-0.0941959 -0.07638017 -0.0015075546 -0.037355993 0.01818945 0.020971501 -0.075810395 -0.0049279956
0.083630554 0.050320085 -0.027111733 -0.026065584 -0.052071273 0.017325938 -0.070073545 0.09497823
0.0011207728 -0.061385494 -0.045289233 -0.028954199 -0.067217276 -0.021978276 -0.08126908 0.048298765
-0.013069296 0.039213005 -0.035449192 -0.027316552 -0.04159836 0.012965315 -0.06265186 -0.07881262
0.037700087 -0.066957176 0.09562344 0.09257453 0.07582893 0.08761091 -0.04634365 0.023244532
0.038905602 0.10641477 -0.084115125 -0.015455939 0.069190994 0.072927415 -0.08388437 0.1100432
0.0675653 0.095163755 -0.024344247 -0.04636773 0.04529689 0.081313774 0.09867277 -0.052828863
0.07549826 -0.00681535 -0.030684594 0.0716668 0.062306788 0.04146824 -0.050146703 0.11058937
-6.917117e-05 0.012989125 -0.014384825 -0.06755684 -0.0014611741 0.027851606 0.02554766 -0.016035844
0.07777299 0.0022225075 -0.06758794 -0.02684581 -0.010933871 0.08547306 0.09289854 0.04013128
0.104974106 0.114076965 0.035514303 0.081885256 0.049706582 0.021365998 0.10658135 -0.0049999948
-0.07993345 -0.07480362 0.06808757 -0.07154028 0.056293957 0.010749547 -0.082612686 -0.012222195
0.046117797 0.021277588 0.054367684 -0.029270032 -0.036452714 0.0048690503 -0.073855616 -0.004729075
0.024300255 0.058597043 -0.018985854 0.069570705 0.01312954 -0.008912195 -0.020846229 0.078758016
0.004506675 -0.053819407 -0.054025885 -0.0008691541 0.029901087 -0.061913066 -0.08731739 0.04688332
0.03569467 -0.056590248 -0.050016094 0.086435795 -0.06972999 0.07943993 -0.05951069 0.03828799
-0.002272384 0.045392264 0.044047 -0.03837208 -0.083840065 0.0027442803 0.018347457 -0.0046172426
0.04288021 0.107948415 -0.044962738 0.039599042 0.036264576 0.06400927 -0.038339358 -0.092241496
-0.06001012 0.0064602904 -0.1017834 0.09036411 0.0883441 0.028681481 -0.075320594 -0.092350684
0.05966184 -0.066639714 0.042278793 0.09816415 -0.05293566 0.04340036 -0.0042873486 0.040345654
0.05538367 -0.0021963692 0.022787096 -0.013593641 0.033555612 0.031586424 0.06696032 0.085864544
0.0335358 0.084510796 -0.101166315 -0.039483134 -0.088154666 -0.03541778 0.077292085 -0.0859479

layers.0.k.weight f4 [96, 96]
00000000: 1a78 b03d c79e 2abd 5fbd 59bc 7952 dabc
00000010: 1aec eabc f1f1 5cbc 20dc 083d c657 c3bc
00000020: 194f d33c dd94 c8bc 8dbc 7b3d f0f0 a03c
00000030: f424 9cbd d112 ba3c 89c1 ca3c 9942 903c
00000040: 2642 8abd 36fd bebd 79af 7cbc 6141 8f3d
00000050: 481c 9f3d 5d92 b1bd f88b 1bbd c338 473c
00000060: ff1d 73bc fc2a 143c 24bd 8fbd b53d 673d
00000070: ab57 cfbd 6173 0ebd a1b9 c8bd 8aa1 6dbd
00000080: 6a31 e0bc d03c 963d e4dd 1c3c e9a0 39bd
00000090: 6906 913d 310f 8fbd 24b3 6d3d 9e07 b8bd
000000a0: 4f25 98bd 4c6e 4f3d 2f46 b7bd bec0 89bd
000000b0: b09e 11bd afb2 60bd 6280 4bbd 2ccb 413d
000000c0: baaa e7bc a1f8 a53d 8a82 64bc cdae c0bd
000000d0: fec7 74bd 371e c83d 1ed1 e03c 4fbf bc3d
000000e0: b240 bdbd 31bf 70bd 4752 bd3d 023d 013d
000000f0: 4fa7 f83c c9d4 9bbc ced0 88bd e87d bbbd
00000100: 0147 53bd 8d95 a9bd e4b1 d1bd 35b5 8f3d
00000110: ed9c f0bc 3565 203c 3d9e 2c3d 5903 b13d
00000120: 051a 98bd 539f a33c c78f 933d 6a1b 00bd
00000130: ea2d 10bd b890 9f3b 7110 703d 83a7 913d
00000140: 3a27 87bd a8db 04bb 0c3e 823d a6b3 c93b
00000150: 941f 7fbd fe49 bc3d a64d c9bd 11ad 9ebc
00000160: 840a bcbc 7a7e a03b 6d62 85bd b2f9 893d
00000170: f6b7 3e3d 1823 86bd 316c 513d 435b 5fbd
00000180: 585d 23bd 3a34 aa3d f663 563d d8d3 92bd
00000190: 4e5b b53d 0cf3 423c 17d8 433c 68c2 e7bc
000001a0: 6a83 703c 5048 243d 1c25 963d 93c1 78bd
000001b0: febb 993d 34ba 333d fa59 383d f837 943d
000001c0: dc8e c3bb c1cd ab3d 84fb 74bc 0f3e 32bc
000001d0: 23da b0bd d814 3b3d 42ca 6e3c aa43 a3bd
000001e0: 9914 05bc 3794 ae3d b2ff ab3c 046e 113d
000001f0: 76e6 e73c 6b29 9c3a a550 1dbc 6df3 843d
00000200: fcd2 723d 044a 7b3d aed8 b7bd 0afc f13c
00000210: e92b a8bd 98ce 3a3d e8a9 033e 4ec2 c53d
00000220: bc93 9e3d e668 bcbd c4b9 773d 73ce 17bd
00000230: 5d5f 17bd cb55 973c 9a2d d2bc 2aee 9b3d
00000240: ccf2 c8bd f2fb 53bd 16d6 ad3d 6b03 6e3d
00000250: 1ce1 d9bc df3a 03bd 0b1a fa3c 32f4 0f3d
00000260: 09e6 b2bb e951 b9bc 5e91 4b3d 4c88 89bd
00000270: 55d7 aa3d d1b6 cb3c cafd c03d 7bda a03c
00000280: e3d5 2cbd a477 a33d 2b0f 663c b0de 183d
00000290: 97d6 55bd 508b df3d 5dc6 a73d c058 f9b8
000002a0: d363 3e3d b40c 2e3d a70c 8b3d 7562 2dbd
000002b0: 8208 d43c b47e c83d fd5b d63d deea cbbd
000002c0: b563 06bd b6ef 3b3d 44b9 17ba 2086 643d
000002d0: aa62 a5bd 9d05 87bb 6427 343d 60b5 853d
000002e0: 92b6 7d3d ae41 053d e8cd 633d a81b 7bbc
000002f0: d96d 4a3c e05a d2bc 1c42 bebd 4816 e6bc
00000300: b26c 82bd e186 67bd 79f0 c5bd 79ca c93d
00000310: 04ae c5bc 4fca 0b3d 8d6e 273d 98cd 9d3c
00000320: 7aff 7bbd c056 913d 6657 bd3d a16e c6bb
00000330: ed85 673b ffbc 603d 92f3 093d 9d4f 5fbd
00000340: f3e3 a13d e8c6 5a3d 1f50 1b3d 07ae 703d
00000350: 0766 8a3d 3b83 49bd 5876 45bd 2d61 a8bc
00000360: 2d10 d73d fb84 c63d f8a4 95bd 1049 573c
00000370: 89ca d439 0b4a 0ebd 2077 c8bb 25da 563d
00000380: 93ed eb3c 8a4b 4ebd 5747 cabd 887e 943d
00000390: b3cb 043d 788b 853d 53a3 56bc ae49 1cbd
000003a0: 9569 0d3e 77e4 f13c 6dba 303d c85d abbc
000003b0: da76 bfbb 0a4a b73d 7874 f23c a0ff b93d
000003c0: 5834 a1bd 1e23 9e3d ac0f b23d 62f3 0e3c
000003d0: 0931 fa3c 7bc8 edbc 77af 89bd 996f b23d
000003e0: f8c2 683c be2a a4bd 57f1 d8bd 9638 a93d
000003f0: f5b1 c03c 12b1 b3bd c1b7 993c 6188 b53c
0.086166576 -0.041655328 -0.0132897785 -0.026650654 -0.028677035 -0.013485418 0.033413053 -0.023845565
0.025794553 -0.024485046 0.061459113 0.019646138 -0.07624236 0.02271405 0.024750488 0.017609881
-0.06750898 -0.0932564 -0.015422695 0.06994892 0.07769066 -0.08670495 -0.03797528 0.012159529
-0.014838695 0.009043451 -0.070184976 0.056455333 -0.10124143 -0.034778003 -0.09801031 -0.058015384
-0.027367312 0.07335818 0.009574387 -0.04531947 0.07081301 -0.069853194 0.05803217 -0.08985828
-0.07428991 0.050642297 -0.08948933 -0.06726216 -0.035551727 -0.054857906 -0.049682982 0.0473129
-0.028279651 0.08104063 -0.013947139 -0.094083406 -0.05976104 0.09771388 0.027443465 0.09216177
-0.09240855 -0.058776084 0.09244209 0.031552322 0.030353216 -0.019022362 -0.06680451 -0.09154874
-0.051581386 -0.08280478 -0.10239008 0.070169844 -0.029371703 0.009789755 0.042143095 0.08643217
-0.07426838 0.019973433 0.07205158 -0.031276144 -0.035200037 0.0048695467 0.05860943 0.071120284
-0.06599279 -0.0020272527 0.06359491 0.006155449 -0.062285975 0.091938004 -0.098292634 -0.019369634
-0.022954233 0.0048978897 -0.06512914 0.06737079 0.046562158 -0.06549662 0.05112857 -0.054530393
-0.03988394 0.08310743 0.052341424 -0.07169312 0.088553056 0.011898767 0.011953375 -0.028290942
0.014679769 0.040108025 0.07331297 -0.06073148 0.0750656 0.04387875 0.045007683 0.07237238
-0.005967958 0.08388854 -0.014952544 -0.010879054 -0.08635356 0.045674175 0.014574589 -0.0797189
-0.008122587 0.085243635 0.020995948 0.03550531 0.028308135 0.0011914199 -0.009601747 0.06491742
0.05928324 0.061349884 -0.08976875 0.029539127 -0.082115 0.04560718 0.12857783 0.09656201
0.07743022 -0.09199695 0.060479894 -0.03706212 -0.03695618 0.018473526 -0.02565651 0.076137856
-0.09811935 -0.051753946 0.08488099 0.05810873 -0.026596598 -0.032038566 0.030529996 0.035144992
-0.0054595512 -0.022622066 0.04969918 -0.0671545 0.083418526 0.024867447 0.094234064 0.01963543
-0.042196166 0.07981804 0.014041702 0.037321746 -0.052206602 0.109152436 0.08192132 -0.00011889776
0.04648192 0.042492583 0.067895226 -0.042330224 0.025882963 0.09789792 0.10466764 -0.09956907
-0.03280993 0.045882903 -0.00057877996 0.055791974 -0.08075459 -0.004120542 0.04398288 0.06528735
0.06194169 0.03253334 0.05561629 -0.015326418 0.012355291 -0.025678098 -0.09289953 -0.028086796
-0.06368388 -0.056525115 -0.09665007 0.09853072 -0.024130829 0.034128483 0.040876914 0.019263074
-0.06152294 0.070966244 0.092451856 -0.0060556685 0.0035327629 0.05486774 0.033679552 -0.054519285
0.07904806 0.053412348 0.037918206 0.058759715 0.067577414 -0.049197417 -0.048208565 -0.02055415
0.10501132 0.09693333 -0.07306856 0.013139978 0.00040586691 -0.03473858 -0.0061177164 0.052454133
0.028799808 -0.05036501 -0.09876888 0.072506964 0.032420825 0.06520742 -0.013100463 -0.038156204
0.13809808 0.029527886 0.04314654 -0.020918742 -0.0058430256 0.08949669 0.029596552 0.0908196
-0.07871312 0.07721542 0.086943954 0.008725019 0.03054096 -0.02902626 -0.067229204 0.08712692
0.01420664 -0.08015965 -0.10592907 0.08262746 0.023522357 -0.08774008 0.018764379 0.022159757

layers.0.v.weight f4 [96, 96]
00000000: 0561 d03a 4741 73bd fbb8 a5bd b093 84bd
00000010: 5458 4b3d 9886 9cbd 10a7 32bd f7df 043e
00000020: cd44 263d a37b 573d 9cd0 08be 4f67 273d
00000030: d890 dbbc 345a 5a3d a7af 993d 3d1e 9fbd
00000040: 1323 94bd 5e05 e5bd 99ab c13d 1b12 97bb
00000050: c2a8 cc3d 2d75 3fbd c7a4 fb3c 3555 953d
00000060: 94e5 273d a9da b2bd 1a81 86bd d44e cd3c
00000070: 8c37 94bc f727 a6bd 2ce8 02be eaed 503d
00000080: 2b7e b73b 1e58 823d ab14 d13d e7cc 8ebd
00000090: ee93 ac3d 6e28 b53d d245 d6bd 6216 1fbd
000000a0: b4bd 8e3c f472 443d df2d c83c ea60 843d
000000b0: 36de 2ebc 1a79 9a3d 68ff 4f3c ba65 c23d
000000c0: 48ce 9a3d fef0 67bd 6be6 63bd 30eb cd3c
000000d0: bc11 bf3d 0b81 623d ffd9 5a3d 2847 73bd
000000e0: 5486 62bc ba5f babd 1a85 30bd cef2 a23d
000000f0: 211a 393d e556 07bd 1cf1 be3c 2db5 87bd
00000100: 37ed dabc 8bae d4bd 448d 0dbd fa65 e33c
00000110: e833 78bd 0edd 033d d047 b63c 818c 5ebd
00000120: 31fd ddbd ff46 bd3d 7203 fd3c fe4f 2abc
00000130: 70ee 363d f59d b3bd 6635 8fbd 7720 a23b
00000140: 9659 6fbd 4e0e b93d 08b7 843d d90f 20bc
00000150: 990c 21bd 391d 743d f391 083d 91f9 5c3d
00000160: 5cec d5bd 27f2 81bd 05ee 953d 752a 8fbd
00000170: f038 91bb 5d1a edbc 5c3e 0c3d fda8 043d
00000180: fbfe 243c cd3f 563d 9cf1 363d c9d7 d0bd
00000190: 8721 c23d 8c44 6d3d d130 833d e4c5 09bc
000001a0: e1b9 273d 43df 3cbd ec76 fd3c bd86 80bd
000001b0: ed4e eebd 9280 923d 7705 b0bd c4f4 883d
000001c0: 0cdc 9b3d 78bb d53d c702 563d 203d 5b3d
000001d0: 48ba 1f3c c241 2c3b 4211 46bd 3662 8b3d
000001e0: 5651 c63d b04e dbbd 9c9e 423d ad2b e0bc
000001f0: 0980 9e3d 52f4 03bd fd77 1ebc d505 66bd
00000200: 3781 b23d d676 b53b dea9 7a3d 1be0 b93c
00000210: 8700 86bd 3a27 c3bc 686a d23d 5c9f 26bc
00000220: a4c8 2abc 6229 2f3d a7bc a33d 42d2 00bb
00000230: a9f0 d53d 30ce 303d 9ad0 943d e0dd e2bd
00000240: 38d1 743d a637 8d3c 07bd 513d 1eac 1739
00000250: 394d b03b 287b cf3d 4a2e 353d e903 4e3d
00000260: 4d9b b1bd 12ce 41bd d325 313d f164 a23c
00000270: c545 acbd b762 f43b 8a5c 793b 2ddb 86bc
00000280: 1b9f 83bd 8c22 0f3e c09d 3c3d 2161 b63d
00000290: f40a 08bd d63d 8e3d 6078 9cbd e81c b03b
000002a0: 1556 ad3d 23ea 53bc d451 8d3c c3e8 df3d
000002b0: 8407 583d d860 64bd 0594 4b3d 82e6 4e3d
000002c0: b532 2c3d f67b 8bbd 2cea 9a3d 0858 63bd
000002d0: a09c 9ebd e170 85bd e68b 163e 9745 363d
000002e0: 77cf e33d 5c64 01bd da11 49bd f4a2 e3ba
000002f0: 54c4 c33d 4f9b bdbd 7893 1b3c 0bc2 cebb
00000300: 4fbe c9bc df25 69bc 74fd 3cbc 5f0c 8abc
00000310: ac83 adbd 2295 c2bd 435e e9bd e49f 6d3c
00000320: 31dc 323d 4d42 bf3d b767 d9bb 5fa1 edbd
00000330: 5c26 e8bd 9906 983c 2c14 c23c 9f0b 8ebc
00000340: d001 d13c 098e 27bd 1de8 c1bd 645d bcbd
00000350: 0197 efbb 7f1f 47bd bbec 713d f208 d7bb
00000360: e40b ca3c 8957 9b3d 4039 89bd 9de1 6dbc
00000370: b055 ecbd c237 0ebc eac4 973c 57cc 71bc
00000380: 7ad7 9cbd 5db9 9dbc 860c dbbd 1322 bfbb
00000390: 55f2 70bd 196b cbbd 7584 ddbd c84d 2d3d
000003a0: 7666 8a3d ba47 303c 2504 aabd d4d3 a53d
000003b0: 5c71 493d dd15 51bb d009 4b3b 1e97 d83c
000003c0: dae3 b1b9 6483 8f3c e82b 883d dda0 6dbd
000003d0: 98c4 6e3d abeb 9c3d f7f9 95bc c43f 893d
000003e0: 4afd 723d 1632 243d f394 66bd 345e 133d
000003f0: 00cf 6fbc 8a04 ae3d 646c c7bc 8840 6dbd
0.0015898055 -0.059388425 -0.08091923 -0.06473482 0.049644783 -0.07642859 -0.043616354 0.12976061
0.040592957 0.052608144 -0.13360828 0.040870007 -0.026802465 0.05330868 0.07504206 -0.07769439
-0.072332524 -0.11182664 0.09456558 -0.0046103126 0.099931255 -0.046742607 0.03071822 0.072916426
0.040990427 -0.08733112 -0.06567593 0.025062002 -0.018092893 -0.081130914 -0.12783879 0.051008143
0.005599757 0.06364463 0.1020902 -0.06972676 0.08426653 0.08845602 -0.10462536 -0.038839705
0.017424442 0.04796119 0.024435936 0.064637974 -0.010673096 0.075426295 0.012695171 0.09492059
0.07558876 -0.056626312 -0.055639666 0.02513656 0.093295544 0.055298846 0.053430554 -0.05939403
-0.013825972 -0.0910029 -0.043095686 0.079564676 0.045190934 -0.033041853 0.02330833 -0.066263534
-0.026724441 -0.10384854 -0.03455855 0.027758587 -0.060596377 0.032193236 0.02225104 -0.054333214
-0.10839308 0.09242057 0.030885432 -0.010395048 0.044660985 -0.08770362 -0.06992607 0.004947718
-0.058435045 0.090359315 0.06480223 -0.009769403 -0.039318655 0.05959818 0.033342313 0.053948943
-0.104454726 -0.06345015 0.07320789 -0.0699052 -0.0044318363 -0.028943235 0.034239158 0.032387722
0.010070558 0.05230694 0.04466401 -0.10197408 0.09479051 0.0579267 0.06405795 -0.008408997
0.040948752 -0.046111356 0.030940495 -0.06275699 -0.11636148 0.07153429 -0.08594792 0.0668731
0.0761033 0.104361475 0.052248742 0.05352509 0.009749003 0.0026284312 -0.048356302 0.068058416
0.09683482 -0.10708368 0.047514543 -0.027364576 0.077392645 -0.032215424 -0.009672162 -0.056157906
0.08716052 0.005537848 0.061197154 0.02268987 -0.06543069 -0.023822416 0.10274202 -0.01016983
-0.010423813 0.042764075 0.07994967 -0.0019656573 0.10446293 0.043165386 0.0726635 -0.110774755
0.05976984 0.01723845 0.05120566 0.00014464601 0.0053802994 0.10130912 0.044233598 0.050296698
-0.086721994 -0.047315665 0.043248963 0.019823523 -0.08411745 0.007458057 0.0038049542 -0.016461933
-0.06426831 0.13978022 0.04604888 0.089052446 -0.03321357 0.06945388 -0.07640147 0.0053745396
0.084636845 -0.0129342405 0.017250933 0.10933068 0.052741542 -0.05575642 0.04970171 0.050512798
0.042040545 -0.06810753 0.07564196 -0.055503875 -0.077447176 -0.065156706 0.14701805 0.04449996
0.11123555 -0.03158985 -0.04908929 -0.0017367289 0.09558931 -0.092581384 0.0094956085 -0.006309753
-0.024626879 -0.014230221 -0.011535037 -0.016851602 -0.0847238 -0.09501101 -0.11394932 0.014503453
0.043667022 0.09338818 -0.006634678 -0.11603045 -0.113354415 0.018557834 0.02369126 -0.017339526
0.02551356 -0.04090694 -0.094681 -0.091975 -0.0073117022 -0.04861402 0.059063654 -0.0065623457
0.024663873 0.075850554 -0.06700373 -0.014519122 -0.11539781 -0.008680286 0.018526513 -0.014758191
-0.076582864 -0.019253427 -0.10695748 -0.0058329194 -0.058824856 -0.09932537 -0.1081628 0.042310506
0.06757824 0.010759288 -0.08301572 0.08097044 0.049180374 -0.00319039 0.003098119 0.026439246
-0.00033929833 0.017518707 0.066489995 -0.05801474 0.058292955 0.076621376 -0.01830767 0.067016155
0.059323587 0.04008683 -0.056294393 0.03597851 -0.014636755 0.084969595 -0.024343677 -0.05792287

layers.0.proj.weight f4 [96, 96]
00000000: 5a81 7bbc fb09 a4bd 51a8 4d3c 27dd 803d
00000010: 5f68 46bd 97f5 833d bd6c 84bd 4665 4c3d
00000020: f5ab 183d 5d6d cd3d eb06 56bd 7da9 3abd
00000030: 2051 3d3d b0eb 58bd 6325 c9bd 4b4f 16bd
00000040: 9f2f 933d e248 49bd 8996 8cbc aa7d 6fbd
00000050: acd6 413d aa7a 51bd e9ac 91bd 2fce 70bd
00000060: f0b2 a0bd 0036 273d f3f2 a33c 6c9c 853d
00000070: 1b85 aa3d 04ac ebbc f507 64bd 6e83 73bb
00000080: 044f 443d 9174 4b3d c634 6e3d 336a bfbc
00000090: 7b01 9cbc b4c5 f3bc c51f e73b 7f45 7a3d
000000a0: 3bb5 a13c ccaf 9a3d c494 dabc 0c72 94bc
000000b0: 1e67 99bd 145b 8a3b cef6 a7bd c7f9 ab3b
000000c0: 335f a93d 67e5 ee3b 2790 edbd 8813 8d3d
000000d0: 7053 123d 8c13 d4bc ad82 cdbc 505c cdbd
000000e0: 05af 7cbd d38d f2bd 060a d6bb cd89 5b3d
000000f0: 3e7c a1bd d470 683d 3271 77bd 03da 3fbd
00000100: 92ff 24bb fe5e 163d ae7c 6bbd 2398 8cbd
00000110: af0a 62bd 62b0 b1bd 614a 42bd e765 d53c
00000120: c769 9dbd ab87 3fbc 9aef 0abc 6ee1 ac3c
00000130: 5fdf 9ebd 1482 d63d 82cd 623b d68b 14bd
00000140: 4788 bfbd 317d 06bd 9c8b 703d f9a9 2fbc
00000150: d85c edbc 53af 9fbd 3b8d 5ebd 76b9 9dbc
00000160: 6937 dd3d 6175 32bd bd3e 923c fef6 d33d
00000170: e4de a1bd c82a 36b7 4a88 85bc 6f1b c63d
00000180: 38e4 7fbd e1a3 c73b 556b c23d cb9a ee3d
00000190: 0fd0 e13c 825e b53d 2077 453c 36a8 433d
000001a0: 71fd 3a3d c9da 2cbd 4987 ebbd 4473 cabd
000001b0: a0ae b8bd 9159 173d 54f8 7e3c 7ace 4d3d
000001c0: 33e5 da3d 5246 64bd 5e32 81bd 6f20 85bd
000001d0: 3af3 92bc 9eeb abbc 3273 1e3c be3e 0a3c
000001e0: 6411 91bc e7fa 563d cf1d 873d bd00 4bbc
000001f0: 3376 e83d 092b d23d a016 eabc fbe5 aabc
00000200: 605f b3bd 1943 253d 2411 c0bd c200 0fbd
00000210: 3578 d53c 707a 383d e0ff a33d 6598 efbc
00000220: 8ba5 9fbc 0ae8 9dbd 5896 45bb 5659 4b3d
00000230: 2c70 883d 586c ae3c b7bd 7b3d 03ac 31bd
00000240: dbf0 83bd e291 e5bc b705 81bc 6816 d23d
00000250: e1f3 29bd 6e81 a73d 91cd 7b3d fb4d bebd
00000260: 4275 55bd b537 65bd 9c59 253d b551 eb3c
00000270: 39fd a8bd 981c 7a3c 733d 84bd f7a4 483a
00000280: feae c8bc 653f 6c3c 81fc c13a bb87 f43d
00000290: 8811 373d 75cb 89bd af84 adbd 35af f7bc
000002a0: 31a4 9f3d ca2b 33bb f516 9abd e234 253d
000002b0: c787 9e3c 54ae 933d 7a13 9d3d 3b81 52bd
000002c0: 0f74 913d 968f 64bd d53f d53d 8cbe 37bd
000002d0: d349 45bd 1661 30bc d48f a7bd 46e6 be3d
000002e0: 8e99 4a3d 70a0 40bc 6f53 ab3d 769c 85bd
000002f0: 0e57 98bc f419 b7bd 752d 343d be46 00bd
00000300: fac2 afbd 4460 e63d 231b 133d edbf 4b3d
00000310: d05c d43d 5eae 0e3d a3b1 d33b 010e 94bc
00000320: 4c61 41bd 3076 f83d a8fe e8bb c66a 543d
00000330: 9cd8 92bd e69a cabd bc8c 88bd b66a 92bd
00000340: b516 e93d 534d 6ebd 8fc6 743d 48f4 75bd
00000350: c361 98bc fb72 f8bc be5e 65bd 1099 75bd
00000360: cf8a 45bd 3a24 36ba 6de7 21bb e159 87bb
00000370: 86c2 623d 8ab4 643d d14d f93c dfb0 d0bd
00000380: 9d85 903d fb2b ec3d 108d 8cbd 20cb 4fbd
00000390: e5ae 863d 3c27 f8bc 4d1c d03d cb5d 113d
000003a0: 1440 89bd 5d8e 0a3d 09ba cb3d 234d 003e
000003b0: 93cd a23d 0e87 793c 41b0 6dbd a77c 84bc
000003c0: 775f c13c f12a 933d 8760 d1bd 8680 833c
000003d0: 888f b73d a172 703d f7bd d9bd b1ce a53c
000003e0: e0b3 89bd 4bd7 afbb 1f56 843d 3030 eebc
000003f0: 8207 513d 4855 e63d f4a7 2e3d e61b 2b3d
-0.015350664 -0.08009716 0.012552337 0.062921815 -0.04843938 0.06443327 -0.06466053 0.04990127
0.037273366 0.10030625 -0.05225269 -0.045571793 0.046219945 -0.052959144 -0.09821584 -0.036696713
0.071868174 -0.049141772 -0.017161625 -0.058469452 0.047323868 -0.051142372 -0.07113058 -0.058790382
-0.078466296 0.040822983 0.020013308 0.06523976 0.08326169 -0.028768547 -0.05567165 -0.0037157196
0.047926918 0.049671713 0.058155797 -0.02336607 -0.019043675 -0.029757358 0.007053348 0.061101433
0.019739738 0.07553062 -0.026682265 -0.018120788 -0.07490371 0.004222283 -0.08201371 0.0052482816
0.08270111 0.0072905305 -0.115997605 0.06888491 0.035724103 -0.025888227 -0.025086725 -0.10027373
-0.06169035 -0.11843457 -0.0065319566 0.053598214 -0.078850254 0.056748226 -0.060410686 -0.04683877
-0.0025176746 0.036711685 -0.05749195 -0.06864955 -0.05518597 -0.086762205 -0.047434215 0.026049567
-0.07686191 -0.011690061 -0.008479977 0.021103587 -0.077574484 0.10474029 0.0034607355 -0.03626617
-0.09352165 -0.032834236 0.058726892 -0.010721677 -0.028974935 -0.07797112 -0.054333907 -0.019253474
0.10801584 -0.043568972 0.017852182 0.103498444 -0.07903841 -1.0858006e-05 -0.01630034 0.09673201
-0.062473506 0.006092534 0.09493128 0.11650618 0.02756503 0.088559166 0.012052327 0.04776784
0.045651857 -0.042200837 -0.11500413 -0.098852664 -0.09017682 0.03695065 0.015562136 0.05024574
0.106882475 -0.055731125 -0.06308435 -0.06500327 -0.017938245 -0.020986374 0.009671019 0.0084378105
-0.017708488 0.052485373 0.065974824 -0.012390313 0.1135067 0.102621146 -0.028575242 -0.020861616
-0.08758426 0.040347192 -0.09378269 -0.034912832 0.026058296 0.04503864 0.08007789 -0.029247472
-0.019488117 -0.077102736 -0.0030149426 0.049645744 0.0666202 0.021291897 0.061460223 -0.043376934
-0.06442424 -0.028023664 -0.015749795 0.1025818 -0.041492347 0.08178984 0.06147534 -0.09292217
-0.05211378 -0.05596133 0.04036866 0.028725484 -0.082514234 0.015265606 -0.06457033 0.0007653976
-0.024497505 0.014419411 0.0014799983 0.11939951 0.044694453 -0.067282595 -0.08472573 -0.030234912
0.07794989 -0.0027339333 -0.0752391 0.040333636 0.019351853 0.07210985 0.076697305 -0.051392775
0.071022145 -0.055800997 0.104125656 -0.044859454 -0.048166107 -0.010765335 -0.0818173 0.09321265
0.049462847 -0.011757001 0.08365523 -0.06523983 -0.018596198 -0.08940497 0.043988664 -0.031317465
-0.08582111 0.1124883 0.03591455 0.04974358 0.10369265 0.03483426 0.006460385 -0.018073084
-0.04721193 0.121319175 -0.0071104355 0.05185964 -0.07170221 -0.09892826 -0.06667468 -0.0714926
0.11381284 -0.05817921 0.059759673 -0.060047418 -0.018601304 -0.030328264 -0.055998556 -0.059960425
-0.04822808 -0.0006948147 -0.002470459 -0.0041305874 0.055361293 0.055836238 0.030432614 -0.101899855
0.07056735 0.11531826 -0.06862843 -0.050730824 0.06576327 -0.030292146 0.10161648 0.03548984
-0.06701675 0.033827174 0.09947593 0.12529425 0.079493664 0.015229953 -0.058029417 -0.01617272
0.023605091 0.07185925 -0.10223489 0.016052496 0.08962923 0.05870307 -0.10631936 0.02024016
-0.067237616 -0.005366241 0.06461739 -0.029075712 0.05103255 0.11246735 0.04264064 0.041774653

layers.0.proj.bias f4 [96]
00000000: e6e3 47bd 8ea8 2dbd 86c5 953d 716f 293c
00000010: 9d76 c7bc 4334 19bd c511 f63d 61c5 2cbd
00000020: 1184 e43d 06b9 8f3d f042 183d 2a6e 20bc
00000030: f195 ef3d 97a0 bebd 7f68 b4bd af0a 7a3c
00000040: e57a 00bd 4a01 70bd 0513 21bd 0d90 94bd
00000050: bb76 1fbd 2b85 85bd a0ef a83d 52a7 56bd
00000060: 2754 0cbd df82 113d 1276 f43d d9b1 8b3d
00000070: 6527 bcbd 65b5 763c d8aa a53d ce8a 2d3d
00000080: c9a4 8d3d 4304 b33c 4fb8 b83c c056 2f3d
00000090: bc48 903c 5b55 05bd a61e 7f3d 10ce 6cbc
000000a0: e6d0 0ebd 2be6 1e3b fb58 a13d fd0d 9f3d
000000b0: 55fd 8d3d 5f13 8a3c a3f5 fdbc 1178 adbd
000000c0: 66f1 08bd b75b d9bc 97e0 bf3d 3d0c 8bbc
000000d0: 7934 f23d f253 ed3d c280 99bd dc7b d93d
000000e0: 75fb cd3c 025b 81bd 1501 4cbd c827 873d
000000f0: 114f 4a3d 5fa3 84bd 0564 0b3c 4550 55bd
00000100: f9d6 cb3d 3721 3e3d f1be 283b 6bdb 423d
00000110: 2198 e0bc a96e a73d fad8 b73d 6819 b93d
00000120: bd92 3e3d 36a3 dd3d 56e0 2e3d 4be2 c0bd
00000130: 0a3e 963d ebaa 50bd 18b7 a63d a8de 52bd
00000140: b26a be3d 8792 b03d e8e0 c33d af91 73bd
00000150: 087f 32bc 0ebf e63d f83d 553c e12f 613d
00000160: 862f 833d 1c2a 19bd 0599 f43d 8c84 19bd
00000170: ebf2 ac3d 406a 54bd 4e6e b8bd b6ab 503a
-0.048801325 -0.042397074 0.07313065 0.010341511 -0.024348551 -0.037403356 0.12015108 -0.042180423
0.11158002 0.07017712 0.03717321 -0.00979189 0.11698521 -0.09307974 -0.088089935 0.015261336
-0.0313672 -0.05859498 -0.03932478 -0.07254038 -0.03893159 -0.065195404 0.0824883 -0.052405663
-0.03425994 0.0355252 0.119365826 0.06821031 -0.091872014 0.015057896 0.080892265 0.042368703
0.06916196 0.021852618 0.022548823 0.04280734 0.017612807 -0.032552104 0.062285088 -0.014453426
-0.03486719 0.0024246078 0.078783 0.0776634 0.06933085 0.01685494 -0.031000918 -0.084701665
-0.03343334 -0.02653299 0.09369009 -0.01697361 0.118264146 0.11588277 -0.07495262 0.106193274
0.025144318 -0.063161865 -0.04980572 0.065993845 0.04939181 -0.06476473 0.008507733 -0.052078504
0.09953112 0.046418395 0.0025748576 0.047572535 -0.02741629 0.081754036 0.08976932 0.09038049
0.04652666 0.10822146 0.042694412 -0.09418162 0.07336052 -0.05094425 0.08140391 -0.051481873
0.09297694 0.08621698 0.09564382 -0.059465107 -0.010894544 0.112669095 0.013015263 0.0549773
0.06405549 -0.037393674 0.11943249 -0.037479922 0.084447704 -0.05185914 -0.09005414 0.0007960157

layers.1.q.weight f4 [96, 96]
00000000: 3f78 47bd 4414 dc3d 226a 023d 6220 e4ba
00000010: 2f4f 433c 0787 a63d 89d1 033e b95e df3d
00000020: c857 de3d 442d ca3d f236 383c de6f 4cbc
00000030: 6d90 953d 1d27 2f3d 8460 8f3c 05c2 90bc
00000040: fdc9 20bd e300 df3d 43a3 913c 65a0 b0bc
00000050: b88a be3d ae6d d5bc a37a 913b 279f d33c
00000060: dc74 64bd 0a62 143d 674f ca3d dbbc bf3d
00000070: 61c1 a63d 65f9 823d a027 d93b c298 13bd
00000080: a4a2 c9bc 1de2 4fbd 45a4 cb3d e646 e3bc
00000090: ef8f a83d a1c8 143d d7ee a63d 6e6d 4abd
000000a0: 8b8b 983d 1c69 9d3d 8c2e 76bc bb70 91bd
000000b0: ba96 fe3b d0d1 7c3d d123 813d 1d2c d73d
000000c0: c629 833d d7c0 c53d 9163 f33b 730e a9bc
000000d0: 525e 863d f13a 15bc 639e d73d 992c 62bd
000000e0: 2172 4f3d a5fb 0ebd 2adc 3d3c 1063 923d
000000f0: 3956 f5bc 44e4 db3d 4437 ec3c 74c0 a13d
00000100: 67f1 8dbd f81c 94bd 98f8 9cbc f578 023d
00000110: ae1b 86bd 2286 ef3d 7014 31bd df20 6a38
00000120: 73c9 fa3d 3d01 723d 8abf 80bb 8f13 86bd
00000130: 7703 a2bd 20e7 d83d c292 d83d 11f1 2abd
00000140: 13bf 683c 16ed 823c 94f6 d43d 124e 3ebd
00000150: fce0 623c 2cf7 3fbd 4469 66bd cc93 b53d
00000160: 30e7 47bd 6da0 553d 1ba2 7d3d 7026 9f3d
00000170: 6808 9f3b 5556 98bd c03c 853d 7842 9d3c
00000180: 8902 413d d438 c8bc 907b afbc ea85 b6bd
00000190: dd95 d7bd e571 6fbd 3257 9abd e802 eabc
000001a0: 83a8 b73d 6cd9 28bd 6706 163d ed33 dc3d
000001b0: e117 b4bd 62f1 11bd dcab 583d ff81 b7bd
000001c0: 3896 bcbd e669 23bd c016 1bbd 7980 34bd
000001d0: ac1e 99bd 646d 94bd 1ab8 f8bc 2a0f 943d
000001e0: 4c4f e93a bbdb 95bd 201c 63bd a20c b5bd
000001f0: b20a c2bd a4b9 86bd ca06 3bbd 22a4 3cbb
00000200: 3f7b a6bd ec19 da3d 79eb 493d ceed 37bd
00000210: 97a0 a6bd 71e6 7d3d 4466 ec3c 15b6 983d
00000220: a318 a3bd 169b 033d 9b56 453d 7418 9c3c
00000230: e766 523d 9200 24bd 875e 4fbd f0b8 9dbd
00000240: 40e2 3e3d 4c15 3abd 6aaa 12bd c7b5 2fbc
00000250: 2437 7b3d 0320 bbbd b4a9 e13c 71e0 e93c
00000260: a45e c8bd 2b3b 05bd f859 b4bd 9945 da3d
00000270: 9582 47bd 64ff e13c 1dba 95bd a7b1 fa3c
00000280: b75e 6a3d 222a 363d aceb 0d3c 0a1e d83d
00000290: c317 983d 9d03 c63c 7733 9d3d 1543 a13b
000002a0: b57b f6bc a32d 843c a451 a53d 6c8a 313d
000002b0: e202 2a3d 4f57 7abd 5339 1abd c8a5 56bd
000002c0: 2da6 07bd a9fe 7b3d e6ae e53d 9a69 07bb
000002d0: 0643 c3bd f0d6 a73d 6fef b8ba 2bc5 5cbd
000002e0: d65e 123d 2b16 6fbc b6ab 3ebd 0671 6e3d
000002f0: 3ffc 00bd 56b0 653d 29ed aa3c 0f6c 93bc
00000300: fa9e 20bd 81b3 bb3d ea91 b33d a76f dc3d
00000310: fa2d 4f3d bb2d 51bd 4501 c1bc 3b92 af3c
00000320: f0cb 69bd 1fba 65bd 4345 b03d 1810 51bd
00000330: c915 a53d 6a7c 45bd c1ba 15ba d228 5a3d
00000340: fd5d 353d edd1 36bd 9317 773c 300e eebc
00000350: 350c 013c bfab 7f3d be78 333d 3256 10bd
00000360: c667 aebd b062 ce3d ecb8 c03d 6256 343d
00000370: 1709 273d b5e4 ddbc f9b3 10bc c01e 5abc
00000380: 0da6 5b3d d0c9 123c 3972 1b3d 358f 49bd
00000390: 470b 543d dd9c d23c 12b9 9a3d 760b 6b3b
000003a0: 68d3 aabd 872b f73c 655a bc3c 860d 5e3d
000003b0: 8502 7bbd f06a 4e3d 75d5 0abc 04bb f739
000003c0: e460 823d ea3e 573d c100 b8bd b349 9c3d
000003d0: 2d3c 3e3d 17ec 493b 45d3 a0bb 119b 90bd
000003e0: feea d4bd 238c 94bd 5466 c4bc 46ce 3d3c
000003f0: 6b9a cc3d 5007 0ebc 9719 f43b d655 c73d
-0.04869866 0.10746053 0.031839497 -0.001740467 0.011920734 0.08131223 0.128729 0.10906739
0.10856587 0.09871915 0.011243569 -0.012477843 0.07302938 0.04276191 0.017502077 -0.01767064
-0.03925513 0.10888841 0.017778045 -0.021560857 0.09303802 -0.026053276 0.0044396683 0.025832726
-0.05577551 0.03622631 0.09878426 0.09362193 0.08142353 0.063952245 0.006627038 -0.036034353
-0.024613686 -0.050752748 0.09943441 -0.027743768 0.08230578 0.036324147 0.08151024 -0.049420767
0.07448491 0.07686064 -0.015025746 -0.0710158 0.007769433 0.06172353 0.063056596 0.10506461
0.06404452 0.09655922 0.0074276407 -0.020636773 0.06560959 -0.009108291 0.10528257 -0.055218313
0.05064595 -0.034907956 0.011588136 0.07147801 -0.02994834 0.107368976 0.028834946 0.07898036
-0.069308095 -0.07232088 -0.019161507 0.031853635 -0.06548248 0.11695506 -0.04323238 5.582056e-05
0.12245455 0.059083212 -0.0039290832 -0.06546699 -0.07910817 0.105909586 0.10574867 -0.041733805
0.014205712 0.015982192 0.103985935 -0.046461172 0.013847586 -0.04686658 -0.056252733 0.08866081
-0.048804462 0.052154947 0.061922174 0.07771003 0.004853297 -0.074383415 0.06505728 0.019196734
0.04712156 -0.02444116 -0.021421224 -0.08912261 -0.10526631 -0.058458228 -0.075361624 -0.028565839
0.08967688 -0.041222975 0.0366272 0.107520916 -0.08793617 -0.03563059 0.052898273 -0.08960342
-0.092083395 -0.039895914 -0.037863493 -0.044067834 -0.07476553 -0.07247427 -0.030361224 0.07229455
0.0017800122 -0.07317301 -0.055446744 -0.088403 -0.09474696 -0.06578377 -0.04566077 -0.0028784354
-0.08128976 0.106494755 0.04929683 -0.044904523 -0.08136099 0.061987344 0.028857358 0.074566044
-0.079636835 0.032130323 0.048178297 0.019054629 0.051367667 -0.040039606 -0.050627258 -0.0770129
0.046602488 -0.045430467 -0.03580705 -0.010724491 0.061331883 -0.09136965 0.027546741 0.028549405
-0.09783676 -0.03252713 -0.08806223 0.10657806 -0.048708517 0.0275876 -0.07310889 0.03060229
0.057219233 0.044473775 0.008662146 0.105526045 0.07426407 0.024171645 0.07675832 0.004921327
-0.030088285 0.016135043 0.08072212 0.0433449 0.041506656 -0.06111842 -0.037652325 -0.052404195
-0.033117462 0.06152216 0.11215 -0.0020662309 -0.09534268 0.08195293 -0.0014109443 -0.05389897
0.035734974 -0.014592688 -0.046550475 0.058213256 -0.03149056 0.05607637 0.02086504 -0.017995862
-0.039214112 0.09165097 0.08768065 0.107634835 0.050580956 -0.051069003 -0.023560176 0.021432033
-0.057079256 -0.056085702 0.086069606 -0.05104074 0.08060796 -0.048214354 -0.00057117274 0.053261586
0.044279087 -0.044633795 0.015081304 -0.0290595 0.007876446 0.06241965 0.04381632 -0.035238452
-0.08515887 0.10077417 0.09410271 0.044027694 0.040780153 -0.027086595 -0.008831971 -0.013312995
0.053625155 0.008959249 0.037950728 -0.04920884 0.051768567 0.025709564 0.075548306 0.0035864986
-0.08341104 0.030172123 0.022992322 0.054212116 -0.0612817 0.050394952 -0.008473744 0.0004725085
0.06366137 0.052550234 -0.08984519 0.076312445 0.046444107 0.0030810887 -0.004907998 -0.070608266
-0.10396384 -0.072532915 -0.023974575 0.011584824 0.099903904 -0.008668736 0.0074493396 0.09733169

layers.1.k.weight f4 [96, 96]
00000000: fff7 9abd a8fc 2c3d 4b7e 763d 0b2b c1bc
00000010: aa3c babd 28d2 6abd d290 a33d 9bc4 95bd
00000020: 1f22 9a3d 2c19 2abd 9f3f c0bc 484d 713d
00000030: a35c 24bd 215e 54bd 6bb2 7e3d 3ea0 c6bd
00000040: 4073 42bd 05f0 f43a 7359 243d 7858 e5bd
00000050: 4a2d d23c db20 ec3d 7f45 853d 9db0 1b3d
00000060: 61ec 9f3d 035a e93c caab 00bc 2b4f 673d
00000070: c26f 003d 89e6 d13d b624 32bd 9f7a bbbb
00000080: 9117 db3c bb0a 3b3c 2925 9bba daef 433d
00000090: 75e8 d03d 4a53 91bd 94be a93b 9f91 7abb
000000a0: 349b 98bd eae6 9b3d 1bec 92bd cfc9 7fbc
000000b0: 8c12 26bd fa57 b4bc 6958 4fbd 0168 adbd
000000c0: eccf 94bc b43c 95bd 848b cf3d 40d6 163d
000000d0: 255e 433d b18c 783d 0176 64bd b326 a53d
000000e0: 901e ab3c 70b2 d7bd 3d5f 853d 7f49 1abd
000000f0: 9d14 89bd 5218 183d 764c 223d 1d0e b83d
00000100: a3a2 b23d 6779 143d 7683 bd3c a3ea a73d
00000110: 5541 693c 6dcd b9bc 9ec5 983d 56fc dd3d
00000120: 3f9a 963d 0b43 df3d f1a0 d1bc eeba 87bd
00000130: 2846 9fbc 02a9 123c e47d 5b3d f6ab 6fbd
00000140: ab34 c73d 05ec 92bd 3ee9 cc3d 413d bebd
00000150: cdd7 823c 8ab0 a5bc 9e11 77bd 38e3 003a
00000160: 1301 073c d881 86bd 1f64 c83d deb8 7b3d
00000170: cdc0 aa3d 931f 5ebc 18ef 0db8 7f86 90bd
00000180: 02d2 fdbc bb0a 1fbd 743d e63b 7330 96bd
00000190: 249b e1bc 424d afbd a573 04bd 5b29 ddbd
000001a0: 8308 d53c 3fec 6b3d 9e0f 31bd c121 74bc
000001b0: 1fa7 b93d 00ce 50ba d745 8b3d 1af9 97bd
000001c0: e03d d23a be7b 9fbd 3117 27bd 610e 56bd
000001d0: e266 253d 4d02 98bd 367d 8d3d 1835 c13c
000001e0: 83a9 e1bd 9a9b 723c 6861 e5bb 9612 23bb
000001f0: 3a13 69bb 5703 7abd 1cd4 293c 672d 2bbd
00000200: 17dc 73bd 410f e2bc 8ce3 953d b057 d43c
00000210: c277 9abd d7f1 2e3d ce44 cfbc d46e 62bd
00000220: bc43 d1bd aee3 463d 4a8c 33bc f2c9 4c3d
00000230: 2866 1abd d777 b43c 9a9e 003d a4c5 5c3d
00000240: 5623 853d 4299 a53c 19f4 e2bd 4ae4 983a
00000250: d5f9 48bd 7646 c8bc 960f 93bd faf1 abbc
00000260: e166 b93b 9026 15bd 2c0b 873d de8b 143c
00000270: 1fa8 70bd b317 bebd 6960 91bd 9c5d 94bc
00000280: d359 8cbd 2ef0 16bd dcee 7e3d d76a 113d
00000290: 65e1 4cbd 8b1b 84bd 81c0 953d 80f4 be3c
000002a0: d00d a83c c3bb 5a3d a2d7 5cbd 8957 9d3d
000002b0: f1d7 8cbd 5fa3 0dbd 6352 eabd 1db9 523d
000002c0: 3078 773d 69d5 c1bd 45ee a73d 0e55 06bd
000002d0: 86e3 da3b 49e6 ae3d a908 b9bc 7a3f b9bd
000002e0: 4d51 a4bd 4261 ae3d a6e8 ecba af34 e6bd
000002f0: 5db1 ac3d e8b4 17bd 89cd df3d 5d2a 4b3d
00000300: eb85 31bd 51dc c4bd 923b 743d ce71 7a3d
00000310: c49e 803d 2892 adbc b1b5 41bd 3365 13bd
00000320: bae3 2b3b 6118 9b3d 432e d939 df7d 063d
00000330: 28ca ad3d 469d 9abd a934 043d af3a d83c
00000340: d5b1 9dbd 9821 a53d c891 733d 4171 a7bd
00000350: 4a2d e63d 97eb a4bd c8ca f9bd 1d3a 8b3d
00000360: 482a 5ebd c854 e4bd 0e56 abbc 0d35 e33c
00000370: 5f09 65bd 98ba 233d 4920 a23d 00ab b0bd
00000380: 30d0 95bd 3ba7 123d 02e5 c53d 9fe3 943d
00000390: a1f8 29ba 323e debc 97c6 b83d 6f02 8dbd
000003a0: 7f42 87bd 1a6d 0d3c 6430 52bd 433c c03d
000003b0: 4674 92bd 1c03 13bc bf6a 943d b424 313d
000003c0: fa50 adbc ab39 18bd 6c80 2dbd 97d3 82bd
000003d0: 2d0d bfbc 1dcb cdbc 8336 65bc 7b52 c8bc
000003e0: 7303 563d 07ac cbbd ac71 9abc 6191 9ebd
000003f0: 86eb 92bc fa09 043b 1c4e b93d 7e3c ea3c
-0.07566833 0.04223314 0.060179036 -0.023580095 -0.09093602 -0.057329327 0.07986607 -0.0731289
0.07526039 -0.041527912 -0.023467837 0.05891159 -0.040127408 -0.05184758 0.06218187 -0.096985325
-0.047473192 0.0018687254 0.040124368 -0.11198515 0.025656361 0.11529704 0.06507396 0.03801023
0.078087576 0.028485304 -0.007853458 0.056471985 0.03135658 0.10249049 -0.04349204 -0.0057214047
0.026744636 0.011416133 -0.0011836636 0.047836162 0.10200588 -0.07095964 0.0051801894 -0.003823377
-0.07451478 0.07612403 -0.0717394 -0.01561208 -0.04054503 -0.022014607 -0.050621424 -0.08467103
-0.018165551 -0.07286969 0.10134032 0.03682542 0.047697205 0.06068105 -0.0557766 0.08064022
0.020888597 -0.10532081 0.06512306 -0.037667748 -0.06693385 0.03713257 0.0396237 0.08987067
0.08722427 0.03624859 0.023133975 0.0819905 0.014236768 -0.022680962 0.074595675 0.10839145
0.07353639 0.10901459 -0.025589438 -0.06627451 -0.019442633 0.008951427 0.053586856 -0.058513604
0.097268425 -0.071739234 0.10005425 -0.09289027 0.015972042 -0.020225782 -0.060319535 0.0004916671
0.008240002 -0.065677345 0.097847216 0.0614556 0.08337555 -0.013557333 -3.3839693e-05 -0.07056903
-0.030983929 -0.038828593 0.0070263688 -0.0733346 -0.027539797 -0.08559658 -0.03233685 -0.107989036
0.026005035 0.05759835 -0.043227784 -0.014900626 0.09065079 -0.00079652667 0.0680043 -0.07420559
0.0016040169 -0.07787274 -0.0407936 -0.052259807 0.04038132 -0.07422314 0.06908648 0.023584887
-0.1101866 0.014807606 -0.007000137 -0.0024882904 -0.0035564438 -0.06103834 0.010365512 -0.041791346
-0.059536066 -0.027595164 0.07318792 0.025920719 -0.07542373 0.042711105 -0.025301363 -0.055281475
-0.102179974 0.048556976 -0.0109587405 0.049997278 -0.03769508 0.0220298 0.031401254 0.053899422
0.065008804 0.02021468 -0.11081714 0.0011664715 -0.049066383 -0.02444766 -0.07180707 -0.020989407
0.005658016 -0.03641373 0.06593928 0.00906655 -0.058754083 -0.09281864 -0.07098467 -0.018111043
-0.0685307 -0.036850147 0.062239513 0.03550228 -0.05001964 -0.06450566 0.07312108 0.023309946
0.020514399 0.05340172 -0.05391658 0.07682712 -0.06877125 -0.03457963 -0.11441495 0.05144607
0.060417354 -0.09464533 0.08199743 -0.03279596 0.006679955 0.08540017 -0.022587137 -0.0904531
-0.080233194 0.08514644 -0.0018074706 -0.11240517 0.08432267 -0.03703776 0.109278746 0.049600948
-0.043340605 -0.096123345 0.059627123 0.06114369 0.06280282 -0.021187857 -0.047292415 -0.035985183
0.0026228265 0.07573009 0.00041423933 0.032834884 0.08485824 -0.07549529 0.032276783 0.02639517
-0.076999344 0.08063048 0.0594652 -0.08175898 0.11239107 -0.08052748 -0.121968806 0.067981936
-0.05423954 -0.11148983 -0.020915058 0.027735258 -0.05591714 0.03997287 0.07916314 -0.08626366
-0.07315099 0.035804015 0.096628204 0.07269978 -0.0006483887 -0.027129266 0.09022253 -0.0688523
-0.0660448 0.008631969 -0.05131568 0.09386494 -0.07151084 -0.008972909 0.07246923 0.043247893
-0.021156777 -0.03716437 -0.0423588 -0.06388014 -0.023321712 -0.025121266 -0.013990047 -0.024453392
0.052249383 -0.09944921 -0.018853031 -0.077425726 -0.017934572 0.0020147548 0.09048101 0.028593298
