outputs/models/nowcast_10_nolags_seed42.pt (torch, 272556 bytes, 14 tensors)

in_lin.weight f4 [96, 15]
000000 c9 68 52 3e 2a a9 51 3e 29 b3 56 bd 29 15 69 3e
       0.20547785 0.20474687 -0.052416954 0.22761978
000010 5b b8 67 bd 0b 69 55 3d 5c 6d 01 be 2d 3e 68 3e
       -0.0565723 0.05210213 -0.12639374 0.22679968
000020 7d 13 69 3e d5 f7 41 be cb cf 65 3e f2 e7 fc 3d
       0.2276134 -0.18942197 0.22442548 0.123489276
000030 ad d6 59 3e cc e6 49 3c 2e eb d1 3d 16 4e 4f bd
       0.21273299 0.012323093 0.10249935 -0.050611578
000040 fa 23 32 3e 07 74 c4 3c 94 1d 15 be bb c9 86 3d
       0.17396536 0.023981107 -0.14562064 0.06581446
000050 2f a2 f3 bd 21 47 66 bd f5 20 f0 bd 75 64 2f 3e
       -0.118961684 -0.056220178 -0.11725036 0.17128165
000060 c0 b4 50 be 3c c7 f3 bd 42 61 b0 bd 86 55 19 be
       -0.2038145 -0.11903235 -0.086123005 -0.14974031
000070 d3 18 16 3c 95 74 8b be 53 68 6d 3e 72 a4 1a be
       0.009161192 -0.27237383 0.23184328 -0.15101793
000080 91 bf 4a 3e 65 b0 e3 3d 71 b3 ab bd 1f 62 23 3e
       0.1979964 0.11117629 -0.08383835 0.15955399
000090 64 fc 84 3d 6e 9a 90 3e ad 3a e7 3c 40 c4 a6 bd
       0.06493452 0.2824282 0.028226221 -0.081429005
0000a0 dd 13 8e 3d 7e b7 78 3b b4 6b 38 3e c7 f0 3c 3e
       0.06937382 0.0037951167 0.18009835 0.18451224
0000b0 3b 2e 95 3d 19 97 23 be 92 ef 52 3e 0c 50 f3 38
       0.072842084 -0.15975608 0.20599201 0.00011602053
0000c0 b8 94 40 3e 87 26 21 be 1f dd 82 be 6f 52 2f bd
       0.18806732 -0.15737353 -0.25559327 -0.042803224
0000d0 bd d8 6f be 69 f2 58 3e f8 4e 98 3d 53 08 db 3d
       -0.23422523 0.21186222 0.07436937 0.10694947
0000e0 84 46 3a 3d b8 66 26 3d 35 af 27 3e c1 d1 6c be
       0.045477405 0.040625304 0.1637543 -0.2312689
0000f0 3c d0 c4 3c 11 8e 43 be 63 f4 b2 3d 19 5d d5 bd
       0.024025075 -0.19097163 0.08738019 -0.104181476
000100 bf 07 a2 3d 9d 56 5c bd a7 2e 63 3e 3c f3 2b be
       0.07911634 -0.05379354 0.22185765 -0.16792005
000110 5f af 1d be cf b1 1d be 0c cf 6d 3e 1f 17 92 3d
       -0.1539893 -0.1539986 0.23223513 0.07133316
000120 23 9d 80 3e 92 7e 68 be 74 ec 89 be 9e 91 77 be
       0.25119886 -0.22704533 -0.26938212 -0.24176642
000130 70 67 ce bd 34 0a 84 3d 01 51 29 3e 5c b1 5b 3e
       -0.10078323 0.064472586 0.16534807 0.21454376
000140 67 8a 08 be a0 f3 d1 bd 57 fa 61 3e 65 bd d5 bd
       -0.13334046 -0.10251546 0.22068153 -0.10436515
000150 d0 77 20 3e 0c f7 7a bd 18 f1 6c 3e 73 2a f5 bd
       0.15670705 -0.06127076 0.23138845 -0.11970987
000160 00 c7 29 be 0a b1 6f 3d 28 c4 80 3d f3 40 a4 bd
       -0.16579819 0.058518447 0.06287414 -0.080202006
000170 9d 17 26 3e 23 03 25 3e 91 bb 3f be 06 27 0d be
       0.16219945 0.16114478 -0.18723895 -0.13784418
000180 2e b1 6e 3e ae c5 a4 bc 17 77 bb bd ec d3 7f be
       0.23309776 -0.020113792 -0.09153574 -0.24983186
000190 59 69 17 be 55 ad 06 3e df 89 bb bc 95 1a 51 be
       -0.1478628 0.13152058 -0.02289289 -0.20420296
0001a0 0e 88 a3 3b c0 3d 36 be bf f3 61 be 24 4f 13 be
       0.004990584 -0.17796993 -0.22065638 -0.14385659
0001b0 6d 1b 69 be cd 59 28 be 68 25 84 3e 5a 3d 41 3d
       -0.22764368 -0.16440506 0.2580979 0.04717765
0001c0 e8 1c 9f 3d 02 99 76 be ed a5 2d be e3 02 b0 bd
       0.07769185 -0.24081805 -0.16957827 -0.085943006
0001d0 78 d4 1e 3d 0d b0 7a be c1 1d e2 bd 7e 50 06 be
       0.038776845 -0.2448122 -0.11040831 -0.13116643
0001e0 db 21 84 bd 89 20 25 be a3 ec a9 bd 2f 10 76 be
       -0.0645177 -0.16125692 -0.08297088 -0.24029611
0001f0 db 7a 35 be b8 3f 1a be af 89 1d be 75 b4 89 be
       -0.17722647 -0.1506337 -0.15384553 -0.2689549
000200 13 b0 5d 3e 62 e4 51 bd 34 7c 63 3e 9a 74 7a 3c
       0.21649198 -0.051243193 0.22215348 0.015286589
000210 8d 8a 30 be 80 71 73 3e 74 c2 0c be 0f 70 01 be
       -0.17240353 0.23773766 -0.13746053 -0.12640403
000220 93 d2 10 be ac 60 91 be c8 4b 16 3e bf 05 67 bd
       -0.14142828 -0.28394067 0.14677346 -0.056401964
000230 e5 de cd 3d 0d 9c 0d be 70 63 88 3e a4 14 42 be
       0.100522794 -0.1382906 0.26638365 -0.18953186
000240 c8 9d 36 bd 9f e5 5c 3d ba fc 54 3e 25 a5 84 3e
       -0.044584066 0.05392992 0.20799533 0.25907245
000250 52 43 58 3e 83 46 61 be db 87 6d 3d e9 c8 1a bd
       0.2111943 -0.21999554 0.05799089 -0.03778926
000260 e2 84 10 bd 63 ce f5 bd bb d3 70 3e a7 0d 42 be
       -0.035282977 -0.12002256 0.23518269 -0.1895052
000270 7e e8 23 3e 76 06 28 3e 79 d5 ab 3d cb f1 0e be
       0.16006657 0.16408715 0.08390326 -0.13959424
000280 a5 52 70 3e 6a 37 05 3e 5b b8 b2 3d 3f 28 7b be
       0.23469026 0.1300942 0.08726569 -0.24527071
000290 7e c9 37 3d 68 8d ec bc 0e ef 0a be 62 32 6d 3e
       0.044869892 -0.028876022 -0.13567755 0.23163751
0002a0 33 99 22 3d ad 48 12 be 29 d2 05 be 45 f1 23 bb
       0.039696883 -0.14285536 -0.13068451 -0.0025015634
0002b0 f2 db 01 3e c3 1f 87 bd 87 db 16 be b0 14 b5 bd
       0.12681559 -0.06597855 -0.1473218 -0.088418365
0002c0 da 4a 57 be 5f 95 79 3d 21 97 34 3e 08 f7 41 be
       -0.21024647 0.060933467 0.17635776 -0.18941891
0002d0 96 0a 9a 3d 84 0c dc 3d f9 3c 7e 3d f6 6e f1 bd
       0.0752155 0.10744575 0.062069867 -0.11788742
0002e0 ce ff 09 3e 83 f1 0a 3e ca 34 be 3d c6 65 6b bd
       0.13476488 0.13568692 0.092874125 -0.057470106
0002f0 4d 06 8c bd 47 48 e2 3c 89 d3 3a bd 42 74 b6 bd
       -0.06837139 0.027622355 -0.045611892 -0.08908893
000300 ec 4c 2b 3e 12 05 4f 3e 0e 35 3f bd aa 90 78 bd
       0.16728562 0.20216778 -0.046681456 -0.060684837
000310 1d 49 1b 3b 9b 73 97 bc aa 7c 78 3d 63 2f 94 3d
       0.0023694702 -0.018487742 0.060665764 0.07235601
000320 9f 23 70 be 1b 3a c6 bd 32 b4 94 3e 48 fe cd 3d
       -0.23451088 -0.096790515 0.29043728 0.10058266
000330 08 68 52 bc da 67 1f be 6a ff ad bd c4 0c 5d be
       -0.012842186 -0.1556696 -0.08495982 -0.21586901
000340 4b 3d ac bd 75 16 a2 3d 1e 26 1c 3e 9e df f9 3d
       -0.08410128 0.079144396 0.15248916 0.12200855
000350 0f 6d 76 be 06 23 1c be 76 e7 26 bd 55 c3 7f 3e
       -0.2406504 -0.15247735 -0.040748082 0.24976857
000360 10 44 24 3d bf 3d 69 3c df c4 da 3d 28 68 c9 bd
       0.040103972 0.014235913 0.106820814 -0.09834319
000370 b0 21 2b be 3a 05 8a 3e fb db c9 bd 2a 88 76 bd
       -0.1671207 0.26957113 -0.09856411 -0.06018845
000380 2e 1e 89 be f6 55 37 3e 44 7d 38 3e a9 77 cd 3d
       -0.26780838 0.17903885 0.18016535 0.10032589
000390 64 30 48 be a8 78 82 be 91 bc 56 be 7e 3e 40 3e
       -0.1954971 -0.25482678 -0.2097037 0.18773839
0003a0 42 04 46 3e 79 7d 5e 3e 49 82 0a 3e 3c d5 85 3d
       0.19337562 0.21727552 0.13526262 0.06534812
0003b0 aa fe 88 3d 97 33 41 be 66 a2 6a be 8f 03 81 be
       0.06689198 -0.18867336 -0.22913513 -0.25198027
0003c0 af 25 b7 3d 76 73 12 be 72 fc 8b bd 6e f7 28 be
       0.089427345 -0.14301857 -0.068352595 -0.16500637
0003d0 6b b7 40 bd 45 17 3a be 82 7c 3d be 8c 90 8d 3d
       -0.04704992 -0.18172939 -0.18504527 0.06912336
0003e0 a6 27 9d bd 0d 39 23 3e 12 a4 a9 bd 0d 95 52 be
       -0.07673578 0.15939732 -0.08283247 -0.20564671
0003f0 8b 58 4d bd ca c4 0e be e1 d3 26 bd 86 19 7c be
       -0.05013327 -0.13942257 -0.040729407 -0.24619111

in_lin.bias f4 [96]
000000 ed ac fe bd b5 20 88 3b 0f ad 1f bc 82 d5 2c be
       -0.12435327 0.0041542896 -0.00974585 -0.16878322
000010 05 cb 6c be df 25 05 be 7c 89 0a 3e 30 ee f4 3d
       -0.23124321 -0.13002728 0.13529009 0.11959493
000020 05 1d 22 be 6e 5f 8e bd 8f 02 dd 3c 98 ef 51 be
       -0.15831383 -0.069517955 0.02697876 -0.20501554
000030 97 e4 28 3e 01 62 72 3e 0a 7a 6d 3d db 64 38 be
       0.1649345 0.23670198 0.057977714 -0.18007223
000040 95 f8 9c 3d e4 99 c1 3d 7b 77 60 3e 64 5a ff bd
       0.07664601 0.094531804 0.21920578 -0.124684125
000050 4f 3b 7c be 4d 0b ed 3d ea 55 94 3c 77 0a 96 bd
       -0.24632 0.11574421 0.018107373 -0.07326215
000060 e3 6d dc bd f3 db a0 bd c2 aa 6c 3e 2c f0 02 bd
       -0.10763147 -0.07854452 0.23112014 -0.031967327
000070 28 a5 44 3e e8 65 78 3e c2 ea 71 3d 28 73 8f 3d
       0.19203627 0.24257624 0.059061773 0.07004386
000080 2f 24 26 bb 25 12 3b 3e b4 d3 5c be dc 97 00 3e
       -0.0025351157 0.1826864 -0.21565133 0.1255793
000090 89 9d a8 bc 86 69 1e 3e 5d 3b 73 3d 4f 64 98 bd
       -0.020582931 0.15469941 0.059382785 -0.07441007
0000a0 34 e5 00 3d 13 3e 1c 3e 86 90 2b be 96 19 0a be
       0.031468585 0.15258054 -0.1675435 -0.13486323
0000b0 6f df 5f bd ea ac 91 bd 6d 9f f5 3d 78 23 3f 3e
       -0.054656442 -0.07113059 0.11993299 0.18665874
0000c0 c6 5c 38 3c ed fa 86 3e 1e 9c c8 bd 3c 5e 14 be
       0.011252588 0.26363316 -0.09795402 -0.14489073
0000d0 ce 22 ce bd 2c 22 04 be 07 d9 24 be 38 62 25 be
       -0.10065232 -0.1290366 -0.16098414 -0.16150749
0000e0 2a 2e 3f be 0e 16 a0 3d 97 5f 35 3e 97 c8 83 3e
       -0.18669954 0.078167066 0.17712246 0.25738975
0000f0 49 95 74 3e 38 24 87 bb b0 dd 5f 3d e6 39 c4 bd
       0.23885073 -0.0041241907 0.054654777 -0.09581356
000100 50 94 e8 3d c6 90 6c be a4 75 f9 3d 17 17 7b 3d
       0.11356413 -0.23102102 0.12180641 0.061301317
000110 fa ae a0 3d db 01 e2 3d b9 dc cc bd 88 06 6b 3e
       0.07845874 0.1103551 -0.10003037 0.2295171
000120 fe b9 23 3e 75 25 36 3e 68 ef de 3c 2a 97 36 3e
       0.15988919 0.17787726 0.027213767 0.17831102
000130 90 d1 34 3e 1d fb cb 3d 56 3b 4b 3e c8 46 fa bc
       0.17658067 0.099600054 0.19846854 -0.03055133
000140 07 4e 6b 3e c9 cc 9b 3d 13 91 29 3e 98 97 88 3e
       0.22978984 0.07607419 0.16559248 0.26678157
000150 18 a1 a1 3d 3c 8d ab bd 1b 60 4f bc 5f 73 a6 3d
       0.07892054 -0.08376548 -0.012657191 0.08127474
000160 a3 36 6e 3d 03 88 5c bd 28 b6 58 3e 66 bd 32 3e
       0.058157574 -0.05384065 0.21163237 0.17455062
000170 fd 0e 1a be 00 46 b5 bb 66 fc 66 bb 72 1a 19 be
       -0.1504478 -0.0055320263 -0.0035245656 -0.14951494

layers.0.lin_self.weight f4 [96, 96]
000000 41 85 e6 3c 49 11 11 bd c9 0b f9 bc 60 af ac bd
       0.028139712 -0.035416875 -0.030401127 -0.084318876
000010 35 8d 16 bd 98 85 29 3e c9 08 33 3d 72 6b e3 3d
       -0.03675576 0.16554868 0.04370955 0.11104478
000020 43 0b e5 bc a7 c3 b6 3d 92 1a a7 3d f8 cd 82 3c
       -0.027959472 0.089240365 0.08159365 0.015967354
000030 be ab c5 bd e6 a5 09 bc 62 e0 e0 3c 14 78 86 3c
       -0.09651898 -0.00840137 0.027450744 0.01641468
000040 26 af 45 3d 4d 78 85 3d 43 5c b1 3d 0d ee b5 3c
       0.048262738 0.06517086 0.08660176 0.022208238
000050 2e 2d 44 bc 45 b1 83 bd b4 73 88 bc 9a 11 9a bc
       -0.011973662 -0.06430296 -0.016656734 -0.018807221
000060 68 ab 37 3d 91 15 c5 b9 4d b7 1d 3e 9d 1d f8 bc
       0.0448412 -0.00037590836 0.15401955 -0.030287558
000070 c9 00 54 bc 4c 03 f6 bc 8c 12 86 3d 13 78 66 3d
       -0.01293964 -0.030030869 0.06546506 0.056266855
000080 b3 7c cd 3c ac 3b 30 3c 2d 58 46 3c 93 fe 60 3c
       0.025083875 0.010756414 0.012105984 0.01373257
000090 ae 9d d3 3b 5b 6c ae bd 10 7f d3 bc 06 59 52 bc
       0.006458006 -0.08516761 -0.025817424 -0.012838608
0000a0 df 27 c3 bd 50 6c 59 3d 87 36 90 3b 6e a5 4a 3d
       -0.09529089 0.05308181 0.0044010314 0.049474172
0000b0 77 9f 10 bd 24 c3 31 bc 68 47 a6 bd 28 c1 b1 3d
       -0.035308328 -0.010849748 -0.081190884 0.0867942
0000c0 b0 3a ea bc e9 2f e9 3d 0e b1 09 3d e8 b1 05 3c
       -0.028592438 0.11386091 0.033616118 0.008160092
0000d0 66 ce 77 3d 6d 37 0d 3d 49 24 8e bc be d0 bc 3b
       0.06049957 0.034476686 -0.017351286 0.0057621887
0000e0 d5 d2 a6 bc e7 09 25 bd b9 19 43 3d 9a 83 61 bd
       -0.020364204 -0.040292647 0.047631953 -0.055057146
0000f0 69 78 e9 3b f2 7a 37 bd 87 4d 82 bd 54 e9 05 3d
       0.0071249497 -0.044794984 -0.063624434 0.032693222
000100 3d 51 31 bd 0c f3 51 3d 7f 8b a4 bd ba 40 0d 3c
       -0.043290365 0.05125718 -0.08034419 0.008621389
000110 ea 8f 84 3c 58 4b a3 3d 04 59 21 bd d5 9e ea 3c
       0.016181905 0.07973355 -0.039391533 0.02864019
000120 a2 82 a9 3d d1 7c 7a 3d db 13 ad 3c bf c2 1b 3d
       0.08276869 0.06115419 0.021127632 0.03802752
000130 c9 dc 57 bd 27 1a 83 bd ce f6 01 3e 64 a7 72 bd
       -0.05270079 -0.064014725 0.12691805 -0.059241667
000140 e1 99 79 bd e7 b3 9c 3b 3a 2d f6 3d 2c d6 88 bc
       -0.060937766 0.004782188 0.12020345 -0.016703688
000150 8a 84 85 bc c6 04 3a bc 10 de 57 3d 9d 10 3a 3d
       -0.016298551 -0.011353677 0.05270201 0.045426
000160 17 9a f1 3d 76 58 08 bd 74 26 ed 3d d2 9f 8e bd
       0.117969684 -0.033287488 0.115796 -0.06964077
000170 16 cb 2f 3d 66 9e 6f 3d 50 39 07 3e 82 56 a4 3b
       0.042918287 0.05850067 0.13205457 0.0050151953
000180 9b e0 d5 ba 04 5a ae 3b a2 44 14 bd f9 0e 01 be
       -0.0016317548 0.0053207893 -0.036198266 -0.12603368
000190 46 6a d0 bd d1 f7 aa 3d eb be 96 3d 30 4f 9a 3c
       -0.1017652 0.083480485 0.073606335 0.018836588
0001a0 ac e7 56 bd e8 0a e8 3d 3b ac 52 bc 15 f1 0d 3c
       -0.052467033 0.11330205 -0.012858446 0.0086634355
0001b0 de 1f 40 bd 99 f2 1f 3c ef a7 1a 3e b4 51 56 bd
       -0.04690539 0.00976243 0.15103124 -0.052324012
0001c0 b2 1a e0 3b 66 7c 56 bd 06 2f bd bb eb 4e 3e bd
       0.00683912 -0.05236473 -0.005773428 -0.04646198
0001d0 ab 0b 35 3d 93 2f 1b bd 4e 2e 03 3e d8 d1 fe bc
       0.04420058 -0.037887167 0.12810633 -0.03110592
0001e0 3e fc 72 3d 4f 5d 01 be 01 55 02 3e bc dd 75 bd
       0.05932259 -0.1263325 0.12727739 -0.060025916
0001f0 00 3d 9b bc 8c bd ab bc 8b 0c 10 3e 45 7b 87 3d
       -0.018949986 -0.020964406 0.14067285 0.06615309
000200 5b fa 46 bd 2b 1a 18 3c 2b 5e 93 bd 22 8f 29 3d
       -0.0485786 0.009283583 -0.071956955 0.041396268
000210 d3 ee 8f 3d 67 c0 64 bd bc 2e cf bd c3 c9 0a 3d
       0.07027974 -0.05584755 -0.10116336 0.03388382
000220 5b 93 e0 bd 69 21 2b 3d 8d 23 32 3d df 43 0b 3e
       -0.10965606 0.04177991 0.043490935 0.1360011
000230 fa e3 57 3d 2d c4 bc bd c2 37 b0 3d b2 85 23 3d
       0.05270765 -0.09217105 0.08604385 0.039922424
000240 2b 01 8c bd 18 f7 51 3d 94 6a e7 3d 34 b9 a0 3d
       -0.0683616 0.051261038 0.11299625 0.07847825
000250 a4 bd 72 3d 62 cc 78 3b 22 99 51 bd 4d 68 49 bd
       0.059262887 0.0037963619 -0.05117143 -0.049171735
000260 e9 84 14 be da e0 98 3d d2 b6 56 bd 77 58 19 bd
       -0.14503826 0.07464762 -0.052420445 -0.037437882
000270 50 43 fa 3d de cc be 3d f5 c8 96 bd ad 63 d5 bd
       0.1221987 0.09316419 -0.07362548 -0.10419402
000280 98 dc 8e 3d 34 dd 33 3d a5 58 ae bc e8 de c3 bc
       0.06975669 0.043912128 -0.021282503 -0.02391
000290 6a ec 98 bd 1e 1a 7a 3d 68 67 c6 3d f3 cb 57 bd
       -0.074669674 0.061060064 0.09687692 -0.052684736
0002a0 e7 45 fe 3d ba aa 39 3d 4a 87 a9 3d 31 2e d8 bb
       0.124156766 0.045328833 0.082777575 -0.0065973033
0002b0 09 e8 0d bb c6 bb ae 3d 7b 5b e0 3d bd a7 03 3e
       -0.0021653196 0.08531909 0.109549485 0.12856956
0002c0 48 3d 9b bd 1b d1 8d 3d 9c 18 cd 3d 9a a3 ab bd
       -0.07580048 0.06924649 0.100144595 -0.08380814
0002d0 a1 0b be 3d 22 eb 7c 3b 04 d7 83 3d ac 7e 0d bd
       0.09279562 0.0038592299 0.06437495 -0.03454463
0002e0 5d 1f 59 3d 08 bd 51 3d c5 05 88 bc de 24 4d bd
       0.053008426 0.051205665 -0.016604314 -0.050083987
0002f0 94 fc 58 bd ad dc 77 3d 1e 32 13 3e db 54 1d 3b
       -0.052975252 0.060513187 0.14374587 0.0024006877
000300 16 60 b0 3b 4f 63 6a bd f2 67 e1 bc 5d da d9 3c
       0.005382548 -0.057223614 -0.027515385 0.026593382
000310 7d 83 85 3d 57 d6 26 ba 64 13 99 3c df 9c c8 3c
       0.0651922 -0.00063643366 0.018686004 0.024488864
000320 0a 9a ea bc 58 1e 04 bc 0f d1 01 bd 84 54 a4 3d
       -0.028637905 -0.008063875 -0.031693514 0.080239326
000330 e4 68 7d 3c fa 2c 8a 3d 9b af af bc d4 f8 77 3d
       0.015466902 0.0674686 -0.02144604 0.060540035
000340 25 6e a2 3d 2b d2 63 3d 97 3a 37 3d 08 76 ed 3d
       0.07931165 0.055620354 0.04473361 0.11594778
000350 6c 54 52 3c 2c 24 05 3d 09 7a 01 3e 47 6a d5 3d
       0.012837511 0.0325052 0.12644209 0.104206614
000360 9e 90 0e bd c8 08 f1 3c 31 2f 88 3d 2b 43 44 bc
       -0.034805886 0.029423133 0.06649626 -0.011978905
000370 c6 0a b3 3d bc 80 0f bd 87 03 ce 3d 08 43 c0 3d
       0.08742289 -0.03503488 0.100592665 0.09387785
000380 58 4d 68 bd 2a 32 2a bd d0 50 b3 bd ea 0c 22 bd
       -0.056714386 -0.041551746 -0.08755648 -0.039563097
000390 29 43 b5 bd 2c ec 74 bd 0c 66 8f bc 27 7e b0 3d
       -0.088507004 -0.059795544 -0.017504714 0.08617812
0003a0 74 0c e5 3b 16 9d 80 3d c6 11 27 3d ed 67 1b bd
       0.00699001 0.06279962 0.040788434 -0.03794091
0003b0 52 14 cb bd bf e9 b0 3c 1e 6c b7 3d d2 9a f2 3c
       -0.09915985 0.021595834 0.089561686 0.02961484
0003c0 02 1f 0b bd 31 52 30 bd 34 56 5b bd db 20 a1 bd
       -0.03396512 -0.043047134 -0.053549007 -0.07867595
0003d0 1d 64 c4 3d fc 2d 74 bd 46 a4 b8 bd cf 67 4b bd
       0.095894076 -0.059614167 -0.09015708 -0.049659546
0003e0 4f 7b 26 bd a3 64 61 bc be 43 03 3d 31 9d 94 3d
       -0.04064494 -0.013756904 0.032047026 0.072565444
0003f0 21 56 97 bd 76 3e 82 bd 21 13 f2 ba 8c c7 0d be
       -0.07389475 -0.0635957 -0.0018468836 -0.13845652

layers.0.lin_self.bias f4 [96]
000000 a3 11 07 3d dc 9d d8 3d 54 6a d6 3c 73 1c 7d 3c
       0.032975804 0.10576984 0.026173748 0.015448677
000010 d6 3e 0d bd 6b 49 f3 3c 35 41 b5 bd ba 8b d0 bd
       -0.034483753 0.029698094 -0.08850328 -0.10182901
000020 f3 d4 41 bc f6 16 68 bd ca ea 7c bd 04 b0 15 3b
       -0.011830556 -0.056662522 -0.06174735 0.002284051
000030 70 d6 89 3d 7f 58 8c 3d 5c bc ca 3a 0d ae 94 bc
       0.06730354 0.06852817 0.0015467512 -0.0181494
000040 e8 e5 de 3d cb 09 05 3d 47 7b a5 3d 03 fd 2c bd
       0.10883695 0.032480042 0.08080154 -0.04223348
000050 f8 0c bb bd ce d8 2c bd 09 52 6d 3c c7 1d 7c bc
       -0.09133333 -0.04219895 0.014484891 -0.015387959
000060 2b 6a 2a bd 8d 00 d6 3d fc a1 a9 bd 3d 71 92 3c
       -0.041605156 0.10449324 -0.08282849 0.017876262
000070 72 05 7b 3d 6e b9 1c bd 1b 61 84 3d 0e 5c 70 3c
       0.06128449 -0.038262777 0.06463834 0.014670385
000080 3c f5 47 bd 80 8a 37 bd d3 4c 01 bd be f9 c5 bd
       -0.048817858 -0.04480982 -0.031567406 -0.09666775
000090 f4 0b 9e 3d a2 4c d5 3d d9 86 cf bc de 47 8d 3c
       0.07717124 0.10415007 -0.025332855 0.017246183
0000a0 47 00 f5 3c 38 31 fb 3c c5 ae 45 bd 2f 2f 50 bd
       0.029907359 0.030663118 -0.048262376 -0.050826248
0000b0 48 5a e7 3d 0a 69 59 3d a3 4c ec 3d e7 7e 89 3d
       0.11296517 0.05307869 0.11538055 0.06713658
0000c0 b5 43 30 bc 66 1e 9d 3d f6 a9 d2 bb 71 d1 4d 3c
       -0.01075833 0.07671814 -0.0064289523 0.012562142
0000d0 71 45 42 bd c9 46 c1 3d 67 e3 2b bc 6e 32 24 3c
       -0.047429506 0.09437329 -0.010491229 0.010021789
0000e0 80 a8 b9 bd 67 ba 44 3d 9a 94 8f bc 4c 84 45 bc
       -0.09065342 0.04802933 -0.017526913 -0.012055468
0000f0 7d d0 cc 3b 4d 54 2c 3d 2c 9e 91 3c c5 97 72 3d
       0.0062504397 0.042072583 0.017775618 0.05922677
000100 2c 63 70 bd a7 85 83 bd e0 df 85 3d c7 7e fb bc
       -0.058688328 -0.064219765 0.065368414 -0.0307001
000110 64 6d a0 bd e6 c8 f3 bc e9 b1 b8 bd bf bd 19 3d
       -0.078333646 -0.029758882 -0.09018309 0.03753447
000120 34 0b b4 3c b1 38 d1 3d 45 86 66 bd 12 17 24 bd
       0.021977998 0.10215891 -0.056280393 -0.040061064
000130 e0 f4 22 3d ad 92 d7 bc a7 c4 d6 3d f6 41 e1 3c
       0.039784312 -0.026315058 0.10486727 0.027497273
000140 e7 54 4a 3c 34 46 f7 bb 59 96 7c 3d 8b f4 11 bd
       0.012349344 -0.0075462107 0.06166682 -0.035633605
000150 dc 89 4e 3d d6 88 a3 3d 87 76 9c bd 26 3c 92 bd
       0.05042444 0.07985084 -0.07639795 -0.07140379
000160 0e 39 2f bd 12 4a a5 3d 6b 97 66 bd 12 df da 3b
       -0.04277902 0.080707684 -0.056296747 0.006679424
000170 10 0f 1f 3d be 65 98 3c 14 a4 1c bd d5 08 9e 3c
       0.038832724 0.018603202 -0.038242415 0.01929132

layers.0.lin_neigh.weight f4 [96, 96]
000000 db e5 b3 3d 55 10 64 3d 78 e2 34 3d 73 3c 1e be
       0.08784076 0.055679638 0.04416129 -0.15452747
000010 28 52 70 3d 89 3f 1d 3d 0e f2 a2 3d 12 13 62 3d
       0.0586721 0.03839067 0.079563245 0.055193968
000020 13 df 98 bd af 6c f1 3d 56 3e 05 bc 83 5b e0 3c
       -0.07464423 0.11788308 -0.008132538 0.027387386
000030 d7 fa 0c bc 0b 49 50 3d 40 33 c3 3d 89 36 f3 3d
       -0.008604727 0.05085091 0.095312595 0.11875636
000040 54 57 04 bd 94 87 06 3e 0f 46 cc bb a5 de de 3d
       -0.032309845 0.13137656 -0.0062339376 0.1088231
000050 67 0f 1e 3d 73 8b c6 3c e0 65 9b 3c b6 c7 a1 bb
       0.038588908 0.024236416 0.018969476 -0.0049371375
000060 f9 b9 ac bd b0 2e 08 be 35 f5 6d 3d 7e 82 c1 3d
       -0.08433909 -0.1329906 0.058095176 0.094487175
000070 1b 74 67 3d c6 aa e9 3c 18 1d f7 bc 1c cf ca 3d
       0.05650721 0.028523814 -0.03016524 0.09902784
000080 07 97 d1 3d d4 66 07 bd f9 14 55 3d f6 77 ec bd
       0.10233884 -0.03305705 0.052021954 -0.11546318
000090 58 97 11 3b 38 71 7e bd f0 d4 0f be c9 b7 98 3b
       0.0022215452 -0.062119693 -0.14046073 0.004660581
0000a0 52 01 ef bc 2a 68 30 3d 1c 01 d3 3d 31 51 06 3e
       -0.029175434 0.04306809 0.10302946 0.1311691
0000b0 ca e3 9c bd ae 64 a8 bc 04 03 80 3d 3c 90 f7 bc
       -0.07660635 -0.02055582 0.06250575 -0.030220143
0000c0 4b ee 34 bd 9f 37 b2 3d 1c 0e 0d bd 0c 4d b3 3d
       -0.044172566 0.08702015 -0.034437284 0.0875493
0000d0 55 4b 0d bd 96 94 f4 bd ad 42 22 bd 5b 05 c3 bd
       -0.03449567 -0.11942403 -0.03961437 -0.09522506
0000e0 a4 22 48 bc e4 93 7c 3d 09 9b 1b bd 5e ea d0 3d
       -0.01221529 0.061664477 -0.03798965 0.10200952
0000f0 9c b8 95 bc 88 5c bc 3d 9e 9e 39 3d 0c 0e ad bd
       -0.018276505 0.091973364 0.045317285 -0.08449945
000100 08 f0 ff 3d f6 ea 34 3d 06 36 98 bd c9 27 90 3d
       0.12496954 0.04416939 -0.07432179 0.070388384
000110 82 48 e0 3d c9 4e 85 bd 95 f5 5a bc 45 e5 98 bd
       0.1095133 -0.06509168 -0.013364215 -0.07465605
000120 03 b4 0f 3e 85 b3 84 3d cd e6 b9 3d 5b 33 e8 3c
       0.14033513 0.06479553 0.09077225 0.0283448
000130 ea 9c 9c bb 0a f2 a8 3a 75 31 23 bd 5a 0f af 3d
       -0.004779448 0.0012889516 -0.039842088 0.0854785
000140 fb a5 dc bd 2f 21 00 3d 42 e8 d0 3c ab ea 22 3d
       -0.10773846 0.031281646 0.025501374 0.039774578
000150 2e 00 2e bc 69 98 3d 3b c4 9a 6e 3d bb 15 8f bd
       -0.01062016 0.0028929955 0.058253065 -0.06986567
000160 58 ac c7 ba ac 19 a0 bd fe 4f 61 bc e9 f3 04 3e
       -0.0015233858 -0.078173965 -0.013751982 0.1298367
000170 62 be cc 3d 9e df 9f 3d c9 bf 67 bc 56 57 91 3d
       0.0999725 0.078063235 -0.014144846 0.07096736
000180 f3 8b ce 3c 16 33 47 3d e0 51 2f 3d 65 28 0e be
       0.025213217 0.048632704 0.04280269 -0.13882597
000190 14 85 5c 3c b0 84 00 bc ed 36 6c 3d b1 a8 9c 3d
       0.013459463 -0.007844135 0.05766957 0.07649363
0001a0 78 c5 bc bd df 37 71 bc 6b 24 03 3d 53 d6 7c 3d
       -0.09217352 -0.014722793 0.032017153 0.061727833
0001b0 99 cc 92 bd 68 db b6 3d 3a 4e ff 3d 24 2c 8b bd
       -0.0716793 0.08928567 0.124660924 -0.067955285
0001c0 01 ea 8b 3d 0b 23 8c 3d c6 79 25 bd 8b 23 c6 3d
       0.06831742 0.068426214 -0.040399335 0.09674748
0001d0 a1 9b fe bc 51 b9 bb 3d 26 bf e5 bc e1 fd f7 3d
       -0.031080069 0.09166206 -0.028045248 0.121089704
0001e0 4c ad df bb a3 22 2e be 6c 8a f0 3d 81 4f 37 bb
       -0.0068260785 -0.170054 0.11745152 -0.0027970972
0001f0 fa 38 f9 3c 09 31 6c 3d 5d 0d 9c 3d 42 67 53 3d
       0.030422676 0.05766395 0.07619736 0.051612146
000200 6a 8e 6e bd d1 8a 9e bd b0 6a 19 bd 81 07 ab bd
       -0.058241285 -0.07741321 -0.03745526 -0.08351041
000210 73 64 54 bd 77 a1 64 bc 30 cb 64 bd 4e 6b 41 bc
       -0.05185361 -0.013954512 -0.055857837 -0.011805369
000220 76 3f 5d bd 2e 63 7d 3d 1b 4a 0c bd 60 75 97 3d
       -0.0540156 0.061862163 -0.03425036 0.073954344
000230 68 e0 70 bb 68 20 77 3d 3e c8 23 bc b1 54 cc 3d
       -0.003675485 0.06033364 -0.009996472 0.09977091
000240 f6 39 98 bd 39 da fb 3d 4c f9 2f 3d 32 a7 8c 3c
       -0.0743293 0.12297482 0.042962357 0.017169569
000250 3e 63 9e 3d 90 e9 16 be 04 af 95 3d 38 b5 13 3b
       0.07733773 -0.14737535 0.07308772 0.0022538435
000260 5a 91 6f 3c 22 5d b7 3d ea af 99 bd 97 8e ce 3d
       0.014622057 0.089533105 -0.07504256 0.100857906
000270 ac 22 63 3d a1 46 b6 bd 0b 9c d0 3d f3 8f e9 3c
       0.055452988 -0.0890019 0.10186013 0.028511023
000280 5e 12 f3 3c ed 93 df 3d 28 35 9b 3c 5a c8 d0 3d
       0.029671844 0.109168865 0.018946245 0.10194464
000290 41 8b 9f bd a6 ba b2 bd cc 8a 13 3d 34 71 dd 3b
       -0.077902324 -0.087270066 0.03602104 0.0067578796
0002a0 73 8f 93 bc 31 ab 3d bd 99 11 98 3d 4b d2 7c 3d
       -0.018012738 -0.04630584 0.074252315 0.06172399
0002b0 b0 f3 8a bd 3f 5c 10 bd b2 0b 02 3d 76 27 2e 3c
       -0.06784761 -0.035244223 0.031749435 0.010629525
0002c0 1b 82 0e be 6c 7b b7 3d 95 9f 54 bd e5 15 a3 3d
       -0.13916819 0.08959088 -0.05191 0.079631604
0002d0 be db 52 3b c9 f0 b1 bd fa 46 15 3d f9 73 3f bd
       0.0032174434 -0.08688504 0.03644464 -0.04674146
0002e0 cc cb ce 3d 24 83 71 bd 3b 7a a3 3d 5a 92 c5 3d
       0.10097465 -0.058962956 0.07982298 0.09647055
0002f0 bc 8a 5f bd bf a9 e8 bc 8b d9 0b 3e 30 06 1c 3e
       -0.054575667 -0.028401254 0.13657205 0.15236735
000300 fd 62 0b 3d 9e ec 9d 3d fb bd a6 3d 49 e8 fa bb
       0.03402995 0.07711147 0.08141705 -0.007657085
000310 1f bf 37 bb 63 61 32 3e 72 a6 f5 bc 63 16 7b 3c
       -0.00280375 0.17419963 -0.029986594 0.015325162
000320 6c 60 b3 bd 5b 70 8a 3d e1 ae be 3d 0d 5f 9e 3d
       -0.087586254 0.06759711 0.09310699 0.07732973
000330 2f 43 fd 3a 02 8c ec 3d 66 13 03 3e 6a 4c 83 3d
       0.001932239 0.11550142 0.12800369 0.06411059
000340 d0 9f a2 bc 3c 23 b7 3d 63 2c b8 3d c5 19 b3 3d
       -0.019851595 0.08942267 0.08992841 0.087451495
000350 80 52 23 3d ff 34 af 3d 82 89 9c bc c2 47 86 3d
       0.0398736 0.0855503 -0.019108538 0.065566555
000360 9d fe 9d bd e1 98 8c bc 93 81 8f 3d 84 9b 86 bc
       -0.07714579 -0.017162742 0.07007136 -0.016431578
000370 9a fb 75 3d 1a 11 6d bc 3f 69 de 3d 28 a6 a4 3d
       0.0600544 -0.014469409 0.10859918 0.08039504
000380 2c e2 b5 bc c2 6b ac bd e4 64 22 3c c5 89 ca bd
       -0.022202574 -0.08418991 0.0099117495 -0.09889559
000390 8f e2 ff bb 1b a7 72 3c 6b 69 bd bc 65 72 b1 bc
       -0.0078089903 0.014810349 -0.023121556 -0.021660993
0003a0 7a b6 b1 bd ac ae 89 bd b3 35 2a bd 62 5a 9b 3d
       -0.08677383 -0.06722769 -0.041555118 0.075855985
0003b0 d7 a8 30 bd a4 f4 b8 bd 7c 42 c5 bd 42 3d fc bc
       -0.04312977 -0.090310365 -0.096318215 -0.030790929
0003c0 47 88 b0 bd 18 3d 9a 3d 55 33 75 bc ff 15 8a 3d
       -0.08619743 0.07531184 -0.014965852 0.06742477
0003d0 d9 65 b0 3d e3 a3 fe bd 40 c4 79 3d be a3 e6 bd
       0.08613176 -0.12433603 0.060978174 -0.112617
0003e0 c1 f5 32 3d 8f e2 dc 3d e7 0f 69 3d 75 01 3f bd
       0.0436914 0.107854 0.05689993 -0.04663225
0003f0 e4 3f 49 3d a1 7f 7a bd bd 00 b1 3c b8 88 46 3d
       0.049133196 -0.061156873 0.021606797 0.04847023

layers.1.lin_self.weight f4 [96, 96]
000000 f4 2e 37 3d 23 0d 17 3d 24 94 a2 bd a8 f2 e9 3b
       0.044722512 0.036877763 -0.07938412 0.0071395226
000010 e8 e6 5e 3d af 2a 07 3b eb c0 5e bd fa 26 3b bd
       0.054419428 0.0020624807 -0.0543832 -0.045691468
000020 78 22 65 3d fb b8 be 3b 60 00 fb 3c 97 a1 9e bd
       0.055941075 0.0058203912 0.030639827 -0.077456646
000030 a8 44 ba bd af 11 65 3d 9e 90 4d 3d c7 80 ed 3d
       -0.090951264 0.055925068 0.050186746 0.11596828
000040 a0 44 c3 bd 5e 14 2b bd 26 c1 fb bd cd 56 c1 3d
       -0.095345736 -0.04176747 -0.122926995 0.09440384
000050 b7 15 76 3c 85 ee 0e 3d 7c 2c 61 3d 9b 4a 88 3b
       0.015019826 0.03489544 0.054974064 0.0041592843
000060 d0 85 d9 3b 24 a1 cb bd 70 9d 45 3c 07 e6 62 3d
       0.006638266 -0.099428445 0.012061462 0.055395152
000070 b5 3c e5 bc 2e aa 8e bd 3a 02 86 bd 43 f8 b3 3b
       -0.027983049 -0.06966053 -0.065433934 0.0054922416
000080 b1 20 89 3d 95 da 37 3b 84 1a 8e bd 82 ee c3 bb
       0.066956885 0.002805387 -0.06938651 -0.00597936
000090 fd 16 a0 bc c6 ff 75 3b ae 4b 8e 3d f6 a8 a9 bd
       -0.019542212 0.0037536486 0.069480285 -0.0828418
0000a0 3b 90 ea bc 2c 17 9c bd 5a a7 64 3d 90 e6 a2 bd
       -0.028633228 -0.07621607 0.05582366 -0.079541326
0000b0 d2 37 c9 bc 72 0a b9 bd 62 43 7d bd 5b e7 26 bd
       -0.02456275 -0.090351954 -0.06183184 -0.04074798
0000c0 ea 5b 99 3c d5 69 f1 bd 47 1c 2b bc f2 ef 73 bd
       0.018720586 -0.11787764 -0.010443754 -0.059555
0000d0 8a f2 62 3d 79 40 8b bd 45 92 ba bd f7 57 1f bc
       0.055407085 -0.067994066 -0.0910993 -0.009725562
0000e0 1d a5 af bd d7 e3 24 bd b0 c8 9a 3d 96 1e 88 bd
       -0.08576415 -0.040256348 0.07557809 -0.06646459
0000f0 2e 24 43 bd f0 ed 74 3d 5d a2 8c 3d fa c7 f9 3d
       -0.047641926 0.059797227 0.06866906 0.121963456
000100 52 5b b1 3d 8c d8 8e 3d 3b 2f 89 3c de 02 1f bd
       0.08659996 0.06974897 0.016746154 -0.038821094
000110 6d 4c 28 bd af af c9 3c a7 9e 91 bc 6a 6e 8f bd
       -0.04108851 0.024619905 -0.017775847 -0.07003482
000120 11 83 ba 3d 4b cd 41 bc 2b 03 9e 3d 47 ad 01 3a
       0.0910703 -0.011828731 0.07715448 0.000494678
000130 72 6a 4a 3d 19 70 31 3c 25 b5 38 3c ec 8b b0 bd
       0.04941792 0.010829949 0.011273657 -0.08620438
000140 a8 1c 72 3d e0 2a 94 bc c6 2a 53 3d 79 04 2a bd
       0.05910936 -0.01808685 0.051554464 -0.04150817
000150 ab 7e a5 3c be f2 d6 bd 31 4e a5 bd e9 c7 be 3d
       0.020202002 -0.10495518 -0.080715545 0.093154736
000160 23 13 83 3d d4 6b 2a bd 97 fc 80 bd 51 83 bf bd
       0.064001344 -0.04160674 -0.06298178 -0.093512185
000170 9b ad 81 3d f7 f3 e0 bc 14 8c 2f bc 34 9d d6 3c
       0.06331941 -0.027460082 -0.01071455 0.026198007
000180 a4 8f 5c 3d 64 b9 0f 3c a1 19 3d 3d 15 50 ba bd
       0.053847924 0.008772228 0.04616702 -0.09097306
000190 ff 1e a2 3d 7f cf c2 bd 41 b2 32 bd ed f3 0a bd
       0.07916068 -0.09512233 -0.043627027 -0.033924032
0001a0 dd eb 73 bd 39 1e 9f 3c 07 86 94 3d eb 1d ba ba
       -0.05955111 0.019423591 0.07252126 -0.001419959
0001b0 30 05 24 bc f9 a4 2e bd 86 e2 2b 3c e4 b6 c6 bd
       -0.010011002 -0.0426378 0.010491019 -0.09702852
0001c0 ec 50 c4 3d 44 52 f5 3c 0a 83 40 bd 2a 8f ef bb
       0.09585747 0.029946454 -0.04699997 -0.0073107677
0001d0 1b 7d f5 3c 13 fa 04 3e d0 fc d5 ba 7c 4a 87 bd
       0.029966881 0.1298602 -0.0016325954 -0.06606004
0001e0 8f 33 c4 bc 8e 43 31 3d c6 a2 86 3d 6a 0e d3 3c
       -0.023950366 0.043277316 0.06574015 0.02576371
0001f0 94 ac f0 3d 54 f4 87 bd 85 c7 82 bd d2 61 04 3d
       0.11751667 -0.06638399 -0.063857116 0.03231985
000200 ba 66 a0 3d d6 e3 cf 3d 7d ba 25 3d ff 44 1b 3c
       0.078320935 0.10150878 0.040461052 0.009476899
000210 d9 66 88 3d c2 0a 8d 3d 5d 63 d6 bd 5d a3 d4 bc
       0.06660242 0.068868175 -0.10468171 -0.025956804
000220 a6 53 8b 3d ac 46 8c bc 64 e4 2c bd 29 12 8c bd
       0.06803064 -0.017123543 -0.042209998 -0.06839401
000230 31 4a 14 bd 76 61 91 bb 7c 4f f3 3c 79 cf ab bd
       -0.036203567 -0.004436667 0.029700987 -0.08389182
000240 d8 1d c2 3d ab 5c 0b 3d cb 2f c5 3d 91 95 cb bc
       0.094783485 0.034023922 0.096282564 -0.024851592
000250 48 74 ab 3d d7 12 54 3d 48 b3 9b bd 55 af 91 3d
       0.08371788 0.05177578 -0.076025546 0.0711352
000260 bf 37 82 3d bd f3 47 bd 23 6e 18 3d 03 70 a5 bb
       0.06358289 -0.04881643 0.03721441 -0.005048753
000270 bf 03 ad bc 1d 0a b3 bc 23 d2 38 bd 66 e3 bd 3c
       -0.02111995 -0.021855408 -0.045122277 0.023179721
000280 e8 b3 16 bc 47 4a dd bc 51 06 4f 3d 1d 4e 8d bd
       -0.009198166 -0.027012957 0.050543133 -0.068996646
000290 89 dd 9a bd 3b a2 69 3d 99 85 f7 3d 99 c5 1f bd
       -0.07561786 0.05703948 0.120860286 -0.039006803
0002a0 90 c2 07 bd b3 1f 19 bd 79 58 87 3d 44 1e 55 3c
       -0.033144534 -0.037383746 0.06608672 0.013007704
0002b0 62 04 6a bd 72 43 48 bd ca b5 84 bd 57 6e 29 3d
       -0.057133086 -0.048892446 -0.06479986 0.041364994
0002c0 11 bc 0b bd f1 46 26 bd 32 38 8e 3d f4 7e a9 3d
       -0.0341149 -0.040595 0.06944312 0.082761675
0002d0 cc 30 bf bd bf 7d 54 3d b5 0d bb 3d 46 92 d1 3d
       -0.09335479 0.051877733 0.09133474 0.102329776
0002e0 94 28 8a 3d da 84 1b bd fa e6 73 bd dd ba 58 bd
       0.06746021 -0.037968494 -0.05954645 -0.05291258
0002f0 2c 09 be bd 32 9a 00 bd a4 1f a8 3d fc 99 0a 3e
       -0.09279093 -0.031397052 0.0820916 0.13535303
000300 93 36 af 3d 7e ab cf 3b 56 18 02 3d 3e f8 82 bc
       0.08555331 0.006337582 0.03176149 -0.015987512
000310 98 5b 01 bd 46 bf e8 bb 75 72 7d 3c f2 e5 ee 3b
       -0.03158149 -0.0071028797 0.015469183 0.007290595
000320 6c 5b 40 3d 6f f0 79 3d bf 06 c4 3d 43 71 3c 3d
       0.046962187 0.06102031 0.09571599 0.046006452
000330 1c d3 81 bd 37 cf 00 3d 02 8f b9 3c 4b c7 d0 bd
       -0.06339094 0.031447615 0.0226512 -0.10194262
000340 63 34 e0 3c aa 51 9d 3d 84 73 08 bd ff db 43 3d
       0.02736873 0.07681592 -0.03331329 0.047817226
000350 a4 06 80 bd 90 d0 82 3d 70 88 92 3d fc 30 7f 3d
       -0.062512666 0.063874364 0.0715493 0.062302575
000360 68 3e 04 bd 2d 11 83 3d 48 b3 75 bd e1 bf c2 bc
       -0.032286078 0.063997604 -0.05998543 -0.023773136
000370 9f 31 92 3d d6 34 8d bd bc b9 c2 3d db ce 91 3d
       0.07138371 -0.06894843 0.09508082 0.07119533
000380 d2 88 e5 3d fd 16 20 bd f8 ea 80 3d 37 8e d1 3d
       0.11207737 -0.039084423 0.06294817 0.102322035
000390 f5 5c 77 3d c4 64 cc bb c7 8e a9 3d 84 ad ae 3d
       0.060391385 -0.006237598 0.08279186 0.08529189
0003a0 e6 2b ca 3c 3c 44 64 bc 18 e5 c0 bc f5 0f d7 3d
       0.024679136 -0.013932284 -0.02354674 0.105010904
0003b0 fc 73 b6 3c d1 90 4f bc 96 9e 26 3d b9 63 69 bd
       0.022272103 -0.012668804 0.040678583 -0.05697987
0003c0 78 5c 3b 3d a3 ce 57 3d 7c 58 a5 3c 7e 93 14 3b
       0.045742482 0.0526873 0.020183794 0.002267092
0003d0 72 0e 60 3d a5 a0 e7 3d d8 80 93 3d 5b 62 c0 3d
       0.054701276 0.113099374 0.07202309 0.0939376
0003e0 86 34 03 3d 90 d3 a9 3d f7 e7 87 bd e9 34 62 bd
       0.032032512 0.082923055 -0.06636041 -0.05522624
0003f0 06 cf a0 3d f6 d4 0c 3d 76 46 de 3c 44 29 16 bd
       0.078519866 0.034382783 0.027133208 -0.036660448

layers.1.lin_self.bias f4 [96]
000000 3c be 31 bc d5 6a 00 3c fc ab 4c 3d 20 ce fc 3c
       -0.010848578 0.007837971 0.049968705 0.030860007
000010 a7 e7 ab bd 36 a6 8a bd 57 18 82 bd d8 14 ae 3d
       -0.083937936 -0.067699835 -0.06352299 0.085000694
000020 78 d1 97 3b 85 22 34 bd 8d cc 8f 3c 21 8c c9 3c
       0.004633125 -0.043978233 0.017553592 0.024602951
000030 dc ee 9b 3d fb e1 a8 bd a5 3d 86 3c 29 01 d6 3d
       0.07613918 -0.08246227 0.016386816 0.1044944
000040 c4 76 9d 3c 14 65 db 3d d8 35 a5 3d 08 07 31 3c
       0.01922167 0.107126385 0.080669105 0.010804899
000050 39 c2 cf 3d 74 26 9b bc 65 82 a5 3d f1 91 99 bb
       0.10144467 -0.018939234 0.080815114 -0.004686587
000060 09 ce c8 bd 7a 85 c8 3c ed cc f3 3c c9 92 6f bd
       -0.09804923 0.02447771 0.029760802 -0.058489595
000070 cb b6 bf 3d 19 90 a1 bd 26 2d aa bd 9f 67 47 bc
       0.09361037 -0.078888126 -0.08309393 -0.012170701
000080 b8 c6 29 3c fe 1f 94 3d 63 c4 06 3c 5b 78 84 bd
       0.01036232 0.072326645 0.008225533 -0.064682685
000090 c5 52 bf 3c 4a d0 e6 3d a3 a5 e4 3d 41 0a 00 3d
       0.023354897 0.11270197 0.11164405 0.03125978
0000a0 af d4 8a ba 94 cd bd bb cc c8 e1 3d fb ef dc 3c
       -0.0010591949 -0.005792329 0.11024627 0.0269699
0000b0 a3 28 18 3c 9c 19 06 3d 52 cd 83 bd b0 a3 d4 3b
       0.009287032 0.032739267 -0.06435646 0.0064892396
0000c0 f9 4c 8b bd fc 5c 6d 3d 64 5a ac 3d 78 63 03 3d
       -0.06801791 0.057950005 0.08415678 0.032077283
0000d0 73 68 a0 bc 4e 03 b1 3d 02 db 4b 3c 41 f3 9b bd
       -0.019581055 0.086432084 0.012442352 -0.076147564
0000e0 4f fc a6 bd fc d4 33 3d 60 61 ba 3d bd 9f c0 3d
       -0.08153593 0.04390429 0.09100604 0.09405468
0000f0 13 6e 05 3d 64 a4 74 bd bc 28 6b bd 89 02 b1 3c
       0.032575678 -0.059727088 -0.057411894 0.021607654
000100 5e b4 92 3d 21 85 a6 bc 8b 97 39 3d dd 30 97 3d
       0.071633086 -0.020327153 0.04531054 0.07382367
000110 46 c6 45 3d 66 2d 04 3d c2 6b e4 bb c1 ca 79 bd
       0.04828479 0.032269858 -0.0069708535 -0.060984377
000120 15 40 43 3c 94 0c b4 bd 27 27 ad 3d ef fe 15 3d
       0.011917134 -0.087914616 0.08454733 0.036620077
000130 de 9d 5b 3d 6b 10 0b 3e 8a 8b 17 bd ab a2 af 3c
       0.05361735 0.13580482 -0.03699831 0.02143987
000140 e9 5d 35 bd 92 6a 69 3d 4c 8b 44 3d 4a b8 b8 3d
       -0.044279013 0.0569864 0.047984406 0.09019525
000150 e1 8b 05 3c be ee ab 3d a9 ab 44 bd 7a 37 59 bd
       0.0081510255 0.08395146 -0.04801527 -0.053031422
000160 d2 0a 96 bd 7e c0 85 3d f5 08 89 bd 45 77 7a bd
       -0.073262826 0.065308556 -0.066911615 -0.0611489
000170 86 58 c6 bb 90 79 8d 3a c8 4b b6 3d 6b 82 d9 3d
       -0.0060530333 0.0010793675 0.08901173 0.106205784

layers.1.lin_neigh.weight f4 [96, 96]
000000 53 a4 3a bd 99 56 d9 bc 2a 61 c1 bd 6e cf b8 bd
       -0.045566868 -0.02653055 -0.09442361 -0.09023939
000010 9e ea 16 bd 5b 65 1b bd ad f9 8e 3d 82 95 bb bc
       -0.036844842 -0.037938457 0.069812156 -0.02289844
000020 7b cb e6 3c 3c 90 df bd 8a f6 05 bd 34 06 99 3b
       0.028173199 -0.109161824 -0.03270582 0.004669929
000030 69 8e f3 bc 86 c4 8c 3d 6d c9 e3 3c 61 e0 0d 3e
       -0.029730992 0.06873421 0.027806008 0.13855125
000040 4a f3 64 3d 82 83 54 3d a1 bb ee bd c4 a5 4c 3d
       0.05589608 0.051883228 -0.11656881 0.049962774
000050 c4 fb 98 bd d4 62 d0 3d c7 14 3e 3d 6f 7f 45 bd
       -0.074698955 0.101751 0.046406534 -0.048217233
000060 55 5b df 3b f2 b6 22 3c fd dc a5 bd 47 49 25 3c
       0.0068163075 0.009931313 -0.08098791 0.010088271
000070 de ed 05 bc 3d 87 bd 3c 00 98 89 3d c4 ed 52 bd
       -0.008174388 0.023135776 0.06718445 -0.051496282
000080 6c 74 b2 bd f0 82 87 bd f4 81 55 bc 9a 38 dc bc
       -0.08713612 -0.06616771 -0.0130314715 -0.026882458
000090 ba 35 53 bd 37 1e 14 bd c6 a5 7b 3d 8b 3e 81 bd
       -0.05156491 -0.036161628 0.06143739 -0.06310757
0000a0 71 ed 8d 3d 62 7b 67 3c 3a 6d 73 bd a4 1e 9c bb
       0.06930054 0.014128538 -0.05943034 -0.004764395
0000b0 fb 60 a2 3c d7 bf 79 3d 00 ae bd bb bb d9 6b bd
       0.019821635 0.06097397 -0.0057885647 -0.05758069
0000c0 22 1e b2 3d 04 e3 4d bd b0 c5 0b 3d 1f 21 b1 3d
       0.08697154 -0.050265327 0.034124076 0.086488955
0000d0 a3 89 d2 3b 09 94 c5 3d 61 49 bc bc 73 5f 5d bd
       0.006425099 0.09647376 -0.022984209 -0.054046106
0000e0 7b ff 53 3d d6 06 ca 3d 6d f5 1c 3e a9 8e ec 3d
       0.051757317 0.09864585 0.15327998 0.11550648
0000f0 85 0d 88 3c 7b 25 bc bd 30 24 ae 3d e7 75 11 3e
       0.01660801 -0.09186836 0.08502996 0.14205132
000100 0d 7c bb bd e1 48 48 bc ff a1 57 3d 80 a3 4f bc
       -0.0915452 -0.012224407 0.052644726 -0.012673259
000110 10 b8 9f 3c 94 f1 51 bd 9d 83 8c bd 3b bf a9 bd
       0.019496948 -0.051255777 -0.06861041 -0.082884274
000120 b9 7c 87 bc 85 fe 2d bd 71 1b 57 bd fa 73 8b 3d
       -0.016538965 -0.042479057 -0.052516405 0.0680923
000130 48 ef 7a 3b 8e 75 ad bd 82 b8 c3 bd a5 f0 8f 3b
       0.0038289595 -0.084696874 -0.095566764 0.0043927007
000140 30 d9 ea bc be 51 0d 3e ce 7b 28 3d 55 74 4d bd
       -0.028668016 0.13800713 0.041133694 -0.05015977
000150 60 e8 9a bd cf c7 3d bd ef 59 ea bd 6e 73 a5 3d
       -0.07563853 -0.04633313 -0.11442935 0.08078657
000160 d2 d1 c0 bd 59 6b e2 3d e3 8a 55 bd 9e 10 07 3d
       -0.0941502 0.11055631 -0.052134406 0.03297483
000170 57 1e 9e 3d 6c b4 3f 3d 7b e9 2d 3d ee 5c 6a 3d
       0.077206306 0.046802923 0.042458992 0.05721753
000180 66 60 ce 3d 7c e5 00 3e fd 9a 16 bc 98 09 0f bd
       0.1007698 0.12587541 -0.0091922255 -0.03492126
000190 f5 cc 69 bc 57 b7 e2 bb 4f 72 b7 3c 8c 67 39 bd
       -0.014270057 -0.0069188285 0.022393374 -0.045264766
0001a0 3a 79 a3 bd 77 19 54 3c 08 9b f7 3d bf 25 f8 3d
       -0.079821065 0.012945524 0.12090117 0.121165745
0001b0 2b 6e 9e bc d0 37 e3 3d 11 6a 76 bd fe 8f ef bc
       -0.019339642 0.1109463 -0.060159747 -0.029243466
0001c0 c2 f7 90 bd 89 85 d0 3d b3 93 6c bd 03 35 e7 3c
       -0.07078506 0.1018172 -0.057758044 0.02822352
0001d0 8c 48 b4 bd 67 2a dc 3d 3b f6 69 bd 0a c7 96 3d
       -0.088029 0.10750275 -0.05711959 0.073621824
0001e0 0c 79 80 bd 3c 7f 32 3d ae 7c aa 3d 36 b5 fa 3d
       -0.06273088 0.04357837 0.08324562 0.122415945
0001f0 f7 ab f0 3c 18 0c b5 3d 87 f9 d1 3d 56 b5 d0 3d
       0.029378874 0.08840197 0.10252672 0.10190837
000200 4f ab c2 3d 63 91 64 3b 0c 32 28 3d 82 8b 5e bd
       0.09505331 0.0034876696 0.041063353 -0.054332264
000210 b7 f5 2d 3d 1f 19 a8 3d 6e cb 4a ba 4e ea 85 bd
       0.04247066 0.082079165 -0.0007736002 -0.06538831
000220 e6 53 32 bd d8 9f 9c 3d 39 d7 3a bd 0b 98 db 3d
       -0.043537043 0.07647675 -0.04561541 0.10722359
000230 bd 8f 70 bc b6 e0 7a bc 79 16 98 3c bc 33 ef bc
       -0.014682707 -0.015312364 0.018565403 -0.029199474
000240 c8 22 b1 bd 76 16 b3 3c 14 77 06 bd 09 7b c3 3d
       -0.08649212 0.021861296 -0.032828405 0.095449515
000250 e6 76 7e 3c 55 d8 af 3c 4b f1 98 3d b3 72 cd 3d
       0.015531277 0.02146546 0.07467898 0.10031643
000260 58 e6 9a bd 56 f3 e3 bb f4 29 8c bd 80 c1 d6 3d
       -0.07563466 -0.006956498 -0.068439394 0.10486126
000270 e2 75 9d 3c 64 39 30 ba d6 3d 89 bc 11 02 c8 bd
       0.01922125 -0.0006722419 -0.016753118 -0.09766019
000280 bc 3f 9c bd 97 df 74 bd bd e1 71 bc 8f 47 f9 3c
       -0.07629344 -0.059783544 -0.014763293 0.03042963
000290 10 fd 6d bd 87 40 06 3d c7 3b f6 bb f7 c6 95 3d
       -0.058102667 0.03277638 -0.0075144502 0.0731334
0002a0 e0 d4 c0 3d 5d e1 e2 3d 2b 26 e5 3c a1 c9 01 3e
       0.09415603 0.11078141 0.027972301 0.12674572
0002b0 ac 58 ea 3d 9d 56 52 bb 7b 9d e4 bc cd 15 d8 3c
       0.11442694 -0.0032095083 -0.027907124 0.026377583
0002c0 52 d2 c5 3d f0 bf 8a bc 50 91 12 bd e7 0e 0f 3c
       0.09659256 -0.016937226 -0.035783112 0.00873158
0002d0 cc e9 af 3d 4e 2e 94 3d ba 5d fb 3d 16 32 86 3d
       0.08589515 0.072353944 0.12273736 0.06552522
0002e0 12 12 f0 ba 8a 03 d4 bd 9f bb 75 3d ce 79 8e bd
       -0.0018315932 -0.103522375 0.059993383 -0.06956826
0002f0 8d e9 d9 bd 41 c0 0b bb 85 46 eb 3c 9e ee 40 bd
       -0.106402494 -0.002132431 0.02872015 -0.047102563
000300 b0 8a b6 3d 1b 75 92 3d 68 89 97 bb 5a 7c 38 3c
       0.08913171 0.07151242 -0.0046245344 0.0112601165
000310 db 9f a8 bc f1 ef ac 3d e0 fe a9 3d 3f 3f b9 bd
       -0.020584038 0.08444203 0.08300567 -0.09045266
000320 96 1d f1 bc 33 5f f3 3c 84 b4 8c bd 14 cd 4e bd
       -0.029433053 0.02970848 -0.06870368 -0.050488546
000330 b6 40 37 3d 52 6d 15 3c 4c e2 05 be 60 18 82 3d
       0.044739448 0.009120302 -0.13074607 0.063523054
000340 44 09 38 bd d7 58 b1 bd 05 6f 0d 3d 19 3d 9d bd
       -0.04493071 -0.08659523 0.034529705 -0.07677669
000350 08 50 b6 3d 40 cc 5b 3c 65 a0 57 bc 49 cb 76 3d
       0.089019835 0.013415396 -0.0131608 0.06025246
000360 d2 34 ed bc 7b 18 0d 3c 0b 4b a0 3d 6a 33 f7 3d
       -0.02895585 0.008611794 0.07826813 0.12070353
000370 b2 cb 8b bd 37 d0 9c 3d dc 3a 84 bd 0e b1 96 3d
       -0.06825961 0.07656901 -0.06456539 0.07357989
000380 5f dd 5a bd e6 04 2a 3c bc 77 f6 bc 66 b9 d7 3d
       -0.053433772 0.010377144 -0.03008639 0.10533409
000390 1f f6 8a 3d 2d 1f e2 3c 7a 3b 9b 3d a7 e7 71 bd
       0.06785225 0.027602756 0.07579704 -0.05905881
0003a0 a4 e5 5b bd ee 99 ca 3d cb e1 be 3d b0 db 61 3d
       -0.0536858 0.09892641 0.0932041 0.05514115
0003b0 03 1c 4c bc 36 8d 2d bd 98 5b 09 3e 8b 42 b4 3b
       -0.01245785 -0.042370997 0.13413846 0.0055010966
0003c0 f3 f3 c9 bd ea 37 d0 3d 5e f1 cf ba 0f 36 9d bd
       -0.09860983 0.10166915 -0.001586478 -0.076763265
0003d0 0c 5c 0b bd 3f ec 67 bd 60 a1 08 bb 23 31 5a 3c
       -0.03402333 -0.056621786 -0.002084814 0.013317379
0003e0 cf 8a 0f bd 07 b4 a7 3d f4 ac ce bd 26 74 ee 3d
       -0.035044488 0.08188634 -0.10091582 0.11643247
0003f0 53 29 6c bd 9e 9d 83 bd 8a 01 c0 3c 21 95 81 3c
       -0.057656597 -0.064265475 0.023438234 0.01581818
