outputs/models/nowcast_routenet_seed999.pt (torch, 495552 bytes, 20 tensors)

in_lin.weight f4 [96, 15]
0	0x3db166eb	0.08662208
1	0x3dc38bb9	0.09548134
2	0xbe79174e	-0.24325296
3	0x3e7ab98c	0.24484843
4	0xbb7ca1a8	-0.0038548503
5	0x3e83d067	0.25744936
6	0x3e190ff2	0.14947489
7	0xbe9516ee	-0.29119056
8	0xbd93318b	-0.07187184
9	0x3e817d4c	0.25290906
10	0xbe510388	-0.20411503
11	0xbe5c8056	-0.21533331
12	0xbd30c61c	-0.04315768
13	0x3ca5c11e	0.020233687
14	0x3e6b76f4	0.22994596
15	0xbe868dad	-0.26279965
16	0x3e204645	0.15651806
17	0xbdec2a1b	-0.115314685
18	0x3c957709	0.018245237
19	0xbe1aeb43	-0.15128808
20	0xbe104bd4	-0.14091426
21	0x3e38b3f1	0.18037392
22	0x3e3b9f96	0.18322596
23	0x3e040c4b	0.12895314
24	0x3e137ec0	0.1440382
25	0xbd6312bd	-0.055437792
26	0x3dc9189b	0.09819146
27	0xbe174c62	-0.14775231
28	0xbe7ceace	-0.24698946
29	0x3d892849	0.06697137
30	0x3c91e4b8	0.017809257
31	0xbe400f43	-0.18755822
32	0x3e0569fb	0.1302871
33	0x3d10d835	0.03536244
34	0x3de9dce6	0.11419086
35	0xbd8e2b05	-0.06941799
36	0x3de3d4c1	0.11124564
37	0x3dbb5ddf	0.09148764
38	0xbdb8d408	-0.09024817
39	0x3e3d521a	0.1848835
40	0xbd034b7d	-0.032054413
41	0x3e935e88	0.2878306
42	0xbd33bfb3	-0.04388399
43	0x3e0e9372	0.13923433
44	0x3e1e2507	0.15443812
45	0x3d11a13e	0.035554163
46	0x3a177e49	0.0005779011
47	0xbd5a2b63	-0.053264033
48	0xbe744098	-0.23852766
49	0x3e15f39f	0.14643715
50	0x3e59643a	0.2122964
51	0x3e4c6f21	0.19964267
52	0xbe93fd3d	-0.28904143
53	0xbe58e246	-0.21180066
54	0x3df935ac	0.1216844
55	0x3d832ba1	0.06404806
56	0x3e0d05f7	0.13771807
57	0x3e56300e	0.20916769
58	0xbe384254	-0.17994052
59	0xbe5fa5e0	-0.2184062
60	0xbe910c00	-0.28329468
61	0xbe120b98	-0.14262235
62	0xbe63c74c	-0.22243994
63	0x3e7ee707	0.24892817
64	0xbde19a2b	-0.11015733
65	0xbe1153c4	-0.1419211
66	0xbe1d594b	-0.15366094
67	0x3e6e528d	0.23273678
68	0x3e55767b	0.20845978
69	0xbdc36ca2	-0.095422044
70	0xbdcb71a7	-0.09933787
71	0x3e8e8a88	0.27840066
72	0xbda2ff87	-0.07958894
73	0xbd8c3c17	-0.06847399
74	0x3e56fba5	0.20994432
75	0x3dbd2597	0.09235685
76	0xbd227411	-0.03966147
77	0xbe328ce9	-0.17436565
78	0xbcf31bc9	-0.029676335
79	0x3e34ab1e	0.17643401
80	0xbe5140ca	-0.20434871
81	0xbe300949	-0.17191042
82	0x3e8fc2a7	0.28078195
83	0x3c910c68	0.017706111
84	0xbe1288d9	-0.14310016
85	0x3e12ce38	0.14336479
86	0x3e573f4d	0.21020241
87	0x3e5bed7b	0.2147731
88	0xbdafc2c0	-0.085820675
89	0xbe5b2afd	-0.21403117
90	0x3e5fed3c	0.21867841
91	0xbe0c340d	-0.13691731
92	0x3e51c42c	0.2048499
93	0xbbee2ed6	-0.007268767
94	0xbdace9f5	-0.08443061
95	0xbe43b604	-0.19112402
96	0x3d91b7b5	0.071151175
97	0xbe3ff4c0	-0.18745708
98	0xbe84e98f	-0.2595944
99	0xbddbc481	-0.107308395
100	0x3dc5d415	0.09659592
101	0xbd820fe4	-0.06350687
102	0x3e15e46c	0.14637917
103	0x3d9f181d	0.07768271
104	0x3e202349	0.1563846
105	0xbe6f8ff3	-0.23394756
106	0x3dcbf726	0.09959249
107	0xbe40f842	-0.18844703
108	0xbe2df372	-0.16987398
109	0x3d8d51f9	0.06900401
110	0x3d0d0c36	0.034435473
111	0x3d8d16e5	0.068891324
112	0x3e89c938	0.2691133
113	0xbe3d72e9	-0.18500866
114	0xbe028cb7	-0.12748991
115	0xbe725c0f	-0.2366793
116	0x3e5efd14	0.21776229
117	0x3e9b4e22	0.30333048
118	0xbe12ed4b	-0.14348333
119	0xbe47aeac	-0.19500226
120	0xbdd79b87	-0.10527711
121	0xbe114f60	-0.14190435
122	0x3e850d67	0.25986788
123	0xbd8b11c2	-0.067904964
124	0xbe00de78	-0.12584865
125	0xbcf331f3	-0.029686904
126	0xbd1a271e	-0.03763496
127	0x3d51f174	0.05125566
128	0xbddcaf63	-0.1077564
129	0xbe0f8a75	-0.14017661
130	0x3dbc2bd0	0.09188044
131	0xbe59a4a1	-0.21254207
132	0x3e456c9b	0.19279711
133	0x3cdc4b83	0.026891476
134	0xbd7a9a0c	-0.061182067
135	0xbe8db737	-0.27678844
136	0xbe463a33	-0.19358139
137	0xbe568237	-0.2094811
138	0x3d9da546	0.07697539
139	0xbe5b1002	-0.21392825
140	0x3e6ba9fc	0.23014063
141	0x3e832ff8	0.25622535
142	0x3e2e0991	0.16995837
143	0xbe345e5b	-0.17614119
144	0x3e81f08d	0.25378838
145	0xbe34511a	-0.17609063
146	0x3e6a0c56	0.22856268
147	0x3e8020b4	0.2502495
148	0xbe114110	-0.14184976
149	0x3dead468	0.114662945
150	0xbd2045d9	-0.039129112
151	0xbdaf73da	-0.08567019
152	0x3e19fbf0	0.15037513
153	0x3e086e87	0.13323413
154	0x3cd76481	0.026293041
155	0xbe834171	-0.25635865
156	0xbe159ff3	-0.14611797
157	0xbe6f3539	-0.23360147
158	0x3dfa1a41	0.12212039
159	0xbe272dc3	-0.1632605
160	0x3e012593	0.1261199
161	0xbd9ee9ad	-0.07759414
162	0xbe88ead2	-0.26741654
163	0xbdb14129	-0.086550064
164	0xbcc7e972	-0.024403308
165	0xbe27b969	-0.16379322
166	0x3e3a0b70	0.18168426
167	0x3e2ce342	0.16883567
168	0xbd2d550e	-0.042317443
169	0xbdcb95e2	-0.09940697
170	0x3e1edd03	0.15513997
171	0x3e68fa49	0.22751726
172	0xbe297468	-0.16548312
173	0x3e74a0a0	0.23889399
174	0x3beffa55	0.007323543
175	0xbe1eae2b	-0.15496127
176	0x3e44b5a6	0.19209918
177	0x3e641a8d	0.22275753
178	0xbdbfd775	-0.09367267
179	0x3e5a5419	0.21321143
180	0xbe1c4045	-0.15258892
181	0x3e3bad87	0.18327914
182	0xbdfefffb	-0.12451168
183	0x3e2daf95	0.1696151
184	0xbe6e2a03	-0.23258214
185	0xbd8aee40	-0.06783724
186	0x3e809359	0.25112417
187	0x3e83910c	0.256966
188	0x3a17df61	0.0005793479
189	0xbae27acd	-0.0017279029
190	0x3dc51181	0.09622479
191	0x3d052920	0.032509923
192	0xbe4547c5	-0.19265659
193	0xbe664cdb	-0.22490256
194	0xbd07c8f4	-0.03315063
195	0xbe4bae01	-0.19890596
196	0xbe815166	-0.25257415
197	0x3e74338e	0.23847792
198	0xbd21783d	-0.03942131
199	0x3e2ed82a	0.17074648
200	0xbd8df97b	-0.0693235
201	0xbd6e784f	-0.058220204
202	0xbe2337f3	-0.15939312
203	0xbe2a30e8	-0.16620219
204	0x3e720f2c	0.236386
205	0x3ddde8b2	0.10835399
206	0xbe39d073	-0.18145923
207	0x3e2868e6	0.16446266
208	0x3ddb65a4	0.10712746
209	0x3d34269b	0.04398213
210	0xbe3cf826	-0.18454036
211	0xbd5a931b	-0.053362947
212	0xbe324976	-0.17410836
213	0x3e1b13bc	0.15144247
214	0x3e80ff76	0.251949
215	0xbda49386	-0.0803595
216	0xbdf0904e	-0.11746274
217	0x3e82c3e7	0.25540087
218	0x3e7a152b	0.24422137
219	0x3e43303b	0.19061367
220	0x3d8b6d8b	0.06808003
221	0x3e270a13	0.16312437
222	0xbd450e5c	-0.048109397
223	0x3b4563a8	0.0030119214
224	0xbdb3ad65	-0.08773307
225	0xbd3fbd63	-0.046811473
226	0xbc7a3f33	-0.015273857
227	0xbe56bb7a	-0.20969954
228	0x3db6f0dd	0.0893266
229	0xbe793b68	-0.24339068
230	0x3e2fbe43	0.17162423
231	0xbe0dd0ad	-0.13849135
232	0x3e809890	0.25116396
233	0x3d093fa2	0.03350795
234	0x3e1e3cca	0.15452877
235	0xbe37a647	-0.17934524
236	0x3e46fa9b	0.19431536
237	0x3c0c0ddc	0.008548226
238	0xbd9b5c91	-0.07586015
239	0xbd6aa5d6	-0.05728706
240	0xbe5937a0	-0.21212626
241	0xbd393285	-0.045214195
242	0xbca78000	-0.020446777
243	0x3e512d2c	0.20427388
244	0xbe021de0	-0.12706709
245	0xbd0ea4ae	-0.03482502
246	0xbbcfc867	-0.0063410285
247	0xbe97cb40	-0.29647255
248	0xbda5c03b	-0.08093306
249	0xbdfd0510	-0.12354481
250	0x3db36125	0.08758763
251	0x3de3d904	0.11125377
252	0xbe828a0c	-0.25495946
253	0x3e56eb08	0.20988095
254	0x3e5c25a1	0.2149873
255	0x3c6ff7d3	0.014646488

in_lin.bias f4 [96]
0	0x3e83537e	0.25649637
1	0x3d9ceefd	0.07662771
2	0x3e85b13a	0.26111776
3	0xbe486f24	-0.19573647
4	0x3e23815b	0.15967314
5	0xbe16b0aa	-0.1471583
6	0x3d970f83	0.073760055
7	0xbda24db4	-0.07924977
8	0x3e44c9a4	0.19217545
9	0xbdb2182d	-0.086960174
10	0xbe3e50fa	-0.18585578
11	0xbbb9d7a4	-0.0056714583
12	0xbcad911c	-0.021187358
13	0x3dde62f9	0.10858721
14	0xbcf92a3b	-0.030415645
15	0xbe44d530	-0.1922195
16	0x3d8d205e	0.06890939
17	0x3cb5671f	0.022143899
18	0xbc973ec9	-0.018462555
19	0x3e7a17c3	0.24423127
20	0x3de90b49	0.113791056
21	0x3d38e5cc	0.045141026
22	0x3b9eb57b	0.0048434115
23	0xbe3cdef5	-0.18444426
24	0xbe70c098	-0.23510969
25	0xbe029a54	-0.12754184
26	0x3cbccf23	0.02304799
27	0x3e7084fe	0.23488232
28	0xbd7a76b8	-0.061148375
29	0xbe841248	-0.25795197
30	0xbe80a40b	-0.25125155
31	0x3e57b823	0.21066336
32	0xbd07ce6e	-0.03315585
33	0xbd0cce2b	-0.034376305
34	0x3d551529	0.052022133
35	0x3e817a6a	0.25288707
36	0x3d603851	0.054741208
37	0x3e151454	0.14558536
38	0x3d16534b	0.036700528
39	0x3d92300b	0.0713807
40	0xbe5bff4f	-0.21484111
41	0x3e51cdfd	0.20488735
42	0x3db7a7de	0.08967565
43	0x3d1dcb7c	0.038524136
44	0x3dfe6353	0.12421288
45	0xbd40de66	-0.047087096
46	0x3ddd9aea	0.10820563
47	0xbe4e517a	-0.20148268
48	0x3e841c90	0.2580304
49	0x3c6884e1	0.014191837
50	0x3e5ccac5	0.21561725
51	0xbc74f23d	-0.014950332
52	0xbd3cc4fd	-0.0460863
53	0x3e650f8e	0.22369215
54	0x3e0d3eec	0.13793534
55	0x3e388074	0.18017751
56	0x3c0e0a94	0.008669514
57	0xbd21cd8c	-0.039502665
58	0xbc2090da	-0.00980016
59	0x3e767df2	0.24071482
60	0xbe541fbd	-0.20715232
61	0xbe6ad65e	-0.22933337
62	0x3e7802df	0.24219845
63	0x3c12099b	0.008913423
64	0x3e4ab054	0.19793826
65	0x3e57bc9a	0.2106804
66	0x3e699318	0.22810018
67	0x3b1adcff	0.002363026
68	0xbc902577	-0.01759599
69	0x3e3d0365	0.18458326
70	0xbe364fb8	-0.17803848
71	0xbe7ffa30	-0.24997783
72	0x3e577f9f	0.21044777
73	0x3e68dfb4	0.22741586
74	0xbe7846ef	-0.24245809
75	0x3e8d1b7f	0.2756004
76	0xbce8f58c	-0.028437398
77	0xbe581325	-0.21101053
78	0x3e48b57b	0.1960048
79	0x3e03e74c	0.12881202
80	0xbd89d8f3	-0.06730833
81	0x3e01c93a	0.12674418
82	0x3bc09406	0.005877021
83	0x3e5e2629	0.21694244
84	0x3d115c83	0.035488617
85	0x3d689bf4	0.056789353
86	0x3e233280	0.15937233
87	0xbcafb6b8	-0.021449432
88	0x3e78380a	0.24240127
89	0xbe5094fb	-0.20369332
90	0xbe4f5492	-0.20247105
91	0xbc17a8d2	-0.0092565585
92	0xbdabecfb	-0.0839481
93	0x3cc7a3a6	0.024370026
94	0xbcb49468	-0.022043422
95	0x3e23fdf0	0.16014838

layers.0.q.weight f4 [96, 96]
0	0xbc10f5cd	-0.008847666
1	0xbd8d66a4	-0.06904343
2	0x398c12bb	0.00026716836
3	0xbcb79014	-0.022407569
4	0xbd9cfb96	-0.07665174
5	0x3c90a809	0.01765825
6	0x3de8efb3	0.11373844
7	0xbd93fc23	-0.07225826
8	0x3df09639	0.11747403
9	0xbb98fab6	-0.004668559
10	0xbdbf8c27	-0.09352904
11	0xbcce99c8	-0.025219813
12	0xbceedefd	-0.029159063
13	0xbc46dd6a	-0.01213775
14	0xbd18bdc1	-0.03729034
15	0x3d9209de	0.07130788
16	0x3da1ac5f	0.07894205
17	0xbdb4c5cb	-0.088267885
18	0xbd1d8f5a	-0.03846679
19	0x3d9f9c18	0.077934444
20	0xbb32a7c9	-0.0027260652
21	0xbd7f4df7	-0.062330212
22	0x3cc71f1e	0.02430683
23	0x3d8d5739	0.06901402
24	0xbd225584	-0.039632335
25	0x3da5baa4	0.080922395
26	0x3ddcee73	0.10787668
27	0x3db512a0	0.08841443
28	0x3dbb3e62	0.09142758
29	0x3d14a906	0.036294006
30	0x3d3ecf1a	0.046584226
31	0x3dbf9735	0.09355012
32	0xbd4e3289	-0.050341163
33	0xbd5f4e8c	-0.054518268
34	0x3d5491df	0.051896926
35	0x3d58149a	0.052754022
36	0xbd7f5f9a	-0.062347032
37	0x3d18ff2b	0.037352722
38	0x3dc435d3	0.09580579
39	0xbd5848c1	-0.05280376
40	0xbd283227	-0.041063454
41	0x3d9da251	0.07696975
42	0x3c83531e	0.016030844
43	0x3ddd033a	0.10791631
44	0x3d11d6f5	0.03560539
45	0x3bd4c252	0.0064928913
46	0x3db37153	0.08761849
47	0xbcdd04c3	-0.02697981
48	0x3d5c38ff	0.053765293
49	0x3de588a5	0.112077035
50	0x3dcd39a5	0.100207604
51	0x3cfc3c6f	0.030790536
52	0x3c9e767f	0.019343613
53	0x3dced247	0.10098701
54	0x3d918e78	0.07107252
55	0xbcbb62f1	-0.022874327
56	0xbd9f4203	-0.077762626
57	0x3c286dac	0.010280054
58	0x3d3b787c	0.0457692
59	0x3cb75831	0.02238092
60	0xbd9080b6	-0.070558
61	0x3d962e0c	0.073330015
62	0x3de4a1e8	0.11163694
63	0x3c7ba9d3	0.0153603135
64	0x3d9cb24e	0.076511964
65	0xbd74fcf2	-0.05981154
66	0xbcaff36a	-0.021478374
67	0xbd9ff543	-0.07810452
68	0xbd6413da	-0.055682994
69	0x3d33883d	0.0438311
70	0xbce72361	-0.028215112
71	0xbdadb521	-0.08481813
72	0x3b63e35f	0.0034772975
73	0xbd157e7e	-0.036497585
74	0x3d92f05e	0.07174753
75	0xbd1d4627	-0.03839698
76	0x3d9281f0	0.0715369
77	0xbd54c0ae	-0.051941566
78	0xbda36031	-0.079773314
79	0xbdaa6fff	-0.08322143
80	0x3d9875da	0.074443534
81	0x3d312c35	0.04325505
82	0xbd83833c	-0.06421515
83	0x3cdde941	0.027088763
84	0xbc9adf26	-0.018905234
85	0x3d732c64	0.059368506
86	0x3d788879	0.060677025
87	0xbd2c0921	-0.042000894
88	0xbd00eb22	-0.03147424
89	0xbd830100	-0.06396675
90	0xb6c4cf70	-5.865404e-06
91	0x3de68453	0.112557076
92	0xbd63b701	-0.055594448
93	0xbda43ef3	-0.08019819
94	0x3c3cdab2	0.01152675
95	0x3de5e30e	0.11224948
96	0xbbe703d5	-0.0070500174
97	0x3d965088	0.07339579
98	0xbd23f937	-0.04003259
99	0x3ca42bbf	0.020040391
100	0xbd4554ab	-0.04817645
101	0x3dacf185	0.08444504
102	0x3de35ef6	0.11102097
103	0xbb503cd3	-0.0031774535
104	0xbd3ee16c	-0.046601698
105	0x3d368b2d	0.044566322
106	0xbd081184	-0.03321983
107	0x3b792dc2	0.0038021659
108	0xbcc14a81	-0.023595097
109	0xbd80ff98	-0.06298751
110	0xbd783e3c	-0.060606226
111	0xbd8bc666	-0.06824951
112	0x3c996dc9	0.018729107
113	0xbd87c12f	-0.06628644
114	0x3d7a64de	0.06113135
115	0x3cb08737	0.02154885
116	0x3d8f6e9a	0.070035174
117	0x3d9333c5	0.07187609
118	0x3ae32b77	0.0017331679
119	0xbda42276	-0.080143854
120	0xbbad8a3d	-0.0052960203
121	0xbd1de0fe	-0.038544647
122	0x3d081e4c	0.03323202
123	0x3c8535df	0.01626104
124	0xbd76f058	-0.060287803
125	0xbc1e681e	-0.009668378
126	0x3b2b52bb	0.002614184
127	0xbdab2acd	-0.08357773
128	0x3d880528	0.066416085
129	0x3d8a7282	0.06760122
130	0x3bdb8d7f	0.0067002173
131	0x3ded060a	0.115734175
132	0x3ddee9df	0.10884451
133	0xbd91f5be	-0.0712695
134	0xbdaa396b	-0.08311733
135	0xbd9eb6f5	-0.0774974
136	0x3d0f6bbf	0.035014864
137	0x3d95b1ab	0.07309278
138	0x3ca4e3b6	0.020128112
139	0x3dc963b3	0.09833469
140	0x3d96b285	0.07358269
141	0x3cc8a614	0.024493255
142	0x3d555074	0.05207868
143	0x3d6748a9	0.05646578
144	0x3dc209ae	0.094745025
145	0x3dbceee9	0.09225256
146	0xbd89c1d9	-0.06726427
147	0xbc0cf961	-0.008604378
148	0x3dcbf93b	0.09959646
149	0x3def0333	0.11670532
150	0x3dee2f9d	0.11630175
151	0xbd9043f9	-0.07044215
152	0x3c7665f0	0.015038952
153	0xbd03b2eb	-0.03215305
154	0x3c85a19d	0.016312415
155	0xbce6d337	-0.028176887
156	0xbd37cfd7	-0.044875946
157	0xbcbe90b5	-0.023262361
158	0x3cd128b3	0.025532102
159	0x3dd15adf	0.102224104
160	0x3b67cfbd	0.0035371624
161	0x3de62ad3	0.11238637
162	0x3ddeec02	0.10884859
163	0xbd5a03d8	-0.053226322
164	0xbd2b9cc6	-0.041897558
165	0xbd1a61b1	-0.037690822
166	0x3cf60d76	0.030035716
167	0x3c879e29	0.016554909
168	0x3d53f185	0.051744003
169	0xbd41dac1	-0.04732776
170	0xbd428c13	-0.047496866
171	0x3db762cf	0.08954393
172	0x3da41f59	0.080137916
173	0xbdcd8cdb	-0.10036632
174	0x3dbf93e1	0.093543775
175	0x3de4988a	0.11161907
176	0xbd5155eb	-0.05110733
177	0x3dcd1ae4	0.100148946
178	0x3d1acbec	0.03779213
179	0x3d5705ca	0.052495755
180	0x3da818d3	0.0820786
181	0x3d868230	0.065678
182	0xbb925bee	-0.0044665253
183	0x3dae2ac3	0.0850425
184	0xbd8bdf6e	-0.06829725
185	0x3d8d9af6	0.06914322
186	0xbd8bea48	-0.06831795
187	0xbd95bcd0	-0.07311404
188	0x3d8b8808	0.06813055
189	0xbca3451f	-0.01993042
190	0x3d5949e5	0.053048987
191	0xbd612435	-0.05496617
192	0x3c48f080	0.012264371
193	0x3d6cd075	0.057815988
194	0xbc9527d2	-0.018207464
195	0x3d013106	0.031540893
196	0x3ce784a1	0.028261485
197	0x3d77f03d	0.060531843
198	0xbdad765a	-0.084698394
199	0x3d66ddf6	0.056364022
200	0x3d88d3c6	0.066810176
201	0x3d9f8929	0.07789833
202	0x3d03a2c7	0.03213766
203	0xbd9ae976	-0.075640604
204	0x3cc96999	0.024586486
205	0x3d2b1a9e	0.04177343
206	0xbc02f0f4	-0.007992018
207	0xbd9b39c7	-0.075793795
208	0xbd6f84d9	-0.058476303
209	0x3d610216	0.05493363
210	0xbda3fbfc	-0.080070466
211	0xbdaa8995	-0.08327023
212	0x3d1263bf	0.035739657
213	0x3b4cbb78	0.003123967
214	0x3c3bbe46	0.011458939
215	0x3d9b1080	0.075715065
216	0xbdab65fd	-0.08369062
217	0xbbcfb077	-0.006338175
218	0xbd91b273	-0.071141146
219	0x3da374a3	0.07981231
220	0xbdbb7049	-0.09152276
221	0x3dafc439	0.085823484
222	0x3c8df9b3	0.01733098
223	0xbd7edaa3	-0.062220227
224	0x3de32744	0.11091474
225	0xbd065240	-0.032793283
226	0x3db67dfd	0.08910749
227	0xbd83f7a0	-0.06443715
228	0xbd4c60c2	-0.049896963
229	0xbcfca9e7	-0.030842735
230	0xbc12444b	-0.008927415
231	0x3d21f90b	0.039544147
232	0x3db1eb03	0.08687403
233	0x3d4aff20	0.049559712
234	0xbd08e542	-0.033421762
235	0x3cfd5de3	0.030928558
236	0x3cb554ed	0.022135222
237	0x3bfcd4d7	0.007715802
238	0xbdbbe897	-0.09175222
239	0x3c2c3d4d	0.010512662
240	0xbd2232f5	-0.039599378
241	0x3ddeea86	0.108845755
242	0xbb8e974f	-0.0043515335
243	0xbd66e43e	-0.056370012
244	0xbccdba56	-0.025113266
245	0xbc8fed93	-0.017569339
246	0xbd6ddffc	-0.058074936
247	0x3d281076	0.041031323
248	0xbc478a19	-0.012178921
249	0xbdc5b661	-0.09653927
250	0x3dad6eff	0.084684364
251	0x3d465e41	0.04842973
252	0xbd2fa68d	-0.042883445
253	0x3d914da0	0.07094884
254	0xbd79ba69	-0.06096879
255	0x3d0191fa	0.031633355

layers.0.k.weight f4 [96, 96]
0	0xbd2bac5b	-0.041912418
1	0x39e9db1f	0.0004460448
2	0xbd9a74f5	-0.07541839
3	0x3c7314b4	0.014836479
4	0x3d0aa146	0.03384521
5	0xbd91362d	-0.07090411
6	0xbdc423bb	-0.095771275
7	0xbc1247d5	-0.008928259
8	0x3d0e9db4	0.034818366
9	0x3c96125b	0.0183193
10	0x3ca1aca9	0.019735651
11	0xbc706872	-0.014673339
12	0x3d9ccd23	0.07656314
13	0x3d45da77	0.048304047
14	0x3d044116	0.032288633
15	0x3d5847e3	0.05280293
16	0x3c8a3af3	0.016873812
17	0x3d3f05aa	0.04663626
18	0xbcfb67df	-0.030689178
19	0x3db0c0ef	0.08630549
20	0x3ca879b7	0.02056585
21	0xbce14b1a	-0.027501632
22	0x3d95c64d	0.073132135
23	0xbc8e4bd0	-0.017370135
24	0xbca98f7d	-0.020698303
25	0xbc0b6c56	-0.008509716
26	0xbddc6010	-0.1076051
27	0xbd538285	-0.051638145
28	0xbc41f28d	-0.011837614
29	0xbd501225	-0.050798554
30	0xbc8bfa33	-0.017087078
31	0xbda5d5dd	-0.08097432
32	0x3d1406e9	0.036139403
33	0xbdd9636c	-0.10614666
34	0x3c64e710	0.013971105
35	0xbc9bd746	-0.019023549
36	0x3d37e30e	0.04489427
37	0x3dd15597	0.10221403
38	0x3de64779	0.11244101
39	0xbd7742d5	-0.06036647
40	0xbdbb85a6	-0.09156351
41	0xbb87b1f0	-0.004141085
42	0xbd35fd63	-0.0444311
43	0x3caeb52d	0.021326626
44	0x3d81de52	0.06341232
45	0x3cc14880	0.023594141
46	0xbdd00011	-0.10156263
47	0x3da5de1e	0.08099006
48	0xbd89929b	-0.06717416
49	0x3db82445	0.08991293
50	0x3cb0e245	0.021592269
51	0x3cafe8f6	0.02147339
52	0x3db0b16d	0.08627591
53	0x3dd1c711	0.10243047
54	0x3d110e2d	0.03541391
55	0xbc28a958	-0.010294281
56	0xbd81466f	-0.06312262
57	0x3d4f9dac	0.050687477
58	0xbdae17a6	-0.08500604
59	0x3c9fddae	0.019514885
60	0xbd537b6a	-0.05163137
61	0xbd536f62	-0.051619895
62	0x3db36f9c	0.08761522
63	0xbd52dcad	-0.051479984
64	0x3d527e7e	0.051390164
65	0xbcccfa73	-0.025021767
66	0xbd9399d4	-0.07207075
67	0x3d6f6773	0.058448266
68	0x3d5d822e	0.054079227
69	0x3b106ab1	0.002203625
70	0xbd8aac3a	-0.06771131
71	0x3cbcce60	0.023047626
72	0x3dedec94	0.11617389
73	0x3dc1187d	0.09428499
74	0xbc4366b9	-0.011926346
75	0xbd520b32	-0.051280208
76	0xbd1aa2ff	-0.0377531
77	0x3da83bbb	0.08214518
78	0x3d9cce37	0.0765652
79	0xbcdabfbb	-0.026702752
80	0xbd0e2bc8	-0.03470972
81	0x3db486a4	0.08814743
82	0x3d7bd2eb	0.061480444
83	0xba174161	-0.0005769935
84	0x3d0ff206	0.03514292
85	0xbdba1ac1	-0.09087134
86	0xbc5a5a8d	-0.013327253
87	0x3dbdbba7	0.092643075
88	0x3bc50cd8	0.006013494
89	0xbc9a2a2b	-0.018818935
90	0x3d60dbfc	0.054897293
91	0xbc83ec4c	-0.016103886
92	0xbdb14b3b	-0.08656927
93	0xbdde3a7c	-0.10850999
94	0xbd09e4ab	-0.03366534
95	0x3db79141	0.08963252
96	0xbcf22786	-0.029559862
97	0x3ddd1037	0.10794108
98	0x3c98d611	0.018656762
99	0xbc3d0a84	-0.011538152
100	0xbd9d7428	-0.07688171
101	0xbd5ed2fd	-0.054400433
102	0x3d9e3173	0.077242754
103	0xbda884c9	-0.08228452
104	0x3da0dc7d	0.07854555
105	0xbd0a66b8	-0.033789366
106	0xbd8cb2a7	-0.06870013
107	0x3d7c3e08	0.061582595
108	0xbc147580	-0.009061217
109	0xbdcaac41	-0.09896136
110	0x3cd262f0	0.025681943
111	0x3ddc6ce4	0.10762957
112	0xbd8b0163	-0.06787374
113	0xbd80cf46	-0.06289534
114	0xbd906971	-0.07051361
115	0x3d7aa66f	0.06119388
116	0xbd66af10	-0.056319296
117	0xbd516aff	-0.05112743
118	0xbd87498b	-0.06605824
119	0xbd0b8b28	-0.034068257
120	0x3db31c9f	0.087456934
121	0xbc9e60d5	-0.019333282
122	0xbcfc0aa4	-0.030766793
123	0xbd9f26de	-0.07771085
124	0xbd2bad08	-0.041913062
125	0xbd608da2	-0.05482257
126	0xbc90cd84	-0.017676122
127	0x3b8bba03	0.0042641177
128	0xbdb627dc	-0.08894321
129	0x3d4ab9d3	0.049493622
130	0x3dc76731	0.09736479
131	0xbd3b779c	-0.045768365
132	0xbd278554	-0.040898636
133	0xbceeaa76	-0.029134016
134	0x3dbec885	0.0931559
135	0xbd192e98	-0.03739795
136	0x3d2a1b0e	0.041529708
137	0xbdd255e2	-0.10270287
138	0xbd551272	-0.052019544
139	0x3d9621ae	0.07330643
140	0x3b996f34	0.004682446
141	0xbd9d6d92	-0.076869145
142	0x3d4eda56	0.05050119
143	0x3c8ef9ea	0.017453153
144	0xbac42ae6	-0.0014966398
145	0x3d5dec61	0.054180507
146	0x3d606c0b	0.054790538
147	0x3cc6695a	0.024220157
148	0xbdc03565	-0.09385184
149	0x3c93bd09	0.018034475
150	0xbda14e1b	-0.078762256
151	0x3d30025f	0.04297101
152	0xbca13c0a	-0.01968195
153	0x3dede195	0.11615292
154	0x3d110e6f	0.035414156
155	0xbbaf23d8	-0.005344849
156	0xbca449f4	-0.020054795
157	0x3d4649bb	0.04841016
158	0xba037c33	-0.00050157605
159	0x3d946706	0.07246213
160	0x3c2bc7ef	0.01048468
161	0x3d5f4043	0.054504644
162	0xbd48581c	-0.048912153
163	0x3d49a376	0.049228154
164	0x3df03e48	0.11730629
165	0xbdc789c9	-0.09743077
166	0x3d071b2b	0.032984894
167	0xbdec70fc	-0.115449876
168	0xbc876ec4	-0.01653231
169	0xbc8359ac	-0.01603397
170	0x3cf265f4	0.02958963
171	0xbd629a63	-0.055323016
172	0x3d043838	0.032280177
173	0xbcf13a2f	-0.02944669
174	0x3d9fb3b4	0.077979475
175	0xbc53c4a7	-0.012925304
176	0xbd81547e	-0.06314944
177	0xbd4ab65d	-0.04949032
178	0x3da310b0	0.07962167
179	0x3ca1c73c	0.019748323
180	0x3d0401e1	0.032228354
181	0x3d894ff3	0.06704702
182	0x3d82f30c	0.06394014
183	0xbd8a2161	-0.06744648
184	0xbd5c4bb2	-0.053783126
185	0x3d5af0e3	0.053452384
186	0x3df183a7	0.11792689
187	0xbda2f6ce	-0.079572305
188	0xbcfa29f6	-0.030537587
189	0xbdb021a4	-0.086001664
190	0x3da2026f	0.079106204
191	0x3dd85c5a	0.1056449
192	0xbdb6f49d	-0.08933375
193	0x3b88261e	0.0041549345
194	0xbc65d919	-0.014028811
195	0x3c06bd56	0.008223852
196	0x3d2abf82	0.041686542
197	0x3d285146	0.041093133
198	0xbb9695ed	-0.0045955093
199	0xbcafa9b0	-0.021443218
200	0xbd55fd52	-0.05224354
201	0x3d1b9890	0.03798729
202	0x3d8957c8	0.06706196
203	0x3d04dd23	0.032437455
204	0xbc324343	-0.010880294
205	0xbca5468e	-0.020175245
206	0x3d490c01	0.049083713
207	0xbd81be26	-0.06335096
208	0x3dcf6edd	0.10128567
209	0x3ba8ab7f	0.005147397
210	0x3dce2dc1	0.100673206
211	0xbbeb3bb6	-0.007178749
212	0xbc31a479	-0.010842436
213	0x3dae4535	0.08509294
214	0x3d89e4dd	0.06733105
215	0x3db557bc	0.08854625
216	0x3db45e36	0.08807032
217	0xbd05f9eb	-0.032709043
218	0x3d871b8a	0.065970495
219	0x3c6775ba	0.014127189
220	0xbd2b62a1	-0.041842107
221	0xbc76b5f9	-0.015058034
222	0x3db46b99	0.08809585
223	0x38ef547b	0.00011412144
224	0xbb6a1816	-0.0035719923
225	0xbdaa9c9a	-0.08330651
226	0xbc3df536	-0.011594107
227	0x3db46736	0.088087484
228	0xbd906620	-0.07050729
229	0x3cef382d	0.029201591
230	0xbc6fec31	-0.014643715
231	0xbdbeab16	-0.09309976
232	0x3b6eae1e	0.00364197
233	0xbc81f435	-0.015863517
234	0xbda30730	-0.07960355
235	0xbd2528d8	-0.040322155
236	0xbd4afcbc	-0.049557433
237	0xbd17f52e	-0.037099056
238	0xbd36e308	-0.044650108
239	0x3db5a05f	0.08868479
240	0x3ca16306	0.019700538
241	0xbb95cc84	-0.0045714993
242	0xbc48678b	-0.012231718
243	0x3d2c5905	0.042077083
244	0x3d03b1aa	0.032151856
245	0x3b7f815e	0.003898702
246	0x3d87be63	0.0662811
247	0xbb816499	-0.0039487598
248	0xbd73d2c9	-0.059527192
249	0xbce52e50	-0.027976185
250	0xbd77a31e	-0.060458295
251	0x3d518716	0.05115422
252	0x3c03d55a	0.008046472
253	0x3ca64e2c	0.020300947
254	0x3dbba494	0.0916225
255	0xbd15e74a	-0.036597528

layers.0.v.weight f4 [96, 96]
0	0x3d3788c8	0.04480818
1	0xbc7239ce	-0.0147842895
2	0x3d1ddf14	0.038542822
3	0x3d8012ee	0.062536106
4	0xbde0526d	-0.109532215
5	0xbd8a553f	-0.06754541
6	0x3cf13683	0.029444939
7	0xbe0eb1d4	-0.13935024
8	0xbdbdee99	-0.092740245
9	0xbc6c5097	-0.014423511
10	0xbd316fbc	-0.04331945
11	0x3d7b1862	0.06130255
12	0xbdf332b1	-0.11874903
13	0x3cabae72	0.020957205
14	0xbd814785	-0.063124694
15	0x3d3baa5e	0.04581677
16	0xbd2f2066	-0.042755507
17	0x3dbf0fe0	0.093292
18	0x3d2baefb	0.04191492
19	0x3c7bf15a	0.015377367
20	0xbc4047b7	-0.011735848
21	0xbcf05494	-0.029337205
22	0xbda4787a	-0.080307916
23	0x3da5976b	0.08085521
24	0xbd9ea9c5	-0.07747225
25	0xbc9f02cb	-0.019410511
26	0xbd2d1f78	-0.04226634
27	0x3caeba71	0.021329137
28	0xbdbaeb30	-0.0912689
29	0x3da9ecdb	0.0829713
30	0xbd5c9100	-0.05384922
31	0xbb25f153	-0.0025320842
32	0x3ddf7148	0.109102786
33	0xbdd71c6d	-0.10503469
34	0xbd9aa0c0	-0.07550192
35	0x3a70273a	0.00091611187
36	0xbd2dbac5	-0.042414445
37	0x3bff7073	0.0077953874
38	0xbc741a86	-0.014898902
39	0x3e03462c	0.12819737
40	0x3dc2c347	0.095099024
41	0x3d9ce4ef	0.07660853
42	0xbe1c44d4	-0.15260631
43	0x3d885e95	0.06658665
44	0x3d3f7175	0.04673906
45	0xbd803161	-0.06259418
46	0xbd7066be	-0.058691733
47	0xbce14b70	-0.027501792
48	0x3a7b3594	0.0009582874
49	0x3b6775ca	0.003531801
50	0xbc8e1f9c	-0.017349057
51	0x3c2e0150	0.01062043
52	0x3cf3d153	0.0297629
53	0xbd241b2d	-0.04006498
54	0xbda786a6	-0.08179979
55	0x3c79ac9d	0.015238908
56	0xbd4acc19	-0.04951105
57	0x3bd4ff13	0.006500134
58	0xbd5795e8	-0.052633196
59	0xbd37870b	-0.04480652
60	0x3cdf4f8e	0.027259614
61	0xbc03e40c	-0.008049976
62	0x3db73cbf	0.08947133
63	0xbd0b62bb	-0.034029704
64	0x3da43b5e	0.08019136
65	0x3cab1b38	0.020887002
66	0xbe07608a	-0.1322042
67	0xbdac2aa6	-0.08406572
68	0x3d6d24a7	0.057896283
69	0x3d1cf98e	0.03832393
70	0x3d1b483e	0.037910692
71	0x3d40f6ee	0.04711049
72	0x3cf71781	0.030162575
73	0x3d3c464e	0.045965485
74	0xbc764e52	-0.015033321
75	0x3d8e587c	0.06950471
76	0x3be94107	0.0071183476
77	0xbc6dab00	-0.014506102
78	0x3ddb6b6d	0.10713849
79	0x3d9316bc	0.071820706
80	0xbdb193ee	-0.086707935
81	0xbd10bbd1	-0.035335366
82	0xbc74b621	-0.014936001
83	0x3b5abfa0	0.0033378378
84	0x3d855c6e	0.0651177
85	0xbdb99cea	-0.09063132
86	0xbd12077d	-0.035651673
87	0xbcb3e95a	-0.021961857
88	0x3c6f7c10	0.014616981
89	0x3cd4df2d	0.025985325
90	0xbdbd25c2	-0.09235717
91	0x3d4610a8	0.04835573
92	0xbd8e3d5a	-0.06945296
93	0xbcc04f8b	-0.023475429
94	0xbda40653	-0.08009019
95	0xbd451c94	-0.048122957
96	0xbc8c1bda	-0.017103124
97	0xbdb154c1	-0.08658744
98	0x3d6d9e40	0.058012247
99	0xbd613118	-0.05497846
100	0x3c9e5caa	0.019331295
101	0x3d2a2832	0.04154224
102	0xbdbb9853	-0.09159913
103	0x3c31162f	0.010808512
104	0x3cceb92e	0.025234785
105	0xbdb7f1f2	-0.08981694
106	0x3dd8f3c6	0.10593371
107	0x3d8f343c	0.06992385
108	0x3db36517	0.08759516
109	0xbdb5fd66	-0.088862225
110	0x3d1273aa	0.035754837
111	0x3d0a6ecd	0.033797074
112	0x3df82cc6	0.12117915
113	0x3d93e29b	0.07220956
114	0xbce20245	-0.027588973
115	0xbc22cc21	-0.009936363
116	0xbc8cb942	-0.017178182
117	0xbd26fa46	-0.040766023
118	0x3db159e2	0.08659722
119	0x3d9b1b5f	0.0757358
120	0xbd81a79a	-0.063307956
121	0x3c7ec5d3	0.015550095
122	0x3d8f5c3d	0.07000015
123	0xbccb1bec	-0.024793588
124	0xbd45321c	-0.04814349
125	0x3ca817b6	0.020519119
126	0xbd4d8008	-0.05017093
127	0xbd65c1a1	-0.056092862
128	0x3d8b2241	0.06793643
129	0xbdc750fa	-0.09732242
130	0xbdd7f91e	-0.10545562
131	0xbdb91ffb	-0.09039303
132	0xbd3907f6	-0.045173608
133	0xbd03453d	-0.032048453
134	0x3cab5f00	0.020919323
135	0xbc0d42e6	-0.008621907
136	0x3dbb7ba1	0.0915444
137	0x3dc22265	0.094792165
138	0xbc94ec30	-0.01817903
139	0x3dea977b	0.11454674
140	0x3deb880d	0.11500559
141	0x3d504724	0.050849095
142	0xbd5bdb40	-0.05367589
143	0xbdc776dc	-0.097394675
144	0xbdc5a11c	-0.0964987
145	0x3d93a22e	0.07208668
146	0x3db9849b	0.090584956
147	0x3dbc60a1	0.09198118
148	0x3db12edf	0.08651518
149	0x3b45c3e9	0.0030176586
150	0xbbe3f7bf	-0.006957024
151	0xbdb88d16	-0.09011285
152	0xbbef384f	-0.0073004137
153	0xbd8ba479	-0.0681848
154	0xbdb1f024	-0.08688381
155	0xbbe3b776	-0.0069493605
156	0xbc728e92	-0.014804499
157	0xbdad32bc	-0.084569424
158	0x3d0028c3	0.031288873
159	0x3d807864	0.06272963
160	0xbd7a8618	-0.061163038
161	0x3d6e8499	0.058231924
162	0xbdc5011e	-0.09619354
163	0x3c314db1	0.010821746
164	0xbd05be45	-0.03265216
165	0xbcb758b1	-0.022381159
166	0x3d8a9cf0	0.06768215
167	0x3d2ec572	0.042668767
168	0xbd937daf	-0.072017066
169	0xbde3bc28	-0.11119872
170	0xbd228395	-0.039676268
171	0xbd821d13	-0.06353202
172	0x3d80df53	0.06292596
173	0x3b0703d7	0.0020601654
174	0x3da013d6	0.078162834
175	0x3dbbd32d	0.09171138
176	0xbaa152b1	-0.0012307969
177	0xbd82344c	-0.06357631
178	0xbbec57e4	-0.007212626
179	0x3da710a4	0.08157471
180	0xbda4010c	-0.08008012
181	0xbbbcd44d	-0.005762613
182	0xbdcd2c4f	-0.10018217
183	0x3b1a0b5c	0.0023505306
184	0xbce4d6f7	-0.027934534
185	0xbe0528ae	-0.130038
186	0x3d3ef98a	0.046624698
187	0xbbb228c7	-0.00543699
188	0xbd2187f6	-0.039436303
189	0x3cf25321	0.029580655
190	0xbd6ddc74	-0.05807157
191	0xbde03be8	-0.10948926
192	0xbbef2035	-0.0072975405
193	0x3df8b228	0.121433556
194	0x3d855a25	0.06511334
195	0x3d81d4c3	0.06339409
196	0x3d79a142	0.060944803
197	0x3e0cd2d5	0.13752301
198	0x3d8f10fa	0.0698566
199	0x3dd05f36	0.1017441
200	0xbd2d7b16	-0.042353712
201	0x3dc1c32b	0.094610535
202	0xbdcb26af	-0.09919488
203	0x3cc4cacd	0.024022484
204	0xbd91a1df	-0.071109526
205	0xbbb2b878	-0.0054541193
206	0x3de17a1c	0.11009619
207	0x3dc52c17	0.0962755
208	0x3c111269	0.008854487
209	0x3d1a47cd	0.03766613
210	0x3c12cdf4	0.008960236
211	0xbc68cde2	-0.014209243
212	0x3d2087df	0.039192077
213	0x3cf0b66e	0.029383864
214	0x3d7ce2c8	0.061739713
215	0x3d497b45	0.049189825
216	0x3d920e04	0.071315795
217	0x3da5675f	0.08076357
218	0x3d0087ad	0.03137939
219	0xbc94fc99	-0.018186854
220	0xbd4e1a27	-0.05031791
221	0xbd91be81	-0.07116414
222	0xbdd0a444	-0.10187581
223	0xbd7e2cbd	-0.062054384
224	0x3bfa51ab	0.00763913
225	0xbd8e0e68	-0.069363415
226	0x3d233b6d	0.039851595
227	0x3c9cabe6	0.019124936
228	0x3d2fac04	0.042888656
229	0x3d6d0836	0.05786916
230	0x3df28d1f	0.11843323
231	0x3d74943b	0.059711676
232	0x3cb84e40	0.02249825
233	0x3d5f644d	0.054539014
234	0x3d8dd972	0.0692624
235	0x3c0c22ec	0.008553248
236	0x3d624b2a	0.055247463
237	0xbba6988c	-0.005084103
238	0xbd9ba3c9	-0.07599599
239	0xbd826ab6	-0.0636801
240	0xbd0764b2	-0.033055015
241	0xbd9cc668	-0.076550305
242	0x3dd6ab78	0.10481924
243	0xbcb7fd5d	-0.02245968
244	0x3ca19f11	0.01972917
245	0x3d397633	0.04527874
246	0x3e0500ca	0.12988582
247	0x3c117e0f	0.008880152
248	0xbc5e2b25	-0.013560091
249	0xbdb0f5ce	-0.086406335
250	0x3d80198f	0.06254875
251	0xbd968928	-0.07350379
252	0xbd109837	-0.035301413
253	0xbc360660	-0.011109918
254	0xbd794a82	-0.06086207
255	0xbcecae6a	-0.02889176

layers.0.proj.weight f4 [96, 96]
0	0x3c7237b9	0.014783793
1	0xbd5fe078	-0.05465743
2	0xbc35b569	-0.011090615
3	0x3dbb17b7	0.091353826
4	0x3d1ea5a2	0.03873218
5	0x3d760e08	0.060071975
6	0xbd1baba5	-0.03800549
7	0x3d89b45a	0.067238525
8	0x3dd1f945	0.102526225
9	0x3d25ef22	0.040511258
10	0x3c611683	0.013738277
11	0x3d0d9be8	0.034572512
12	0x3c953e93	0.018218314
13	0x3ccbb36f	0.024865834
14	0x3d1abaa3	0.037775647
15	0xbdae2e6c	-0.08504948
16	0xbd6ee925	-0.058327813
17	0x3dbed8b6	0.09318678
18	0x3d92f49d	0.071755625
19	0x3da99906	0.0828114
20	0xbb22b3f7	-0.0024826506
21	0xbd23deaa	-0.04000727
22	0xbd7ec523	-0.062199723
23	0xbcdbcc0e	-0.0268307
24	0x3da0053c	0.078134984
25	0xbc1460ec	-0.009056311
26	0xbd4999d0	-0.049218953
27	0x3d45e0ce	0.048310094
28	0x3ba332ee	0.0049804365
29	0xbd0ae53c	-0.03391002
30	0x3d4a5ace	0.049403004
31	0x3d1b661c	0.037939176
32	0x3c090ca9	0.008364835
33	0xbbf51353	-0.0074791103
34	0xbd966c8e	-0.07344924
35	0x3dc90e9b	0.09817239
36	0x3dbc86a2	0.09205367
37	0x3d804ef9	0.06265063
38	0xbdb2b9a8	-0.08726817
39	0xbd0d4ec7	-0.034498956
40	0x3cf58e51	0.029975088
41	0x3dd0705e	0.10177682
42	0xbd583e30	-0.05279368
43	0xbd9a7500	-0.07541847
44	0x3db494ce	0.08817445
45	0x3d4770c6	0.048691534
46	0x3d9acc92	0.0755855
47	0xbdb72870	-0.0894326
48	0x3cce6353	0.025193846
49	0xbcc79d86	-0.024367105
50	0x3cb4e271	0.022080632
51	0xbd8a6f11	-0.067594655
52	0x3d5d2aa9	0.053995762
53	0x3d0c2012	0.034210272
54	0x3df17863	0.1179054
55	0x3db24724	0.08704975
56	0xbd623fe1	-0.0552367
57	0xbd939daf	-0.0720781
58	0xbdd8e2c5	-0.10590128
59	0xbdb46eee	-0.08810221
60	0xbd84eacb	-0.06490096
61	0x3d12676e	0.03574317
62	0xbd8da8ac	-0.06916937
63	0xbd2b4875	-0.041817147
64	0x3d01fac2	0.031733282
65	0xbd3ba550	-0.04581195
66	0xbbd7c154	-0.006584326
67	0x3dd38bfb	0.103294335
68	0xbda2bab6	-0.079457685
69	0x3d17b57d	0.037038315
70	0x3cd1f80d	0.025630975
71	0x3b875b0e	0.0041307276
72	0xbc71658c	-0.014733683
73	0x3d222224	0.03958334
74	0xbd0f1bb7	-0.03493854
75	0x3d4a95e8	0.049459368
76	0x3cff3af9	0.03115605
77	0x3d7b9e8b	0.061430495
78	0x3dc7a082	0.09747411
79	0xbd454d81	-0.048169617
80	0x3bffe556	0.0078093214
81	0xbcc3a078	-0.023880228
82	0xbcb49fc2	-0.022048835
83	0xbd72a5eb	-0.059240263
84	0x3c76e917	0.015070221
85	0xbd995349	-0.074865885
86	0xbdd2916f	-0.102816455
87	0x3cc859a2	0.024456803
88	0xbc38beea	-0.011275986
89	0x3d3a0db4	0.045423225
90	0x3d9b97a4	0.075972825
91	0xbcb8de95	-0.022567073
92	0x3d7a211a	0.061066724
93	0x3d538ee9	0.05164996
94	0x3d8d5c7b	0.06902405
95	0x3d5cae6c	0.05387728
96	0xbdd1e5d8	-0.10248917
97	0xbd3d5815	-0.04622658
98	0x3cf06742	0.029346112
99	0x3d71e719	0.059058283
100	0x3d77747a	0.060413815
101	0xbc4fab0a	-0.012675056
102	0x3d0b1cbe	0.033962958
103	0xbd890a95	-0.066914715
104	0xbd01a5d3	-0.031652283
105	0x3d01b047	0.03166225
106	0x3d2d91ad	0.042375255
107	0xbdbb7044	-0.09152272
108	0x3d3c2556	0.045934044
109	0xbd80ce47	-0.06289344
110	0xbcf3a13f	-0.029739974
111	0xbd53da39	-0.051721785
112	0xbb9d8e1d	-0.004808201
113	0x3d4ffa1a	0.050775625
114	0xbde2513f	-0.11050653
115	0x3dbf2b47	0.093344264
116	0xbce4c7e7	-0.027927352
117	0x3da867b2	0.08222903
118	0xbdae40c1	-0.085084446
119	0xbdaaf0a9	-0.083466835
120	0xbd7e8e65	-0.062147517
121	0x3d9cf44f	0.07663786
122	0x3c7ca394	0.015419859
123	0x3c977240	0.018487096
124	0xbc3e0b1e	-0.01159933
125	0x3d449ec0	0.04800296
126	0xbdb1d7aa	-0.08683713
127	0xbc4ef6a4	-0.012632046
128	0x3dae0f62	0.08499028
129	0x3d840d70	0.064478755
130	0x3dc23e45	0.09484533
131	0x3dc2605a	0.09491034
132	0xbdb05dd7	-0.086116485
133	0x3d587843	0.052849066
134	0x3d2f5232	0.042802997
135	0x3d9b172d	0.0757278
136	0xbd4ba538	-0.04971811
137	0xbd66d4b8	-0.05635521
138	0xbb89f1d8	-0.004209738
139	0x3d53b62b	0.0516874
140	0x3da0b27b	0.078465424
141	0x3bd7f3f5	0.0065903612
142	0xbd003b22	-0.031306393
143	0xbc3137b5	-0.010816504
144	0x3dc1146d	0.09427724
145	0x3daa13b7	0.083045416
146	0xbd6f832e	-0.058474712
147	0xbd1f5603	-0.038900387
148	0x3d4e27d3	0.050330948
149	0xbd15a5dc	-0.03653513
150	0xbdaf69b6	-0.08565085
151	0xbdc790db	-0.09744426
152	0x3c6f7099	0.014614248
153	0xbd12c16c	-0.035828993
154	0x3c641cb2	0.013922857
155	0x3dbf61f8	0.09344858
156	0xbd403939	-0.04692957
157	0x3c34471a	0.01100328
158	0xbc5a6e94	-0.013332028
159	0xbd853419	-0.065040775
160	0xbd21dff8	-0.039520234
161	0xbd8cf4f9	-0.06882662
162	0x3b8cd62c	0.004297992
163	0xbd5b0203	-0.053468715
164	0xbd973e5f	-0.07384943
165	0x3db81d06	0.08989911
166	0xba5a29e7	-0.0008322284
167	0xbd83358a	-0.06406696
168	0xbca222d3	-0.019791996
169	0x3cc2abb5	0.023763517
170	0xbd6b0f74	-0.057387784
171	0xbd6cdc47	-0.05782726
172	0x3d95e289	0.07318599
173	0x3c73cc67	0.014880276
174	0x3d28ea0f	0.04123884
175	0x3d16e04f	0.03683501
176	0x3dd19709	0.10233886
177	0x3d83f0e2	0.06442429
178	0xbc6d9fa6	-0.014503395
179	0xbd854c44	-0.06508687
180	0x3d4d3837	0.05010244
181	0x3c4aac0a	0.012370119
182	0x3c8f1ed2	0.017470751
183	0x3d35f58b	0.04442362
184	0xbbd4f78e	-0.0064992374
185	0xbd842dac	-0.06454024
186	0xbd5f11f1	-0.05446047
187	0x3d78f37b	0.060779076
188	0xbdce3c78	-0.10070127
189	0xbd40be75	-0.047056634
190	0x3c6f0a0f	0.0145898005
191	0xbca278e9	-0.019833045
192	0xbdc29c5f	-0.09502482
193	0xb9b84b22	-0.00035151193
194	0x3c5de1ea	0.013542632
195	0x3d4f1aca	0.050562657
196	0xbdaa01a7	-0.083010964
197	0xbde74012	-0.11291517
198	0x3d847617	0.06467836
199	0xbd572f1c	-0.05253516
200	0x3c827502	0.015924934
201	0xbd34455b	-0.044011455
202	0x3c2f0387	0.010681993
203	0xbd9613e7	-0.07328015
204	0x3deb26f4	0.11482039
205	0xbd195f5f	-0.03744447
206	0x3d68525a	0.05671916
207	0xbcfd8443	-0.030946856
208	0xbd3a24c3	-0.045445215
209	0x3bc9f6c8	0.006163452
210	0xbdfc1f83	-0.12310698
211	0xbd839ee7	-0.064267926
212	0x3d337afb	0.043818455
213	0x3d32d954	0.04366429
214	0x3db3734a	0.08762224
215	0x3d3ad1c2	0.045610197
216	0x3d39a74a	0.045325555
217	0xbca63415	-0.020288507
218	0x3cfe84b9	0.031069146
219	0xbbbb65f9	-0.005718943
220	0xbc7c2121	-0.015388758
221	0xbd3db161	-0.04631174
222	0x3dc621a7	0.096743874
223	0xbd022228	-0.031770855
224	0xbd811662	-0.06303097
225	0x3d694957	0.056954708
226	0x3d38ab47	0.045085218
227	0xbd43aba6	-0.04777112
228	0x3dad0f08	0.084501326
229	0xbd357b25	-0.044306893
230	0xbd80169e	-0.06254314
231	0xbdcff503	-0.10154154
232	0xbd815a52	-0.06316055
233	0xbd9e0cb5	-0.077172674
234	0x3df47e80	0.119381905
235	0x3d2d6f80	0.042342663
236	0x3d9bf2e8	0.0761469
237	0xbddaae80	-0.106778145
238	0x3d01c496	0.03168162
239	0x3d1fbbec	0.038997576
240	0xbdb5fa66	-0.0888565
241	0xbd17d091	-0.03706414
242	0x3d9fa488	0.07795054
243	0x3d7e6f22	0.062117703
244	0x3d8d6848	0.06904656
245	0xbd80db61	-0.06291843
246	0xbd545a4a	-0.05184392
247	0x3d3b427c	0.0457177
248	0xbdee287a	-0.11628814
249	0x3dc3333e	0.09531258
250	0xbd46d0c8	-0.048538953
251	0xbd5f0ae4	-0.054453745
252	0xbc1aa1b8	-0.009437971
253	0xbb519616	-0.0031980327
254	0xbd65c45d	-0.05609547
255	0x3d4045de	0.04694163

layers.0.proj.bias f4 [96]
0	0x3ddb741c	0.107155055
1	0x3c6c77bf	0.014432847
2	0xbd555e44	-0.05209185
3	0x3de6f6a8	0.11277515
4	0xbd90a439	-0.07062573
5	0xbdd2f40f	-0.10300457
6	0x3decabcb	0.115562044
7	0xbdb6906b	-0.08914264
8	0xbb7d5644	-0.0038656155
9	0x3dd95391	0.10611642
10	0xbd9d65a9	-0.07685406
11	0x3dd41619	0.10355777
12	0xbd30b763	-0.04314364
13	0x39fe4785	0.00048499941
14	0x3bc75fef	0.006084434
15	0xbd6b79db	-0.057489257
16	0xbd8d6065	-0.069031514
17	0x3dda26a5	0.10651902
18	0xbaddf8f7	-0.0016935159
19	0x3d10ae9f	0.03532278
20	0x3ccde650	0.025134236
21	0x3d7a37fc	0.061088547
22	0xbd8ec2fa	-0.069707826
23	0xbd26356d	-0.040578295
24	0x3d5a2525	0.05325808
25	0xbce31b6c	-0.027723037
26	0xbcb3136a	-0.021859843
27	0xbda6f79a	-0.08152695
28	0x3cc8bdfc	0.024504654
29	0xbd10a69a	-0.035315134
30	0x3cee901b	0.02912145
31	0xbdac1f78	-0.0840444
32	0x3dc89ed3	0.09795918
33	0x3dc44434	0.09583321
34	0x3d936a62	0.07198025
35	0x3d93542c	0.07193789
36	0x3dc43f54	0.095823914
37	0x3cc1d752	0.023662243
38	0x3dcce7f2	0.100051776
39	0x3d889580	0.0666914
40	0xbc8f444d	-0.017488623
41	0x3de47118	0.111543834
42	0x3dbe7abd	0.09300754
43	0x3bb87ba0	0.0056299716
44	0xbd830106	-0.063966796
45	0x3dc8073d	0.097670056
46	0x3ddf19b2	0.10893573
47	0xbd47b6c2	-0.048758276
48	0xbd2930ed	-0.041306425
49	0x3d16c3c9	0.03680781
50	0x3a4352d9	0.0007451005
51	0x3dee333d	0.11630867
52	0x3d30dba4	0.043178216
53	0x3d3e7c2a	0.04650513
54	0xbc3e40db	-0.011612142
55	0xbd727c61	-0.05920065
56	0xbd584201	-0.05279732
57	0x3cf5d670	0.030009478
58	0xbd63e639	-0.05563948
59	0x3ddd6843	0.10810902
60	0xbd9ec28a	-0.07751949
61	0xbc85ce2a	-0.016333658
62	0x3dd09cb0	0.10186136
63	0xbbb0f8c5	-0.0054007494
64	0xbda89042	-0.0823064
65	0xbd1f5cf3	-0.038907003
66	0xbc91d592	-0.017802034
67	0xbd267fbb	-0.040649157
68	0x38a8210f	8.017022e-05
69	0x3dc58ae0	0.09645629
70	0xbc1c2910	-0.009531274
71	0xbab2bab9	-0.001363597
72	0xbbf8f8ff	-0.007598042
73	0x3d1b85e0	0.03796947
74	0xbd25a0b1	-0.04043645
75	0x3d19c240	0.037538767
76	0x3c4d91a2	0.012546929
77	0xbdaf6521	-0.08564211
78	0x3d95d8c3	0.07316735
79	0x3c333e47	0.010940141
80	0x3d8232bb	0.06357332
81	0x3a8e6a2d	0.0010865383
82	0x3d8a6588	0.06757647
83	0xbd391c43	-0.045192968
84	0x3db19f77	0.08672994
85	0x3d21c241	0.039491896
86	0x3d9747e8	0.07386762
87	0x3d376871	0.044777337
88	0x3dd5dd16	0.104425594
89	0x3b12b73a	0.0022387044
90	0xbc963516	-0.01833586
91	0xbd5c8970	-0.053842008
92	0x3ce06399	0.027391242
93	0x3da2c085	0.079468764
94	0x3d9bbe03	0.07604601
95	0x3d559fc7	0.05215433

layers.1.q.weight f4 [96, 96]
0	0x3d9b8c39	0.07595105
1	0x3cd250db	0.02567332
2	0x3b3779ff	0.00279963
3	0x3da045fe	0.0782585
4	0x3d679f4e	0.05654841
5	0xb98b04ca	-0.00026515714
6	0xbc121846	-0.00891692
7	0x3d9b4b00	0.075826645
8	0xbda0655d	-0.078318335
9	0xbda790b9	-0.081819005
10	0xbb8611aa	-0.004091461
11	0x3c58cfad	0.0132331075
12	0xbd9b21b8	-0.07574791
13	0x3cf413b3	0.02979455
14	0xbd73ea8b	-0.05954985
15	0x3d9d97ba	0.07694955
16	0xbd5f392b	-0.05449788
17	0x3da56926	0.08076696
18	0x3c99e286	0.018784773
19	0xbcd87ed9	-0.026427673
20	0x3d0d947e	0.03456544
21	0x3c813072	0.01577017
22	0xbceba017	-0.02876286
23	0x3db4c948	0.08827454
24	0xbd309509	-0.04311088
25	0x3da0ee5a	0.07857962
26	0xbda15b49	-0.078787394
27	0x3d4bea15	0.049783785
28	0xbc6170de	-0.01375982
29	0xbc0ef539	-0.008725458
30	0x3d71bbb1	0.059016887
31	0x3cd1bf51	0.025603922
32	0xbd77b32f	-0.060473617
33	0xbb5d2213	-0.0033742234
34	0x3d124fec	0.03572075
35	0xbd864e2b	-0.06557878
36	0x3cd55f9d	0.026046569
37	0x3d962dd9	0.073329635
38	0x3d9d8c0f	0.0769273
39	0x3c2fe7c4	0.01073641
40	0x3d8b3ac4	0.06798318
41	0xbd73e6bb	-0.059546214
42	0x3d8c7597	0.06858366
43	0x3d958735	0.07301179
44	0x3d9b8a58	0.07594746
45	0x3d9f007e	0.07763766
46	0x3d6d13e4	0.057880297
47	0xbd9ae2f4	-0.07562819
48	0xbb143e07	-0.002261998
49	0x3d9094e8	0.070596516
50	0x3d86a467	0.06574326
51	0xbc7b2237	-0.015327982
52	0xbb73c885	-0.0037198376
53	0x3d4be079	0.04977462
54	0x3be2050a	0.0068975734
55	0x3cb3a7a9	0.021930533
56	0xbc917057	-0.017753763
57	0xbd9db055	-0.07699648
58	0xbd7d391a	-0.061822034
59	0x3cfaa18e	0.030594613
60	0xbb7add20	-0.0038278773
61	0xbd800749	-0.062513895
62	0x3da9114c	0.08255252
63	0x3d652033	0.05593891
64	0x3b87033a	0.0041202577
65	0xbcf7355c	-0.03017681
66	0xbd7dd82b	-0.061973732
67	0x3da0b425	0.0784686
68	0x3d5a9b36	0.053370677
69	0x3dba68e1	0.09102035
70	0x3dacec54	0.084435135
71	0x3dcb3b24	0.099233896
72	0x3d40945c	0.047016487
73	0xbdb0d7a3	-0.086348794
74	0x3c9585b1	0.018252226
75	0x3dac07b6	0.08399908
76	0xbc7824e1	-0.015145511
77	0x3d8cadae	0.06869064
78	0x3c371160	0.011173576
79	0x3cb910d8	0.02259104
80	0xbcc9e1e1	-0.02464384
81	0xbced6fad	-0.028983915
82	0x3da439c9	0.08018834
83	0x3d5e1c2d	0.05422609
84	0x3d8792d7	0.06619804
85	0xbd35ba9e	-0.044367425
86	0x3cc22812	0.023700748
87	0xbd2f0b38	-0.04273531
88	0x3bccc841	0.006249458
89	0x3d900fd2	0.070342675
90	0xbd8e3b8d	-0.06944952
91	0xbd9ea69a	-0.077466205
92	0xbdd38680	-0.10328388
93	0x3db2b728	0.087263405
94	0xbdb479d1	-0.08812297
95	0xbdb9aef8	-0.09066576
96	0x3d9a0cee	0.075219974
97	0xbd840dfb	-0.06447979
98	0xbb872b8e	-0.004125065
99	0x3c30b7f8	0.010786049
100	0x3dac25ba	0.08405633
101	0x3d79e4fb	0.06100939
102	0xbaa2cd1d	-0.0012420748
103	0xbbc9f627	-0.006163377
104	0x3d25e5ac	0.040502235
105	0x3da99ddf	0.08282065
106	0x3d9a8676	0.07545178
107	0x3da1abd0	0.07894099
108	0xbd1765d6	-0.036962353
109	0x3d53a0c6	0.051666997
110	0x3d7390c6	0.05946424
111	0xbd08231b	-0.033236604
112	0xbd961a76	-0.07329266
113	0xbd926cde	-0.07149671
114	0x3b91c5c3	0.004448624
115	0xbd69ee7a	-0.057112195
116	0xbd3d8a89	-0.046274696
117	0x3d2f1f59	0.042754505
118	0x3c89d767	0.016826345
119	0xbc1e1616	-0.00964882
120	0x3d9ae6b1	0.07563532
121	0x3d811a3d	0.06303833
122	0xbdc1ef55	-0.09469477
123	0x3d58f694	0.05296953
124	0x3d9f2148	0.0777002
125	0x3a17e1fa	0.0005793866
126	0xbda0fe9f	-0.07861065
127	0x3dc5ce2f	0.09658467
128	0xbc3a5238	-0.011372142
129	0xbd7e565b	-0.062094074
130	0x3cd8a94b	0.026447913
131	0x3d237e48	0.039915353
132	0x3dbce2cd	0.09222946
133	0xbdd6d8df	-0.10490584
134	0x3dc3aeb7	0.095548086
135	0xbd8bdb34	-0.06828919
136	0x3de1160c	0.10990533
137	0x3d9c1b9f	0.07622456
138	0x3d6fc9e4	0.058542147
139	0xbd3f2f8d	-0.046676207
140	0x3db46197	0.08807676
141	0xbd9c3c94	-0.07628742
142	0xbda41715	-0.08012215
143	0x3d8a4ede	0.06753324
144	0x3cd31b17	0.025769753
145	0x3ceca89c	0.028888993
146	0xbcf8efbb	-0.03038775
147	0x3d8c47e1	0.06849647
148	0x3d7e7f82	0.06213332
149	0xbceb880a	-0.028751392
150	0x3ca1fb86	0.019773256
151	0x3c9b5c0b	0.018964788
152	0x3d578065	0.05261268
153	0xb994e471	-0.00028398962
154	0xbba32cc5	-0.004979702
155	0xbcbc2cbd	-0.022970552
156	0xbc59c575	-0.013291706
157	0x3a989cb0	0.0011643376
158	0x3cc60690	0.024173051
159	0x3c9cb702	0.019130234
160	0x3d62cd60	0.055371642
161	0x3da8f713	0.08250251
162	0x3d91c2f1	0.0711726
163	0xbd30dcdb	-0.043179374
164	0xbd131f08	-0.035918266
165	0x3d0664d8	0.032811016
166	0xbd34cb4d	-0.044139195
167	0x3dafba3b	0.085804425
168	0x3d8c897f	0.06862163
169	0x3c8bcc30	0.017065138
170	0x3d9f29bb	0.07771631
171	0x3b6850c3	0.0035448528
172	0xbdb707ac	-0.0893701
173	0x3d86a1a0	0.06573796
174	0x3c8aeb49	0.016957896
175	0xbdcf3f23	-0.10119464
176	0x3da629c0	0.08113432
177	0xbd8eea7e	-0.069783196
178	0x3bb2ea00	0.005460024
179	0x3d124f6b	0.03572027
180	0x3c3dd84d	0.011587215
181	0x3d4fb5af	0.050710376
182	0x3ad01c69	0.0015877608
183	0xbdb64ada	-0.089009956
184	0x3cc36fd2	0.023857031
185	0x3aba01ee	0.0014191249
186	0xbda5c8b0	-0.08094919
187	0xba23598b	-0.00062312995
188	0x3dd3be33	0.10339012
189	0xbdb590d0	-0.088655114
190	0x3dc26226	0.094913766
191	0x3cdb7594	0.026789464
192	0x3d52c5a7	0.051458027
193	0xbdbb2e57	-0.09139698
194	0xbc6d61bf	-0.0144886365
195	0x3d1f3fe5	0.038879294
196	0x3c94f5bd	0.018183583
197	0x3db357e4	0.08756998
198	0x3db263d5	0.08710448
199	0xbdb844a7	-0.089974694
200	0xbdb4f95e	-0.088366255
201	0x3da7e95c	0.08198807
202	0x3dac26b2	0.08405818
203	0x3d1faa06	0.038980506
204	0x3d4eaf59	0.050460193
205	0xbd7d3e05	-0.061826725
206	0x3c8fd53d	0.017557735
207	0x3d647140	0.055772066
208	0x3c97568c	0.018473886
209	0xbca12577	-0.019671185
210	0x3b49a87e	0.0030770595
211	0xbc342035	-0.010994007
212	0xbcfd15d0	-0.03089419
213	0xbcf58a15	-0.02997307
214	0x3d3a856e	0.045537405
215	0xbd335433	-0.04378147
216	0xbdca9dd4	-0.098933846
217	0xbd4623f9	-0.04837415
218	0xbddf9074	-0.10916224
219	0x3b2a5c2e	0.0025994885
220	0x3d4e255c	0.050328597
221	0xbdb2bf76	-0.087279245
222	0xbd85b39a	-0.06528397
223	0x3db25eda	0.08709498
224	0x3dd1e4e0	0.102487326
225	0xbd4e19b1	-0.05031747
226	0xbcda6f69	-0.026664453
227	0x3d124e2b	0.035719078
228	0x3dc38e01	0.095485695
229	0xbcefe824	-0.029285498
230	0xbcc439bd	-0.023953313
231	0x3ba6fa29	0.0050957394
232	0xbd958815	-0.07301346
233	0x3d6a113d	0.057145346
234	0xbd34b99b	-0.04412232
235	0xbd57db9e	-0.052699678
236	0xbdc0a002	-0.09405519
237	0x3d0c0034	0.03417988
238	0xbce80b60	-0.028325737
239	0x3d8f3df2	0.06994237
240	0xbd863a6f	-0.06554114
241	0x3d2df947	0.042474058
242	0xbca81c8e	-0.020521428
243	0xbc8d52d1	-0.017251404
244	0x3cde033a	0.027101148
245	0xbd856d2a	-0.06514962
246	0xb90e6718	-0.0001358058
247	0x3d2d05f5	0.04224201
248	0xbd28965f	-0.04115903
249	0xbcc8a735	-0.024493793
250	0x3d6e2311	0.05813891
251	0xbd1d78f8	-0.038445443
252	0xbd9e4389	-0.07727725
253	0xbdb6673d	-0.0890641
254	0x3db248ff	0.08705329
255	0x3dc082d0	0.093999505
