outputs/models/nowcast_sage_seed999.pt (torch, 272416 bytes, 14 tensors)

in_lin.weight f4 [96, 15]
000000 4d 13 ab 3d 84 0a db 3d 16 81 78 be b2 3f 83 3e
       0.08353291 0.10695365 -0.24267992 0.25634533
000010 a8 a1 7c bb 67 d0 83 3e a0 a1 22 3e 35 ad 92 be
       -0.0038548503 0.25744936 0.15881968 -0.2864777
000020 44 39 80 bd 84 12 8b 3e 4a c6 3a be 1e bb 57 be
       -0.062609226 0.27162564 -0.18239704 -0.21067473
000030 74 bc 89 bc 73 01 fe 3b 26 f8 57 3e f4 f5 7e be
       -0.016813494 0.0077516376 0.21090755 -0.24898511
000040 be cb 19 3e 50 a6 d2 bd 7d 17 43 3c 43 eb 1a be
       0.15019128 -0.10285628 0.0119074555 -0.15128808
000050 d4 4b 10 be 4d 1e 32 3e 0d 7f 53 3e 01 1e 1a 3e
       -0.14091426 0.17394371 0.20653935 0.15050508
000060 5d 79 1e 3e 7e 6c 52 bd 4c dc f8 3d e3 a7 1f be
       0.15475984 -0.051372997 0.12151393 -0.15591387
000070 07 ab 6c be 23 51 be 3d 0c f9 25 3d 23 87 31 be
       -0.23112117 0.09292819 0.040520713 -0.17336707
000080 44 ad 1c 3e e4 80 4a 3d e6 dc e9 3d 05 2b 8e bd
       0.1530047 0.049439326 0.11419086 -0.06941799
000090 6b 74 fa 3d 10 dd ed 3d ba d0 93 bd 36 5d 43 3e
       0.12229236 0.1161443 -0.07217546 0.19078526
0000a0 31 aa 04 bd 64 fe 9f 3e 65 06 bf bc fb a1 f6 3d
       -0.03238887 0.31248772 -0.023318479 0.12042614
0000b0 f6 9a 44 3e 91 ec 63 3d 4c 8d 8a 3c 19 ea 07 bd
       0.19199738 0.05564553 0.016913079 -0.033182237
0000c0 f0 fc 63 be 9f f3 15 3e 3a 64 59 3e ce f2 64 3e
       -0.22264457 0.14643715 0.2122964 0.22358248
0000d0 f0 0a 8e be d5 1a 58 be 34 67 0a 3e 2f 18 9e 3d
       -0.2774272 -0.21103986 0.13515931 0.077194564
0000e0 44 ed 18 3e 12 fb 7b 3e 11 ab 40 be a5 11 61 be
       0.1493426 0.24607494 -0.18815257 -0.21979387
0000f0 2b 48 86 be 73 40 12 be 68 63 50 be 11 af 7e 3e
       -0.26226935 -0.14282398 -0.2035042 0.2487147
000100 2b 9a e1 bd c4 53 11 be 20 2c 1d be 1e e3 7d 3e
       -0.11015733 -0.1419211 -0.15348864 0.2479367
000110 a1 cf 5e 3e 1f e5 c5 bd c7 46 dc bd 9d 52 96 3e
       0.21758892 -0.09662842 -0.10755687 0.29359904
000120 c4 2c 92 bd a7 0a 3a bd e8 27 71 3e 18 b8 97 3d
       -0.071374446 -0.045420315 0.2355038 0.0740816
000130 9c 4b 3b 3b c7 30 44 be 6e 99 52 3c 1e ab 34 3e
       0.0028579002 -0.19159232 0.012853963 0.17643401
000140 ca 40 51 be ca 05 04 be 84 da a6 3e c7 af 41 3d
       -0.20434871 -0.12892833 0.3258859 0.047286775
000150 39 53 eb bd 2f d5 21 3e e6 b5 82 3e 47 24 77 3e
       -0.11490483 0.1580398 0.25529402 0.24134932
000160 b2 69 cf bd d6 fe 67 be 87 cd 70 3e 33 30 0e be
       -0.10127582 -0.22655806 0.23515902 -0.13885574
000170 b4 a2 62 3e ce 6f 3a bc f5 e9 ac bd 04 b6 43 be
       0.22132379 -0.011379195 -0.08443061 -0.19112402
000180 18 70 b3 3d c0 e2 41 be 64 dd 85 be f3 93 df bd
       0.087616146 -0.18934155 -0.2614547 -0.10916891
000190 a5 04 c2 3d 55 df 85 bd 56 f6 f7 3d 0f 36 98 3d
       0.09473542 -0.06536738 0.12107532 0.07432186
0001a0 a2 9a 19 3e 50 95 68 be 96 4f f1 3d ce c5 3b be
       0.15000394 -0.22713208 0.11782758 -0.18337175
0001b0 c0 46 1b be f9 51 8d 3d 36 0c 0d 3d e9 15 b2 3d
       -0.15163708 0.06900401 0.034435473 0.08695585
0001c0 19 8a 91 3e a9 0e 2e be 7d b1 ec bd 45 1a 7d be
       0.28425673 -0.1699778 -0.11557291 -0.24717052
0001d0 0f 80 6e 3e d7 51 93 3e 5f 40 09 be 05 45 49 be
       0.23291038 0.28773376 -0.13403462 -0.19655235
0001e0 1c c6 cd bd a4 ac 00 be 17 84 87 3e 33 e6 54 bd
       -0.10047552 -0.12565857 0.26467964 -0.051977348
0001f0 78 de 00 be f3 31 f3 bc a3 0d 05 bd 39 96 89 3d
       -0.12584865 -0.029686904 -0.032483708 0.06718106
000200 fe 6c bb bd 87 d2 fd bd 34 6e dd 3d 7d 03 49 be
       -0.09151648 -0.123936705 0.10812035 -0.19630237
000210 19 07 5a 3e 19 10 32 3d ab c1 26 bd 1f 22 85 be
       0.2129177 0.043472383 -0.04071204 -0.26002595
000220 80 cf 4c be a1 16 48 be 11 72 90 3d 02 10 5b be
       -0.2000103 -0.19539882 0.070530064 -0.21392825
000230 fc a9 6b 3e 29 fe 7f 3e 0d da 50 3e b2 58 19 be
       0.23014063 0.24999298 0.2039568 -0.14975241
000240 d3 15 88 3e d2 e7 2d be 8e 70 86 3e 1e dc 77 3e
       0.2657915 -0.16982964 0.26257747 0.24205062
000250 9a 1c f6 bd 38 cf 2b 3e 7a b4 ce bd f3 4d b2 bb
       -0.12017174 0.16778266 -0.10093017 -0.005441421
000260 c6 1f b2 3d 28 91 5a 3e 81 64 d7 3c 71 41 83 be
       0.086974666 0.21344435 0.026293041 -0.25635865
000270 47 f6 86 bd d2 0d 67 be 08 88 56 3e d0 24 de bd
       -0.065899424 -0.22563866 0.2095033 -0.10846865
000280 7e e8 58 3e 86 9a 8e bd 8c 9f 3f be aa 4c 2a be
       0.21182439 -0.06963067 -0.18713206 -0.16630808
000290 9b d0 98 bd 25 8e 10 be d4 e0 42 3e 3c 0b 44 3e
       -0.07461663 -0.14116724 0.19031078 0.1914491
0002a0 8c 0e 0a bd e2 95 cb bd 03 dd 1e 3e 0c b9 78 3e
       -0.03370528 -0.09940697 0.15513997 0.2428934
0002b0 df 4d 01 be 1f 75 91 3e 89 3b 1d 3d 69 4c 05 be
       -0.12627362 0.2840967 0.038386855 -0.1301743
0002c0 b3 dd 6c 3e 30 11 72 3e 58 4c d1 bd ac 0d 57 3e
       0.23131447 0.23639369 -0.102196395 0.21001309
0002d0 42 41 1d be 13 c3 30 3e 15 71 02 be f8 c2 22 3e
       -0.15356925 0.17261915 -0.1273845 0.15894687
0002e0 03 2a 6e be 40 ee 8a bd bd cf 75 3e 05 0d 8b 3e
       -0.23258214 -0.06783724 0.24005027 0.2715837
0002f0 24 a4 cb 3c ec 69 30 3c 40 cc d4 3d 90 05 41 3d
       0.024858542 0.010767441 0.1039052 0.047124445
000300 cc 13 4f be 4c 7a 66 be 08 fb 5c b9 3e 32 40 be
       -0.20222396 -0.2250759 -0.00021074351 -0.18769166
000310 7e fc 7e be 45 b0 7f 3e ef 04 13 bd 2a d8 2e 3e
       -0.24901006 0.24969585 -0.035893377 0.17074648
000320 7b f9 8d bd db dc 3f bd 88 15 20 be 2d 8b 26 be
       -0.0693235 -0.046841484 -0.15633214 -0.16264029
000330 d5 b4 75 3e 85 34 e5 3d b5 2a 36 be b8 63 e2 3d
       0.23994763 0.11191658 -0.17789729 0.11054176
000340 57 c2 e1 3d 90 8e 82 3d fc 01 37 be 24 fb 81 bd
       0.110233955 0.06374848 -0.1787185 -0.063467294
000350 0e 59 2e be fe b9 10 3e 76 ff 80 3e 86 93 a4 bd
       -0.17026159 0.1413345 0.251949 -0.0803595
000360 f5 c0 02 be 24 11 90 3e b1 55 88 3e eb f9 4e 3e
       -0.1276892 0.28138077 0.26627877 0.20212524
000370 25 5f 90 3d 40 a4 41 3e 70 b5 46 bd 23 73 a3 3b
       0.070493974 0.18910313 -0.048512876 0.0049880906
000380 00 ea a3 bd b7 07 68 bd 0f fa 51 bc ab 60 60 be
       -0.08003616 -0.056647982 -0.012815966 -0.21911876
000390 87 fc bb 3d 68 3b 79 be 43 be 2f 3e b5 5b 0b be
       0.09179025 -0.24339068 0.17162423 -0.13609202
0003a0 79 d0 8c 3e 31 b9 3d 3d 19 8c 1d 3e ba 11 3e be
       0.27502802 0.04631919 0.15385474 -0.1856145
0003b0 b9 6a 5f 3e 01 54 94 3c 3a ee a3 bd d9 8e 7b bd
       0.21818055 0.018106462 -0.080044225 -0.061415527
0003c0 44 a8 75 be 29 72 0a bc ec 85 37 bd dd d5 76 3e
       -0.2398997 -0.008450069 -0.044805452 0.2410502
0003d0 e0 1d 02 be ae a4 0e bd 0c 39 f4 3c b1 66 99 be
       -0.12706709 -0.03482502 0.029812358 -0.2996116
0003e0 38 c3 a7 bd 55 5c d7 bd 05 1d e3 3d ff 6a dd 3d
       -0.08191532 -0.10515658 0.110895194 0.108114235
0003f0 87 bb 60 be 0a ac 38 3e 8f 88 53 3e a6 0a f0 3c
       -0.21946536 0.18034378 0.20657562 0.029301953

in_lin.bias f4 [96]
000000 cd 61 87 3e 89 e4 80 3d e9 86 8f 3e f1 57 40 be
       0.26441804 0.062935896 0.28032616 -0.18783547
000010 9d 41 0e 3e 05 88 03 be 30 42 9b 3d 93 cd ae bd
       0.13892217 -0.12844856 0.07580984 -0.08535304
000020 cb 52 34 3e 49 4f d4 bd ed ba e9 bd 9f 10 8a 3b
       0.17609708 -0.10366685 -0.114126064 0.004213407
000030 7e fc a2 bc 7a 92 d7 3d 2e a8 13 bd 95 0b 3b be
       -0.019895788 0.10525985 -0.03604906 -0.18266137
000040 c0 ed c6 3d c7 eb f1 3b db be 96 3b 4b de 6e 3e
       0.09713316 0.007382843 0.0046003885 0.23326986
000050 9b cc ef 3d 1d f5 4b 3d f8 5c 48 bb 3f bf 35 be
       0.11708947 0.049794305 -0.0030572992 -0.17748736
000060 90 78 5d be 31 60 f9 bd b8 71 d2 3c ef e8 74 3e
       -0.21628022 -0.1217655 0.025688991 0.23916982
000070 0d f9 3e bd 73 1b 5a be 26 1e 63 be 16 05 59 3e
       -0.046624232 -0.21299534 -0.2217947 0.21193346
000080 fc 17 35 bd 75 47 49 bc 94 26 14 3d af 8d 7a 3e
       -0.044212326 -0.012285103 0.036169603 0.2446811
000090 42 29 10 3d 71 b1 19 3e 6c 42 f9 3c af 0a bb 3d
       0.035195597 0.15009095 0.03042718 0.09132897
0000a0 4f ff 5b be fb 99 42 3e 2e dc 85 3d ba f9 49 3d
       -0.21484111 0.19004051 0.065361366 0.049310423
0000b0 1f 9a 1d 3e 83 11 39 bd 40 2a f3 3d 94 3e 58 be
       0.15390824 -0.045182716 0.11873293 -0.21117622
0000c0 ac c7 84 3e 38 97 7c bc 66 eb 5d 3e f7 09 df bc
       0.25933588 -0.015416913 0.21671829 -0.027226431
0000d0 ce 1c 01 bd 1b 9b 5e 3e 56 e2 14 3e c8 5e 26 3e
       -0.03152161 0.21738856 0.14539465 0.16247094
0000e0 82 85 18 3b b3 f6 cf bc 52 c7 0d bc 9b e1 61 3e
       0.0023272936 -0.02538619 -0.008653479 0.22058718
0000f0 27 2c 47 be 3c e8 63 be 69 7a 67 3e ea 97 ee 3c
       -0.19450437 -0.22256559 0.2260529 0.029125173
000100 41 57 3b 3e c4 0e 3e 3e 43 df 5c 3e a3 e7 3f bc
       0.18295003 0.1856032 0.21569543 -0.011712941
000110 55 71 37 3d 12 5d 3e 3e b3 b6 32 be a2 f8 76 be
       0.044785816 0.18590191 -0.17452507 -0.24118283
000120 ef 22 67 3e da a8 5d 3e 94 93 64 be be f1 87 3e
       0.2257192 0.21646443 -0.22321922 0.26551622
000130 02 35 57 bd 64 c7 50 be ce 9d 59 3e d7 7c 02 3e
       -0.052540787 -0.20388561 0.21251604 0.12742935
000140 a9 70 de bd 2b 10 0d 3e 50 a2 9b 3c 68 eb 58 3e
       -0.10861332 0.13775699 0.018998295 0.2118355
000150 c6 04 c8 3c ed bb 5c 3d 85 36 29 3e 93 17 27 bc
       0.024416339 0.053890157 0.16524704 -0.010198492
000160 ab 32 70 3e 5a cd 3d be 0b e6 64 be 8d 38 fb bc
       0.23456828 -0.18535367 -0.2235338 -0.030666614
000170 29 a4 55 bd ca c9 d3 3b ec 87 d7 bc 1b d5 05 3e
       -0.05215851 0.006463264 -0.02630993 0.13069575

layers.0.lin_self.weight f4 [96, 96]
000000 bc 45 22 bd f7 c8 9d bd 58 78 23 3c 5b d7 27 bd
       -0.039617285 -0.077043466 0.009977423 -0.040976863
000010 f6 00 3e bd 2c 89 1b 3d f3 df d6 3d 7f 6e 84 bc
       -0.046387635 0.037972614 0.10491934 -0.01616597
000020 75 da c5 3d 63 d8 b8 3c 42 44 10 be 6a 59 00 bd
       0.09660808 0.022564119 -0.14088538 -0.031335272
000030 33 2e 35 bd e7 d8 cf bc 8d 86 fc bc 5e 26 f4 3d
       -0.044233512 -0.025371982 -0.030825878 0.119213805
000040 c1 9d 5d 3d 53 4d b6 bd 4c dd 13 bd c2 03 b3 3d
       0.054105524 -0.08901467 -0.036099717 0.08740951
000050 28 73 e1 bc 07 a2 45 bd 66 67 98 3c 19 03 31 3d
       -0.027520731 -0.048250224 0.018603992 0.043215845
000060 05 46 00 bd 7a 3e 8f 3d b8 9f cb 3d 25 7e 76 3d
       -0.031316776 0.06994338 0.09942573 0.060178895
000070 26 6d e0 3d c3 b7 92 3c cc db 29 3d 3c 17 d2 3d
       0.109583184 0.01790989 0.04146938 0.10258338
000080 a6 1f 8f bd 1d 40 38 bd 6c 6d 34 3d f7 25 4b 3d
       -0.06988458 -0.04498302 0.044049665 0.049596753
000090 e7 a8 99 bd ce 40 2b 3d 1d 42 f6 3d fb c8 b9 bd
       -0.07502919 0.04180985 0.12024329 -0.09071537
0000a0 27 32 28 bd 2d f4 44 3d 14 10 69 3d b9 b5 62 3d
       -0.041063454 0.048084427 0.0569001 0.055349085
0000b0 e3 9c 98 3c f7 72 b7 3a 37 5e 84 3d 4e 6d 13 bd
       0.018629497 0.0013996054 0.064632826 -0.035992913
0000c0 8c ec 53 3d 1a c7 de 3d 7c c4 ad 3d 24 78 e2 3b
       0.05173926 0.10877819 0.08484742 0.0069112945
0000d0 02 d5 c7 3c 51 0d c1 3d 49 df af 3d bd d1 0a bc
       0.024393562 0.09426368 0.0858751 -0.008472857
0000e0 38 d9 ba bd 02 74 bf 3c 8a fc 6f 3d 6b 2b 91 3b
       -0.091234624 0.023370747 0.05859045 0.0044302247
0000f0 fe 5c 97 bd 3d bd 73 3d fb f0 d5 3d 4e 6c e2 bb
       -0.07390784 0.059506644 0.10446354 -0.0069098836
000100 82 34 da 3c b1 c3 a2 bd 48 71 e0 bb b6 21 c4 bd
       0.026636366 -0.079474814 -0.0068494417 -0.09576742
000110 ba 26 ac bd a6 21 89 3c 74 54 7b bc 0f 75 b4 bd
       -0.08405824 0.016739678 -0.015339959 -0.0881139
000120 3f 49 50 bb 67 e0 04 bd d9 5f b0 3d 09 f5 cd bc
       -0.003178194 -0.03244057 0.086120315 -0.025141256
000130 e5 4b 98 3d f6 16 7f bd 4e 7d da bd 27 07 ca bd
       0.07436351 -0.062277757 -0.10668431 -0.098646455
000140 e8 7b 95 3d a7 fe e9 3c 78 64 8a bd 43 e4 5e 3b
       0.07299024 0.02856381 -0.06757444 0.0034010566
000150 1f 17 f5 bc 69 0e 79 3d 2e f0 37 3d 5b 58 28 bd
       -0.029918252 0.06080476 0.044906788 -0.041099887
000160 89 5a c0 bc 0c 69 c1 bc b3 78 45 3c 3e aa c6 3d
       -0.02348067 -0.02360966 0.012052703 0.0970044
000170 e2 ce 4b bd 1b 41 c9 bd 10 1f fe 3b c6 41 ff 3d
       -0.049757846 -0.09826871 0.007755168 0.12463717
000180 c6 03 bb bc 1c 30 96 3d 33 53 04 bd 02 9e e1 3b
       -0.022828948 0.07333395 -0.032305907 0.006885291
000190 93 f2 bf bc 16 cf e2 3d f8 62 c7 3d 4a ad 79 3d
       -0.023431098 0.11074655 0.09735674 0.060956277
0001a0 b2 a2 84 bd 67 d6 8f 3d 71 f1 9a bd ef ad e3 3b
       -0.06476344 0.07023316 -0.075655825 0.0069482247
0001b0 62 dc ac bc 74 19 a2 bd 65 12 2e bd e1 a4 c6 bc
       -0.02110118 -0.07915011 -0.04249801 -0.024248542
0001c0 f0 05 8c 3c d0 51 8e bd 7e 41 98 3d e5 e4 0e 3d
       0.017092675 -0.06949198 0.07434367 0.03488626
0001d0 d3 b6 72 3d aa ca bd 3d e0 33 89 3b 74 a5 cf bd
       0.059256386 0.09267171 0.004187092 -0.101389796
0001e0 6b 8b 8a 3c cd 20 11 bd 84 63 09 3d 56 a8 65 39
       0.016912183 -0.035431672 0.03354217 0.00021901852
0001f0 f5 ff 36 bd 56 89 89 bc 45 dc 8b ba c6 2c 9b bd
       -0.044677693 -0.01678912 -0.0010670504 -0.07576899
000200 66 5c 3b 3d fe 32 9a 3d 45 05 8b bb a4 eb ec 3d
       0.045742415 0.07529257 -0.0042425715 0.115683824
000210 95 d2 d3 3d f4 6a 73 bd 4f e0 7d bd f4 36 b8 bd
       0.103429 -0.05942817 -0.061981495 -0.089948565
000220 bf 6b 0f 3d 02 b5 5c 3d 63 9e 68 3d ac 32 77 3d
       0.035014864 0.05388356 0.056791674 0.06035106
000230 95 bc 7a 3d 96 2d ce 3c 66 70 24 3d 36 ad 4f 3d
       0.061215002 0.025168221 0.040146254 0.050702296
000240 c7 d8 c9 3d 72 5f ac 3d 07 79 92 bd 72 03 c0 bc
       0.098558 0.08416642 -0.071519904 -0.023439143
000250 60 79 d5 3d f1 e6 ee 3d c1 07 02 3e 2e 9e 57 bd
       0.10423541 0.11665142 0.1269827 -0.052641086
000260 4b e9 86 3b d3 7a 00 bc 83 64 0d 3d 36 fa 3f bd
       0.004117166 -0.007841784 0.034519684 -0.04686948
000270 a0 53 47 bd c6 4c aa bc 75 84 58 3c 96 99 b1 3d
       -0.048663735 -0.020788562 0.013215174 0.08671872
000280 a2 62 bd bc 2b 7d bf 3d 44 aa 02 3e 51 a8 78 bd
       -0.02311832 0.09350046 0.12760264 -0.060707394
000290 22 55 11 bd 15 94 71 bd ca 5a 7c 3d 26 fc 5d 3c
       -0.03548158 -0.058979113 0.06161002 0.013548886
0002a0 f2 b8 6b 3d 43 82 0e bd 60 08 dd bc be 68 d8 3d
       0.057549424 -0.034792196 -0.026981533 0.10566853
0002b0 0b bf b9 3d 24 66 c1 bd de f6 84 3d 80 76 d3 3d
       0.09069642 -0.0944331 0.06492399 0.103253365
0002c0 01 58 63 bd 41 51 b2 3d b0 59 0a 3d ed f7 1f 3d
       -0.05550385 0.08706904 0.03377694 0.0390548
0002d0 37 b1 a1 3d 4d 79 97 3d 66 5a df ba 56 05 b7 3d
       0.07895129 0.07396183 -0.0017040491 0.089365646
0002e0 57 36 51 bd 87 ac d3 3d da aa 45 bd 61 45 b7 bd
       -0.051077213 0.10335641 -0.04825864 -0.0894878
0002f0 a5 20 97 3d 6a a2 11 bd 3c 4e 69 3d 84 19 43 bd
       0.07379273 -0.03555528 0.056959376 -0.047631755
000300 43 71 a2 bc 62 60 74 3d f6 57 b2 3b 7f cb d0 3c
       -0.019829398 0.05966223 0.0054426147 0.02548766
000310 1d 41 9d 3d 5e 15 cd 3d 2c 39 b3 bd d3 b0 07 3e
       0.07678435 0.10013841 -0.08751139 0.13251047
000320 e2 aa 66 3d af 92 fd 3d e0 4b 21 bd 3d 37 9d bd
       0.05631531 0.12381493 -0.039379 -0.076765515
000330 e2 d9 79 3c 29 c5 3b 3d e2 ca 83 3c bb 7f 84 bc
       0.015249701 0.045842323 0.016087953 -0.016174188
000340 33 a6 b8 bd 0a 58 83 3d 9e 33 a0 bd db 96 65 bd
       -0.09016075 0.064132765 -0.07822345 -0.05605207
000350 02 85 5f 3c 73 18 0f 3d 67 51 b8 3c 55 f7 47 3d
       0.013642551 0.034935426 0.022499753 0.04881986
000360 6f 52 9f bd c1 c8 9a bc 1c af 5f bd c9 c0 6c 3d
       -0.07779395 -0.018894555 -0.054610357 0.05780104
000370 dc 5c 80 bd a0 05 63 3d 79 8e a5 3c 3c 7f 25 bd
       -0.062677115 0.055425286 0.020209538 -0.040404543
000380 fb cc d2 3d f1 7c 9d bc 8f 51 c3 3d a9 e2 47 bd
       0.10293003 -0.019224616 0.095370404 -0.048800144
000390 2d dc 2c bd 87 46 8c bc 80 31 01 3d 75 70 71 b7
       -0.042202163 -0.017123474 0.031541348 -1.4390903e-05
0003a0 03 eb b1 3d 88 8d 40 3d 81 a8 d8 3c 07 d6 83 bc
       0.08687403 0.047009975 0.026447536 -0.016093267
0003b0 b6 dc f5 3b 7b ef 53 3c 91 e5 b0 bd d5 a1 5d 3c
       0.0075031174 0.012935515 -0.08637536 0.013527353
0003c0 19 13 dc bc 9f 36 eb 3d ba eb 53 bc 06 b4 79 bd
       -0.026864575 0.114850275 -0.01293462 -0.0609627
0003d0 ae 7f 8d bc ce c9 46 bc 10 b9 d4 bc b4 06 9b 3d
       -0.017272796 -0.012133075 -0.02596715 0.07569638
0003e0 42 a1 a3 bc 36 d5 aa bd 9b 98 d3 3d d7 14 28 3d
       -0.019974355 -0.08341448 0.103318416 0.0410355
0003f0 a3 d6 31 bd 03 6e 88 3d cd 8f 7c bd c2 df 57 3c
       -0.043417584 0.06661608 -0.061660577 0.013175907

layers.0.lin_self.bias f4 [96]
000000 0d 8b 53 bd 93 aa 84 ba 41 a2 86 bd 80 72 3f 3d
       -0.05164628 -0.0010121636 -0.06573916 0.046740055
000010 57 ab 9f 3c 46 e0 78 bd 1b 52 90 bd 16 18 35 bc
       0.01949088 -0.06076076 -0.070469104 -0.011053106
000020 15 50 67 3d 5a 91 e4 3c bf 3b 08 3d be 34 46 bc
       0.056472857 0.02790134 0.033260103 -0.012097536
000030 53 86 9b 3d 90 2a 92 3d 59 e6 2f 3d 94 4a 87 3d
       0.0759398 0.071370244 0.042944286 0.066060215
000040 f0 62 e4 3c c1 12 91 3d 21 67 53 bd 7d 69 c2 3d
       0.027879208 0.07083655 -0.051612023 0.094927765
000050 66 85 25 3d 82 97 27 bd 38 aa a4 3d 89 55 b2 bb
       0.04041042 -0.040915973 0.08040279 -0.0054423255
000060 a5 9b e8 bc d1 60 aa bb f3 9e 9d bd 24 01 f3 bc
       -0.02839453 -0.0051995297 -0.07696333 -0.02966363
000070 1c e3 46 3c 8e fd 7a bd 9b 38 40 3c 5f 4d 99 bd
       0.012139108 -0.061276965 0.011732246 -0.074854605
000080 d6 aa 87 3d c6 bb b4 bd 54 89 e8 3c b9 0a b2 bb
       0.06624381 -0.088248774 0.028385796 -0.005433407
000090 4e 15 93 3d 0e 97 da 3d 2d 69 e4 3d f2 c4 81 bd
       0.07181798 0.10673343 0.11152873 -0.063363925
0000a0 e9 4f 9f bd 25 06 fe 3c 47 f2 3d bd aa 22 07 3d
       -0.077789135 0.03100879 -0.04637363 0.032992043
0000b0 50 68 86 3d d6 93 18 3d 12 77 93 bd a4 c8 b8 3d
       0.06562865 0.037250362 -0.07200445 0.09022644
0000c0 e5 25 58 bd 64 2d e7 3d 3f 01 d8 3c e1 14 7f 3d
       -0.052770514 0.112879544 0.026367782 0.06227577
0000d0 de b8 e3 3d 03 41 dc 3d 82 93 38 3d 47 7f bf bb
       0.11119245 0.107545875 0.04506255 -0.00584403
0000e0 e6 04 11 bd e9 b1 6d 3d 04 7b 9f bd ed d2 3e 3d
       -0.035405062 0.058030996 -0.07787135 0.046587873
0000f0 f6 b8 02 bd 6d 39 37 bd 7c 27 bb 3d 36 b3 37 bd
       -0.031914674 -0.0447325 0.091383904 -0.044848643
000100 b8 bb 52 3d 93 21 38 3c 4e dd 8a bd 47 09 9f 3d
       0.051448554 0.0112384735 -0.06780492 0.077654414
000110 b6 01 7e 3d 8d 6d 82 3c da a0 7a bd 1f 02 4a 3d
       0.06201335 0.015921379 -0.061188556 0.04931843
000120 d1 85 d0 3d 2d 8a c4 3d 6e 55 96 bc 12 c7 2e bd
       0.101817735 0.095966674 -0.018351283 -0.042670317
000130 eb b6 fc bc ef c6 ad 3d 6f bf a4 3d 6d 0a 96 ba
       -0.03084894 0.08485209 0.080443256 -0.0011447199
000140 7f 28 ae bc 08 8f 04 3e ea 98 b6 3d 50 b0 4e ba
       -0.021259544 0.12945187 0.08915885 -0.0007884549
000150 47 e0 77 3d be ad af bd b7 33 c2 bc 68 13 c5 3d
       0.060516622 -0.085780606 -0.0237063 0.09622842
000160 2f ba 88 3c ca 56 0e bc b9 0e a6 3d 87 ea a5 3b
       0.016690342 -0.008687684 0.08108277 0.005063358
000170 72 4a 93 bd ce c8 aa bd d2 36 bb bc 7f 8a c4 3d
       -0.07191934 -0.08339082 -0.022853289 0.095967285

layers.0.lin_neigh.weight f4 [96, 96]
000000 b7 98 8d bd db 1c c8 3d c6 61 ef 3c 84 ed 67 3c
       -0.06913894 0.09771129 0.029221427 0.014155749
000010 05 ee 56 bd bb 2c 0c bd 57 ea d4 3d 16 a7 e7 bc
       -0.052473087 -0.034222346 0.10396259 -0.028277915
000020 88 65 d3 3d 05 ab 68 bc a5 d8 03 be 56 f3 4e 3d
       0.103221 -0.0142009305 -0.12875612 0.050525032
000030 6c 57 f1 bc 65 8d a4 bd b1 48 ff 3c 5a d4 0a 3e
       -0.029460631 -0.08034781 0.031162592 0.13557568
000040 e2 11 d1 bd 67 d3 56 bd 7f 3e a8 bd c4 5f 98 3d
       -0.10208489 -0.052447703 -0.08215045 0.07440141
000050 4b c8 6c bd 15 5e 0d bd cd d8 84 bd 50 4f a0 bd
       -0.0578082 -0.03451355 -0.06486664 -0.07827628
000060 1f 0d 8c 3d 77 d9 46 bd c4 1a 1f bb 2f 7d 94 bd
       0.0683844 -0.048547234 -0.0024277428 -0.072504394
000070 7c 8e 1b bd 33 20 db bd 07 69 99 3b 74 9a 92 3c
       -0.03797768 -0.10699501 0.0046817097 0.017895915
000080 c6 a6 84 bd 58 5a 92 3d f5 a2 d3 3d 8a ee 31 bd
       -0.06477122 0.07146138 0.10333816 -0.04344038
000090 21 ae 63 bc ec 63 d8 bc 46 d5 d4 3d d9 5f a3 bd
       -0.013896496 -0.026414834 0.10392241 -0.07977266
0000a0 0e 1b 2a 3d 1a da 9d bd 93 f6 89 bc 3c 2d e3 3c
       0.041529708 -0.07707615 -0.016841209 0.02773153
0000b0 d0 9f a4 bc 5a 49 98 bd fa c9 9f 3d c3 3d db 3c
       -0.020095736 -0.07435866 0.07802196 0.026762849
0000c0 43 a3 95 bb df 34 67 3d f3 ba 19 3d 99 fa 40 3d
       -0.0045665815 0.056446906 0.037531804 0.04711399
0000d0 a9 17 89 bd 75 ca 64 3c 6b 21 8b bd 29 96 67 3d
       -0.06693966 0.013964285 -0.06793483 0.05653969
0000e0 09 37 12 bb e4 be d6 3d ae cc 22 3d 6b d6 a6 3c
       -0.0022310636 0.10485628 0.03974598 0.020365914
0000f0 3e 68 b9 3b 67 83 05 3d 38 46 e0 3c f2 50 22 3d
       0.0056581786 0.03259602 0.027377233 0.039627977
000100 6e 66 15 bd 66 9d a6 3d 6e 89 05 bd 64 25 6b 3d
       -0.036474638 0.0813549 -0.032601766 0.057408705
000110 13 39 a8 3d 89 58 dd bd 80 9f dd 3c c8 4b b5 bd
       0.08214011 -0.10807902 0.027053595 -0.08852345
000120 cb f0 4d bd f0 e3 dc bc e4 45 21 3d 8d 64 13 bd
       -0.050278466 -0.026964158 0.039373294 -0.035984565
000130 b7 24 0c 3d ed b6 4d bd 29 6b 62 3d 86 35 53 3c
       0.0342147 -0.05022328 0.055277977 0.012891179
000140 22 a7 32 bd 54 02 c5 bc 92 2e d7 3d 36 bf 0d bc
       -0.04361642 -0.024048962 0.105069295 -0.008651545
000150 27 03 73 3d 46 1d 91 3d 1f 36 1e 3d 58 c3 78 bd
       0.05932918 0.070856616 0.038625833 -0.06073317
000160 86 2a 34 bd 85 69 93 3d c9 2d c5 3d d0 ba 70 bd
       -0.043985866 0.07197861 0.096278735 -0.05877191
000170 0c 50 11 bc 3b 51 78 bd 35 45 a3 3d bd 94 f7 3d
       -0.008869182 -0.060624342 0.079721846 0.120889165
000180 10 db 0a be 8b d6 71 3c ad d4 87 3c 4f 8e 87 3c
       -0.13560128 0.014760624 0.016580904 0.01654735
000190 e9 a5 b9 3d fb 93 ae 3d ef 53 a5 3b 7d 8e 31 3d
       0.09064848 0.08524319 0.005045406 0.043348778
0001a0 68 1d 33 bd 55 94 b0 3d ed f6 10 bc 2c 70 23 3d
       -0.043729216 0.08622042 -0.008847934 0.039901897
0001b0 4f 8a 31 bc 89 cb 31 bc 15 53 9f 3d ed 13 06 bc
       -0.010836198 -0.010851749 0.077795185 -0.008183462
0001c0 3e a2 6b 3d 2a 1b a0 3a 87 7f cc 3d e0 90 ea 3c
       0.057527773 0.0012215127 0.099852614 0.028633535
0001d0 90 fd f2 bc 5a ea fe 3d 16 1d b7 3d e2 da 5d 3d
       -0.029661924 0.12447043 0.089410946 0.05416382
0001e0 d4 99 bd 3d 42 c9 3c bd 3c be 9a 3d c5 da cc ba
       0.09257856 -0.046090372 0.075558156 -0.0015629163
0001f0 cb 77 74 bc 6d c0 7d bd 18 17 c2 3d e8 41 f2 3c
       -0.014921139 -0.06195109 0.09477061 0.029572442
000200 9d f7 29 3b 2e ee 92 bd b9 c6 2f 3b 81 ab e6 3d
       0.0025934943 -0.071743354 0.0026821329 0.112631805
000210 1a bd 74 bd 4b 90 5b 3d ca f5 ab 3c 79 81 0e be
       -0.059750654 0.053604405 0.020991225 -0.13916577
000220 1e ae 6e 3b a4 a7 49 bc 34 1b f7 bc 00 30 c0 bd
       0.00364197 -0.012308035 -0.030164339 -0.09384155
000230 54 44 a0 bd d1 af 99 bc 3d 81 17 bd b3 86 d9 3d
       -0.078255326 -0.018760594 -0.036988486 0.10621395
000240 fe 4b 13 3d 17 9b 46 bc ef 95 37 bc 8c 81 29 3d
       0.035961144 -0.012121937 -0.011205181 0.04138331
000250 84 18 33 3d a2 62 a6 3c 75 dd cd 3d 69 94 0f 3d
       0.04372455 0.020310704 0.10052005 0.035053644
000260 61 33 76 bd 8d be ad bc ce b5 23 bd 56 5f 76 3d
       -0.060107592 -0.021209026 -0.039968304 0.060149513
000270 ed 24 89 3c 6f 7b b6 3c 56 fa d0 3d fc 9b 62 bd
       0.01674124 0.022275655 0.10203998 -0.05532454
000280 68 c2 02 be f5 4f 8d bd bf 38 e3 3d cd 97 99 3d
       -0.12769473 -0.06900016 0.11094808 0.07499657
000290 41 77 0d 3d e8 dc 54 bb 6a 8e 8f 3d 38 c5 f8 bc
       0.034537558 -0.0032480303 0.07009585 -0.030367479
0002a0 4c f2 88 bd 03 fc 47 3d 8f c8 52 3b 3d 49 79 bd
       -0.066868395 0.04882432 0.0032163 -0.06086086
0002b0 26 5c b3 bc d8 f9 84 bc 43 07 c9 3c c4 9b 19 bd
       -0.021894526 -0.016232416 0.024539595 -0.037502065
0002c0 b5 6e 39 bd cf ef 99 bd a7 0f 98 bd 08 d4 47 3d
       -0.045271594 -0.07516443 -0.074248604 0.048786193
0002d0 16 f2 de 3d 5f 71 56 bd fd ee b1 3d 01 73 8e 3a
       0.10886018 -0.052354213 0.086881615 0.0010868014
0002e0 d3 06 d1 3d c9 b8 d2 bc 2c a5 71 3c 6c b9 4b 3d
       0.1020638 -0.025722878 0.014748853 0.04973738
0002f0 32 db a0 3d 05 7b 76 bd dc 83 dc 3d 74 20 19 3b
       0.07854308 -0.060175914 0.10767338 0.002336529
000300 06 4b bf bd bc 9b b3 3d f6 89 59 3c 45 5a ec 3c
       -0.093404815 0.08769938 0.013277521 0.028851638
000310 c0 38 a7 3c 99 57 53 3d 21 83 86 3d 17 14 20 3e
       0.020412803 0.05159721 0.065679796 0.15632664
000320 1d 69 a7 3c 28 70 f4 3b 8a 1f 5e bd e2 16 20 bd
       0.020435864 0.007459659 -0.054229297 -0.039084323
000330 5e 69 7c 3c b1 6e 73 bd fd 2f 8b 3d d2 ce a9 3d
       0.015405981 -0.059431735 0.067962624 0.08291401
000340 bb b3 a8 bb 99 d6 3f bc 56 5b a8 bd 3d 67 bb 3b
       -0.0051483787 -0.011708879 -0.08220546 0.005719094
000350 d7 ed 63 3c 05 46 d8 3d c1 5b 0a 3e 3f 0f e5 bd
       0.013911686 0.1056023 0.13511564 -0.111845486
000360 aa 27 4d bd 43 98 c7 3d 27 89 35 bb 9b e4 d6 3c
       -0.050086655 0.097458385 -0.0027700157 0.026232054
000370 39 d4 3c 3d 08 e4 06 be 06 96 97 bc cd e4 e6 3d
       0.04610083 -0.13172925 -0.018504154 0.11274109
000380 75 6e 9c 3d 68 1d e5 3d bb a5 c7 38 43 f9 d3 bc
       0.076382555 0.111872494 9.519929e-05 -0.025875693
000390 a0 9e e9 3d c1 e5 28 3d 84 87 23 bd 72 90 3e bd
       0.114072084 0.041234735 -0.03992416 -0.046524473
0003a0 66 d8 86 bd 30 5b 6c 3d 8c 89 eb 3d c4 c6 fe bc
       -0.065842435 0.05770415 0.11500844 -0.031100638
0003b0 43 4c 8c 3d fb 92 95 3d 1a 68 47 3d 05 fc 47 3d
       0.06850483 0.07303425 0.048683263 0.04882433
0003c0 22 ab 1c bd d2 83 ad 3d b1 4b 79 3d 0e f0 b0 3d
       -0.038249142 0.08472408 0.0608632 0.08639537
0003d0 8f b9 cf 3d a8 e5 85 3d b0 59 f0 3d d3 e3 a6 bc
       0.10142814 0.06537944 0.117358565 -0.020372307
0003e0 e5 a6 10 3d 54 84 13 3d 6d 20 99 bb 9d 62 45 3b
       0.035315413 0.03601487 -0.004673055 0.0030118593
0003f0 5a ab 91 3d dd 44 46 3d e5 2f d8 bc 21 c3 a3 3d
       0.07112761 0.048405517 -0.026390025 0.07996202

layers.1.lin_self.weight f4 [96, 96]
000000 bf c4 36 bd 2c d7 a2 bd 4b 8f 6a 3d c2 b1 87 bd
       -0.044621225 -0.07951197 0.05726556 -0.066257015
000010 d4 07 6b 3d bd b6 71 3d 21 2f cb bd ea 39 61 3d
       0.057380512 0.059012163 -0.099210985 0.05498687
000020 84 79 89 3c 54 fb 48 bd 5c 15 a4 3d 87 41 82 3d
       0.016781576 -0.04906781 0.080118865 0.063601546
000030 8b f0 a5 3d 39 ac cd bd 0d 61 25 3d f7 58 73 3d
       0.081025206 -0.100426145 0.040375758 0.059411015
000040 48 f3 d0 3d ab 5e dc 3c 31 43 f8 bc e9 63 4c 3c
       0.10202652 0.02690061 -0.030305477 0.012474992
000050 84 a5 14 bd 49 b8 f9 bc 3d 16 b7 3d 78 97 47 3d
       -0.03629066 -0.030483382 0.089397885 0.048728436
000060 b7 05 76 bd a2 4e d0 3a d0 78 39 3d 73 14 29 bd
       -0.060064044 0.0015892575 0.04528123 -0.041279268
000070 11 56 ef bc af 53 cc bb 07 09 67 bd eb ea 40 bd
       -0.029215844 -0.006235562 -0.056405094 -0.047099035
000080 b1 7b 55 3d 1b fa c2 bd b1 cb e7 bd 01 eb b0 bd
       0.052119914 -0.0952036 -0.11318148 -0.086385734
000090 93 87 75 bd fe 1d 13 bd 44 3d 88 3d 91 94 47 bd
       -0.059943747 -0.035917275 0.066523105 -0.04872567
0000a0 b5 b8 a5 3d 5b df 48 3d bd 3c 33 3d c5 7b a6 3d
       0.08091871 0.049041133 0.043759096 0.08129076
0000b0 d2 dc af 3d a0 c9 2c 3d 60 6f b1 bd e5 32 dc bd
       0.0858704 0.042184472 -0.08663821 -0.10751895
0000c0 f0 a6 b7 bd 66 86 d5 3c 98 3a a0 3d 31 ac 64 3d
       -0.08967388 0.026065063 0.07823676 0.055828277
0000d0 91 2f a1 3d 40 cf 27 b8 88 9c 2d 3a 7c 37 91 bd
       0.07870401 -4.000892e-05 0.0006622751 -0.07090661
0000e0 13 b2 69 bc 13 a8 8e bd 77 47 b0 bd 88 f1 35 bc
       -0.014263648 -0.06965651 -0.08607381 -0.011104949
0000f0 fc c0 41 bc 57 6f ae bd d3 3f 01 3d fa 5b 24 3d
       -0.011825796 -0.0851733 0.03155501 0.04012678
000100 11 bc d1 bd 20 32 7e 3d cb e3 86 bd 91 dd 91 b9
       -0.10240949 0.06205952 -0.06586417 -0.00027821635
000110 0c 6e 59 bd da b5 7f bd 90 a0 9e 3d 4c 89 00 3d
       -0.053083465 -0.062429287 0.077454686 0.031380937
000120 a1 d6 ae bd 5f f8 b1 bd ac 8f 0b bd d0 12 74 bd
       -0.08537031 -0.08689951 -0.034072563 -0.059588253
000130 f1 a8 95 3d 0c d2 3b bc fc e3 33 3d 35 11 6a 3d
       0.07307614 -0.011463653 0.043918595 0.057145316
000140 77 ae c4 3b 5e 30 82 bd 11 61 54 bc 16 4f 4e 3d
       0.006002243 -0.063568816 -0.012962596 0.05036839
000150 49 32 e3 bd 16 e0 d2 3a 4f f3 c6 bd 17 37 96 3b
       -0.110935755 0.0016088511 -0.09714376 0.004584204
000160 57 1e 15 bc 37 9d d6 bd 6a f3 46 3d 70 51 37 bc
       -0.009101472 -0.10479205 0.04857198 -0.01118885
000170 b6 90 59 bd 3e af cd 3c c6 fc 70 bd 6b 82 b9 bd
       -0.053116523 0.025107976 -0.058834814 -0.090580784
000180 35 4a 03 3d 58 d0 01 3e 2d e0 98 3d 1d 68 e3 3d
       0.03205319 0.12677133 0.07464633 0.111038424
000190 00 c7 66 3c 6e 82 01 3e fe 00 fe 3d fd 82 ae 3d
       0.014085531 0.12647411 0.12402533 0.08521078
0001a0 b1 76 60 bc 6e 60 91 3d ef bd 5f bd f5 6e 3b 3d
       -0.013700173 0.07098471 -0.054624494 0.045760114
0001b0 50 0a 83 bd 55 2e 14 3d 3d 04 e0 3d 32 6c b9 3d
       -0.06398451 0.036177 0.109383084 0.0905384
0001c0 54 bf d7 bc e7 5c da 3d 62 36 f2 3c 56 1b b0 bc
       -0.02633635 0.10662251 0.029566947 -0.02149741
0001d0 79 74 c0 3d 3b 55 b5 3c 99 09 7b 3d a7 7e 90 3d
       0.093972154 0.022135368 0.06128845 0.07055407
0001e0 6e 25 91 3d 1e 96 c4 3d 29 e8 91 3d 22 23 b5 3c
       0.07087217 0.09598945 0.07124359 0.02211148
0001f0 3b 4a 06 be 44 65 1b bd e7 48 63 bd 2e 99 01 bd
       -0.13114254 -0.03793837 -0.055489447 -0.031640224
000200 0a 08 77 3d 6b 5b 6a bd 24 cb 8b 3d 53 4e ca 3c
       0.0603104 -0.05721609 0.068258554 0.024695551
000210 92 93 b8 3d 6c b1 a5 3d 68 d2 ab 3d 10 f9 f0 3d
       0.09012522 0.08090481 0.08389741 0.11766255
000220 31 9c 55 3d e0 47 00 3e 31 bc 46 3d 36 5a d9 bb
       0.05215091 0.12527418 0.048519317 -0.0066330684
000230 3c 83 da 3d 5c 53 44 3c f6 ab ca bd ba cd 08 bd
       0.10669562 0.011982765 -0.0989608 -0.03339932
000240 20 c3 d2 bc ac dc 14 bc 1c d0 e5 3d a0 bb 06 3d
       -0.025727808 -0.009085815 0.11221334 0.032893777
000250 d3 78 66 3d 85 60 63 3d 51 6f 04 3e c6 b2 83 3b
       0.05626757 0.05551197 0.12933089 0.004019114
000260 82 cc 4c bd 0f 87 0a be 14 15 ae 3d 30 34 cb bc
       -0.04999972 -0.13528083 0.08500114 -0.024805158
000270 59 f9 76 3c 6c 1c 8a bd ed ab 43 bd 76 6c ea ba
       0.015074098 -0.06743702 -0.047771383 -0.0017885107
000280 70 31 94 bd bb df 97 bd a6 03 1d bd f4 87 bc bb
       -0.07235992 -0.0741572 -0.038333558 -0.0057535116
000290 93 46 b9 bb ce 3e 08 3c ae ba 23 bd 06 ef 13 3c
       -0.005654165 0.008315755 -0.039972953 0.009029156
0002a0 6f 42 06 3d 1c cf 46 bc 80 0a 6e bd 1c 68 8f 3d
       0.0327782 -0.01213434 -0.058115482 0.07002279
0002b0 be 71 7e 3d f0 fe 7e bd a9 b5 62 3d f9 63 d1 bb
       0.06212019 -0.062254846 0.055349026 -0.0063900915
0002c0 11 36 3f bd 9b 79 8a bd 7d 2c e3 3c d9 a1 6c bd
       -0.04668242 -0.06761476 0.027731175 -0.057771537
0002d0 ec a6 05 3d ea f9 b4 3c 40 33 85 bd c7 c2 10 bd
       0.032629892 0.022091825 -0.06503916 -0.035342004
0002e0 34 e6 c0 3d 7a 0f 88 bc eb 13 04 3d b0 f1 40 3b
       0.09418908 -0.016608942 0.032245558 0.0029440932
0002f0 76 8a 2b 3d c9 ab 02 3e 4c a0 8a 3d c1 19 33 3d
       0.041880094 0.12760843 0.067688555 0.043725733
000300 20 e8 80 bd e1 e7 3f bd 95 c2 f1 bc c2 7f 2c bd
       -0.06294274 -0.046851996 -0.02951173 -0.042114027
000310 ef 59 ce 3a 10 02 75 3d 06 e5 1b 3d d5 f0 82 3d
       0.0015743355 0.05981642 0.03806021 0.06393591
000320 91 84 42 bc d8 ed 12 3d 66 61 7a 3d 5b 9d 0d bd
       -0.011872427 0.035871357 0.061128043 -0.034573894
000330 ee 54 4f bd 64 f6 33 bc f0 df f0 bc 8e 22 9d 3c
       -0.050618105 -0.010984037 -0.029403657 0.019181516
000340 1d 37 39 bd 4d 49 4e 3c da 72 44 3d ee 29 f8 3c
       -0.045218576 0.012590718 0.047961093 0.030293431
000350 00 f1 d9 3d 49 d3 09 3d 6d 6c 8e 3d c9 4b 77 3d
       0.1064167 0.033648763 0.06954274 0.06037501
000360 a3 7f 86 bd fd 71 be 3d 33 73 a9 3d 6f f3 bd 3c
       -0.065673135 0.09299085 0.08273926 0.023187367
000370 b9 bc 7b bd f7 e8 b3 bd 30 28 ae 3d ee c9 50 3d
       -0.061459277 -0.08784669 0.08503759 0.050973825
000380 4e 0a 08 3e d4 2e 2e 3d f7 d9 33 bd b0 71 72 3d
       0.13285181 0.042525128 -0.04390904 0.059190452
000390 b1 af ef bc b0 61 89 3d 9b 2a bc 3d 97 f7 b2 3c
       -0.02925858 0.067080855 0.09187814 0.021846576
0003a0 b1 ab bc 3d 65 04 59 bd d2 05 3d 3c aa ac 21 3d
       0.09212435 -0.052982707 0.011537032 0.039471306
0003b0 36 34 f4 ba f4 77 d2 bb 40 60 c6 bd 57 a8 32 bd
       -0.0018631283 -0.006422991 -0.09686327 -0.043617573
0003c0 1f d3 f1 3d 2f 33 90 bd 6e e0 20 3b 36 b8 90 bd
       0.11807846 -0.070410125 0.0024547833 -0.070663854
0003d0 22 28 89 3d 05 4b 9c 3d dd 10 92 3c de db 87 3d
       0.06697108 0.07631496 0.017830307 0.06633733
0003e0 22 d3 66 bd ed 59 d1 bd c4 75 ed 3d 69 f4 88 3d
       -0.056353696 -0.1022223 0.11594728 0.066872425
0003f0 8f 81 9e 3d 61 06 c8 3c e8 c4 44 bd a5 76 07 3c
       0.07739555 0.024417104 -0.048039347 0.008268033

layers.1.lin_self.bias f4 [96]
000000 a1 0e e2 bd 38 d8 0b bd 1d 21 07 3d 56 25 a8 3d
       -0.110379465 -0.03414175 0.032990564 0.08210246
000010 86 32 92 3d f4 0d 91 3c 9b ad 88 3d 72 4e 86 bd
       0.07138543 0.017706849 0.066737376 -0.06557931
000020 92 d6 69 bc bc 0e 18 3d 92 f9 41 3d e0 a9 8e bd
       -0.014272349 0.037123427 0.04735715 -0.06965995
000030 91 72 f9 3c 83 4c 34 bd f2 25 07 bd 39 ab 36 bd
       0.030450137 -0.04401828 -0.03299517 -0.044596884
000040 03 6b 5d 3c eb a5 63 3d 84 cd a4 bd e3 4b a0 3d
       0.013514283 0.055578154 -0.080470115 0.07826974
000050 64 2b b0 bc 22 eb c6 3d b1 ae 96 bd fa fc 99 bd
       -0.021505065 0.09712817 -0.073575385 -0.075189546
000060 bd 3b 39 bd 25 8e c2 3d c0 ad e3 3c e3 22 65 3c
       -0.045222986 0.09499768 0.027792811 0.013985368
000070 c6 4c 2b 3b 32 35 64 3d ef be ab bd a5 ba 6b bc
       0.002613829 0.055714794 -0.08386027 -0.014387761
000080 be 65 ff 3d 23 6c e1 3d 4b 65 dd 3d 3e 7a bd 3d
       0.12470578 0.110069536 0.10810336 0.092518315
000090 3b ae a9 bd 0c a5 66 3d 81 45 7b 3d b1 f9 bf 3d
       -0.08285185 0.056309745 0.06134558 0.09373797
0000a0 8a e6 5f bd c2 b0 3b bd a8 94 20 3c 4a b5 93 3d
       -0.05466322 -0.045822866 0.009801067 0.072123125
0000b0 a8 a4 b6 3d c4 43 a8 3c 6e 87 e9 bc b6 2d 65 3a
       0.089181244 0.020540126 -0.02850696 0.0008742468
0000c0 0a 39 e2 3d 36 df d3 3d ff 72 30 bd e5 f8 8a bc
       0.110460356 0.103453085 -0.04307842 -0.016964385
0000d0 de a1 58 3d 7a 9d 8b bc e6 1b 98 bd d9 1c b1 bd
       0.052888744 -0.017042864 -0.07427196 -0.086480804
0000e0 12 6e b6 3c 53 b0 0d bd cd 3d d8 3c 10 46 e0 3d
       0.022269282 -0.034591984 0.026396656 0.10950863
0000f0 75 8a 04 bd ea 90 c7 3c 48 42 05 3c c5 a4 74 bd
       -0.032358605 0.024361093 0.008133478 -0.05972745
000100 78 b0 3e bd ff a2 98 bd 29 a7 d2 3b 76 1b 15 bd
       -0.046555012 -0.07452964 0.0064286184 -0.036403142
000110 1a e2 84 bd c6 b0 cb 3d 2c e4 c3 3c 6e 3b 83 bd
       -0.06488438 0.09945826 0.023912512 -0.0640782
000120 65 2a 97 bc 32 b8 74 3d b7 02 c2 bc cf f3 24 bd
       -0.018452832 0.059745975 -0.023682935 -0.040271576
000130 4a 27 aa 3d 1d 60 fd 3c 74 be 54 3d d4 22 0c 3d
       0.08308275 0.03092962 0.051939443 0.034212902
000140 f2 28 d4 3d d1 fa a1 3d e7 a7 38 bb 82 13 30 bd
       0.10359372 0.079091676 -0.002817625 -0.042987354
000150 f8 e3 91 3d f4 96 0f 3d bc 65 a3 3c c6 f4 6a 3d
       0.0712356 0.03505607 0.019945972 0.05736234
000160 9c a8 e5 3a 25 19 7f bd ee e6 18 bd 2b 88 6f 3d
       0.0017521563 -0.06227984 -0.037329607 0.05847947
000170 54 be e6 bd cb b7 00 bd 1d 17 c6 3c d7 9b 3d bc
       -0.11266771 -0.03142528 0.024180943 -0.0115728

layers.1.lin_neigh.weight f4 [96, 96]
000000 a5 af 9e bd 75 ad 26 3c 72 40 98 bc 56 fe b7 3c
       -0.07748345 0.010173191 -0.018585417 0.022460144
000010 26 a9 87 bd 5b ef dc bd af 31 67 3d fd e9 b3 bd
       -0.066240594 -0.10787841 0.056443866 -0.08784864
000020 c3 68 03 bc cf 68 a0 bd 00 94 12 bd 77 d8 a3 bd
       -0.008020583 -0.07832491 -0.035785675 -0.08000272
000030 79 6c 9a 3d c6 5c e4 bc 2b 36 04 3d 15 7e 85 bd
       0.07540221 -0.02787627 0.03227822 -0.06518189
000040 67 60 77 bd df a1 7d 3a 3a f9 e5 bd 0d e1 c4 bd
       -0.06039467 0.0009675305 -0.11229177 -0.096132375
000050 6d d4 d3 ba f2 b7 a7 3b 7f d3 8b 3d d0 83 6b 3c
       -0.001616133 0.0051183635 0.06827449 0.014374688
000060 3b 31 55 3d ed d0 7a bc 98 94 0d 3d 59 30 5c 3b
       0.052048903 -0.015308601 0.03456554 0.0033598153
000070 87 83 14 bb 01 56 7f bd c1 00 8d 3d 22 35 c7 bc
       -0.0022661404 -0.06233788 0.068849094 -0.024317328
000080 c2 94 28 bd ce ed 9c 3d 60 27 67 3d 91 18 a6 bd
       -0.04115749 0.07662545 0.056434035 -0.081101544
000090 69 b5 47 3d bd ca 93 bd d8 3f 80 bd 7e b5 c3 bd
       0.04875699 -0.07216404 -0.06262177 -0.09556101
0000a0 a5 39 ca bd 80 2a df bd 8b a5 bb 3d 44 69 89 3d
       -0.09874276 -0.10896778 0.09162434 0.06709531
0000b0 c8 69 23 3d 3d 83 da bd 3d f5 70 b7 f5 5d 34 3d
       0.039895803 -0.10669563 -1.4362214e-05 0.044034917
0000c0 8f f3 a3 bd ca ee 05 bd ca 7c 58 3d 82 50 7c 3d
       -0.080054395 -0.03269843 0.052853383 0.061600216
0000d0 10 8a 9f 3d e5 82 b3 bd 0d 1c bf bd ba 67 62 3c
       0.07790005 -0.087652005 -0.09331522 0.013818676
0000e0 43 8e bb bd 00 18 92 3d 9e f9 39 bd 42 04 28 bd
       -0.09157994 0.07133484 -0.04540407 -0.041019686
0000f0 b3 e2 1a bd 29 fd 6c ba d9 9d 8a bd 78 4b 46 3d
       -0.037813853 -0.00090404093 -0.06768388 0.048411816
000100 3c 14 cf bd 8b 57 8a 3d 60 4f a2 3d ad e3 cb bd
       -0.10111281 0.06754979 0.07925296 -0.09955535
000110 3c b5 71 3c 76 7e 04 bd 47 3a af bd 52 f0 35 ba
       0.014752682 -0.032347165 -0.085560374 -0.00069404126
000120 78 1c c7 bb bf e1 d7 3b ca 7b be bd 57 6e 13 bd
       -0.006076392 0.0065881903 -0.09300955 -0.0359939
000130 83 7c 7e bd 3c b7 22 3c 15 a2 bb bd 96 7f 3a bd
       -0.062130462 0.009931382 -0.09161774 -0.04553183
000140 37 e7 b6 3b 70 fc 54 3d e4 f5 77 bc 10 9e 90 3c
       0.005581762 0.051998556 -0.0151343085 0.017653495
000150 51 d4 7c bd 52 13 16 bd 58 ef ac 3d b0 c7 22 3d
       -0.06172592 -0.03663952 0.08444089 0.039741218
000160 1c 59 9c bc af c9 9e bd 43 d6 7f 3d ff 22 bb 3d
       -0.01908546 -0.07753312 0.062460195 0.09137534
000170 98 c7 04 bd 19 c1 94 3d b6 ae aa 3d aa 8c 9c 3d
       -0.03241691 0.07263393 0.08334105 0.07644017
000180 62 40 8a 3d bd 15 b1 3d 5b 7d 8e 3d a1 41 7d bd
       0.06750561 0.086467244 0.069575034 -0.061830167
000190 2e 47 05 bd 2b 9a 99 3d 31 e4 90 3d d6 db 1e 3d
       -0.032538585 0.07500108 0.07074774 0.03878387
0001a0 5b c3 b5 3d f6 fc e7 3d 89 ea 19 bd cb 16 e3 3d
       0.08875152 0.11327545 -0.037577186 0.11088332
0001b0 d1 e4 9e 3d 39 2d e2 3d 23 d2 3f 3d 5f 82 fc 3c
       0.07758487 0.11043782 0.04683126 0.030823885
0001c0 68 4d ec bc 6e 0a 8c 3d ed 6e c3 3d 8d 0d 62 bd
       -0.028845504 0.06837927 0.09542642 -0.055188704
0001d0 45 14 9d bd ed 81 43 3d 18 8e ec 3d e7 b8 5b bc
       -0.07669882 0.04773133 0.1155054 -0.013410783
0001e0 9c cb 06 3e 88 f8 95 3d c6 2b 81 3d 7d ae 85 bc
       0.13163608 0.07322794 0.06307177 -0.016318554
0001f0 8c 4c 5b bd c0 b4 05 3d b5 88 6c 3d 17 08 00 3e
       -0.053539798 0.03264308 0.05774756 0.12503086
000200 df be b2 3d b3 f4 80 3d c8 bd 97 3d a3 f6 fa 3d
       0.08727812 0.06296673 0.07409245 0.122540735
000210 68 ff 23 bd 73 1f 45 bc bd 57 34 3d 7a 4e 97 3b
       -0.040038496 -0.012031424 0.044028986 0.0046175094
000220 1e 27 b9 3d b4 9f 8b 3d dd 53 20 3d 52 da 50 ba
       0.09040664 0.0681757 0.03914248 -0.00079671026
000230 ea da 8b bc 96 d6 a9 3d 26 95 98 bd 22 40 d6 3d
       -0.01707216 0.08292882 -0.07450323 0.10461451
000240 51 88 dd bc 12 a1 7d bd 28 ef df 3c 06 7a 89 3c
       -0.02704254 -0.061921187 0.027335718 0.016781818
000250 46 9e cb 3d ab c7 c9 3d 66 ff e5 bc d9 03 9b bb
       0.09942298 0.09852537 -0.028075885 -0.0047306833
000260 09 80 3c bc c7 41 59 bc 53 6e fa 3d d9 38 02 bd
       -0.011505135 -0.013260311 0.12228074 -0.031792495
000270 f4 70 1f 3d 6b 99 8f bd 9f 6d 0b 3d ef e0 0a bd
       0.03892608 -0.07011684 0.03404009 -0.03390592
000280 0a ba be 3d 02 6c d4 bd 64 64 08 3d d0 4f 71 3d
       0.09312828 -0.10372163 0.033298865 0.058914006
000290 a7 40 b9 bc af 26 e7 3c 3e 41 93 bd 7c 62 4a bd
       -0.022613836 0.028216688 -0.07190178 -0.04941033
0002a0 a9 3e 19 bd 29 a8 5f bd b8 15 80 3d b0 dd a1 bc
       -0.037413273 -0.05460373 0.062541425 -0.01975903
0002b0 1e 8e a2 3c 0e 70 2e 3d ad f8 93 bd cd 82 7f bd
       0.019843157 0.042587332 -0.072251655 -0.0623806
0002c0 ab 82 83 3d 36 2a d8 3c 46 e2 3c 3d a7 74 69 3c
       0.06421407 0.026387315 0.04611423 0.0142490035
0002d0 6e 70 2a 3c 2b 20 1e bb dc 79 21 bb 49 91 24 ba
       0.010402782 -0.002412806 -0.0024639284 -0.00062777527
0002e0 e6 3a c0 3d 3f f2 37 3d a2 c6 1b bd 37 6b fc 3b
       0.09386234 0.04490876 -0.038031228 0.0077032107
0002f0 f5 ed 73 bd 44 22 93 3d 4d 40 ac 3d f4 18 46 bd
       -0.059553105 0.0718427 0.08410702 -0.04836364
000300 dd 87 a3 bd 61 3b e6 3d 01 ad 8a bd fe bc d3 3d
       -0.07984898 0.112417944 -0.06771279 0.10338782
000310 13 65 50 3d f1 0d b4 bc 0b 8d 93 3d 06 bf dc 3c
       0.050877642 -0.021979304 0.07204636 0.026946556
000320 6a d2 20 3d bc f9 13 ba 1e 79 e8 bb 14 cc 12 3d
       0.039263166 -0.00056448183 -0.0070945164 0.035839155
000330 0e cd cf 3d 8e d7 ad bd e2 91 8a bd e8 3c 42 3d
       0.10146533 -0.084883794 -0.06766106 0.047421366
000340 d3 85 7d bd 33 bd be bc 19 72 fd 3d be e2 af 3c
       -0.061895203 -0.023283577 0.12375278 0.021470424
000350 cf cc 50 bd 9d 21 43 bd a2 49 30 bd df 19 58 3b
       -0.05097657 -0.047639478 -0.04303897 0.0032974405
000360 f4 5c df bc 66 13 07 3d 6d 47 00 3e 77 54 da bc
       -0.027266003 0.032977484 0.12527247 -0.026651604
000370 2a b8 61 3d 74 15 2c bd 19 40 c0 3d 66 47 88 3d
       0.055107273 -0.042012647 0.09387226 0.06654243
000380 50 76 ab bd 44 60 47 bd 3d a4 45 3d 2d 81 5a bd
       -0.08372176 -0.04867579 0.048252333 -0.053345848
000390 2d 5d 84 3d a3 7b 09 3d 35 e9 84 3c a5 83 da 3c
       0.06463084 0.033565175 0.016224483 0.026674101
0003a0 da 65 90 bd 7d 2a f4 3b 8e ae 1b 3d 02 27 ae bc
       -0.07050677 0.007451354 0.038008265 -0.021258835
0003b0 17 4b a8 bc 06 80 58 3d 18 cf 71 3d fb 13 9d 3d
       -0.020543618 0.052856468 0.05903539 0.076698266
0003c0 35 0e 74 bd 29 17 67 bc 9a 81 2a 3d e0 83 c2 3d
       -0.05958386 -0.014104643 0.041627504 0.094978094
0003d0 21 f6 e1 3c c1 27 f5 bc 98 e3 dc bc b3 3b 00 bd
       0.027583184 -0.029926183 -0.026963994 -0.031306934
0003e0 78 81 0c be 83 14 1d 3c da 8c ee 3b 7a b3 f4 3d
       -0.13721263 0.00958741 0.0072799744 0.11948295
0003f0 5c a8 44 bc a2 09 31 bc ac 16 a7 bc 23 01 62 bd
       -0.012003031 -0.010805519 -0.020396553 -0.055176865
