outputs/models/nowcast_b128L3_s3.pt (torch, 475687 bytes, 14 tensors)

in_lin.weight f4 [128, 15]
0	0xbe79be58	-0.24389017
1	0xbd937093	-0.07199206
2	0xbdb93b51	-0.09044517
3	0xbde7d6c4	-0.1132026
4	0xbc702949	-0.014658281
5	0xbe689b50	-0.22715497
6	0x3e8fbc9e	0.2807359
7	0x3eace785	0.33770385
8	0x3e24e2fc	0.16102213
9	0x3e98b1f5	0.2982327
10	0x3d7bcadd	0.061472762
11	0x3eb77c4f	0.35837027
12	0xbe1eb262	-0.15497735
13	0xbde5a352	-0.112127915
14	0xbe46f87d	-0.19430728
15	0xbcb4d1aa	-0.022072632
16	0xbe26838c	-0.16261119
17	0x3e6c3e12	0.23070553
18	0x3e3d26d2	0.1847184
19	0x3e463881	0.19357492
20	0x3d9cd9bc	0.07658717
21	0xbe1a2134	-0.15051728
22	0x3e83178e	0.25603908
23	0xbe358412	-0.17726162
24	0xbd7fdf0c	-0.062468573
25	0xbd7168ec	-0.058937952
26	0xbdde1927	-0.10844641
27	0xbd22d511	-0.039753977
28	0xbde3ff1d	-0.11132643
29	0xbddcc579	-0.107798524
30	0xbd08708d	-0.03331046
31	0x3e848a61	0.25886825
32	0xbdccaeb9	-0.09994263
33	0xbe0513ea	-0.12995878
34	0xbe652769	-0.22378315
35	0xbe021aee	-0.12705585
36	0x3d0b8c96	0.03406962
37	0xbea2f912	-0.3183065
38	0xbd41de89	-0.047331367
39	0x3d587a12	0.05285079
40	0x3decdf44	0.11566022
41	0xbdd5e1ef	-0.10443484
42	0xbde30b66	-0.110861585
43	0xbd605e11	-0.05477721
44	0x3cf4d537	0.029886825
45	0xbd3bdc0e	-0.045864157
46	0xbd9a25d5	-0.07526747
47	0xbd1c8b82	-0.038218983
48	0x3d865b18	0.065603435
49	0x3e747635	0.23873217
50	0x3e09cabd	0.13456245
51	0x3b9e68a1	0.00483425
52	0x3e3ac501	0.18239214
53	0x3eb15993	0.34638652
54	0x3e8b546f	0.27212855
55	0x3e16e2b6	0.14734921
56	0x3df1c11e	0.11804412
57	0x3e597792	0.21237019
58	0x3dc1b748	0.09458786
59	0xbd98405f	-0.07434153
60	0x3e11a7f8	0.14224231
61	0x3d3c8e47	0.046034124
62	0xbe6ddd8d	-0.23229046
63	0xbdb58233	-0.08862724
64	0xbe460430	-0.19337535
65	0xbe5afc54	-0.21385318
66	0x3acd1f78	0.0015649637
67	0xbc582048	-0.01319129
68	0x3e5a99dd	0.21347757
69	0x3e2ff4fd	0.171833
70	0x3dc93e4c	0.09826335
71	0x3eb9d74d	0.36297074
72	0xbe09c892	-0.13455418
73	0xbc988504	-0.018618114
74	0xbc7edc49	-0.01555545
75	0x3d199268	0.03749314
76	0x3c1c4fea	0.009540537
77	0x3e27f0ff	0.16400526
78	0x3d15a9c0	0.03653884
79	0x3e31e4c6	0.17372426
80	0xbe63db59	-0.22251643
81	0xbe8854cc	-0.26627195
82	0xbe413b1e	-0.18870208
83	0x3d5eaf88	0.05436662
84	0x3e84170a	0.25798827
85	0xbe49861a	-0.19680062
86	0x3df2ee0c	0.1186181
87	0xbe9d9451	-0.3077722
88	0xbdba8b24	-0.0910857
89	0xbd529b0e	-0.051417403
90	0xbd1654ed	-0.036702085
91	0x3c821465	0.015878865
92	0xbe150c79	-0.14555539
93	0x3e45b6c5	0.19308002
94	0x3d1a2de5	0.037641425
95	0x3db857b4	0.09001103
96	0xbe68245f	-0.22670124
97	0x3ea907d7	0.33013794
98	0x3c59f7e8	0.013303734
99	0xbd862b2f	-0.06551205
100	0x3d9b790b	0.075914465
101	0x3e8f6037	0.28003094
102	0xbcf6bbec	-0.030118905
103	0xbd0c6347	-0.034274366
104	0xbbccb79d	-0.0062474743
105	0xbde3f87f	-0.11131381
106	0xbce7c53a	-0.028292287
107	0xbddc52ee	-0.10758005
108	0x3e5a935c	0.21345276
109	0xbe38ce48	-0.1804744
110	0x3de59cfa	0.112115815
111	0x3e3bb4a9	0.18330635
112	0xbe719c61	-0.2359481
113	0xbe3eacd5	-0.18620618
114	0xbe1b9f1e	-0.15197417
115	0xbe438f96	-0.19097742
116	0x3e2442cb	0.16041104
117	0x3e50bde9	0.20384945
118	0xbcc92376	-0.024553042
119	0x3e63a664	0.22231442
120	0x3de6ff84	0.112792045
121	0xbe8cdfc7	-0.2751448
122	0xbe4985d3	-0.19679956
123	0xbe17f29b	-0.1483864
124	0xbe83dd80	-0.2575493
125	0xbdf29729	-0.11845238
126	0x3dc89d57	0.09795635
127	0xbc8f58d8	-0.017498419
128	0xbd77c9aa	-0.060495056
129	0x3b0961fb	0.0020962942
130	0x3e622634	0.22084886
131	0xbd05439a	-0.032535173
132	0x3c693338	0.014233403
133	0x3c44ed24	0.012019429
134	0xbd5b1c27	-0.053493645
135	0xbc1048af	-0.008806392
136	0x3e0f8caf	0.1401851
137	0x3dba2429	0.09088928
138	0xbe66a98f	-0.22525619
139	0xbd0c0bd2	-0.03419096
140	0xbe7ebfcb	-0.2487785
141	0xbd67207e	-0.05642747
142	0x3c1c2973	0.009531367
143	0x3d846bbd	0.06465862
144	0xbdaaeb48	-0.083456576
145	0xbcd9a5a1	-0.026568236
146	0x3d0ddcf7	0.034634557
147	0xbec9998b	-0.39374956
148	0x3c8ff5f2	0.01757333
149	0x3d8a38bf	0.06749105
150	0xbe3a421b	-0.1818928
151	0x3e0f6981	0.1400509
152	0x3d28212e	0.041047268
153	0x3e1318c6	0.14364919
154	0x3e6789b2	0.2261112
155	0xbe625ff1	-0.22106911
156	0x3dfc8c6b	0.1233147
157	0xbce30b50	-0.027715355
158	0x3cc19013	0.02362827
159	0xbe0abc99	-0.13548507
160	0xbe8622ce	-0.2619843
161	0xbcb27ec7	-0.021788968
162	0xbb8b7856	-0.0042562885
163	0x3dd3e332	0.103460684
164	0xbd989c09	-0.07451636
165	0xbe5172ef	-0.20454
166	0x3deb0a15	0.11476532
167	0xbbf6a4ce	-0.0075269705
168	0xbc4c17ea	-0.012456873
169	0xbd8933e4	-0.066993505
170	0x3a0c4a6f	0.00053516676
171	0x3d1bd48f	0.03804451
172	0xbea25f3c	-0.31713283
173	0x3e1e494c	0.15457648
174	0x3d05af75	0.032638032
175	0x3e147243	0.14496712
176	0xbe5b0d87	-0.21391879
177	0x3e06a1f9	0.13147725
178	0x3e72c8f8	0.23709476
179	0xbdaf2036	-0.085510656
180	0x3e421e9a	0.18956986
181	0xbcf983da	-0.03045838
182	0x3e4411fb	0.19147484
183	0x3e2ec856	0.1706861
184	0x3d25dcf0	0.040493906
185	0x3d2b0687	0.04175427
186	0x3d1278d3	0.03575976
187	0x3e2dbc22	0.16966298
188	0xbe4c3730	-0.19942927
189	0x3c99ee92	0.018790517
190	0x3e8200de	0.25391287
191	0xbe3a20f5	-0.18176635
192	0xbe3346fa	-0.17507544
193	0x3c243136	0.010021498
194	0x3d04624c	0.032320306
195	0x3d90edf5	0.07076637
196	0x3ca6b616	0.020350497
197	0xbbef4800	-0.0073022842
198	0xbde41775	-0.111372866
199	0x3e7a77e5	0.24459799
200	0xbe2e3b85	-0.17014892
201	0x3e04557e	0.12923238
202	0x3eb396ab	0.35075888
203	0x3eacd8d7	0.33759186
204	0x3ea7a807	0.32745382
205	0xbc57194a	-0.013128588
206	0x3ec58552	0.38578278
207	0xbe1966d5	-0.14980634
208	0x3da2e58d	0.079539396
209	0xbdac72c2	-0.08420326
210	0xbe62b573	-0.2213953
211	0xbdab2aaa	-0.08357747
212	0x3e5242df	0.20533322
213	0x3e2d0b41	0.16898824
214	0xbe3841a1	-0.17993785
215	0xbe465933	-0.19369964
216	0x3d133edc	0.03594862
217	0x3ce28c46	0.027654778
218	0x3e68ee85	0.22747238
219	0x3e9e86aa	0.30962116
220	0xbcae3586	-0.021265756
221	0xbe152a06	-0.14566812
222	0x3ba26ef1	0.004957073
223	0x3da28a2c	0.079365104
224	0x3cac2d51	0.021017702
225	0xbd1f7e36	-0.038938724
226	0xbe05057e	-0.12990376
227	0x3d4114e1	0.047139052
228	0x3df33512	0.11875357
229	0xbe63bfb5	-0.22241099
230	0xbcc8468e	-0.024447706
231	0x3e18a172	0.14905336
232	0x3eb0d0c3	0.34534273
233	0x3e979473	0.29605445
234	0x3e0fc0d7	0.14038406
235	0x3e86a1fd	0.26295462
236	0xbddac25e	-0.10681604
237	0x3ced1940	0.028942704
238	0x3a57e74f	0.0008236067
239	0x3dc89f75	0.09796039
240	0x3def838c	0.116950125
241	0x3df20391	0.118170865
242	0xbe1efd5b	-0.15526335
243	0xbd9b0bbf	-0.075706
244	0x3dc63875	0.09678737
245	0x3e299291	0.16559817
246	0x3cb29c62	0.021803085
247	0x3ec27f88	0.37987924
248	0x3ca01034	0.019538976
249	0x3d6a6f93	0.05723531
250	0x3e951233	0.29115447
251	0x3ebda31d	0.37038508
252	0x3de13977	0.10997289
253	0xbe14ade8	-0.14519465
254	0x3d2dc526	0.042424344
255	0xbe53b481	-0.20674326

in_lin.bias f4 [128]
0	0xbe2b8a83	-0.16752057
1	0xbc18793b	-0.009306247
2	0xbe0a69ca	-0.13516918
3	0xbe3f570b	-0.18685548
4	0x3dfc97e5	0.12333659
5	0x3cc2a872	0.023761962
6	0xbc8748d2	-0.016514216
7	0xbddd1d69	-0.10796625
8	0xbe181e6c	-0.14855355
9	0x3cdbb762	0.026820842
10	0xbe36544a	-0.17805591
11	0xbdbacc61	-0.091210134
12	0xbde06bba	-0.10958047
13	0xbd7620bb	-0.060089808
14	0xbe45365e	-0.1925902
15	0xbe1ff96e	-0.15622494
16	0xbe43588e	-0.1907675
17	0xbe6e87f0	-0.23294044
18	0xbdd60293	-0.1044971
19	0xbb8e8bbb	-0.0043501533
20	0xbd09833d	-0.033572424
21	0xbd97f12e	-0.07419048
22	0xbca0864f	-0.019595293
23	0xbe397532	-0.18111113
24	0xbd042da7	-0.0322701
25	0x3dcccbbe	0.09999798
26	0xbe062b62	-0.13102487
27	0xbe0913ab	-0.13386409
28	0xbe4bd83d	-0.19906707
29	0xbe833d9b	-0.2563294
30	0xbd7dd4a5	-0.06197037
31	0xbe935b47	-0.28780577
32	0x3daa748b	0.0832301
33	0xbd2edf9a	-0.04269371
34	0xbcf5edac	-0.030020557
35	0x3d84788c	0.06468305
36	0xbe852050	-0.26001215
37	0x3e316bc2	0.17326263
38	0xbdee687b	-0.11641022
39	0xbe9ae92b	-0.30256018
40	0xbdf682d9	-0.12036676
41	0xbc9d1065	-0.019172857
42	0x3d8ce389	0.068793364
43	0x3d72e8bc	0.059303984
44	0xbdcc4df7	-0.09975808
45	0xbd21f405	-0.039539356
46	0xbea92b86	-0.33041018
47	0x3d406f85	0.046981353
48	0xbe0447b3	-0.12917976
49	0xbd93979c	-0.072066516
50	0xbca0f744	-0.019649155
51	0xbe97730c	-0.2957996
52	0xbc6c42cb	-0.014420222
53	0xbc665cce	-0.014060212
54	0x3c9fc9c0	0.019505382
55	0xbd8e0efb	-0.06936451
56	0xba794117	-0.00095082953
57	0xbc966fd6	-0.018363874
58	0x3da6e5a9	0.08149273
59	0x3cdd5bed	0.027021373
60	0xbd709fcb	-0.05874614
61	0xbd53bb07	-0.051692035
62	0xbe31ce4b	-0.17363851
63	0xbd84e385	-0.064887084
64	0x3d91c11a	0.07116909
65	0xbd748f16	-0.05970677
66	0x3e38c092	0.1804221
67	0xbdcf66ea	-0.10127051
68	0xbe4b75a2	-0.19869092
69	0xbe9dda7c	-0.30830753
70	0xbdf30b33	-0.118673705
71	0xbd07a663	-0.033117663
72	0xbe000576	-0.12502083
73	0x3c8239a0	0.015896618
74	0x3db5c37f	0.088751785
75	0xbea52964	-0.3225814
76	0xbe941997	-0.28925774
77	0xbe3ff4f7	-0.1874579
78	0x3d6cfae5	0.05785646
79	0xbe3d1525	-0.18465097
80	0x3e2257ab	0.15853755
81	0xbe5f4b42	-0.21806052
82	0x3d353fe6	0.04425039
83	0xbe11e0c2	-0.14245895
84	0xbdd8f79a	-0.10594101
85	0x3ddec677	0.10877698
86	0x3d13153c	0.035908923
87	0x3db9583e	0.09050034
88	0xbb105a35	-0.0022026424
89	0xbde00a4d	-0.10939465
90	0xbdf50772	-0.11964311
91	0xbd7aa8d7	-0.061196174
92	0xbe5f7c59	-0.21824779
93	0xbb16c896	-0.0023007742
94	0xbe4561fb	-0.19275658
95	0xbe58d4cb	-0.21174924
96	0xbcd7e824	-0.02635581
97	0x3db91ee4	0.09039095
98	0xbdfd90a6	-0.12381105
99	0xbe89ebe9	-0.26937798
100	0xbe9258d2	-0.2858339
101	0xbe3fba6e	-0.18723461
102	0xba5ee08c	-0.0008502088
103	0xbe9d03ce	-0.30666965
104	0x3db96577	0.09052556
105	0x3dbb8178	0.091555536
106	0xbe4d32d6	-0.20038924
107	0xbe8d8c66	-0.27646178
108	0x3d4078c5	0.046990175
109	0xbe4e60f6	-0.20154175
110	0xbe8a9c7c	-0.27072513
111	0xbc49017d	-0.012268421
112	0x3e1d539d	0.15363927
113	0x3e293daf	0.16527437
114	0xbe1acab6	-0.1511639
115	0xbe6e8bbf	-0.23295496
116	0xbe63b866	-0.22238311
117	0x3d8ebba3	0.069693826
118	0xbe0de428	-0.13856566
119	0xbe727eff	-0.23681258
120	0xbe0472fc	-0.12934488
121	0x3d816e64	0.063198835
122	0xbead78e8	-0.33881307
123	0x3df2b1a6	0.1185029
124	0xbe941683	-0.28923425
125	0xbd79b2cb	-0.060961526
126	0xbdc30aae	-0.09523521
127	0xbe226772	-0.15859774

layers.0.lin_self.weight f4 [128, 128]
0	0xbd6082b7	-0.05481216
1	0x3bb14695	0.0054100254
2	0x3b87d0c8	0.0041447617
3	0x3b57eaa7	0.003294626
4	0xbd1bcc17	-0.038036432
5	0x3d28559f	0.04109728
6	0xbd00f7fa	-0.03148649
7	0x3967734b	0.00022072827
8	0x3c93d1ef	0.01804444
9	0x3d907a3d	0.07054565
10	0xbda6b841	-0.081406124
11	0x3d563930	0.052300632
12	0xbca7224a	-0.020402092
13	0xbda4f772	-0.08055009
14	0x3bf9d211	0.007623919
15	0xbbd4a0b1	-0.0064888825
16	0x3d80fad0	0.06297839
17	0xbd3cbab7	-0.046076503
18	0x3c5a6a85	0.01333106
19	0xbd6b513e	-0.057450525
20	0x3d82ee2b	0.06393083
21	0xbdc0a52b	-0.09406503
22	0xbd91d1c0	-0.07120085
23	0xbd66b3a1	-0.05632365
24	0x3c54170e	0.01294495
25	0xbdbf606a	-0.093445614
26	0x3d97e344	0.07416394
27	0xbd905517	-0.070474796
28	0x3d2dc8f5	0.042427976
29	0xbd2b40e6	-0.04180994
30	0xbd14ebf9	-0.036357854
31	0x3d319e3d	0.0433638
32	0xbdad02aa	-0.08447774
33	0x3d53bed5	0.051695663
34	0x3d108ec2	0.035292394
35	0x3d86536c	0.0655888
36	0xbd161429	-0.03664032
37	0x3d84f245	0.06491522
38	0x3d99683e	0.07490586
39	0xbd3bc85d	-0.04584538
40	0x3d34f3a7	0.044177677
41	0x3cfc6e60	0.03081435
42	0xbcdcbdba	-0.026945937
43	0xbc92b45c	-0.017908268
44	0xbda4aed4	-0.08041158
45	0xbd955eb4	-0.07293454
46	0x3d0ebca3	0.034847867
47	0x3bb9c872	0.005669647
48	0xbd0ed459	-0.03487048
49	0xbdb3f06a	-0.0878609
50	0xbc90b866	-0.017666053
51	0x3d8bacc6	0.06820063
52	0x3d774820	0.060371518
53	0x3d2e9fa2	0.042632706
54	0xbd93e986	-0.072222754
55	0xbcaf88d0	-0.021427542
56	0x3c544d44	0.012957875
57	0xbdc9d7e8	-0.09855634
58	0xbd9f6466	-0.07782821
59	0xbc8b984a	-0.01704039
60	0xbb8e632f	-0.0043453197
61	0xbd428d1a	-0.047497846
62	0x3ca5dfed	0.020248378
63	0xbc54f5a3	-0.0129980175
64	0x3d7c3e73	0.061582994
65	0xbc4da0bb	-0.012550528
66	0xbd91dbcd	-0.07122002
67	0xbd77dc47	-0.060512807
68	0x3d3466cc	0.044043347
69	0xbdb0b540	-0.08628321
70	0xbddc6297	-0.10760992
71	0xbc93cf46	-0.018043172
72	0x3d21b09c	0.03947507
73	0xbddb3ba1	-0.10704733
74	0x3d006cac	0.031353638
75	0xbccaec99	-0.024771022
76	0xbab22394	-0.0013590925
77	0xbd3f148a	-0.046650447
78	0xbd70dbd6	-0.058803402
79	0xbdd3c7c8	-0.103408396
80	0x3cfdfe05	0.031004915
81	0x3c65b17f	0.014019369
82	0x3d8641cf	0.06555521
83	0xbbaa4201	-0.0051958566
84	0x3d3b4bde	0.04572665
85	0x3d5265fb	0.051366787
86	0x3d5dff05	0.054198284
87	0x3c371429	0.01117424
88	0x3d87b0ff	0.06625556
89	0xbcd1c0ca	-0.025604624
90	0x3d7ba777	0.061439004
91	0xbda753b3	-0.08170261
92	0xbd223901	-0.039605144
93	0xbd60e698	-0.05490741
94	0x3d8d1a70	0.06889808
95	0xbdcf8af6	-0.101339266
96	0x3d83f3b4	0.06442967
97	0xbd6748c6	-0.056465887
98	0xbd8f31bc	-0.06991908
99	0xbd87c94a	-0.0663019
100	0xbd700b9b	-0.058604818
101	0xbd58d355	-0.052935917
102	0xbdba629b	-0.09100839
103	0x3d834bd1	0.06410945
104	0xbc350c1a	-0.0110502485
105	0xbd4a7271	-0.049425546
106	0xbb30c564	-0.0026973123
107	0xbd1d0c0a	-0.03834156
108	0x3d696da2	0.05698932
109	0xbb4b0912	-0.0030980748
110	0x3cb59937	0.022167785
111	0x3ca13fe9	0.019683795
112	0xbc086eb8	-0.008327179
113	0x3d5654d4	0.052326992
114	0xbc90e64a	-0.017687935
115	0xbd0c2482	-0.034214504
116	0xbd134848	-0.035957605
117	0x3bb53739	0.0055302647
118	0x3b121da3	0.0022295497
119	0x3d156d05	0.036480922
120	0xbd82ca70	-0.06386268
121	0xbda58748	-0.080824435
122	0xbda46354	-0.08026758
123	0xbd92ab8a	-0.07161625
124	0x3c9772eb	0.018487414
125	0xbc3f8582	-0.011689546
126	0xbc148191	-0.009064094
127	0x3c882d55	0.016623178
128	0x3ded5926	0.11589269
129	0xbd032cca	-0.032025136
130	0xbd72e139	-0.05929682
131	0x3e2edf00	0.17077255
132	0x3de7090f	0.11281025
133	0x3d08e3da	0.03342042
134	0x3bf01020	0.007326141
135	0xbd541373	-0.05177636
136	0x3d4f6e74	0.050642446
137	0xbcecf378	-0.028924689
138	0xbdc3c86b	-0.09559711
139	0xbe53514c	-0.20636481
140	0x3d0f3c7c	0.03496979
141	0x3e00610e	0.12537023
142	0xbda6910c	-0.08133134
143	0xbd5df74e	-0.054190926
144	0x3d2aca1b	0.04169665
145	0x3d895138	0.06704944
146	0xbcd6b483	-0.026209122
147	0xbce444a5	-0.027864764
148	0xbde9c158	-0.114138305
149	0xbd6738e9	-0.056450758
150	0x3e24ff21	0.16112949
151	0xbd5879a5	-0.052850384
152	0xbca1b63a	-0.019740213
153	0xbdf28172	-0.11841096
154	0x3c4d4c5c	0.0125304125
155	0x3e5c9b84	0.215437
156	0xbca6245a	-0.020281006
157	0x3d662635	0.05618878
158	0xbc10e1ad	-0.008842868
159	0xbb023345	-0.0019866985
160	0x3c3df1b9	0.011593276
161	0x3e10c8a0	0.14139032
162	0xbc47a949	-0.012186357
163	0xbd8b0bae	-0.06789337
164	0xbd9b6338	-0.07587284
165	0xbbb94f70	-0.0056552216
166	0x3e4673af	0.19380067
167	0x3e42cc14	0.19023162
168	0xbc1a3793	-0.009412664
169	0xbd9d4e7c	-0.07680985
170	0xbcaf4aa1	-0.02139789
171	0xbe2946f6	-0.16530976
172	0xbe0f5b27	-0.13999616
173	0xbc089793	-0.008336919
174	0xbdb6edfc	-0.08932111
175	0x3c84da94	0.016217507
176	0xbd7544ee	-0.05988019
177	0xbce9c63d	-0.02853691
178	0x3cd50c30	0.026006788
179	0xbcd4be3e	-0.02596962
180	0x3c8b9445	0.017038474
181	0x3e03cf07	0.12871943
182	0x3cca0856	0.024662178
183	0x3d845d94	0.06463161
184	0x3cd59215	0.026070634
185	0x3df6bf41	0.120481975
186	0x3cd7c79b	0.026340296
187	0x3e323323	0.1740232
188	0x3c8cd708	0.017192379
189	0xbdc721b9	-0.09723229
190	0x3c446f4e	0.011989428
191	0xbcf29ace	-0.029614832
192	0x3d36123d	0.044450987
193	0x3d1c7df6	0.038206063
194	0xbcca5dd2	-0.02470294
195	0xbe03a3e1	-0.12855484
196	0x3d5f72a9	0.054552708
197	0x3d549c37	0.05190679
198	0xbe162f90	-0.14666581
199	0x3df4acdd	0.119470336
200	0x3d3ac5e5	0.045598883
201	0x3c4d0912	0.01251437
202	0x3d173406	0.036914848
203	0x3d69ef86	0.057113193
204	0xbc9249e4	-0.0178575
205	0xbe198f74	-0.1499613
206	0x3b8b9be8	0.004260529
207	0x3cf843b2	0.030305717
208	0x3e372d7f	0.17888449
209	0xbe0c6a5b	-0.13712446
210	0x3d8bb1e8	0.06821042
211	0xbe24102d	-0.16021796
212	0x3c7a2f42	0.015270056
213	0xbd9da85a	-0.07698126
214	0xbc4e3bb8	-0.01258748
215	0x3ca85399	0.020547675
216	0xbdd333c2	-0.103126064
217	0x3bd9b74e	0.006644166
218	0x3e208a29	0.15677704
219	0xbd56970c	-0.052390143
220	0x3c6bba49	0.014387676
221	0xbc723271	-0.014782534
222	0x3d517a72	0.051142164
223	0x3cf304a0	0.029665291
224	0xbdda84e4	-0.10669878
225	0x3dd9de10	0.10638058
226	0x3e627066	0.22113189
227	0xbe1d7277	-0.15375696
228	0xbda5ea82	-0.081013694
229	0xbe0b6e2e	-0.13616249
230	0x3d27b2ad	0.040941883
231	0xbd8eb49b	-0.069680415
232	0xbd9b04f4	-0.07569304
233	0x3d4bf7a8	0.04979673
234	0x3e0c8070	0.1372087
235	0x3c55ccb4	0.013049293
236	0xbdc9ae10	-0.09847653
237	0xbd399a4e	-0.045313172
238	0x3d4aac2c	0.049480602
239	0xbd907c63	-0.07054975
240	0x3e013b07	0.12620173
241	0x3e1168a4	0.14200073
242	0x3d84421c	0.06457922
243	0xbd3badc2	-0.045820005
244	0x3dad583b	0.08464094
245	0x3c72b2f3	0.014813173
246	0xbd3715a7	-0.044698384
247	0xbd99b02f	-0.075043075
248	0xbca9b0a3	-0.02071411
249	0x3e17a2f3	0.14808254
250	0x3cf42afe	0.029805657
251	0x3d87c2ab	0.06628927
252	0xbcf916f4	-0.030406453
253	0xbc23b223	-0.009991202
254	0x3c301e66	0.010749435
255	0xbd85f45a	-0.06540747

layers.0.lin_self.bias f4 [128]
0	0x3baa4c7f	0.0051971073
1	0xbc1bb5b9	-0.009503775
2	0xbd9e5282	-0.07730581
3	0x3b1fcfc1	0.0024385306
4	0x3d410de6	0.047132395
5	0xbc2ea81e	-0.010660199
6	0xbd8f5c3c	-0.07000014
7	0xbdbd6587	-0.092478804
8	0x3bc7b410	0.006094463
9	0x3c9ab1c0	0.018883586
10	0xbdbd6df2	-0.09249486
11	0xbd14dd00	-0.036343575
12	0xbd9048b1	-0.07045115
13	0xbdef2837	-0.11677592
14	0xbd3d1491	-0.04616219
15	0xbd137a71	-0.03600544
16	0xbcacf1a7	-0.021111323
17	0xbcd2d213	-0.025734937
18	0xbcc8181f	-0.024425564
19	0xbc76ad05	-0.0150558995
20	0xbbfca8f6	-0.0077105714
21	0xbd4b084c	-0.04956846
22	0xbd0043fe	-0.031314842
23	0x3d0045e2	0.031316645
24	0xbce857bb	-0.028362146
25	0xbd25757f	-0.040395256
26	0xbdc60ef0	-0.09670818
27	0xbc2335f0	-0.00996159
28	0xbd5ac03c	-0.053405985
29	0x3d5e6dca	0.05430392
30	0xbd8cb087	-0.068696074
31	0xbd683bfb	-0.056697827
32	0xbd46856c	-0.048467085
33	0x3cfeaa95	0.0310872
34	0xbd494d26	-0.04914584
35	0xbdbddfbc	-0.092711896
36	0x3d2dc2ae	0.04242199
37	0xbdd38442	-0.103279606
38	0xbc531125	-0.012882506
39	0x3ccda301	0.02510214
40	0xbd7d2f7a	-0.061812855
41	0x3ce1be8d	0.027556682
42	0x3d4e39d2	0.05034811
43	0xbd40849a	-0.04700146
44	0x3cba0cde	0.022711214
45	0x3d1703ac	0.036868736
46	0xbd062d87	-0.032758262
47	0xbd300bb7	-0.042979922
48	0x3a0c714f	0.00053574605
49	0xbda19baf	-0.078910224
50	0x3d372b10	0.044718802
51	0xbd237a84	-0.039911762
52	0xbcd28b59	-0.025701212
53	0xbcc53573	-0.024073338
54	0x3d2bd88e	0.04195457
55	0xbccee6a5	-0.025256464
56	0x3d55bfd0	0.05218488
57	0xbdca7343	-0.09885266
58	0x3d88a053	0.066712044
59	0xbb370160	-0.0027924404
60	0x3d2b19db	0.041772705
61	0xbcbbe5c7	-0.022936715
62	0xbbe47b3a	-0.0069726976
63	0x3c9d20ba	0.019180644
64	0xbd0a5b19	-0.033778284
65	0xbdcf0256	-0.101078674
66	0x3e0badf7	0.13640581
67	0x3d8eae4d	0.06966839
68	0xbd67a288	-0.056551486
69	0x3d0a1a6c	0.033716604
70	0x3c35d526	0.011098182
71	0xbc7b2275	-0.015328039
72	0x3c8d4b20	0.017247736
73	0x3da4b021	0.080414064
74	0x3b7de0ec	0.00387388
75	0xbcc37805	-0.02386094
76	0x3d53fcfd	0.05175494
77	0xbdc53195	-0.09628598
78	0xbbfa48a9	-0.0076380563
79	0xbd0141b7	-0.03155681
80	0xbb916401	-0.00443697
81	0xbd3580ae	-0.04431217
82	0x3c0b8be6	0.008517241
83	0x3d3c145a	0.045917846
84	0x3d817cb9	0.06322617
85	0x3d662d0d	0.056195308
86	0xbdc49c40	-0.09600115
87	0xbb929475	-0.004473264
88	0x3b9e8601	0.004837752
89	0xbd5d75db	-0.054067474
90	0xbd84b7ca	-0.064803675
91	0x3c8f629e	0.017503079
92	0x3c6d8cc0	0.014498889
93	0x3d0cc17f	0.03436422
94	0xbd592c08	-0.053020507
95	0x3d94f970	0.07274139
96	0x3d88ba0c	0.066761106
97	0xbd949437	-0.07254832
98	0x3d4b0a53	0.049570393
99	0x3d383eff	0.044981953
100	0x3b69be4e	0.003566641
101	0xbd88defe	-0.066831574
102	0xbd60ba8a	-0.054865398
103	0x3ca2c97b	0.019871464
104	0xbdcfede3	-0.10152795
105	0xbd8355ef	-0.06412875
106	0xbd9a45a2	-0.07532813
107	0xbc0e7dd2	-0.00869699
108	0xbb626669	-0.0034545904
109	0x3d81c409	0.06336219
110	0xbd7c1eb3	-0.061552715
111	0xbd39e26a	-0.04538194
112	0xbd9383b4	-0.07202855
113	0xbd0c8b02	-0.034312256
114	0x3c369393	0.011143583
115	0xbd929527	-0.07157355
116	0xbda41a62	-0.080128446
117	0x3da2d300	0.07950401
118	0xbd41088e	-0.0471273
119	0xbd85b8f9	-0.06529421
120	0xbda17d5a	-0.07885237
121	0xbd5bf613	-0.05370147
122	0x3d2e3ca5	0.042538304
123	0x3bca3f57	0.0061721015
124	0xbdb27040	-0.08712816
125	0x3d40c9ca	0.04706744
126	0xbdbf409b	-0.093384944
127	0xbbdaece0	-0.0066810697

layers.0.lin_neigh.weight f4 [128, 128]
0	0x3cf21fd1	0.029556187
1	0xbd7f99fa	-0.062402703
2	0xbda94984	-0.08265975
3	0xbc9c1827	-0.019054485
4	0xbd3e0d6c	-0.04639952
5	0xbd3be49d	-0.04587232
6	0xbc84a10c	-0.016190074
7	0x3d45a028	0.04824844
8	0xbdd936b5	-0.10606138
9	0x3c5a42e3	0.013321611
10	0x3d72c952	0.059274025
11	0xbd3a8cc4	-0.0455444
12	0xbdd0e533	-0.10199966
13	0xbb53e190	-0.003233049
14	0xbcf6a814	-0.030109443
15	0x3ccf9df3	0.02534387
16	0x3cb5e8c1	0.022205712
17	0x3cc332c1	0.023827912
18	0xbcfcc75c	-0.03085678
19	0x3cdae58f	0.02672079
20	0x3d7f3eb3	0.062315654
21	0xbdb1c1f7	-0.08679574
22	0xbda57210	-0.08078396
23	0xbad490b3	-0.001621744
24	0xbdcdc7aa	-0.100478485
25	0xbd860101	-0.0654316
26	0xbdbf6542	-0.09345485
27	0x3c95972d	0.018260563
28	0x3d015daa	0.031583466
29	0xbd8ec52f	-0.069712035
30	0xbdc18cf2	-0.09450711
31	0xbdc4474a	-0.0958391
32	0x3cbbf251	0.022942694
33	0x3c118215	0.008881112
34	0xbd52a92d	-0.05143087
35	0xbd95bd12	-0.07311453
36	0x3d3c6848	0.045997888
37	0xbb657530	-0.0035012476
38	0xbd1e45cf	-0.038640793
39	0xbdb1063e	-0.08643769
40	0x3d28523b	0.041094046
41	0x3d69b0be	0.05705332
42	0xbd13ca34	-0.036081508
43	0xbdd2a74e	-0.10285817
44	0xbdc0a1cd	-0.09405861
45	0x3d370869	0.044685755
46	0x3d777b62	0.0604204
47	0xbc89a375	-0.016801575
48	0xba7d1cd9	-0.0009655483
49	0x3d2287df	0.039680358
50	0xbd875a19	-0.06608982
51	0x3cc75681	0.02433324
52	0xbd204c01	-0.039134983
53	0xbddc81e4	-0.10766962
54	0xbd856488	-0.065133154
55	0x3d3d49e9	0.046213064
56	0xbbcb6f43	-0.006208332
57	0x3d7fe095	0.062470037
58	0xbcd42a7b	-0.025899163
59	0x3c69a1da	0.01425978
60	0xbdae7c85	-0.08519844
61	0x3c93ef30	0.01805839
62	0xbd82fec2	-0.063962474
63	0x3cb8187c	0.022472613
64	0xbd96afd8	-0.07357758
65	0xbd3767a2	-0.044776566
66	0xbd2be59e	-0.041967027
67	0xbd99ecd0	-0.075158715
68	0xbdabc886	-0.08387856
69	0xbce33971	-0.027737351
70	0xbbc97a4c	-0.006148612
71	0xbc9c8d16	-0.019110244
72	0xbdcff376	-0.10153858
73	0xbce7077b	-0.02820181
74	0xbd9eb318	-0.07749003
75	0x3c718fad	0.014743728
76	0x3ce0226d	0.027360165
77	0xbd7af5a8	-0.061269432
78	0xbc3b4aef	-0.01143144
79	0xbd7cc1ff	-0.061708447
80	0x3ca60bfc	0.020269386
81	0x3bba9fc2	0.005695314
82	0x3c1d3b56	0.009596666
83	0x3b21b214	0.0024672793
84	0x3cb4ee2c	0.022086225
85	0xbd7ea71c	-0.062171087
86	0xbdc054e2	-0.0939119
87	0xbdb5bac2	-0.08873512
88	0xbdd9fd46	-0.10644011
89	0x3d115ec8	0.03549078
90	0xbc07740a	-0.008267412
91	0xbd6b43bc	-0.057437643
92	0x3d0b3182	0.03398276
93	0x3d36539e	0.044513337
94	0x3d130767	0.03589573
95	0xbd2bc02a	-0.04193131
96	0x3d02f79e	0.031974427
97	0xbd344f1a	-0.04402075
98	0xbd02fa5c	-0.031977043
99	0x3cb3a564	0.02192945
100	0xbb729be3	-0.0037019185
101	0x3d248d22	0.040173657
102	0x3be08a67	0.0068524363
103	0xbd43dcf0	-0.047818124
104	0x3a8710d1	0.0010304694
105	0xbd7cd0a3	-0.06172241
106	0xbd055dd4	-0.032560185
107	0x3d9f7888	0.077866614
108	0xbc35bb0c	-0.011091959
109	0x3b2bc586	0.0026210262
110	0xbc8c8c61	-0.017156782
111	0x3d0ad274	0.03389211
112	0x3c43cb4c	0.011950325
113	0x3d0b4923	0.034005295
114	0x3d6fd836	0.058555804
115	0xbd83e1cb	-0.06439551
116	0xbdce2534	-0.1006569
117	0x3bfb4c0d	0.007668978
118	0xbdadd398	-0.08487624
119	0x3d21e282	0.039522655
120	0x3c1e63b0	0.009667322
121	0xbd62cefb	-0.055373173
122	0x3d5027a2	0.050819047
123	0xbd6a5602	-0.05721093
124	0x3cdcc179	0.026947724
125	0xbda0c5a5	-0.07850198
126	0x3cdc0695	0.026858607
127	0xbd04c496	-0.03241404
128	0x3e3188f8	0.17337406
129	0xb9d1b2d7	-0.00039996832
130	0xbd289831	-0.041160766
131	0x3d260e4c	0.04054098
132	0x3c65c73c	0.014024552
133	0xbd461cfa	-0.048367478
134	0x3bfb0014	0.0076599214
135	0xbd9ad78f	-0.07560646
136	0xbd5ceea1	-0.05393851
137	0xbd6a3a32	-0.057184406
138	0xbdabc1db	-0.08386584
139	0xbe338067	-0.1752945
140	0x3cac86ed	0.021060431
141	0x3d8efa72	0.069813624
142	0xbcd4ec55	-0.025991598
143	0xbc56886b	-0.013094048
144	0x3d6a3d57	0.057187404
145	0xbd917df0	-0.07104099
146	0xbd9d5e24	-0.076839715
147	0xbd4296c1	-0.04750705
148	0xbdefc168	-0.11706811
149	0x3d33d16e	0.0439009
150	0x3df742a2	0.12073256
151	0xbbcab70b	-0.006186371
152	0x3d7b004f	0.06127959
153	0x3a93bc90	0.0011271406
154	0xbdaf5b58	-0.08562344
155	0x3bcdf100	0.006284833
156	0x3d7a80c5	0.06115796
157	0x3d8bcbaf	0.06825959
158	0x3d75dc6b	0.06002466
159	0x3ce0529d	0.027383143
160	0xbe1f9285	-0.15583237
161	0x3d8328e2	0.06404282
162	0xbd23f6a1	-0.040030126
163	0x3cd709a5	0.026249716
164	0xbe474aa8	-0.19462073
165	0xbcd26728	-0.025683954
166	0x3e07dc9e	0.13267753
167	0x3d4bc7dc	0.049751148
168	0xbe03e6ac	-0.12880963
169	0xbd9297c0	-0.0715785
170	0xbd5d6b15	-0.0540572
171	0xbc9a7db9	-0.018858777
172	0xbe1cd9a1	-0.15317394
173	0x3cf905fa	0.030398358
174	0xbdd40500	-0.10352516
175	0xbd201d68	-0.039090544
176	0x3d90fb0b	0.07079133
177	0x3cb256f9	0.021769987
178	0xbdbc829a	-0.09204598
179	0x3bf0d7ec	0.0073499586
180	0xbd8f664c	-0.070019335
181	0x3d807c89	0.06273753
182	0x3dafee41	0.08590365
183	0x3d594a00	0.053049088
184	0xbd49b532	-0.049245067
185	0x3dac4221	0.084110506
186	0xbdbbfca5	-0.091790475
187	0xbd0e531a	-0.03474722
188	0xbd1e32c9	-0.03862265
189	0x3d632e10	0.05546385
190	0x3cc25c25	0.023725579
191	0x3bb35bf3	0.0054736077
192	0x3d9e948c	0.07743177
193	0xbd62fe57	-0.05541834
194	0xbdbc1675	-0.09183971
195	0xbd501ca6	-0.05080857
196	0x3c50746b	0.012723069
197	0xbdb7213d	-0.089418866
198	0x3c72f913	0.014829892
199	0x3c2a9334	0.0104110725
200	0xbde66f39	-0.11251683
201	0x3d93270d	0.07185183
202	0x3d27be55	0.040953
203	0x3b187b4e	0.0023266855
204	0x3d83f7e6	0.06443767
205	0xbdb40e1f	-0.08791756
206	0x3d80aa48	0.062824786
207	0x3cc2099d	0.023686225
208	0x3c72211e	0.014778404
209	0xbe20343b	-0.15644924
210	0xbc014a04	-0.007891182
211	0xbe43c631	-0.19118573
212	0xbd20710e	-0.039170317
213	0x3d12a680	0.035803318
214	0xbd21a162	-0.039460547
215	0x3d26a4cd	0.04068451
216	0xbddcfaa9	-0.10789997
217	0x3c94c757	0.018161459
218	0x3d4c7cdc	0.049923763
219	0x3d84a760	0.06477237
220	0x3db0cd40	0.08632898
221	0x3dd4d4e2	0.10392167
222	0x3d4059ab	0.046960514
223	0x3c6d9a69	0.014502146
224	0xbe4bf7c9	-0.19918741
225	0x3d508179	0.050904725
226	0x3df94065	0.121704854
227	0xbdc4bb81	-0.09606076
228	0x3c78980e	0.015172971
229	0xbdfd0611	-0.12354673
230	0xbca40565	-0.020022104
231	0xbd98bf9a	-0.0745842
232	0xbdc3bc8c	-0.09557447
233	0x3bc745a2	0.006081299
234	0x3db18c57	0.08669346
235	0xbdc00aa9	-0.09377033
236	0xbdf86470	-0.12128532
237	0xbaadbd3c	-0.0013255249
238	0x3d821d54	0.0635325
239	0x3d2a4cc0	0.0415771
240	0x3e04e5de	0.12978312
241	0xbcba5083	-0.02274347
242	0x3dd30b8f	0.10304939
243	0xbd243f9a	-0.040099718
244	0x3db76ec6	0.08956675
245	0x3cde3118	0.02712302
246	0x3d233117	0.039841738
247	0xbd2d4a08	-0.04230693
248	0xbcb5c454	-0.022188343
249	0x3d6d0ddc	0.057874545
250	0xbda58f15	-0.08083931
251	0xbc0f361d	-0.008740929
252	0x3d83cde3	0.06435754
253	0x3d17789f	0.036980268
254	0xbce75571	-0.028238984
255	0xb9de362a	-0.00042383495

layers.1.lin_self.weight f4 [128, 128]
0	0xbcaf7ab4	-0.021420814
1	0xbda9456e	-0.08265196
2	0xbd71e7a3	-0.059058797
3	0x3d28256a	0.041051306
4	0xbc402cd1	-0.011729435
5	0xbc033e58	-0.008010469
6	0x3d68c234	0.05682583
7	0x3d293d48	0.041318208
8	0xbd716f7f	-0.05894422
9	0x3c3fc7e2	0.011705371
10	0xbd812818	-0.063064754
11	0xbdad3124	-0.084566385
12	0x3d1bef15	0.038069803
13	0x3d878c61	0.06618572
14	0xbd30a11d	-0.0431224
15	0xbd8c560d	-0.068523504
16	0xbda18e4f	-0.07888471
17	0xbb645d6e	-0.0034845727
18	0x3c65f7cc	0.01403613
19	0xbd107a74	-0.03527303
20	0x3bb57237	0.005537297
21	0xbdb4c4fb	-0.088266335
22	0xbcd654a8	-0.026163414
23	0xbda1d269	-0.07901461
24	0x3cbdf850	0.023189694
25	0x3ce99580	0.02851367
26	0x3c535796	0.0128993
27	0xbd9f6052	-0.077820435
28	0xbd87a377	-0.06622975
29	0xbc41a4f3	-0.011819112
30	0x3cf65329	0.03006895
31	0x3c99f1c4	0.01879204
32	0x3cabd5b5	0.020975927
33	0xbdc5311e	-0.09628509
34	0xbdc97b94	-0.09838024
35	0xbdb77f7b	-0.08959862
36	0xbdc85be6	-0.09783153
37	0xbdc0b38e	-0.09409247
38	0x3cb7ac01	0.022420885
39	0x3d7d37cd	0.061820794
40	0x3d311852	0.043236084
41	0xbd42eca4	-0.04758896
42	0xbd1780df	-0.036988135
43	0x3cd34106	0.025787842
44	0xbdb0a341	-0.08624888
45	0x3bb73da7	0.0055920663
46	0xbbfc9285	-0.007707896
47	0x3cabc942	0.02096999
48	0xbdaf97fa	-0.08573909
49	0xbced4944	-0.0289656
50	0xbd40ff38	-0.047118396
51	0x3c1d309b	0.009594108
52	0x3d7ad0a7	0.061234143
53	0x3cff7d69	0.03118773
54	0x3d16720f	0.03672987
55	0xbdf92c36	-0.12166636
56	0xbd1abf52	-0.037780114
57	0xbd6c6412	-0.057712622
58	0xbd2b82cd	-0.04187279
59	0xbdd83cf2	-0.105584994
60	0x3ca858d9	0.020550178
61	0x3d8370aa	0.06417973
62	0x3db7d1f6	0.08975594
63	0xbb930809	-0.004487042
64	0xbc498d28	-0.012301721
65	0x3d20a382	0.039218433
66	0xbd6f5a3e	-0.05843567
67	0xbd1d22b1	-0.038363162
68	0xbd916ae2	-0.071004644
69	0x3cf7c350	0.0302445
70	0x3c7acb7c	0.0153073035
71	0xbd104dfd	-0.035230625
72	0xbddbbb15	-0.107290424
73	0xbe1a39d6	-0.15061125
74	0x3ce14b6e	0.027501788
75	0x3cdbb259	0.026818441
76	0xbdbaa03c	-0.091125935
77	0xbdbc60f5	-0.091981806
78	0xbd48983d	-0.04897331
79	0xbd971438	-0.07376903
80	0xbdedc142	-0.116091266
81	0xbc97ab57	-0.018514318
82	0xbdd3d1db	-0.10342761
83	0xbd448b1b	-0.047984224
84	0xbe155951	-0.14584853
85	0xbc1563ca	-0.00911803
86	0xbd75d110	-0.06001383
87	0xbca9ea85	-0.02074171
88	0x3c084723	0.008317742
89	0x3d0a6a5b	0.033792835
90	0x3cb1a79d	0.02168637
91	0x3d549f7d	0.051909912
92	0x3d0bfc49	0.034176145
93	0xbdb9e011	-0.090759404
94	0x3c9b56e0	0.018962324
95	0xbd929880	-0.07157993
96	0xbe332c80	-0.17497444
97	0xbd93bd7a	-0.07213874
98	0xbd55200f	-0.052032527
99	0xbdee20f0	-0.11627376
100	0xbb0245e9	-0.0019878095
101	0x3d041eef	0.032256063
102	0xbcf7bd5e	-0.030241664
103	0x3bcb06e8	0.0061958916
104	0xbc46b590	-0.012128249
105	0x3c97d90f	0.018536119
106	0xbc4b99ce	-0.012426807
107	0xbdaf8e6f	-0.08572089
108	0x3d73fa5e	0.05956494
109	0x3d00ae93	0.031416487
110	0x3cfab208	0.03060247
111	0xbd4252b4	-0.047442153
112	0xbd9117d9	-0.07084627
113	0xbba4663a	-0.005017069
114	0xbdaf807a	-0.08569427
115	0xbd49431a	-0.04913626
116	0x3cfe8952	0.031071339
117	0xbdc87ab0	-0.09789026
118	0xbdb2a170	-0.08722198
119	0x3c0cf121	0.0086024115
120	0xbe0a62aa	-0.135142
121	0xbc16c5b5	-0.0092024105
122	0xbc92f1f8	-0.017937645
123	0xbe253c3c	-0.16136259
124	0xbd50239e	-0.050815217
125	0xbdb4af87	-0.08822542
126	0xbd555750	-0.05208522
127	0xbace17b6	-0.0015723619
128	0x3d4b6f49	0.049666677
129	0xbc97541e	-0.018472727
130	0x3da75258	0.08170003
131	0x3d0d66a0	0.0345217
132	0xbe0748ac	-0.13211316
133	0xbdc82618	-0.09772891
134	0xbe36a36b	-0.17835777
135	0x3cf7acef	0.030233828
136	0xbd477612	-0.048696585
137	0x3cb8fa47	0.022580279
138	0xbc970411	-0.018434556
139	0x3d410f0d	0.047133494
140	0x3d30a5f5	0.04312702
141	0xbd0c8e42	-0.034315355
142	0xbdaaa51f	-0.083322756
143	0xbcf7c2e4	-0.030244298
144	0x3da5c530	0.08094251
145	0xbdb0c0fb	-0.08630558
146	0x3cdc129d	0.026864344
147	0xbdd4f0df	-0.10397505
148	0xbd045bf5	-0.03231426
149	0x3d2a134e	0.041522317
150	0xbda5d13d	-0.0809655
151	0x3d4fd424	0.050739422
152	0xbdde03cd	-0.10840569
153	0xbdb1d759	-0.086836524
154	0xbd845318	-0.064611614
155	0x3da1c25a	0.07898398
156	0x3d0923a3	0.03348125
157	0x3d167714	0.036734655
158	0x3c85cb67	0.016332341
159	0x3d708ded	0.0587291
160	0x3da8e367	0.082464986
161	0xbcb0dddf	-0.021590171
162	0xbda44b67	-0.08022194
163	0xbd93667d	-0.071972825
164	0x3d883410	0.06650555
165	0x3dd6706d	0.10470662
166	0xbd9c136a	-0.076208904
167	0x3d080117	0.033204164
168	0xbd4c4660	-0.049871802
169	0x3d26b673	0.04070134
170	0xbdb25f6e	-0.08709608
171	0x3c9b0b0f	0.018926172
172	0xbd94a348	-0.07257706
173	0xbd431b0d	-0.04763322
174	0xbd0b380a	-0.03398899
175	0x3d0bec3f	0.03416085
176	0x3daed343	0.08536389
177	0xbd59c9a3	-0.05317081
178	0xbda341f2	-0.079715624
179	0xbd67a781	-0.05655623
180	0xbd8ef87b	-0.06980988
181	0x3d50f2d7	0.05101284
182	0xbd62ce3d	-0.055372465
183	0xbd9fb1bc	-0.07797572
184	0x3d46627b	0.048433762
185	0xbc91e135	-0.017807582
186	0xbc3f5fcb	-0.011680554
187	0x3d22173b	0.039572936
188	0xbdeed72d	-0.11662135
189	0x3d8884de	0.066659674
190	0xbcf1480a	-0.029453296
191	0xbdc7a73d	-0.09748695
192	0xbd3d9c9d	-0.046291936
193	0x3d99bbee	0.07506548
194	0x3d0a3f3a	0.033751704
195	0x3bfc6e77	0.007703598
196	0xbc4f73e7	-0.012661911
197	0x3bff8a22	0.007798449
198	0xbd184dca	-0.03718356
199	0xbd309a53	-0.043115925
200	0x3db30dc3	0.08742859
201	0x3e07e0ac	0.132693
202	0x3e235503	0.15950398
203	0x3d0f8467	0.035038378
204	0x3c96f1d1	0.018425854
205	0xbdab3aa5	-0.08360795
206	0x3cf69612	0.030100856
207	0x3d8e4faf	0.06948792
208	0xbdb38a5d	-0.08766625
209	0x3d4b5d6e	0.04964965
210	0xbcd50a95	-0.026006022
211	0xbd2dbf20	-0.0424186
212	0xbd7326e1	-0.05936325
213	0xbda83000	-0.0821228
214	0xbb55f82c	-0.0032649143
215	0xbcd9e5e3	-0.026598876
216	0x3dcc3e9b	0.099728785
217	0xbd264cbb	-0.04060052
218	0x3b9264a0	0.004467562
219	0xbd9f9c4b	-0.077934824
220	0xbd49760e	-0.04918485
221	0x3de3bcf7	0.111200266
222	0x3d6e584e	0.058189683
223	0x3c44bb10	0.01200749
224	0x3dc4e55f	0.096140616
225	0xbd6bf263	-0.057604205
226	0xbcc47033	-0.023979282
227	0xbd7cb47a	-0.061695553
228	0xbd3ad800	-0.04561615
229	0xbc897fc7	-0.016784562
230	0xbce5834f	-0.028016714
231	0x3d264ebd	0.040602434
232	0x3cbe1aa2	0.023206059
233	0xbc88ba78	-0.016690478
234	0xba94d497	-0.0011354861
235	0xbd8ab590	-0.067729115
236	0xbc964e70	-0.018347949
237	0x3d4138c3	0.047173273
238	0xbd67a960	-0.056558013
239	0x3c971c9b	0.018446257
240	0xbdb50983	-0.08839705
241	0xbd67628f	-0.056490477
242	0xbcbbc929	-0.02292307
243	0xbb40c90c	-0.0029416708
244	0xbc9c600a	-0.019088764
245	0x3bc4ff1e	0.0060118577
246	0x3db3a432	0.08771552
247	0xbc512275	-0.012764563
248	0xbd10f28a	-0.035387553
249	0x3d718959	0.058968876
250	0xbc1b9e55	-0.0094981985
251	0x3d625aa0	0.055262208
252	0x3ca09924	0.019604273
253	0xbc85d7c9	-0.016338246
254	0xbcfc3572	-0.030787203
255	0x3c318a0b	0.010836135

layers.1.lin_self.bias f4 [128]
0	0xbd4688b0	-0.0484702
1	0x3de8d631	0.11368979
2	0xbd781b16	-0.060572706
3	0xbd14a236	-0.03628751
4	0xbdc31128	-0.09524757
5	0x3b966699	0.0045898673
6	0xbd046f15	-0.0323325
7	0xbcf2869d	-0.029605204
8	0xbd413019	-0.04716501
9	0xbd029327	-0.031878617
10	0xbd6862c0	-0.0567348
11	0x3c507746	0.0127237495
12	0xbc8d6ef6	-0.017264824
13	0xbc9e4a75	-0.019322613
14	0xbcb7b189	-0.022423523
15	0xbdd2eac7	-0.102986865
16	0x3c7b3d34	0.015334416
17	0x3d928496	0.07154195
18	0xbcae598b	-0.021282932
19	0xbd590b61	-0.052989367
20	0xbc35481c	-0.0110645555
21	0xbcb3bb03	-0.02193976
22	0xbda42e1f	-0.080166094
23	0xbda3937a	-0.07987113
24	0xbc38fc7a	-0.011290664
25	0x3d559cd0	0.0521515
26	0xbcbea323	-0.023271149
27	0xbc64a691	-0.013955728
28	0xbd4acd5a	-0.049512245
29	0xbde899e8	-0.1135748
30	0x3defecd2	0.11715092
31	0xbda41566	-0.08011894
32	0xbd541e47	-0.051786687
33	0xbd80482c	-0.06263766
34	0xba6bf920	-0.0009001661
35	0xbd74c0c7	-0.05975416
36	0xbd9ef18f	-0.077609174
37	0x3d61c32c	0.05511777
38	0x3dc1c6eb	0.09461769
39	0xbd647787	-0.055778053
40	0x3ccb6a58	0.024830982
41	0xbd6a4579	-0.05719516
42	0xbc60bb9a	-0.013716603
43	0x3d137275	0.035997827
44	0xbde82b2a	-0.11336358
45	0xbc931f68	-0.017959312
46	0xbcb4fac3	-0.022092229
47	0x3d31532a	0.043292202
48	0xbdab6681	-0.083691604
49	0xbd78d393	-0.060748648
50	0x3c3565ef	0.011071666
51	0xbd350237	-0.044191565
52	0xbc8d9ecc	-0.017287634
53	0xbd383b0b	-0.044978183
54	0xbda25880	-0.07927036
55	0xbd73cda9	-0.059522305
56	0xbbc8d43d	-0.0061288164
57	0xbdfef45d	-0.12448952
58	0x3cd45ed8	0.025924131
59	0x3cbb3219	0.022851037
60	0x3d3e0988	0.04639581
61	0xbce09056	-0.027412575
62	0xbbc5380f	-0.0060186456
63	0xbb827e8c	-0.0039823707
64	0x3d977d8e	0.073969945
65	0xbde4f498	-0.11179465
66	0xbcfa362d	-0.030543411
67	0xbe13c318	-0.14429891
68	0xbd6d6bbe	-0.05796408
69	0xbde8fc9e	-0.11376308
70	0x3cf7af00	0.030234814
71	0xbd294daf	-0.04133385
72	0x3cc83644	0.024439938
73	0xbdab0e6a	-0.08352359
74	0x3d2489f9	0.040170643
75	0xbcd3b690	-0.025843889
76	0xbd3e121c	-0.04640399
77	0xbdfbbdfd	-0.12292097
78	0x3e0d7150	0.13812757
79	0xbd20f6a7	-0.039297726
80	0x3be4e9c1	0.0069858734
81	0xbdaf0599	-0.085459895
82	0xbd259643	-0.040426504
83	0x3d880e44	0.06643346
84	0x3d1f8b68	0.038951308
85	0xbd85497f	-0.06508159
86	0xbdd064e0	-0.101754904
87	0xbd0f1b3a	-0.034938075
88	0x3a58195e	0.0008243526
89	0x3d8ed653	0.06974473
90	0x3d97a470	0.07404411
91	0xbe046567	-0.12929307
92	0x3d2e6e39	0.042585585
93	0xbd844f17	-0.06460398
94	0xbd7faf70	-0.06242317
95	0x3d986aad	0.07442222
96	0xb9e2212b	-0.0004313079
97	0x3cf91ea1	0.030410113
98	0xbd6ee750	-0.058326066
99	0x3d479b81	0.048732284
100	0xbc6b498d	-0.014360798
101	0x3d4ae377	0.049533334
102	0x3caca948	0.021076813
103	0x3d31d801	0.043418888
104	0xbdcf1b56	-0.10112636
105	0xbd7407b8	-0.059577674
106	0x3b17caef	0.002316173
107	0xbe054f34	-0.13018495
108	0xbd7dd4ff	-0.061970707
109	0x3c7bc3c8	0.015366502
110	0xbd6cf4c8	-0.05785063
111	0x3c9bddd5	0.019026676
112	0xbda08a90	-0.07838929
113	0xbe1b59f2	-0.1517103
114	0x3d8edeee	0.06976114
115	0xbaf237fc	-0.0018479819
116	0x3d66ef6f	0.056380685
117	0x3d08fb71	0.03344292
118	0xbdb0f786	-0.08640961
119	0xbc9298d4	-0.01789514
120	0x3d642dcc	0.055707738
121	0xbdd7cf1f	-0.10537552
122	0xbd6682cd	-0.056277085
123	0xbd862375	-0.06549732
124	0xbd294023	-0.04132093
125	0x3d6237c2	0.055228956
126	0xbd8a1e9b	-0.06744119
127	0xbc8cabd1	-0.017171772

layers.1.lin_neigh.weight f4 [128, 128]
0	0xbc548a1a	-0.012972379
1	0xbc441885	-0.011968737
2	0x3d13ec88	0.036114246
3	0xbd77038a	-0.06030611
4	0xbd7170ed	-0.058945585
5	0xbd05e07c	-0.032684788
6	0xbd379b44	-0.044825807
7	0x3d2feca2	0.04295028
8	0xbc186923	-0.00930241
9	0xbd685994	-0.056726053
10	0xbd955af7	-0.07292741
11	0xbd9b1a59	-0.07573385
12	0x3b9a07cf	0.004700638
13	0xba595d5f	-0.00082918064
14	0x3c57d7b6	0.013173988
15	0xbc19160f	-0.009343638
16	0x3d234a4a	0.03986577
17	0xbc8796ad	-0.01655134
18	0x3b1a3161	0.0023527967
19	0xbd9221a9	-0.071353264
20	0xbbba5bbb	-0.0056872047
21	0xbda5ab3b	-0.080893
22	0x3ca47cdb	0.020079067
23	0xbd6f6882	-0.058449276
24	0x3d55a4bc	0.052159056
25	0xbd9f32d4	-0.077733666
26	0x3b6ac824	0.003582486
27	0xbb08924a	-0.0020839148
28	0xbd0f7089	-0.03501943
29	0x3cdb8565	0.026797006
30	0xbdac476d	-0.08412061
31	0x3c2d2b5c	0.01056942
32	0x3c69ad47	0.014262504
33	0x3c385ce0	0.011252612
34	0xbd2cc4c5	-0.04217984
35	0x3c86cef2	0.016456101
36	0xbdd1a484	-0.10236457
37	0xbdb58e80	-0.0886507
38	0xbd5696c7	-0.052389886
39	0x3d5d24fc	0.05399035
40	0xbc150565	-0.009095524
41	0xbd5d8c87	-0.054089095
42	0xbbf65fbf	-0.007518738
43	0x3cbf7bd4	0.023374476
44	0x3d45e2a7	0.048311856
45	0xb9c662b9	-0.00037839057
46	0xbdb9260b	-0.09040459
47	0xbd93efdb	-0.07223483
48	0x3c76b4f4	0.015057791
49	0xbda8635d	-0.08222077
50	0xbdb568d3	-0.08857884
51	0xba3b7ab3	-0.00071517675
52	0x3d795805	0.060874958
53	0xbd93fe9c	-0.07226297
54	0x3d13f0fe	0.0361185
55	0x3d16d67d	0.036825646
56	0x3d9757d5	0.073897995
57	0xbd53a82f	-0.051674064
58	0x3d51898d	0.05115657
59	0x3c10b1e8	0.008831479
60	0x3d72e715	0.05930241
61	0xbd068e64	-0.032850638
62	0x3cb4e937	0.022083862
63	0xbb83556a	-0.004007985
64	0x3d1840af	0.037171062
65	0xbdb6697d	-0.08906839
66	0xbdcedc18	-0.10100573
67	0x3d82fc83	0.06395819
68	0xbdb463a2	-0.08808066
69	0x3cf32df4	0.029684998
70	0x3d53a5c2	0.05167175
71	0x3c906d9e	0.017630395
72	0xbd2c868b	-0.042120498
73	0xbc9302e0	-0.017945707
74	0xbc6fbeae	-0.014632864
75	0xbc085ed0	-0.008323386
76	0x3d34ee7c	0.04417275
77	0x3d1c369c	0.038138017
78	0xbd6d2248	-0.05789402
79	0xbd91d58e	-0.071208104
80	0xbd3e1a67	-0.046411898
81	0xbd52ceb1	-0.051466648
82	0xba0c12a4	-0.0005343354
83	0x3d046aec	0.03232853
84	0x3c9d2242	0.019181374
85	0xbd65548a	-0.055988826
86	0x3c29aaa8	0.010355629
87	0x3c67c937	0.014147094
88	0xbe0e1d08	-0.13878262
89	0xbc4d63ed	-0.012536031
90	0xbba196b4	-0.0049312953
91	0xbd6c0ae9	-0.057627592
92	0x3d554ae5	0.052073378
93	0x3d4f0314	0.050540045
94	0xbd1992e2	-0.037493594
95	0xbdc8a336	-0.09796755
96	0xbe574734	-0.21023256
97	0x3cf54221	0.02993876
98	0xba7cfc46	-0.0009650629
99	0x3c081d67	0.008307791
100	0xbdb59bee	-0.08867632
101	0xbc844654	-0.016146816
102	0xbc8d143e	-0.017221566
103	0x3d950452	0.07276215
104	0x3cda6f40	0.026664376
105	0x3b11182f	0.0022139659
106	0x3d1fd121	0.0390178
107	0xbd248c07	-0.040172603
108	0xbda297c6	-0.07939105
109	0xbad5e8f5	-0.0016320037
110	0x3cfac7b9	0.030612813
111	0x3d3e80a8	0.046509415
112	0xbd68c5ff	-0.05682945
113	0x3d4d9630	0.050192058
114	0x3cef61e5	0.029221484
115	0x3be55528	0.006998677
116	0x3d88341a	0.066505626
117	0x3c7609bf	0.015016972
118	0xbd00d0e3	-0.03144921
119	0xbd3db54e	-0.046315484
120	0xbe03d767	-0.12875138
121	0xbd7fa7a7	-0.062415745
122	0xbbfac4ee	-0.0076528704
123	0xbc169110	-0.009189859
124	0x3dabd78e	0.08390723
125	0x3c4d62db	0.012535776
126	0xbd7145be	-0.058904402
127	0x3c3fbbae	0.011702461
128	0xbcf43d9e	-0.029814538
129	0xbd379ec8	-0.04482916
130	0xbd8595d8	-0.06522721
131	0x3dac4606	0.084117934
132	0xbdc956ed	-0.09831033
133	0xbd92b815	-0.07164017
134	0xbe4db482	-0.2008839
135	0xbd2ac643	-0.041692983
136	0xbd7e15dd	-0.06203257
137	0x3c064f3e	0.008197604
138	0x3d0e75f6	0.034780465
139	0x3d1b5625	0.03792395
140	0xbc20dc75	-0.009818186
141	0x3dd12e44	0.102139026
142	0x3ce5c300	0.028047085
143	0xbd2cacdf	-0.04215705
144	0xbd1f8d3b	-0.038953047
145	0x3d9ebcbd	0.07750843
146	0x3d31b9b0	0.043389976
147	0xbc957111	-0.01824239
148	0x3cf45c68	0.029829219
149	0xbc088040	-0.008331358
150	0xbdd593e8	-0.104286015
151	0xbd2ea72f	-0.042639907
152	0xbc645715	-0.013936778
153	0xbbb8bb42	-0.0056375572
154	0x3dba4abd	0.090962864
155	0x3ccf020e	0.025269534
156	0xbd6f66c7	-0.058447625
157	0xbd039d94	-0.0321327
158	0x3d8d523c	0.069004506
159	0xbd707987	-0.058709648
160	0xbce0f250	-0.027459294
161	0xbc8c7dcb	-0.017149827
162	0xbdc91b8c	-0.09819707
163	0x3ca7cb2b	0.02048262
164	0xbdaa552e	-0.08317028
165	0x3ccd774d	0.025081301
166	0x3c99f7e4	0.018794961
167	0xbcaaa8c1	-0.020832421
168	0xbd4441f3	-0.047914457
169	0x3c8dac1c	0.017293982
170	0x3c9ceb54	0.019155182
171	0xbd04b2dd	-0.03239714
172	0x3d678f4d	0.056533147
173	0xbd3637f1	-0.044486944
174	0xbd21ebe1	-0.039531592
175	0x3d3bbfae	0.045837097
176	0x3da3804a	0.079834536
177	0xbd15d03b	-0.036575537
178	0x3d469844	0.048485056
179	0xbd390e41	-0.04517961
180	0x3d9de106	0.077089354
181	0x3d9294f8	0.0715732
182	0xbc90754f	-0.017634062
183	0x3c9907c1	0.018680455
184	0x3d68c6e9	0.05683032
185	0xbd88811c	-0.06665251
186	0x3dd3435a	0.10315581
187	0xbbd72612	-0.0065658176
188	0x3d006a57	0.031351414
189	0x3d5566f4	0.052100137
190	0xbd939837	-0.07206767
191	0x3d1e2877	0.03861281
192	0x3bbba789	0.005726759
193	0x3cc6c7e1	0.024265232
194	0x3dc55cf7	0.09636872
195	0x3ba17995	0.004927824
196	0xbce75a85	-0.028241405
197	0xbd034fd3	-0.03205855
198	0xbd35c1ad	-0.044374157
199	0x3da8c308	0.08240324
200	0x3db7425b	0.08948203
201	0x3d436ea2	0.04771293
202	0x3d7cd4a0	0.061726213
203	0xbc0c8e2f	-0.008578821
204	0x3d8e0c29	0.06935913
205	0xbdbe3468	-0.092873394
206	0x3b9dbf0f	0.0048140357
207	0xbdaddb93	-0.08489146
208	0xbd043204	-0.03227426
209	0xbda039c2	-0.078235164
210	0xbd3951f6	-0.04524418
211	0xbc72fdc1	-0.014831007
212	0x3d3fca90	0.046824038
213	0x3d416ece	0.047224812
214	0xbd9773f7	-0.073951654
215	0xbc9423e6	-0.018083524
216	0x3d8b4e63	0.068020605
217	0xbcf4454d	-0.029818201
218	0xbbfd7505	-0.007734897
219	0xbd7ef2af	-0.06224316
220	0xbd0d5a8a	-0.034510173
221	0x3d0c1ed7	0.0342091
222	0xbcab7a35	-0.020932296
223	0x3d1ff788	0.039054424
224	0x3de78159	0.11303968
225	0xbcd4dc26	-0.025983881
226	0x3cb467b5	0.022022108
227	0x3d406d4d	0.046979237
228	0xbc04cab9	-0.0081049735
229	0x3baa9e5c	0.005206866
230	0xbbddefb2	-0.0067729587
231	0x3d38e0e2	0.04513634
232	0xbd21ffc2	-0.03955055
233	0xbd6f90af	-0.05848759
234	0xbd6c1bb1	-0.057643596
235	0xbd4c9a68	-0.04995194
236	0xbabc3647	-0.0014359438
237	0x3da22e85	0.07919029
238	0xbd4fc832	-0.05072803
239	0xbd996a28	-0.07490951
240	0xbdb04740	-0.0860734
241	0xbcf415b6	-0.029795509
242	0x3d7a5c3c	0.061123118
243	0xbd20bad5	-0.039240677
244	0xbd2b7187	-0.041856315
245	0xbce8ca5c	-0.028416805
246	0x3d984a55	0.07436053
247	0xbc6ca1ef	-0.014442905
248	0x3b97efa1	0.0046367203
249	0xbd5254db	-0.051350456
250	0x3d7e5794	0.06209524
251	0xbd0929c8	-0.03348711
252	0xbbb6e660	-0.005581662
253	0x3d04c676	0.03241583
254	0x3bbd2a7a	0.005772886
255	0x3c93306e	0.017967429
