outputs/models/nowcast_rand_k10_seed3.pt (torch, 272518 bytes, 14 tensors)

in_lin.weight f4 [96, 15]
0	0x3e51c811	0.20486476
1	0x3e4b90e1	0.19879486
2	0xbd59228a	-0.053011455
3	0x3e630149	0.22168459
4	0xbd67b85b	-0.0565723
5	0x3d55690b	0.05210213
6	0xbe052cd5	-0.13005383
7	0x3e6fa8a6	0.23404178
8	0x3e89f699	0.26945952
9	0xbe2053bd	-0.15656944
10	0x3e6e04b6	0.23243985
11	0x3e05de20	0.13073015
12	0x3e550e7c	0.20806307
13	0x3c6dda1d	0.014517334
14	0x3dd2aab5	0.10286466
15	0xbd0f5494	-0.03499277
16	0x3e32dc34	0.17466813
17	0x3d1fab27	0.038981583
18	0xbe1465de	-0.14491984
19	0x3d86c9bb	0.06581446
20	0xbdf3a22f	-0.118961684
21	0xbd651c2b	-0.055935066
22	0xbdc0bc1f	-0.09410881
23	0x3e16fb55	0.14744313
24	0xbe5e4168	-0.21704638
25	0xbe10a687	-0.14126025
26	0xbd7d3642	-0.061819322
27	0xbe3b18fa	-0.18271247
28	0x3cc2dfed	0.023788417
29	0xbe840f09	-0.2579272
30	0x3e6750cd	0.22589417
31	0xbe325f26	-0.17419109
32	0x3e44ab91	0.19206072
33	0x3db414da	0.087930396
34	0xbdabb371	-0.08383835
35	0x3e23621f	0.15955399
36	0x3d5e0ff8	0.054214448
37	0x3e91e6fb	0.28496537
38	0x3d92e695	0.07172886
39	0xbd47525d	-0.048662532
40	0x3da6de5d	0.08147881
41	0x3bcf7a0a	0.006331687
42	0x3e2d297d	0.16910358
43	0x3e42fe9d	0.1904244
44	0x3dac0be7	0.08400708
45	0xbdcd124a	-0.10013254
46	0x3dec57c7	0.1154018
47	0x3d70e9e1	0.058816794
48	0x3dc7a136	0.097475454
49	0xbe212687	-0.15737353
50	0xbe82dd1f	-0.25559327
51	0xbe08b632	-0.13350752
52	0xbe2bbea5	-0.16771944
53	0x3e7f71d3	0.24945764
54	0x3dcd3f54	0.100218445
55	0x3e0084ce	0.12550661
56	0x3de55751	0.11198295
57	0xbc9029f1	-0.017598124
58	0x3e5d833c	0.21632093
59	0xbe2f3480	-0.17109871
60	0x3c9b60cb	0.018967053
61	0xbe3ef096	-0.18646464
62	0x3da89b70	0.08232772
63	0xbdcad123	-0.09903171
64	0x3da207bf	0.07911634
65	0xbd5c569d	-0.05379354
66	0x3e5dff22	0.21679357
67	0xbe277cbd	-0.16356178
68	0xbe282a09	-0.16422285
69	0xbe282c78	-0.16423213
70	0x3e635463	0.2220016
71	0x3d9b431b	0.07581159
72	0x3e7d36c4	0.24727923
73	0xbe639bf9	-0.22227468
74	0xbe88676a	-0.266414
75	0xbe797c51	-0.24363829
76	0xbdcb361e	-0.099224314
77	0x3d82a1a8	0.0637849
78	0x3e2af158	0.16693628
79	0x3e5bb15c	0.21454376
80	0xbe088a67	-0.13334046
81	0xbdcefa6b	-0.10106357
82	0x3e6a8385	0.22901733
83	0xbd440847	-0.047859456
84	0x3e483615	0.1955188
85	0xbd10c0a2	-0.03533996
86	0x3e757cfd	0.2397346
87	0xbde54747	-0.11195236
88	0xbe2a52d8	-0.16633165
89	0x3d9c9f3b	0.07647558
90	0x3d732975	0.05936571
91	0xbde319a0	-0.11088872
92	0x3e227b69	0.1586739
93	0x3e0594a2	0.1304498
94	0xbe3fbb91	-0.18723895
95	0xbe0d2706	-0.13784418
96	0x3e620f9a	0.22076264
97	0xbdf268bd	-0.118363835
98	0xbdc47242	-0.095921054
99	0xbe8e67b9	-0.2781351
100	0xbe19bfc2	-0.15014556
101	0x3d0834e2	0.033253558
102	0xbda6ee73	-0.08150949
103	0xbe4b0ba5	-0.19828661
104	0x3d5e3a56	0.054254852
105	0xbe33d93f	-0.17563342
106	0xbe5f8d3a	-0.21831217
107	0xbe10e88e	-0.14151213
108	0xbe6681db	-0.22510473
109	0xbe2859cd	-0.16440506
110	0x3e842568	0.2580979
111	0x3d4aca1a	0.049509145
112	0x3da400db	0.08007976
113	0xbe75d6f2	-0.24007776
114	0xbe2ce3db	-0.16883795
115	0xbdae7ee8	-0.08520299
116	0x3d28681a	0.041114904
117	0xbe7d0ef8	-0.24712741
118	0xbdde6fbb	-0.10861155
119	0xbe0ec871	-0.1394365
120	0x3c5d153f	0.013493835
121	0xbdea421a	-0.11438389
122	0xbb9efcc2	-0.0048519084
123	0xbe45e8a2	-0.19327024
124	0xbe357adb	-0.17722647
125	0xbe1a3fb8	-0.1506337
126	0xbddaa5f1	-0.10676182
127	0xbe631cf7	-0.22179018
128	0x3e4b473a	0.1985139
129	0xbd8dc4f6	-0.06922333
130	0x3e50f4d4	0.20405895
131	0x3d7fccf0	0.062451303
132	0xbe7242c7	-0.23658286
133	0x3e51d053	0.20489626
134	0xbd7f6c90	-0.062359393
135	0xbdb348a2	-0.08754088
136	0xbe4c35c7	-0.1994239
137	0xbe7b802f	-0.24560617
138	0x3db5d517	0.08878534
139	0xbd6705bf	-0.056401964
140	0x3dcddee5	0.100522794
141	0xbe48d4d9	-0.19612445
142	0x3e50257e	0.20326802
143	0xbe47ae01	-0.19499971
144	0xbd879bda	-0.06621523
145	0x3ce7baab	0.028287252
146	0x3e14589e	0.1448693
147	0x3e5367aa	0.20645013
148	0x3e6fba94	0.23411018
149	0xbe470ef1	-0.19439293
150	0x3d8752c3	0.066075824
151	0xbda5974c	-0.08085498
152	0xbcdeb7ee	-0.027187314
153	0xbe26ecc4	-0.16301256
154	0x3e70d3bb	0.23518269
155	0xbe420da7	-0.1895052
156	0x3e19d8fa	0.15024176
157	0x3e2f2cfd	0.17107005
158	0x3e0692fe	0.1314201
159	0xbdd83c28	-0.10558349
160	0x3e7d489a	0.24734727
161	0x3e0c5e78	0.13707912
162	0x3daac023	0.083374284
163	0xbe7b0965	-0.24515302
164	0x3d7f2641	0.06229234
165	0xbcfe9cd8	-0.031080648
166	0xbe07e2c1	-0.13270094
167	0x3e6af1e7	0.22943841
168	0x3d33fa65	0.043939967
169	0xbe1248ad	-0.14285536
170	0xbe05d229	-0.13068451
171	0xbb9a20b5	-0.004703606
172	0x3e04d917	0.12973438
173	0xbda4af63	-0.08041265
174	0xbe25a349	-0.1617557
175	0xbdd2a450	-0.10285246
176	0xbe544dbe	-0.20732781
177	0x3d7626c6	0.06009557
178	0x3e37ff85	0.17968567
179	0xbe49f86f	-0.19723676
180	0x3d893bac	0.06700835
181	0x3dee9850	0.11650145
182	0x3d5c8621	0.053838853
183	0xbddef34d	-0.1088625
184	0x3e09ffce	0.13476488
185	0x3e0af183	0.13568692
186	0x3dc1642d	0.09442935
187	0xbdc512f8	-0.096227586
188	0xbcc5847e	-0.024111029
189	0x3cc6d351	0.024270685
190	0xbcb3e93d	-0.021961803
191	0xbe02de0c	-0.12780017
192	0x3e16bac2	0.1471968
193	0x3e639f33	0.22228698
194	0xbd05e824	-0.03269209
195	0xbd66e0d9	-0.056366775
196	0x3c0e6db2	0.008693146
197	0xbc5bcb52	-0.013415175
198	0x3d893e38	0.067013204
199	0x3d942f63	0.07235601
200	0xbe70239f	-0.23451088
201	0xbdb979f3	-0.09056463
202	0x3e92459b	0.2856873
203	0x3dfa6707	0.12226682
204	0xbba78bdb	-0.0051131076
205	0xbe28a4eb	-0.16469161
206	0xbdb7b8d6	-0.089708015
207	0xbe5498ad	-0.20761366
208	0xbda33899	-0.079697795
209	0x3d85b806	0.0652924
210	0x3e1e8e4a	0.15483966
211	0x3e1164fd	0.1419868
212	0xbe72a4d2	-0.23695686
213	0xbe07a841	-0.13247778
214	0xbd26e776	-0.040748082
215	0x3e7fc355	0.24976857
216	0x3d76b46b	0.060230654
217	0x3bf968b5	0.007611359
218	0x3e107227	0.14106046
219	0xbd990d33	-0.07473221
220	0xbe2b001f	-0.16699265
221	0x3e86a12b	0.26294836
222	0xbdab1189	-0.08352954
223	0xbd67ab98	-0.05656013
224	0xbe8656db	-0.2623814
225	0x3e36feef	0.17870687
226	0x3e3b5fc0	0.18298244
227	0x3dccd573	0.1000165
228	0xbe454b37	-0.19266973
229	0xbe8278a8	-0.25482678
230	0xbe56bc91	-0.2097037
231	0x3e4087e5	0.1880184
232	0x3e543e1c	0.20726818
233	0x3e85cdda	0.26133615
234	0x3e2e3b89	0.17014898
235	0x3d9c6c9f	0.07637905
236	0x3da572a8	0.080785096
237	0xbe319e5b	-0.17345564
238	0xbe7007fd	-0.23440547
239	0xbe8275d8	-0.25480533
240	0x3dbf3a13	0.09337249
241	0xbe0e6689	-0.13906302
242	0xbd83d91e	-0.06437896
243	0xbe24ae39	-0.16082086
244	0xbd40b76b	-0.04704992
245	0xbe3a1745	-0.18172939
246	0xbe39759e	-0.18111274
247	0x3d95d1c5	0.07315401
248	0xbdb653f9	-0.08902735
249	0x3e16a2de	0.14710566
250	0xbdc2d065	-0.09512404
251	0xbe4e89e3	-0.20169787
252	0xbd6cf7b0	-0.0578534
253	0xbe0c0a1f	-0.13675736
254	0xbd3cfc0e	-0.046138816
255	0xbe7f7266	-0.24945983

in_lin.bias f4 [96]
0	0xbe024773	-0.12722568
1	0xbc36dab2	-0.011160539
2	0xbc8938ab	-0.016750654
3	0xbe69f51c	-0.22847408
4	0xbe7168b7	-0.23575102
5	0xbe031493	-0.12800817
6	0x3e00f9a3	0.12595229
7	0x3df07ca3	0.117425226
8	0xbe7375a5	-0.23775347
9	0xbdde5c11	-0.10857404
10	0x3cd94475	0.0265219
11	0xbe54f15c	-0.20795196
12	0x3e1ac09d	0.15112539
13	0x3e6deace	0.23234102
14	0x3d640524	0.055668965
15	0xbe33f5f7	-0.17574297
16	0x3d951b12	0.07280554
17	0x3dc848fd	0.097795464
18	0x3e602efb	0.21892922
19	0xbdfde94c	-0.123980135
20	0xbe7e120e	-0.24811575
21	0x3de39e58	0.11114186
22	0x3c8bd9ff	0.017071722
23	0xbd958312	-0.0730039
24	0xbdda4994	-0.10658565
25	0xbe017abe	-0.12644479
26	0x3e5e2023	0.21691947
27	0xbcfdd16f	-0.030983655
28	0x3e5de769	0.21670307
29	0x3e72e35b	0.23719542
30	0x3d7a3305	0.061083812
31	0x3d8d34da	0.06894846
32	0x3a0f955c	0.00054772734
33	0x3e4118d9	0.18857135
34	0xbe5d9612	-0.21639279
35	0x3db8fcce	0.09032594
36	0xbc9df3de	-0.019281324
37	0x3e246ad2	0.16056374
38	0x3d8f54ed	0.0699862
39	0xbdaa613d	-0.08319328
40	0xbbd07e1b	-0.006362689
41	0x3e1d4a90	0.15360475
42	0xbe2a1a78	-0.1661166
43	0xbe0a9f27	-0.13537274
44	0xbd8d37b8	-0.06895393
45	0xbdac92b7	-0.08426421
46	0x3df26b16	0.11836831
47	0x3e4675b7	0.19380842
48	0xbc153a5e	-0.009108154
49	0x3e87705a	0.26452905
50	0xbdbf50c6	-0.09341578
51	0xbe145e3c	-0.14489073
52	0xbdc8725a	-0.09787436
53	0xbe0c36c2	-0.13692763
54	0xbe27f4fa	-0.16402045
55	0xbe36e2b3	-0.17859916
56	0xbe4a0498	-0.19728315
57	0x3da34a62	0.07973172
58	0x3e34c267	0.17652284
59	0x3e8227fa	0.25421125
60	0x3e7df4dd	0.24800439
61	0xba887897	-0.0010411915
62	0x3d887a9a	0.066640094
63	0xbd9dc7e8	-0.07704145
64	0x3df11b36	0.11772768
65	0xbe69d3d5	-0.22834714
66	0x3dffc2cf	0.12488329
67	0x3d668f69	0.05628911
68	0x3d97d128	0.0741294
69	0x3dd9e0f7	0.10638612
70	0xbde7d75b	-0.11320373
71	0x3e6c109a	0.23053208
72	0x3e1d2b6b	0.15348594
73	0x3e38ea5f	0.18058155
74	0x3d53d8ff	0.051720615
75	0x3e30c622	0.17263082
76	0x3e3e0079	0.18554868
77	0x3dacd6df	0.08439421
78	0x3e44762c	0.19185704
79	0xbc742d2b	-0.014903347
80	0x3e33b4ec	0.17549485
81	0x3d97476c	0.073866695
82	0x3e283ce7	0.16429482
83	0x3e88d13d	0.26722136
84	0x3da732dd	0.08163998
85	0xbdc9ff78	-0.0986318
86	0xbc4450f9	-0.011982196
87	0x3db0543a	0.08609815
88	0x3d801cf8	0.06255525
89	0xbd90b913	-0.0706655
90	0x3e45807b	0.19287293
91	0x3e31dbec	0.1736905
92	0xbe201850	-0.15634274
93	0xbc1f2f34	-0.009715844
94	0xbb24afee	-0.0025129276
95	0xbe1559b7	-0.14585005

layers.0.lin_self.weight f4 [96, 96]
0	0x3ce7d07b	0.028297653
1	0xbd0fd73c	-0.035117373
2	0xbcc39cdd	-0.02387851
3	0xbd19d706	-0.037558578
4	0xbd0d3320	-0.034472585
5	0x3e263d91	0.16234423
6	0x3d0c3585	0.034230728
7	0x3ddfb3c1	0.10922957
8	0x3d132da0	0.035932183
9	0x3d920c53	0.07131257
10	0x3da4748d	0.08030043
11	0x3c912e77	0.017722351
12	0xbdc4b040	-0.096039295
13	0x3b6b42a3	0.0035897873
14	0x3d380413	0.04492576
15	0x3cbf4a04	0.023350723
16	0x3d427968	0.047479063
17	0x3d721e43	0.05911089
18	0x3db40499	0.087899394
19	0x3cc8caa4	0.02451069
20	0xbbba7dbf	-0.0056912596
21	0xbd868a3a	-0.065693334
22	0xbd8fec28	-0.07027465
23	0xbc84ee0a	-0.016226787
24	0x3d1f0933	0.038827132
25	0x3d67f1eb	0.056627195
26	0x3e26870f	0.16262458
27	0x3c996646	0.018725526
28	0xbd80b79f	-0.06285023
29	0xbc570a81	-0.013125063
30	0x3d95870e	0.0730115
31	0x3d49a191	0.049226347
32	0x3cde2a98	0.02711992
33	0x3cd44e1d	0.025916154
34	0x3c620bc2	0.013796749
35	0x3d23724e	0.03990393
36	0x3c384b72	0.011248456
37	0xbdbf15d0	-0.09330332
38	0xbd106624	-0.03525366
39	0xbc304bd1	-0.010760264
40	0xbceda4b0	-0.029009193
41	0x3d5b0e19	0.05348024
42	0x3c409b1c	0.011755731
43	0x3cda9e61	0.02668685
44	0xbd8cc458	-0.06873387
45	0xbc171c0f	-0.009222998
46	0xbdac6d3d	-0.08419273
47	0x3d88e320	0.06683946
48	0xbd3e4a73	-0.04645772
49	0x3dfbaf5b	0.12289306
50	0x3d220d4d	0.039563466
51	0x3c05b1e8	0.008160092
52	0x3d85fe00	0.06542587
53	0x3cedc3f5	0.029024104
54	0xbc9ac3fa	-0.018892277
55	0xbc633464	-0.013867471
56	0x3d6ca684	0.05777599
57	0xbd341d1b	-0.04397307
58	0x3d458b82	0.04822875
59	0xbd2ee5a1	-0.04269946
60	0x3ca088b2	0.019596431
61	0xbd876cfe	-0.066125855
62	0xbd83ca4a	-0.06435068
63	0x3cbb48bf	0.022861836
64	0xbd5597bc	-0.05214666
65	0x3da2ee82	0.07955648
66	0xbdaa4748	-0.08314377
67	0x3c0787f1	0.008272157
68	0x3c7eec63	0.015559289
69	0x3da572ae	0.08078514
70	0xbd1fa7c2	-0.038978346
71	0x3d0959d2	0.033532925
72	0x3dbd9f01	0.09258843
73	0x3d8cbde0	0.06872153
74	0x3d73fd16	0.059567533
75	0x3cedad31	0.029013248
76	0xbd588dfa	-0.052869774
77	0xbd6ad528	-0.057332188
78	0x3e051340	0.12995625
79	0xbda5884b	-0.080826364
80	0xbc99b4aa	-0.018762905
81	0x3bf9fb02	0.0076287994
82	0x3e056c16	0.13029513
83	0xbc810353	-0.015748655
84	0xbb8dab92	-0.0043234313
85	0xbcadf282	-0.0212338
86	0x3d60d22b	0.05488793
87	0x3d4084f8	0.04700181
88	0x3e0383fa	0.12843314
89	0xbd831842	-0.06401111
90	0x3dff1e24	0.12456921
91	0xbd9ccab3	-0.07655849
92	0x3d341276	0.04396292
93	0x3d6cf352	0.057849236
94	0x3df7d030	0.121002555
95	0x3b66a69b	0.003519452
96	0xbc7b5b2e	-0.015341563
97	0x3c7809e5	0.015139078
98	0xbd7fdb2a	-0.06246487
99	0xbde3ba05	-0.11119465
100	0xbdb3aab5	-0.08772794
101	0x3d0fceb8	0.03510925
102	0x3da0ad60	0.07845569
103	0x3c6995f3	0.014256942
104	0xbd2a4158	-0.041566223
105	0x3d0d7662	0.034536727
106	0xbd722de5	-0.0591258
107	0x3c5d268e	0.013497962
108	0xbce77c13	-0.028257405
109	0xbcaa693d	-0.020802135
110	0x3dfed275	0.12442485
111	0xbd65b49d	-0.05608045
112	0x3b721bd6	0.003694286
113	0xbd97ca7f	-0.0741167
114	0xbb32053f	-0.0027163771
115	0xbd1eeb93	-0.03879888
116	0x3cafd47c	0.021463625
117	0xbd31bb0a	-0.043391265
118	0x3d3a4ce2	0.045483477
119	0xbd3d07ad	-0.0461499
120	0x3d7760ce	0.060395055
121	0xbdd0b29c	-0.10190317
122	0x3dae4992	0.08510126
123	0xbd346640	-0.044042826
124	0xbcb43398	-0.021997258
125	0xbc517364	-0.012783859
126	0x3dbd4378	0.09241384
127	0x3d591b62	0.05300463
128	0xbd8da14c	-0.069155306
129	0x3b9b3039	0.004735973
130	0xbd6537f0	-0.05596155
131	0x3d5e2fd6	0.05424484
132	0x3c918823	0.01776511
133	0xbcc7f218	-0.024407431
134	0xbdf7856f	-0.12085997
135	0x3d2959dd	0.041345466
136	0xbdd1e95e	-0.102495894
137	0x3d27dc94	0.040981844
138	0x3d41629d	0.047213186
139	0x3dc1cecc	0.094632715
140	0x3ce7d3d7	0.028299255
141	0xbdacacbb	-0.08431383
142	0x3db57080	0.08859348
143	0xbc11013b	-0.008850391
144	0xbcd6227a	-0.026139487
145	0x3c8025da	0.015643049
146	0x3dcfdb32	0.1014923
147	0x3da0b934	0.07847825
148	0x3d329af9	0.043604825
149	0xbc30f91a	-0.010801578
150	0xbd78f9ab	-0.060784977
151	0xbb03a8f8	-0.0020089727
152	0xbdfe994c	-0.12431583
153	0x3d85c58c	0.0653182
154	0xbd47e272	-0.04879994
155	0xbd23d816	-0.040000997
156	0x3deb0aba	0.11476655
157	0x3da86a15	0.082233585
158	0xbda250db	-0.07925578
159	0xbdf6ad1b	-0.12044736
160	0x3d02cb3b	0.031932097
161	0x3da190cc	0.07888946
162	0xbcebb90c	-0.02877476
163	0xbc8788bc	-0.016544692
164	0xbda0563c	-0.07828948
165	0x3d935996	0.071948215
166	0x3dc3b8c4	0.095567256
167	0xbd307a03	-0.04308511
168	0x3dcce382	0.10004331
169	0x3d47479a	0.04865227
170	0x3dc8acf1	0.09798611
171	0x39c93a4a	0.00038381136
172	0xbbcc805a	-0.0062408866
173	0x3da2d22f	0.079502456
174	0x3da922f3	0.08258619
175	0x3e00507f	0.12530707
176	0xbd006838	-0.03134939
177	0x3d9d7fac	0.07690367
178	0x3dbd7791	0.09251321
179	0xbdb06237	-0.08612483
180	0x3d86fdea	0.06591399
181	0xbaaf4087	-0.0013370671
182	0x3daaec0b	0.08345803
183	0xbcfaee04	-0.030631073
184	0x3d4bd8cf	0.04976731
185	0x3d720e13	0.059095453
186	0xbd2dd6ae	-0.042441063
187	0xbd556b76	-0.052104436
188	0xbd2fc997	-0.04291686
189	0x3d6b4c04	0.05744554
190	0x3db527c0	0.08845472
191	0xbd6070d1	-0.05479509
192	0x3c9f7687	0.019465698
193	0xbd76a30e	-0.060214095
194	0xbcd68fa5	-0.026191542
195	0x3d96afbb	0.07357737
196	0x3d87960b	0.06620415
197	0x3c9419e0	0.018078744
198	0x3ca07c40	0.019590497
199	0x3cb76b63	0.022390073
200	0x3cb45412	0.022012744
201	0x3be0085f	0.0068369354
202	0xbd1a3530	-0.03764838
203	0x3d9f3714	0.07774177
204	0x3c42c0ed	0.011886817
205	0x3dc51fae	0.09625183
206	0x3ccb3e84	0.024810083
207	0x3d788c83	0.060680877
208	0x3d9dcc26	0.07704954
209	0x3d8871c0	0.06662321
210	0x3d351614	0.04421051
211	0x3ded42c0	0.11584997
212	0x3c5360d2	0.012901502
213	0x3d1bfe6b	0.03808443
214	0x3dc18f88	0.094512045
215	0x3e02111e	0.12701842
216	0xbd30978b	-0.043113273
217	0x3dab822c	0.08374438
218	0x3dcfddd3	0.101497315
219	0x3cc9bdf8	0.024626717
220	0x3d185394	0.03718908
221	0xbd2d4ce6	-0.042309664
222	0x3e0127d8	0.12612855
223	0x3dd39832	0.10331763
224	0xbd60c00f	-0.05487066
225	0xbd55cbb2	-0.052196212
226	0xbdb87d58	-0.090082824
227	0xbce50874	-0.027958132
228	0xbd80f636	-0.06296961
229	0xbd780fee	-0.060562067
230	0xbcea2e48	-0.028586522
231	0x3dab45f5	0.083629526
232	0x3d84cd6e	0.06484495
233	0x3d7b9bfd	0.06142806
234	0x3d407819	0.046989534
235	0xbd1e15c4	-0.038594976
236	0xbdefad72	-0.11703004
237	0x3cb03361	0.021508874
238	0x3db57a4f	0.08861219
239	0x3cfec8b1	0.031101556
240	0xbd54f034	-0.051986888
241	0xbce26ea4	-0.027640648
242	0xbd0d0856	-0.034431778
243	0xbda120db	-0.07867595
244	0x3dd64f34	0.104643255
245	0xbd89d5a6	-0.06730203
246	0xbd9a5ca9	-0.07537205
247	0xbd813f86	-0.06310944
248	0x3d0a285a	0.03372989
249	0xbb35de29	-0.0027750826
250	0x3d164fe0	0.03669727
251	0x3d80574f	0.06266653
252	0xbd5b3dd2	-0.053525753
253	0xbd9db066	-0.07699661
254	0xbbbda8ff	-0.005787968
255	0xbe1d0b06	-0.15336236

layers.0.lin_self.bias f4 [96]
0	0x3d07378d	0.03301196
1	0x3dbd6f05	0.09249691
2	0x3cca32b8	0.024682388
3	0x3c645b0c	0.013937723
4	0xbc1189ce	-0.008882953
5	0x3d08d52d	0.033406425
6	0xbdb9c27a	-0.090702966
7	0xbdd08bba	-0.10182901
8	0xbc5f76a8	-0.01363913
9	0xbd658cfc	-0.056042656
10	0xbd683bc1	-0.05669761
11	0x3b9949b6	0.0046779765
12	0x3d8a2545	0.0674539
13	0x3d92a6a6	0.07160692
14	0xbb253781	-0.0025210085
15	0x3a875604	0.0010325317
16	0x3de2f7a9	0.11082394
17	0x3d0a460c	0.03375821
18	0x3da19cd3	0.0789124
19	0x3b4397e3	0.002984517
20	0xbd87ef79	-0.06637473
21	0xbd274ae3	-0.040842902
22	0x3c8f5b96	0.017499726
23	0xbc88ef1c	-0.016715579
24	0xbd2a5665	-0.0415863
25	0x3df05e22	0.117367044
26	0xbdb0b888	-0.086289465
27	0x3c97bf07	0.018523706
28	0x3d7e7c54	0.062130287
29	0xbcb8b4ee	-0.022547211
30	0x3d811a5a	0.06303854
31	0x3c9cd5ec	0.019144975
32	0xbd4edec7	-0.050505426
33	0xbd4c0a6d	-0.04981463
34	0xbcec9d51	-0.028883608
35	0xbdc6c02e	-0.09704624
36	0x3d9e5ea2	0.077328935
37	0x3ddc34ed	0.10752282
38	0xbc362028	-0.011116065
39	0x3c860932	0.016361807
40	0x3cfee475	0.031114796
41	0x3d0dfcc7	0.034664895
42	0xbd3c8c34	-0.046032146
43	0xbd502e4f	-0.050825413
44	0x3debbb33	0.11510315
45	0x3d430022	0.04760755
46	0x3deee1d1	0.11664165
47	0x3d81c668	0.06336671
48	0x3b9989bd	0.004685609
49	0x3dac5b83	0.08415892
50	0xbbf45a47	-0.007457051
51	0x3b9861fc	0.0046503525
52	0xbd331a21	-0.04372609
53	0x3db96849	0.09053094
54	0xbc5481bb	-0.012970383
55	0x3bdb5a88	0.006694142
56	0xbd937fcd	-0.072021104
57	0x3d46638f	0.04843479
58	0xbd5c6cba	-0.053814627
59	0xbc34d710	-0.011037603
60	0x3bf6c2c1	0.0075305407
61	0x3d30d890	0.04317528
62	0x3c98f493	0.01867131
63	0x3cee543b	0.029092899
64	0xbd749bb9	-0.05971882
65	0xbd7e6965	-0.06211223
66	0x3d1a3695	0.03764971
67	0xbce743e1	-0.02823061
68	0xbda9976e	-0.08280836
69	0xbc776cf2	-0.015101658
70	0xbdb97e37	-0.09057277
71	0x3d114bfe	0.035472862
72	0x3cc35717	0.023845239
73	0x3dcf1898	0.10112113
74	0xbd668645	-0.056280393
75	0xbd225448	-0.039631158
76	0x3d1b6ca7	0.037945416
77	0xbc99c1e6	-0.018769216
78	0x3ddb8162	0.10718037
79	0xba42c5e0	-0.00074299984
80	0x3c638984	0.013887767
81	0xbb8a07fc	-0.0042123776
82	0x3d7c9659	0.06166682
83	0xbd11a903	-0.035561573
84	0x3d588268	0.05285874
85	0x3da6d58f	0.08146202
86	0xbd9b39f9	-0.07579417
87	0xbd94e60c	-0.072704405
88	0xbd34ba67	-0.04412308
89	0x3d7544ca	0.059880055
90	0xbd259f21	-0.04043496
91	0x3ca362ff	0.019944666
92	0x3ce893ff	0.028390883
93	0x3c637c11	0.01388456
94	0xbd1c932b	-0.038226288
95	0x3c8cd695	0.017192164

layers.0.lin_neigh.weight f4 [96, 96]
0	0x3dbacb08	0.091207564
1	0x3d6bb259	0.057543132
2	0x3d32d056	0.043655716
3	0xbd976ac8	-0.07393414
4	0x3d65a597	0.056066122
5	0x3d0aa4ae	0.033848457
6	0x3d94b206	0.07260518
7	0x3d62b029	0.05534378
8	0xbc512721	-0.012765677
9	0x3da35a19	0.07976169
10	0xbbfbfe31	-0.007690214
11	0x3cc7550a	0.024332542
12	0xbc04a758	-0.0080965385
13	0x3d6a469b	0.05719624
14	0x3dd60897	0.10450857
15	0x3dfd9b13	0.12383094
16	0xbd042695	-0.032263357
17	0x3e02c803	0.12771611
18	0xbbfe5991	-0.007762142
19	0x3dda69fd	0.10664747
20	0x3d712907	0.058877017
21	0x3ca0056e	0.01953384
22	0xbcc2efb7	-0.023795946
23	0xbb48cb5c	-0.003063879
24	0xbdb601a2	-0.0888703
25	0xbd269522	-0.040669568
26	0x3d8178ea	0.06321891
27	0x3e10bd5c	0.14134735
28	0x3b9401fa	0.004516837
29	0x3d16643a	0.036716677
30	0xbcd5cbc1	-0.026098134
31	0x3dc10219	0.09424228
32	0x3ddbc965	0.10731772
33	0xbcae686a	-0.021290023
34	0x3d48544c	0.048908517
35	0xbd9505f4	-0.07276526
36	0x3bb3ef63	0.0054911836
37	0xbd77c1cf	-0.060487565
38	0xbe18cfb3	-0.14922981
39	0x3ae252e1	0.0017267131
40	0x3d5bb794	0.05364187
41	0x3d304d6c	0.043042585
42	0x3dd382a4	0.10327652
43	0x3de17630	0.110088706
44	0xbdff71e1	-0.124728926
45	0xbcb8700a	-0.022514362
46	0x3d82fe1e	0.06396125
47	0xbd40f77a	-0.047111012
48	0xbd4adba5	-0.049525876
49	0x3dbdc8ea	0.09266837
50	0xbcf4461e	-0.02981859
51	0x3db34d0c	0.0875493
52	0xbd033b35	-0.032038886
53	0xbe005f17	-0.12536274
54	0xbd24804f	-0.040161427
55	0xbddb3981	-0.107043274
56	0x3da53598	0.08066863
57	0x3d6c35ee	0.05766862
58	0xbd0a2259	-0.033724163
59	0x3de17028	0.1100772
60	0xbcd54375	-0.026033143
61	0x3da49d9f	0.08037876
62	0x3d36d8ee	0.044640474
63	0xbdb681dc	-0.089114875
64	0x3df48eed	0.119413234
65	0x3d61712e	0.055039577
66	0xbd992eeb	-0.07479652
67	0x3d8e224c	0.06940135
68	0x3de0d97b	0.10978981
69	0xbd886ef7	-0.0666179
70	0xbc92f292	-0.017937932
71	0xbd94448d	-0.072396375
72	0x3df8b998	0.12144774
73	0x3d8b7d3b	0.06810995
74	0x3e04d2a8	0.12970984
75	0x3cb88bd1	0.022527607
76	0xbbbc3678	-0.005743798
77	0x3becf2ac	0.007231077
78	0xbd0c777c	-0.034293637
79	0x3d4a4f98	0.049392313
80	0xbd0bc4e3	-0.034123313
81	0x3cfc8779	0.030826317
82	0x3d0621d5	0.03274711
83	0x3d1faf94	0.038985804
84	0xbc3a60e6	-0.011375641
85	0xbc032765	-0.008004998
86	0x3d6308e1	0.05542839
87	0xbd8632cd	-0.06552658
88	0x3ac69dbc	0.001515321
89	0xbddcdbc0	-0.107841015
90	0xbc5de05c	-0.013542261
91	0x3dfecc03	0.12441256
92	0x3dc72472	0.09723748
93	0x3d9fecdc	0.07808849
94	0xbcba43ab	-0.022737345
95	0x3d8b46ee	0.06800638
96	0x3d04fce7	0.03246775
97	0x3d0957fe	0.03353118
98	0x3d2e4bc6	0.042552732
99	0xbd917993	-0.071032666
100	0x3ca58c36	0.02020846
101	0xbd5cefb6	-0.053939544
102	0x3d92a37d	0.07160089
103	0x3d6021f4	0.05471988
104	0xbd692027	-0.05691543
105	0xbd8ea2e0	-0.0696466
106	0x3c0d47d7	0.008623085
107	0x3d965bd0	0.073417306
108	0xbd6e1d95	-0.05813368
109	0x3da5e28b	0.0809985
110	0x3df32f59	0.11874265
111	0xbd8efd38	-0.069818914
112	0x3d3e2167	0.046418574
113	0x3d503999	0.05083618
114	0xbd3226d9	-0.04349408
115	0x3dcbac99	0.0994503
116	0xbd864ce3	-0.06557634
117	0x3dd44c3e	0.103661045
118	0xbdbdb031	-0.092621215
119	0x3de91c9d	0.11382411
120	0xbd039263	-0.032122027
121	0xbdcb6856	-0.0993201
122	0x3dbd318f	0.09237968
123	0xbbbb8577	-0.0057226974
124	0xbd00dac1	-0.03145862
125	0x3d5b414b	0.053529065
126	0x3d34a5e5	0.04410352
127	0x3d41c71f	0.047309037
128	0xbda525aa	-0.080638245
129	0xbdc26cc0	-0.09493399
130	0xbcc493be	-0.02399623
131	0xbd910ef1	-0.07082928
132	0xbd8915c5	-0.06693605
133	0x3c713773	0.014722693
134	0xbd9a9df8	-0.075496614
135	0x3aba72e6	0.0014224916
136	0xbc964342	-0.018342618
137	0x3d27aad6	0.040934406
138	0xbd81c854	-0.06337038
139	0x3c821a81	0.015881779
140	0x3c4e3952	0.012586908
141	0x3d8457ee	0.06462084
142	0x3ad1ac1f	0.0015996731
143	0x3d382973	0.044961404
144	0xbd53fe09	-0.05175594
145	0x3de1f062	0.110321775
146	0x3d1ed46b	0.038776796
147	0x3c8ca732	0.017169569
148	0x3d9aac2a	0.07552369
149	0xbe256b4c	-0.16154212
150	0x3d82979e	0.06376575
151	0x3d4957fd	0.049156178
152	0x3d2c87c2	0.042121656
153	0x3db596dc	0.08866665
154	0xbd8880f2	-0.06665219
155	0x3da9ecce	0.0829712
156	0x3d9fd35f	0.07803988
157	0xbdc9221d	-0.0982096
158	0x3d9e7714	0.07737556
159	0x3c6531ea	0.013988951
160	0xbbba6ab0	-0.0056889877
161	0x3e286767	0.16445695
162	0xbbf0f5e8	-0.007353533
163	0x3daf23d9	0.08551759
164	0xbdc9d35c	-0.09854767
165	0xbd89a449	-0.06720788
166	0x3d19a7c9	0.037513528
167	0x3c26e2e7	0.010185934
168	0xbc53a298	-0.012917183
169	0xbd4ed8ee	-0.05049985
170	0x3d99c03e	0.075073704
171	0x3d9dc179	0.077029176
172	0xbdabb1eb	-0.083835445
173	0xbd227c0b	-0.039669078
174	0x3c811bc7	0.015760316
175	0x3cdb24f1	0.026751013
176	0xbdb5e5c2	-0.088817134
177	0x3dde37d2	0.10850491
178	0xbd4efd16	-0.05053433
179	0x3d53c2bb	0.05169938
180	0x3b3d26e8	0.0028862301
181	0xbda0ee12	-0.07857908
182	0x3d4264a9	0.04745928
183	0xbd070863	-0.032966983
184	0x3df6dee6	0.12054233
185	0xbcf1aad0	-0.029500395
186	0x3da50626	0.08057813
187	0x3dc4f9d3	0.09617963
188	0xbd3a8249	-0.045534406
189	0xbd46677e	-0.04843854
190	0x3db17189	0.08664233
191	0x3de58a0a	0.112079695
192	0x3d16276d	0.036658693
193	0x3d9a47f3	0.075332545
194	0x3da4001b	0.080078326
195	0x3d7c1d30	0.061551273
196	0xbbae8783	-0.005326213
197	0x3e2ffcd7	0.17186294
198	0xbd228615	-0.03967865
199	0x3c44fae9	0.012022712
200	0xbcc0bd22	-0.023527686
201	0x3ceebc12	0.029142413
202	0x3dbde471	0.09272087
203	0x3d987350	0.07443869
204	0x3b0298fb	0.001992761
205	0x3df6bfb1	0.12048281
206	0x3e0f5202	0.13996127
207	0x3d900d8f	0.07033836
208	0xbcbbe500	-0.022936344
209	0x3daea2dd	0.085271575
210	0x3db3bb05	0.087759055
211	0x3dadd2d6	0.084874794
212	0x3d78c0a8	0.060730606
213	0x3da1886e	0.0788735
214	0xbd8b9de7	-0.06817227
215	0x3d8f3ea0	0.06994367
216	0xbdaf4635	-0.08558313
217	0x3d83283e	0.0640416
218	0x3d9e1776	0.077193186
219	0x3d0415c0	0.032247305
220	0x3b5b3adf	0.0033451838
221	0xbb6728fc	-0.0035272231
222	0x3de721d4	0.11285749
223	0x3d9a60d5	0.075380005
224	0xbc859b38	-0.016309366
225	0xbd8b2ddc	-0.06795856
226	0x3be947e0	0.007119164
227	0xbd65781e	-0.056022756
228	0xbb12585e	-0.0022330503
229	0x3c4c023c	0.012451705
230	0xbd061f69	-0.0327448
231	0xbcc718ec	-0.024303876
232	0xbbe9fbfb	-0.007140634
233	0xbd8fbe70	-0.07018745
234	0xbd380493	-0.044926237
235	0x3d63f872	0.055656858
236	0xbdb39857	-0.08769291
237	0xbdbd82e6	-0.092534825
238	0xbdc35ada	-0.09538813
239	0xbd4282b5	-0.047487933
240	0xbdc7b8f8	-0.09752077
241	0x3da726ad	0.08161674
242	0xbc243d25	-0.010024344
243	0x3d8a15ff	0.06742477
244	0x3db5ecf6	0.08883087
245	0xbe058409	-0.13038649
246	0x3d794895	0.060860235
247	0xbe04cf3b	-0.12969677
248	0x3e04dce2	0.12974885
249	0x3dd6733b	0.10471197
250	0x3d79bc3e	0.060970537
251	0xbd15679a	-0.036475755
252	0x3d27f609	0.04100612
253	0xbd9d71bf	-0.07687711
254	0x3c924939	0.01785718
255	0x3d29dbb7	0.041469302

layers.1.lin_self.weight f4 [96, 96]
0	0x3d63fbb3	0.05565996
1	0x3d613c4c	0.054989144
2	0xbd853b2b	-0.06505426
3	0x3d376c00	0.04478073
4	0x3d8ad1b6	0.067782804
5	0x3d1e7fe7	0.038696196
6	0xbce70e16	-0.028204959
7	0xbd3b26fa	-0.045691468
8	0x3d652278	0.055941075
9	0x3d4f3ac3	0.05059315
10	0x3d1a8780	0.03772688
11	0xbd87a355	-0.0662295
12	0xbdbfb640	-0.09360933
13	0x3dd1f791	0.10252298
14	0x3c116e84	0.008876447
15	0x3dc186fd	0.09449575
16	0xbdad1c0e	-0.08452617
17	0xbd38194c	-0.044946
18	0xbda088df	-0.07838606
19	0x3dd98af2	0.10622205
20	0x3cf3a4db	0.029741695
21	0x3d4f5e89	0.050627265
22	0x3dc7af2e	0.0975021
23	0x3c799b84	0.015234832
24	0x3d231fae	0.039825134
25	0xbd6ce564	-0.05783595
26	0x3d186d42	0.03721357
27	0x3daf102d	0.08548007
28	0x3a9a2787	0.0011761048
29	0xbdb9eef7	-0.09078782
30	0xbd5b9fa1	-0.05361903
31	0x3bfab9a8	0.0076515265
32	0x3daaa1f7	0.083316736
33	0x3cb3ac90	0.02193287
34	0xbd4a93ca	-0.04945735
35	0x3cc0049a	0.023439694
36	0xbce80677	-0.028323395
37	0x3c899a4a	0.016797204
38	0x3d948355	0.07251612
39	0xbda65618	-0.0812189
40	0xbce2a21a	-0.027665187
41	0xbd20c25a	-0.039247848
42	0x3dd36499	0.10321922
43	0xbd9a1dbe	-0.07525204
44	0xbc44ff71	-0.012023793
45	0xbdb96b0f	-0.09053623
46	0xbd671232	-0.056413837
47	0xbd26e75b	-0.04074798
48	0xbca11a07	-0.019665731
49	0xbda15c14	-0.07878891
50	0xbc2b1c47	-0.010443754
51	0xbd22b29f	-0.039721128
52	0x3dae097e	0.08497904
53	0xbd8e94fd	-0.06962011
54	0xbd978bfc	-0.07399747
55	0xbc0ad81c	-0.008474376
56	0xbd8ee5ac	-0.069774
57	0xbce1cd10	-0.027563602
58	0x3d088bca	0.03333644
59	0xbda529b8	-0.08064598
60	0xbcb98404	-0.022645958
61	0x3d8c666c	0.06855473
62	0x3dc3017e	0.09521769
63	0x3dc12a3a	0.09431882
64	0x3d9d330c	0.07675752
65	0x3dcb2c09	0.099205084
66	0xbb0394f6	-0.0020077801
67	0xbd28af19	-0.04118261
68	0x3c2ee8a5	0.010675584
69	0x3c8cef99	0.017204093
70	0x3ca4d3ab	0.020120462
71	0xbd8f7c03	-0.07006075
72	0x3dd0dc63	0.101982854
73	0xbc5eb84b	-0.013593744
74	0x3d9e032b	0.07715448
75	0x3cb6d38a	0.022317667
76	0x3d520934	0.051278308
77	0x3c478675	0.012178053
78	0x3d4ce475	0.05002256
79	0xbd7dfcfb	-0.06200884
80	0x3d61ab8e	0.055095248
81	0xbd81f0d7	-0.06344765
82	0x3d532ac6	0.051554464
83	0xbd367e0e	-0.04455381
84	0x3d2c760b	0.042104762
85	0xbd95ce25	-0.073147096
86	0xbd80cebd	-0.06289432
87	0x3dc98dc4	0.09841493
88	0x3db2ccef	0.08730494
89	0xbdaeff8d	-0.08544836
90	0xbd27b417	-0.04094323
91	0xbdc0f9df	-0.09422659
92	0x3d9678ac	0.07347235
93	0xbce0f3f7	-0.027460082
94	0x3aabf21b	0.0013118418
95	0x3d134e5f	0.035963412
96	0x3d445bf5	0.04793926
97	0x3c640ab0	0.013918564
98	0x3d2416b2	0.040060706
99	0xbdb74277	-0.08948224
100	0x3cba3c60	0.022733867
101	0xbdbb8b41	-0.0915742
102	0xbce51768	-0.027965263
103	0xbd0af3ed	-0.033924032
104	0xbd73ebdd	-0.05955111
105	0x3b32caa4	0.0027281428
106	0x3d7d78bb	0.061882716
107	0xbb3aee87	-0.002852352
108	0xbc41b094	-0.011821885
109	0xbd406848	-0.04697445
110	0xbbbed3a8	-0.0058235712
111	0xbda427a7	-0.080153756
112	0x3dbe947d	0.09305666
113	0x3cb82eb7	0.022483213
114	0xbd525b32	-0.051356502
115	0xbcd0f706	-0.025508415
116	0x3d242643	0.04007555
117	0x3e03f542	0.12886527
118	0xbcf72f2a	-0.030173857
119	0xbd908a3b	-0.07057615
120	0xbcd8a6aa	-0.02644666
121	0xbd116a70	-0.035501897
122	0x3d9581d0	0.073001504
123	0x3cde6ee7	0.027152492
124	0x3ddb24fe	0.10700415
125	0xbd05def1	-0.032683317
126	0xbda7ae5e	-0.08187555
127	0x3d108b04	0.035288826
128	0x3d9f62b8	0.07782501
129	0x3dc94ac8	0.098287165
130	0x3c90b6ad	0.017665232
131	0x3c5ed4dd	0.013600555
132	0x3d7b4797	0.06134757
133	0x3d8a1912	0.06743063
134	0xbddf74a4	-0.10910919
135	0xbd0eb2e1	-0.03483856
136	0x3d9c6eab	0.07638296
137	0xbd0533a9	-0.03251997
138	0xbd8b7ba3	-0.06810691
139	0xbd91c20f	-0.07117092
140	0xbd0c8844	-0.03430964
141	0xbc4ee2da	-0.012627328
142	0x3cd6966c	0.026194774
143	0xbdabe247	-0.08392768
144	0x3df793b8	0.12088722
145	0x3d2c1a6f	0.042017397
146	0x3dcef334	0.10104981
147	0xbd18c137	-0.03729364
148	0x3dbd1080	0.09231663
149	0x3d300b41	0.042979483
150	0xbdac6484	-0.08417609
151	0x3d951ec5	0.072812594
152	0x3d986304	0.07440761
153	0xbd54b292	-0.05192811
154	0x3da7ead3	0.08199086
155	0xbc2a852b	-0.010407726
156	0xbc4b4982	-0.012407662
157	0xbcfd729d	-0.030938441
158	0xbd3d1319	-0.04616079
159	0x3d9cd2df	0.07657408
160	0xbc582c79	-0.013194197
161	0xbd1052d2	-0.035235234
162	0x3dd07c30	0.10179937
163	0xbd8e8a4e	-0.06959973
164	0xbd87de74	-0.066342264
165	0xbd0d9b16	-0.03457173
166	0x3df2a084	0.11847022
167	0xbd5bfea7	-0.053709652
168	0xbd33c13b	-0.04388545
169	0xbd30ea62	-0.043192275
170	0x3d875879	0.06608672
171	0x3c2b29d5	0.010446985
172	0xbd7d655f	-0.061864253
173	0xbd2e17e6	-0.04250326
174	0xbd8bb595	-0.068217434
175	0x3d15839a	0.03650246
176	0xbd32863e	-0.043585055
177	0xbd48e097	-0.04904231
178	0x3d8e3832	0.06944312
179	0x3d94f317	0.07272928
180	0xbdcf8cc7	-0.10134273
181	0x3d84308b	0.06454571
182	0x3daa1084	0.08303931
183	0x3db980a3	0.09057739
184	0x3d80aa92	0.06282534
185	0x3c6572a4	0.014004383
186	0xbd025efd	-0.03182887
187	0xbce0de2d	-0.027449692
188	0xbdccc5de	-0.09998678
189	0xbce8ad9c	-0.028403096
190	0x3d93955e	0.07206224
191	0x3de511b7	0.111850195
192	0x3db660f3	0.0890521
193	0x3cdfb7a0	0.027309239
194	0x3d027ce0	0.03185737
195	0xbbe9973f	-0.0071286256
196	0xbdb91d40	-0.09038782
197	0x3b8cd8a9	0.004298289
198	0x3d04a507	0.032383945
199	0x3beee5f2	0.007290595
200	0x3d405b6c	0.046962187
201	0x3d888562	0.06666066
202	0x3dca4152	0.0987574
203	0x3d60536d	0.05476706
204	0xbd7170fe	-0.05894565
205	0x3d36a73d	0.044593085
206	0xb885c3b3	-6.378386e-05
207	0xbd9d3c8a	-0.076775625
208	0x3d2068a1	0.039162282
209	0x3dac59c0	0.08415556
210	0xbcfc8741	-0.030826213
211	0x3d30b12c	0.043137714
212	0xbcecd83e	-0.028911706
213	0x3d8b50bd	0.06802509
214	0x3d918382	0.07105161
215	0x3d8472eb	0.06467231
216	0xbce24966	-0.02762289
217	0xbc8c20f7	-0.017105563
218	0xbd4098bf	-0.04702067
219	0xbc66f26c	-0.014095884
220	0x3d8cbb0c	0.06871614
221	0xbd11442b	-0.0354654
222	0x3db64c6e	0.089012966
223	0x3dad5616	0.08463685
224	0x3dfd066e	0.12354742
225	0xbd19b5d1	-0.03752691
226	0x3d62166d	0.05519717
227	0x3ddf2bfd	0.10897062
228	0x3d8336c1	0.06406928
229	0x3bd0193c	0.0063506644
230	0x3da0c684	0.07850364
231	0x3dba8c63	0.09108808
232	0x3d00e68d	0.03146987
233	0x37a1d96c	1.929394e-05
234	0xbcc880eb	-0.024475535
235	0x3de64279	0.112431474
236	0x3d120626	0.035650395
237	0xbc27d2be	-0.010243116
238	0x3d361250	0.044451058
239	0xbd595424	-0.05305876
240	0x3d9a84ee	0.075448856
241	0x3d729f92	0.05923421
242	0x3c954d2d	0.018225277
243	0x3acb00f1	0.0015487951
244	0x3d7fdf08	0.06246856
245	0x3df114a6	0.117715165
246	0x3dadd499	0.084878154
247	0x3dcb10b3	0.099152945
248	0x3d924533	0.07142105
249	0x3db4a57e	0.08820628
250	0xbcf5cbae	-0.030004349
251	0xbd611ff0	-0.0549621
252	0x3db7592f	0.08952557
253	0x3d182f57	0.03715452
254	0x3d1d7713	0.038443636
255	0x3d17719f	0.036973592

layers.1.lin_self.bias f4 [96]
0	0xbd08ee16	-0.03343018
1	0x3c02c7ac	0.007982176
2	0x3d6839c4	0.056695715
3	0x3d0c5e9e	0.03426992
4	0xbdb37a0e	-0.087635145
5	0xbd8ac8ed	-0.06776605
6	0xbd72fc70	-0.059322774
7	0x3db1cc72	0.08681573
8	0x3bfe75c7	0.007765505
9	0xbbdb692b	-0.0066958866
10	0x3ca8629b	0.020554831
11	0x3ca6cc73	0.02036116
12	0x3d8a6fcb	0.06759604
13	0xbdaf4489	-0.08557994
14	0x3ca3cfde	0.01999658
15	0x3dcd962e	0.1003841
16	0x3c166444	0.009179179
17	0x3de4594d	0.11149845
18	0x3db40d14	0.08791557
19	0x3c0602c6	0.008179372
20	0x3dca0d03	0.09865763
21	0xbc6c00e2	-0.014404507
22	0x3d7527e0	0.05985248
23	0x39bbc731	0.0003581583
24	0xbdc0f243	-0.09421208
25	0x3cdbb3db	0.02681916
26	0x3d004550	0.0313161
27	0xbd70ccd0	-0.058789074
28	0x3dbca9d2	0.09212078
29	0xbd87a708	-0.066236556
30	0xbdad31bc	-0.08456752
31	0xbc637a99	-0.01388421
32	0x3cfb8789	0.030704277
33	0x3d9cac77	0.076500826
34	0x3a3bd08e	0.0007164561
35	0xbd87e7cd	-0.06636009
36	0x3ceed86b	0.02915593
37	0x3de3729f	0.111058466
38	0x3de73211	0.11288846
39	0x3cb2c72b	0.021823486
40	0x3ab794a2	0.0014006088
41	0xbbfc8d7e	-0.007707297
42	0x3de1fd15	0.110346
43	0x3cb2e263	0.021836465
44	0x3d0fb1c6	0.035081647
45	0x3d13fda2	0.036130555
46	0xbd879f5d	-0.06622193
47	0x3bd81bec	0.0065951254
48	0xbd8ddbf1	-0.06926716
49	0x3c85d022	0.016334597
50	0x3dab633a	0.08368535
51	0x3d042d43	0.032269727
52	0xbc7f3a99	-0.015577936
53	0x3db00bad	0.08595977
54	0x3d08a08a	0.033356227
55	0xbd9c856b	-0.07642635
56	0xbda5bb40	-0.08092356
57	0x3d3328de	0.043740146
58	0x3dc0bc13	0.09410872
59	0x3dd73445	0.105080165
60	0x3d088984	0.03333427
61	0xbcd4eeb8	-0.025992736
62	0xbd68ffc9	-0.05688456
63	0x3c9cb2ae	0.01912817
64	0x3d8dc01c	0.069214076
65	0xbc146914	-0.009058256
66	0x3d4625f0	0.048376024
67	0x3d9fb35c	0.07797882
68	0x3d565421	0.052326325
69	0xbbb4afbf	-0.0055141146
70	0xbbf329d1	-0.0074207564
71	0xbd5eec98	-0.054424852
72	0x3c19a1aa	0.009376923
73	0xbda56c8d	-0.08077345
74	0x3db2b75a	0.08726378
75	0x3d124f8b	0.03572039
76	0x3d5c2c01	0.053752903
77	0x3db39a69	0.08769686
78	0xbd09c51b	-0.03363524
79	0x3cdc717a	0.026909579
80	0xbcecf0c0	-0.028923392
81	0x3d6b7d3f	0.05749249
82	0x3d45ebd2	0.0483206
83	0x3dd809da	0.10548754
84	0x3c81247f	0.015764473
85	0x3da7f5de	0.08201192
86	0xbd3c2868	-0.045936972
87	0xbd49945a	-0.049213745
88	0xbd9b3ce9	-0.07579977
89	0x3d917c8f	0.07103836
90	0xbd893d7f	-0.067011826
91	0xbd2ba47c	-0.04190491
92	0xbc5b4f65	-0.013385628
93	0xbb266b81	-0.0025393667
94	0x3dc3257d	0.09528635
95	0x3ddaced2	0.10683979

layers.1.lin_neigh.weight f4 [96, 96]
0	0xbd2a8754	-0.041632965
1	0x3c474db7	0.012164525
2	0xbd949073	-0.07254114
3	0xbd911981	-0.070849426
4	0xbbceac97	-0.0063071954
5	0xbcc01ff1	-0.02345273
6	0x3d8cfa33	0.06883659
7	0xbcbb9582	-0.02289844
8	0x3ce6cb7b	0.028173199
9	0xbd9e1aea	-0.07719977
10	0xbcdb322a	-0.026757319
11	0x3c91968a	0.017771978
12	0xbcb0b5e0	-0.0215711
13	0x3db6513f	0.08902215
14	0x3cc289f0	0.023747414
15	0x3dc271de	0.09494375
16	0x3d542bef	0.05179971
17	0x3d2b781c	0.041862592
18	0xbdbd7590	-0.09250939
19	0x3d6b72d7	0.057482567
20	0xbd9b850b	-0.07593735
21	0x3dda065c	0.10645744
22	0x3d99346c	0.07480702
23	0xbd372b9a	-0.044719316
24	0x3cb1e544	0.021715768
25	0x3d90933d	0.070593335
26	0xbdcd9138	-0.10037464
27	0x3caa393a	0.02077924
28	0xbbaa1c46	-0.0051913587
29	0x3d126ffa	0.03575132
30	0x3db00bc6	0.085959956
31	0xbd3bf692	-0.045889445
32	0xbdbf5e8c	-0.09344205
33	0xbd7ebc95	-0.062191565
34	0x3c5639c6	0.013075298
35	0xbca0972c	-0.019603334
36	0xbd6e4390	-0.0581699
37	0xbd1f993a	-0.038964488
38	0x3d82d605	0.06388477
39	0xbd5dbcb3	-0.054135036
40	0x3d8ded71	0.06930054
41	0x3d0bc274	0.03412099
42	0xbcc56eb4	-0.024100639
43	0xbc96927c	-0.018380396
44	0x3cd8624a	0.026414055
45	0x3d80f393	0.06296458
46	0xbbbe72c9	-0.0058120233
47	0xbd6bd9bb	-0.05758069
48	0x3dd0a86e	0.101883754
49	0xbbd0a6fe	-0.0063675633
50	0x3d0bc5b0	0.034124076
51	0x3da06d71	0.07833374
52	0x3cc180d5	0.023621002
53	0x3dbce887	0.092240386
54	0xbcc7ecf2	-0.024404977
55	0xbd590b4e	-0.052989297
56	0x3d08a8c1	0.03336406
57	0x3dc7d250	0.09756911
58	0x3dcff3c7	0.10153919
59	0x3de37bec	0.111076206
60	0x3d05cee1	0.032668
61	0xbdb832d1	-0.089940675
62	0x3db74fc1	0.08950759
63	0x3db0622d	0.086124755
64	0xbdb5a96d	-0.08870206
65	0x3b2d948c	0.0026486246
66	0xbca2ddea	-0.019881207
67	0x39ed7b2b	0.0004529593
68	0x3c0ee64e	0.008721901
69	0xbc008ce9	-0.007846096
70	0xbd2edce2	-0.04269112
71	0xbdb18cde	-0.086694464
72	0xbcb21e14	-0.021742858
73	0xbd4a32d1	-0.04936487
74	0xbd571b71	-0.052516405
75	0x3d885e28	0.06658584
76	0xbbd037f6	-0.0063543273
77	0xbd9605fb	-0.073253594
78	0xbd71ea8b	-0.05906157
79	0x3d015c3e	0.03158211
80	0xbd13bad6	-0.036066853
81	0x3e06a21a	0.13147774
82	0x3d287bce	0.041133694
83	0xbd52bf66	-0.051452063
84	0xbd8dfc29	-0.06932861
85	0xbd301df8	-0.04299733
86	0xbdc4c1f3	-0.096073054
87	0x3d91c972	0.07118501
88	0xbd979350	-0.074011445
89	0x3d61294a	0.054971017
90	0xbd6ab5e9	-0.05730239
91	0x3d09fbb4	0.03368731
92	0x3d19665e	0.03745114
93	0x3d3fb46c	0.046802923
94	0x3d5c278b	0.05374865
95	0x3da02a2d	0.078205444
96	0x3dcb881e	0.09938072
97	0x3e0ab918	0.1354717
98	0xbbb0edee	-0.005399457
99	0xbd28037d	-0.04101895
100	0xbd87f49e	-0.06638454
101	0xbc31328d	-0.010815275
102	0x3ca22899	0.01979475
103	0xbd39678c	-0.045264766
104	0xbda44daf	-0.080226295
105	0x3c078f18	0.008273862
106	0x3dfc3f04	0.12316707
107	0x3df2e29e	0.1185963
108	0xbc9dfdbd	-0.01928603
109	0x3deb98e0	0.11503768
110	0xbd97264d	-0.07380352
111	0xb994308d	-0.00028264933
112	0xbd914acf	-0.07094347
113	0x3dde122a	0.10843308
114	0xbd8648f8	-0.065568864
115	0xbc2bdbdf	-0.010489433
116	0xbd5219a9	-0.051294003
117	0x3dd89d0b	0.105768286
118	0xbd798472	-0.060917325
119	0x3d863135	0.06552354
120	0xbd875208	-0.06607443
121	0xbd593cd7	-0.053036537
122	0x3d971933	0.07377853
123	0x3df1b184	0.118014365
124	0x3cb411c0	0.02198112
125	0x3deee761	0.11665226
126	0x3dc98ddf	0.09841513
127	0x3dcb6b3e	0.09932564
128	0x3dc01841	0.09379626
129	0xbb730c4e	-0.0037086192
130	0x3d16812d	0.036744285
131	0xbd56269e	-0.052282922
132	0x3d291b59	0.041285846
133	0x3daae172	0.083437815
134	0xbc03387b	-0.008009071
135	0xbd8936d8	-0.06699914
136	0xbd25ca8c	-0.040476367
137	0x3d9c2b9e	0.07625507
138	0xbd48ee12	-0.049055167
139	0x3dd82486	0.10553841
140	0xbc8f3c86	-0.017484915
141	0xbc601990	-0.01367797
142	0x3c4da9b8	0.012552671
143	0xbcad5e1d	-0.02116304
144	0xbd75d539	-0.060017798
145	0x3cd54e8b	0.026038429
146	0xbd020403	-0.031742107
147	0x3da55b59	0.08074064
148	0x3c406a34	0.011744071
149	0x3c9b2112	0.018936668
150	0x3d97e960	0.074175596
151	0x3ddefd5e	0.1088817
152	0xbd10994e	-0.035302453
153	0xbc082ebb	-0.008311923
154	0xbc75d790	-0.015005007
155	0x3dd6bb4e	0.10484944
156	0x3c82dc77	0.015974266
157	0xbb478f77	-0.0030450502
158	0xbc8081eb	-0.01568695
159	0xbad9db16	-0.0016621079
160	0xbda4ed1c	-0.080530375
161	0xbd84c046	-0.06481986
162	0x3d74b7dd	0.05974566
163	0x3cf0fbe7	0.029416991
164	0xbd4ba29b	-0.04971562
165	0xbd835b55	-0.064139046
166	0xbc313e00	-0.010818005
167	0x3d8f61cf	0.070010774
168	0x3dbec552	0.093149796
169	0x3ddda3fd	0.10822294
170	0x3ce5262b	0.027972301
171	0x3e01f727	0.12691937
172	0x3de28721	0.1106093
173	0xbba55ed0	-0.005046703
174	0xbcefc391	-0.029268058
175	0x3b2f06e0	0.0026706979
176	0x3dbdc58f	0.09266197
177	0xbccc5be4	-0.02494616
178	0xbd129150	-0.035783112
179	0x3bd34738	0.006447699
180	0x3da90e71	0.082547076
181	0x3d88e32f	0.06683957
182	0x3ddf77ab	0.10911497
183	0x3d787b50	0.060664475
184	0xbc1caf2a	-0.009563247
185	0xbd972397	-0.07379835
186	0x3db6224a	0.08893259
187	0xbd3d2ebd	-0.04618715
188	0xbddde5a9	-0.1083482
189	0xba9a529c	-0.0011773887
190	0x3cda773a	0.02666818
191	0xbd5ece24	-0.05439581
192	0x3dc3598e	0.095385656
193	0x3db69d47	0.08916717
194	0x3bb86b7d	0.005628048
195	0x3bf8d3fc	0.00759363
196	0xbd8ed8e8	-0.06974965
197	0x3daf6178	0.085635126
198	0x3db1f1f9	0.08688731
199	0xbdb93f3f	-0.09045266
200	0xbcf3a3ca	-0.029741187
201	0x3d03742a	0.032093205
202	0xbd69ce3e	-0.057081454
203	0xbd485138	-0.04890558
204	0x3d5f3554	0.054494217
205	0x3c7ce626	0.015435731
206	0xbe1f4935	-0.1555527
207	0x3dcee1e6	0.101016805
208	0xbd219f99	-0.039458845
209	0xbd9b750e	-0.07590686
210	0x3d143331	0.036181632
211	0xbe013d3f	-0.1262102
212	0x3e035f46	0.12829313
213	0x3ca865fb	0.02055644
214	0xbc1de71e	-0.009637622
215	0x3d78b9ca	0.060724057
216	0xbcbd8fda	-0.023139883
217	0xbd9f1216	-0.077671215
218	0x3d954038	0.072876394
219	0x3dfb09b0	0.12257707
220	0xbd895714	-0.06706062
221	0x3df18a2d	0.11793933
222	0xbd7111c2	-0.058854826
223	0x3da11d8e	0.07866965
224	0xbd3e00fd	-0.04638766
225	0x3c11ee1b	0.008906866
226	0xbcf7a70a	-0.030231018
227	0x3de63190	0.11239922
228	0x3d96013d	0.07324455
229	0x3d084d5a	0.033276893
230	0x3d881684	0.066449195
231	0xbd57d1d1	-0.05269033
232	0xbd4a8d3c	-0.049451098
233	0x3ddf75e7	0.1091116
234	0x3dc5cbdd	0.096580245
235	0x3d734e45	0.059400816
236	0xbbe61570	-0.0070215985
237	0xbd17b3ec	-0.03703682
238	0x3e0a380f	0.13497947
239	0x3c822093	0.015884673
240	0xbd8a9de9	-0.067684
241	0x3de55a32	0.11198844
242	0x38260204	3.957936e-05
243	0xbdac29eb	-0.08406433
244	0xbcf6834f	-0.03009191
245	0xbd5d0a01	-0.05396462
246	0x3b73d16b	0.003720368
247	0x3cbccaf8	0.023046002
248	0x3c5520bf	0.013008296
249	0x3db5d484	0.08878425
250	0xbd5523d9	-0.05203614
251	0x3dfce81d	0.123489596
252	0xbd570bdb	-0.05250154
253	0xbd71be93	-0.059019636
254	0x3d00bf1e	0.031432264
255	0x3dda00f4	0.10644713

layers.2.lin_self.weight f4 [96, 96]
0	0xbc905f69	-0.01762362
1	0xbc9b7074	-0.01897452
2	0x3c96bd34	0.018400766
3	0x3d0205f6	0.031743966
4	0xbd4d7a7f	-0.05016565
5	0xbdd44bc0	-0.10366011
6	0x3da3e458	0.080025375
7	0xbc8242c1	-0.015900971
8	0xbd8d5e6d	-0.06902776
9	0x3d2dff8b	0.042480033
10	0x3bcdfed5	0.006286482
11	0xbd2fd7e7	-0.04293051
12	0x3c03d6db	0.008046831
13	0x3d9f037c	0.077643365
14	0x3d00c55a	0.03143821
15	0x3d89ff24	0.06738117
16	0xbd51d951	-0.05123264
17	0xbc922eb0	-0.017844528
18	0xbd99da8b	-0.07512387
19	0x3d28f01e	0.04124462
20	0xbda9f57e	-0.08298777
21	0xba896f1f	-0.0010485387
22	0xbda87876	-0.08226101
23	0xbcd2a6c6	-0.02571429
24	0xbd165b9f	-0.03670847
25	0x3d6cf64b	0.05785207
26	0xbca223d4	-0.019792475
27	0x3ce4504b	0.027870318
28	0xbd0b96f1	-0.034079496
29	0xbd52358f	-0.05132061
30	0x3cb62e4d	0.022238875
31	0x3cc5d973	0.02415154
32	0xbd0b534f	-0.034014996
33	0xbd5bfe50	-0.05370933
34	0x3d518c2b	0.051159065
35	0x3c3ba66d	0.011453253
36	0x3d158310	0.036501944
37	0x3cc1cca3	0.023657149
38	0xbdbf6013	-0.093444966
39	0x3decc853	0.11561646
40	0xbc6aa342	-0.01432115
41	0xbd297e17	-0.041380014
42	0xbd310c59	-0.043224666
43	0xbd0ac604	-0.03388025
44	0x3e261229	0.16217865
45	0xbd800bfd	-0.062522866
46	0xbdccdc77	-0.10002988
47	0x3d1935a5	0.037404675
48	0xbdcbcd41	-0.099512585
49	0x3db2d76d	0.087324955
50	0x3d428e77	0.047499146
51	0x3d9acd5e	0.07558702
52	0xbd4a82c6	-0.04944112
53	0x3db16f7f	0.08663844
54	0x3d147bc2	0.036250837
55	0x3d97dea2	0.07415511
56	0xbcb32bf5	-0.021871546
57	0xbd296f85	-0.04136612
58	0x3dc3b293	0.09555545
59	0xbd35bdab	-0.044370335
60	0xbb4407b8	-0.0029911827
61	0x3d930617	0.07178896
62	0x3d66cd32	0.056348033
63	0x3ca5a140	0.020218492
64	0xbd05c126	-0.032654904
65	0x3d3badc4	0.045820013
66	0xbd22ec91	-0.03977639
67	0xbd62bc95	-0.055355627
68	0x3c240932	0.010011958
69	0x3c97f94d	0.018551493
70	0xbdba27be	-0.090896115
71	0xbca69278	-0.020333514
72	0xbd0a7944	-0.033807054
73	0xbc1ae84b	-0.009454797
74	0x3db2153e	0.08695458
75	0xbd98c226	-0.07458906
76	0xbd59ef8b	-0.05320696
77	0x3dc5cfdf	0.09658789
78	0x3ca7bf32	0.020476911
79	0xbd5f47ed	-0.054511953
80	0x3aa677dc	0.0012700516
81	0xbd584776	-0.052802525
82	0xbb911944	-0.0044280607
83	0x3bfae50d	0.0076566995
84	0x3c2678c9	0.010160633
85	0x3d65fc5e	0.05614888
86	0x3dc1958a	0.094523504
87	0x3d13ef06	0.036116622
88	0x3b464ab8	0.0030256938
89	0x3d995870	0.07487571
90	0x3e07d904	0.13266379
91	0xbd66aa16	-0.05631455
92	0xbd9831b2	-0.07431354
93	0x3a8916fc	0.001045912
94	0xbd3ded8f	-0.04636913
95	0x3d3088c3	0.043099176
96	0x3e0f31b1	0.139838
97	0x3c2f4286	0.010697013
98	0xbce0b268	-0.02742882
99	0x3d020eba	0.031752326
100	0xbdbd4b21	-0.09242845
101	0x3d29373a	0.041312434
102	0xbd223c3a	-0.039608218
103	0xbda671e7	-0.08127194
104	0xbcf422c8	-0.029801741
105	0x3e1e933b	0.15485851
106	0xbd5c9006	-0.05384829
107	0xbc7e7561	-0.015530915
108	0x3e05bed1	0.13061072
109	0xbcb14cf8	-0.021643147
110	0x3d06b211	0.03288466
111	0x3d4d6864	0.050148383
112	0x3d0c96e7	0.0343236
113	0x3ce3f2aa	0.027825672
114	0x3db08ddb	0.08620807
115	0xbdbda7cc	-0.0926052
116	0xbd410dcc	-0.0471323
117	0x3d82437f	0.0636053
118	0xbdb24490	-0.087044835
119	0xbc9aee78	-0.018912539
120	0x3c969878	0.01838325
121	0x3b9d1903	0.0047942414
122	0x3c286dcf	0.010280087
123	0xbd714016	-0.058899008
124	0x3d468367	0.04846516
125	0xbda74e96	-0.08169286
126	0x3b0c9f2a	0.0021457174
127	0xbc5fb01f	-0.01365283
128	0x3d965755	0.07340876
129	0xbdc5bc35	-0.09655038
130	0x3c26085a	0.010133827
131	0x3db59af2	0.08867444
132	0x3dc0d61c	0.09415838
133	0xbc88932a	-0.016671736
134	0x3d5edafa	0.05440805
135	0x3d3b7d1e	0.045773618
136	0x3da3cb5e	0.079977736
137	0xbd8f3d53	-0.069941185
138	0xbd79fe3f	-0.061033484
139	0x389a52cd	7.358715e-05
140	0x3ce3a4f8	0.027788624
141	0x3d6a7a0a	0.05724529
142	0xbd518b04	-0.051157966
143	0x3d70ce55	0.058790524
144	0xbdc323b9	-0.09528298
145	0xbd875103	-0.06607249
146	0xbd596325	-0.053073067
147	0x3c378fc0	0.011203706
148	0x3daeb43e	0.08530472
149	0x3d00dee6	0.031462573
150	0xbda85f39	-0.08221287
151	0xbde9551f	-0.11393189
152	0x3cf6b2fb	0.030114641
153	0x3d2f599b	0.042810064
154	0x3d842377	0.06452077
155	0xbdb877b0	-0.090072036
156	0xbda6629e	-0.081242785
157	0x3e07c2b5	0.13257869
158	0x3dad1af6	0.08452408
159	0xbb98b1ec	-0.004659882
160	0xbde5b248	-0.11215645
161	0x3e1df9eb	0.15427367
162	0x3d1add33	0.03780861
163	0xbd5ca6e0	-0.053870082
164	0xbd258927	-0.040414
165	0x3d5c330a	0.053759612
166	0x3d9f3b11	0.07774938
167	0x3c055fc9	0.008140513
168	0x3d53459f	0.051580068
169	0x3cf112bf	0.029427884
170	0xbd7406d8	-0.05957684
171	0xbdde23f3	-0.108467005
172	0x3d5a727f	0.05333185
173	0xbd53f94f	-0.05175143
174	0x3d15ef50	0.03660518
175	0x3d49a8ba	0.049233176
176	0xbbb273d4	-0.0054459367
177	0xbd95bb71	-0.07311142
178	0x3dab998b	0.08378895
179	0x3c4d1489	0.012517103
180	0x3da96ef9	0.082731195
181	0x3dfc2bcb	0.1231304
182	0x3da59ac1	0.080861576
183	0x3da70882	0.081559196
184	0xbca23a50	-0.019803196
185	0x3d7ce70a	0.061743774
186	0xbd4c6449	-0.049900327
187	0x3a5b92e2	0.0008376074
188	0xbd948f7a	-0.072539285
189	0xbda806f4	-0.08204451
190	0x3d21ad64	0.039472
191	0xbd7368a5	-0.05942597
192	0xbc8ffb88	-0.017575994
193	0xbdcdabb7	-0.10042518
194	0xbd76d43b	-0.060260992
195	0x3d000e8a	0.031263866
196	0x3db00454	0.085945755
197	0x3ca531c9	0.020165341
198	0xbc5f1f81	-0.013618351
199	0xbd8270f0	-0.06369197
200	0xbd8dd696	-0.06925695
201	0xbd68b82f	-0.056816276
202	0x3d90f1d5	0.07077376
203	0xbd32244d	-0.04349165
204	0x3d20e864	0.039284125
205	0x3d0924df	0.03348243
206	0xbd8d8dae	-0.06911789
207	0xbd7d0bee	-0.061778955
208	0xbd15e2f5	-0.036593396
209	0xbda15cc1	-0.078790195
210	0x3dc1d5f8	0.094646394
211	0xbd673ed7	-0.056456413
212	0xbdbc4dab	-0.091945015
213	0xbd9bb73d	-0.07603309
214	0x3b6f0e4f	0.0036477034
215	0x3dc3ad4b	0.095545374
216	0xbdc18611	-0.09449399
217	0x3c30cbc6	0.010790771
218	0xbba62e03	-0.005071403
219	0xbc0b8887	-0.008516437
220	0x3c80f15e	0.015740093
221	0xbd3b6620	-0.04575169
222	0x3d0ac58c	0.0338798
223	0x3cb8427d	0.022492642
224	0x3da7d6c9	0.08195264
225	0x3da66996	0.08125608
226	0x3cb20cb0	0.021734565
227	0xbd733032	-0.059372135
228	0xbbab2772	-0.005223208
229	0xbdaa784f	-0.08323728
230	0x3cf90ef4	0.030402638
231	0x3cef24de	0.029192384
232	0xbbabdee9	-0.005245079
233	0xbdd05208	-0.10171896
234	0xbd8996d6	-0.06718223
235	0x3d3f6e57	0.046736088
236	0x3da48810	0.08033764
237	0xbd8a6e61	-0.06759334
238	0xbd928251	-0.07153762
239	0x3c5c136c	0.013432365
240	0x3d38f9e1	0.045160178
241	0xbd0e9185	-0.034806747
242	0xbc79d94b	-0.015249561
243	0x3db242e7	0.08704167
244	0xbd41cd53	-0.047314953
245	0x3d257bf6	0.04040142
246	0xbc9ec292	-0.019379888
247	0x3d9bcbf1	0.07607258
248	0x3d123db6	0.035703383
249	0x3d029426	0.031879567
250	0x3d997892	0.074937
251	0xbc03ed8c	-0.008052241
252	0xbd127883	-0.03575946
253	0xbda2ff78	-0.07958883
254	0x3db306bb	0.08741518
255	0x3d75bdd4	0.059995487
