outputs/models/nowcast_10_nolags_seed123.pt (torch, 272575 bytes, 14 tensors)

in_lin.weight f4 [96, 15]
00000000: 5b06 fdbd a8c6 1dbc 6644 16be 1de2 a13d
00000010: 9847 61be 4ad0 413e 0b1c 53be 40e2 64be
00000020: 7611 27be 747c ef3d 5e62 c3bd 69ad a03d
00000030: 262c 5fbe 354c 31be 8068 f9bd 3533 0ebd
00000040: 6059 62be 4988 3d3e 2146 aebd 4abc a93d
00000050: 37f7 3a3e 7f48 833d dfb1 3e3d d135 7f3e
00000060: 677d eebd cc7e a73d 7242 0ebe 713a 1a3e
00000070: c96d 303e b580 30be ad74 733e b642 a63d
00000080: 04f8 043e c470 833d b8ca 5b3e 8aa4 0bbd
00000090: da31 60be b68c a9bd 0935 3abe 99d3 8b3c
000000a0: 6775 45bd 7db9 16be 015a 8abd 1d7a 6d3e
000000b0: 4478 193d 9787 df3c a705 38bd 616d 743d
000000c0: eacc 663e 12ad 213e 58b3 bb3d e406 833d
000000d0: da57 0e3e 274a cc3d 1caa 08bd 4dbb 75be
000000e0: 5c01 a7bd a0cd 7c3e ef4b 5fbc 1714 74be
000000f0: bb2d c33b ed67 5e3e a8ac 8ebe 2e10 2ebe
00000100: 7299 d2bd 86cb 293c 97df 68bd 6012 903d
00000110: dce0 80be 379f f73d 4e12 683e a059 833e
00000120: 6cdb 0cbe eb82 74be ce58 023e f717 ecbb
00000130: 789e 213e 36a1 87be f6e1 153d a076 3a3e
00000140: f54f f53d 648f 7d3d 57db 613c 9543 c8bc
00000150: a45f 11be 72d4 c7bd 64e8 46be 9565 8c3e
00000160: f769 fc3d eee6 ac3c 483c 43be 25a2 3e3e
00000170: ead4 b43d 6f85 293e 7105 d0bd 4a34 603d
00000180: cf8b 7f3e 3d89 763e 610b 543e 8613 5ebd
00000190: e16f 493e de61 0abe 2b7e 1c3d 102e 22be
000001a0: 4aff 96bd d2b2 86bd acef 5abc 20fe 703e
000001b0: b7d4 c23d 6c5d 8fba 1aae 3b3e bcaf 16be
000001c0: 6ed4 023e 1925 c4bc e807 38bd 2fa1 f73c
000001d0: 14fc 4fbe 05b2 daba 73ce ab3d 37bb 773e
000001e0: cc86 82bd dd3d aa3d c4a8 8c3e 12fe f6bd
000001f0: 1f55 7b3e 3545 03be cbaf f03d 3f96 463e
00000200: cfb4 933d bc15 513e f9b7 d5bd 1083 243e
00000210: 1f3a b23c 17f1 5cbe 1a31 20bd 81e8 47be
00000220: b6ee e23d ac1f dab7 5d90 b33c 786b a0bd
00000230: e0bb a23a 6f97 acbd 3489 e73d f462 803e
00000240: 4f31 203d 1b36 eabd 346b f3bd def3 363d
00000250: d85a 5dbe 7b03 4fbe 219e 49be 0b16 a0bd
00000260: aed6 1dbc dcd0 3f3e 5ad2 cc3d f88e 4a3e
00000270: 5293 1cbe 5da2 e73d 2604 6bbe 26ac 173e
00000280: 2469 5c3d cb9d ae3e 81c2 0abe 1114 373e
00000290: 1860 643e 4377 633e 090d 03bc 8f1a 7e3e
000002a0: 35cf 023e 9842 453e 2567 89bc 5f76 4dbe
000002b0: b931 a8bc 5456 463d 1f19 34be efaa 17be
000002c0: 749c 87be 21a0 04be c5c5 513e 522c b83d
000002d0: 2590 c4bb ba19 02bc 4ede 2e3e 0725 7cbe
000002e0: 4501 4cbe b6ce afbd 333c 0ebe 21fe ea3d
000002f0: 4fd1 3a3e 0243 80be 2163 60be 831a 8abe
00000300: 6038 e43d f4cc 3f3e 133a 5bbe a67f 17be
00000310: 8db6 8a3d 79de 49be 04cf 513e 5696 763d
00000320: f334 93bd 44a9 ca3a 92b0 1b3e d1fc babd
00000330: 58de 4cbe 2d7a e33a 8b26 9c3d 68c6 d73c
00000340: 5fb8 84bd 1ba7 493e e8a7 73bd 8410 41bd
00000350: f82a f33d c933 3dbe a396 8d3d 1fd9 69bd
00000360: 7d92 0b3e dcb1 26be 9258 1c3c dcec ce3c
00000370: 5abb 54be 84e9 56be 7276 c73d d40a bebd
00000380: 924d 443e 8576 8bbe c56b 14be 59ac 6bbe
00000390: 0a79 af3d 3249 f5bb 0643 45bd 4420 77bd
000003a0: 27e0 60be 6af6 953d 94e3 d23b 7f76 36be
000003b0: f88d a33d 9e3f 06bc e028 87be 6d5c 403e
000003c0: 61b3 ee3d 3fc1 8fbd 09b3 4cbe 0bbd 39bc
000003d0: f381 473e 0a03 723e 84ad 5dbe a0be 0dbe
000003e0: 6bdd 4d3e 193b 013e 12aa 233e c2a6 19be
000003f0: 2bbb 6a3e d5b7 6cbe 3ec3 c13c 00b0 94bb
-0.12354728 -0.009629883 -0.1467453 0.07904456 -0.21999967 0.18927112 -0.20616166 -0.22351933
-0.16315255 0.116936594 -0.095402464 0.07845575 -0.21794185 -0.17314227 -0.12178135 -0.034716804
-0.22104406 0.1850902 -0.0850947 0.082878664 0.18258367 0.06410312 0.04655635 0.24922873
-0.11645012 0.081784815 -0.13892534 0.15061356 0.1722938 -0.17236598 0.23774977 0.08118193
0.12985235 0.06417993 0.2146405 -0.034092464 -0.21894017 -0.082787916 -0.18184294 0.017068671
-0.048207667 -0.14719196 -0.06755448 0.23191114 0.03746821 0.027286334 -0.044927265 0.059674624
0.22539106 0.15788677 0.091650665 0.06397799 0.139007 0.09975081 -0.033365354 -0.23997231
-0.08154556 0.24687815 -0.013628944 -0.23835789 0.005956379 0.21719332 -0.278661 -0.1699836
-0.102831736 0.010363465 -0.056853857 0.07034755 -0.25171554 0.12090915 0.22663233 0.25654316
-0.13755578 -0.23878066 0.12729189 -0.0072050053 0.15783107 -0.26490182 0.036592446 0.18209314
0.11978141 0.061904326 0.013785205 -0.024446288 -0.1419664 -0.097573176 -0.19424587 0.2742125
0.12324899 0.02110621 -0.19065964 0.1861654 0.08829673 0.16554807 -0.10157288 0.054737367
0.24955676 0.2407579 0.20707466 -0.054217838 0.19671585 -0.13513896 0.03820626 -0.15837884
-0.07372911 -0.06577076 -0.013362806 0.23534441 0.095132284 -0.0010937876 0.18328133 -0.14715475
0.12776348 -0.02394347 -0.044929415 0.030228226 -0.20311004 -0.0016685134 0.083889864 0.2419251
-0.06373367 0.08312581 0.27472508 -0.12060179 0.2454419 -0.12819369 0.1175228 0.19393252
0.07212221 0.20418447 -0.104354806 0.16065621 0.02175623 -0.21576343 -0.039109327 -0.19522287
0.11080687 -2.6002373e-05 0.021919424 -0.07832998 0.001241561 -0.08427321 0.11305466 0.25075495
0.039109524 -0.11436101 -0.11885682 0.044666164 -0.21616685 -0.20216171 -0.19689228 -0.07816704
-0.009633703 0.18732017 0.10001059 0.19781101 -0.15290573 0.11310265 -0.22950801 0.14811763
0.053811207 0.3410476 -0.1355076 0.17878748 0.22302282 0.22213463 -0.007998713 0.24814819
0.12774356 0.19263685 -0.016772816 -0.20064686 -0.020531522 0.048422173 -0.17587708 -0.148113
-0.26486552 -0.1295171 0.204856 0.089928284 -0.0059986287 -0.007940704 0.1707699 -0.246235
-0.1992236 -0.08584349 -0.13890152 0.114742525 0.18243907 -0.25051123 -0.21912815 -0.26973352
0.11143565 0.18730527 -0.21408872 -0.14794788 0.067731 -0.19713773 0.20489126 0.060201965
-0.07187834 0.0015461822 0.15204075 -0.09130252 -0.20006692 0.0017355137 0.07624539 0.026339725
-0.064804785 0.19692652 -0.0594863 -0.04713489 0.1187343 -0.18476786 0.06913497 -0.05709183
0.136301 -0.16278785 0.009542601 0.025259428 -0.20774594 -0.20987517 0.097393885 -0.09279409
0.19170216 -0.2723886 -0.14494236 -0.23014964 0.08568008 -0.007485532 -0.04815962 -0.060333505
-0.21960507 0.073223904 0.006435821 -0.1781864 0.07986063 -0.008193878 -0.26398373 0.18785258
0.116553076 -0.07019281 -0.19990171 -0.011336575 0.19483165 0.23633972 -0.21648222 -0.13842249
0.20103996 0.126202 0.15982845 -0.1500502 0.22922961 -0.23117001 0.023652669 -0.0045375824

in_lin.bias f4 [96]
00000000: 3875 5dbe d75b 6bbe ea5d 11be 51f1 2c3e
00000010: d9c3 17be 3412 503e 663a 793c e6e8 023e
00000020: 07c9 173e 4222 5d3e cc22 313e 500c 873e
00000030: 06a9 0ebd e0d3 e6bd 7009 e13d 5da4 663e
00000040: 1565 71bd ef5b 833e 7d76 6d3e aee2 113e
00000050: 5d39 813e 4f8e 143d 4833 173e 1bf0 59be
00000060: 2aac c33d c17e c63d 13b2 c73d 1878 083e
00000070: fb85 99bd a3b7 433e da63 833e 7646 22be
00000080: 39a4 3dbd 09ec ce3d f879 d33d 2704 e9bd
00000090: 9868 713c d6f9 50be e1c2 39be 4338 3c3e
000000a0: 5780 493e d77f 343e 2957 41bc 2007 363e
000000b0: b927 eabc 79d1 c23d a486 2e3e 444a 3d3e
000000c0: d9dd 513d 5d84 3dbd 41fa a53c cac4 0d3e
000000d0: c58b 593e 3819 69be 8130 403a 5855 54be
000000e0: 8ec7 9e39 bd56 be3d 897c 27be d8eb 80bd
000000f0: f83a 52be f670 cc3d fb83 b73d ac12 2c3d
00000100: 7e37 083e a560 e53d 68f2 71bd 70ef 4f3e
00000110: 70de 6abe 8dbd 4cbe 4d37 2fbe 47b9 e83c
00000120: 6917 4bbe ef64 463d 40e2 35bc 5a5f 52be
00000130: a716 853e bfba 01bd a7f1 453e 3e12 813e
00000140: db80 88bd ae0a 3abd e7b1 8c3e 86b2 ee3c
00000150: 1f59 753e ccb0 b63d 2fb0 173e a5be 44be
00000160: 41c9 c2bc 1f6c 503e 3e58 8f3b a397 4bbe
00000170: ec26 593d 222a 543d 8827 2ebc 9a4a 1f3e
-0.21626747 -0.22984253 -0.14195982 0.1688893 -0.14820804 0.20319444 0.015211677 0.12784156
0.1482278 0.215951 0.1729843 0.2637658 -0.034829162 -0.11270881 0.10988128 0.22523637
-0.05893429 0.25656077 0.23189731 0.14246628 0.25239077 0.03626853 0.14765656 -0.21282999
0.09554322 0.09692145 0.09750762 0.13327062 -0.07496258 0.1911302 0.25662118 -0.15847191
-0.046299193 0.10103614 0.10325998 -0.11377745 0.01473441 -0.20407805 -0.18140747 0.18380837
0.19677864 0.17626892 -0.011800566 0.17776155 -0.028583394 0.0951261 0.17043549 0.18485361
0.05123696 -0.04626881 0.020260932 0.138446 0.21244724 -0.22763526 0.00073314464 -0.20735681
0.00030284788 0.09293888 -0.163561 -0.062949836 -0.20530307 0.09982483 0.0896072 0.042009994
0.13302419 0.11200074 -0.059069067 0.20306182 -0.22936416 -0.19994183 -0.1711094 0.02840866
-0.19833149 0.0484361 -0.0111013055 -0.20544186 0.25993845 -0.031672236 0.19330464 0.2520923
-0.06665202 -0.04542034 0.2747948 0.029137861 0.23959778 0.0892044 0.14813302 -0.1921335
-0.023777606 0.20353745 0.004374533 -0.19882064 0.053015634 0.051797993 -0.010629542 0.15555802

layers.0.lin_self.weight f4 [96, 96]
00000000: 70af 453d e375 66bd dfa1 09bd 9188 5ebd
00000010: d470 ed3d ab91 cebd 28ad 29bd 132c 2ebc
00000020: 809d dc3d 770e 9b3d 3710 54bc 0397 ddbd
00000030: d1f9 973d c272 b1bc e24c c5bd c4c5 0dbc
00000040: 380e 843d 0b7e 8db9 7801 c03b bb96 00bd
00000050: fcb9 a03d 01e4 0f3e ef90 fc3d e0dc b33d
00000060: 4c72 c0bc 2fed b0bd 2c73 d43b cfc4 133d
00000070: 1e72 2c3b 323c fd3c 7f37 cfbb d42a 3dbc
00000080: 9a3a bcbc f30a ad3d 765d 993c bf41 5a3d
00000090: 7458 b73b c772 0b3d 0125 1c3c 3a28 37bc
000000a0: dbb1 073d aaf3 8dbd 0187 9e3d e802 0ebd
000000b0: ba3a febd 40d5 40ba f5dd 2c3c e4ea 8e3c
000000c0: bade ccbc 584c 1fbc 51f5 ef3c 2e1f f43c
000000d0: 87cc c7bd 6264 593d 9c6e 903d 1c92 993d
000000e0: a5c4 55bd fb74 413d 5464 f33d f0a0 0cbd
000000f0: 0987 a6bd 3dec 9fbd 5802 2cbb f1b1 c4bd
00000100: 8b86 fcbd 3b23 ea3c 654d 12bd bff2 43bc
00000110: 5085 3f3d ded7 a13d b368 c93d 3f7d a1bd
00000120: 9809 48bd 8e6c 9b3d 5816 193e c4fb 183e
00000130: 6b8b 323c 47ca b93d 9d44 073d c6cf 9cbd
00000140: 5a77 97bd fb2b 84bd b726 6a3c 2f59 95bd
00000150: d7f8 0e3d f62e 063d ae0b 2f3b dc7f b53b
00000160: 0386 013e a185 cc3d 83d7 eb3b f9a1 293d
00000170: f3d9 f2ba d149 523d 7e6a 92bd e49e e53d
00000180: a9ef db3c 7571 40bd 262b ffbc 14ca d5bc
00000190: 647a e7bd f563 4639 9294 b1bd 0258 503d
000001a0: e8a7 1abd ca84 393d 9ea2 b3bd 2a93 f2bc
000001b0: 5293 d4bc c18f 483b 4a96 70bd b7c6 87bd
000001c0: e656 623d 4d1a 99bd a24a e63d 418c 503d
000001d0: 407e 973d 0703 0d3d c500 a0bd ef7e 373c
000001e0: 3bc8 c93c 0c73 d93d 32bd 7bbd 83f7 cdba
000001f0: c81e 303d 6094 8c3d 6152 a1bd c64f e43d
00000200: 3f21 f53d ced0 c83d c47b 88bc 77f2 78bd
00000210: f006 473d a235 ac3d ca64 ae3d 38fb 4cbd
00000220: bde8 bd3d 4125 93bb 88d8 a4bd 3a6b 103d
00000230: 8763 a23d f28d 2a3d 4571 14bd d336 ed3d
00000240: 2a57 2dbc ce20 bf3c 589c 0bbd 2ef0 b2bd
00000250: 0f20 2c3c 8e9c 823c c7e0 383b 8a46 4abd
00000260: 8ee0 e03d ac89 483b dbfa d3bd c445 feba
00000270: 081b 70bb a726 af3d 5f3a da3d e2a6 563d
00000280: 95ad ff3d f2e3 aa3d 55d6 243d c547 b33d
00000290: 9af5 4d3d 2ee2 e83c d879 e23d 20c6 903c
000002a0: 5f66 c7bd e4e4 96bd 4a61 163d ec8b aebd
000002b0: ef64 8f3d 3f20 6fbb c4a5 c1bd 6116 62bc
000002c0: 1a60 5a3d 4ffe 803c 805f 6c3d 5f04 cabb
000002d0: 3643 06bd 9a44 573c 7a15 f2bd 1ae4 68bb
000002e0: d64b 013c acdd 363d e725 a4bc 193d 513d
000002f0: 04e4 afbb 7178 8ebc 9da8 243c 0dc1 a73d
00000300: de2c 463c c1d6 82bd 5005 92bd e900 21bc
00000310: 0e92 933d 4c64 efbd 534a d2bd 2950 183d
00000320: 2359 543d 0606 91bd 0019 ac3a 821b 933d
00000330: d5ce 95bd 22de 9d3d fbc7 88bd a97f 263d
00000340: 5445 40bc a848 df3c 628c 133d b4c0 353b
00000350: 843e d3bd b866 5d3d c6d1 533d a84e 8e3b
00000360: 2eb4 363d 7ff6 c93d d3a4 1cbd 6bae c1bb
00000370: 4ba8 743d 3f47 4f3d 7c73 1ebd c26d d1bd
00000380: ef2d cfbd 4c80 9e3c 1026 d8bd 7ff6 df3d
00000390: 66d1 7d3d ca62 b63c a18a 5cbd ce8d c8bd
000003a0: 6337 873d c449 60bd a2e4 bd3d a184 0c3e
000003b0: 9fb9 c1bd 71b9 0f3d c57a 2cbc 092b 163d
000003c0: c1b6 4d3d dcd2 313b ba69 123d 7d62 d3bb
000003d0: 1895 30bc a3d3 1e3d 7c1b a63d 11bc 163e
000003e0: 95f5 05bd 250d 843d 8df6 8fbd d050 a6bd
000003f0: 3cff c4bd 6467 46bd e6d0 a23d 0ebf c1bd
0.048263013 -0.05626477 -0.033601638 -0.05432946 0.11593786 -0.10086378 -0.0414249 -0.010630625
0.10772228 0.07571118 -0.012943319 -0.10819819 0.074206956 -0.021661166 -0.09633805 -0.008653108
0.064480245 -0.00026987525 0.00585955 -0.031393748 0.07847974 0.1405182 0.123323314 0.08782363
-0.023492001 -0.08638989 0.006483456 0.036076363 0.0026313136 0.030912492 -0.0063237543 -0.011545856
-0.022977162 0.08449354 0.018721323 0.053285357 0.005595261 0.034045007 0.009530307 -0.011179024
0.0331286 -0.06931241 0.07740594 -0.03467074 -0.12413545 -0.00073559955 0.010550966 0.017445989
-0.025008548 -0.009722792 0.02929178 0.029800024 -0.09755807 0.053074248 0.07052347 0.07498571
-0.052189488 0.047230702 0.118843704 -0.03433317 -0.08131225 -0.07808731 -0.0026246514 -0.09604252
-0.123303495 0.028581252 -0.03571834 -0.011959731 0.046757996 0.079025015 0.09834423 -0.07885217
-0.048837274 0.075890645 0.1494993 0.14939791 0.010897498 0.090717845 0.03302442 -0.07656817
-0.073958114 -0.06453701 0.014291457 -0.07292401 0.03490528 0.03275963 0.0026709842 0.0055389237
0.12648778 0.09986425 0.007197322 0.041414235 -0.0018528089 0.051339928 -0.07149218 0.112119466
0.026847677 -0.0469832 -0.031148504 -0.026097335 -0.11302641 0.00018919988 -0.08670916 0.05086518
-0.037757784 0.045292653 -0.08771251 -0.029611189 -0.025949154 0.0030603262 -0.058737077 -0.06629699
0.055258654 -0.074757196 0.11244704 0.050915007 0.07397127 0.034426715 -0.07812647 0.011199697
0.02463161 0.106176466 -0.061459728 -0.0015714023 0.042998105 0.06864238 -0.07877041 0.11148028
0.11969232 0.09805451 -0.016660579 -0.060778107 0.0485906 0.08408667 0.08515318 -0.05004427
0.09272907 -0.004490525 -0.080491126 0.03525851 0.079291396 0.041639276 -0.036240835 0.115827225
-0.010579864 0.023331072 -0.034084648 -0.08737217 0.01050569 0.015943792 0.002821015 -0.049383678
0.109803304 0.0030599637 -0.10350581 -0.0019399454 -0.0036637206 0.08552294 0.10655665 0.052405246
0.1248428 0.08344258 0.040243465 0.08753923 0.050283052 0.028428163 0.11058396 0.017672598
-0.097363226 -0.07367876 0.036713876 -0.08522782 0.070016734 -0.0036487726 -0.094554454 -0.013799281
0.053314306 0.015746264 0.057708263 -0.006165072 -0.03277894 0.0131389145 -0.118205026 -0.003553635
0.007891616 0.044644997 -0.020037604 0.051083658 -0.0053677578 -0.017391415 0.010049966 0.081911184
0.012095658 -0.06388617 -0.071299195 -0.009826877 0.07205592 -0.11689052 -0.102680825 0.03718582
0.05184282 -0.07081227 0.0013130009 0.07182981 -0.07314841 0.07708384 -0.06678768 0.04064909
-0.011735279 0.027256325 0.03602255 0.0027733268 -0.10314658 0.05405304 0.051713727 0.0043428726
0.044605426 0.098614685 -0.038243126 -0.005910685 0.05973081 0.050605055 -0.038684353 -0.10226013
-0.10116183 0.019348286 -0.10554135 0.10935687 0.061967276 0.022263903 -0.053843144 -0.09792672
0.06602361 -0.05475785 0.09272124 0.13722469 -0.094592325 0.03508896 -0.010527317 0.036662135
0.050223116 0.0027133739 0.03574536 -0.0064509497 -0.010777734 0.03877605 0.08110711 0.14720179
-0.03270491 0.064478196 -0.07029448 -0.081208825 -0.096189946 -0.048438445 0.079500005 -0.09460269

layers.0.lin_self.bias f4 [96]
00000000: dd53 c53d b12c c8bc 9016 0bbc 6f44 12bb
00000010: 935e 56bb 8cf6 c43c 38ba 683d 87da a3bb
00000020: 460a 643d f5e6 d9bb 8464 c73d 995a 413d
00000030: afe2 7bbd 3fdf 6d3d 7b4d 003d 1bc7 2e3d
00000040: 8a4e 2cbd 29ac 8ebd 8358 03bd 8e9b c53d
00000050: 5953 9f3d f28a 3dbd 4837 74bc 42d7 0a3c
00000060: 9dea 37bc 9323 e13c 1848 75bd 8032 ba3d
00000070: 5626 8abd 4f6a 18bd 7012 92bd 6a1e 7bbd
00000080: a777 753b 2685 c63d fed9 9f3b e4e3 3dbc
00000090: 6d22 b13d 3901 23bd c468 8d3d aac9 92bd
000000a0: 6a79 09bd 42c7 8b3d ddc2 b0bd 3ec3 9fbd
000000b0: 8149 dcbc e6cb 2dbd 4e4a 31bd e0f9 823d
000000c0: baed 63bc af7d da3d 2706 883c 08aa 7fbd
000000d0: e858 09bd 4f4e f93d 0d7e 5d3d 90f5 e23d
000000e0: ef71 8fbd 1215 14bd a682 e23d ca89 953c
000000f0: b0dd 183d 4fb0 50bb 0177 f6bc ed9c 98bd
00000100: 5a11 30bd 92ea 5dbd ca23 a4bd e393 c63d
00000110: c76b 0fbb 3ab8 3e3d 792c 7b3d 6fbc c03d
00000120: 4d83 46bd 92a8 4b3d f858 cf3d b36a 34b9
00000130: 45c2 1dbd 8c33 073c 01fd a33d 17fc 6e3d
00000140: 13be 31bd 80ad 973c e998 9c3d 3994 8c3c
00000150: 6714 4dbd b830 ed3d 7c7c 5abd 7974 c23b
00000160: 9389 03bb 1c28 dc3c 7639 6fbd 6248 e43d
00000170: 3a8c 973d 85a7 33bd f9d0 a13d 553f c0bc
0.09635136 -0.024435373 -0.008489266 -0.0022318622 -0.003271018 0.024043344 0.056818217 -0.0050004157
0.05567386 -0.0066498467 0.09735969 0.04720554 -0.06149548 0.058074232 0.03132389 0.04267035
-0.04206709 -0.06966431 -0.032066833 0.0964881 0.07779569 -0.046275087 -0.014905758 0.008474173
-0.01122537 0.027482783 -0.059883207 0.09091663 -0.06745593 -0.03721076 -0.07132423 -0.061308302
0.0037455352 0.09693365 0.0048782816 -0.011589978 0.08649144 -0.039796088 0.06904748 -0.071673706
-0.033563055 0.06825115 -0.08630917 -0.07800911 -0.026890518 -0.04243078 -0.043283753 0.06395316
-0.013911659 0.106685035 0.016604496 -0.062418014 -0.033532053 0.12173139 0.05407529 0.110819936
-0.07004153 -0.036152907 0.110600755 0.01825418 0.037320793 -0.003184337 -0.030086042 -0.07451806
-0.042985298 -0.05417878 -0.08014639 0.09696176 -0.0021884309 0.04656241 0.06132171 0.09410941
-0.048465062 0.049721308 0.10124391 -0.00017205886 -0.038515348 0.008252036 0.08007241 0.05834588
-0.04339416 0.018515348 0.07646353 0.017160522 -0.050068285 0.11581558 -0.053341374 0.005934295
-0.0020071014 0.026874594 -0.05840441 0.111466184 0.07399793 -0.04386093 0.079011865 -0.023467699

layers.0.lin_neigh.weight f4 [96, 96]
00000000: d68b b1bc d9f4 cf3d 7fec 683d c27c babd
00000010: fc3f 1c3e 3163 acbd d6a0 c0ba 58a5 c5bc
00000020: 4f40 333d b096 033d 9912 103e fca2 53bd
00000030: c337 b03d b698 c83c a8b2 663d f10b af3d
00000040: 6148 1e3c 0d33 813d c534 cabb e40d 423d
00000050: 873c a0bd 7270 e33d 3ac4 7c3d f84c 58bd
00000060: 7acf f33a c400 c93d 7fad 1c3d 3ba5 0dbd
00000070: 07ca 683d 10b0 07bc 2573 333c 564a 9e3d
00000080: 16ec 183c 201f a03d 8af9 9cbd 9a7b 533d
00000090: 5528 b7bd ff76 283d 089a eb3d e7a1 de3d
000000a0: f669 5e3d fc92 99bd fb25 0b3e 0b81 a93c
000000b0: 1d1c 84bd 396b fb3c 86f7 193b 0a05 b93d
000000c0: 2fd9 b4bd 7322 2abd 4524 cc3d f387 8a3d
000000d0: 0754 8ebd e17d 08b9 e991 433d 25e0 e33d
000000e0: a3c6 b9bd 1f08 e0bc 4dbd bd3d 2842 b2bd
000000f0: b530 d43d f941 0f3d 73bb b83d 836e 373d
00000100: 0b1c 03be 3fda df3d a2e2 083d 7d34 563b
00000110: d5f1 51bd bb8c 003e 9a2e c13d 3b28 81bc
00000120: f7d3 953d 2d80 843c 1715 f33d 6795 9abc
00000130: 3d1a 0f3d e764 e53d 75e1 dd3d 0cf2 94bd
00000140: aa1e 97bd 40e8 513d 123e 4d3c c653 b0bc
00000150: d65a 87bd fa1b 0d3c 64ad ba3d aca7 9e3d
00000160: 9a8f b03d d73b 2b3d 1094 2f3d 2a97 193d
00000170: 6793 fb3c e174 d7bc 258d c2bd f75f 51bc
00000180: 17c3 11bd 53be 21bd c837 80bd bb5b 073e
00000190: ded1 8fbd ae7a fc3d f8ad 9e3d 305f 6c3d
000001a0: e3ac 92bd aa2d d63d a5c9 c23c e5fb c83c
000001b0: 769a 2d3d 4748 893d 9bdf 733d 52f7 e7bc
000001c0: 302a dc3d c43c be3d 846d a53d 42fc 823c
000001d0: 226c ec3d 6a7f fbbd faef 99bd 05a1 a2bc
000001e0: dfd8 e93d 3a5f fb3d 3287 16bd bf1f b73d
000001f0: 630e c8bc 562f a33b b3bf e63b 3333 a23d
00000200: f86e 763d 9e7a 0dbd a3ff 8cbd e80c 5f3d
00000210: b98c ad3d f310 bf3d 4784 15bd 78a7 5bbc
00000220: f2cb f13d aad4 3d3d e0a2 efbc 72ac 58bd
00000230: 3d8e 703d dded ec3d 8a86 7e3d 1e3c f93d
00000240: 8b14 4dbd 8c33 c63d 3b45 a63d ec3f 8c3a
00000250: 6179 e33d ec6e dcbc eca5 8cbd 104f 403d
00000260: cffa f83d 0b1b 1fbd cd5d fabd bf97 213e
00000270: 7030 8a3d 940f 61bd 25c9 d93c 4404 443d
00000280: 1807 2a3d 7f30 bebd 7e04 68bc 6b01 843c
00000290: 1f62 15bc 4c67 eb3c 0f4e 25bd 5499 293d
000002a0: dd98 e8bd 8f5d e73d 6e81 c1bb a4b2 dabd
000002b0: abf4 453d a568 893d f0b9 eebc aaee 99bd
000002c0: 9814 95bc 6692 0d3d cacc b23d 4975 3e3d
000002d0: 30b0 a13c 9f70 8a3d 5b53 12be 1333 c63c
000002e0: 52cf 193d ef02 22bc e35f 5b3d 10c4 7fbd
000002f0: 32e5 5d3d bced e83d d44a 1b3d f51b b93c
00000300: db15 f63b 8b33 803d 359a a63c 655b 453d
00000310: 64d4 ec3d f40e 1bbe d90a a23d 1402 73bd
00000320: e193 78bd 8edd ccbd b669 f83d e035 cebd
00000330: decd 6b3d 36b5 8f3d ec53 edbc 2d5f 543c
00000340: 3431 963c a743 8e3d 4be4 29bc 600b 753d
00000350: 569b b13b 0d78 523d d0f9 dd3d 8fd4 433c
00000360: 42ad c1bd 8f1b cd3c e080 633d bc00 473d
00000370: 56b3 863b bf1d cbbd 761a 9fbd 7b89 a13d
00000380: e353 7bbc dcbd 2b3d 26a9 70bc d171 5e3b
00000390: f38a 16bd 0ae4 5d3d c545 bd3d aa7f 7d3d
000003a0: d65d 953a 9677 9f3b e3d9 033e 2b51 fc3c
000003b0: 60ae 633d e91e 373d 3b95 723d 5486 6cbd
000003c0: f159 943d 98fe b5bd 9f27 85bd 5038 e53d
000003d0: 1c40 b1bd ec21 b93c 3fb7 223d 0801 c43d
000003e0: 7ec1 8fbd c982 a0bd 6b23 003e ce04 50bd
000003f0: 5359 b4bb cd10 9e3d 1708 57bb 395a d13d
-0.021673124 0.10154123 0.056866165 -0.09105827 0.15258783 -0.08417357 -0.001469637 -0.024126694
0.0437625 0.03212613 0.14069594 -0.051669106 0.08604386 0.02448688 0.056322724 0.085471995
0.009660811 0.06308565 -0.0061708414 0.04737653 -0.07824045 0.111054316 0.061710574 -0.052807778
0.0018601262 0.09814599 0.038251396 -0.034581404 0.056833293 -0.008281723 0.010952746 0.07729022
0.009333631 0.078184366 -0.07664783 0.051631548 -0.089432396 0.04112911 0.115039885 0.10870724
0.05430027 -0.07498738 0.13588707 0.020691415 -0.06450675 0.030690776 0.0023493483 0.09034164
-0.08830487 -0.04153676 0.09967855 0.067642115 -0.06949621 -0.00013016864 0.047746573 0.111267366
-0.0907109 -0.027347622 0.09264622 -0.087040246 0.10360853 0.034975026 0.09020128 0.044783127
-0.12803666 0.10930299 0.03341926 0.0032685094 -0.05125602 0.12553684 0.09432717 -0.015766254
0.0731582 0.0161744 0.11869257 -0.018870069 0.034937132 0.11200886 0.10834018 -0.07272729
-0.073788956 0.05124688 0.012527006 -0.021524321 -0.066091225 0.008612627 0.09115103 0.077468246
0.0862114 0.041805115 0.042865813 0.037497677 0.030709935 -0.02630085 -0.094995774 -0.012779227
-0.035586443 -0.039488148 -0.062606394 0.13218586 -0.07022451 0.12328087 0.07748026 0.057707965
-0.07161882 0.104579285 0.023777792 0.024534175 0.042383634 0.06703239 0.05953942 -0.028316174
0.10750234 0.09288934 0.08077529 0.015989427 0.11544062 -0.12280162 -0.07516475 -0.01985217
0.11418318 0.122740224 -0.036750026 0.08941602 -0.024420923 0.004980008 0.0070418953 0.07919922
0.06016442 -0.034540765 -0.06884696 0.054455668 0.08474106 0.09329405 -0.036503103 -0.013406627
0.118064776 0.04634539 -0.02925247 -0.05289883 0.0587294 0.11568806 0.062140025 0.121696696
-0.05006842 0.096778005 0.081186734 0.0010700203 0.111071356 -0.02690836 -0.068675846 0.0469504
0.12157213 -0.03884415 -0.12224922 0.15780543 0.0674752 -0.054946497 0.026585171 0.04785563
0.04151067 -0.09286594 -0.014161227 0.016113957 -0.009117632 0.02873578 -0.040357646 0.04140599
-0.11357281 0.11297142 -0.005905322 -0.10678604 0.048329037 0.067094125 -0.029141396 -0.07516225
-0.018198296 0.034563445 0.08730467 0.04649857 0.019737333 0.06759762 -0.1428961 0.024194276
0.03755123 -0.009888395 0.05355824 -0.06244284 0.054173656 0.11373469 0.03791316 0.022596339
0.0075099296 0.06259831 0.020337204 0.048182864 0.11563948 -0.15142423 0.07912225 -0.059328154
-0.060687903 -0.10003196 0.12129538 -0.100688696 0.057569377 0.07016985 -0.028970681 0.012962145
0.018334009 0.069464974 -0.010369371 0.0598253 0.005420129 0.05138402 0.108386636 0.011952533
-0.094568744 0.025037555 0.055542827 0.048584685 0.004110734 -0.09917783 -0.07768719 0.078875504
-0.015339824 0.04192911 -0.014688766 0.0033942352 -0.036753606 0.054172553 0.09241823 0.061889328
0.0011395763 0.0048665507 0.12876086 0.030800423 0.05558622 0.044707213 0.05922435 -0.057745293
0.072437175 -0.088864505 -0.06501698 0.111923814 -0.08654806 0.022599183 0.03972554 0.09570509
-0.070193276 -0.07837445 0.12513511 -0.050785832 -0.0055038123 0.07718048 -0.0032811218 0.10222287

layers.1.lin_self.weight f4 [96, 96]
00000000: dedf 993d 7d2d e7bc d1b6 d53d b570 a3bd
00000010: 3c1b d83d e1aa e93d 3eef 993d 9ae5 923d
00000020: 0068 763d ff22 13bd e918 88bd 4bb8 8c3b
00000030: e26e 7dbd dccf e03d cf68 e9bd ca48 083e
00000040: 481c b03d feed 083e 0686 bf3d f6e5 073d
00000050: f387 7f3d c143 fbbc 4e0a 71bd 0848 4f3d
00000060: a265 a13d 5edf 47bd 7f95 cc3d e2ff 103d
00000070: ca4c d83d 6ebf 84bc efec 033b 1406 19bd
00000080: 242c 8f3d 7830 033c f560 a33d 0fc5 673c
00000090: 9d70 3dbc c0f9 f63c efa8 963d 42c0 1d3d
000000a0: 7be1 5ebd f024 ba3d bbeb 143d 2a44 05bd
000000b0: ce7d 0d3e d56e af3d 1e76 d73d 8666 3abd
000000c0: a566 0b3e e696 923d 1914 713d f326 b33c
000000d0: 3620 9d3d 2b78 f03d 94c2 93bb bd12 843d
000000e0: c2ff 1bbc c43a 063c 9b0e d93d 95a2 2f3d
000000f0: f1dc da3b 6ff6 803d 7b76 b2ba 53af 923b
00000100: d705 d73c 2aba 103e 633a 553d bddc 2c3d
00000110: 480b adbb c9a1 213d 915a 06bc bd4c c83d
00000120: aa3e d33d 4a85 163c 5af6 873c 803d e43d
00000130: 5770 c33d a955 8ebd b886 863d f337 873d
00000140: 7c06 aa3d 7036 18bd 87ac 133e c0e4 bc3c
00000150: 3e53 e1bd dd3a d93c a460 003e 9982 d43d
00000160: ebc1 0e3e 211e 96bc 606c 82bd a979 abbd
00000170: cc65 463c a288 1fbe 3735 b9bb d71b 023d
00000180: 5218 eb3c 925d fc3b 2ed4 843c 794a f53a
00000190: 3174 62bd eccd 5bbd 2164 abbd 8a26 8d3d
000001a0: e38b 853d 339b ef3d b704 65bc 13a1 abbd
000001b0: 7744 a2bd 9f7a 6b3d 3b70 42bb 2f3d 8a3c
000001c0: 2181 5c3d b2a0 523c 88a3 85bd cc5e b9bd
000001d0: 03f8 003d c87b 65bd e9a3 593d 3d8c 2b3c
000001e0: df7b 223d 8227 eb3d 5162 14bd fa02 0b3d
000001f0: 8ecc 8bbd 6a84 313c 6663 313d 338a b4ba
00000200: a80e 84bd 7f1d d73a 28a6 bebd 6504 2b3c
00000210: dcdc 8dbc dcd4 6abd 1f21 b6bd f5cb a23d
00000220: 5d06 683d d07a 2e3d d1ac afbd 214e b23d
00000230: 1772 a03d e924 cd3c 7c88 4d3d 7490 9d3d
00000240: 1bb6 403d 5ebc 6b3d 0e05 c43d aea5 b4bc
00000250: 0cc6 c33d 7941 da3d df43 613c 3d4e d33d
00000260: 0efa bc3d 5327 c23d 0134 9fbc daed 6a3d
00000270: b0ab 383d d5aa f93d 42e3 cb3a 2404 00bd
00000280: d139 ae3d 7aaa a2bd 969b b03d d0a6 79bd
00000290: c589 d23d 3a09 9abd 3d49 e6bc 014b e53b
000002a0: 9961 a6bc ddc1 46bb 272e 873d 9b55 f03d
000002b0: 807a 2d3d e26d d6bc a3b2 d53d bd0f b23d
000002c0: 460d 373d df11 073d faac ac3d 4725 973c
000002d0: 7210 c93c 1b0a ca3d c96b 83bc 679f a23c
000002e0: e88c d739 8158 9f3d b6c0 ae3c 66d1 7d3d
000002f0: 93ef 20bc a2d9 453d 5a6e e73c dd4f 953b
00000300: 443d da3d 5f8a 14bd 3db6 703d 5194 8c3d
00000310: 6ddd bc3d 97a2 da3c fa6e e23d 6423 aabc
00000320: 227e 5fbd 60b4 7fbd 1f70 6dbd 67df d23c
00000330: 467c df3d 2e34 95bd 943c f5bd 122b 553d
00000340: d39e 783d 6434 003d f93f ad3d 539e 623d
00000350: 2b6a 9abd d92d 063d e061 9cbd f95f 9bbd
00000360: d001 3a3d 90ae 0dbd b6fa fc3c 0a53 503d
00000370: 6314 d13d 4b3a 2d3d 318f 80bb 7603 b13d
00000380: 4724 59bd 727c a43d d3cb 793d 23c3 ae3d
00000390: 31e3 87bd 5f24 053a c5fa ccbd 59fa 8abd
000003a0: f426 a4bd 900f 4c3d fc9b 26bd ec95 42bd
000003b0: f0fa ab3c 90a0 49bb f0db 593d 4ec9 6b3d
000003c0: 50a1 fb3d feb9 82bb c3ca 853d 0a5d 51bd
000003d0: 945e e7ba d533 de3d 7aaf f9bd f30c 80bd
000003e0: 653b bcbc 89f5 143d 959e 71bc dfb7 b33d
000003f0: ad37 56bd abfd 83bc 4abd 91bd c185 953a
0.075134024 -0.028219933 0.1043526 -0.079804815 0.105520695 0.11409546 0.07516335 0.07172699
0.060157776 -0.035922047 -0.06645376 0.0042944304 -0.061873324 0.10977146 -0.11396944 0.13309017
0.08599144 0.13372037 0.09351735 0.033178292 0.06238551 -0.030671956 -0.058847718 0.050605804
0.07880713 -0.048797004 0.099894516 0.03540028 0.10561521 -0.016204562 0.0020130237 -0.037359312
0.06990841 0.008007161 0.079774775 0.0141461035 -0.011562494 0.030148387 0.0735644 0.03851343
-0.054414254 0.090890765 0.036357623 -0.03253571 0.13817522 0.085660614 0.10520576 -0.04550793
0.13613375 0.07157688 0.058857057 0.021869158 0.076721594 0.1174167 -0.0045092795 0.064488865
-0.009521427 0.008192722 0.10598489 0.04287966 0.0066791703 0.062970035 -0.0013615632 0.0044764667
0.026247902 0.14133516 0.052057635 0.0422027 -0.005280886 0.03946093 -0.008200304 0.09780262
0.103146866 0.009187052 0.016596962 0.11144543 0.095429115 -0.06949932 0.06568664 0.06602468
0.08302018 -0.03716129 0.14421283 0.023058295 -0.11002205 0.026517326 0.12536865 0.10376472
0.13941161 -0.018324913 -0.06368327 -0.08372814 0.012109231 -0.15579465 -0.0056520957 0.03176483
0.02869812 0.007701584 0.016214456 0.0018714211 -0.05528659 -0.05366318 -0.083687074 0.06892116
0.06520822 0.11699524 -0.013978175 -0.08380332 -0.07923215 0.057489987 -0.0029668945 0.016874878
0.053834084 0.012855696 -0.06525332 -0.09051284 0.031486522 -0.05602625 0.053134833 0.010470447
0.039668914 0.11482145 -0.036226574 0.033938386 -0.06826125 0.010834793 0.043307684 -0.0013774097
-0.06448108 0.0016411989 -0.093090355 0.010438059 -0.017317228 -0.057331905 -0.08893036 0.07949058
0.056646693 0.042597592 -0.08577884 0.08706308 0.07834261 0.025042014 0.05017899 0.07693568
0.04704867 0.057552688 0.095712766 -0.022051658 0.09559259 0.10657019 0.013749092 0.10317657
0.09227382 0.09480157 -0.019433977 0.05735574 0.04508561 0.12190787 0.0015555399 -0.03125395
0.08507121 -0.07942672 0.08623426 -0.0609501 0.10280184 -0.07521291 -0.028111095 0.0069974666
-0.02031021 -0.0030327954 0.066006 0.11735078 0.042353153 -0.026175443 0.10434463 0.08694408
0.044690393 0.032976028 0.0843143 0.018450392 0.024543975 0.09865209 -0.016042607 0.0198514
0.0004111298 0.07780553 0.021332126 0.061967276 -0.009822744 0.048303254 0.028250862 0.0045566396
0.10656217 -0.036264773 0.058767546 0.068642266 0.09221921 0.026688857 0.11056323 -0.020768829
-0.05456365 -0.06242788 -0.057968255 0.025741292 0.10912375 -0.07285343 -0.11974445 0.05204303
0.06069834 0.031299964 0.084594674 0.05532677 -0.07539781 0.032758567 -0.07635856 -0.07586665
0.045411885 -0.034590304 0.030881267 0.050860442 0.102089666 0.04229192 -0.0039233197 0.08643238
-0.053013112 0.080315486 0.060985398 0.08533313 -0.0663513 0.0005078967 -0.10008768 -0.06786031
-0.08015242 0.04981953 -0.040676102 -0.047506258 0.02099368 -0.0030765869 0.053188264 0.057565026
0.12286627 -0.003989457 0.06532814 -0.05111412 -0.0017652088 0.1084973 -0.121916726 -0.0625247
-0.02297754 0.036366973 -0.014747282 0.08775305 -0.05229919 -0.01611217 -0.07116182 0.001140766

layers.1.lin_self.bias f4 [96]
00000000: 9346 b4bc 85a9 b2bb 8351 f43d 6c05 d33d
00000010: 3eb4 2d3d b2ac e03d 07d9 7f3d 81a5 a23d
00000020: a09a d63c b962 6fbd f3ed c3bd e8c3 62bd
00000030: d67c 9dbd a5b0 aa3d df29 273d d63f cf3d
00000040: 95dc cb3d 517a b5bc aca8 44bd 751e 7cbd
00000050: da97 95bc 1781 fd3c 04a6 913d 8255 9f3d
00000060: 02ab e039 07dd 933d 9343 ee3d 0832 e63c
00000070: ea9a ed3d 276a 0a3e 3424 823a 9fe6 c73c
00000080: cf31 aabd 7be9 3f3d 0d66 9abd 09f8 18b9
00000090: f39a 773d 4146 023d f0ec 973d db4e 38bd
000000a0: 3ed3 aebc 51c0 94bd baaa 39bc 46bf 693d
000000b0: fb15 9b3d 3b5f a03c f3be a33d 0265 1ebd
000000c0: 5119 98bd 7ddb 63bc 1c8a 023d 331c df3d
000000d0: 0d27 22bc 9172 ae3d 502d d03d a2da 61bd
000000e0: 7979 8dbd 6d81 15bc 3224 423d 200a a23c
000000f0: 6541 82bd abc9 9d3b 3988 7abd bc5c 653c
00000100: 3624 6b3c 0957 3b3c 4e71 073c bd6e f83d
00000110: 5dbf 853d 977a afbc 051e 1abd e280 3abd
00000120: 2e5d 943d 4754 8d39 fa9e 96bd e024 3f3d
00000130: e0cc 5f3d 6fd4 973d ad10 ef3d 4e8c 75bd
00000140: 0985 dc3d 41be 85bd b899 093e 1eca 37bd
00000150: 95c7 34bd 4203 0c3b 5056 0dbd 0ebd ca3d
00000160: 78d6 783d a2d7 553d 6540 ac3d e9e7 8dbd
00000170: 76d2 ae3c 62e2 b6bd edec bd3d 76f5 f5bc
-0.022006309 -0.005452337 0.119296096 0.103037685 0.04240822 0.10970439 0.062462833 0.079417236
0.026196778 -0.05844376 -0.095668696 -0.055362612 -0.07689826 0.083344735 0.040811416 0.101195976
0.09954182 -0.022153052 -0.04801242 -0.061552484 -0.018260885 0.030945344 0.07111743 0.07779981
0.0004285202 0.07219892 0.116339825 0.028100029 0.11601813 0.13517056 0.0009929002 0.02440196
-0.083102815 0.046853524 -0.07538996 -0.0001458825 0.060450505 0.03180528 0.07418239 -0.044997077
-0.021340962 -0.07263244 -0.011332208 0.05706718 0.07572552 0.01957666 0.07995405 -0.038670547
-0.07426704 -0.013907311 0.031869993 0.108940504 -0.009897006 0.085179456 0.10164893 -0.055140145
-0.06907935 -0.009125096 0.0473978 0.019780219 -0.06360129 0.0048153005 -0.06116507 0.01399916
0.014351895 0.011434325 0.00826676 0.12130497 0.0653064 -0.02142076 -0.037626285 -0.04553307
0.07244335 0.00026956407 -0.07354541 0.046666026 0.054638743 0.07413565 0.116731025 -0.059948258
0.10767562 -0.06530429 0.13437545 -0.04487049 -0.04413565 0.0021364246 -0.034506142 0.098993406
0.06075141 0.052207597 0.0841072 -0.06928999 0.02134059 -0.08929898 0.09273706 -0.030024271

layers.1.lin_neigh.weight f4 [96, 96]
00000000: 4a92 65bc a3f9 db3c 58a9 8e3d 8dac 1b3d
00000010: 5c9f d53d 459b 583d 65c6 743d 1277 1f3d
00000020: 48bf abbc b37d 033e 0b4a 04bd c468 0a3e
00000030: eeb3 6fbd b6f4 82bc e3a4 e4bd 2110 143c
00000040: 1ab3 f53d 1811 c33a c1ff 3d3d 427f 48bd
00000050: 1dfe e1bc d146 d33c 71f4 ca3c c89d 58bd
00000060: c6b0 9abc 279d 8a3d a62f 9c3d be65 793d
00000070: 35af 7a3d 0f8d 0f3d 480d a63d d8f9 a1bd
00000080: b350 bd3d 47e2 a13d ebf9 d4bc cbf1 4aba
00000090: e3dc e43d 47d4 3abd 3ce6 683d 81db cd3c
000000a0: 468f 3bbd 9f26 323d a4da ae3d b261 c63d
000000b0: d603 c83d 36ba 423c 7770 893c 9a09 a1bb
000000c0: e12d cf3c 9c95 c33d 106d f8bc e6d9 713c
000000d0: 3488 063e e7d1 713d 1a76 e1bd 7a52 b63d
000000e0: f00a 4abd 684a 8b3d b8ad 9a3d d129 6bbd
000000f0: ccd7 df3d 833a e23d 87ea 843d 8748 423d
00000100: 7f8a 683d ebb2 c73d 985d 1cbd 121c 16be
00000110: f062 b43d 2e6c fcbc ea77 4dbd d728 ff3d
00000120: 85b4 9f3c a064 7a3d 8ba5 dcbc c234 dc3c
00000130: 8a11 a8bd e7d3 25bb 7d52 46bd 928c 8ebd
00000140: a3fd 59bd 0179 2f3d d52d f33c b1da 743d
00000150: dd33 0ebd 7400 f53d 77a3 843b efcf 013e
00000160: 07be dd3c f505 b93d 15e8 663d d1c4 16bd
00000170: 4048 1d3d a08c eebd 9091 b8bb 4a59 d03d
00000180: b69e 08bd 1a9e 443d ec3f 8abb 685a 4c3d
00000190: 2932 923d 6fdf d0bd 30ab 3d3d 14a1 103d
000001a0: c48c 953d 3f96 a83d b510 b0bc f646 2f3d
000001b0: 89ce 56bd 24f4 3b3d 40ab 3f3c 0eee 1dbd
000001c0: dcdd c03d 569f 1f3c 5a8d ca3c 35c8 7cbd
000001d0: 337f 46bd af52 13bd c4a5 a8bd 63cf c33d
000001e0: 9036 87bd 5702 4abd b853 4f3d 2f18 b9bb
000001f0: b065 693d bc19 b43d 61c5 24bd f8e7 86bb
00000200: 3412 aebd 54da 9f3d 34fc a2bd 6b3a 0fbb
00000210: f0e9 63bc 59b7 27bc 3346 c4bd 1263 7a3d
00000220: 80fa c03d 382a a53d bf4e 943d ef38 dc3c
00000230: 0ecd 2e3b 3996 a43d d70d 9d3d 06ed bbbc
00000240: d38f 8d3d cb0c babc 92e4 fd3c 2edd 92bd
00000250: efab cdbd eb18 11bc b197 e03d 39c4 c8bd
00000260: 3305 993d 187b e7bc 0e0c c43d 2b1d 1abd
00000270: 4deb 903d 5da6 563b 97b2 f6bc 33e1 533d
00000280: d91f 863b 9b8e 58bd 6fb2 a5bd 3987 d2bc
00000290: a0e4 6cbd e794 903d 0051 afbd f5ab 0d3c
000002a0: 2a76 8abc 5204 81bc 03b9 bebd 9a0f 7d3d
000002b0: e355 123c afdd a2bc e009 dcbb 7102 473d
000002c0: 0b06 41bc 574c ec3c e1f5 8ebd 3885 323d
000002d0: a028 b43d a960 a6bd 2d99 5dbd 78b9 b03d
000002e0: 020f 443d 2935 c63b 7972 1c3d 70df c43d
000002f0: 9599 633d 873a a73c de2b 843d c02e 09bd
00000300: dd5b e13c 6647 ecbd 413a 3e3d 6942 bc3d
00000310: 7263 55bc e64a 3a3c 5987 953d d1fb e33d
00000320: be70 6e3c a4e2 d73d 3dd8 adba 1be6 c33c
00000330: 352c 10bd a5a9 c23d cf63 3dbd df19 583d
00000340: e687 783d 56b6 03bd 5b74 9f3d aeef d63d
00000350: ac2c 9bbd 91b5 f13d 40da a93d 521c 433d
00000360: d964 b03d 0602 97bc 314f 8e3d 928e 973d
00000370: abfd 633d f804 953c 5f9a d63d 39bf bcbd
00000380: fda6 e93d c606 5cbd 6bc9 65bc 24c2 433d
00000390: b6f7 a13d b521 353c 265a ae3d a422 d73c
000003a0: 957d 3a3d 7b99 af3d ace0 4a3d 554b a13d
000003b0: 0313 b33d 82bb 80bd 0666 003e abb6 a83d
000003c0: 9904 993c aa77 2b3d 1741 ee3d 437b 48bd
000003d0: 3bf7 fabc 21db 36bd b8f0 973d ea67 5a3d
000003e0: 62b2 8e3c 852c 9b3c 1b09 e13d 4dd3 ca3c
000003f0: 7b73 a63d 214e ea3d 0fbd fc3c 24e4 c73d
-0.014011929 0.026852435 0.069658935 0.038006354 0.10430786 0.05288245 0.059759516 0.038931914
-0.020965233 0.12840919 -0.032297175 0.13516527 -0.058521204 -0.015985828 -0.11164262 0.009037049
0.119970515 0.0014882414 0.046386484 -0.048949488 -0.027586991 0.025790604 0.024774762 -0.052884847
-0.01888312 0.06768256 0.07626276 0.060888045 0.061202247 0.035046633 0.08108002 -0.07908982
0.09243908 0.07904487 -0.025998076 -0.00077417184 0.11174943 -0.0456126 0.056860194 0.025129082
-0.045790933 0.043493863 0.08537796 0.09686603 0.09766357 0.011885216 0.01677726 -0.0049144747
0.025290431 0.0955002 -0.030325443 0.014761424 0.13137895 0.05903807 -0.11008854 0.0890245
-0.049326837 0.06801301 0.075526655 -0.057412926 0.10929832 0.110463165 0.06490045 0.04743245
0.056772705 0.09750923 -0.038175195 -0.14659145 0.08807933 -0.030813303 -0.050163187 0.124589615
0.019495258 0.06113112 -0.026934406 0.026880626 -0.0820647 -0.0025303306 -0.04841851 -0.069604054
-0.053220402 0.042840008 0.02968494 0.059778873 -0.03471743 0.11962977 0.004047807 0.12676977
0.027068151 0.09034339 0.056373674 -0.036808793 0.03839898 -0.11647916 -0.005632587 0.101732805
-0.033354484 0.04800234 -0.004219046 0.049890906 0.071384735 -0.101988666 0.046305835 0.035309866
0.073022395 0.08231782 -0.021492342 0.042792283 -0.05244306 0.045887128 0.011698544 -0.038557105
0.09417316 0.0097425785 0.024725605 -0.06171437 -0.04846115 -0.035967525 -0.08234742 0.0956104
-0.06602204 -0.049318638 0.05061695 -0.005648635 0.056981742 0.08793971 -0.040227298 -0.0041170083
-0.08499566 0.07805315 -0.0795826 -0.0021854888 -0.0139107555 -0.010236585 -0.09583702 0.061129637
0.09422779 0.08064693 0.07241582 0.026882617 0.0026672515 0.08036465 0.07668655 -0.02294017
0.06912198 -0.022711178 0.03099278 -0.07171093 -0.10042559 -0.008856039 0.10966433 -0.098030515
0.07471695 -0.028256938 0.09572612 -0.037625473 0.0707613 0.003275297 -0.030114455 0.05172844
0.004093152 -0.052870374 -0.08090674 -0.025699245 -0.05783522 0.07059651 -0.085603714 0.008646955
-0.016902048 -0.01574913 -0.09312632 0.061782457 0.00893161 -0.019881098 -0.0067150444 0.048586313
-0.011781226 0.028844995 -0.069804914 0.04358408 0.08796811 -0.08123905 -0.054101158 0.08629125
0.047865875 0.0060488177 0.038195107 0.0961293 0.05556639 0.02041365 0.064536795 -0.03349185
0.027509624 -0.11537056 0.046442274 0.09192354 -0.013024198 0.011370396 0.07301206 0.111320145
0.014553247 0.10541275 -0.0013263297 0.023913434 -0.03519841 0.095050134 -0.046237763 0.052759048
0.060676478 -0.03215631 0.07785865 0.10494934 -0.0757688 0.11802209 0.08293581 0.04763443
0.08612985 -0.018433582 0.06948698 0.0740024 0.05566184 0.018190846 0.10478663 -0.0921616
0.114088036 -0.053717397 -0.014025073 0.04779257 0.07908575 0.0110554 0.08513288 0.026261635
0.04552992 0.08574196 0.04953067 0.078756966 0.087438606 -0.06285764 0.12538919 0.08237966
0.01867895 0.041862167 0.11633509 -0.048945677 -0.030635467 -0.04464257 0.0741896 0.053321756
0.017419044 0.018942127 0.10988065 0.02475896 0.08127495 0.11440683 0.030851869 0.09760311

layers.2.lin_self.weight f4 [96, 96]
00000000: 0072 133d eaff 8bbc 31fc d3bc fa9e c6bd
00000010: 82ed b3bd 5e09 5cbd 5c5e a2bd d45b f8bc
00000020: aa4b c73d 943f c6bc 54ac ff3c 1203 b93d
00000030: a0d6 b3bd 5eb8 15bd acff 513d b8d1 a5bd
00000040: d877 a7bd 0e15 2cbd c29f 07bd 6e52 fabc
00000050: 0b69 83bd 7d7c 98bd 7251 d1bc cb75 a23d
00000060: 452a f13b 571e bbbd 32a5 8abd 306f 9cbd
00000070: 9d42 babd 1538 acbd a7fa 1cbd e000 c1bb
00000080: c162 a2bd e6b8 ba3d 47e5 493d 24a4 50bd
00000090: 2c23 aebd 1d47 6c3d 6fc4 ab3c 11cd 9c3d
000000a0: 3d93 9fbd a47f fb3c 33f5 713d 9f30 ac3c
000000b0: 9fbd 3e3d b204 48bd 32d8 4dbd e411 a4bd
000000c0: a827 273d 6a57 59bd 6fc3 d6bc 2e1f 4dbc
000000d0: c617 7f3d d6ec c4bd a9a8 6e3c e3e5 0b3d
000000e0: 097a 94bd 02d9 19bd 84bf b7bd 53b6 c33d
000000f0: 688f 47bd 237d bf3c 524b abbd 6b81 f93c
00000100: d4f0 913d 9095 1c3d f729 a13a 0d8a bc3d
00000110: 7f15 863d 8cb0 9f3c 8841 963d e882 f5b9
00000120: bb11 3dbd 449a dd3b c3c8 913d bc26 223d
00000130: 486d 3a3d 941e 91bd d463 64bd faf5 43bd
00000140: 568f bbbc 69de 803d 781b c13d d5af 5cbc
00000150: 6567 aebd 0dab a23d 1944 bcbb f9fc 68bd
00000160: 40b2 fe3c 4adb 1fbc 665c 66bd 6898 813d
00000170: f32d f4bc 8756 433d ae05 7a3c 5135 11bc
00000180: a41c 11bc 14c1 083e 77cb ee3d fc5f 083e
00000190: d85d d23c d227 89bc c920 533c 3a67 403d
000001a0: 53fe 65bd be6c 43bd 1eba 933d b54f a8bc
000001b0: cdcd f13d f042 cabb 7671 bb3a e34d a53d
000001c0: a084 8c3d 839e fbbc a32b 1d3d ace0 9d3b
000001d0: eedf 443d 35a7 bd3d 5d9b af3d e3db c63b
000001e0: d970 c2bd 5a1e ba3d 367f da3d 2a52 813d
000001f0: cd84 9e3d ee09 9ebd 2562 c53c af45 f6ba
00000200: b820 ae3d a824 d73c 2816 313d ca2b a5bc
00000210: c63c ad3d 9154 6a3d 2e53 353d 8459 eab9
00000220: fdf2 80bd 5f5e 7b3d c01f 733d f2f6 2f3d
00000230: 4758 d7bc 83c7 b73d 6970 3dbb edf8 fd3c
00000240: f4a0 af3d edb5 9f3d da1c 68bd f31e d33d
00000250: 1692 913d 5e93 073d b20f 993c 5d09 1fbd
00000260: 2c5e dbbd a76c 3ebd eadc 6a3c b898 1b3d
00000270: 8b3b 033e 36c2 273c b900 383d 9dbf 0a3e
00000280: 21d2 76bd 0505 7f3d afb9 7d3b de59 b33d
00000290: f13a dcbc 4c6e 27bd 2dac 043e 34d2 d03d
000002a0: f801 8abc 343b 003d 8257 b5bc bfd1 c1ba
000002b0: 08e6 02be 8eb3 4cba fdd1 cb3d f0dd 10bd
000002c0: eec4 1fbd f909 103b f1f1 b1bd ca45 3dbd
000002d0: a6ed 523c c245 2b3d 6d79 803d 52ee d93d
000002e0: 43bb 08bd 31e6 da3c 46ed 01bd 5c7f 9c3d
000002f0: cabb 973c 9d10 1e3b f8a1 94b9 18f0 b13d
00000300: a2c6 d1bd ab9d bf3d 596b 9a3d ad69 36bd
00000310: 3710 55bd beba 433d 2da9 6abd c12e 77bd
00000320: 11b6 683d 24c2 f9bc 41f5 ebbc a483 c03d
00000330: f14b b6bd 453f c4bd 3d0f 2fbd 1bbb b1bd
00000340: 805a b6bd 0635 efbb e8e2 a8bd db84 813c
00000350: 1698 c5bd f5ca 8d3c e801 ab3c 0d40 033a
00000360: 5fe1 d4bc ea7f 3e3b c89b 683d 84d5 46bd
00000370: b884 93bd 20f6 1a3b 6c37 8a3d 6e33 1a3d
00000380: 11a8 0bbc d613 ccbd 5d50 1a3c cfe5 2bbd
00000390: 4561 5f3d ea65 a43d f625 33bc 9885 cdbd
000003a0: 0cd7 353d 4892 943d 23a4 d13c ef84 bbbd
000003b0: 03d0 b4bd 1c85 8dbd cbfd 59bd e5f7 443d
000003c0: 5c78 a53c e0ed 2a3d 060c 05bd 473c 2abb
000003d0: c39e c03c aea6 bbbd c868 85bc cc20 2c3c
000003e0: b8a5 1d3d fcb9 a93d 43ca 21bc dc51 bdbd
000003f0: 37a6 fbbc 75a1 023b 1979 dabc fe77 a0bd
0.03599739 -0.017089803 -0.02587709 -0.09698291 -0.087855354 -0.05371987 -0.07928154 -0.030317225
0.09731229 -0.024200238 0.031210102 0.09033789 -0.08781171 -0.03655278 0.05126922 -0.08096641
-0.08177155 -0.042012267 -0.03311134 -0.030556884 -0.0641652 -0.07445619 -0.025551531 0.079326235
0.0073597752 -0.09136646 -0.0676979 -0.07638395 -0.09094737 -0.08409134 -0.03832498 -0.005889997
-0.07928992 0.09117298 0.04929092 -0.050937787 -0.08502802 0.057685006 0.02096769 0.07656301
-0.07791755 0.030700512 0.05907173 0.021019278 0.046567556 -0.048832603 -0.050255008 -0.08011225
0.040809304 -0.05306188 -0.026216237 -0.012519641 0.06227853 -0.09615485 0.014566579 0.034154784
-0.07249839 -0.03756047 -0.089720756 0.0955626 -0.048720747 0.0233751 -0.083639756 0.03045722
0.071260124 0.03822857 0.0012295832 0.092060186 0.06547069 0.019493364 0.07336718 -0.00046827574
-0.046159487 0.0067627747 0.071183704 0.03958772 0.045514375 -0.070859104 -0.055759266 -0.047842003
-0.022895496 0.06292421 0.094290674 -0.013469656 -0.08515815 0.079427816 -0.0057454226 -0.05688188
0.031090856 -0.009756872 -0.05624046 0.06327897 -0.029807067 0.04768994 0.015260143 -0.008862809
-0.008856926 0.13354903 0.116599016 0.13317865 0.025679514 -0.01674262 0.012886235 0.046973445
-0.056150746 -0.047711127 0.072132334 -0.02054582 0.118068315 -0.0061725304 0.0014300782 0.08071496
0.06861234 -0.030715233 0.038371693 0.0048180427 0.04806512 0.09260408 0.08574555 0.006068693
-0.0949418 0.0908782 0.10668795 0.063145 0.077401735 -0.07716738 0.02409465 -0.0018789078
0.08502334 0.026262596 0.04323402 -0.020162482 0.08458857 0.057209555 0.04426878 -0.00044698652
-0.06296346 0.061369296 0.05935645 0.042960115 -0.026287211 0.08973601 -0.0028906113 0.031002486
0.08575621 0.077983715 -0.05666814 0.103086375 0.07107942 0.033099525 0.018684242 -0.03882729
-0.10711321 -0.046490338 0.014334897 0.03798744 0.12815683 0.010239175 0.044922564 0.13549657
-0.06025899 0.062260646 0.0038715412 0.08757375 -0.026883574 -0.04087667 0.12956305 0.10196343
-0.016846642 0.03130646 -0.022136454 -0.0014787241 -0.12783062 -0.0007808738 0.099521615 -0.035367906
-0.039006166 0.00219786 -0.08688725 -0.046209134 0.012874043 0.041814573 0.0627316 0.10641159
-0.03338171 0.026721092 -0.031720422 0.076414794 0.018522162 0.002411879 -0.00028349436 0.086883724
-0.10242964 0.09356245 0.07540006 -0.044534374 -0.052017417 0.047785513 -0.057290245 -0.060347322
0.056814257 -0.030488081 -0.02880347 0.094001085 -0.089012034 -0.0958238 -0.04273914 -0.08678266
-0.0890398 -0.007300022 -0.08246404 0.01581042 -0.09648149 0.017308692 0.020874932 0.0005006798
-0.025986372 0.0029067942 0.05678919 -0.048543468 -0.072030485 0.0023645237 0.06748852 0.037646703
-0.008523957 -0.09964721 0.009418574 -0.04196721 0.054536123 0.08027251 -0.010934344 -0.100352466
0.044394538 0.072544634 0.025590962 -0.091562144 -0.088287376 -0.06910154 -0.05322055 0.048087973
0.020198993 0.04173076 -0.03248217 -0.002597587 0.023513203 -0.09162651 -0.016285315 0.010505866
0.03848812 0.08287427 -0.009874883 -0.09244129 -0.030718906 0.0019932662 -0.026669072 -0.07835387

layers.2.lin_self.bias f4 [96]
00000000: 1aa8 0abd e70e 90bc 8a43 623c ba1a 77bd
00000010: 46b2 18bb 5317 82bd 35af b2bb 18d4 dbbd
00000020: e69c 483d e805 883d 5a67 20bd 9503 e23c
00000030: dc24 df3d 6c2d 783c 126b 963d 7701 81bd
00000040: 3a9a 9f3c d339 9cbd 590b 27bc 5b32 71bd
00000050: 7664 853d ece8 95bd 1c11 f43d 94af a13d
00000060: 5b0a a2bd be39 3c3d d43a 593c 79aa 6e3c
00000070: 8ee5 a2bc 77b5 20bd dcc3 d93c 14dd 9ebc
00000080: 61b2 e5bc 8f7a c2bc 2bd9 af3d 49b7 c03c
00000090: 1386 6fbd 8cf2 153d c7f1 1abc ed69 3dbd
000000a0: 03e5 cdbd 99e2 923d a584 ab3b eddc db3d
000000b0: 3ad5 d9bb 48fa 113d 0d33 593d 48be e63d
000000c0: 6f97 dc3d e766 243d 0d7b dcbd edae 303d
000000d0: e886 cebc 0e5c 23bb 3230 67bd b5dd 81bb
000000e0: 3424 083d 041e d1bc c911 823d 2e60 0f3d
000000f0: 0efc 6cbd a16b 81bd fd2f 87bd 82f8 4bbc
00000100: 3157 f7bc 430a 51bd 20b5 b13d dbc2 493d
00000110: 0d52 03bc ced5 39bd 89f9 9a3d 600f 863d
00000120: 585b 633c 4b53 d63d f394 88bd 0c3a 7e3d
00000130: 7e61 2ebd a19d c9bc b734 babd cb93 a93d
00000140: 1a7a 863d d067 d4bd 45cc 163e 7323 0fbc
00000150: 0213 193d a444 c63d e4b0 cdbc c818 a7bd
00000160: 72ef 7ebd 0f94 da3d 5f6b 933c fd76 d2bd
00000170: 9ac9 903d f68d bfbc fb2e b83d 98ff 883d
-0.03385172 -0.017585231 0.013810048 -0.060328223 -0.0023299619 -0.06352105 -0.005453015 -0.10733813
0.048977755 0.066417515 -0.039161064 0.027589599 0.10895702 0.015147548 0.07344641 -0.062991075
0.01948272 -0.076282166 -0.010195577 -0.058885913 0.06513302 -0.07319817 0.11917326 0.07894817
-0.079121314 0.045953505 0.013258655 0.014567011 -0.01988485 -0.03923556 0.02658265 -0.019392528
-0.02803916 -0.023740081 0.085863434 0.023524897 -0.058477473 0.036608264 -0.009457058 -0.046243597
-0.10053446 0.07172126 0.0052343183 0.107354976 -0.006647733 0.035639077 0.0530272 0.11266762
0.10771071 0.040137198 -0.107656576 0.043135572 -0.025210813 -0.0024926695 -0.056442447 -0.003963197
0.03323765 -0.025527008 0.063510485 0.035003833 -0.057857566 -0.06319357 -0.0660095 -0.012449386
-0.030192943 -0.051035177 0.08677125 0.049258094 -0.008015168 -0.045369916 0.07567126 0.06545901
0.0138767585 0.104651056 -0.06669035 0.062067077 -0.042573445 -0.024611296 -0.09092086 0.082801424
0.06566258 -0.10371363 0.1472636 -0.008736479 0.037371643 0.09681061 -0.025108762 -0.081590235
-0.06224007 0.10672771 0.017995534 -0.102766015 0.070697024 -0.023383122 0.08993336 0.06689376
