outputs/models/nowcast_b96L2_s2.pt (torch, 197122 bytes, 11 tensors)

in_lin.weight f4 [96, 15]
000000 c2 35 5e 3c 32 4e b1 3c ff 1f c9 3c 38 30 85 3d
       0.013562622 0.021643732 0.02455139 0.065033376
000010 a5 e4 e1 3d 18 c8 7b 3d 1d ee 2d bd 72 0d bf be
       0.110299386 0.06147012 -0.04246341 -0.37314945
000020 01 c7 3d 3e 6a de 0d be a2 e6 0d 3e 61 a8 f2 bd
       0.18532945 -0.13854375 0.1385751 -0.11848522
000030 44 6f dc bd bf 5a 61 3e b7 1b c6 bc 0f b2 06 3e
       -0.1076341 0.22007273 -0.024183137 0.13153861
000040 11 cf ec 3d 38 33 04 be 2d 92 c0 bd 2b 46 7e 3e
       0.11562932 -0.12910163 -0.09402881 0.24831454
000050 1b 7c 81 be fc 6e fb bb 94 33 85 3e 45 54 a7 3e
       -0.25289997 -0.0076731425 0.26015913 0.3268148
000060 a3 93 d3 3d 53 c4 ea 3d a2 af 76 3e ce e3 4c be
       0.10330894 0.11463227 0.24090436 -0.20008776
000070 e3 70 98 bd 25 f0 8d bd e2 80 a1 be ad 6a be bd
       -0.074434064 -0.069305696 -0.31543642 -0.092976905
000080 00 35 40 bd b6 90 7d 3e 50 65 50 3c 7d 64 f2 bd
       -0.046925545 0.24762234 0.012719467 -0.11835573
000090 c0 b1 21 3e 0d b2 ea be e0 05 be 3d fe f7 22 be
       0.15790462 -0.45838967 0.09278464 -0.15914914
0000a0 73 e0 bc 3b 87 f5 1a bf 69 5a 3e 3e d4 11 e7 3d
       0.005764061 -0.60530895 0.18589176 0.11282697
0000b0 2c 44 39 3e c3 93 f1 3d dc 92 07 3d bc f8 5f 3b
       0.18092412 0.117957614 0.03309904 0.0034175357
0000c0 9e 6c 4a bd 3a 84 a1 3c b7 14 0d 3e b0 ab 06 3e
       -0.04941999 0.01971637 0.13777433 0.13151431
0000d0 c1 b9 f9 3e cb c4 79 3e 3d 1e f2 3b f9 21 0b bd
       0.4877453 0.24391477 0.0073888586 -0.033967946
0000e0 3b 14 68 3e 5c 88 9e 3d b1 6c a8 3d f5 26 1c 3e
       0.22663967 0.07740852 0.08223856 0.15249236
0000f0 c0 4b 26 3d 89 ff 77 be a5 88 56 bc 87 35 69 3e
       0.040599585 -0.24218573 -0.013094102 0.22774325
000100 0c d9 6a 3e 11 f5 84 bb 99 1b 67 3d 8d ad a2 3d
       0.2293436 -0.0040575345 0.056422804 0.079432584
000110 cc ed 40 3c 14 ab 27 3e b2 c9 8f be 16 b4 0a 3f
       0.011775445 0.16373855 -0.2808357 0.5418104
000120 97 32 e9 bd c3 f9 9c bb 81 2c e4 bc b7 ac b7 3d
       -0.11386602 -0.004790516 -0.027853252 0.089684896
000130 84 5e e4 3d 22 ed 5a be 7e ea f8 3c 9f 20 27 be
       0.1115084 -0.21379521 0.030385252 -0.16321038
000140 ee c6 60 3e 09 1f 5a 3d 16 08 07 bf 9c 58 1a 3e
       0.21950886 0.053252254 -0.52746713 0.15072864
000150 3a 11 03 3e 89 96 c1 bc ab a0 8e be c0 46 d5 3b
       0.1279954 -0.023631351 -0.27856955 0.006508678
000160 09 ff 87 bd fa 1e 05 bc f8 d4 b8 bc d0 cc ad bd
       -0.06640441 -0.008125061 -0.022562489 -0.084863305
000170 c8 db 24 3e 37 db ed 3d 66 30 1e 3e b4 8b 0d 3e
       0.16099465 0.116140775 0.1544815 0.13822824
000180 d0 2a 47 be d1 1b 84 bd 37 33 a4 bd 8b 3d 5c 3c
       -0.19449925 -0.06450618 -0.08017581 0.013442407
000190 b6 08 08 3b bf ba 60 3d d8 b4 ad be d4 56 00 3d
       0.0020757145 0.054865595 -0.33927035 0.031332806
0001a0 c9 06 80 3d 0a fc e3 3c 01 d6 5c 3e c7 27 0f 3e
       0.06251294 0.027830143 0.21566011 0.13980018
0001b0 5a 7e 52 be d5 c0 1f 3d a7 41 75 3e 09 49 6f be
       -0.20556012 0.03900226 0.23950826 -0.23367704
0001c0 05 83 81 bd 2f dd 1b 3d 31 2c df bd 54 91 43 3b
       -0.06323818 0.038052734 -0.10897101 0.002984126
0001d0 08 23 5d 3c 02 c2 31 3e 7e b6 c8 3c 56 0d 74 3d
       0.013497122 0.17359164 0.024501082 0.05958303
0001e0 4d 5d 63 3e a0 ee 01 bd d3 3d 44 be 46 18 41 3d
       0.2220356 -0.03172171 -0.19164209 0.04714229
0001f0 0d 5b 2e 3e f8 88 3d be 57 5b 75 be 9b 89 fa 3d
       0.1702692 -0.1850928 -0.23960625 0.122332774
000200 f5 16 7c be 04 69 60 be e7 33 5e be 05 71 73 3c
       -0.24618132 -0.2191506 -0.21699487 0.014858489
000210 39 b1 f5 bd 62 39 81 be fe 5c a4 bc 32 cf 37 3e
       -0.11996693 -0.25239092 -0.020063873 0.17950132
000220 19 0a f0 3b c3 fd 35 be d4 7f 25 3e 01 97 9f bc
       0.0073254225 -0.17772584 0.16162044 -0.019481184
000230 2e a5 7b be bd 81 07 be 1a ef d8 3e cb 20 51 3e
       -0.2457473 -0.13233085 0.4236992 0.20422666
000240 96 24 be 3d 41 00 50 3e 4a d5 25 bb 97 61 82 3d
       0.09284322 0.20312597 -0.0025304132 0.0636627
000250 4a 63 7b 3e 93 4a 2f bd f7 d0 0f 3e 84 9b 76 3c
       0.24549595 -0.04279573 0.14044558 0.015051726
000260 d2 f0 f0 bd ec ca 5d 3d c9 35 b1 bd 06 d5 61 be
       -0.11764683 0.0541486 -0.08652837 -0.22053918
000270 67 78 d3 bd 3d 78 97 3e 73 ce a2 3e 06 27 1f 3e
       -0.10325699 0.29583922 0.31798133 0.1554223
000280 38 1a 21 be d3 49 e0 3e fb 2d 15 bd 21 89 2c be
       -0.15732658 0.43806323 -0.036420804 -0.16849186
000290 21 6c 12 3d c3 56 c2 3d d6 d7 7a bd f1 f2 a9 bd
       0.03574765 0.09489205 -0.061240993 -0.082982905
0002a0 99 e7 2a bd 57 7a 50 be af 3b 16 be 3a 04 15 bd
       -0.041724775 -0.20359169 -0.14671205 -0.036380984
0002b0 2d e0 83 3e d3 d8 2e 3d 8f ee 10 be 92 28 b5 3d
       0.2575697 0.04268725 -0.14153503 0.08845629
0002c0 e0 13 09 be c9 26 c7 bd f8 17 b3 3d 6c 6b 68 3c
       -0.13386488 -0.097241946 0.08744806 0.014185768
0002d0 f8 c9 14 be ea 89 d5 3b 13 d8 cd 3d b0 c5 07 3e
       -0.1453017 0.006516685 0.100509785 0.13259006
0002e0 86 5a 78 be 9c 25 1a be d9 c6 e2 bc 7d 8c 95 bc
       -0.24253282 -0.1505341 -0.027682709 -0.018255467
0002f0 34 69 aa 3e a8 b7 38 3e cb 3f 6f 3e 05 cb ac be
       0.3328339 0.1803881 0.23364179 -0.33748642
000300 13 52 d0 3d 64 84 5c 3d 4d 4a 9a bd 19 3f 03 be
       0.101719044 0.053837195 -0.07533703 -0.12817039
000310 b3 45 c1 3c c7 cd 10 be 3d 8f 66 3d e2 33 4a 3e
       0.023592805 -0.14140998 0.056288946 0.19746354
000320 53 74 2e be 9c ce 5f be 73 75 22 be 36 03 85 be
       -0.17036562 -0.21856159 -0.15865116 -0.25979012
000330 b0 83 68 bd ed 1a 02 3e 23 40 67 3d e2 40 22 be
       -0.056766212 0.12705584 0.05645765 -0.15845063
000340 21 19 ec 3d 9f 8d a0 bd b4 71 1d be 4b bc 58 bd
       0.115282305 -0.07839512 -0.15375406 -0.052913945
000350 3e 7e 93 3d 72 09 eb bd 30 14 46 be 4e 76 9a 3d
       0.07201813 -0.11476411 -0.19343638 0.07542096
000360 09 e7 48 3d 38 9d 14 be ec e6 fb 3d fd eb 5a 3e
       0.049048457 -0.14513099 0.12299904 0.21379085
000370 e1 4f 1e 3d e0 32 84 be 15 6d d2 3d 4e bb 1b 3e
       0.038650397 -0.25820065 0.10274712 0.1520817
000380 00 f7 6b 3c e8 f3 37 be ff 82 16 be ff 28 2a 3e
       0.014402151 -0.17964137 -0.14698409 0.16617201
000390 fd bb c6 3d 00 f7 07 be 7e d6 28 3c 0f 71 aa bc
       0.09703825 -0.13277817 0.010305045 -0.020805864
0003a0 7d bb 9f 3e 10 46 0d 3d 30 b4 ce bd b9 11 7b bd
       0.3119773 0.034490645 -0.10092962 -0.0612962
0003b0 11 0b 2c 3e 41 9f bc bd 12 12 00 be ed 67 2b be
       0.16801096 -0.09210063 -0.12506893 -0.16738863
0003c0 30 66 54 bd 11 fc b9 3d 8c 73 18 be 9e fd 83 be
       -0.051855266 0.09081281 -0.14887828 -0.25779432
0003d0 35 24 62 3e cb d5 bd 3d 72 c7 16 3e 3e a6 03 3e
       0.22084124 0.092692934 0.1472452 0.12856385
0003e0 62 2c 3d bb 58 63 8b bd f3 6e 76 bd d8 67 15 bd
       -0.0028865566 -0.06806058 -0.060164403 -0.036475986
0003f0 ad 3d e7 bd 43 52 6c bd 55 25 c5 bd 21 da 63 3d
       -0.112910606 -0.05769564 -0.09626261 0.055627946

in_lin.bias f4 [96]
000000 ad 77 a2 be 4f 2c 24 3e b9 9c 55 3d 75 62 04 bd
       -0.3173193 0.16032527 0.052151415 -0.03232046
000010 a5 9a 2f bd 2c 39 a1 3c 64 8c cd bd 37 ea 0a be
       -0.04287209 0.019680582 -0.10036543 -0.13565908
000020 be 82 51 bc 52 67 10 3e ae 19 05 3d c9 00 32 3c
       -0.012787519 0.14101914 0.032495193 0.010864445
000030 61 d2 87 3d 1b 47 04 3d fc 3a 5f 3d cd 93 2f be
       0.066319235 0.032294374 0.05449961 -0.17146225
000040 1f 3f 3e 3d 0a 28 73 be a0 38 8e bd 61 bc d0 3d
       0.046446916 -0.23745742 -0.06944394 0.101921804
000050 96 35 06 be fb 39 4d be a2 28 a5 be fb 7f a0 bd
       -0.13106379 -0.20041649 -0.32257563 -0.0783691
000060 9d 29 96 be 48 31 a3 3d c7 0b aa bd 35 34 10 bd
       -0.29328623 0.07968384 -0.083030276 -0.03520604
000070 fa b1 ad bd 1c 2c 72 be 4f 61 fd 3c 1d 45 0e bc
       -0.08481212 -0.23649639 0.03093019 -0.00868347
000080 d3 6a 4e be 8c 40 f1 bd d2 64 4f be 2e 23 78 3d
       -0.20157938 -0.117798895 -0.20253304 0.060580425
000090 cf a6 a0 bd 4f 81 86 be a1 7b 1a 3e 77 5f 06 bc
       -0.07844316 -0.2627053 0.15086223 -0.0082014715
0000a0 cc 18 9c 3e e3 84 74 be 58 1a 07 be e2 d7 6e be
       0.3048767 -0.23878817 -0.13193643 -0.2332454
0000b0 f0 04 91 3d b8 bf 95 bd d1 cd 06 3d 62 ab 74 be
       0.0708102 -0.07311958 0.032911126 -0.23893502
0000c0 e7 ba 27 3d 8e 46 b2 be f0 b4 13 3e bd 04 96 3d
       0.04094973 -0.34819454 0.14424491 0.073251225
0000d0 54 2f cb bd 6c a4 b6 3d 8d 75 1c be 25 75 d0 3d
       -0.099211365 0.0891808 -0.15279217 0.101785935
0000e0 b1 ef c8 bd 04 f0 ac bd fb ad 04 be c9 4f df bd
       -0.098113425 -0.08444217 -0.12956993 -0.1090389
0000f0 9d 4c 44 3d 6b e4 e9 bd 0d 98 0c 3d 2d 0e 09 be
       0.047924627 -0.114205204 0.034324694 -0.13384314
000100 a2 6b 16 3d 21 03 4d be 81 c8 97 be 03 cb 2e be
       0.03672374 -0.20020725 -0.2964516 -0.1706963
000110 e1 d4 2e be 93 f2 06 be 49 3f 2d be ab f1 79 bc
       -0.17073394 -0.13178472 -0.16918673 -0.015255372
000120 8e 31 b9 be d5 38 00 be 7c cc 98 bd fa 89 26 bd
       -0.3617062 -0.1252168 -0.07460877 -0.04065893
000130 08 60 0e be d8 ac 95 bd 79 a3 92 bd 01 d1 97 3d
       -0.1390382 -0.07308358 -0.07160086 0.07412911
000140 a5 90 d4 bd c7 76 c3 3d 1b 81 73 bd 7a 07 01 3e
       -0.10379151 0.09544139 -0.059449296 0.12600508
000150 11 d1 dc bd 61 b0 81 bd 14 80 ac bd c7 33 ea bd
       -0.10782064 -0.0633247 -0.084228665 -0.11435657
000160 3e f6 63 be 19 4a c8 3d be 5f 2a be c6 d5 26 be
       -0.22261903 0.09779758 -0.16638085 -0.16292486
000170 25 df af be 8b 6a 21 be b4 7c 3f bd c4 86 fb 3d
       -0.34349933 -0.15763299 -0.046749786 0.12281564

layers.0.lin_self.weight f4 [96, 96]
000000 11 c1 1c 3d c9 d6 2f bd bc 8d a9 3d 68 28 f7 bd
       0.03827006 -0.042929444 0.08278987 -0.12068254
000010 5c 9a f5 bc f6 06 d3 bc 32 4e 33 bc 59 3a f4 3c
       -0.02998083 -0.025760155 -0.010943936 0.029812979
000020 e0 09 b5 3d ff 66 32 bd 2a 27 7d bd e4 c7 3b bd
       0.08839774 -0.043555256 -0.061804928 -0.045844927
000030 62 14 07 3e bb b6 7d 3d 13 9e f0 bb d5 e6 62 bc
       0.13191369 0.061941843 -0.0073430627 -0.01384898
000040 f9 bf 71 bd 99 53 03 bc 73 90 02 be 1a e1 01 bc
       -0.05902097 -0.008015537 -0.12750416 -0.007927204
000050 7a 11 80 3b ac ae 23 3e 4a 4c 6d 3d b5 31 fe bc
       0.0039083334 0.15984601 0.057934083 -0.031029562
000060 0d a6 89 bd ad 78 a7 bd 99 f7 17 be b9 1b 01 3e
       -0.06721125 -0.08177314 -0.14840545 0.12608232
000070 2c 6f f2 bd a1 91 d6 3d 85 4b 99 bc 28 12 cf 3d
       -0.118376106 0.10476995 -0.018712768 0.10110885
000080 8f be 93 bd 4a 4d 01 3e 3b c8 da bc b6 c5 9b bd
       -0.072140805 0.1262714 -0.026706805 -0.0760607
000090 ec c7 e2 bd af 62 37 bd 09 32 17 3e 62 f3 ba bd
       -0.11073288 -0.044771846 0.1476518 -0.09128453
0000a0 1f dc 82 bd 4b 56 72 3d ae 4c b3 bd a7 60 e7 3c
       -0.06389641 0.059164327 -0.0875486 0.02824433
0000b0 e9 e3 de bd c0 20 77 3d b6 0b 46 bd 64 de de 3c
       -0.10883314 0.060333967 -0.048351012 0.027205653
0000c0 73 9c 8e 3d 13 d5 cd 3d 92 d2 c3 bd 52 69 db 3c
       0.06963434 0.10050406 -0.095616475 0.02678362
0000d0 bf a8 c3 bd 1b 6f 8a bd f5 0a 99 3d 36 84 a8 3d
       -0.0955367 -0.06759473 0.07472793 0.08228342
0000e0 61 86 12 bd a5 35 de bc d0 9d 8a bd da 53 61 3d
       -0.035772685 -0.02712519 -0.067683816 0.055011608
0000f0 99 63 85 3d 2e 8e 8c 3d 0f fe 2c be 60 eb c8 bd
       0.06513137 0.06863056 -0.1689379 -0.09810519
000100 c0 54 ab 3d f3 79 94 3d 53 a0 c6 bc 9d 17 22 3e
       0.08365774 0.072498225 -0.02424637 0.1582932
000110 83 d3 46 bd 8b 03 e4 3d 83 4a ad bd b9 3b ed 3d
       -0.048541557 0.11133488 -0.084614776 0.11583657
000120 f2 af 38 3d 23 5c 57 bd bf 87 f8 bc 43 f6 1a 3d
       0.04508967 -0.052578103 -0.030338166 0.03783251
000130 44 5b f5 bc 50 13 b5 3d dd 4a 77 bd d9 f6 b3 3d
       -0.029950745 0.08841574 -0.06037413 0.08787317
000140 55 91 9a bd 08 9d 81 bc 97 74 2c 3d 7e ed 68 3d
       -0.07547251 -0.015821949 0.042103376 0.056867115
000150 52 46 fa 3d 44 c2 7b 3d 0f 4c 31 3e 6c cb 88 3c
       0.12220444 0.061464563 0.1731417 0.016698562
000160 80 f4 51 bd 4a c6 f4 bd ee 52 ff ba 0e c8 a5 bc
       -0.051258564 -0.11951883 -0.0019479671 -0.020236995
000170 7b eb db bc 3e f2 1c be f2 5f 94 3d b5 45 28 3d
       -0.026845684 -0.15326783 0.072448626 0.041082103
000180 c8 14 1c bd 2f 0d fa 3c 8f 5b 9f 3d c2 0d 3b 3d
       -0.038105756 0.030523865 0.07781135 0.045667417
000190 ee 9e 92 bd cb c5 3f bd 7a c3 b0 3d 6d 0a ea 3c
       -0.0715922 -0.04681949 0.08631034 0.028569425
0001a0 a5 91 87 bd 5a 99 b5 bd a2 e3 0d bb 27 35 1d 3d
       -0.06619576 -0.0886714 -0.0021650572 0.03838077
0001b0 90 5b bb 3d d1 33 33 3d 6a ed d6 bd 82 8a 43 bd
       0.091483235 0.043750588 -0.10494502 -0.047739513
0001c0 0f b2 c4 bd 11 0c 1e bd a3 6c 9a bd 96 ed bc 3c
       -0.096042745 -0.038585726 -0.07540252 0.023062509
0001d0 68 9b d3 bd 9b 5f 6d bd 15 49 c2 bc 59 bc ba bd
       -0.10332376 -0.057952505 -0.023716489 -0.09117956
0001e0 73 af ea bd f2 f6 a3 bd ff d5 6a 3d e2 0a d0 bd
       -0.114592455 -0.080060855 0.05733299 -0.10158326
0001f0 47 4c 78 3d 45 7d 9c 3d 9b 07 b4 bc ef 9b 25 bd
       0.06061962 0.07641081 -0.021976283 -0.040431913
000200 f2 7a de bb 78 b0 c2 3c b0 a8 e0 bc b9 75 25 bd
       -0.0067895586 0.023765787 -0.027424186 -0.040395472
000210 0c 3d 08 bd cd 47 28 3d 9c 84 4a 3d 7a 1b c0 bc
       -0.033261344 0.0410841 0.049442872 -0.023450602
000220 2f 06 e2 bd 13 f6 ea bd b1 cf a3 3c 74 c1 11 bd
       -0.11036336 -0.11472716 0.019996496 -0.035584882
000230 f8 5b c5 bb ea d6 18 bd 24 c4 95 bc 8e b4 59 bd
       -0.0060229264 -0.037314333 -0.018282004 -0.053150706
000240 02 30 90 bc f0 87 22 bc ce d9 03 3d 04 f0 a4 bc
       -0.017601017 -0.009920105 0.032190137 -0.02013398
000250 1c 7b 21 3d 1e ba c8 3c 1d 0b d7 3c cc 80 d2 bd
       0.039424047 0.02450281 0.026250416 -0.10278472
000260 30 84 80 3d a9 97 20 3d 70 a2 0e 3d d2 56 a1 bd
       0.06275213 0.039207134 0.03482288 -0.07877888
000270 f9 3e 47 3d 45 c7 13 bc c0 e9 36 bc 70 c3 bf 3d
       0.04864404 -0.0090196775 -0.011164129 0.093634486
000280 30 3b b3 bd 5a 9e 79 bd 60 87 bc bd 8e 95 9a 3d
       -0.087515235 -0.06094203 -0.09205508 0.075480565
000290 f1 62 cc 3c 53 2c a2 bd 1f 05 a9 3c ff c7 c0 3d
       0.024949523 -0.079186104 0.020632325 0.09413146
0002a0 17 6e b2 3a e9 6c 71 3d dd 4a 30 3d 8f e2 bf bd
       0.0013613132 0.058941755 0.043040145 -0.093693845
0002b0 0d 3b b1 bd d8 91 d7 bc ad 66 a7 bc 19 25 a3 3c
       -0.08653841 -0.02631466 -0.020434702 0.01991515
0002c0 ce 8e c8 bd 2e 04 99 bd e3 83 7c bc 30 55 17 3d
       -0.09792863 -0.074715 -0.015412304 0.036946476
0002d0 b6 88 af bd 20 12 d3 bd 01 18 ab bd 2c 95 90 bc
       -0.085709974 -0.103061914 -0.08354188 -0.017649256
0002e0 85 6a 60 bd da a1 e9 bc 9b 9a 86 bb 09 5c 9d bc
       -0.054789085 -0.02851956 -0.004107786 -0.019208925
0002f0 21 9f d5 bd 20 aa 6a bd 18 c3 cc bc cf 16 02 be
       -0.10430742 -0.05729115 -0.024995372 -0.12704013
000300 2f 03 66 3c e0 c8 a2 bd 75 50 58 be 49 9d 31 3c
       0.014038845 -0.0794847 -0.21124442 0.010840722
000310 99 c9 89 3d 2b 7d 89 3d 0a 59 7c bd 87 ec bb 3c
       0.06727905 0.06713327 -0.06160835 0.022939933
000320 a5 be a7 bd e0 6d 3e 3d e0 9b fb 3c 8c a9 a9 bd
       -0.081906594 0.046491504 0.030713975 -0.082842916
000330 bf b8 07 be 22 28 94 bd 6a 1f c3 bd 64 09 29 3d
       -0.13254069 -0.07234217 -0.09527476 0.04126872
000340 cb 47 c3 3d e9 5c c7 bd dc e0 82 3d f4 75 3d 3d
       0.09535178 -0.09734518 0.06390545 0.046255067
000350 35 83 bd bc f7 c7 43 bc 70 94 04 be 22 01 16 bd
       -0.023133853 -0.011949531 -0.1294725 -0.036622174
000360 22 4a f5 bd fd df 49 3d 6e 3b 84 3d f2 97 25 3d
       -0.1197703 0.049285877 0.06456648 0.04042811
000370 07 c3 74 3d e8 ec 09 3e 0f 38 9f 3c fe 92 cd bd
       0.059756305 0.13469279 0.01943591 -0.10037802
000380 d8 a2 19 3e df 4d 28 bd fc dc 89 3d 49 8b 03 bc
       0.15003526 -0.04108989 0.067316025 -0.008028814
000390 7b be b9 bc 1d dc 89 3d 63 3b e0 bd 80 01 3d 3e
       -0.022673836 0.067314364 -0.10948827 0.18457603
0003a0 ad 48 ff bd 85 0b bf bd fd 29 f2 bd 7a 32 75 3d
       -0.12465034 -0.09328369 -0.11824415 0.05986259
0003b0 3c bd c0 3d 75 e6 6f bd 72 9f 2e 3b 36 94 fc 3a
       0.094110936 -0.05856939 0.002664533 0.0019270245
0003c0 2c 22 ab bd 72 0b 92 bd 45 40 62 bc e1 ce 9e bd
       -0.08356127 -0.07131089 -0.013809268 -0.07754303
0003d0 a9 c5 d9 3d 82 52 34 be 25 46 f0 bd 82 06 99 bd
       0.10633404 -0.17609599 -0.11732129 -0.074719444
0003e0 16 f6 0d be db 3e 07 be 94 db c4 bd e2 b9 07 3c
       -0.13863406 -0.13207571 -0.09612194 0.008284064
0003f0 3e 74 15 be 8b b9 eb bd 16 f2 b5 3c fa f5 d3 3d
       -0.14595124 -0.11509999 0.022210162 0.10349651

layers.0.lin_self.bias f4 [96]
000000 cd cb 01 3e 54 8c 09 3d c0 10 7a bd ae 8e 15 bd
       0.126754 0.033581093 -0.06105113 -0.036513023
000010 bd 8b 7e 3d 06 d7 e4 bd de c2 14 3d 38 08 69 3d
       0.062144984 -0.11173825 0.036318652 0.056892604
000020 80 3d 83 bc ed 2a 0c bc ae 9a ef 3c c6 4d ef 3c
       -0.016020536 -0.008555156 0.029248562 0.02921189
000030 79 4e bc 3d 58 fc 1a 3a 12 29 32 bd 12 cf 47 bc
       0.09194655 0.0005912236 -0.0434962 -0.0121953655
000040 4d a2 08 bd 8e 31 f6 bd 87 7e f9 bc 9a 2a da bd
       -0.033357907 -0.120211706 -0.03045584 -0.10652657
000050 b8 13 c4 bb 65 ff 62 bb 57 bd 30 3d a5 c7 5c bb
       -0.005983796 -0.003463709 0.04314932 -0.0033688333
000060 5e 73 91 bd 0f 05 49 3e a1 11 29 bd cd 11 fd 3b
       -0.07102083 0.19630836 -0.041276578 0.0077230693
000070 18 33 89 bd 59 14 9d bc df ed a4 bd aa 41 d3 bd
       -0.066991985 -0.019174742 -0.08053183 -0.10315259
000080 24 11 09 bd 47 92 28 bd 3c 0c 80 bd b1 f6 30 3b
       -0.033463612 -0.041155126 -0.062523335 0.0027002508
000090 e4 33 4e 3d 4f 16 45 3d 27 df 2c 3d 5b 96 38 3d
       0.050342456 0.04811698 0.042205002 0.045065265
0000a0 d9 69 87 3d 33 03 b8 bc 86 c8 81 bd 19 e3 05 3d
       0.06611986 -0.022462463 -0.06337075 0.03268728
0000b0 16 f6 65 bc 3d 45 2c bd f0 c1 e1 3d 59 64 86 bd
       -0.014035722 -0.04205822 0.11023319 -0.065621085
0000c0 3f d6 fc bd a4 9b b9 3c cd f5 56 3d ba 1d 1e bd
       -0.12345552 0.022657223 0.052480508 -0.03860257
0000d0 52 be 62 bd ad 15 ed bd 8d df 60 bd 4f 7a 27 3d
       -0.055357285 -0.115764 -0.054900695 0.040888127
0000e0 4d 69 fc bc ae 63 c2 bc 03 d9 59 3c a3 28 cf 3c
       -0.03081193 -0.023729172 0.0132963685 0.025287932
0000f0 5e 7e e5 bd 6b 25 5c 3d db f6 88 bd 18 e3 1d 3e
       -0.11205743 0.053746622 -0.06687709 0.1541866
000100 bc 42 c2 bd 67 26 56 3d c7 c2 79 bd db d8 eb bc
       -0.09485385 0.052282717 -0.06097677 -0.028789928
000110 f0 b4 82 bd 79 ac ac bc a9 b4 fc bc c3 27 7e 3d
       -0.06382167 -0.021078335 -0.030847864 0.06204964
000120 f3 49 ab bc 08 c6 e1 bc 39 14 92 bd 15 da 4c bd
       -0.020909285 -0.027560249 -0.071327634 -0.050012667
000130 4c 0d 8a bd d6 20 86 3d 4d 2b 81 3d a6 3a 6a bc
       -0.067408174 0.06549232 0.06307087 -0.014296209
000140 75 0b ff bc 98 12 ff 3c 8b 0b d3 bc 66 67 a9 3c
       -0.031133393 0.031136796 -0.02576234 0.020679187
000150 2d 7d 0e 3e 66 77 68 3a 54 c2 b5 bd a5 ff 03 3e
       0.13914938 0.00088678894 -0.08874956 0.1289049
000160 f2 f6 3c 3d 26 2a 8b 3b c4 8a 20 3d 04 7b 99 bc
       0.046133943 0.004246968 0.039194837 -0.018735416
000170 b2 5d ee bd 93 1f d6 bd a9 b9 58 3d a2 e6 93 bd
       -0.11638965 -0.10455241 0.052911434 -0.07221724

layers.0.lin_neigh.weight f4 [96, 96]
000000 2f 3a 39 be 4f c3 a3 bb 30 fa e4 bd 7a 59 01 3d
       -0.18088602 -0.004997648 -0.11180532 0.031579472
000010 2b 3b 88 bd f0 ff 09 bd a4 f0 b6 3d 31 2e 6a 3c
       -0.066519104 -0.033691347 0.08932617 0.014293239
000020 8d b4 00 3e b0 e3 fc bd 1b ba 1a 3e 99 64 fe bd
       0.12568875 -0.123481154 0.15110056 -0.12421531
000030 79 4d 0c bd 7c 1f d8 3c 1e 80 a6 3d 32 9d d9 3d
       -0.03425357 0.0263822 0.08129905 0.10625686
000040 ab f1 aa 3d 1e 95 17 3c b6 2a ac bc a6 78 d2 bb
       0.08346876 0.009251861 -0.02101646 -0.006423074
000050 de e0 62 bd 4b 2e 99 3d 80 c8 69 bd 64 2b 1b 3c
       -0.05539023 0.07479533 -0.057075977 0.009470794
000060 ce 71 30 3c c3 5b 89 3d 38 8b e4 3c 74 83 00 3e
       0.010769321 0.06706955 0.027898416 0.12550145
000070 11 2f a4 3d e0 2c 13 3e b2 22 79 bc 83 09 df bd
       0.0801679 0.14372587 -0.015206026 -0.10890486
000080 8d e1 29 3d b5 db 51 bc a2 e3 91 3d d8 ff 24 3d
       0.041474868 -0.01280873 0.07123496 0.040283054
000090 05 24 c1 3c c5 05 bf 3c d8 68 85 3c 4e f5 d0 bb
       0.023576746 0.02331818 0.016285345 -0.006376899
0000a0 bd 4c 08 3b 1b 33 89 bc 92 6c 18 3b 13 e4 77 bd
       0.0020797693 -0.016748002 0.0023258072 -0.060520243
0000b0 78 4a 09 bd 81 c0 7a bd 5a 25 48 bd 92 87 53 3d
       -0.033518285 -0.061218742 -0.048863746 0.05164296
0000c0 3d f2 a0 3d 64 42 52 bc cd 79 93 3d 3f 9a eb bd
       0.07858703 -0.012833212 0.07200966 -0.115040295
0000d0 78 72 26 bd 49 49 9a 3d 10 15 19 bd 0f ed 44 bc
       -0.04063651 0.07533509 -0.037373602 -0.01201941
0000e0 3b ee 5c be 99 3b 46 3c d1 68 83 3d 0c fb 17 3e
       -0.21575253 0.01209917 0.064164765 0.1484186
0000f0 2e 0d a8 3d 11 23 21 be 52 f5 88 3b 76 b2 5e 3d
       0.08205639 -0.15736033 0.004179635 0.054369412
000100 dd a5 c7 3d 57 35 ff bd 86 0e 82 bd be b1 62 bd
       0.09748433 -0.12461346 -0.063504264 -0.05534529
000110 78 61 46 ba bd 79 ac 3d 42 ea c7 3d e9 8c 18 bd
       -0.00075676246 0.08421657 0.09761478 -0.037243757
000120 84 d0 83 3d 6a c9 8a 3d a4 41 5d 3c 5b a9 d6 bc
       0.064362556 0.06776698 0.0135044195 -0.026203802
000130 29 52 a8 3d b4 25 d2 3c 19 e1 9e bc b6 ef fc 3d
       0.08218796 0.025652744 -0.019394444 0.12350409
000140 5c 2e 27 3b 5b e6 70 3d 48 bf 12 3d 81 26 24 3d
       0.002550981 0.058813434 0.03582695 0.040075783
000150 d9 da ca 3d cf df f5 bd ad f9 8f 3d 12 09 27 3d
       0.09905023 -0.12005579 0.07030044 0.040780134
000160 21 aa b5 bd 6d a8 f2 3d 90 ed 3e 3d da 65 35 bd
       -0.0887034 0.11848531 0.046613276 -0.044286586
000170 a5 90 44 3c 19 89 e0 bd 79 60 f3 3d 5d c3 07 be
       0.011997377 -0.10963649 0.11883635 -0.13258119
000180 1a 37 5b bd be 8d db bd 76 9d eb 3c 87 3b f0 bd
       -0.053519346 -0.107203946 0.028761607 -0.11730104
000190 69 12 7e 3d 1b a1 04 bc 84 a2 6a bd a4 04 b3 bd
       0.062029276 -0.008095051 -0.057283893 -0.087411195
0001a0 fc 8b 81 bc 80 22 72 bd db 7f a5 bd 88 c7 91 bd
       -0.01581382 -0.059114933 -0.08081027 -0.07118136
0001b0 eb d6 7e 3b df 71 06 bc 0b bf 13 3d 7b 65 5a bd
       0.0038885425 -0.00820586 0.036070865 -0.053319436
0001c0 34 f8 b1 bd 0a f1 52 bd 36 fb 37 bd 2e c8 92 3c
       -0.08689919 -0.051499404 -0.044917308 0.017917719
0001d0 ae b8 11 3d 36 b6 46 3d 62 38 b4 bc be 98 1b bd
       0.035576515 0.048513614 -0.021999542 -0.037987463
0001e0 b3 df 96 bd 1a 1f 0e bd f4 24 2c bd e9 07 e3 bd
       -0.07366886 -0.03469763 -0.04202743 -0.11085493
0001f0 61 80 ed bd a9 7d b1 bc 9f 72 e7 3c a3 52 89 3d
       -0.11596752 -0.021666365 0.028252898 0.06705215
000200 e2 a6 c1 bd 7f 10 7d 3d 2b 8a 01 be 58 ee 09 bd
       -0.094556585 0.06178331 -0.12650363 -0.033674568
000210 92 62 e1 bd e1 98 07 bd fd 1d 0f bc 37 d7 a4 bd
       -0.11005129 -0.03310478 -0.008735177 -0.080488615
000220 18 49 f5 bd 98 b6 47 3a 99 d5 56 3d d4 9b dd bc
       -0.11976832 0.0007618456 0.052449796 -0.027051844
000230 4e 30 ed bd 68 95 03 3d 40 eb e4 3c ba e3 05 be
       -0.11581479 0.032124907 0.027944207 -0.13075152
000240 38 aa 74 3c 72 6b c2 bd a4 69 e8 bc c2 bd 25 3c
       0.014933161 -0.0949315 -0.028370686 0.010116043
000250 39 3c d4 3b f5 2b 0c be 4e bb 41 bd 0d 80 f8 bd
       0.0064769057 -0.13688643 -0.04729777 -0.12133799
000260 f2 23 2f 3d 9f 33 00 be 8c 3e a6 bd ef 9a 80 bd
       0.04275889 -0.12519692 -0.081173986 -0.06279551
000270 42 5c b8 3b 0a 81 76 3d 98 b0 b1 bd 24 ee 80 bc
       0.0056262324 0.060181655 -0.08676261 -0.015738554
000280 29 5c 96 3c c8 dc 3e 3c 6e 3b df 3c b6 9a 11 bd
       0.018354492 0.011649318 0.027250018 -0.035547934
000290 91 77 18 3d c4 69 c9 bd 54 0d 0e 3c 81 25 09 bd
       0.037223402 -0.09834626 0.00867017 -0.033483032
0002a0 1f be 2c 3b 92 ce 0e 3d 45 e7 b6 bc ed 38 15 3d
       0.0026358438 0.03486497 -0.022327075 0.03643124
0002b0 3c 16 04 3d 36 b5 2b 3d f3 15 7e bc 36 a1 b6 3b
       0.032247767 0.041920863 -0.015508163 0.005573417
0002c0 1f 07 ff 3c 24 a2 ef bc a7 d3 24 bd 51 58 f9 bd
       0.031131325 -0.02925212 -0.04024091 -0.12175048
0002d0 79 5d 55 3d e0 c7 51 3d a4 3e 5a 3c 63 c5 19 3d
       0.052091096 0.051216006 0.013320599 0.03754176
0002e0 c4 62 96 bd 46 42 85 bc cc 6a 85 3d b6 aa 0f 3c
       -0.07343057 -0.016266953 0.065145105 0.008768728
0002f0 78 83 d2 3c 59 3f 77 bd 55 7a 85 3d c7 77 b2 3c
       0.025697455 -0.060363147 0.065174736 0.02178563
000300 46 ff de bd bb e9 be 3d f4 a8 99 be f9 51 47 ba
       -0.10888533 0.09321924 -0.30011714 -0.00076034624
000310 dd e7 e6 bc 5e 32 ed bd 36 82 84 3d 33 50 f9 3c
       -0.028186733 -0.115818724 0.06470148 0.03043375
000320 f5 6d c4 bc 81 94 94 bc c2 d1 1a 3d 37 f6 98 bc
       -0.023978213 -0.018137218 0.037797697 -0.018672092
000330 58 cd 3f bd c9 7e 4e bd 24 25 3e 3d 6e 74 9e 3d
       -0.04682669 -0.05041388 0.04642214 0.07737051
000340 d3 68 85 bd c1 f1 9b bc 7b 8b ed bc 20 42 d6 3d
       -0.06514134 -0.019036176 -0.028997174 0.10461831
000350 5d 65 3b bc 6e 55 85 3d 65 b7 cc 3d 67 b6 2b bd
       -0.011437741 0.06510435 0.09995917 -0.041922
000360 f2 eb 86 3d 0b 0e c5 3b e5 c2 58 3d 4e 6f ca 3c
       0.06587972 0.006013637 0.05292024 0.024711277
000370 87 73 3c 3e d7 ee a7 3d 71 43 9a 3d 74 4e 38 3c
       0.18403445 0.08199852 0.07532395 0.011249173
000380 5a c0 d4 3d 67 60 96 3c 24 b6 d0 3d 51 d3 c9 bc
       0.10388251 0.018356515 0.101909906 -0.024636896
000390 e5 4d af 3d ba ef e1 3d c5 3f d0 bd 0e ec ca 3b
       0.08559779 0.11032052 -0.10168413 0.0061926907
0003a0 d9 3a fe bd 3a 83 86 bc 61 11 1c 3c fd bc 8a 3d
       -0.12413568 -0.016419996 0.009525628 0.06774328
0003b0 2e cb 10 3e e5 3a 75 bc 52 ee c9 bc e0 0a b9 bc
       0.14140007 -0.014967655 -0.024649773 -0.022588193
0003c0 5a 8d 40 3d 44 6c 24 bd a7 43 ba bd 71 c4 0d bd
       0.047009803 -0.040142313 -0.09094935 -0.03461117
0003d0 a0 51 41 3e 3b b7 bf bd a8 a5 16 3d 40 24 0f 3d
       0.18878794 -0.0936112 0.036779076 0.03494668
0003e0 3c 74 b3 be 81 55 f6 bd 32 26 93 bd a1 40 3a 3e
       -0.35049617 -0.12028027 -0.071850196 0.18188716
0003f0 59 06 73 bd 85 99 4a be 9a a4 cd bc de bb 9e 3c
       -0.059332225 -0.19785126 -0.025102902 0.019376691

layers.1.lin_self.weight f4 [96, 96]
000000 35 a9 1a 3c 8f 32 9a 3c 34 30 19 bd 11 b2 e1 bd
       0.009439756 0.018822936 -0.037399486 -0.110202916
000010 38 3f 52 bd 27 c0 37 bd 17 f2 44 bd 48 b1 94 3d
       -0.05132982 -0.044860985 -0.048082437 0.07260376
000020 a0 12 9f 3d 33 b1 2e 3c 84 44 cb 3d cd df d5 3c
       0.07767224 0.010662365 0.09925178 0.026107693
000030 a0 86 be 3d 31 a5 9b 3d 73 2d bf ba a7 8f f8 3c
       0.093030214 0.07599867 -0.0014585688 0.030341936
000040 4a 5f 81 bd d4 ff 92 3c f6 59 9a 3b e7 b0 d3 bd
       -0.06317003 0.017944254 0.004710431 -0.10336476
000050 be ee c5 3d b9 17 96 3b 6b 01 81 bd 23 c4 e2 bc
       0.09664677 0.0045804647 -0.062990986 -0.027681416
000060 ee 15 1c bd 04 da 24 3d d6 63 66 3d b1 e4 46 3d
       -0.03810685 0.04024698 0.056247555 0.04855794
000070 5e ce b0 bc cf fa 43 3d d2 d8 db bc 69 00 36 bc
       -0.021582779 0.04784661 -0.026836786 -0.011108496
000080 57 b9 6b 3d 79 50 16 bd 06 9d 00 be fe 05 54 3d
       0.0575498 -0.03669784 -0.125599 0.051763527
000090 65 8b c5 3d 1d f4 99 3a 8c ec 0f bc f8 bd 33 3d
       0.09645728 0.0011745725 -0.0087844245 0.04388234
0000a0 a2 ff c8 bd 5d 54 74 bd 6c bf a5 bb 64 0d 57 bd
       -0.09814383 -0.059650768 -0.0050582197 -0.052503005
0000b0 68 28 71 3d 59 ad cd bc 6f b6 3a 3d ee aa ae 3b
       0.058876425 -0.025107073 0.04558414 0.005330435
0000c0 4e 97 a5 bd 1d d0 74 3d 57 a0 32 3d c5 b3 80 bd
       -0.080855 0.059768785 0.043609943 -0.06284288
0000d0 44 29 d8 3c 40 8a 4c 3d ef ef b4 bd 3b 46 67 3d
       0.026386864 0.049936533 -0.08834826 0.05646346
0000e0 06 86 9f bd 9e 77 16 3d 0f ac 9e 3d cc 59 a8 bd
       -0.07789235 0.03673517 0.07747661 -0.082202524
0000f0 43 b9 9c bd e6 fc 8a bc c0 12 07 be 28 9b e3 bc
       -0.07652523 -0.016966294 -0.13190746 -0.027783945
000100 7d 15 0f be 7e f5 17 bc 20 66 40 3d 10 5e 47 3d
       -0.13973041 -0.0092748385 0.046972394 0.04867369
000110 fd 27 b9 bc 06 40 89 3a 06 9e d4 bb 39 18 87 bb
       -0.022602076 0.0010471351 -0.0064885644 -0.0041227606
000120 49 ad d2 bc 48 e9 7d bd d5 04 93 3d 97 5b 6b bc
       -0.025717394 -0.061990052 0.07178656 -0.014365098
000130 67 f7 a6 3d 7e be 71 bd ec 6c 1a 3d 38 b2 f3 bd
       0.08152657 -0.059019558 0.037701532 -0.11899227
000140 45 fc 31 bd 2f 8a ab 3d a9 a0 97 3c e0 6c 3b 3d
       -0.043453474 0.08375966 0.018509226 0.04575813
000150 3f 02 a9 bd 7f b6 44 bd b1 85 2f bd 04 fd da bd
       -0.082523815 -0.048025604 -0.042852107 -0.1069279
000160 9d 6b 1d 3d 11 3a 2e bb d7 cc 34 bc 0e 71 f0 3c
       0.038432706 -0.0026584903 -0.011035166 0.029350784
000170 3d 22 24 3d 3c 72 e2 bd 37 44 56 bc f6 22 97 3c
       0.040071715 -0.11056945 -0.013077787 0.018449288
000180 f2 49 de bd 36 0b 2a 3b 9c ed d3 3a 99 fe 93 3c
       -0.10853948 0.0025946624 0.0016168836 0.018065738
000190 e3 3a ab 3d a9 47 87 3d fa f2 4c bd f5 5b 77 bd
       0.08360841 0.06605465 -0.050036408 -0.06039043
0001a0 86 e7 8b bd e7 ce 60 bc 36 16 71 3b a8 e9 e0 3d
       -0.06831269 -0.013721204 0.003678692 0.109820664
0001b0 29 f8 06 3d 32 ef 8f bc 85 9b ca bd c2 78 0d bd
       0.032951508 -0.017570112 -0.09892944 -0.03453899
0001c0 d5 8c 88 3d 83 28 bc bc 2f a7 32 3d bb 4b 96 3d
       0.066674866 -0.022968536 0.04361647 0.07338663
0001d0 12 e2 4d bd 71 d6 06 bb ca a3 12 3d 38 1c a4 bd
       -0.050264426 -0.0020574594 0.035800733 -0.08013195
0001e0 3d f6 e2 39 99 0f 9f bd 80 8e 6f 3d 1e f3 8e 3d
       0.0004328954 -0.07766647 0.058485508 0.06979965
0001f0 b8 b9 9b 3d c3 d6 33 bd c2 58 d8 3d ba 0f fc b9
       0.076037824 -0.043905985 0.10563804 -0.00048076903
000200 21 08 d7 bd 3f 20 8f 3d c2 87 63 bc a0 9b b6 bd
       -0.10499597 0.06988572 -0.013887348 -0.08916402
000210 bd a5 83 bd f9 a4 f8 3c f2 1f ac 3c b4 ca 9c bd
       -0.064280964 0.030352103 0.021011326 -0.0765585
000220 24 6c 24 3d 05 78 7c bc d7 3a bb 3c 5e 3b 23 bc
       0.040142193 -0.015409474 0.022855205 -0.009962885
000230 83 ce 5a 3d e2 e2 b0 bd ab 7f 05 bd 78 99 4f bd
       0.0534196 -0.086370245 -0.032592457 -0.05068347
000240 73 9b 12 bc 60 b4 0f 3c f9 c8 c3 3d 83 cd a0 3d
       -0.008948195 0.008771032 0.09559817 0.07851698
000250 89 35 27 3d a4 07 85 3d dd 7a 51 bd dd a5 ea 3c
       0.04082254 0.06495598 -0.051142562 0.028643543
000260 d6 88 92 3d 8a 6e 9d bc 9e 2e 79 3c 4a 0d 43 bd
       0.07155006 -0.019217748 0.015208868 -0.047620095
000270 13 0a ff bc 36 fa f2 bc 5c 45 a8 bd d8 4c 4d bc
       -0.031132733 -0.029660325 -0.08216354 -0.012530528
000280 95 fe f7 bc b9 51 89 bb 3b 64 f4 bc ea ae 53 3d
       -0.030272761 -0.0041906503 -0.02983295 0.051680483
000290 48 2c 38 bc 09 73 10 bc bb 88 22 3d a9 d6 84 3d
       -0.011241026 -0.008816489 0.039681178 0.06486256
0002a0 bf 47 4f 3d e1 5d d4 3c 34 07 02 bd d2 15 95 3d
       0.05060553 0.025923671 -0.03174515 0.072795525
0002b0 1a 6f d0 bc dc 76 32 bc b5 8b 6e ba 0a 97 ea bd
       -0.025443602 -0.010892596 -0.00090997975 -0.1145459
0002c0 d0 c3 41 bd 3b 49 26 bd 19 b1 90 3d 8b 4e 99 3b
       -0.047305882 -0.04059718 0.07065029 0.0046785525
0002d0 49 4b 5c bd a5 e8 0e 3d bd 05 8c bd 45 e1 92 bd
       -0.053782735 0.034889836 -0.06837032 -0.07171873
0002e0 da 82 96 bd 70 43 ab 3b 89 d8 18 3d 30 fd 4d 3d
       -0.07349177 0.005226545 0.03731588 0.050290287
0002f0 33 8e 8e bd 83 69 ce bd 00 f5 26 bd fa 96 bd bd
       -0.06960716 -0.100787185 -0.040760994 -0.09257312
000300 2b 6f b6 3d 3d 54 09 bd fc b0 92 bd 8c 30 8b bc
       0.08907922 -0.0335276 -0.07162663 -0.016990922
000310 96 84 89 3d 55 8a 5f bd 73 5e d2 bd 5b 2d 85 3b
       0.06714742 -0.054575283 -0.10271921 0.0040642447
000320 fc 9a fd bc 2e 23 3f 3d 42 58 c1 bd 9e 14 9d bd
       -0.030957691 0.04666441 -0.09440662 -0.07669948
000330 84 75 25 be 3f a0 e6 3c 30 47 30 3c 40 25 2e 3d
       -0.1615811 0.028152583 0.01075916 0.042515993
000340 43 4c 65 bd d2 53 e0 bb 8d 76 9f 3d 16 dd 13 3d
       -0.055980932 -0.0068459297 0.07786284 0.036099516
000350 2a c8 a6 bd 4d d9 f6 bd 86 07 f2 3c bf 76 22 3d
       -0.08143647 -0.120531656 0.029544603 0.039664026
000360 be 90 30 3c 31 6a c6 3d ee b0 10 3d 92 d0 55 bd
       0.010776697 0.09688223 0.035324983 -0.05220086
000370 72 0e 9a 3d 03 c3 57 3d aa 4b 83 3d b5 c8 ec b5
       0.075222865 0.052676212 0.06410916 -1.7641784e-06
000380 52 b0 bf bd e8 37 1d 3a 5e f8 80 bd 2a 10 a0 bd
       -0.09359802 0.00059974054 -0.06297372 -0.07815583
000390 bf 4d ff 38 72 d1 95 bb 4b 28 70 bd 57 4d c6 bc
       0.00012173829 -0.004572087 -0.058632176 -0.0242068
0003a0 e2 cb 63 bc 9e e8 33 bc c8 8c d3 bd 2a 77 88 3d
       -0.01390359 -0.010980753 -0.10329586 0.06663354
0003b0 de 3e fe bc 6b 36 7e bd 4a 0d 69 bd 33 88 84 bd
       -0.031035837 -0.062063616 -0.05689744 -0.064712904
0003c0 d5 0b 92 bd 29 9e e7 bd b8 81 7a bc d6 2f f6 3c
       -0.07131163 -0.113094635 -0.015289716 0.030052107
0003d0 7d c6 b6 bd 65 d2 9d bd d7 c8 d2 bd 2d c4 a1 bd
       -0.089245774 -0.07706145 -0.102922134 -0.07898746
0003e0 44 a9 70 bd 1d 0f a1 3d b7 b6 e1 bd be 0a 89 bd
       -0.058755174 0.07864211 -0.11021178 -0.06691502
0003f0 02 d6 5d 3d 0f 14 6a bd a5 ea 49 3d 80 a2 07 3d
       0.054159172 -0.057148036 0.04929604 0.033113956

layers.1.lin_self.bias f4 [96]
000000 5d db 26 3d bf 57 72 3d 6f 26 88 bd cc 70 cb bd
       0.040736545 0.059165712 -0.066479556 -0.09933624
000010 93 6f 3c 3d 0c 75 4f 3d a5 d7 c0 bd 14 4c 6c 3d
       0.046004843 0.050648734 -0.09416131 0.05768974
000020 8c 3c a0 bc 4f f5 aa bc 27 2c 24 3d 4f 0a 78 bd
       -0.019560121 -0.020868925 0.04008117 -0.060556706
000030 2c 48 14 be af bb c3 3d 81 b8 5c 3d ab f6 bd bd
       -0.14480656 0.09557282 0.053886894 -0.09275564
000040 37 69 5e bd 4e 34 3a 3d 71 24 06 ba 84 40 c9 3d
       -0.05429956 0.045460038 -0.00051171245 0.098267585
000050 cb e3 7e 3d 27 91 d6 bd a3 2f a2 bd 8a fc 77 bd
       0.06222896 -0.10476904 -0.07919242 -0.060543574
000060 d4 50 f8 bd 76 f5 4a 3d 16 13 b8 3d 41 b2 44 39
       -0.12124792 0.049550496 0.08988015 0.00018758421
000070 e9 ff 90 bd 6f 1d 5e bd 8b d6 0b 3d 38 0e d9 bc
       -0.07080061 -0.05422729 0.03414015 -0.026496038
000080 7a d8 cc bd 9a d2 b7 bd a9 59 02 be 4f 9e dc bd
       -0.10002227 -0.08975716 -0.12729515 -0.107723825
000090 51 00 42 3d 1a aa df bd c0 c5 31 bd 0f bf 46 bd
       0.047363583 -0.10921116 -0.04340148 -0.04852205
0000a0 19 71 32 be 80 99 39 bd f4 da af bd 0f 0e 9d 3b
       -0.17425956 -0.045312405 -0.08586684 0.0047929357
0000b0 a6 9f 33 3d 9f 4b ca bc d9 d9 26 bd 5d b9 1f 3d
       0.043853424 -0.024694262 -0.0407351 0.038995136
0000c0 21 e6 38 3c 15 cb 6a 3c cc a3 05 be 1b 3b 96 bd
       0.011285336 0.014330645 -0.13050765 -0.07335492
0000d0 34 48 a4 bc 09 eb c1 bc d1 27 32 bd c6 17 0d 3e
       -0.02005396 -0.023671644 -0.043495003 0.137786
0000e0 04 39 9b 3d c3 59 55 3d 42 40 b9 bc 9c e6 1b 3d
       0.07579234 0.052087557 -0.022613648 0.038061723
0000f0 54 26 36 3d bf a2 1f 3c da b0 d8 bd 99 80 c1 bc
       0.044470146 0.009743392 -0.10580607 -0.02362089
000100 7c c6 e0 bd 5c 49 00 be d3 b6 6c bd 06 26 f3 3c
       -0.10975358 -0.12527984 -0.057791542 0.029681217
000110 ce 0a 16 bd 01 d8 ba bd 7c 03 c1 bd 39 24 75 3d
       -0.036631398 -0.09123231 -0.09424493 0.059848998
000120 e0 c5 87 bd a7 2b bf 3c 88 2a 4d 3d 95 b0 ca bc
       -0.066295385 0.023336245 0.05008939 -0.024742404
000130 76 9f 3e 3d 84 af 05 bd b1 4a c1 bd c5 dd 8d 3c
       0.046538793 -0.032638088 -0.094380744 0.017317662
000140 9c 5f c1 bd 25 fe d6 bd dd 67 3a bd 95 48 51 bd
       -0.09442064 -0.10497693 -0.045509208 -0.05109461
000150 ca 07 a0 3c 1f 1a 03 be e2 e7 49 3c 1d 38 7b bd
       0.019534964 -0.12802933 0.012323352 -0.06133281
000160 c8 0b f8 bd 61 ce 78 bd 7a d7 53 bd a1 c4 ab bd
       -0.12111622 -0.060743693 -0.051719166 -0.08387113
000170 5b 03 40 3d e8 89 de 3d 42 f1 42 3c 9e 14 c3 bd
       0.0468782 0.10866147 0.011898341 -0.09525417

layers.1.lin_neigh.weight f4 [96, 96]
000000 f2 42 4b bd d7 cd 9d bd 6d f3 6c 3d 07 1a 38 bd
       -0.04962439 -0.077052765 0.057849336 -0.044946697
000010 15 69 ad 3d b4 5f 9d bd 5f a8 ae bd 84 78 8d 3c
       0.084673084 -0.076842695 -0.08528208 0.01726938
000020 74 44 ac bc 23 f4 c9 3d fe c1 7d 3d b0 36 b6 3d
       -0.021028735 0.098610185 0.061952583 0.088971496
000030 5d a4 4b 3d 91 96 c3 bd 38 50 1b 3d eb cb e1 bc
       0.049717296 -0.09550203 0.0379183 -0.027563056
000040 7f 8f 59 bd 90 56 28 bd 6d b7 8b 3d 39 bf 80 bc
       -0.053115364 -0.041098177 0.06822095 -0.015716182
000050 98 7e 0f bd e7 bd 2d 3d b7 bf 84 bd 06 49 be bd
       -0.03503284 0.042417433 -0.06481879 -0.09291272
000060 8b a5 0c bc 1f 72 62 bd e7 3b 9e bd 81 6e 09 3d
       -0.00858439 -0.055284616 -0.07726269 0.03355265
000070 d3 6c 89 bd 38 72 a6 3d 2c a2 49 3d 20 c4 96 bd
       -0.0671021 0.08127254 0.049226925 -0.073616266
000080 70 7b a1 3c d6 18 79 3d 13 74 9b bb 29 aa 9e 3d
       0.01971218 0.0608147 -0.0047440617 0.07747299
000090 c0 06 4a bd df c9 93 3d 21 99 91 bd 55 4e 61 bd
       -0.049322844 0.07216238 -0.07109285 -0.055006344
0000a0 9d e2 08 3c 78 44 d5 3d 76 ba 01 be 9a fd bc bb
       0.00835481 0.1041345 -0.12668785 -0.0057675363
0000b0 74 0c 26 3d d7 f4 07 bd 10 fd 73 3d e4 02 c4 3c
       0.04053922 -0.03319248 0.05956751 0.02392716
0000c0 e5 ac f6 bd 79 c7 35 3d d0 09 03 be 66 54 4f 3d
       -0.12044696 0.044379685 -0.12796712 0.050617598
0000d0 99 5e c7 3d 02 11 80 3d 43 0e 93 3d 4d 51 b4 bd
       0.0973484 0.06253244 0.071804546 -0.088045694
0000e0 ad 35 91 3d da 8d b4 3d 00 3b cb 3d ed 24 37 bd
       0.07090316 0.088161185 0.09923363 -0.04471295
0000f0 ee 42 87 3d 88 7a ab bd ec b4 09 be a3 70 ae bd
       0.06604563 -0.0837298 -0.13447922 -0.085175775
000100 12 4f 5b 3d 32 c2 0c 3d f0 91 bb bd 0a 30 4e bd
       0.053542204 0.034364887 -0.09158695 -0.050338782
000110 2b 5f 16 3d c3 3d ed bd 88 e7 96 3c c2 8e ae bd
       0.036711853 -0.11584046 0.01842095 -0.08523323
000120 c4 4b c1 bd d1 ff ff 3c 55 80 10 3c ec 0e 8d 3d
       -0.09438279 0.031249912 0.008819659 0.06887612
000130 08 99 ab bb 38 53 e3 bd 8e 47 6d bb d2 30 b0 3c
       -0.0052367486 -0.11099857 -0.003620598 0.021507654
000140 9a 32 8a 3d 8a ff bc bd 06 b9 e1 3c 7c 96 5e 3d
       0.06747933 -0.09228428 0.027554046 0.05434273
000150 48 16 81 bd 21 de 16 3d 85 9b f1 bc 15 af ae bd
       -0.06303078 0.036832932 -0.029493103 -0.08529488
000160 13 e2 e4 bc 3f de 59 bc bd 29 85 ba 50 52 85 bd
       -0.027939832 -0.0132976165 -0.0010159534 -0.065098405
000170 2d 5a 1e 3d 26 80 96 3d e2 93 86 3c 6b 7b 98 3d
       0.038660217 0.07348661 0.016427938 0.07445415
000180 6b f6 49 bc 62 2c ef 3c f4 7b 56 bd 7e 72 cd bd
       -0.012326817 0.029195968 -0.052364305 -0.10031603
000190 07 f7 83 bd 7a 80 40 bd 61 72 b1 bd f1 4c 4c bd
       -0.06443601 -0.046997525 -0.08664394 -0.049878065
0001a0 0e 6e 80 3c e7 06 65 bd e3 bf 4d bd cd 8d eb bd
       0.015677478 -0.055914786 -0.050231826 -0.11501656
0001b0 46 71 be 3d 4c 3c fc bd cf b3 9c bc a4 1c 0a 3d
       0.09298949 -0.12316188 -0.019128708 0.03371872
0001c0 b4 36 4a 3d ca 88 ca bb 92 ff a1 bd 4d 06 d2 bc
       0.049368575 -0.0061808573 -0.07910074 -0.02563777
0001d0 1a 45 d3 bd 1c ea e2 bc a5 42 83 bd 1a d0 f9 bd
       -0.103159145 -0.027699523 -0.06409196 -0.12197895
0001e0 49 27 b2 3d b5 94 69 bd 14 44 36 3d a3 65 07 3d
       0.08698899 -0.057026584 0.044498518 0.033055913
0001f0 58 70 de bc 98 da b9 3d ca f4 f8 3c e8 59 2d 3d
       -0.027153179 0.090748966 0.030390162 0.04232207
000200 9c e0 96 bb 6c 02 9f bc 91 94 38 3d 8e 5d 03 3b
       -0.0046044122 -0.019410335 0.04506356 0.0020044777
000210 55 fe 0b 3d ad ba 08 bd 6b 2d b1 3d ee 59 db bc
       0.034178097 -0.033381153 0.08651241 -0.02677628
000220 64 ca 9d bd 10 35 6b bc f9 63 23 3c d8 08 c1 bd
       -0.077046186 -0.014355913 0.009972566 -0.09425515
000230 88 47 90 3d 63 fd 9e bd eb 73 79 3d 4d 7e f1 3c
       0.070448935 -0.077631734 0.060901564 0.02947917
000240 20 4f a4 3d 03 16 04 bd c8 04 5e bd fd df b1 bc
       0.080229044 -0.032247555 -0.05420378 -0.021713251
000250 90 57 f0 3c 62 af aa 3c af 0d e2 bd 20 06 03 3c
       0.029338628 0.020835582 -0.11037766 0.007997066
000260 09 d7 bc 3d 1a 1a 8e 3d dd 05 04 bd b1 04 b4 bc
       0.09220702 0.06938572 -0.032232154 -0.021974893
000270 7c 89 91 3d 93 04 86 bd a0 87 a0 bd a5 6a 58 bd
       0.07106301 -0.06543841 -0.078383684 -0.05283608
000280 17 70 94 bc f3 bc e8 3c c4 b4 0c bd b2 26 22 3d
       -0.018119855 0.02841041 -0.03435208 0.039587684
000290 d3 0c 8b 3c ee cc cd bd c0 83 ba bd 84 23 8a 3d
       0.016973889 -0.10048853 -0.091071606 0.06745055
0002a0 8b 6d b2 3c 0f 54 30 bd c9 64 8b 3c a6 d0 a0 bd
       0.02178075 -0.043048915 0.017015832 -0.078522965
0002b0 23 7e 51 bd b1 07 eb bc 21 d6 c8 bd 08 e8 d1 bd
       -0.051145684 -0.028690191 -0.09806467 -0.102493346
0002c0 83 af 15 3d 33 a5 5d 3d c0 3d 1a 3d f6 ef e3 bd
       0.036544334 0.054112624 0.037656546 -0.11129753
0002d0 27 4e f0 3c 7c b7 da 3c 0f 36 ae bd fb b4 ac 3c
       0.029334141 0.02669882 -0.085064046 0.021082392
0002e0 79 b9 d4 3c 59 c0 88 3d bb 26 99 bd 8d 72 f1 bd
       0.025967347 0.066773124 -0.074780904 -0.11789427
0002f0 b4 f6 94 bd 64 55 8f 3d 98 17 e2 bd 29 33 8b 3d
       -0.072736174 0.06998709 -0.110396564 0.067968674
000300 f3 14 9e 3d 01 ab f1 bc 63 48 0b be b9 ae 4d bd
       0.077188395 -0.029500486 -0.13601832 -0.050215457
000310 fc 7b ad 3d e2 67 05 bd 2c d2 85 bd 4b 08 79 bb
       0.08470914 -0.032569773 -0.06534228 -0.0037999328
000320 4b 1d 11 3b 0d cc c9 bd 76 56 97 bc 66 27 21 3d
       0.0022142704 -0.09853373 -0.018473845 0.039344214
000330 03 1c 1b be 31 fa 8e 3d 80 9c f9 3c e8 cd 14 be
       -0.15147404 0.06981314 0.030470133 -0.14531672
000340 71 2a a6 3c e4 d0 39 bd ae 96 a6 3d f1 3e c0 bd
       0.02028391 -0.04536523 0.081342086 -0.09387005
000350 70 14 5d 3d 5c f1 c2 bd bc f7 a0 3c 84 25 3a bd
       0.05397457 -0.09518692 0.019649379 -0.045445934
000360 a4 50 c1 bb be 13 f4 bc 4f 90 22 bd 94 19 a1 bb
       -0.0058995057 -0.02979457 -0.039688405 -0.004916379
000370 f4 28 19 bd a8 3f b7 3c 84 d9 81 bd 6b ab b5 bd
       -0.03739257 0.02236922 -0.06340316 -0.08870586
000380 3c 46 de bd 76 b4 15 3d 48 12 c3 bd 72 4b 70 bd
       -0.1085324 0.036549054 -0.09524971 -0.0586657
000390 c9 9e 9f 3d ea 31 00 3c c1 6e 86 3d 51 19 0d be
       0.07793958 0.0078244 0.065640934 -0.13779189
0003a0 4a 18 c5 bd 8c fc c2 bc a4 01 bf bc 00 14 8e bd
       -0.096237734 -0.023802064 -0.023316212 -0.069374084
0003b0 c2 83 41 3d ac b6 c8 bd b8 6b ad 3c c9 20 b3 3d
       0.047244795 -0.09800467 0.021169528 0.08746488
0003c0 3e 25 1a bc a0 cd 46 3d 8b 8e 72 3d d0 31 53 bd
       -0.009408293 0.048535943 0.05921797 -0.051561177
0003d0 b3 a7 ac 3d 40 8f 67 3d 27 3a 02 be b1 7a e5 bd
       0.084304236 0.0565331 -0.12717496 -0.11205042
0003e0 85 07 97 bc 24 d3 70 3d ef fd 88 bc e4 07 1d bd
       -0.018436203 0.05879511 -0.016722647 -0.038337603
0003f0 f3 19 72 bc 5a d9 f3 bc 66 29 26 3d 83 d2 12 bd
       -0.014776695 -0.029766727 0.040566824 -0.03584529
