outputs/models/nowcast_rand_k8_seed1.pt (torch, 272435 bytes, 14 tensors)

in_lin.weight f4 [96, 15]
0	0x3e5251ed	0.20539065
1	0x3e4c5ea0	0.19957972
2	0xbd56fa4e	-0.052484803
3	0x3e63cf6c	0.22247094
4	0xbd67b85b	-0.0565723
5	0x3d55690b	0.05210213
6	0xbe0444f3	-0.12916927
7	0x3e6d96aa	0.23202005
8	0x3e8aa999	0.27082518
9	0xbe204ed4	-0.1565507
10	0x3e6f4f9e	0.23370215
11	0x3e03cc34	0.12870866
12	0x3e596abc	0.21232122
13	0x3c5c28e0	0.01343748
14	0x3ddf46e1	0.10902191
15	0xbd275f50	-0.04086238
16	0x3e2f61e3	0.17127185
17	0x3d07c071	0.03314251
18	0xbe17e00b	-0.1483156
19	0x3d86c9bb	0.06581446
20	0xbdf3a22f	-0.118961684
21	0xbd733384	-0.0593753
22	0xbde4e2db	-0.11176082
23	0x3e1628df	0.14664029
24	0xbe63cb9b	-0.22245638
25	0xbe124bc3	-0.14286713
26	0xbda39d07	-0.07988935
27	0xbe349208	-0.17633832
28	0x3c906bf2	0.017629597
29	0xbe86b776	-0.26311845
30	0x3e68f4dd	0.22749658
31	0xbe310e74	-0.1729067
32	0x3e464fd0	0.19366384
33	0x3db6d502	0.08927347
34	0xbdabb371	-0.08383835
35	0x3e23621f	0.15955399
36	0x3d619c9e	0.055081002
37	0x3e9206d0	0.28520823
38	0x3d961bdf	0.07329535
39	0xbd4279cf	-0.047479447
40	0x3da7d976	0.08195774
41	0x3bd76dba	0.0065743597
42	0x3def19c1	0.11674834
43	0x3e422bc7	0.18962012
44	0x3da729fa	0.08162303
45	0xbdd375b5	-0.10325185
46	0x3df5060a	0.119640425
47	0x3d613f9c	0.054992303
48	0x3dd04d2a	0.10170968
49	0xbe212687	-0.15737353
50	0xbe82dd1f	-0.25559327
51	0xbe045e47	-0.12926589
52	0xbe2e12cc	-0.16999358
53	0x3e7f86cd	0.24953766
54	0x3dcbd63d	0.09952972
55	0x3e01c80c	0.12673968
56	0x3de0aee3	0.10970857
57	0xbb8ab930	-0.004233502
58	0x3e5bc35e	0.21461245
59	0xbe32e9c2	-0.17471984
60	0x3ca53718	0.020167872
61	0xbe417143	-0.18890862
62	0x3dab1001	0.08352662
63	0xbdd05e91	-0.10174287
64	0x3da207bf	0.07911634
65	0xbd5c569d	-0.05379354
66	0x3e5f2f60	0.21795416
67	0xbe29b520	-0.16573
68	0xbe2aa7e9	-0.16665615
69	0xbe2aaa59	-0.16666545
70	0x3e60d682	0.21956828
71	0x3d964742	0.0733781
72	0x3e86a5f9	0.26298502
73	0xbe67633b	-0.22596447
74	0xbe8791aa	-0.2647832
75	0xbe7c10e7	-0.24615823
76	0xbdd084c3	-0.10181572
77	0x3d7bab4f	0.06144267
78	0x3e28492c	0.16434163
79	0x3e5bb15c	0.21454376
80	0xbe088a67	-0.13334046
81	0xbdd4bc72	-0.103875056
82	0x3e6a0f14	0.22857314
83	0xbd43057a	-0.047612645
84	0x3e48198c	0.19540995
85	0xbd1262e0	-0.035738826
86	0x3e75085f	0.23928975
87	0xbe4d6d4e	-0.20061228
88	0xbe2752b0	-0.16340137
89	0x3d7a3657	0.06108698
90	0x3d6b5e4d	0.05746298
91	0xbde1aaf0	-0.11018932
92	0x3e2088b9	0.15677156
93	0x3e064b80	0.13114738
94	0xbe3fbb91	-0.18723895
95	0xbe0d2706	-0.13784418
96	0x3e61bb24	0.22044045
97	0xbde02523	-0.10944583
98	0xbdc3a0d1	-0.09552158
99	0xbe8e6214	-0.27809203
100	0xbe1d72a3	-0.15375762
101	0x3d2cbbf4	0.042171434
102	0xbcb5003e	-0.022094842
103	0xbe4b6c0a	-0.19865432
104	0x3d47305d	0.048630107
105	0xbe350d4b	-0.17680852
106	0xbe60c2f3	-0.21949367
107	0xbe120536	-0.142598
108	0xbe67bb3d	-0.2263002
109	0xbe2859cd	-0.16440506
110	0x3e842568	0.2580979
111	0x3d46010d	0.048340846
112	0x3da1da89	0.079030104
113	0xbe770d39	-0.24126138
114	0xbe2e1a31	-0.17002179
115	0xbdb0eb5a	-0.0863864
116	0x3d238f15	0.039931376
117	0xbe6fb099	-0.2340721
118	0xbde2c52c	-0.11072764
119	0xbe0cdcb9	-0.13756074
120	0x3b20076d	0.0024418489
121	0xbdce6b0b	-0.100790106
122	0xbc874598	-0.016512677
123	0xbe37fd5c	-0.17967743
124	0xbe357adb	-0.17722647
125	0xbe1a3fb8	-0.1506337
126	0xbdbeb83c	-0.09312484
127	0xbe563106	-0.20917138
128	0x3e582b1d	0.21110196
129	0xbd680bfd	-0.056652058
130	0x3e5dfa9b	0.2167763
131	0x3d99be65	0.07507018
132	0xbe5fe3b3	-0.21864204
133	0x3e41d819	0.18930091
134	0xbd941737	-0.072309904
135	0xbdcfedd2	-0.101527825
136	0xbe353c50	-0.17698789
137	0xbe84d0cc	-0.2594055
138	0x3de3c3f2	0.11121358
139	0xbd6705bf	-0.056401964
140	0x3dcddee5	0.100522794
141	0xbe3253a4	-0.17414719
142	0x3e62c207	0.22144328
143	0xbe336ae4	-0.17521244
144	0xbd4082ba	-0.04699967
145	0x3d23bc97	0.039974775
146	0x3e26f523	0.1630445
147	0x3e1c9a14	0.15293151
148	0x3e6519da	0.22373143
149	0xbe50288c	-0.20327967
150	0x3d88d738	0.06681675
151	0xbda3d555	-0.07999674
152	0xbcd8a6e2	-0.026446763
153	0xbe261a68	-0.1622101
154	0x3e70d3bb	0.23518269
155	0xbe420da7	-0.1895052
156	0x3e19be63	0.15014033
157	0x3e2e8171	0.17041565
158	0x3e063699	0.13106765
159	0xbdda6dfa	-0.106655076
160	0x3e7cce9e	0.24688193
161	0x3e0bb346	0.13642606
162	0x3d5c0db3	0.053724002
163	0xbe7c7849	-0.2465526
164	0x3d893dfe	0.06701277
165	0xbcfc4696	-0.030795377
166	0xbe08899d	-0.13333745
167	0x3e6b3c97	0.22972332
168	0x3d31d023	0.043411385
169	0xbe1248ad	-0.14285536
170	0xbe05d229	-0.13068451
171	0xbb90c547	-0.0044180485
172	0x3e0431b1	0.12909581
173	0xbda5fdfa	-0.08105083
174	0xbe264ab1	-0.1623943
175	0xbdd3f2e6	-0.103490636
176	0xbe54f526	-0.20796642
177	0x3ddf58e7	0.10905629
178	0x3e389b7c	0.18028063
179	0xbe4d5eb2	-0.20055655
180	0x3d8161d6	0.06317489
181	0x3dc8c210	0.098026395
182	0x3d4cd8c1	0.0500114
183	0xbe02623f	-0.1273279
184	0x3e09ffce	0.13476488
185	0x3e0af183	0.13568692
186	0x3da94c4e	0.08266507
187	0xbd6cc021	-0.057800416
188	0xbda35d4a	-0.07976778
189	0x3c8d0010	0.017211944
190	0xbd802eeb	-0.06258949
191	0xbdb70910	-0.089372754
192	0x3e2dfb02	0.16990283
193	0x3e67c66e	0.22634289
194	0xbcb884fd	-0.022524351
195	0xbd61bfad	-0.055114437
196	0x3bc25b9d	0.0059313313
197	0xbc457ff4	-0.012054432
198	0x3d83976c	0.06425366
199	0x3d942f63	0.07235601
200	0xbe70239f	-0.23451088
201	0xbdbf3087	-0.09335428
202	0x3e91c79e	0.28472608
203	0x3dfde932	0.12397994
204	0xbb8a00ab	-0.0042115054
205	0xbe27dfd0	-0.16393971
206	0xbdb9b114	-0.09066978
207	0xbe7128ae	-0.23550674
208	0xbd9f93b0	-0.07791841
209	0x3d707af7	0.05871102
210	0x3e1f0cf0	0.15532279
211	0x3e0f73d0	0.14009023
212	0xbe71e144	-0.23621088
213	0xbe099938	-0.13437355
214	0xbd26e776	-0.040748082
215	0x3e7fc355	0.24976857
216	0x3d6edaf6	0.058314286
217	0x3c0b5236	0.008503487
218	0x3e122dee	0.14275333
219	0xbd93618b	-0.07196339
220	0xbe2a7f53	-0.16650133
221	0x3e8715e3	0.26383886
222	0xbe361023	-0.17779593
223	0xbd682e1e	-0.056684606
224	0xbe860a8b	-0.2617992
225	0x3e37a773	0.1793497
226	0x3e3b8c22	0.18315175
227	0x3dce26a1	0.10065962
228	0xbe451d9a	-0.19249573
229	0xbe8278a8	-0.25482678
230	0xbe56bc91	-0.2097037
231	0x3e40d168	0.18829882
232	0x3e53c36c	0.20680016
233	0x3e85e6ef	0.2615275
234	0x3e2e7e43	0.17040353
235	0x3d9c704e	0.07638608
236	0x3da47df4	0.08031836
237	0xbe33575b	-0.17513792
238	0xbe6e0f9d	-0.23248143
239	0xbe83b6c1	-0.25725368
240	0x3dbd760c	0.09251031
241	0xbe0f496b	-0.1399285
242	0xbd85a419	-0.0652544
243	0xbe259b13	-0.16172437
244	0xbd40b76b	-0.04704992
245	0xbe3a1745	-0.18172939
246	0xbe3a54da	-0.18196431
247	0x3d93fc64	0.07225874
248	0xbdb81969	-0.089892216
249	0x3e15c024	0.14624077
250	0xbdc495d6	-0.095988914
251	0xbe4f6ca0	-0.20256281
252	0xbcfa6025	-0.030563423
253	0xbe0caa20	-0.13736773
254	0xbd35f71e	-0.044425122
255	0xbe7ee379	-0.24891461

in_lin.bias f4 [96]
0	0xbe00c66a	-0.12575689
1	0xbbac9aac	-0.0052674618
2	0xbc73dfc9	-0.0148848975
3	0xbe66cb28	-0.22538435
4	0xbe6eebb7	-0.23332106
5	0xbe006f44	-0.12542444
6	0x3e01623b	0.12635128
7	0x3df2efb6	0.118621275
8	0xbe682f31	-0.22674252
9	0xbdc184de	-0.094491705
10	0x3ce32f66	0.027732562
11	0xbe5432cb	-0.20722501
12	0x3e142b4f	0.14469646
13	0x3e6c9612	0.23104122
14	0x3d6209ab	0.055185
15	0xbe33fc0c	-0.17576617
16	0x3d96ad72	0.07357301
17	0x3dc70bcd	0.09719048
18	0x3e5f42d5	0.21802838
19	0xbdfc51b4	-0.12320271
20	0xbe7af5f0	-0.2450788
21	0x3deb5b55	0.114920296
22	0x3ca9f760	0.02074784
23	0xbd98ad7b	-0.07454964
24	0xbdddc2e1	-0.10828186
25	0xbe01925b	-0.12653486
26	0x3e60dbc0	0.21958828
27	0xbcccc540	-0.0249964
28	0x3e5a9074	0.21344167
29	0x3e77fdaf	0.24217866
30	0x3d81c18d	0.06335745
31	0x3d8e8de8	0.0696066
32	0x3ab6f324	0.001395796
33	0x3e4298e9	0.19003643
34	0xbe5e1ef2	-0.21691492
35	0x3dbe8890	0.09303391
36	0xbc8299be	-0.01594245
37	0x3e1f3162	0.15546182
38	0x3d81e0f7	0.06341737
39	0xbdb15880	-0.08659458
40	0xbc52be48	-0.012862749
41	0x3e1d1418	0.15339696
42	0xbe28f2e3	-0.16498904
43	0xbe08e296	-0.13367686
44	0xbd8d314e	-0.0689417
45	0xbda029fd	-0.07820509
46	0x3df3b373	0.118994616
47	0x3e4659c1	0.19370176
48	0xbbdcfc00	-0.006743908
49	0x3e88470f	0.26616713
50	0xbdbd7301	-0.09250451
51	0xbe145e3c	-0.14489073
52	0xbdc73184	-0.09726241
53	0xbe062614	-0.13100463
54	0xbe26e636	-0.16298756
55	0xbe3d1c1a	-0.18467751
56	0xbe46f138	-0.19427955
57	0x3da44dfe	0.08022688
58	0x3e36b1cb	0.1784126
59	0x3e82113c	0.25403774
60	0x3e7daecd	0.24773712
61	0xbbf270f6	-0.00739872
62	0x3d86e4f2	0.065866366
63	0xbdb18147	-0.08667236
64	0x3df39798	0.118941486
65	0xbe680c96	-0.22661051
66	0x3dfe9efa	0.12432666
67	0x3d71a130	0.05899161
68	0x3d9ae9cb	0.07564124
69	0x3ddeb339	0.10874028
70	0xbde8da53	-0.11369767
71	0x3e6bd8fd	0.23031993
72	0x3e19b8d2	0.1501191
73	0x3e39fa14	0.18161803
74	0x3d52242a	0.05130402
75	0x3e302f94	0.1720565
76	0x3e3cf88d	0.1845419
77	0x3db2eefe	0.087369904
78	0x3e47e626	0.19521388
79	0x3aceff70	0.0015792679
80	0x3e3a340c	0.18183917
81	0x3da13342	0.07871105
82	0x3e27c539	0.16383828
83	0x3e88d7cb	0.26727137
84	0x3da7451c	0.081674784
85	0xbdc6212c	-0.09674296
86	0xbc2faab7	-0.010721854
87	0x3db06121	0.08612276
88	0x3d869f14	0.065733105
89	0xbd910b06	-0.07082181
90	0x3e3ea78a	0.18618599
91	0x3e316260	0.17322683
92	0xbe20379d	-0.15646215
93	0xbbfcc747	-0.0077141854
94	0xba759dde	-0.00093695323
95	0xbe12938a	-0.14314094

layers.0.lin_self.weight f4 [96, 96]
0	0x3d0126cd	0.031531144
1	0xbd08904c	-0.033340737
2	0xbcc01338	-0.023446664
3	0xbd137034	-0.035995677
4	0xbd04abdf	-0.03239047
5	0x3e25b84b	0.16183583
6	0x3d113d36	0.035458766
7	0x3ddd0264	0.107914716
8	0x3ceb12ea	0.028695542
9	0x3d590733	0.05298538
10	0x3da5afca	0.0809017
11	0x3ca275cf	0.019831566
12	0xbdb3a88b	-0.087723814
13	0x3b9bd413	0.004755506
14	0x3d321a61	0.043482188
15	0x3cc4e7ef	0.024036376
16	0x3d480e9a	0.04884205
17	0x3d72e3d0	0.05929929
18	0x3db71895	0.089402355
19	0x3cd2815f	0.025696455
20	0xbb9a0791	-0.004700609
21	0xbd8457a4	-0.064620286
22	0xbd915092	-0.07095446
23	0xbc739e0b	-0.014869223
24	0x3d287ef6	0.041136704
25	0x3d6e1b87	0.05813172
26	0x3e265aac	0.16245526
27	0x3ca4140b	0.020029088
28	0xbd6dec84	-0.058086887
29	0xbc2c93dc	-0.010533299
30	0x3d93c0a0	0.07214475
31	0x3d4adfd0	0.04952985
32	0x3ce87040	0.028373837
33	0x3cdaacbe	0.026693698
34	0x3c7dba78	0.015486352
35	0x3d2a9b30	0.041651905
36	0x3c454032	0.012039231
37	0xbdc2f673	-0.09519663
38	0xbd06beac	-0.032896683
39	0xbc20e666	-0.009820556
40	0xbce19bbb	-0.027540078
41	0x3d6538d0	0.055962384
42	0x3c2669a7	0.010157025
43	0x3ce11f59	0.027480768
44	0xbd90a6a4	-0.07063034
45	0xbc22baa6	-0.009932196
46	0xbdab2935	-0.08357469
47	0x3d876ec7	0.06612926
48	0xbd3b7403	-0.045764934
49	0x3dfdd9cb	0.12395056
50	0x3d1e5a12	0.038660116
51	0x3c05b1e8	0.008160092
52	0x3d8780a4	0.06616333
53	0x3cf70324	0.030152865
54	0xbc955a73	-0.018231606
55	0xbc40c0a5	-0.01176468
56	0x3d6e3ec5	0.05816533
57	0xbd34453f	-0.04401135
58	0x3d49fd62	0.04931391
59	0xbd2a3563	-0.04155482
60	0x3c9bd09a	0.019020367
61	0xbd237d77	-0.039914574
62	0xbd7fe1de	-0.062471263
63	0x3ce81d59	0.028334307
64	0xbd51ffc9	-0.051269326
65	0x3da68fdb	0.08132907
66	0xbda5f266	-0.081028745
67	0x3c1ba2d7	0.009499273
68	0x3c8cf863	0.017208284
69	0x3da8b096	0.08236806
70	0xbd0cdc31	-0.03438968
71	0x3d0d5a64	0.03451003
72	0x3dd6ce1d	0.10488532
73	0x3d90a145	0.0706201
74	0x3d76a637	0.06021711
75	0x3cf20e93	0.029547965
76	0xbd4b16e0	-0.049582362
77	0xbd62dab5	-0.055384357
78	0x3e055b91	0.13023211
79	0xbdb73869	-0.08946306
80	0xbc83237f	-0.016008137
81	0x3c17a978	0.009256713
82	0x3e0664c9	0.13124384
83	0xbc3be666	-0.0114685055
84	0xbb393aff	-0.0028263924
85	0xbca9749e	-0.02068549
86	0x3d6693bf	0.056293245
87	0x3d43cd70	0.047803342
88	0x3e03ef5e	0.1288428
89	0xbd7f62f8	-0.062350243
90	0x3dffd4d5	0.12491766
91	0xbd9bf327	-0.07614737
92	0x3d425495	0.047443945
93	0x3d7395c1	0.05946899
94	0x3df84670	0.1212281
95	0x3b77c1f8	0.0037804823
96	0xbc6091b7	-0.013706616
97	0x3c8df9d3	0.01733104
98	0xbd686cda	-0.056744434
99	0xbdb58d79	-0.088648744
100	0xbdb1bbf9	-0.08678431
101	0x3d168eed	0.0367574
102	0x3da65ff7	0.081237726
103	0x3c33838a	0.010956654
104	0xbd0d9774	-0.034568265
105	0x3d18a145	0.037263174
106	0xbd6a8113	-0.057252
107	0x3c8aea23	0.016957348
108	0xbcd805ae	-0.026369896
109	0xbc343499	-0.010998868
110	0x3e0e0c9f	0.13872002
111	0xbd71b7d0	-0.059013188
112	0x3bdf0034	0.006805444
113	0xbd8fc0c4	-0.07019189
114	0x38b278a4	8.5101725e-05
115	0xbd1ca106	-0.0382395
116	0x3cb2514b	0.02176728
117	0xbd129a17	-0.035791483
118	0x3d3e353f	0.0464375
119	0xbd5a1e74	-0.0532517
120	0x3d87c771	0.06629837
121	0xbdac5dae	-0.084163055
122	0x3dc95c7a	0.09832092
123	0xbd1ba3a6	-0.037997864
124	0xbd3c1fb0	-0.045928657
125	0xbc99e710	-0.018786937
126	0x3dcfe018	0.10150164
127	0x3d571453	0.052509617
128	0xbd99bfa6	-0.07507257
129	0x3b71f21c	0.003691799
130	0xbd6378ae	-0.05553501
131	0x3d523a5e	0.051325195
132	0x3d3b368d	0.04570632
133	0xbc92f8d4	-0.017940916
134	0xbdf92a2e	-0.12166248
135	0x3d3f0ae1	0.046641234
136	0xbda16367	-0.078802876
137	0x3d430eee	0.04762166
138	0x3d2ab9d4	0.041681126
139	0x3da77305	0.08176235
140	0x3d2bfb3e	0.04198765
141	0xbdaa8e7e	-0.083279595
142	0x3db1ee0e	0.086879835
143	0xbbb1f0b7	-0.005430307
144	0xbd366465	-0.044529337
145	0x3ca80c9a	0.020513821
146	0x3ddea62c	0.108715385
147	0x3da0b934	0.07847825
148	0x3d22b1a6	0.0397202
149	0xbc65ef3d	-0.01403409
150	0xbd7fd729	-0.062461052
151	0xbc6b7e28	-0.01437334
152	0xbdf03d3c	-0.117304295
153	0x3d8653cb	0.06558951
154	0xbd7a7b77	-0.0611529
155	0xbd3c34cd	-0.045948792
156	0x3e031085	0.1279927
157	0x3dd35390	0.10318673
158	0xbd9b0f35	-0.0757126
159	0xbdf246c4	-0.11829904
160	0x3ce36d86	0.027762186
161	0x3db6aa20	0.089191675
162	0xbcce6bc0	-0.025197864
163	0xbc3d868d	-0.011567724
164	0xbd9ab2d8	-0.07553643
165	0x3d94d53b	0.07267233
166	0x3dc4fc1c	0.096183985
167	0xbd39eb80	-0.045390606
168	0x3dee75fe	0.11643599
169	0x3d2fcfd7	0.04292282
170	0x3dcf23a1	0.101142175
171	0x3b98a7c7	0.0046586725
172	0x3a8d9367	0.0010801376
173	0x3da2d0c3	0.079499744
174	0x3daf2d69	0.08553583
175	0x3e095bf4	0.13413984
176	0xbd0dcd89	-0.03461984
177	0x3d9b80b6	0.07592909
178	0x3db4edeb	0.08834442
179	0xbd9ca268	-0.07648164
180	0x3db34671	0.0875367
181	0xbbd8ea65	-0.006619739
182	0x3daa4183	0.083132766
183	0xbcede1c1	-0.029038312
184	0x3d7451fa	0.05964849
185	0x3d8fa3f8	0.070136964
186	0xbd2033ac	-0.03911178
187	0xbd853ae7	-0.06505375
188	0xbd1d177d	-0.03835248
189	0x3d7bd113	0.061478686
190	0x3dbe450d	0.09290514
191	0xbd25a025	-0.04043593
192	0x3c93f359	0.018060373
193	0xbd7849a4	-0.060617104
194	0xbcf39b43	-0.02973712
195	0x3d93f30d	0.07224093
196	0x3d8a9b1f	0.06767868
197	0x3c795bfc	0.015219685
198	0x3c8bdcf8	0.01707314
199	0x3c9d342f	0.019189922
200	0x3c21abcd	0.009867621
201	0xbb8d130d	-0.0043052495
202	0xbd246358	-0.040133804
203	0x3d9bf239	0.0761456
204	0x3c81f6a0	0.01586467
205	0x3dc3646d	0.09540639
206	0x3cade8e0	0.021229208
207	0x3d6e6582	0.058202274
208	0x3d9efe7c	0.07763383
209	0x3d83ff53	0.064451836
210	0x3d386646	0.04501941
211	0x3deeb9a4	0.11656502
212	0x3c4c3c47	0.012465543
213	0x3d11ce36	0.03559705
214	0x3dc0060c	0.09376153
215	0x3dffde24	0.12493542
216	0xbd266d33	-0.040631484
217	0x3da87964	0.082262784
218	0x3dc954f8	0.0983066
219	0x3cbc0a60	0.022954166
220	0x3d3425e0	0.043981433
221	0xbd339f9c	-0.043853387
222	0x3dfc961c	0.123333186
223	0x3dcc99e0	0.09990287
224	0xbd68f4b7	-0.056874003
225	0xbd5f9cc1	-0.05459285
226	0xbdbc06a0	-0.09180951
227	0xbcf0729d	-0.029351527
228	0xbd8622cc	-0.06549606
229	0xbd865007	-0.06558233
230	0xbcd074ac	-0.025446258
231	0x3da647cf	0.08119165
232	0x3d82bbbc	0.06383464
233	0x3d83bd4e	0.064325914
234	0x3d3509b8	0.04419872
235	0xbd25d484	-0.040485874
236	0xbdf47d81	-0.119380005
237	0x3cb06128	0.021530703
238	0x3db0f0b2	0.08639659
239	0x3ce570a7	0.028007818
240	0xbd64aefd	-0.055830944
241	0xbcf93505	-0.03042079
242	0xbd18c5ca	-0.037298
243	0xbda120db	-0.07867595
244	0x3dd108ee	0.10206781
245	0xbd87cb88	-0.066306174
246	0xbd9fb334	-0.07797852
247	0xbd7fb773	-0.06243081
248	0x3d00f749	0.03148583
249	0xbbaa64d4	-0.005200008
250	0x3d0e54ba	0.03474877
251	0x3d764c04	0.060131088
252	0xbd61f2b3	-0.055163097
253	0xbd7a3199	-0.061082456
254	0xbba33038	-0.0049801134
255	0xbe175af6	-0.14780793

layers.0.lin_self.bias f4 [96]
0	0x3d0c7630	0.0342924
1	0x3dc42a72	0.09578408
2	0x3ccbc029	0.024871903
3	0x3c7162f8	0.014733069
4	0xbc2018a3	-0.009771499
5	0x3d09b075	0.03361555
6	0xbdb927ba	-0.0904078
7	0xbdd08bba	-0.10182901
8	0x3c6bd903	0.014395001
9	0xbd6492ba	-0.05580399
10	0xbd676ede	-0.056502216
11	0x3b879adf	0.004138335
12	0x3d8ca89c	0.06868097
13	0x3d945237	0.07242244
14	0xbba817a3	-0.005129771
15	0x3b54351e	0.0032380293
16	0x3de3f563	0.11130788
17	0x3d11ca97	0.035593595
18	0x3da28246	0.07935004
19	0xbcc9ed73	-0.024649357
20	0xbd89c036	-0.067261145
21	0xbd26535e	-0.04060685
22	0x3c94173a	0.018077482
23	0xbc83ea0c	-0.016102813
24	0xbd2a23c0	-0.041538
25	0x3def94b6	0.11698286
26	0xbdaf060a	-0.08546074
27	0x3c9b979e	0.018993195
28	0x3d7d73bd	0.061877955
29	0xbcb0e7ff	-0.021595
30	0x3d849b8c	0.06474981
31	0x3c9b1035	0.018928627
32	0xbd4817ee	-0.048850946
33	0xbd40fedd	-0.047118057
34	0xbcea01e4	-0.028565355
35	0xbdc321c9	-0.095279284
36	0x3da1a456	0.07892673
37	0x3de06c8e	0.10958205
38	0xbc0067df	-0.007837265
39	0x3c91320b	0.017724058
40	0x3cfc79ff	0.030819891
41	0x3d110d71	0.03541321
42	0xbd365841	-0.04451776
43	0xbd474745	-0.048651952
44	0x3ded8ca1	0.115990885
45	0x3d94942d	0.07254825
46	0x3df00ffd	0.117217995
47	0x3d8268d8	0.063676536
48	0x3c0a3a3f	0.0084367385
49	0x3dab6e69	0.083706684
50	0x3cb798b7	0.022411687
51	0x3c0ef888	0.008726247
52	0xbd2d8412	-0.04236228
53	0x3dbd4183	0.09241011
54	0xbc47b270	-0.012188539
55	0x3b5da0d9	0.0033817797
56	0xbd8e63b9	-0.06952614
57	0x3d484a2a	0.048898853
58	0xbd58fef7	-0.05297753
59	0xbc33aede	-0.010966985
60	0x3be22e51	0.006902494
61	0x3d3b2b22	0.04569543
62	0x3c987af9	0.018613325
63	0x3d426ad7	0.04746517
64	0xbd6e9107	-0.058243778
65	0xbd7b3ceb	-0.061337393
66	0x3d8259cc	0.06364784
67	0xbcdd5039	-0.027015792
68	0xbdd0dbf6	-0.10198204
69	0xbc86b8d5	-0.016445557
70	0xbdb902d7	-0.09033745
71	0x3d18b7bb	0.037284594
72	0x3cc8579a	0.024455834
73	0x3dd1bf20	0.10241532
74	0xbd668645	-0.056280393
75	0xbd1a4150	-0.037659943
76	0x3d1efca9	0.038815174
77	0xbc93120b	-0.01795294
78	0x3ddddf62	0.108336225
79	0xba1c2970	-0.00059571024
80	0x3c7274a5	0.014798318
81	0xbbc3f65c	-0.005980296
82	0x3d7c9659	0.06166682
83	0xbd09d66f	-0.033651765
84	0x3d5c908e	0.053848796
85	0x3da69f3d	0.08135841
86	0xbd9a1369	-0.075232334
87	0xbd915162	-0.07095601
88	0xbd32005c	-0.043457374
89	0x3d362b46	0.044474863
90	0xbd269c39	-0.04067633
91	0x3c9d78d6	0.019222658
92	0x3c1205f8	0.008912556
93	0x3c69bd12	0.014266269
94	0xbd176868	-0.036964804
95	0x3c95afd4	0.018272318

layers.0.lin_neigh.weight f4 [96, 96]
0	0x3dbd1d74	0.09234133
1	0x3d6e8d4c	0.05824022
2	0x3d33cafc	0.043894753
3	0xbd94e2ad	-0.072697975
4	0x3d6deb75	0.058085877
5	0x3d0a10f5	0.033707578
6	0x3d9778fa	0.07396121
7	0x3d5b3a31	0.053522293
8	0xbbdd9bd5	-0.0067629614
9	0x3d98cda7	0.074611
10	0xbbfae40e	-0.007656581
11	0x3cd3f3af	0.025873033
12	0xbb050173	-0.0020295053
13	0x3d7671cd	0.060167123
14	0x3dd4d77b	0.10392662
15	0x3dff3501	0.124612816
16	0xbd01614e	-0.031586938
17	0x3e038466	0.12843475
18	0xbbd8b6d0	-0.00661359
19	0x3ddc802c	0.10766634
20	0x3d766727	0.060156967
21	0x3c9ee0c2	0.019394282
22	0xbcc242ac	-0.023713432
23	0xbb173dbd	-0.002307757
24	0xbdb23175	-0.087008394
25	0xbd2242d8	-0.03961453
26	0x3d7e47ab	0.062080067
27	0x3e0f78a3	0.14010863
28	0x3c7e05c3	0.015504303
29	0x3d1a5548	0.037678987
30	0xbce87f21	-0.028380932
31	0x3dc1895e	0.09450029
32	0x3ddc969a	0.107709125
33	0xbca8a014	-0.020584144
34	0x3d4cbdec	0.04998581
35	0xbd92b8d8	-0.071641624
36	0x3bb6e68f	0.005581684
37	0xbd792c1b	-0.060833078
38	0xbe1680bc	-0.14697546
39	0x3b09ae34	0.0021008374
40	0x3d5ee1b7	0.054414477
41	0x3d38ffa2	0.045165665
42	0x3dd53e73	0.10412302
43	0x3de32edb	0.11092921
44	0xbe001e47	-0.1251155
45	0xbcb40468	-0.021974757
46	0x3d855fb4	0.065123945
47	0xbd40698b	-0.046975654
48	0xbd4a6b66	-0.04941883
49	0x3dbfee8f	0.09371673
50	0xbcf409c7	-0.029789818
51	0x3db34d0c	0.0875493
52	0xbd033147	-0.032029416
53	0xbdfd68d2	-0.123735085
54	0xbd22ceb0	-0.039747894
55	0xbdd20f4f	-0.10256826
56	0x3da6f1ed	0.081516124
57	0x3d6e7eba	0.058226325
58	0xbd0568a5	-0.0325705
59	0x3de329fa	0.11091991
60	0xbcd610bf	-0.026131032
61	0x3dbf8187	0.09350877
62	0x3d3bbb84	0.045833126
63	0xbdb2c36e	-0.087286815
64	0x3df44606	0.119274184
65	0x3d645055	0.055740673
66	0xbd97e955	-0.074175514
67	0x3d92b5b0	0.071635604
68	0x3de2544e	0.11051236
69	0xbd85b3a3	-0.065284036
70	0xbc5ce55e	-0.01348242
71	0xbd922f52	-0.07137932
72	0x3e0cc3a5	0.13746507
73	0x3d8e10f6	0.06936829
74	0x3e04d6c8	0.12972558
75	0x3cd1161b	0.025523236
76	0xbb386d6f	-0.00281414
77	0x3c0cdddc	0.008597817
78	0xbd09ed76	-0.033673726
79	0x3d182781	0.03714705
80	0xbd0695eb	-0.032857817
81	0x3d0235e9	0.031789694
82	0x3d0867dd	0.033302177
83	0x3d3215c5	0.043477792
84	0xbc34707c	-0.0110131465
85	0xbbe83241	-0.007086069
86	0x3d677628	0.056509167
87	0xbd83343d	-0.06406448
88	0x3acba34c	0.0015536337
89	0xbdd9e6de	-0.106397375
90	0xbbea847f	-0.007156908
91	0x3e0020d9	0.1251253
92	0x3dcc95cc	0.09989509
93	0x3da1a1f7	0.078922205
94	0xbcbdcd5f	-0.023169218
95	0x3d8838bd	0.06651447
96	0x3cf2b4e5	0.029627273
97	0x3d2a9ca7	0.0416533
98	0x3d136375	0.03598352
99	0xbd9a653f	-0.075388424
100	0x3c9aebd8	0.018911287
101	0xbd67b789	-0.056571517
102	0x3d8e7531	0.06955946
103	0x3d61dd37	0.055142608
104	0xbd60ddf4	-0.05489917
105	0xbda42f2e	-0.08016811
106	0x3ba37b64	0.0049890745
107	0x3d8c71fd	0.06857679
108	0xbd67a181	-0.056550507
109	0x3da9410d	0.082643606
110	0x3df7ce3e	0.120998845
111	0xbd985d2b	-0.074396454
112	0x3d51d1ca	0.05122546
113	0x3d47ed21	0.048810128
114	0xbd2c99bc	-0.0421388
115	0x3dc9abbc	0.09847209
116	0xbda2d735	-0.07951204
117	0x3dd07a6a	0.10179599
118	0xbdb5164a	-0.08842142
119	0x3dea539f	0.11441731
120	0xbcb5024e	-0.022095826
121	0xbdd539ea	-0.10411437
122	0x3dc2becf	0.0950905
123	0xbbafec5e	-0.0053687533
124	0xbc57b4ec	-0.013165694
125	0x3d5011e9	0.05079833
126	0x3d378137	0.044800963
127	0x3d39ab7d	0.04532956
128	0xbdae3163	-0.085055135
129	0xbdcb10e7	-0.09915333
130	0xbcf2470a	-0.02957489
131	0xbd9074a9	-0.07053501
132	0xbd88b929	-0.066759415
133	0x3c9703d8	0.01843445
134	0xbd9b39e5	-0.07579402
135	0xbb908eb8	-0.0044115447
136	0xbcc77b11	-0.024350675
137	0x3d4760f0	0.04867643
138	0xbd719d4b	-0.058987897
139	0x3c3b677c	0.011438247
140	0x3c9049a3	0.017613238
141	0x3d820ac7	0.06349712
142	0xbb247984	-0.0025096843
143	0x3d2d8e24	0.042371884
144	0xbd465ff9	-0.04843137
145	0x3ddf1cdb	0.108941756
146	0x3d1a340a	0.037647285
147	0x3c8ca732	0.017169569
148	0x3d923378	0.07138723
149	0xbe2486cd	-0.16067047
150	0x3d7767c5	0.060401697
151	0x3d67b17b	0.056565743
152	0x3d0f65d9	0.03500924
153	0x3dafe313	0.08588233
154	0xbd90353e	-0.07041405
155	0x3da1439d	0.07874224
156	0x3d8e6696	0.069531605
157	0xbdb2b4ba	-0.08725877
158	0x3daaf18d	0.083468534
159	0x3c61cac9	0.013781258
160	0xbbac2dda	-0.0052544894
161	0x3e20a245	0.15686901
162	0xbab2306f	-0.0013594757
163	0x3dbbc89a	0.09169121
164	0xbdbf9e56	-0.09356372
165	0xbd90c066	-0.07067947
166	0x3d1ce71d	0.038306344
167	0x3bf803a3	0.007568793
168	0xbb85fc11	-0.0040888865
169	0xbd5c51e9	-0.053789053
170	0x3d9b7c96	0.07592122
171	0x3d9d59fc	0.07683179
172	0xbd99e5b0	-0.075145125
173	0xbd2a411f	-0.04156601
174	0x3c6d63d1	0.01448913
175	0x3cbabb21	0.022794308
176	0xbdc0076f	-0.09376418
177	0x3dd61ec4	0.10455087
178	0xbd5d776b	-0.054068964
179	0x3d81f8f9	0.06346316
180	0x3c275a86	0.010214454
181	0xbdaa719e	-0.08322452
182	0x3d2fb604	0.042898193
183	0xbd139e93	-0.0360399
184	0x3df9de0f	0.122005574
185	0xbce9c3e3	-0.028535789
186	0x3daebd26	0.08532171
187	0x3dbd43a9	0.09241421
188	0xbd440834	-0.047859386
189	0xbd32cc56	-0.0436519
190	0x3daf30a6	0.08554201
191	0x3de71dde	0.112849936
192	0x3d18dd22	0.037320264
193	0x3d999750	0.07499564
194	0x3da2f40f	0.07956707
195	0x3d7ffc05	0.062496204
196	0xbb6b431f	-0.0035898162
197	0x3e2ee69d	0.1708016
198	0xbd1de6b9	-0.038550112
199	0x3c15d81f	0.009145766
200	0xbcb07683	-0.021540886
201	0x3cb7f1a3	0.022454089
202	0x3dbc4320	0.091924906
203	0x3d9af274	0.075657755
204	0x3c00eef2	0.007869469
205	0x3dfa858a	0.12232502
206	0x3e0cf798	0.13766325
207	0x3d910672	0.070813075
208	0xbcbc31e2	-0.022973005
209	0x3daec4f8	0.085336626
210	0x3db42591	0.08796228
211	0x3daed7cb	0.08537253
212	0x3d7c9c05	0.06167223
213	0x3da173ae	0.07883392
214	0xbd8cfcb9	-0.068841405
215	0x3d8f51bb	0.06998011
216	0xbdae4391	-0.08508981
217	0x3d8467e1	0.06465126
218	0x3d98b736	0.0745682
219	0x3cf543c7	0.029939545
220	0x3c57fa90	0.013182297
221	0xbb568187	-0.0032731013
222	0x3ddfa9bd	0.10921047
223	0x3d9aabf7	0.07552331
224	0xbc86aa63	-0.016438669
225	0xbd8a9d75	-0.06768314
226	0x3c00ec19	0.00786879
227	0xbd6478d6	-0.0557793
228	0xbb38059c	-0.0028079515
229	0x3c567cb6	0.013091257
230	0xbcf420bc	-0.029800765
231	0xbcc6edd6	-0.02428333
232	0xbbd9a8ed	-0.006642452
233	0xbd8cac0c	-0.06868753
234	0xbd320321	-0.043460015
235	0x3d650019	0.055908296
236	0xbdb317bf	-0.087447636
237	0xbdbda6b2	-0.0926031
238	0xbdc16fad	-0.094451286
239	0xbd460337	-0.04834291
240	0xbdc53bb9	-0.09630532
241	0x3da7c52b	0.08191904
242	0xbc32c616	-0.010911485
243	0x3d8a15ff	0.06742477
244	0x3db4350a	0.08799179
245	0xbe02a497	-0.12758099
246	0x3d78dbc3	0.060756456
247	0xbe004d82	-0.12529567
248	0x3e04eda9	0.12981285
249	0x3dd65cfd	0.10466955
250	0x3d7cc154	0.06170781
251	0xbd152752	-0.036414452
252	0x3d2426c7	0.040076043
253	0xbd7877dc	-0.06066118
254	0x3c96002d	0.01831063
255	0x3d36e739	0.044654105

layers.1.lin_self.weight f4 [96, 96]
0	0x3d81414e	0.06311284
1	0x3db408df	0.087907545
2	0xbd8fb085	-0.0701609
3	0x3d5bf0c7	0.05369642
4	0x3d699355	0.057025272
5	0x3d4c9ddd	0.049955238
6	0xbd051c8d	-0.03249793
7	0xbd3b26fa	-0.045691468
8	0x3de16e27	0.11007338
9	0x3d53e3d9	0.051730964
10	0x3d20ade5	0.03922834
11	0xbd770d21	-0.060315255
12	0xbdb610a8	-0.08889896
13	0x3dd92de8	0.10604459
14	0xbb19c9f9	-0.0023466332
15	0x3dc2fb43	0.095205806
16	0xbd9d0100	-0.07666206
17	0xbd2928d7	-0.041298714
18	0xbda851b7	-0.08218711
19	0x3deca123	0.11554172
20	0x3cfe68ba	0.031055797
21	0x3d464a42	0.04841066
22	0x3dbef98e	0.093249425
23	0x3c732101	0.014839412
24	0x3d33e1bf	0.04391646
25	0xbd8b0d00	-0.06789589
26	0x3d0d6f81	0.034530167
27	0x3da5a4cb	0.080880724
28	0x3b2e8c0d	0.002663377
29	0xbdba4ed9	-0.0909707
30	0xbd65e322	-0.056124814
31	0x3b3e7c9b	0.002906597
32	0x3da03abe	0.07823704
33	0x3cde88bb	0.027164808
34	0xbd522882	-0.051308163
35	0x3cd02265	0.025407026
36	0xbce1604f	-0.027511744
37	0x3cbe2449	0.023210661
38	0x3d8b47ed	0.06800828
39	0xbd9c1847	-0.07621818
40	0xbce2b7be	-0.027675506
41	0xbd1e2cd4	-0.03861697
42	0x3ddb02e9	0.106939144
43	0xbd9d3f6a	-0.07678111
44	0xbc267540	-0.0101597905
45	0xbdac4592	-0.08411707
46	0xbd76f8b9	-0.060295794
47	0xbd26e75b	-0.04074798
48	0x3c9b6bb3	0.018972253
49	0xbd939f3e	-0.072081074
50	0xbcf4a196	-0.029862206
51	0xbd23733e	-0.039904825
52	0x3dc65f07	0.09686094
53	0xbd6f3e9a	-0.05840931
54	0xbd932d2a	-0.07186349
55	0xbbbc4ef9	-0.005746719
56	0xbd962eae	-0.07333122
57	0xbcafca11	-0.021458657
58	0x3d088bca	0.03333644
59	0xbd8de9cc	-0.06929359
60	0xbc93858f	-0.018008022
61	0x3d954159	0.07287855
62	0x3dcff8cc	0.10154876
63	0x3db12012	0.08648695
64	0x3dacc120	0.08435273
65	0x3dc61fa9	0.096740074
66	0xbd1a720e	-0.037706427
67	0xbd0d92ce	-0.034563832
68	0xbcd5ffab	-0.026122889
69	0x3c2b382e	0.010450406
70	0x3c8c324d	0.017113829
71	0xbd4f0f2f	-0.05055159
72	0x3dcd75f7	0.10032266
73	0xbc901656	-0.017588776
74	0x3d9e032b	0.07715448
75	0x3cf14271	0.029450627
76	0x3d44993a	0.04799769
77	0x3c97ac0d	0.018514657
78	0x3d8625d5	0.06550185
79	0xbd7dfcfb	-0.06200884
80	0x3d6aeace	0.057352833
81	0xbd954b42	-0.07289745
82	0x3d532ac6	0.051554464
83	0xbd1c3e84	-0.038145557
84	0x3d4b005c	0.04956089
85	0xbd86775f	-0.06565737
86	0xbd6e306e	-0.058151655
87	0x3dd9f23e	0.10641907
88	0x3db42bd6	0.087974235
89	0xbdb7b2d0	-0.08969653
90	0xbd1ae749	-0.037818227
91	0xbdc44751	-0.09583915
92	0x3c5423bc	0.012947973
93	0xbce0f3f7	-0.027460082
94	0x3c0effe4	0.008728001
95	0x3d2f339e	0.042773835
96	0x3d420e3b	0.047376852
97	0x3cb44e48	0.022009984
98	0x3d23cd09	0.03999046
99	0xbdb401c7	-0.087894015
100	0x3c852089	0.016250866
101	0xbdba73e1	-0.091041334
102	0xbcf650af	-0.03006777
103	0xbd0af3ed	-0.033924032
104	0xbdab25b1	-0.083567984
105	0x3b3f64b5	0.0029204313
106	0x3d7dffcb	0.06201152
107	0xbb9929b4	-0.004674161
108	0xbc4588e2	-0.012056561
109	0xbd3da75f	-0.046302196
110	0xbbc912bc	-0.0061362665
111	0xbda4c759	-0.08045835
112	0x3dbc86b0	0.09205377
113	0x3cc00b85	0.023442993
114	0xbd63d7bd	-0.055625666
115	0x3ba25938	0.0049544834
116	0x3d1c7161	0.038194064
117	0x3e030305	0.1279412
118	0xbcea2e5a	-0.028586555
119	0xbd93cf9b	-0.07217332
120	0xbcdb5eff	-0.026778696
121	0xbd05144e	-0.032490067
122	0x3d91f3b6	0.07126562
123	0x3cd784d1	0.026308449
124	0x3dda5a50	0.10661757
125	0xbd03a002	-0.032135017
126	0xbda4ef14	-0.08053413
127	0x3d0815f2	0.033224054
128	0x3d9d5c44	0.07683614
129	0x3dcaa5fa	0.09894939
130	0x3c915fb8	0.017745838
131	0x3c54d942	0.012991251
132	0x3d7b0545	0.061284322
133	0x3d8c34e4	0.068460256
134	0xbe0140b5	-0.1262234
135	0xbd0b8869	-0.034065638
136	0x3d94e652	0.072704926
137	0xbd030415	-0.031986315
138	0xbd88ca4b	-0.06679209
139	0xbd930740	-0.07179117
140	0xbd18cd11	-0.03730494
141	0x3b666f0f	0.003516141
142	0x3cce27eb	0.025165519
143	0xbdabd8f1	-0.08390988
144	0x3df906b7	0.12159484
145	0x3d27a34f	0.040927228
146	0x3d413790	0.04717213
147	0xbd0e9f8d	-0.03482013
148	0x3dba3e8e	0.090939626
149	0x3d2eb2d7	0.042651024
150	0xbdadc018	-0.084839046
151	0x3d9338b2	0.07188548
152	0x3da28b02	0.0793667
153	0xbd56f009	-0.05247501
154	0x3da7b5fb	0.08189007
155	0xbc2ae224	-0.010429893
156	0xbc80474e	-0.015659
157	0xbcf418d9	-0.029797005
158	0xbd438de5	-0.047742743
159	0x3daa6fae	0.083220825
160	0xbc5bc573	-0.013413775
161	0xbd0d7431	-0.034534637
162	0x3d5a5451	0.053303067
163	0xbd8fc90d	-0.07020769
164	0xbd9cfaa8	-0.076649964
165	0xbd0f6eba	-0.035017706
166	0x3df0b1b4	0.11752644
167	0xbd545678	-0.051840276
168	0xbd3548b5	-0.044258792
169	0xbd347fe8	-0.044067293
170	0x3d875879	0.06608672
171	0x3c1b382d	0.009473843
172	0xbd7e0c36	-0.062023364
173	0xbd2f6428	-0.042820126
174	0xbd71bcd9	-0.05901799
175	0x3d16f864	0.036857978
176	0xbd340924	-0.04395403
177	0xbd3c7111	-0.046006266
178	0x3d8e3832	0.06944312
179	0x3d95c572	0.0731305
180	0xbdce1537	-0.1006264
181	0x3d807be9	0.06273634
182	0x3dadcdd9	0.08486528
183	0x3dbc9546	0.09208159
184	0x3d7c6f68	0.061629683
185	0xbb9867da	-0.004651052
186	0xbd01165f	-0.031515475
187	0xbce7b793	-0.028285777
188	0xbd600845	-0.054695386
189	0xbcddbece	-0.027068522
190	0x3d928a57	0.071552925
191	0x3de5fe64	0.11230162
192	0x3db486bc	0.08814761
193	0x3ce04db0	0.027380794
194	0x3cf79978	0.030224547
195	0xbbcc50a0	-0.006235197
196	0xbdc4ebef	-0.09615313
197	0x3b2806f5	0.0025638912
198	0x3cf50544	0.029909737
199	0x3beee5f2	0.007290595
200	0x3d3b12ed	0.045672346
201	0x3d8692d3	0.06570973
202	0x3dc63385	0.09677795
203	0x3d5d7747	0.05406883
204	0xbd715592	-0.058919497
205	0x3d2e2f50	0.04252559
206	0xbba8ecd5	-0.0051551857
207	0xbd9fb7b8	-0.077987134
208	0x3d1f325e	0.038866393
209	0x3dabcc5b	0.08388587
210	0xbd0477db	-0.032340866
211	0x3d8c57a8	0.068526566
212	0xbcf2341e	-0.029565867
213	0x3d897f47	0.06713729
214	0x3d903422	0.070411935
215	0x3d813a1d	0.06309912
216	0xbceae233	-0.028672313
217	0xbc78c8c8	-0.015184589
218	0xbd440951	-0.047860447
219	0xbc78c6b4	-0.015184093
220	0x3d8c1a31	0.06840933
221	0xbd091e34	-0.03347607
222	0x3db4ac82	0.08821966
223	0x3dad404e	0.08459531
224	0x3dfd5ea2	0.123715654
225	0xbd156f98	-0.036483377
226	0x3d5da87d	0.05411576
227	0x3dde539b	0.1085579
228	0x3d82581a	0.0636446
229	0x3ba0e888	0.0049105324
230	0x3d868e17	0.0657007
231	0x3dbb89ad	0.09157119
232	0x3d01ebde	0.03171908
233	0xbae54fb9	-0.0017495073
234	0xbcd32e1c	-0.025778823
235	0x3de4eb52	0.11177696
236	0x3d11c771	0.035590593
237	0x3c932835	0.017963508
238	0x3d324bb4	0.043529227
239	0xbd5b7b50	-0.053584397
240	0x3d9a7a95	0.07542912
241	0x3d69ca20	0.057077527
242	0xbd4a8b67	-0.04944935
243	0x3a3b7e09	0.00071522646
244	0x3d81705d	0.0632026
245	0x3df0e20a	0.117618635
246	0x3daacbb6	0.08339636
247	0x3dc3a205	0.09552387
248	0x3d8e26a8	0.06940967
249	0x3db44234	0.0880169
250	0xbcf6a620	-0.030108511
251	0xbd601356	-0.05470594
252	0x3db66e9a	0.08907814
253	0x3d151684	0.036398426
254	0x3d188e8f	0.03724533
255	0x3d168972	0.03675217

layers.1.lin_self.bias f4 [96]
0	0xbd11db28	-0.035609394
1	0x3c02bdd8	0.007979833
2	0x3d6b6d27	0.057477143
3	0x3d154d54	0.0364507
4	0xbdabdc20	-0.08391595
5	0xbd88fa1e	-0.06688331
6	0xbd5ee595	-0.054418165
7	0x3db72497	0.08942526
8	0x3c1e5030	0.009662673
9	0xbd405df3	-0.046964597
10	0x3cb862f9	0.022508131
11	0x3c4b7a10	0.012419239
12	0x3d84ffec	0.06494126
13	0xbda58666	-0.08082275
14	0x3ca7f243	0.020501262
15	0x3dd0edc9	0.10201604
16	0x3c561881	0.013067366
17	0x3de5ee76	0.112271234
18	0x3db7e353	0.089789055
19	0x3c04844a	0.008088181
20	0x3dcd42ac	0.10022482
21	0xbc21707b	-0.009853478
22	0x3d944233	0.07239189
23	0xba9b3845	-0.0011842331
24	0xbdc1b1aa	-0.09457715
25	0x3cc577f9	0.024105059
26	0x3d0917a8	0.033469826
27	0xbd6e6bdc	-0.05820833
28	0x3d5f6922	0.05454362
29	0xbd85400e	-0.06506358
30	0xbda96043	-0.082703136
31	0xbc775474	-0.015095819
32	0x3cfcaaf3	0.030843234
33	0x3d993269	0.07480318
34	0xbd6983fc	-0.057010636
35	0xbd889dc2	-0.06670715
36	0x3cefb471	0.029260846
37	0x3de30435	0.11084787
38	0x3de90e02	0.11379625
39	0xbc9c6271	-0.01908991
40	0x3b1fdf1b	0.0024394456
41	0xbb5e8da0	-0.0033958927
42	0x3de61ada	0.1123559
43	0x3ccf2b83	0.025289303
44	0x3d066cb4	0.03281851
45	0x3d193219	0.037401292
46	0xbd8104ec	-0.06299767
47	0x3c1d54a1	0.009602697
48	0xbd881c4c	-0.06646022
49	0x3d53c20e	0.051698737
50	0x3dae7018	0.08517474
51	0x3d16786e	0.036735944
52	0xbc6bf737	-0.014402202
53	0x3db4e11a	0.08831997
54	0x3d0d90bf	0.03456187
55	0xbd9756e1	-0.07389618
56	0xbda6f0aa	-0.08151372
57	0x3d33cd99	0.043897245
58	0x3dc39328	0.09549552
59	0x3dd638ad	0.10460029
60	0x3d0d1035	0.034439284
61	0xbd0433fc	-0.03227614
62	0xbd66ef32	-0.05638046
63	0x3ca8db8f	0.020612506
64	0x3d94d432	0.072670355
65	0xbc3896bd	-0.011266408
66	0x3d484722	0.048895963
67	0x3d9edd39	0.077570386
68	0x3d5bd356	0.053668343
69	0xbc037625	-0.008023773
70	0xbbbf1493	-0.00583131
71	0xbda547df	-0.08070349
72	0x3c68a7f8	0.014200203
73	0xbd9f8645	-0.07789282
74	0x3db5c25e	0.08874963
75	0x3d16dc28	0.03683105
76	0x3d5f3a47	0.054498937
77	0x3da590e5	0.08084277
78	0xbd3123d7	-0.04324707
79	0x3ce626c0	0.02809465
80	0xbcefb58e	-0.029261377
81	0x3d6d38bd	0.057915438
82	0x3d4accc4	0.049511686
83	0x3dd3d911	0.103441365
84	0x3c054d09	0.008136042
85	0x3da9d080	0.08291721
86	0xbd3918c1	-0.045189623
87	0xbcfb8547	-0.0307032
88	0xbd9b9b45	-0.07597975
89	0x3d93bfa0	0.07214284
90	0xbd8b8a97	-0.06813543
91	0xbd2a732c	-0.041613743
92	0xbca55543	-0.020182258
93	0xba7feac8	-0.0009762463
94	0x3dc4f73b	0.09617468
95	0x3ddfe098	0.1093151

layers.1.lin_neigh.weight f4 [96, 96]
0	0xbd4829cc	-0.048867986
1	0x3c84bb3e	0.016202565
2	0xbd918c29	-0.071068116
3	0xbd9cf565	-0.07663993
4	0xbc243220	-0.010021716
5	0xbd08429b	-0.033266645
6	0x3d843615	0.06455628
7	0xbcbb9582	-0.02289844
8	0x3d216c77	0.03941008
9	0xbdb1039b	-0.08643266
10	0xbd03a379	-0.03213832
11	0x3c60522a	0.013691464
12	0xbcb009fb	-0.021489134
13	0x3daca5bb	0.08430048
14	0x3c62814f	0.013824775
15	0x3dc1c21b	0.09460851
16	0x3d4c0a06	0.049814247
17	0x3d2297cb	0.039695542
18	0xbdcd670a	-0.10029419
19	0x3d6bbf01	0.057555202
20	0xbda34747	-0.079725794
21	0x3ddc1a35	0.10747186
22	0x3d880688	0.06641871
23	0xbd45b562	-0.048268683
24	0x3c7bb714	0.015363473
25	0x3d9b1abf	0.07573461
26	0xbde26c54	-0.11055818
27	0x3ca7d3be	0.020486709
28	0xbbd9bcfb	-0.0066448427
29	0x3d0c6f35	0.034285743
30	0x3db99f47	0.09063583
31	0xbd328e21	-0.043592576
32	0xbdbbac68	-0.09163743
33	0xbd87d225	-0.06631879
34	0x3b4b0ce3	0.0030983023
35	0xbcbdffe5	-0.02319331
36	0xbd54cc1a	-0.05195246
37	0xbd3dc0cd	-0.046326447
38	0x3d1f97e9	0.038963232
39	0xbd62a911	-0.055337016
40	0x3d8ded71	0.06930054
41	0x3d0eaa2c	0.034830257
42	0xbd1aca61	-0.03779066
43	0xbc805532	-0.015665624
44	0x3c8d0caa	0.017217953
45	0x3d78ca0e	0.06073957
46	0xbb4cfd60	-0.0031278953
47	0xbd6bd9bb	-0.05758069
48	0x3dbfc207	0.0936318
49	0xbc3d040c	-0.011536609
50	0x3dad759e	0.08469699
51	0x3db5e440	0.08881426
52	0x3caaf3ea	0.02086826
53	0x3dc2e61c	0.09516546
54	0xbcce6064	-0.025192447
55	0xbd5ac76d	-0.053412843
56	0x3d0cb57f	0.034352776
57	0x3db9f9dc	0.0908086
58	0x3dcff3c7	0.10153919
59	0x3de323f1	0.1109084
60	0x3cf3986f	0.029735772
61	0xbdbab2f9	-0.091161676
62	0x3dad01b2	0.08447589
63	0x3dc3b52c	0.0955604
64	0xbdb04bdc	-0.08608219
65	0x3b2355ef	0.0024923047
66	0x3d65aa74	0.05607076
67	0xbb93f405	-0.0045151734
68	0x3d66d897	0.0563589
69	0xbc202c7a	-0.009776229
70	0xbd3e10bd	-0.04640268
71	0xbdb768de	-0.08955549
72	0xbcb52319	-0.022111462
73	0xbd48053e	-0.048833124
74	0xbd571b71	-0.052516405
75	0x3d80e173	0.06293001
76	0xbc0610ab	-0.008182685
77	0xbd97b1a4	-0.07406929
78	0xbd8a710d	-0.06759844
79	0x3d02697a	0.03183887
80	0xbd1600da	-0.036621906
81	0x3dffb797	0.12486189
82	0x3d287bce	0.041133694
83	0xbd6eeb4d	-0.05832987
84	0xbd968bad	-0.0735086
85	0xbd48c0fa	-0.04901216
86	0xbdc2560b	-0.09489068
87	0x3d888809	0.06666572
88	0xbd98fea5	-0.074704446
89	0x3d5e6bcf	0.054302033
90	0xbd701e2b	-0.05862252
91	0x3d026be3	0.03184117
92	0x3cc15511	0.023600133
93	0x3d3fb46c	0.046802923
94	0x3d47c9d3	0.04877646
95	0x3d9d8570	0.07691467
96	0x3dc8fdef	0.09814059
97	0x3e118241	0.14209844
98	0xbbee3384	-0.0072693247
99	0xbd28ebd1	-0.041240517
100	0xbd9de030	-0.07708776
101	0xbc4ccd22	-0.012500079
102	0x3c9ae3c4	0.018907435
103	0xbd39678c	-0.045264766
104	0xbdcb6553	-0.099314354
105	0x3bc6e331	0.006069564
106	0x3df815f6	0.12113564
107	0x3df0818c	0.11743459
108	0xbca1ecd7	-0.019766254
109	0x3de749ec	0.11293396
110	0xbd942bd0	-0.07234919
111	0xba9f9d1e	-0.0012177562
112	0xbd92f65c	-0.071758956
113	0x3ddd1d48	0.107966006
114	0xbd8794f9	-0.06620211
115	0x3cb5c94b	0.02219071
116	0xbd55f7a5	-0.052238125
117	0x3dd6b252	0.10483231
118	0xbd7e7683	-0.06212474
119	0x3d827639	0.063702054
120	0xbd879806	-0.06620793
121	0xbd581a6b	-0.05275957
122	0x3d951e6e	0.072811946
123	0x3defe8ee	0.1171435
124	0x3cac8e50	0.021063954
125	0x3df00510	0.117197156
126	0x3dc78d88	0.09743792
127	0x3dcad9d3	0.09904828
128	0x3dbe322d	0.09286914
129	0xbb5269d2	-0.003210653
130	0x3d11be3a	0.035581805
131	0xbd5753eb	-0.052570265
132	0x3d2572c5	0.040392656
133	0x3daa20db	0.08307048
134	0xbcb06d19	-0.021536397
135	0xbd8b13c2	-0.06790878
136	0xbd2946bc	-0.041327223
137	0x3d9709e6	0.07374935
138	0xbd4d7163	-0.050156962
139	0x3dd6cec6	0.10488658
140	0xbc9278a6	-0.017879795
141	0x3c709996	0.014685055
142	0x3c414e24	0.011798415
143	0xbcaf1f25	-0.021377156
144	0xbd5deaaa	-0.05417887
145	0x3cc549ed	0.024083102
146	0xbdd51ad0	-0.10405505
147	0x3da4428e	0.08020507
148	0x3c3aeadc	0.011408534
149	0x3c9581be	0.018250342
150	0x3d961d12	0.073297635
151	0x3dd52933	0.10408249
152	0xbd166bae	-0.036723785
153	0xbc163d7d	-0.009169933
154	0xbc7e1e3a	-0.015510136
155	0x3dd5fd43	0.104486965
156	0x3c724bad	0.01478855
157	0xbb79d70c	-0.0038122563
158	0xbc8ff0a4	-0.017570801
159	0xb9b18745	-0.00033860854
160	0xbda4ca3b	-0.08046385
161	0xbd868f95	-0.06570355
162	0xbce8b3e0	-0.028406084
163	0x3ce70207	0.028199209
164	0xbdb241c0	-0.08703947
165	0xbd86a252	-0.06573929
166	0xbc3c604c	-0.011497568
167	0x3d8f1881	0.069870956
168	0x3dbc88af	0.09205758
169	0x3ddc8ad5	0.107686676
170	0x3ce5262b	0.027972301
171	0x3e01b1fd	0.12665553
172	0x3de1518f	0.11001884
173	0xbbbd5e94	-0.005779097
174	0xbd0ae6b9	-0.03391144
175	0x3b81b32b	0.003958126
176	0x3dbce3e0	0.09223151
177	0xbcc30197	-0.023804469
178	0xbd129150	-0.035783112
179	0x3bcdceb6	0.0062807454
180	0x3da7ca86	0.08192925
181	0x3d86566f	0.06559455
182	0x3ddc3656	0.10752551
183	0x3d78ddc5	0.06075837
184	0xbc2dc2d2	-0.010605531
185	0xbdb2edd5	-0.08736769
186	0x3db66d7e	0.08907603
187	0xbd3f7ee2	-0.046751864
188	0xbd86ef23	-0.065885805
189	0xbb8b30a8	-0.0042477436
190	0x3ccb3fb8	0.024810657
191	0xbd6581a3	-0.056031834
192	0x3dc35dd7	0.09539383
193	0x3dc34b2c	0.09535822
194	0x3b9b658b	0.0047423295
195	0x3c0864b8	0.0083247945
196	0xbd9ed4f3	-0.077554606
197	0x3dae412d	0.08508525
198	0x3db0c08c	0.086304754
199	0xbdb93f3f	-0.09045266
200	0xbd5b0085	-0.053467292
201	0x3d0069f5	0.03135105
202	0xbd6dad9c	-0.058026895
203	0xbd4693fb	-0.04848097
204	0x3d60c20c	0.054872558
205	0x3c6c461a	0.01442101
206	0xbe1ec8bb	-0.1550626
207	0x3dcfb3ae	0.10141693
208	0xbd1fcf41	-0.039016012
209	0xbd99e60b	-0.0751458
210	0x3d11b668	0.035574347
211	0xbd879e81	-0.06622029
212	0x3e038134	0.12842256
213	0x3ca782b1	0.02044806
214	0xbc26b09d	-0.010173944
215	0x3d765497	0.060139265
216	0xbcb9e067	-0.022690011
217	0xbd9f481c	-0.07777426
218	0x3d9779b9	0.07396264
219	0x3dfb50de	0.122712836
220	0xbd899257	-0.06717365
221	0x3df3f193	0.11911311
222	0xbd71031b	-0.058840852
223	0x3da18f8b	0.07888707
224	0xbd3bf212	-0.045885153
225	0x3c194f3c	0.00935727
226	0xbcf95fda	-0.030441213
227	0x3de70f99	0.11282272
228	0x3d9596f2	0.07304181
229	0x3d0a8aeb	0.03382389
230	0x3d695410	0.056964934
231	0xbd56aae0	-0.052409053
232	0xbd4ec7cf	-0.05048352
233	0x3ddcb9c3	0.10777619
234	0x3dc57d26	0.09643011
235	0x3d769d2f	0.060208496
236	0xbbdd9b02	-0.006762863
237	0xbb73b5a2	-0.003718712
238	0x3e0a314a	0.13495365
239	0x3c71ea91	0.014765398
240	0xbd808a21	-0.06276346
241	0x3de1aaef	0.11018931
242	0xbd972661	-0.07380367
243	0xbda939e2	-0.082629934
244	0xbcf11098	-0.029426858
245	0xbd5c3ea4	-0.053770676
246	0x3b5d8dcd	0.0033806444
247	0x3c987813	0.018611943
248	0x3c55edb4	0.013057161
249	0x3db66fc6	0.08908038
250	0xbd5651a2	-0.052323945
251	0x3dfde327	0.123968415
252	0xbd599d75	-0.05312868
253	0xbd7021d9	-0.05862603
254	0x3cff761d	0.03118425
255	0x3de57bf1	0.112052806

layers.2.lin_self.weight f4 [96, 96]
0	0xbc0d6f2e	-0.008632464
1	0xbc96cd26	-0.01840837
2	0x3c8bd91b	0.017071297
3	0x3ce02fd8	0.027366564
4	0xbd3142c5	-0.043276567
5	0xbddd2c28	-0.10799438
6	0x3d9bff25	0.07617024
7	0xbca5574e	-0.020183232
8	0xbd92a813	-0.07160964
9	0xbca29702	-0.019847397
10	0x3b1d853e	0.0024035717
11	0xbdc33a4e	-0.09532605
12	0x3c7e6f9b	0.0155295385
13	0x3d966136	0.0734276
14	0x3d1d9c96	0.03847941
15	0x3d8c852a	0.068613365
16	0xbd54d519	-0.05196104
17	0xbca46ff3	-0.020072913
18	0xbd9d55c3	-0.076823734
19	0x3d22c22c	0.039735958
20	0xbda9c19d	-0.08288882
21	0xbbb5d757	-0.005549352
22	0xbda67098	-0.08126944
23	0xbcc492d4	-0.023995794
24	0xbd17616a	-0.036958136
25	0x3d55f48f	0.052235182
26	0xbca18187	-0.019715084
27	0x3cd6dea2	0.026229206
28	0xbd847e92	-0.06469454
29	0xbd5055b9	-0.050863
30	0x3c8c9404	0.017160423
31	0x3cc42288	0.023942247
32	0xbd1aa823	-0.037758004
33	0xbd62f52f	-0.055409607
34	0xbc5d42be	-0.013504682
35	0x3c3ba66d	0.011453253
36	0x3d0d738f	0.034534033
37	0x3cbfc77e	0.023410555
38	0xbdc7f793	-0.09764018
39	0x3d5eab75	0.054362733
40	0xbc77d897	-0.015127323
41	0xbd1fe767	-0.03903904
42	0xbd2d2e93	-0.042280745
43	0xbd11727b	-0.035509568
44	0x3e260e6e	0.16216442
45	0xbd60e29b	-0.054903608
46	0xbddd19bb	-0.10795923
47	0x3d11115a	0.03541694
48	0xbdda24f1	-0.10651577
49	0x3e192775	0.14956458
50	0x3d3bfa34	0.04589291
51	0x3d9c8874	0.07643214
52	0xbd44eb4a	-0.04807595
53	0x3db35832	0.08757056
54	0x3d221948	0.03957489
55	0x3d94ea90	0.07271302
56	0xbcac069a	-0.020999242
57	0xbd3ccac2	-0.046091802
58	0x3dc17477	0.09446042
59	0xbd4bb183	-0.049729835
60	0xbbc29e12	-0.0059392536
61	0x3d458ed0	0.0482319
62	0x3d4c77a1	0.049918775
63	0x3c7b737f	0.015347361
64	0xbd1b0e0a	-0.037855186
65	0x3cfa926b	0.030587396
66	0xbd26e85e	-0.040748946
67	0xbd58aa6f	-0.052896913
68	0x3bc97bc2	0.0061487863
69	0x3cba5aac	0.022748314
70	0xbdc7f550	-0.097635865
71	0xbd57dc8f	-0.052700575
72	0xbd1bcc43	-0.038036596
73	0xbc46d72f	-0.012136265
74	0x3da2525a	0.079258636
75	0xbd9f83d8	-0.07788819
76	0xbd7512d6	-0.059832416
77	0x3dd2e5d5	0.10297743
78	0x3ccb791d	0.024838025
79	0xbd63a3d8	-0.055576175
80	0xbb0b9b45	-0.0021302265
81	0xbd679525	-0.05653872
82	0xbb5ab577	-0.0033372322
83	0x3bd2c6f0	0.0064324066
84	0x3c1db2b0	0.009625122
85	0x3d8cc2f3	0.06873121
86	0x3dba8be0	0.0910871
87	0x3d8a4117	0.06750696
88	0x3b8bfcdc	0.0042720865
89	0x3d9b645c	0.075875014
90	0x3dee6dcb	0.11642035
91	0xbd79fcd7	-0.061032142
92	0xbd7b60d6	-0.061371647
93	0xbc01388f	-0.00788702
94	0xbd28ed52	-0.04124195
95	0x3d18c75e	0.037299506
96	0x3dac1e58	0.08404225
97	0x3c43eb71	0.011957989
98	0xbcd0cd70	-0.025488585
99	0x3d102b79	0.03519771
100	0xbdbb4ad6	-0.09145133
101	0x3d28a49e	0.041172616
102	0xbd2039d2	-0.03911764
103	0xbd9e77a3	-0.07737663
104	0xbcf2f6de	-0.029658731
105	0x3dcba2fe	0.09943198
106	0xbd5e5d3d	-0.054288138
107	0xbd68db6f	-0.056849893
108	0x3dac5c7d	0.08416078
109	0xbc997724	-0.018733568
110	0x3b97e19f	0.0046350504
111	0x3d4d564b	0.050131124
112	0x3d1a0d0a	0.03761009
113	0x3cc4795c	0.02398365
114	0x3db20d0e	0.08693896
115	0xbdbdfb82	-0.09276487
116	0xbd3c850d	-0.046025325
117	0x3d893d01	0.06701089
118	0xbdb80699	-0.089856334
119	0xbc9b1223	-0.018929547
120	0x3cb507fa	0.02209853
121	0x3b90e5c4	0.0044219214
122	0x3c2dbede	0.010604588
123	0xbd81af3f	-0.06332254
124	0x3cef4aef	0.029210536
125	0xbda39b8e	-0.07988654
126	0xb9fb620f	-0.0004794751
127	0xbc5fb01f	-0.01365283
128	0x3d933789	0.07188327
129	0xbdc27859	-0.09495611
130	0xbd93ff8c	-0.07226476
131	0x3db59af2	0.08867444
132	0x3dc07290	0.09396851
133	0xbc7b514a	-0.015339205
134	0x3d6cbb0c	0.05779557
135	0xbc81cf56	-0.015845936
136	0x3da403fe	0.08008574
137	0xbd8d0a74	-0.068867594
138	0xbd839583	-0.064250015
139	0x3a49decc	0.0007700741
140	0xbc3484d1	-0.011017994
141	0x3d543499	0.051807974
142	0xbd503c61	-0.05083883
143	0x3d763194	0.060105875
144	0xbdb757f4	-0.089523226
145	0xbd6387e3	-0.055549514
146	0xbd6e098d	-0.058114577
147	0x3c417eed	0.011810047
148	0x3db2a0a7	0.08722048
149	0x3d02ba35	0.031915862
150	0xbdaa70d0	-0.083222985
151	0xbde1c717	-0.110243015
152	0x3d072e71	0.033003274
153	0x3d35b7ce	0.044364743
154	0x3d81f91e	0.063463435
155	0xbdae825c	-0.08520958
156	0xbda3cc57	-0.07997959
157	0x3db2443b	0.0870442
158	0x3d9f9ba1	0.07793356
159	0xbc041500	-0.008061647
160	0xbdeab6a5	-0.11460618
161	0x3dc14ba5	0.09438256
162	0x3d13d149	0.03608826
163	0xbd54ef20	-0.05198586
164	0xbd152f0a	-0.036421813
165	0x3b61710a	0.0034399652
166	0x3dabecfb	0.0839481
167	0x39db1ac4	0.00041790877
168	0x3d5213ad	0.051288296
169	0x3cfda41f	0.030962048
170	0xbd81d753	-0.06339898
171	0xbde11912	-0.1099111
172	0x3d555219	0.052080248
173	0xbd6b83fc	-0.057498917
174	0x3d353544	0.04424025
175	0x3d517aba	0.05114243
176	0xbc9289e0	-0.01788801
177	0xbd8d2ea6	-0.06893663
178	0x3db0c58e	0.086314306
179	0xbcb2765c	-0.021784954
180	0x3dac2072	0.08404626
181	0x3dd00b15	0.10158364
182	0x3da7b7fd	0.0818939
183	0x3dd4132d	0.1035522
184	0xbca37f76	-0.019958239
185	0x3d8351fd	0.064121224
186	0xbda9266f	-0.08259284
187	0x3b628e8a	0.0034569823
188	0xbd946060	-0.072449446
189	0xbdacd249	-0.08438546
190	0x3d2256ab	0.039633434
191	0xbd5d19f3	-0.053979825
192	0xbcf29b50	-0.029615074
193	0xbdcfca78	-0.1014604
194	0xbd6ee77a	-0.058326222
195	0x3cf90c60	0.030401409
196	0x3dadf061	0.08493114
197	0x3c9dbb16	0.019254249
198	0xbc678906	-0.01413179
199	0xbd7c4881	-0.061592583
200	0xbd8d3233	-0.0689434
201	0xbd6f280b	-0.058387797
202	0x3d90115e	0.070345625
203	0xbd49afb0	-0.049239814
204	0x3d19b3e6	0.03752508
205	0x3d07eb33	0.033183288
206	0xbd8029ef	-0.06257998
207	0xbd805cf0	-0.062677264
208	0xbd15e69a	-0.036596872
209	0xbd9cb4a0	-0.07651639
210	0x3dc19797	0.094527416
211	0xbd640944	-0.0556729
212	0xbdbc55ec	-0.09196076
213	0xbd97c432	-0.07410468
214	0x3a1d0374	0.0005989589
215	0x3dc3ad4b	0.095545374
216	0xbdc3c909	-0.09559829
217	0x3c3284c9	0.010895916
218	0xbba2f1e6	-0.004972684
219	0xbbc920cf	-0.0061379443
220	0x3c878f55	0.016547838
221	0xbd2f235d	-0.042758334
222	0x3d09c937	0.03363916
223	0x3cb8427d	0.022492642
224	0x3da6d16e	0.08145414
225	0x3da6e5da	0.081493095
226	0x3c93732d	0.017999256
227	0xbd733032	-0.059372135
228	0xbbca395e	-0.0061713895
229	0xbdacf269	-0.084446736
230	0x3cf78712	0.030215774
231	0x3cbbb8df	0.022915302
232	0xbbb2e829	-0.0054598046
233	0xbdd078d1	-0.10179294
234	0xbd84727d	-0.064671494
235	0x3d3d6112	0.04623515
236	0x3da07faa	0.0783685
237	0xbd8bc627	-0.06824904
238	0xbd93ada0	-0.07210851
239	0x3c5c89c7	0.013460583
240	0x3d368863	0.044563662
241	0xbd0daeee	-0.034590654
242	0xbc860104	-0.016357906
243	0x3daf6889	0.085648604
244	0xbd43ca47	-0.04780033
245	0x3d21536f	0.03938621
246	0xbca7e041	-0.020492675
247	0x3d9b1599	0.07572479
248	0x3d0c10cc	0.034195706
249	0x3d0365e0	0.032079577
250	0x3d99b52f	0.07505261
251	0xbc03ea41	-0.008051456
252	0xbd1922bd	-0.037386645
253	0xbdae7507	-0.08518415
254	0x3db1ce81	0.086819656
255	0x3d749e7c	0.059721455
