outputs/models/nowcast_sage_no_next_seed44.pt (torch, 272229 bytes, 14 tensors)

in_lin.weight f4 [96, 14]
000000 61 53 fc 3d 66 39 e3 3d d6 67 39 3e 94 b7 54 be
       0.12320591 0.11094932 0.18106017 -0.20773154
000010 07 15 8c 3d 13 7c fb 3d 4e b0 f3 bd 6c a7 a7 bd
       0.06839948 0.12279525 -0.11898862 -0.0818623
000020 2a 9c 98 3e a8 c9 76 3e 80 47 88 3e 75 aa 23 3e
       0.29806644 0.24100363 0.2661705 0.15982993
000030 ec e8 1d 3e 3b 2c 77 be 11 49 f2 3d ca 64 e0 bd
       0.15420884 -0.24137966 0.118303426 -0.10956724
000040 8c fa 93 3c f9 80 bb 3d 5a 0c 23 3e 57 86 f2 bd
       0.018063806 0.09155459 0.1592268 -0.118420295
000050 27 c8 4c 3e e5 a9 44 3e eb 85 81 3e 66 10 37 3c
       0.19998227 0.19205435 0.25297484 0.011173343
000060 6c d3 61 3b e5 06 95 bd 72 43 79 be c6 e7 14 3e
       0.0034458293 -0.07276706 -0.24342135 0.1454154
000070 a3 38 24 3e 79 92 c7 bc 17 26 4a be bc 57 48 3e
       0.1603723 -0.024361836 -0.19741093 0.19564718
000080 eb 30 9b ba b7 fc 99 bd 79 50 15 3e 44 91 57 be
       -0.001184014 -0.07518905 0.14581479 -0.21051508
000090 60 9d 99 3d d4 d3 74 3d c5 56 51 3e 63 d5 9f bc
       0.0750072 0.059772328 0.20443256 -0.01951093
0000a0 8e c5 8f be 61 42 aa 3d e0 de 42 3d 1f bc 3e be
       -0.2808041 0.08313442 0.04757583 -0.1862645
0000b0 c3 36 64 bd 38 a5 5f be 52 c4 e4 3d 27 cc 5e bd
       -0.055716287 -0.2184037 0.11170258 -0.054393914
0000c0 f1 84 17 be f8 49 16 3e 33 8f 06 be 6d d6 3f 3e
       -0.14796807 0.14676654 -0.13140564 0.1873414
0000d0 c9 66 56 3e 46 bb 73 be ab 55 64 be 08 ba 2a 3e
       0.20937647 -0.23801908 -0.22298305 0.16672528
0000e0 d6 d0 61 be 9d 4d 28 3d eb b7 ef 3d d0 f1 8c bc
       -0.22052321 0.041089643 0.117050014 -0.017205149
0000f0 fd c2 02 be f4 df 43 3c a7 fd 3e 3d d4 28 a8 3e
       -0.12769695 0.01195525 0.04662862 0.3284365
000100 7a 4d 94 3e fe fe 65 3d f3 99 05 3d 3f 74 a9 bd
       0.2896536 0.056151383 0.03261752 -0.08274125
000110 00 7c 79 bd 9d 78 9c bd bc 6e 46 3d d0 5d db 3d
       -0.06090927 -0.07640193 0.04844545 0.10711253
000120 f7 5a 81 be 5a b2 26 3e 15 8d 81 3d e3 67 88 bc
       -0.25264713 0.16278973 0.063257374 -0.0166511
000130 1c 02 40 be 5d ef b7 3e e0 fa 24 be 3b 96 08 3d
       -0.18750805 0.35924807 -0.16111326 0.033346396
000140 01 fb 6e be 06 e1 dc 3d de ad 6e 3b 24 58 73 3e
       -0.23337938 0.10785107 0.003641955 0.23764092
000150 eb 2e 84 3e 43 d7 d6 3d c8 c1 5d 3e d6 aa 8a 3e
       0.25817046 0.10490277 0.21655953 0.27083462
000160 9d 3c ad bd e4 de 13 be b4 cf 40 3e 6d 69 0c be
       -0.08458827 -0.14440495 0.18829232 -0.13712092
000170 a0 19 78 3d 15 3a 0a 3d b7 76 25 be b4 19 0c bd
       0.060571313 0.033746798 -0.16158567 -0.0342042
000180 ba d0 d2 3d bd e4 88 3e 8b bb e3 bd b9 31 b6 bd
       0.10293718 0.26737013 -0.11119755 -0.088962026
000190 49 51 3b 3e 0a c2 2c be 62 92 46 be 42 b2 7c 3e
       0.18292727 -0.16870895 -0.19391778 0.24677375
0001a0 fa 0f 4d 3e 21 04 ec bd 3c 9a b6 bd cf 22 9b bd
       0.20025626 -0.11524225 -0.089161366 -0.075749986
0001b0 65 09 78 3e 4f 79 28 be be 3a 4c 3c 74 87 ee 3d
       0.24222334 -0.16452526 0.012465177 0.116469294
0001c0 fe 25 92 3d 01 8f 42 3e 92 aa 86 be 26 0c 07 be
       0.07136153 0.18999864 -0.2630201 -0.13188228
0001d0 ef 07 52 3e 64 03 76 be dc a3 bc bd ea 47 b2 3e
       0.20510839 -0.24024731 -0.09210941 0.3482049
0001e0 8b e8 27 3e db bd 0d 3e 76 9f 54 be 5c 51 37 3e
       0.16397302 0.13841955 -0.20763955 0.1790213
0001f0 fe 2a e1 3d 5b c9 5d 3d cd 2d 22 bd a5 28 39 3e
       0.10994528 0.054147106 -0.03959446 0.18081911
000200 79 84 6d bd db 2d ca 3d e6 62 ee bd b4 f3 7a be
       -0.057987664 0.098720275 -0.11639957 -0.24507028
000210 67 a0 0c 3e 62 50 b7 3d a8 01 32 bd 69 03 1e 3e
       0.13733064 0.08950879 -0.04345861 0.15430988
000220 33 04 5a 3e ac dc 09 be 25 db 7a be cb 04 44 be
       0.21290664 -0.13463086 -0.2449766 -0.19142453
000230 af 78 85 3c 27 3b ac bd b0 79 72 3e 0f ae 5e be
       0.016292898 -0.0840972 0.23679233 -0.21746086
000240 45 ff 9f 3d 1f db 73 be 4b e3 66 be f4 c0 48 be
       0.07812361 -0.23814057 -0.22547643 -0.19604856
000250 d8 8c 11 bd 02 a4 24 3e 30 9f 6b be b4 c6 7f bd
       -0.03553471 0.16078189 -0.23009944 -0.062445357
000260 a7 24 03 be 5d ec 2c be 43 55 4f 3e 32 f1 05 3e
       -0.1280695 -0.1688704 0.20247369 0.1308029
000270 20 4a ec bd e5 1d 4b be 1f ce dd 3d 79 cf 6e 3b
       -0.11537576 -0.19835623 0.1083033 0.0036439581
000280 bc 20 df 3d 60 82 86 3e e3 43 76 3e 8f eb e8 bd
       0.108949155 0.26271343 0.24049334 -0.11373054
000290 40 3f 89 bd 67 a7 4c 3e 4a 92 23 3e e0 e7 cf 36
       -0.06701517 0.19985734 0.15973774 6.1960745e-06
0002a0 00 67 c9 3d 95 2f 43 3e c2 d6 36 3e ec 71 34 be
       0.09834099 0.1906112 0.17855361 -0.17621583
0002b0 15 69 3d 3e 18 96 a7 bd 4c e7 f0 bc fa 02 04 3e
       0.18497117 -0.08182925 -0.029407166 0.1289176
0002c0 f2 62 95 bb 17 bf 13 3e 26 8a 55 3e 91 af 33 be
       -0.0045589143 0.14428364 0.2085348 -0.17547442
0002d0 1a 5f 0d 3e 3d 22 4e be 23 c1 16 3e 9a af 66 bd
       0.1380581 -0.20130248 0.14722113 -0.05631981
0002e0 4d bd 7b 3e aa d5 b9 3d 56 84 f8 bc ed 17 d4 bd
       0.24583931 0.09073956 -0.03033654 -0.10356126
0002f0 df 0f 36 3d f3 de 85 3e 09 7a 3d be 0f 91 50 3c
       0.04444873 0.2614666 -0.18503584 0.012729897
000300 b5 bc 10 3e 6b 3f 23 bc 61 4e 67 bd 59 80 35 be
       0.14134486 -0.0099638505 -0.056471232 -0.17724742
000310 5c 7e 90 3d 99 45 3b bd b5 6b 0d 3e 6f c5 13 bd
       0.07055351 -0.04572067 0.13810618 -0.03607696
000320 66 40 c3 bd f1 96 54 bd c9 32 f6 bd 9e 15 eb bd
       -0.095337674 -0.05190176 -0.12021405 -0.114787325
000330 ce db 2e bd 2a a2 34 3d d8 f7 64 3d c7 34 f0 3d
       -0.04269009 0.044099964 0.055900425 0.117288165
000340 bb 49 84 3d e8 26 8f be cf a5 0b bb ac c3 88 3d
       0.064593755 -0.2795937 -0.0021308546 0.066779464
000350 5d 06 83 3e 47 3b 86 bc 34 5e 0a be 18 73 8e bd
       0.25590792 -0.016385688 -0.13512498 -0.06955546
000360 55 91 ca 3d 48 09 ac bd 56 8f dc bd 8c 45 98 bd
       0.09891001 -0.08400208 -0.10769527 -0.0743514
000370 7f 0b 34 be 60 d6 36 be 05 87 3a 3e 9f ed 36 be
       -0.1758251 -0.17855215 0.18215568 -0.17864083
000380 3d a3 28 3e 0a 79 8f bd 4c e7 7e bd 1a 50 18 3e
       0.1646852 -0.07005508 -0.0622323 0.14874306
000390 f0 40 b8 3b fb 02 3e be 03 c3 40 3c 1c e3 83 be
       0.0056229755 -0.18555824 0.011765244 -0.25759208
0003a0 09 ee 69 be 68 95 a0 3d 6e 2c 65 bd f1 8e 16 be
       -0.2284471 0.07840997 -0.055950575 -0.14702965
0003b0 13 71 26 3e 43 e8 07 3e 53 e4 4a bd 30 6e 76 be
       0.16254072 0.13272195 -0.049534153 -0.2406547
0003c0 af d0 67 be da 07 7f 3e 39 25 e6 3d 6e d4 38 3e
       -0.226382 0.24905339 0.112375684 0.18049785
0003d0 8b 20 eb bc ad cd 0b 3e e1 11 90 3e 78 40 0b bd
       -0.028702041 0.13652678 0.2813864 -0.03399703
0003e0 ad f4 03 be f2 83 88 3e 74 b0 66 3e 8c 2b 3b bd
       -0.12886305 0.26663166 0.22528249 -0.045695826
0003f0 06 64 07 3e 33 48 aa bc 9f 72 76 be 58 5a 66 3e
       0.1322175 -0.02078638 -0.24067162 0.22495401

in_lin.bias f4 [96]
000000 85 01 31 3d 2b 26 ed 3c a7 90 d6 3d bc ba e4 bc
       0.04321434 0.028948864 0.10476809 -0.027921073
000010 c3 d5 47 bd e0 0d 10 be 49 d7 d6 bd e1 31 33 3e
       -0.048787843 -0.14067793 -0.10490281 0.17499496
000020 5c 09 88 3e 38 31 2e 3d 0b ef 07 3d 72 c1 3e bd
       0.2656964 0.042527407 0.033186954 -0.046571203
000030 9f a7 8b 3e 75 58 6c 3e af 23 66 3e 1b b1 18 3d
       0.27276322 0.23080619 0.2247455 0.037278276
000040 a9 98 62 be b8 b2 28 3d 0b 04 49 be 16 30 27 bc
       -0.22128548 0.041186064 -0.19630449 -0.010204336
000050 06 61 58 3e e9 43 18 be 7d 8f 11 3e 9f 9c 50 3e
       0.21130762 -0.14869656 0.14214893 0.20372246
000060 aa c0 11 be 08 5e b1 3d 01 62 fc bc 61 04 2b 3d
       -0.14233652 0.08660513 -0.03080845 0.041752223
000070 81 da 86 3e 1d ee 1f be cb 27 a1 3d ab 4f 6a be
       0.2633858 -0.15618177 0.07868918 -0.22881953
000080 1a 13 17 be 5d df 08 3e ce ad f7 bd 77 41 43 3e
       -0.1475338 0.13366456 -0.120936975 0.19067942
000090 5b 75 3f be b7 58 24 3e c8 aa 4c 3e 8d cc 3a be
       -0.18697111 0.16049467 0.19987023 -0.18242092
0000a0 d2 90 4e bd 7a ea 89 3d ec f9 0a 3e 28 6a 01 3c
       -0.05043108 0.06734176 0.135719 0.007898845
0000b0 eb 0d 55 be 99 ad 25 be be b0 97 3d 09 1d 6c bd
       -0.2080609 -0.16179504 0.07406758 -0.057644878
0000c0 d7 73 66 3e 11 58 6e 3e 50 e5 72 3d 75 c6 b4 3c
       0.22505127 0.23275782 0.05930072 0.022067288
0000d0 a4 97 8b 3d 7f 00 a7 bc 70 48 24 3e 62 8d 40 3e
       0.068160325 -0.020385979 0.16043258 0.18803933
0000e0 be 5a 32 bd 8f 50 4d bc e2 b6 a5 bd 12 7b 21 3d
       -0.04354357 -0.012531414 -0.08091523 0.03942401
0000f0 d2 97 7b be 9e a8 6d be 48 a0 8b 3e 15 a4 87 bd
       -0.24569634 -0.23208854 0.27270722 -0.06623093
000100 11 0d 7d 3d 61 a8 cd bd 01 f6 1f be 88 93 86 3e
       0.06178004 -0.10041881 -0.15621187 0.26284432
000110 d3 78 81 3d 03 be 37 3e ce 30 12 3d c2 a1 81 3c
       0.063218735 0.17943577 0.035691075 0.015824202
000120 69 b1 62 3e 0c 79 1d 3e 18 aa e2 bd 0e f9 41 bd
       0.22137989 0.15378207 -0.11067599 -0.047356658
000130 12 21 07 3d d1 ea 8a bd 9e 0b 01 3e d9 f3 f1 bd
       0.032990523 -0.06783069 0.12602088 -0.118140884
000140 3b d9 10 3e f7 50 b0 bd 00 32 3a bd 19 f7 22 be
       0.14145367 -0.08609193 -0.04545784 -0.15914573
000150 69 10 36 3e 16 d0 95 bd 48 92 3b 3e 1d 6b e6 bd
       0.17779697 -0.0731508 0.1831752 -0.11250899
000160 28 24 66 3c 41 d8 4f 3e 2b a0 1a be 9b 93 75 3d
       0.014046706 0.20297338 -0.15100162 0.05995522
000170 8b 8f 70 bd bd 20 35 3e 8b ed 62 3e e9 52 4d 3d
       -0.058730643 0.1768827 0.22160928 0.050127897

layers.0.lin_self.weight f4 [96, 96]
000000 b2 4c cb 3d 20 e0 b5 bd 64 90 8e bd 5c 98 44 bd
       0.09926738 -0.08880639 -0.06961134 -0.047996864
000010 38 e5 79 3d 3b 12 ab 3b b2 ee be 3d 36 87 15 bd
       0.061009616 0.005220679 0.09322871 -0.0365059
000020 97 b3 0e 3d a6 06 16 bc 80 86 09 bd 2e 1f d0 3c
       0.03483924 -0.009156859 -0.033575535 0.025405493
000030 1a e9 c8 3d 1b 43 98 3c 16 b5 87 3d 9e 27 2b bd
       0.098100856 0.018586686 0.06626336 -0.04178583
000040 6c da 97 bd f1 a5 a5 bc 3b 80 aa 3d cf e0 21 3c
       -0.074147075 -0.020220729 0.08325239 0.009880259
000050 eb 72 33 bd 48 72 ae 3d c9 a3 0c bb 9e e6 c6 3c
       -0.043810766 0.08517891 -0.0021459928 0.024279889
000060 5e 82 3b bd 31 8b 10 bc a8 b6 28 3d 95 fb d4 bd
       -0.045778625 -0.008822248 0.04118982 -0.10399548
000070 ff 2c 7c bd 1e d0 ce 3b 81 f8 cb bd c6 cf 45 bd
       -0.06156635 0.0063114306 -0.09959508 -0.04829385
000080 45 4d d1 3c 0c 91 fe 3c 4e 92 9a bd d2 76 f0 bc
       0.02554954 0.031075023 -0.07547437 -0.029353533
000090 56 d0 cf bd 70 6e cf 3c c6 08 d5 3d 64 1a f2 bc
       -0.10147159 0.025321215 0.10402064 -0.0295536
0000a0 d6 db fb ba 30 bd c5 bd c3 97 e1 bc 39 b7 a8 bd
       -0.0019215296 -0.09655225 -0.027538186 -0.08238072
0000b0 0c e5 69 3d 41 ba 61 bc 17 02 c1 3c d4 ea c1 bd
       0.0571032 -0.013777317 0.023560567 -0.09468618
0000c0 50 41 8d 3c a2 bd 27 bd 6d d1 95 bd 59 05 cc 3d
       0.017243057 -0.040952332 -0.073153354 0.099619575
0000d0 85 f1 89 bd 4b f9 bd bc 71 6f d1 bd 9b 32 35 3d
       -0.06735519 -0.023190161 -0.10226334 0.044237714
0000e0 74 a2 49 bd 8b dc 9c bc 6d b7 09 3c fd 97 ea 3d
       -0.049227193 -0.019148132 0.0084055485 0.11454771
0000f0 bf d4 29 bd 3b 0f 8b bd f6 03 ca 3c b1 8d 63 3d
       -0.041462656 -0.06790014 0.024660092 0.05555505
000100 4d e2 04 bd 63 ca 47 bd e5 69 1d 3d cb bf 8a bd
       -0.03244238 -0.048776995 0.038431067 -0.06774863
000110 6f 2f 94 bd c4 97 4c bc 1e 4c 4f 3d b2 2a f0 3c
       -0.0723561 -0.012487356 0.0506097 0.029317234
000120 2d 26 ea 3b e0 bf 34 bd 2c a7 d5 3d 2f aa 09 be
       0.007145664 -0.0441283 0.10432276 -0.13443826
000130 45 d6 9f bd 9d f5 f3 bc 86 1b b9 3d d0 18 3f 3d
       -0.078045405 -0.029780203 0.09038453 0.046654522
000140 cb 0c ad bc c9 9d 1a bc 67 9e 8f 3d 6d 51 27 bd
       -0.021124264 -0.009437033 0.07012635 -0.040849138
000150 ea e1 9a bc ba 46 2e bd 68 f4 b3 3d d3 ac 1a 3d
       -0.018906552 -0.04254792 0.08786851 0.037762474
000160 8e a0 71 3c 50 86 33 bd 92 55 fc 3b ae ee 28 bd
       0.014747752 -0.043829262 0.0077006305 -0.041243248
000170 d9 d5 21 bd 26 a2 2b bd e8 c8 19 3d 45 50 fa 3d
       -0.03951058 -0.041902684 0.037545115 0.122223414
000180 bf b3 a4 bd b6 f3 80 3d 9b 4e 8d bd 0e 93 ce bb
       -0.08042096 0.06296484 -0.068997584 -0.0063041514
000190 f4 01 39 bd 38 1e 9f bc b1 16 b3 3d bf 47 06 bd
       -0.04516788 -0.01942359 0.087445624 -0.032783266
0001a0 d8 7f 9e 3c ae e5 79 3c 96 cf 95 bd 07 d6 20 bd
       0.01934807 0.015252514 -0.073149845 -0.039266612
0001b0 2b 7c 43 bd b8 ac b3 bd 79 86 03 bd 03 69 1e 3c
       -0.047725838 -0.08773178 -0.032110665 0.009668591
0001c0 dd ab 3a bc b6 9f c8 3d 9f 11 1e 3d a4 7e a3 bc
       -0.011393514 0.097960874 0.038591024 -0.019957848
0001d0 b4 ca 7f bd bf 85 a8 bd 9f e9 ac 3c fe d6 56 bd
       -0.062449172 -0.08228635 0.021107493 -0.052451126
0001e0 64 27 c7 3d 51 7e 8d bd 73 60 73 3d 54 42 6e 3d
       0.0972431 -0.069088586 0.059418153 0.058168724
0001f0 64 9d 7b bc fd a5 f3 3c 44 d2 b3 bd 3d 43 68 bd
       -0.015357349 0.029742235 -0.08780339 -0.05670475
000200 a0 df 08 3c 65 b3 05 bd 99 99 67 bd c9 41 00 bd
       0.008354098 -0.032641787 -0.056542967 -0.031312738
000210 b5 5c c0 bd 1a 8b 2b bd cb 6f 48 3d 15 4a ca bd
       -0.093926825 -0.041880704 0.04893474 -0.09877411
000220 b3 41 a3 bc 1c 17 8d 3c fe 12 b7 bc 30 ea 03 bd
       -0.019928789 0.017222933 -0.022347923 -0.03220576
000230 27 0e ba bd 13 82 50 bd 27 8f 20 3c 61 60 38 bd
       -0.090847306 -0.0509053 0.009799755 -0.04501379
000240 f9 d8 cb 3d 6a ad e6 bc e4 6d 35 bd dc e1 a8 3d
       0.099534936 -0.028158862 -0.044294253 0.08246204
000250 4d 5e b3 3d 77 e3 51 bd db b8 73 bc 4a 5b e0 3a
       0.08758221 -0.051242318 -0.014875616 0.001711705
000260 1b 90 82 bc 9c 85 29 bd 5d 75 5d bd 36 6c b7 bb
       -0.015937855 -0.041387185 -0.054067004 -0.0055976165
000270 9a 06 6f 3d 9d ef 6f 3d 61 9f 21 3d 07 d7 2b 3c
       0.058355905 0.058578122 0.039458636 0.010488278
000280 45 8c 63 3d 41 d0 34 bd af b1 2a bd ad 51 ea 3c
       0.055553693 -0.04414392 -0.04167336 0.0286034
000290 8d 78 2d 3d 30 8f 91 bd 92 cf 3b bd de 00 c2 3d
       0.042351294 -0.07107389 -0.04585225 0.09472822
0002a0 93 50 71 bc 4a 4b 39 3c cd cd 67 3d 86 cd 50 bc
       -0.014728683 0.011309454 0.05659275 -0.012744313
0002b0 ce 91 99 3d cd 92 b9 3d e9 a3 92 bc ee 34 13 3d
       0.07498513 0.09061203 -0.017900424 0.03593915
0002c0 da 64 36 bd 30 d9 bd 3d ff 83 75 3d 42 2a 63 3d
       -0.044529773 0.09269941 0.059940334 0.055460222
0002d0 0b e5 8d bc f9 b6 19 bd 20 5d 8d 3d ae 52 8f 3d
       -0.01732113 -0.037528012 0.06902528 0.06998192
0002e0 89 ce 57 3d 12 03 6b bd 94 d8 c0 3d a3 89 60 bc
       0.0526872 -0.057375975 0.09416309 -0.01370469
0002f0 5f 2f 3f bd 2b c5 ae 3d 0b ba b3 bd 4f 2d b0 3d
       -0.046676036 0.085337006 -0.08775719 0.08602392
000300 f3 23 a1 3d ca 42 66 bd 89 29 12 bd 2a 09 67 3d
       0.07868185 -0.05621604 -0.035684142 0.056405224
000310 ad 2c 5e bc 9b 1f 2a 3e b3 01 35 3d 00 0a c7 bc
       -0.013560456 0.16613619 0.044191074 -0.02429676
000320 80 7a da 3d 5c af a9 3c e3 ff 50 3c 1d c4 29 bd
       0.10667896 0.0207135 0.012756321 -0.041446794
000330 ab f4 c6 3d 7a d7 ba 3b 34 2b b9 3d 37 85 5f 3d
       0.097146355 0.0057019563 0.090414435 0.054570403
000340 d2 31 43 bd 62 be 2e bd b9 69 84 bc 65 5d bf bc
       -0.047654934 -0.042662032 -0.016163694 -0.023359964
000350 5a 5b 66 3d 41 83 df 3c dd ca aa 3c 63 42 83 3d
       0.056239463 0.027284266 0.020848686 0.06409147
000360 e5 39 82 3d 00 9b ee 3d 64 33 82 bd 50 a9 ba 3d
       0.06358699 0.11650658 -0.06357458 0.09114325
000370 bc 87 d7 bb 74 5d b9 3d 6e a1 a4 3d ab ac 62 bd
       -0.00657746 0.09051028 0.08038603 -0.05534045
000380 06 0a e9 3d c4 47 d7 3d 48 15 b2 3d 55 f7 f5 3c
       0.11378865 0.10511735 0.08695465 0.030025164
000390 29 e6 cc 3c fc f0 3a 3d 84 5a 8c 3d 08 3f 89 bd
       0.025012093 0.045639977 0.06853202 -0.067014754
0003a0 c8 3b c7 3d 6e fc ef 3b c4 49 f1 3d 9f 6f 6b bd
       0.09728199 0.007323793 0.11781648 -0.057479497
0003b0 da c6 07 ba f5 f8 dc 3b 9e 77 d2 bc 2b fa 0f bc
       -0.00051794725 0.006743545 -0.025691804 -0.008787672
0003c0 8f b5 10 3d c0 0d a0 3c a5 73 b3 3c d0 6b 8e bd
       0.035329398 0.019537807 0.02190573 -0.06954157
0003d0 63 f8 fe 3d bd 57 07 bd 66 cd 5e bd 53 dc c9 3d
       0.1244972 -0.033042658 -0.054395102 0.09856477
0003e0 d6 0f 19 bd a1 74 0c 3e e6 74 29 bc 2e 19 8e 3a
       -0.037368618 0.13716365 -0.010342812 0.0010841244
0003f0 1e aa 8d 3d 0f 16 26 3d 5c 98 5b 3d 4d 07 a6 3d
       0.06917213 0.04054838 0.053612098 0.08106861

layers.0.lin_self.bias f4 [96]
000000 29 9e b4 3d 42 a1 ce bc 36 85 6c 3d 20 c2 8a 3d
       0.08819229 -0.025223378 0.057744227 0.06775308
000010 ee 5e 3a 3c a1 66 92 bd 14 6e 21 bd b4 5a d5 3c
       0.011375172 -0.07148481 -0.03941162 0.026044227
000020 28 a5 d3 3d a0 4e 2f bd f2 fd 9a 3d 9f 86 c0 3d
       0.103342354 -0.042799592 0.075679675 0.09400677
000030 cc 0b 80 bd b3 9d 13 bc 9a de 60 3c c2 83 9f 3d
       -0.0625225 -0.009009766 0.013724947 0.07788803
000040 73 85 b7 bc 92 30 b7 3d 6b 1b 09 3c a9 0b 5c bd
       -0.0224025 0.08944811 0.008368353 -0.053722057
000050 df f1 06 3e d3 09 2e bc 3c 04 23 3b f9 ec 16 bc
       0.13178204 -0.010622459 0.002487435 -0.009211772
000060 e2 30 a8 bd 8a 44 c3 3d 84 bc 83 3d 48 c5 92 bd
       -0.08212449 0.09534557 0.06432441 -0.07166535
000070 b5 5f 6b 3b 04 2d 9b 3d 8d c9 48 3d 5f de 04 3d
       0.00359152 0.075769454 0.04902034 0.032438632
000080 7f 53 48 3d 59 25 8f 3c 92 41 be bd 2a 89 7d 3d
       0.048907753 0.017473863 -0.0928985 0.061898388
000090 3a 99 4d 3d 2e a1 91 bd a5 08 44 bc ec bb b7 3d
       0.050194956 -0.07110821 -0.011964952 0.0897139
0000a0 7d 8c 10 bd 73 dc 19 bd 4c fc 10 3d d7 69 f7 3c
       -0.03529023 -0.037563752 0.03539686 0.030201836
0000b0 20 4a c8 ba 03 79 c4 3d 7d 8c 46 3d ce 8b 27 3d
       -0.001528088 0.09593394 0.048473824 0.040904813
0000c0 3e 95 57 3d 50 7f 05 3b ea b9 8f bd 6c a5 fc 3a
       0.052632563 0.0020370074 -0.07017882 0.0019275374
0000d0 4f b6 97 bd 20 12 80 bd 4d 23 60 3d c1 93 0d bd
       -0.074078195 -0.06253457 0.054721165 -0.034564737
0000e0 da fd 96 3b 92 c7 a8 bd f4 fa 8c bc 11 b8 52 3d
       0.004607898 -0.0824119 -0.017209508 0.05144507
0000f0 84 5f 6c 3d dd f1 da 3d 3b a0 82 3b a8 e9 9f 3d
       0.05770828 0.10690663 0.003986386 0.07808238
000100 f7 2a 85 bd 00 22 aa bc 67 5b 79 bd 31 ba 9a bd
       -0.065023355 -0.020768166 -0.060878184 -0.075550444
000110 38 46 a1 3d c9 e0 49 bd ab 61 58 3d 62 de c8 3d
       0.07874721 -0.049286637 0.05282752 0.09808041
000120 34 bc 85 bd 62 bf a2 bc d3 d7 43 3d 9f 25 7b bd
       -0.065300375 -0.019866649 0.047813248 -0.061315175
000130 70 a9 a5 bd 05 8f cb 3c 37 cc e3 3c cf a8 f2 3d
       -0.08088958 0.02484847 0.027807338 0.11848604
000140 25 4c 1c 3d 2e 34 50 bc d2 2b a6 3d 7d 65 5a bc
       0.038158555 -0.012707753 0.08113827 -0.013329861
000150 43 e6 ac bd 88 b6 0c bb 2f f2 f2 3d f5 d5 c2 3c
       -0.084423564 -0.0021471102 0.11862599 0.023783663
000160 5f 48 d5 3c a0 f7 a7 3c f8 7d cb 3d 5c 18 2c bb
       0.026035486 0.020503819 0.09936136 -0.0026259637
000170 5e e3 c5 3b 87 3d 7c 3d 8a 8a ce 3d 94 9c 36 bd
       0.006039067 0.061582115 0.10085018 -0.04458292

layers.0.lin_neigh.weight f4 [96, 96]
000000 dd 36 b8 3d b5 e1 df 3a 10 d7 e3 3b bb f3 4c 3c
       0.08994839 0.0017080816 0.0069531277 0.012509282
000010 0c c2 02 3e 9b a1 00 3e 6a bc aa bd 82 cb 58 3d
       0.12769336 0.12561648 -0.083367184 0.052928455
000020 81 ec 91 3d 34 54 2e bd 3c a0 8f bd ee c3 9f 3d
       0.07125188 -0.04256077 -0.07012984 0.078010425
000030 c8 5c ad 3b 58 8a ef bc 33 3d a6 bd 2b 3e 6d 3d
       0.0052906014 -0.029240772 -0.081171416 0.057920616
000040 c4 72 68 bd be 98 31 3d b8 8c 80 bd 38 5b 8e 3d
       -0.056750074 0.043358557 -0.0627684 0.06950992
000050 eb e0 cd bd 1b b5 a9 3d 1b 7d 50 bc 4a 4b b3 bc
       -0.10052665 0.08286496 -0.01272514 -0.021886487
000060 e0 bb 9d 3d 65 f6 80 bd 3d 69 21 3d ac 6b a0 ba
       0.0770185 -0.06296996 0.039407004 -0.001223912
000070 9f 32 b5 3d 8e a0 15 bd 5c 81 91 3c 5e 6e 3d bd
       0.08847546 -0.03653007 0.017761879 -0.046247832
000080 d1 30 fa 3c 48 c9 06 3c 06 c9 57 bd 5c 59 b0 3d
       0.030540856 0.0082267 -0.052681945 0.08610794
000090 81 f1 67 bd df fd b8 3d 13 81 fc 3d 56 57 b2 3d
       -0.0566268 0.09032797 0.123293065 0.08708064
0000a0 67 d8 aa bd ac 7a 54 3d 18 f8 63 bc 94 6a 4e bd
       -0.08342057 0.0518748 -0.013914131 -0.05039461
0000b0 0d ef 98 bd 6f c2 84 bd 9a 27 98 3d e8 18 aa 3d
       -0.0746747 -0.06482398 0.074294284 0.08305532
0000c0 84 77 98 b7 4c db 41 3d 74 5f a7 3d 2f e4 b6 3d
       -1.8175466e-05 0.04732828 0.08172503 0.08930241
0000d0 97 5e 82 3d 11 08 ab 3d 99 43 4b bd ae 24 88 3d
       0.06365698 0.08351148 -0.049625013 0.06647621
0000e0 46 ee c1 3d e0 68 07 3b 56 c0 b8 bd 56 8d 5a 3d
       0.09469275 0.0020661876 -0.0902106 0.053357445
0000f0 21 b5 f3 3c 5c 6d 43 3d 04 f5 f7 bd c5 23 9f 3d
       0.029749455 0.047711715 -0.1210728 0.07770494
000100 02 05 82 bd 57 0c 31 bd 01 8e 25 3e 7a b0 1c 3e
       -0.063486114 -0.04322466 0.16167451 0.15301695
000110 0b 40 32 bd f0 39 fe 3d 1d 46 54 bc 70 64 55 bc
       -0.043518107 0.124133945 -0.012956169 -0.013024434
000120 ed 3a 8a 3d 02 a8 90 bd 60 06 41 bd e2 7a e4 3c
       0.067495205 -0.07063295 -0.04712522 0.027890626
000130 96 95 fb bb 71 91 ff bd 07 ac 61 3d c7 2a 87 bd
       -0.007677744 -0.124789126 0.0550957 -0.06599956
000140 5d ba df 3c 8d 1b b7 3c df ae 6a bc 80 90 9a bb
       0.027310545 0.022352004 -0.014323919 -0.004716933
000150 43 87 9f 3d d6 b1 21 3d c8 19 41 3d 92 14 69 3c
       0.07789471 0.03947624 0.047143728 0.014226096
000160 36 76 b6 3d 7d 86 d6 bc 6f 9f 9d 3d 88 c1 b0 bc
       0.08909266 -0.026187176 0.07696425 -0.021576658
000170 88 f9 8d bd e8 6b 83 bd c6 37 0a bd 53 54 02 3d
       -0.0693236 -0.06417066 -0.033744596 0.0318187
000180 ba e3 ba bd 89 c9 ac bd 1d 3d b8 3d eb f2 9d bb
       -0.09125467 -0.08436877 0.089960314 -0.004820218
000190 e2 9e 0d 3d 06 5b 79 3d 12 3c 3b 3d dd 1d be bd
       0.03457535 0.060877822 0.045711584 -0.0928304
0001a0 c1 4e d7 3c e3 fa 76 bd d1 dd 81 bd f3 2e 2c 3d
       0.02628267 -0.060297858 -0.06341136 0.04203696
0001b0 53 ec 48 3c 80 68 e5 3c f3 60 24 3c f1 a7 9a b8
       0.012263375 0.028003931 0.01003288 -7.374574e-05
0001c0 38 56 3d bd d7 76 b4 3d a3 ad c4 3d 05 13 4f bd
       -0.046224803 0.088117294 0.09603431 -0.050555248
0001d0 0d cf 35 3c be 50 a8 bd 5c bb 9f bd 71 55 8b bd
       0.011096728 -0.08218525 -0.07799408 -0.06803406
0001e0 ac c5 d1 bd 49 eb ce bd eb 55 c8 3c 3a 48 a8 3d
       -0.10242781 -0.10103471 0.024455031 0.08216901
0001f0 70 6f 1c bc 91 f0 a6 bd 6d 97 85 3d 74 2a a9 3c
       -0.009548053 -0.08151353 0.06523023 0.020650126
000200 77 0d 66 bc fc e4 2a 3c b6 8d 1a 3d 67 fe 42 bd
       -0.014041296 0.010430571 0.037732802 -0.0476059
000210 71 a3 74 bd ee 7b ab 3d 61 ae 7f 3d 5d 9a cf 3d
       -0.059726182 0.08373247 0.06242216 0.10136864
000220 d7 db 87 bd 29 c1 3a bd da 7c bc bd 8a 23 98 3d
       -0.06633728 -0.045594368 -0.09203501 0.074286535
000230 16 1d 2f bd ef 18 2c bd ba 8f c2 3d 99 cf 80 bd
       -0.042752348 -0.042015966 0.0950007 -0.06289596
000240 ec 0c 54 3c 95 82 b0 bd 35 5b 90 3c 0d cd f8 bc
       0.012942534 -0.086186565 0.017621616 -0.030371213
000250 e3 a1 67 3d b1 49 87 3d 89 49 38 3d ef ba 09 bd
       0.05655087 0.066058524 0.044992004 -0.03362554
000260 a8 7a 7e 3d 70 1c a0 3d 87 7d 8a bc 77 64 7d bd
       0.062128693 0.07817924 -0.01690556 -0.06186339
000270 6c 8c 1a bd cd 1d 86 3d e0 55 65 bd 4a 41 b3 3d
       -0.037731573 0.06548653 -0.0559901 0.08752687
000280 78 62 4a bd 78 f7 41 3d 70 56 39 bd ed 5b ad 3d
       -0.049410313 0.047355145 -0.04524845 0.08464799
000290 57 22 b0 3d ca 60 76 3c e9 b9 6a bc 63 36 21 bd
       0.086003 0.015037725 -0.014326551 -0.039358508
0002a0 b7 69 c7 bc 59 78 d1 bd 0d 95 b9 bc 40 63 b4 3d
       -0.024342401 -0.102280326 -0.02265408 0.08807993
0002b0 ea 1c d1 bd 2d 1b 11 3d 56 de af bc 12 40 1b 3d
       -0.10210593 0.035426307 -0.021468323 0.0379029
0002c0 59 dd 1d bd 93 58 d2 bd 92 89 90 3d 95 b3 a2 3d
       -0.03854117 -0.102708004 0.070574895 0.07944409
0002d0 a7 de 78 bd a3 71 6e bc dd 99 01 bd 3a 20 40 bd
       -0.060759213 -0.01455346 -0.031640876 -0.046905734
0002e0 8e 65 af bc d5 26 d0 bb a2 bf 7b bd 35 45 cb bd
       -0.02141073 -0.0063522854 -0.061462052 -0.099253096
0002f0 81 08 e8 3a 76 4a 33 bd 70 25 f4 3c 60 c6 ba 3c
       0.001770273 -0.043772183 0.029803008 0.02279967
000300 92 f4 b4 3d 4c 06 35 bd 9b 37 5d bd 1a b1 19 bd
       0.088357106 -0.04419546 -0.054008108 -0.037522413
000310 75 32 55 3d 29 e1 7f 3d c9 d2 64 bd c1 c3 75 3d
       0.052050073 0.06247059 -0.055865083 0.06000114
000320 b8 36 84 3d c7 38 48 bc 37 66 ca 3d ed ee bb 3d
       0.06455749 -0.012220568 0.09882777 0.09176431
000330 bf ec 34 3d 14 50 af 3d c2 68 9d 3d d1 1e aa bd
       0.04417109 0.085601956 0.076859966 -0.08306659
000340 76 44 59 bd 38 65 10 3e ec 20 fe bc cc 0d 99 bd
       -0.053043805 0.14101112 -0.031021558 -0.07473335
000350 3c 46 19 bd 85 f1 98 3d be 91 5f bd b5 7d 98 bd
       -0.037420496 0.07467941 -0.05458235 -0.07445852
000360 ba 2f 84 bc bd 29 e7 bc c4 80 c7 bd 89 b8 ca 3d
       -0.016136039 -0.028218145 -0.09741357 0.098984785
000370 be e2 88 3d d3 c9 b0 3c b2 d3 88 3d 58 13 c7 3d
       0.06683873 0.021580612 0.06681003 0.097204864
000380 9f 23 18 3e 2d 09 6d 3b df 99 14 bb d3 cd b7 bc
       0.14857338 0.00361688 -0.0022674722 -0.022437012
000390 89 5e e1 3d 88 aa 37 3c 11 ea 2f bc be 61 98 3a
       0.11004359 0.011210091 -0.010736958 0.0011625809
0003a0 f7 7e cf 3d bd e5 20 bd 04 d4 11 3e e2 9c 04 bd
       0.101316385 -0.039281595 0.14241034 -0.032376178
0003b0 29 32 df bb b3 45 1f 3d df c2 5b bd 7f 49 7b bc
       -0.0068113995 0.03888483 -0.05365264 -0.015337347
0003c0 65 5f bf 3d 13 00 99 3d df 94 78 3d 02 3b 9c bc
       0.09344367 0.07470717 0.06068885 -0.019071106
0003d0 c0 4e e7 3c fc cd 43 3d fb e2 60 3d f9 f0 b2 bd
       0.028235793 0.047803864 0.054903965 -0.08737368
0003e0 d6 cf c1 3c 14 a7 02 bc 5a 2c 2f bd be ea 29 bd
       0.023658674 -0.007974405 -0.042766906 -0.041483633
0003f0 b1 90 46 bc 23 23 8c 3d ff f1 1c bc d5 7d 2e 3e
       -0.012119458 0.06842639 -0.009579181 0.17040189

layers.1.lin_self.weight f4 [96, 96]
000000 94 28 38 bd 77 38 39 bd b2 45 8a bd ae 2b 83 bd
       -0.044960573 -0.045219865 -0.067515746 -0.064048156
000010 21 25 65 3d e0 31 80 3d 55 93 1f bd a2 87 83 bd
       0.055943612 0.06259513 -0.038958866 -0.06422354
000020 8d 18 f1 bc ea e0 7b 3d 0b b3 89 bc 1f fd d6 3d
       -0.029430652 0.06149379 -0.016809007 0.10497498
000030 cd fd 5c bd c1 0b b0 3a 0f 8f e7 3d 6d 09 df 3d
       -0.05395298 0.0013431237 0.11306583 0.1089047
000040 1f 7a 2d bb ba e6 af 3d 31 ea 44 bd 97 26 f7 3b
       -0.0026470495 0.085889295 -0.048074905 0.007542442
000050 13 95 e1 bc 44 08 ce 3d 96 f8 08 be d3 24 a6 bc
       -0.027536904 0.1006017 -0.13376078 -0.020281231
000060 2b 71 ea 3d a3 01 01 3e cc 27 5a bc ae 1d 88 bd
       0.11447366 0.1259828 -0.013315152 -0.06646286
000070 cd 75 15 3d 14 e4 e2 bb 52 ea 7f 3d cf 09 13 bd
       0.036489297 -0.0069241617 0.062479325 -0.035898026
000080 71 4a 51 3c 05 ca a3 3d d7 59 f5 3c 2f fa 7a bc
       0.012774096 0.079975165 0.029950066 -0.0153184375
000090 34 c0 72 bd d0 2b 91 bd cb b1 58 bc 6e 1c b4 bc
       -0.05926533 -0.07088435 -0.013225983 -0.021986213
0000a0 50 f2 b3 bd 4d 2c ba 3d 28 89 f6 3d 89 34 47 bd
       -0.08786452 0.09090481 0.12037879 -0.048634086
0000b0 77 16 1f 3d 3e 32 a9 bd a9 5d d8 3d 3d c1 38 3d
       0.038839784 -0.08261536 0.10564739 0.04510616
0000c0 d5 27 db 3d d5 f5 e6 3d 2d 95 4a bd 66 48 a3 3d
       0.10700957 0.112773575 -0.04945867 0.07972793
0000d0 e8 53 9b 3d 31 a5 1b bd 83 9d 62 bd c9 e5 e0 3d
       0.07584363 -0.037999336 -0.055325996 0.10981328
0000e0 4b 3c 29 3d 4c b2 f0 bb af da 4f bd b1 30 05 3c
       0.041317265 -0.0073454734 -0.050745662 0.008129285
0000f0 27 25 07 3e 38 5c d9 3d c4 c1 cf 3d ad 61 ad bb
       0.13197766 0.106132925 0.1014438 -0.005291185
000100 73 d4 19 bb 5b a7 c1 bd 0f 5c 73 bd 97 30 fd bc
       -0.0023472577 -0.09455749 -0.059413966 -0.030906959
000110 54 46 52 3d 62 8f 13 3d 7a 99 ae 3c 3b 29 fe 3d
       0.0513366 0.036025412 0.021313418 0.12410208
000120 de a7 ca 3c 99 a8 8b bd dd 50 f5 3d ac d5 57 bc
       0.024738248 -0.06819267 0.11978314 -0.013173502
000130 0f 5f 4e bd 06 2b 2f bb cd 30 82 3c c4 76 09 bd
       -0.050383624 -0.0026728525 0.01589241 -0.03356053
000140 35 09 d5 bc 7b c9 d8 3c ce 80 72 3c 76 4d d6 3d
       -0.026005367 0.02646326 0.014801217 0.10463993
000150 68 8e 56 3d 97 58 a3 3d 27 4e 30 3d 4c c9 4f bc
       0.052381903 0.079758815 0.043043282 -0.01268227
000160 d8 78 a5 bd 15 ae 25 bc 14 56 ed bd 85 42 b5 3d
       -0.0807969 -0.010112305 -0.11588684 0.08850578
000170 0f 68 37 bc ac fd 8c 3d 5b 9b e9 3d cc 7e 88 bd
       -0.011194243 0.068843216 0.11406585 -0.066648096
000180 17 be ed bc df d8 2b bd 89 25 6f 3d fe 90 09 be
       -0.029021306 -0.04195487 0.058385406 -0.13434216
000190 f8 32 17 39 5b c0 0c bd e1 88 c5 3d 51 42 d1 3d
       0.0001441947 -0.034363132 0.09645248 0.10217727
0001a0 46 86 ba 3d ed 25 f4 3d 17 c7 64 bd b2 70 01 3e
       0.09107642 0.11921296 -0.05585393 0.12640646
0001b0 a9 ff df bc 25 8e 8a 3c 05 69 32 bd 74 6f c3 3d
       -0.027343588 0.016913483 -0.043557186 0.09542742
0001c0 66 1f dc 3d e0 47 a3 bc 3b 10 62 bc 1e 10 3d bd
       0.10748176 -0.019931734 -0.013797815 -0.04615795
0001d0 62 10 bb bd e5 77 ac 3d f3 34 0b be eb 3c e6 bc
       -0.09133984 0.084213056 -0.13594417 -0.02810522
0001e0 c2 90 52 bd c6 6c 05 3e 48 a0 2b bc a1 fb ee bd
       -0.051407583 0.13029775 -0.010475226 -0.11669088
0001f0 71 8e 9a bc 14 6c 2c 3d 0e 6b d0 3d b0 97 4a bd
       -0.01886675 0.04209526 0.10176669 -0.049461067
000200 bc ae 11 3d 90 ec 20 3c cd 29 1c 3b 8b 6d 89 bd
       0.03556703 0.009822026 0.0023828626 -0.06710347
000210 96 cb cf bb 35 b6 a9 3c dd 90 f3 3c 3a dc d1 3c
       -0.006341408 0.020716766 0.029732162 0.025617708
000220 ff e8 02 be 66 c8 0e 3d 0f bd c5 bb ac ba 6b bd
       -0.12784193 0.034859084 -0.0060345004 -0.05755107
000230 de 31 a1 3c f8 8b fa 3b 2d cf 1a bb 16 8e af 3d
       0.019677099 0.00764608 -0.0023622022 0.085720226
000240 63 b0 e1 3d 6d 90 0c 3d 52 4b 4e 3d dd 73 a6 3d
       0.11019971 0.034317423 0.0503648 0.08127568
000250 06 b2 9c 3c 62 bc 5a 3d 06 dc 82 bb 35 c0 b6 3d
       0.019127857 0.053402312 -0.003993514 0.08923379
000260 d8 44 a9 3c 32 a2 03 3e 61 4c f4 3d 8d bb 9e 3d
       0.02066271 0.12854841 0.119286306 0.07750616
000270 d5 c5 e7 ba b7 17 d7 bc 33 90 ce 3c 94 03 70 3d
       -0.001768286 -0.026256425 0.025215244 0.058597162
000280 81 2f af bb bd ff 24 3c 0c 09 0c bd 8b 53 ab 3d
       -0.005346239 0.010070738 -0.034188315 0.08365544
000290 7b f9 4a 3c c0 2a 32 bd 3e aa 02 be 23 77 f4 bc
       0.012388582 -0.0434978 -0.12760255 -0.029841965
0002a0 1a ad b5 3d 3b 60 75 3c 49 99 ce 3d 13 f1 68 bd
       0.08870907 0.014976556 0.100878306 -0.05687053
0002b0 cf bf da bc a9 ad 05 3e 34 1c 16 bc de 51 bf 3d
       -0.02670279 0.13054527 -0.009161998 0.09341787
0002c0 d2 02 25 3d 9f 01 c1 3d 68 16 79 3d ee 0a 05 3d
       0.040285893 0.09424137 0.060812384 0.032481126
0002d0 bb 6f ce 3d 36 a0 81 bc 26 a0 01 3e 1a 80 de 3d
       0.10079905 -0.015823465 0.12658748 0.10864277
0002e0 6b ba c1 bd 4c c8 24 bd e3 e1 7e bd 0d c6 75 3d
       -0.094593845 -0.04023008 -0.06222714 0.06000333
0002f0 ae 1a 63 3c 4a 4c d9 3d 3c b7 b6 3d dc 4d 85 3a
       0.013861341 0.10610254 0.08921668 0.0010170299
000300 ab e0 9b bd de 18 cf bb 79 02 b8 3b 07 8f 05 3d
       -0.076112114 -0.006320103 0.005615529 0.032607105
000310 49 5c e3 3d cd cc 5e 3d 26 b1 fb 3d be 2f 67 3b
       0.11101586 0.054394532 0.12289648 0.003527626
000320 80 15 b3 3a ca 77 ca 3d 56 07 a4 3c 33 8a 1c bd
       0.0013663024 0.09886129 0.02002303 -0.038217735
000330 d7 84 b5 3c 46 0c e6 bc 52 54 b4 3d 1c 99 cf 3c
       0.02215807 -0.028082024 0.08805145 0.025341563
000340 3c 44 19 bc a8 82 f2 bc 17 fc 62 3d f8 50 bf bd
       -0.009354647 -0.029603317 0.055416193 -0.093416154
000350 99 b5 d0 3d d5 98 94 3d fd 02 84 3d 56 eb 88 3d
       0.10190887 0.07255713 0.064458825 0.06685512
000360 f9 9e 8a bd 8d 42 dd 3d 54 e6 f2 3d 66 b5 99 bc
       -0.06768603 0.10803709 0.11860338 -0.018763255
000370 7c ee 2c bd e8 aa 85 bd 9a 15 5b 3d 21 3a 50 bd
       -0.042219624 -0.065267384 0.053487398 -0.050836686
000380 5e 7d 98 bd 82 e7 9e bd d5 dc 08 3d ae 83 14 3d
       -0.07445787 -0.07759 0.033413727 0.036258392
000390 a0 2b af bd 93 15 f5 3b 44 b2 a8 bd 1c de 8b 3d
       -0.08553243 0.0074793785 -0.082371265 0.068294734
0003a0 70 d3 75 bd b2 35 af bd 5a d0 84 3a 80 b2 af 3c
       -0.060016096 -0.085551634 0.0010132894 0.02144742
0003b0 62 63 dc 3c d7 b7 44 bd 78 cb a0 3d b1 8a ee 3c
       0.026902858 -0.048026886 0.078513086 0.029118868
0003c0 54 0b a2 3d 2d c2 2f bd a2 bf 68 ba 09 58 ef 3c
       0.07912317 -0.04290979 -0.0008878653 0.029216783
0003d0 8d 8a 47 bd d1 55 bd bd 9a 6b 7b 3d 1d bb 2f 3c
       -0.048716117 -0.09244884 0.061381914 0.010725764
0003e0 4c c0 c5 3d e4 04 8a 3c b1 56 03 3c 41 ba 23 3d
       0.09655818 0.016848035 0.008016274 0.039972547
0003f0 a6 9e 41 bd cb 9f d6 3c e0 a3 2d 3d 04 ac 04 bd
       -0.04727044 0.026199242 0.04239261 -0.03239061

layers.1.lin_self.bias f4 [96]
000000 a0 5a 3c 3d 59 81 c3 bb 2b bd 8e bb 25 90 af bd
       0.045984864 -0.005966347 -0.0043560467 -0.08572415
000010 33 0d 85 3d c9 ca 32 bc 51 5b 9d 3b ee 1f 4d 3d
       0.06496658 -0.010912606 0.0048021455 0.05007928
000020 d0 22 df bc 09 6b 86 3d 35 f0 a2 3c cd ac 6c bd
       -0.02723828 0.06563384 0.01988993 -0.057781983
000030 a8 aa d2 3c 57 2a 9e 3d 2a 4a b5 3d d9 9c 89 3d
       0.02571614 0.077229194 0.08852036 0.067193694
000040 6a 54 04 3e 37 c8 82 bd 9a b2 c9 3d 92 c4 93 3d
       0.12922826 -0.06385844 0.09848519 0.07215227
000050 08 13 76 bc 9f 0d 23 b9 0c 3b e9 bc fb b1 a6 3c
       -0.015019186 -0.00015549966 -0.028470539 0.02034854
000060 03 e9 b4 3c 2f 1f 91 bd 1a 90 d7 3d 74 38 e9 3d
       0.022083765 -0.07086026 0.10525532 0.11387721
000070 2a 90 51 3d c8 a1 bb 3d 1d 93 bd 3d 79 36 89 bd
       0.051162876 0.09161717 0.09256575 -0.06699843
000080 c3 9b 09 bd f8 24 c1 3d 76 2e 7e bd 3a cd f7 3d
       -0.03359581 0.09430879 -0.062056027 0.12099691
000090 e3 59 56 bd 94 33 a0 bc 1f 57 aa 3d 50 5b a1 3d
       -0.052331816 -0.019555844 0.08317398 0.078787446
0000a0 ba fd ae bd 78 49 b9 3d c1 09 e9 bb a3 3a 7e bd
       -0.08544488 0.09047216 -0.0071117585 -0.06206764
0000b0 50 05 b3 3d 51 81 90 bd 93 ea b5 3d b2 eb 29 bd
       0.08741248 -0.07055915 0.08882632 -0.041484542
0000c0 e8 a8 b8 3d 33 06 97 3d e3 bd 9f 3d 1d c4 a4 3d
       0.09016591 0.07374229 0.0779989 0.08045218
0000d0 53 64 75 bc dc 21 f5 3c a4 fc 03 3c 8e f7 35 3c
       -0.014977532 0.029923372 0.00805584 0.011106385
0000e0 d5 68 c3 3d e9 00 75 bc 07 b8 fa 3c a8 11 87 39
       0.095414795 -0.01495383 0.03060533 0.00025762361
0000f0 39 ee cf bc d4 11 8f 3d 7e 05 1c 3d e4 85 4c 3d
       -0.025382148 0.06985822 0.038091175 0.049932376
000100 b5 0d d1 3d b2 f9 77 bb c4 13 c1 3c 30 e0 05 3e
       0.102076925 -0.003783804 0.023568995 0.13073802
000110 b1 ad 00 bd 82 88 93 3d 20 15 2f bd f9 2f c2 3d
       -0.031415645 0.07203771 -0.042744756 0.09481806
000120 4d b0 22 3d ff 00 14 bd eb db 06 bd e5 3e 6c 3d
       0.039718915 -0.036133762 -0.032924574 0.05767717
000130 79 e8 2d 3d 37 41 b5 bd 10 0e 8d bd 1a 8b b7 bd
       0.04245803 -0.08850329 -0.06887448 -0.089620784
000140 2a d1 8e bd 33 04 0c bd a5 56 71 3d 9b e6 1c bc
       -0.06973489 -0.034183692 0.05892052 -0.009576465
000150 c8 db b4 3d 43 60 a4 3b 69 fe 8d bd aa 9d ba 3d
       0.088309824 0.005016358 -0.069332905 0.09112103
000160 b7 a6 e2 3d b3 9e 7d bd 4c 71 ae 39 bc 1f 10 bc
       0.110669546 -0.061918925 0.0003327228 -0.008796629
000170 7c e9 90 bd a0 a7 e6 bd d4 74 a5 bc fe 1c 85 3d
       -0.070757836 -0.11262441 -0.02019731 0.064996704

layers.1.lin_neigh.weight f4 [96, 96]
000000 6b 6b 77 bd 05 b2 4c bc a2 21 e8 3c 07 a8 ac 3c
       -0.060405176 -0.012493615 0.02833635 0.021076215
000010 1c c0 dc 3d eb 81 82 b8 96 fd 01 3e 26 a8 d7 3c
       0.107788295 -6.223082e-05 0.12694392 0.026325297
000020 71 ac 64 bc db 75 02 3e 33 33 a1 3b ba b4 35 3c
       -0.013957129 0.12740271 0.0049194335 0.011090452
000030 61 7c f5 bc 70 35 ca 3d 3a a7 ad 3d 59 58 9d 3d
       -0.029966535 0.09873474 0.084791616 0.076828666
000040 35 1d 93 3d d9 c1 c3 3b ec 22 21 bd 9c 96 62 3d
       0.07183305 0.005974036 -0.039339945 0.055319414
000050 97 2b 56 bd 74 aa a6 3c 0a a4 55 bd 3a d1 f8 3d
       -0.052287664 0.02034495 -0.052158393 0.12149282
000060 db d6 3e b9 ee 4c 36 3d c5 be 77 3d 23 75 88 bb
       -0.00018199852 0.04450696 0.060484666 -0.0041643544
000070 f2 74 90 3d e4 ed f8 3b 94 0f 92 bc 88 34 d2 3a
       0.070535555 0.007596718 -0.017829694 0.0016037384
000080 d5 d3 cd 3d 54 3c f6 3d 6f 43 9a bb 3e 4c 60 bc
       0.100501694 0.120232254 -0.0047077457 -0.013690053
000090 8f b0 9d bc 25 3a f5 3c 44 51 ad 3d af 3d c6 3d
       -0.019249229 0.029934952 0.08462766 0.09679734
0000a0 6b c0 bb 3c 92 0c 10 bd 91 a1 24 3d 2b 90 e0 3d
       0.0229189 -0.035168238 0.040193144 0.10964998
0000b0 a5 ea 33 3c 28 f2 69 3b de 01 90 3d a7 20 6d 3c
       0.010981237 0.0035697315 0.07031606 0.014473117
0000c0 58 ba c5 3d 73 82 df 3c 36 56 f3 3d 06 80 6b bd
       0.09654683 0.027283883 0.11881678 -0.05749514
0000d0 b2 a7 d3 3d ab 49 a0 3c ec 63 f0 3d ca ba 61 bd
       0.1033472 0.019566378 0.117378086 -0.055109777
0000e0 be d4 93 bd ef 61 96 3d 9b d9 84 bd 80 57 01 bd
       -0.07218312 0.07342898 -0.064868174 -0.031577587
0000f0 fb 0c 66 bd cd b7 e5 bc e6 28 41 bd 90 11 4e bd
       -0.056164723 -0.028041745 -0.047158144 -0.050309718
000100 f1 53 81 3d ac 60 7b bd 73 c1 90 3c b4 96 de 3d
       0.06314839 -0.06137149 0.017670369 0.10868588
000110 8c 24 ce 3d 1d 44 ad bc 4f c5 10 bd 5c 70 f7 3d
       0.100655645 -0.021150643 -0.03534442 0.12081978
000120 35 b7 ba 3d 67 4f 2d 3d fb 70 2f bb b7 de ed 3d
       0.09116975 0.042312052 -0.0026770222 0.11614745
000130 d1 b0 eb 3d dc 82 9a bd f0 09 1e 3d 97 9d fb 3d
       0.115083344 -0.07544491 0.038583696 0.12285917
000140 52 d3 19 be fa 67 a6 3d 3d 34 d5 3c f1 77 d4 3d
       -0.15022019 0.08125301 0.026025886 0.103744395
000150 1b 43 d6 3d 09 3f ec 3d 49 5c 05 3c 76 c6 69 bc
       0.10462018 0.115354605 0.008139678 -0.014268508
000160 22 9c 00 bd d5 a4 7e 3d 9a 2e af bd b1 5e 1a bd
       -0.0313989 0.062168915 -0.085538104 -0.03768796
000170 51 a9 2e 3d d5 57 65 bd d0 be 24 bd be 91 3c bc
       0.04264194 -0.055991966 -0.040221035 -0.011509357
000180 e2 ab 98 3d 4c 47 be 3d a4 a2 82 bb ae 80 9a 3c
       0.07454659 0.092909425 -0.0039866734 0.018860187
000190 2b f9 d3 3d 79 9e ad 3c 33 8a cd bc 5d 2e cc 3d
       0.103502594 0.02119373 -0.025090313 0.099697806
0001a0 7e e9 0c 3d 34 c0 f7 ba 72 be 64 3d d4 62 9b bb
       0.034402363 -0.0018901885 0.055845685 -0.004742006
0001b0 32 77 d8 3d 3a 04 d3 3d 43 8c 65 bd 0e cf ea 3d
       0.1056961 0.103035405 -0.056041967 0.11465274
0001c0 8c 5c 47 3d 09 fb 1c bd c1 07 a6 3d ae 37 ac 3c
       0.048672244 -0.038325343 0.08106948 0.021022644
0001d0 9c 3b e8 3c b8 f3 d9 b8 ea 33 ec 3c c6 bc 6e bb
       0.028348736 -0.000103927625 0.028833348 -0.0036428436
0001e0 e9 2d 01 3d 1d f3 1c bd 21 cd 83 3d f9 a2 54 bc
       0.031537924 -0.03831779 0.064356096 -0.012978309
0001f0 a1 b0 bb 3d e0 12 c3 3d 51 c8 2c bd 8f 5e 55 bd
       0.09164549 0.095250845 -0.042183224 -0.05209213
000200 c8 42 fb 3d 8e 1a 86 3d 4d 6d 3a bd c9 00 56 3d
       0.12268597 0.06548034 -0.045514394 0.052246843
000210 40 41 6a ba 20 57 dd 3d 93 cc 56 bd b1 85 f9 3d
       -0.00089361146 0.108076334 -0.05244119 0.12183703
000220 0d fb 64 bc e0 d8 6d 3d 29 48 1e bd 45 00 df 3c
       -0.013975871 0.058068156 -0.038643036 0.027221808
000230 cd 04 a5 bc 4c 25 40 bd 30 af 64 bd b0 0e bb 3d
       -0.02014389 -0.04691057 -0.055831134 0.09133661
000240 33 33 c0 3d 23 45 16 bc 9a ef 8a 3d 85 4e 0c 3d
       0.093847655 -0.009171757 0.067839816 0.03425457
000250 dc 85 0c 3d be d0 e2 3d 12 8c 87 3d d4 43 57 3d
       0.034307346 0.11074971 0.06618513 0.05255492
000260 db e9 85 bd 21 cb 87 3d 63 87 3d 3c 53 99 39 bd
       -0.06538745 0.06630541 0.011567923 -0.045312237
000270 11 50 2f bd 59 27 4b bd 14 2c b6 bd 9b 3a c3 3d
       -0.042800967 -0.04959807 -0.08895126 0.095326625
000280 fb ff cf bd c4 26 cf 3d 03 69 ef bc 6d c2 e4 bc
       -0.10156246 0.10114816 -0.029224878 -0.02792474
000290 de 56 a4 bc bd 58 25 3d ad ee 02 be cf bb d7 3d
       -0.020060953 0.04036783 -0.1278636 0.105338685
0002a0 dd 96 36 3d 0f 33 32 bc 7b 0b a9 3d c7 bd b8 3c
       0.04457747 -0.010876431 0.08254143 0.02255143
0002b0 54 6f a9 bd c3 c9 45 3d 71 a0 06 be 2c 9c 9f ba
       -0.08273187 0.048288118 -0.13147141 -0.001217728
0002c0 4e c5 8b bd 60 02 8d 3d 7b 3f 1f 3d 0c 18 7b 3b
       -0.06824742 0.068852186 0.0388789 0.0038313894
0002d0 79 35 3c 3d d3 9d 55 3c be eb 2e 3d 99 12 0f 3e
       0.045949433 0.0130381165 0.04270529 0.13971938
0002e0 60 b3 c1 bd 05 15 9a 3c f3 82 13 3c 5f 25 c4 3d
       -0.09458041 0.018808851 0.009003389 0.095774405
0002f0 92 c5 d9 3d 9b 4b d2 3d 1f 95 48 bc 70 d4 0a 3e
       0.10633387 0.10268327 -0.0122425845 0.13557601
000300 5b 27 79 3d cd d8 ff bc e5 f2 f4 3b 5a 71 9c 3d
       0.060828548 -0.031231308 0.0074752443 0.076388076
000310 48 11 d1 bc 8a b1 79 bd e2 9d c5 bc 4a f5 12 3d
       -0.025520936 -0.06096033 -0.024123136 0.035878457
000320 29 64 43 3d 7b 72 e2 3c aa 9c 77 3d 78 50 94 bd
       0.047702942 0.02764248 0.06045214 -0.07241911
000330 9b 9d 87 bd aa d0 5f 3b b8 44 1a 3d 3d 62 25 bd
       -0.06621858 0.0034151473 0.03766319 -0.04037689
000340 26 76 9b bd 87 6f 4d bd 93 7e 3b bc 13 0a ab 3d
       -0.075908944 -0.05015519 -0.011443752 0.08351531
000350 20 a3 ce 3c 7a 4f e0 3c b1 09 99 bd 5b 7b 51 bd
       0.025224268 0.027381647 -0.074725516 -0.05114303
000360 78 50 e6 bc 3a 6c 6b 3c 1f c9 e4 bc 59 43 1d 3b
       -0.028114542 0.014369065 -0.027927933 0.002399644
000370 72 39 9b bd 50 bb bb bd 06 3a c5 bd ce 4f 9e 3d
       -0.07579316 -0.091665864 -0.09630208 0.07730065
000380 67 40 d6 bd d8 40 c0 bd e2 db 0b bc 45 48 14 bd
       -0.104615025 -0.09387368 -0.008536311 -0.036201734
000390 c4 e6 3c 3d 96 a6 a1 3d 18 54 5a 3d 0f 4b 99 bd
       0.046118513 0.07893102 0.053302854 -0.074850194
0003a0 5f 13 1e 3e bb 7f 84 bd 23 d7 a9 3d 26 89 52 bd
       0.15437077 -0.06469675 0.08292987 -0.051400326
0003b0 8a 23 86 3d 6f 18 92 bd 39 05 c1 bd 13 e8 8d 3d
       0.06549747 -0.071335666 -0.09424824 0.0692903
0003c0 ed 63 b1 39 a0 46 02 3d 42 78 8e bd e1 47 8d bd
       0.0003383452 0.031805634 -0.06956531 -0.068984754
0003d0 84 5e b7 39 41 76 c7 bd 62 15 6d 3d 29 5f 64 bc
       0.000349749 -0.09739352 0.05788172 -0.013938704
0003e0 0f e4 c8 bc 4e ca c7 3d aa 3d bc bd db d9 1d ba
       -0.02452281 0.097553834 -0.09191449 -0.00060215377
0003f0 c2 6b 98 3c 4e 59 87 3c 90 0b 9a 3c 3e 66 58 3d
       0.01860607 0.016522076 0.018804342 0.05283188
