outputs/models/nowcast_ckpt.pt (torch, 95830 bytes, 19 tensors)

in_lin.weight f4 [64, 11]
000000 5e 6b 99 3e 50 ce 83 3e d9 e4 97 ba fc cc 90 3e
       0.29964727 0.2574334 -0.0011588588 0.2828139
000010 a0 4b 87 bd a7 35 79 3d f0 60 d7 bd de ba 5a 3e
       -0.06606221 0.060842182 -0.10516536 0.21360347
000020 eb b7 04 3e 9a 20 09 be 9e 9a 80 3e 50 fe 55 bc
       0.12960784 -0.13391343 0.25117964 -0.013061121
000030 7f 7d a9 3e 46 1c e5 bc 95 9b 81 3e 9b 5e 2e bd
       0.33103558 -0.027967583 0.25314012 -0.04257069
000040 59 02 6e 3e 19 16 07 3e 01 0e fb bc 8d 9a b2 3d
       0.23243083 0.13192023 -0.030646326 0.087208845
000050 6e 4b f2 bd 5c df 1e bc 8b ab ad 3d 21 e8 89 3e
       -0.11830793 -0.009696808 0.08479985 0.26934913
000060 02 4f d1 bb f5 28 8e bd 74 5d ae bd 36 a4 39 be
       -0.0063875923 -0.06941406 -0.085139185 -0.18129048
000070 3a 4b ee 3d 2a 4f 42 be 51 8b 21 3e 05 95 e6 bd
       0.11635442 -0.18975511 0.15775801 -0.11258892
000080 9e 27 5f 3e e6 86 c8 3d 08 fb c8 3c 28 ff 6f 3e
       0.21792457 0.09791355 0.024533764 0.23437178
000090 bc a8 3b 3e ef 74 79 3e 3f 02 07 3d e5 02 8c bc
       0.18326086 0.24361013 0.032961126 -0.017091224
0000a0 35 3d 44 3e e5 2b 85 3a 79 00 75 bc 3f 96 44 3e
       0.19163974 0.0010160176 -0.014953726 0.1919794
0000b0 5c c1 40 3e f1 7d 18 be 4d 68 40 3e f2 b8 4c 3d
       0.18823761 -0.14891793 0.18789788 0.049981065
0000c0 f9 ca 1c 3e e9 2e 3c be 9e 76 8e be 40 42 09 be
       0.15311803 -0.1837727 -0.27824873 -0.13404179
0000d0 05 d1 6c be 12 5a b1 3e ee a8 46 bb 6c 2b 19 3e
       -0.2312661 0.3463903 -0.0030313092 0.1495797
0000e0 2f 1d e1 3d ef 56 67 3c 5f 5c 80 3e 90 5e 5b be
       0.109918945 0.014119848 0.25070474 -0.21422791
0000f0 ea 84 9b 3c 41 83 46 be a9 ef ec 3d ce 91 d0 bd
       0.018984277 -0.19386007 0.11569149 -0.1018406
000100 9b b4 73 bc 8c 15 63 bc eb ee b2 3e 1c af 85 bd
       -0.014874603 -0.013860118 0.34947905 -0.0652754
000110 02 d7 a5 bd 78 0c 89 bd b5 d9 8a 3e ee c7 cd 3d
       -0.0809765 -0.06691831 0.27119222 0.10047899
000120 58 c5 c4 3e 48 89 9d bd 7f 5d be be 74 20 3e be
       0.3843181 -0.076922 -0.37180707 -0.18567067
000130 2c ac 2d be 4e 81 49 3e 75 50 45 3e d4 a8 a6 3e
       -0.1696021 0.19678232 0.19268973 0.3255068
000140 62 cf a6 bd 16 7a 52 be 93 d0 23 3e 4d 19 87 bd
       -0.08145024 -0.20554385 0.15997534 -0.065966226
000150 0e 5e ab 3e 81 53 e2 bd f5 6a 01 3e 98 82 81 be
       0.33470196 -0.11051083 0.12638457 -0.25294948
000160 86 1f 5d bd bb 16 26 3e 6a 7c 24 3e ad 5f 5e bc
       -0.05398514 0.16219608 0.16063085 -0.013572616
000170 f7 08 38 3e b5 e3 51 3e 5f 78 08 be c8 3e 30 bd
       0.1797217 0.2049702 -0.13327168 -0.043028623
000180 15 3a 57 3e a4 86 d5 bc 0c 00 50 be f6 3e a7 be
       0.2101825 -0.026065178 -0.20312518 -0.32665223
000190 0d 99 54 be 68 12 29 3d 9c bf 99 bd 96 1d 60 be
       -0.20761509 0.04127732 -0.0750725 -0.21886286
0001a0 16 c0 e7 3b dd b2 76 be c3 bf 95 be 78 7f 2d be
       0.007072459 -0.24091668 -0.29247865 -0.16943157
0001b0 e5 9e 88 be 6d 92 a1 be 36 7f e2 3e 7b 05 11 3e
       -0.26683727 -0.31557027 0.4423768 0.14162247
0001c0 d0 3b 6f 3e 1c ec 4a be 00 c7 4a be 71 89 cd bd
       0.2336266 -0.19816631 -0.19802475 -0.100359805
0001d0 1c 0c 43 3e f5 78 3c be 10 12 99 be 36 52 f1 bd
       0.19047588 -0.18405516 -0.29896593 -0.117832586
0001e0 db 3f 20 3c 88 d1 04 bc 3f d3 53 3d b7 d0 cd bd
       0.009780849 -0.008106597 0.05171513 -0.10049575
0001f0 82 09 05 be b9 1f 34 be f6 5d d3 bd b0 0c 2b be
       -0.12991908 -0.17590226 -0.10320656 -0.16704059
000200 8e dd aa 3e b0 0c bb bd 46 27 8d 3d 15 d4 45 3d
       0.33372158 -0.09133279 0.068922564 0.04829796
000210 42 ab 10 be f2 3e 84 3e 04 aa 6c 3d 1a df 84 bd
       -0.1412783 0.25829273 0.057779327 -0.06487866
000220 22 24 80 be ed 78 99 be 7e 89 0c 3e a5 d3 99 bb
       -0.25027567 -0.29975072 0.13724324 -0.0046944194
000230 95 c1 0c bd 8d d6 aa bd ff c2 75 3e 66 2b 9f be
       -0.0343643 -0.083417036 0.24000166 -0.31087798
000240 c2 2c 78 3d 37 91 cb bc c1 94 8b 3e 51 41 79 3e
       0.06058956 -0.024849517 0.27261928 0.24341322
000250 d5 a0 8c 3e f7 93 0b be 3b f3 20 3e e0 ee b9 3b
       0.27466455 -0.13630663 0.15717785 0.005674228
000260 ac e4 d5 bd 5e f4 94 be 1b d6 a4 3e 33 0b 53 be
       -0.10444006 -0.29092687 0.321946 -0.20609741
000270 b9 27 54 3e 10 eb fb 3d a4 a8 c8 3d 59 ec 26 be
       0.20718278 0.12300694 0.09797791 -0.16301097
000280 56 e9 a3 3e 5f 0a ae 3d bc f5 8a bc 53 2b bf bd
       0.3201396 0.08498072 -0.016962878 -0.09334435
000290 c4 77 b7 3d 95 32 2f 3c a0 b6 f6 bd cb 1f a1 3e
       0.0895839 0.010693212 -0.12046552 0.3146957
0002a0 04 25 a9 3d a2 d2 2a be e9 44 1c be e0 6e b4 3c
       0.08259013 -0.16681913 -0.15260662 0.022025526
0002b0 23 2c 5f 3e de 27 fa bd 15 3f e5 bd e0 c9 be bd
       0.2179418 -0.12214635 -0.111936726 -0.09315848
0002c0 49 36 09 be 8f 04 eb 3d 11 56 a6 3e 3b 56 89 be
       -0.13399614 0.11475479 0.32487538 -0.268236
0002d0 e8 69 8f 3d 1a 7f 1f 3e 62 4d 12 3e 7f 40 ce bd
       0.07002622 0.15575829 0.14287332 -0.100708954
0002e0 fd 25 21 3e 7a 80 76 3e 67 dd cd bc d3 41 19 3e
       0.15737148 0.24072447 -0.025129987 0.14966516
0002f0 24 8e 6f 3c 4b 98 6f 3e 4b 9e 2a 3d a5 03 b8 bd
       0.014621291 0.23397939 0.041654866 -0.0898507
000300 86 5a 45 3e f1 cc cc 3e 17 37 b8 3d b7 1a db bd
       0.19272813 0.40000108 0.089948826 -0.10698455
000310 93 2f 98 bc 3a 33 87 bc 0a 2f 8f bb 42 01 00 3c
       -0.018577373 -0.016503919 -0.004369621 0.0078128
000320 1e 01 b3 be 61 98 3e be b3 00 82 3e 60 8c f0 3d
       -0.3496179 -0.18612815 0.25391158 0.117455244
000330 9b fe bb bd bb ed 84 be 3e be 8b be 69 6e 39 be
       -0.091794215 -0.25962624 -0.2729358 -0.18108524
000340 e6 74 b2 bd 6d 9b 23 3e cd ab 5e 3e 31 dc 49 3e
       -0.08713703 0.15977259 0.21745224 0.19712903
000350 77 20 77 be 53 ab 39 be ed e6 42 bd 11 cd ba 3e
       -0.24133478 -0.18131761 -0.04758351 0.36484578
000360 0c fd aa 3d 7c 03 57 bc 6b 11 d3 3d 75 05 a4 bc
       0.08349046 -0.013123389 0.103060566 -0.020022133
000370 2d c4 53 be 64 ec 7f 3e 1c 50 1f be 4a 1c f8 bc
       -0.20680304 0.2499252 -0.15557903 -0.030286927
000380 5d 92 99 be be a2 4e 3e de fb 7f 3e d2 68 ea 3d
       -0.2999448 0.20179269 0.24998423 0.11445774
000390 8f 06 8f be be 77 8d be 14 45 87 be 89 15 a9 3e
       -0.2793469 -0.2763042 -0.2641989 0.33024243
0003a0 c5 5d 44 3e b0 52 b8 3e 52 e9 52 3e 80 48 9c 3d
       0.19176395 0.36000586 0.20596817 0.07631016
0003b0 81 80 41 bb fb 0a 11 be 8c 65 50 be e7 51 76 be
       -0.0029526057 -0.14164345 -0.20351237 -0.24054681
0003c0 b1 cb 41 bc 87 3a db bd 15 d5 22 3d 9e f6 c1 bd
       -0.011828349 -0.107045226 0.039753992 -0.094708666
0003d0 5d d7 3f 3d 37 78 04 be 94 bd 49 be 71 d4 cc 3d
       0.046836246 -0.12936483 -0.19701225 0.100014575
0003e0 bc 6c 92 3b 36 c4 82 3e cb 1f 62 be 65 d9 96 bd
       0.0044685286 0.25540322 -0.2208244 -0.073656835
0003f0 96 7a 27 bd 46 10 30 be e7 8b c1 bd 15 b1 a7 be
       -0.04088839 -0.17193708 -0.094505124 -0.3275229

in_lin.bias f4 [64]
000000 53 57 84 bd b9 1a 7c be 81 0c d4 bd 00 c3 4d 3d
       -0.06461968 -0.24619569 -0.103539474 0.050234795
000010 0a 2d 7a be b7 73 07 bc 29 90 1d be fb 2c 68 bd
       -0.24431244 -0.008267335 -0.15387024 -0.05668352
000020 4d e4 23 3d 6c 85 87 be 4f 61 41 3e 5d 2a 18 3e
       0.040012646 -0.2646898 0.18884777 0.1485991
000030 8c ed 42 3a 3b 4a 3e be 49 cd 51 be 41 f2 26 be
       0.000743591 -0.18583004 -0.20488466 -0.1630335
000040 a2 55 ac bd 4e 1a 93 3d 81 14 3f 3e 40 42 58 3e
       -0.08414771 0.071827516 0.18660165 0.21119022
000050 f1 d8 cf bd 80 d3 9b 3d 87 8d e8 3c 22 0f 67 be
       -0.101488 0.076087 0.028387798 -0.22564366
000060 6e b5 aa be ff 54 29 be c8 ed 2b 3d 34 e6 8f be
       -0.33341545 -0.1653633 0.041974813 -0.2810532
000070 3e d1 93 be 1c 96 2d 3e 33 3f e9 3b 76 6d 43 3e
       -0.28870577 0.16951793 0.0071181296 0.19084725
000080 80 a5 43 be 27 e9 7d be d3 bf ee b9 3a ec 61 3d
       -0.19106102 -0.24795972 -0.00045537818 0.055156924
000090 9a 55 66 3d f0 87 02 3e ea 71 4a bc 77 da 3d 3e
       0.05623398 0.12747169 -0.012356261 0.18540369
0000a0 b4 23 7a be d1 2c 0c be 9e b3 ec 3d ed 6f 77 be
       -0.24427682 -0.13688971 0.11557697 -0.2416379
0000b0 dd 1a ea bd 30 6a 50 3e 30 ba 29 3d 89 77 d7 bc
       -0.11430905 0.20353007 0.041437328 -0.026302116
0000c0 3d a4 1b be 6e da 8b bd 30 b2 80 3e 29 3d 25 be
       -0.1519937 -0.068287715 0.25135946 -0.16136612
0000d0 53 87 40 3d 18 1a 1b 3e 56 25 55 be d0 e7 88 3d
       0.047004055 0.15146673 -0.20815024 0.0668484
0000e0 a6 88 5c be 70 1e 3a be 47 be 10 be 27 5d 16 be
       -0.21536502 -0.18175673 -0.14135085 -0.14683972
0000f0 7b 00 bb be 4d 39 c1 3d ab d4 80 3d b7 4c 95 be
       -0.36523804 0.094347574 0.06290563 -0.2916009

layers.0.lin_self.weight f4 [64, 64]
000000 99 91 b7 bd 04 89 80 3e e4 b0 42 bb 06 37 9f 3a
       -0.089633174 0.25104535 -0.0029707486 0.0012147136
000010 12 90 4e be 9c 9c 7d 3c 40 a2 72 bd 41 96 a0 bd
       -0.20172146 0.015479233 -0.059236765 -0.07841159
000020 76 b6 78 bc 88 18 0d bd 24 98 ab bd 3a 8f 2c bd
       -0.015180221 -0.034447223 -0.08378628 -0.04212878
000030 ac 4f 86 bc d1 06 86 3d fd 50 87 bc 6e 5c 6d 3c
       -0.016395412 0.06544269 -0.01651811 0.014487369
000040 f8 c8 35 be f5 2f 01 be 36 42 16 3c 65 7f 75 3d
       -0.17752445 -0.1261595 0.009171059 0.059935946
000050 01 f7 88 3d f7 d4 f3 3d c4 0f d5 bd a1 ec a0 3d
       0.06687737 0.11905854 -0.10403398 0.078576334
000060 7a 6f 38 3e 71 ce a8 bd 3e 92 0f 3e 1a 14 ac be
       0.18011275 -0.082425006 0.1402063 -0.33609086
000070 a3 9e 8b 3c 4f d9 4d bd ff 96 f7 bd 63 58 aa 3d
       0.017043417 -0.05025607 -0.12089347 0.0831764
000080 47 a4 c9 3d 4b b6 2f 3e b2 06 17 bd a3 c1 29 3e
       0.098457865 0.17159383 -0.03687162 0.16577773
000090 de e9 09 3c 7f d8 3d be bb 94 b9 bb e7 8a b7 3d
       0.008417575 -0.18539618 -0.005663482 0.089620404
0000a0 80 7b 2d 3e e8 5c 9c bd c7 93 cc bd 15 14 ae bc
       0.16941643 -0.07634908 -0.09989124 -0.02124981
0000b0 32 f9 4f bc bb 04 fa 3c 05 fa 85 bd 02 01 63 3d
       -0.01269369 0.030519834 -0.06541828 0.055420883
0000c0 8d 47 31 bc 7c 72 bd 3d 7c e9 ed 3b bd 52 ae 3d
       -0.010820282 0.09250352 0.0072604995 0.08511875
0000d0 36 ee 50 3a 2e 58 d2 3d 66 7a 91 bd 46 5d 35 bc
       0.00079700665 0.10270725 -0.07103424 -0.011069601
0000e0 58 ce 60 be d9 c9 f1 bc b8 ea 0d 3e 27 ce 1b 3d
       -0.21953714 -0.029515194 0.1385907 0.0380384
0000f0 54 b9 08 3e 07 f2 cb bd 6e 03 a2 3d bb a5 fb 3d
       0.13351947 -0.099582724 0.079108104 0.1228747
000100 ff b0 97 bd 97 7c 49 3d e8 ff 03 be 0b 85 a6 3d
       -0.07406806 0.049191084 -0.12890589 0.08130845
000110 40 c9 90 bd 39 1e 97 3d 2d 86 83 3d cb 6b 02 be
       -0.070696354 0.073788114 0.064220764 -0.12736432
000120 d8 0b b9 3d 9c 01 71 3b bb fc 2e be f6 cd 52 be
       0.09035462 0.003677464 -0.17088597 -0.2058638
000130 a7 f6 21 bd 9d 38 a1 bd 35 f7 3d 3d 98 ad 6d 3d
       -0.039541867 -0.07872126 0.046378333 0.05802688
000140 02 25 29 3d 8e e8 41 3e 9c fc 1f bd be 43 be 3c
       0.04129506 0.18936369 -0.039059266 0.023225661
000150 2e 75 bd bc 35 ec a9 3d f8 7e 13 be 88 1d 02 3e
       -0.023127165 0.08297006 -0.14403903 0.12706578
000160 71 cc 4b 3e 3c e2 14 3d a5 4c 3a 3e e7 48 99 3b
       0.19902207 0.036348566 0.181933 0.00467788
000170 aa 81 16 3e df ab 4e be a9 05 8c 3c 18 cd 5a be
       0.146979 -0.20182751 0.017092543 -0.213673
000180 9e 04 36 3d 16 99 72 3e 17 e0 2a 3e b0 ac b5 3d
       0.044437997 0.2369121 0.16687046 0.08870828
000190 34 6c a9 3d 36 4e 7e be 8b a1 c3 3b 57 b2 25 3e
       0.08272591 -0.24834523 0.005970185 0.16181313
0001a0 c6 23 02 3e 80 58 2f 3c 08 8e 3f bd df 09 8a bd
       0.12708959 0.010702252 -0.04676631 -0.06740164
0001b0 af 26 99 3d f8 af a3 bc 25 c2 1d be c9 11 95 3d
       0.074780814 -0.01998137 -0.15406092 0.07278783
0001c0 7a 2f 4c 3c ec bd 75 3d 4c a4 9e 3d 71 3b d2 3d
       0.012462491 0.059995577 0.07746181 0.10265244
0001d0 56 ac 15 3d 80 20 36 3e 80 ce c4 3d 73 07 98 bd
       0.036541305 0.17785835 0.09609699 -0.07423296
0001e0 82 f0 77 bd b3 2f c7 3d c1 d8 b7 3d 17 5e 86 3d
       -0.0605321 0.09725895 0.089768894 0.06560915
0001f0 9e 9d dd 3d c1 84 9d 3c 62 b5 14 3e 87 90 2b 3e
       0.10821079 0.019228341 0.14522317 0.16754352
000200 a4 e9 1a 3c 4c 69 5d bc 0a 60 7b bd c9 49 d9 3d
       0.009455118 -0.013513874 -0.061370887 0.106097765
000210 a5 24 75 3e 35 23 76 3d 12 9a 6b 3e 62 3d 02 3e
       0.2393976 0.06009217 0.23007992 0.12718728
000220 98 60 9d 3c 36 d2 33 3d 2d ff 39 bd 67 0e e4 bc
       0.019211099 0.043901645 -0.04540937 -0.027838899
000230 7a 2d 5c bd 80 19 11 3d 02 bf 4b bc 72 fc 52 3e
       -0.053754307 0.03542471 -0.0124356765 0.20604113
000240 57 99 4f 3e 0c 78 33 3e 25 ac 05 3d 15 04 3b 3d
       0.20273338 0.17526263 0.032634873 0.04565819
000250 3b 76 a6 bd b6 50 41 3e 04 0f fb bd 6b 70 02 3d
       -0.081280194 0.18878445 -0.122587234 0.03184549
000260 92 10 8f 3c 98 40 58 3d 55 74 a1 bd 3b f4 40 bd
       0.017463956 0.052795976 -0.07883517 -0.047107916
000270 7b fd 8c 3e f5 b3 21 be 7f 6e bc bd 10 89 26 3c
       0.2753714 -0.15791304 -0.09200763 0.010164514
000280 ce a9 9b 3d e2 0b 63 3d d4 0b c1 3d 59 86 81 bd
       0.07600747 0.055431254 0.09426084 -0.06324453
000290 58 ca 85 bd e1 07 bc 3c 0a 3b 00 3d 1b 70 8e bc
       -0.06532735 0.022952976 0.031306304 -0.01738744
0002a0 a4 5f 04 be d0 d1 4e 3d c6 e5 e7 3d f6 d6 86 3d
       -0.12927109 0.05049306 0.11323123 0.06583969
0002b0 99 46 54 3c 9b 69 6c 3d a0 81 28 bd 2e 14 49 bc
       0.012956285 0.0577179 -0.041139245 -0.012272878
0002c0 b3 a2 7e 3d f9 fd 13 3e 1d ee 02 be 4f 4e c2 bd
       0.06216688 0.14452352 -0.12786146 -0.094875924
0002d0 5f 4f 12 be d8 eb f3 3d 6c 1e 9a bd 71 f4 da bd
       -0.1428809 0.11910218 -0.07525334 -0.10691155
0002e0 3c 1e bc 3d 64 ab 27 3e c0 b3 ae 3d 87 44 26 be
       0.09185454 0.16373974 0.08530378 -0.16237079
0002f0 cb 70 21 be 8b 30 b8 3d 1a 25 bb 3d ad f1 d2 3d
       -0.15765683 0.08993634 0.09137936 0.10300002
000300 3c 58 00 be b4 86 8e bb e5 d6 01 be 76 28 46 bd
       -0.12533659 -0.004349554 -0.12679632 -0.04837843
000310 3d ec cd bc c9 f9 b0 3d 96 17 a7 3c 6e 6c f2 bc
       -0.025137061 0.08641393 0.020396989 -0.029592719
000320 9b 8f c0 bc 54 8f 46 bd c2 ef 32 3c a2 69 d0 3c
       -0.023505976 -0.048476532 0.0109214205 0.025440995
000330 55 c9 fa 3b 4a 80 01 bd 47 12 c4 3d 9f dc f8 bc
       0.007653395 -0.031616487 0.095737986 -0.030378638
000340 f3 60 74 bd df d1 ae 3c df f0 ac 3d ba 25 cd 3d
       -0.05966277 0.021340309 0.0844438 0.100169614
000350 65 e6 db 3c b9 de 4d bd 30 42 36 3d 5e f5 f0 3d
       0.02684326 -0.050261233 0.044496715 0.1176555
000360 d1 be 07 be 55 5c 45 3b 2e 84 fb bd fd c7 c8 3c
       -0.13256384 0.0030114849 -0.12281071 0.024509424
000370 92 38 95 3d 2a 0a 47 bd 7d ba 9a bd 13 3b 40 3c
       0.072861806 -0.048593678 -0.07555101 0.011732834
000380 9c 41 6f bc 6c fc d8 bd 8c 83 a1 3d bf fa a2 bd
       -0.014603045 -0.10595021 0.07886419 -0.07957982
000390 11 63 2e bd c4 ed ed bb 8e e6 ba bc bb f2 40 be
       -0.042574946 -0.00726101 -0.022815015 -0.18842594
0003a0 9c 09 49 3d 08 91 68 bd 53 05 b0 bd c7 a6 ae 3c
       0.04908143 -0.056778938 -0.085947655 0.02131976
0003b0 c0 98 85 bd 75 6b a7 bd ea f8 98 bd 07 aa 84 bd
       -0.065232754 -0.08174793 -0.074693516 -0.06477743
0003c0 91 1b 06 bd e5 7f 3e bd 54 93 13 3c 5f cd bf bd
       -0.032741133 -0.04650869 0.009007294 -0.09365343
0003d0 a4 90 b5 bd a6 ca 3a bc e0 67 8e 3c b4 42 05 3d
       -0.08865479 -0.011400854 0.017383516 0.032534316
0003e0 3e 3d cb bd b5 a1 e6 3c a3 f6 7c 3d 55 fe f0 3c
       -0.099237904 0.02815328 0.06175865 0.02941815
0003f0 4d 09 fd bd d5 49 8e bd 71 53 00 be ee ff a1 bd
       -0.123552896 -0.06947676 -0.1253183 -0.07910143

layers.0.lin_self.bias f4 [64]
000000 fe 95 2f 3e f2 7a 9e bd b0 3e f2 3b 53 35 c9 bd
       0.17147061 -0.07738294 0.007392727 -0.09824624
000010 dc e8 2c be d7 86 3d bd 71 73 4f bc 94 ad bd 3d
       -0.16885704 -0.04627117 -0.012661801 0.09261623
000020 16 21 22 3d 7b 4b 32 bd e4 be 49 bd 9c de 05 be
       0.039582334 -0.043529015 -0.049254313 -0.130732
000030 92 3f 0b bd e2 ef 16 3e e8 4b 3d 3d c3 1f cb bd
       -0.033996172 0.14739946 0.046214968 -0.099181674
000040 1a 57 02 bc 38 4a b5 bd 89 64 07 3d f6 8c fb bd
       -0.007955337 -0.08852047 0.033054862 -0.122827455
000050 aa 3c 05 be b9 43 98 bd 51 d8 19 3d cc 22 e9 3c
       -0.13011423 -0.07434792 0.03755981 0.028458975
000060 28 93 a5 3c f5 42 e6 bd 23 f0 46 bd bf 59 3c bd
       0.020211771 -0.1124324 -0.048568856 -0.045984026
000070 39 a7 32 bd 58 67 37 3c 5c 1f c1 37 19 77 e4 bd
       -0.043616507 0.011194073 2.3021996e-05 -0.111555286
000080 c5 cc 0a bc 0e e5 9e 3d 15 00 8f bd 16 cd 78 bd
       -0.008471672 0.077585325 -0.069824375 -0.06074246
000090 58 e1 be bd 21 27 1d be 87 3e bd bd b2 cb 83 3c
       -0.09320325 -0.15346958 -0.09240442 0.01608834
0000a0 a6 3c 5e bd 47 3a 04 bd 21 b6 53 3d cc 32 99 bd
       -0.054257058 -0.03228214 0.051687364 -0.07480392
0000b0 8a f3 df bb 02 9b d5 bd 30 d8 36 bc c8 71 69 3d
       -0.006834452 -0.10429956 -0.011159942 0.056993276
0000c0 b7 d6 0f 3d 23 a0 e7 bc 11 1c d1 bc 76 44 1a be
       0.035116877 -0.028274601 -0.025526078 -0.15065178
0000d0 ec a8 08 be fc 9b 40 be 28 94 d9 3b 77 17 83 bd
       -0.13345689 -0.18809503 0.006639976 -0.0640096
0000e0 d1 3c ae 3c 3c 67 e5 bd 83 58 bf bd be 83 4e 3d
       0.021269234 -0.11201331 -0.09343054 0.050418608
0000f0 df 6f 19 3c 6a a2 87 bd 48 73 ab 3d 57 f1 2f bc
       0.009365051 -0.06622775 0.083715975 -0.010738692

layers.0.lin_neigh.weight f4 [64, 64]
000000 eb e0 03 3e aa 2c b1 bd 8d 94 d4 3c 16 5b c2 3c
       0.12878768 -0.08651097 0.02594974 0.023725074
000010 88 d1 22 be 11 a9 87 3d 9b 7b 5c bd ec 75 9d ba
       -0.15900242 0.06624044 -0.053828817 -0.0012013293
000020 6b 88 dc bc e8 5e 00 be 41 0e 41 3d 8a ec 83 bd
       -0.026920518 -0.12536204 0.047132734 -0.064416006
000030 2b 9a 0b 3c fd fe fc 3d 47 51 38 3e f6 3e 3a 3d
       0.008520643 0.12353323 0.17999755 0.0454702
000040 c9 34 ec 3c 0f eb ab 3d 03 3e bd 3d d7 d5 29 3d
       0.028833764 0.08394443 0.092403434 0.0414637
000050 24 dc a6 bd e3 a7 47 3c c8 45 6f 3d 55 47 bc bd
       -0.08147457 0.012186023 0.058416158 -0.09193293
000060 91 0e 2b bc 73 ef ca 3d 71 c3 fe bd e3 e1 11 bd
       -0.010440485 0.099089526 -0.12439621 -0.035615813
000070 d7 aa 26 3e de 7a a9 3e a3 31 29 3e 6c 65 96 3d
       0.16276108 0.33101553 0.16522841 0.073435634
000080 7a fc f4 bd 97 63 25 3b 0c f3 f8 bc e5 14 ac 3c
       -0.119622186 0.0025236362 -0.030389331 0.021006057
000090 fa f6 66 bd 2b f9 54 3e d4 55 29 be 33 07 59 3e
       -0.05638788 0.20798175 -0.16536647 0.21194153
0000a0 91 3e b4 bd 9c b5 49 bd c5 c7 e8 bc 7d 6d 56 3e
       -0.08800996 -0.04924546 -0.02841557 0.20940204
0000b0 b6 b7 3a 3e a7 b1 06 bd c7 58 0d 3e 0f f0 a5 3d
       0.18234143 -0.032884266 0.13803397 0.08102428
0000c0 7d 21 36 3e 3f 5d 71 3b c4 ce 00 be 2a 12 a6 3c
       0.17786212 0.003682926 -0.12578875 0.020272333
0000d0 3f 23 30 be 4b 81 6f 3d c0 24 f3 bd 88 9d 08 be
       -0.17200945 0.058472913 -0.11872244 -0.13341343
0000e0 f8 4f b5 be 44 1c d9 3d de 41 80 bd ad eb b6 bd
       -0.35412574 0.10601094 -0.06262563 -0.0893167
0000f0 7d b6 00 3d 5e 74 9f bd 32 14 66 be 41 74 0b 3e
       0.031424034 -0.07785867 -0.22468641 0.13618566
000100 25 09 80 3c c1 a6 ec 3c 72 28 e2 ba f3 cb c0 3d
       0.01562936 0.028888108 -0.0017254485 0.094139
000110 6a 27 0f be 24 ac 60 bc 82 14 b1 bb 3f c3 76 3b
       -0.13979879 -0.0137129165 -0.005404056 0.0037652997
000120 d5 67 e1 3c 7d 9b e0 bd 09 53 62 3d eb b4 8e bd
       0.027515331 -0.10967157 0.05525497 -0.06968101
000130 e8 01 97 3d 9c 28 e7 bc 5d c3 ed 3d 5c 5b ac 3d
       0.073734105 -0.028217606 0.11609528 0.08415863
000140 29 4d b5 bd 7b 6e 26 be 40 97 d7 3d d4 03 15 be
       -0.08852608 -0.16253082 0.105268955 -0.14552242
000150 a1 31 03 bd ae ac 15 3d c6 8a 09 bd 4e f7 ce 3c
       -0.03202975 0.036541633 -0.03357961 0.025264408
000160 a5 ab 58 3d 2e 5d 9f bc 6a 5a bc bc 86 34 95 3d
       0.052898068 -0.019453611 -0.022992332 0.07285409
000170 dd a9 ca 3d 17 d2 d8 3d f8 43 d9 bd 17 34 67 bc
       0.0989568 0.105869465 -0.10608667 -0.01411154
000180 61 6e b9 bc 6b f4 f3 3c ba 68 40 bd b0 7d be bd
       -0.02263564 0.029779634 -0.046974875 -0.09301317
000190 5a 1e 94 bd d1 1e 15 3d cf 18 f5 bd 9a 70 05 3d
       -0.072323516 0.036406342 -0.119676225 0.03257809
0001a0 64 c7 a5 3c 1e f7 8c bd 2b ca 0a be 4d 79 23 3e
       0.020236678 -0.06883071 -0.13553683 0.15964241
0001b0 7e ce 7c bd 51 1f 91 3c 65 e6 35 bd dc 58 03 be
       -0.061720364 0.017715128 -0.044409174 -0.12826866
0001c0 f8 d2 9e bc b6 80 b8 3d 79 a0 c2 bd de 54 e9 3d
       -0.019387707 0.09008925 -0.09503264 0.1139314
0001d0 f3 6b ae 3b ec 5e bd 3d 9e 8f a9 3d fc 21 ba bc
       0.005322927 0.092466205 0.08279346 -0.022721283
0001e0 6c c8 02 3e 2c e5 9b bc 62 00 b1 bd 72 09 61 bd
       0.12771767 -0.019030176 -0.08642651 -0.05494065
0001f0 97 ea 57 3d fb f7 c4 bd e4 d3 3b be a3 14 ee bd
       0.052713957 -0.09617611 -0.18342549 -0.1162503
000200 ea 8d 58 bd 4a 99 9b 3d a6 25 1f bd a9 5d 9a bd
       -0.052869715 0.07597597 -0.038854264 -0.075373955
000210 2c e9 50 bc de be 1b 3d 26 57 30 be 0d 55 70 3d
       -0.012750905 0.038023822 -0.17220744 0.05867486
000220 48 de bd bd 57 6b b1 3c 97 ad 31 bd 20 1d a0 bd
       -0.092709124 0.021657629 -0.04337844 -0.07818055
000230 b4 cc af 3d 78 e6 db 3c ee 0c 14 bc 35 a9 1a be
       0.08583966 0.026843295 -0.009036286 -0.1510361
000240 24 f8 dc 3c 6c 97 95 bc 11 83 80 bd ff ac b7 bd
       0.026973791 -0.01826068 -0.06274999 -0.08968543
000250 07 b6 01 3e d3 34 5a 3d 03 a8 66 3d 7c d9 08 3c
       0.12667094 0.053273033 0.056312572 0.008352634
000260 d3 71 b7 3d a2 15 b7 bd 04 02 58 be ba 3c be 3c
       0.08957257 -0.08939673 -0.21094519 0.023222316
000270 af 17 90 3d bf ad 19 be 0a 49 1c be d0 30 32 3a
       0.07035767 -0.15007685 -0.15262237 0.0006797435
000280 24 a2 88 3c 4f 86 30 bd 6a 45 c1 3d a3 37 1d be
       0.016678877 -0.043096837 0.09437068 -0.15353255
000290 b4 57 34 bc f3 e6 a8 bc ca 6d 45 bd 31 a4 b6 3d
       -0.011007238 -0.020617938 -0.048200406 0.08918036
0002a0 db 44 03 bd 88 e0 69 bd da be 37 3d 2d 81 98 bd
       -0.032048088 -0.057098895 0.044859745 -0.07446513
0002b0 97 25 93 bd 92 7d f3 bc cc 0d d3 bd 29 0b 19 3e
       -0.07184904 -0.029722963 -0.10305366 0.14945664
0002c0 16 f0 89 bc a1 1e 1d 3d 7a 25 4b 3c 6a b8 a5 bd
       -0.016838115 0.038359288 0.012399072 -0.08091815
0002d0 71 d5 5a 3c b4 4f 54 bb 00 8f 1b 3b d1 f4 06 3d
       0.013356552 -0.003239614 0.0023736358 0.03294832
0002e0 14 73 8e 3d d5 36 49 bd 42 d0 f4 bc bf c1 74 3d
       0.06955543 -0.049124558 -0.029884461 0.059755083
0002f0 0e 91 a9 3d db df 9c 3d a9 69 56 bd 91 bf 51 3d
       0.0827962 0.076598845 -0.05234686 0.051208083
000300 1b 01 54 bd fb 10 03 be b4 f6 14 be 15 3a 32 bd
       -0.051758867 -0.12799446 -0.14547235 -0.043512423
000310 07 c2 d2 3d 9a 34 db bd 08 52 94 3c b0 1a 3d 3d
       0.10290914 -0.10703392 0.018105522 0.04616803
000320 01 90 ff bd 74 a4 28 3d 59 5a 86 bc 15 55 0c be
       -0.124786384 0.04117246 -0.016400503 -0.13704331
000330 d0 21 d8 bc 59 bc 24 be 74 64 c5 3d 9c 4e 3d 3d
       -0.02638331 -0.16087474 0.096383005 0.046217546
000340 6a 91 03 3d c9 06 59 3d 9e dd 9d 3d fb a7 c1 3d
       0.0321211 0.052984986 0.07708286 0.09455868
000350 20 39 20 3d 99 55 e8 bd 7a e4 c4 3d 9c bb 0d 3d
       0.03911698 -0.113444515 0.09613891 0.034602746
000360 48 54 4b bd fc 39 59 bd 07 fa a5 3d 0c 78 85 3c
       -0.049640924 -0.053033814 0.081043296 0.016292594
000370 22 16 e1 3d 57 7d b1 bc 16 38 93 3d 5d 45 07 be
       0.109905496 -0.021666212 0.07188432 -0.13210054
000380 c8 a3 6c 3c 2e c8 94 3c b9 96 ad bc c9 c1 6a 3d
       0.014443345 0.01816186 -0.021190034 0.057313714
000390 7b 0c e6 bb fb 14 8c bc 20 d3 8f 3d 0f 43 a9 bd
       -0.0070205308 -0.017099848 0.07022691 -0.082647435
0003a0 6f 12 a6 bc c4 0f d3 bd 46 6d e7 bc 07 85 6d bd
       -0.020272462 -0.103057414 -0.028250348 -0.057988193
0003b0 2c 38 94 3d 4e 9a a6 3d fa 9c 1c be 82 be b8 bd
       0.072372764 0.081349 -0.15294257 -0.090207115
0003c0 a5 ba b7 3d ad fd 8a bd af c8 ad 3d 94 36 be 3d
       0.089711465 -0.06786666 0.08485543 0.09287754
0003d0 87 8e 36 bd 7c 8b ea bd 3e 01 80 3d b9 61 eb ba
       -0.04456952 -0.11452386 0.06250237 -0.0017958201
0003e0 01 ed c7 3d e3 89 b0 3b 2e 3f 5f 3d 80 aa e9 bd
       0.09762002 0.005387531 0.054503612 -0.114094734
0003f0 51 31 a6 3b 8f fa e2 3b 16 1a 73 3d ed cc 86 bd
       0.005071797 0.0069268416 0.05935105 -0.06582055

layers.0.bn.weight f4 [64]
000000 c7 f1 69 3f ff f4 7f 3f f2 98 8d 3f 33 fb 7e 3f
       0.9138455 0.9998321 1.10623 0.9960205
000010 46 13 9d 3f 47 3c 90 3f 84 79 57 3f 30 78 90 3f
       1.2271507 1.1268395 0.84169793 1.1286678
000020 33 c5 46 3f 9e 88 9a 3f c7 69 58 3f 2b fc 96 3f
       0.7764465 1.2072942 0.84536403 1.1795706
000030 a9 82 7b 3f 5f c3 7b 3f 0d 3a 80 3f 90 20 5c 3f
       0.98246247 0.9834499 1.0017716 0.85987186
000040 12 a1 8b 3f 56 d1 82 3f d3 3e 72 3f 79 86 7a 3f
       1.090853 1.0220134 0.9462711 0.9786144
000050 af 86 7a 3f ee 95 69 3f a8 c5 57 3f c7 b8 80 3f
       0.9786176 0.912444 0.84285975 1.005639
000060 37 cd 8a 3f 09 5b 7f 3f 02 5b 84 3f 44 fe 83 3f
       1.0843877 0.99748284 1.0340273 1.0311971
000070 68 34 83 3f 0a 39 96 3f 12 57 80 3f 0b 41 5f 3f
       1.0250368 1.1736157 1.0026572 0.8720862
000080 7e 4d 8b 3f 6a 04 89 3f 0f 1e 7f 3f 0e 03 6e 3f
       1.0883024 1.0704472 0.9965524 0.9297341
000090 00 bd 7d 3f e5 60 68 3f e2 f6 78 3f 2d 31 66 3f
       0.99116516 0.9077285 0.97251713 0.89918786
0000a0 66 1c 91 3f 53 34 79 3f 2c e4 78 3f 00 0e 9d 3f
       1.1336792 0.97345465 0.9722316 1.2269897
0000b0 05 ec 7d 3f bf d8 87 3f 09 3d 7a 3f c6 e8 78 3f
       0.9918826 1.0613021 0.9774938 0.97230184
0000c0 0e fc 7e 3f 5f 30 7f 3f 3c 98 53 3f e7 1a 83 3f
       0.99603355 0.99683183 0.82654166 1.0242585
0000d0 f2 a3 9d 3f 4d e7 88 3f 9b 28 8a 3f 60 81 90 3f
       1.2315657 1.0695587 1.0793642 1.1289482
0000e0 78 02 5d 3f 00 00 80 3f e2 a9 84 3f ce 2f 81 3f
       0.8633189 1.0 1.0364344 1.0092714
0000f0 83 36 8a 3f 76 c5 5e 3f 0a 57 50 3f 73 a2 82 3f
       1.0797886 0.8702005 0.8138281 1.0205826

layers.0.bn.bias f4 [64]
000000 f3 34 ed bd 07 31 a0 bd ad 3e 45 bd 39 a9 5c bd
       -0.11582365 -0.07821851 -0.048155475 -0.05387232
000010 0c 45 29 3e 9f 37 36 3d fd fc 3a 3e fd d9 28 bd
       0.16530246 0.04448664 0.1826057 -0.041223515
000020 69 93 28 3e 81 1a 16 bd 64 15 aa bc 9c e2 01 be
       0.16462483 -0.03664637 -0.020762153 -0.12684101
000030 5c 39 9e ba b9 a6 62 3e 69 1e 74 bd 28 e8 08 3e
       -0.0012071538 0.22133912 -0.059599314 0.1336981
000040 ba d1 bc bd 6b 6e f6 bd ff 07 a3 3d ae 46 a4 bd
       -0.0921969 -0.12032779 0.079605095 -0.080212936
000050 c5 32 b5 bd 90 02 8e bd 72 83 a6 3d c3 8b 83 bd
       -0.08847574 -0.069340825 0.0813054 -0.06423142
000060 e6 dc f9 bc b9 b2 0e be 57 9f 11 bd 48 af 4d bd
       -0.03050084 -0.13935365 -0.03555235 -0.05021599
000070 95 00 33 3e ea 79 a2 bd b1 2b a3 bd 15 df 02 be
       0.17480691 -0.079334095 -0.07967318 -0.12780412
000080 25 2e d8 bd c9 4b 93 bd 23 6f 3e 3e 2e 7d 14 3d
       -0.10555676 -0.07192189 0.18597083 0.036252193
000090 36 91 79 3d 84 1b 1a 3e 20 bf 40 be 73 55 e3 3d
       0.0609295 0.15049559 -0.18822908 0.111002825
0000a0 34 e3 e7 bb a1 50 11 3c 80 47 54 3e 6d 15 09 be
       -0.0070766453 0.008869321 0.207304 -0.1338708
0000b0 3b f9 4f 3e 9b 56 ca bd dd fc a8 bd 9e 9d 25 bd
       0.20309918 -0.098798 -0.08251355 -0.04043352
0000c0 03 fd 38 be 3e 65 8e 3d 27 98 1a 3e 96 dd 04 bc
       -0.18065266 0.06952904 0.15097104 -0.008109471
0000d0 cb 69 10 3c 14 50 51 bd 16 11 02 3d 0f 30 90 bd
       0.0088142855 -0.05110176 0.031754576 -0.070404164
0000e0 06 04 4e bd 60 6f 30 3e f1 29 6a bd 99 6d 07 bd
       -0.050296806 0.17229986 -0.057168905 -0.033063505
0000f0 c0 60 b8 bd f2 bc 8e ba 3a 95 2f bd dd 8d 9d bd
       -0.090028286 -0.001089005 -0.042866923 -0.07693074

layers.0.bn.running_mean f4 [64]
000000 ac 97 a1 3e 1c 50 1d 3e 56 bb d9 3d 04 00 00 00
       0.3156103 0.1536259 0.106314346 6e-45
000010 da 7f 91 3d 69 e4 92 3d 0e c4 03 3e ae 57 c8 3c
       0.07104464 0.07172472 0.12867758 0.024455871
000020 49 00 76 3e 32 37 70 3c 1f ff 80 3e 0f 92 b7 3c
       0.24023546 0.014661597 0.25194642 0.022408513
000030 23 ad 38 3d cb 91 8c 3e 2e e9 05 3f 38 8d cc 3d
       0.04508699 0.2745498 0.5230893 0.09987873
000040 47 6f 92 3b fb e9 da 3b 04 00 00 00 04 00 00 00
       0.0044688317 0.0066807247 6e-45 6e-45
000050 04 00 00 00 24 6a 88 3e cf 95 dc 3e 04 00 00 00
       6e-45 0.2664348 0.43083045 6e-45
000060 ad fb 94 3e 90 ed 6e 3d f5 75 02 3e c4 97 9b 3c
       0.29098263 0.058332026 0.1274031 0.018993266
000070 5b 5a fb 3d b4 bb 29 3d b2 06 e1 3c a9 d9 b0 3d
       0.12273093 0.041438773 0.027469013 0.086352654
000080 6a 24 2f 3d f6 49 12 3c 4b 52 ff 3c 04 00 00 00
       0.042759337 0.0089287665 0.03116717 6e-45
000090 88 1e 72 3d 64 f0 02 3b 3f e3 01 3e 1a fe a8 3d
       0.059111148 0.001997971 0.12684344 0.08251591
0000a0 e8 f8 c3 3c 04 00 00 00 2b e8 3c 3e cb 18 fc 3b
       0.023922399 6e-45 0.1844794 0.0076933852
0000b0 b4 8a 17 08 30 0a 6c 3b 04 00 00 00 ef 44 38 3e
       4.5602954e-34 0.0036016814 6e-45 0.17995046
0000c0 04 00 00 00 74 27 2e 3b 88 ab c8 3d 5c 24 2f 3e
       6e-45 0.002657381 0.09798342 0.17103714
0000d0 4e ec 11 3c bd 1c cd 3d 33 d5 6c 3d 6a 07 2d 3c
       0.008906437 0.10015247 0.05782051 0.01056085
0000e0 4a 2a 35 3e 00 00 00 00 04 00 00 00 d4 dd f6 3d
       0.17691913 0.0 6e-45 0.12054029
0000f0 bb 7d c7 3c bc 81 34 3e b4 6e 97 3e e7 17 90 3c
       0.024351945 0.17627615 0.29576647 0.017589523

layers.0.bn.running_var f4 [64]
000000 14 c3 41 3f 5d 3b 45 3f 63 78 44 3f 04 00 00 00
       0.7568829 0.77043706 0.76746196 6e-45
000010 69 ba 42 3f fe 36 be 3e 83 a5 f6 3e 8b fc 12 3e
       0.7606569 0.3715133 0.4817315 0.1435415
000020 2b d2 91 3f 0f 51 53 3d d2 81 43 3f 05 d0 f6 3d
       1.1392263 0.051590975 0.76369965 0.12051395
000030 7b f5 18 3e 91 0f 1d 3f 57 68 a1 3f 01 05 90 3e
       0.14937393 0.6135188 1.2609967 0.28128818
000040 d3 0d 9d 3b 20 80 2f 3c 04 00 00 00 04 00 00 00
       0.0047929077 0.0107117 6e-45 6e-45
000050 04 00 00 00 29 c8 8c 3f 26 80 45 3e 04 00 00 00
       6e-45 1.0998584 0.19287166 6e-45
000060 e7 1f 75 3f d2 91 7e 3e 43 d8 79 3f 1c 50 b1 3d
       0.95751804 0.24860314 0.97595614 0.08657858
000070 5a 87 16 3f ef 74 00 3e f7 6f 39 3e 7c 06 f3 3e
       0.5880028 0.12544607 0.18109117 0.47465885
000080 c0 47 08 3c d3 bd 9c 3c bb ba 6e 3e 04 00 00 00
       0.008317888 0.019133484 0.2331342 6e-45
000090 77 b7 82 3e 7c 4f 0a 39 c1 4f 4f 3f e9 e5 24 3d
       0.25530598 0.00013190316 0.8098107 0.040258322
0000a0 5b 3c 2b 3d 04 00 00 00 59 6e d4 3e c3 bc 68 3c
       0.041805606 6e-45 0.4149044 0.014205161
0000b0 e3 9b 41 00 9d 08 4c 3b 04 00 00 00 fc c4 97 3f
       6.025229e-39 0.0031133064 6e-45 1.185699
0000c0 04 00 00 00 1a 24 de 3a e0 05 f6 3c d8 2f a2 3f
       6e-45 0.0016948015 0.030032098 1.2670851
0000d0 66 f5 9b 3c 59 68 1f 3f 98 1e 7a 3e aa 47 db 3c
       0.019037914 0.62268597 0.24425733 0.02676757
0000e0 64 d2 b2 3d 04 00 00 00 04 00 00 00 75 ee 21 3f
       0.08731535 6e-45 6e-45 0.6325448
0000f0 46 57 10 3e da 86 fc 3e 65 48 35 3f 6f 12 98 3d
       0.14095792 0.49321634 0.7081359 0.07425391

layers.1.lin_self.weight f4 [64, 64]
000000 97 f7 2c bd 87 a0 8f 3d 0d e3 ec bd 7e 41 ff 3d
       -0.042228308 0.0701304 -0.11566744 0.124636635
000010 a2 0f 53 3e 0c 94 58 3c a8 9b c7 3d b0 ca c5 b9
       0.20611432 0.013218891 0.09746486 -0.00037725782
000020 a3 48 27 bd d0 50 29 3e 46 1b 9f bd 8b b5 f5 3d
       -0.040840756 0.16534734 -0.07768874 0.11997517
000030 8c c3 d5 bd 75 3b 19 bc 19 5f 8b 3d 33 a9 ee 3d
       -0.10437688 -0.009352555 0.06805248 0.11653366
000040 dd 6c c6 3b 18 1b e6 bd 3a a3 84 3d a2 a8 a1 3d
       0.006055458 -0.112356365 0.064764455 0.07893492
000050 95 5d 93 bd c9 41 6b 3d 48 fb 06 bd 85 4c d1 3d
       -0.07195584 0.057435784 -0.032954484 0.10219673
000060 21 fd 6c bd 0c b9 b6 3b 2c 93 28 3e 23 3c 3c 3e
       -0.05785859 0.0055762585 0.16462392 0.18382315
000070 4e 98 70 bd 44 1f 3a 3b cf 68 be 3d 7f c8 99 bc
       -0.058739 0.0028399983 0.092973344 -0.018772362
000080 ed 97 03 3d 27 b1 b6 3d f0 05 9f bd 13 ff 24 be
       0.03212731 0.08920508 -0.07764804 -0.16112928
000090 91 21 62 3d 37 b6 5d bd 7c 61 9a 3c 8e 8d ae 3d
       0.055207793 -0.05412885 0.018845312 0.08523093
0000a0 33 43 14 be f3 24 e4 bb 25 79 9e bd 6c 52 17 3e
       -0.1447876 -0.0069624125 -0.0773795 0.14777535
0000b0 09 c8 96 be a4 c0 d8 bd 75 43 b4 3c 9f ee 26 3e
       -0.2944949 -0.10583618 0.022004822 0.16301964
0000c0 d3 e0 90 3d 1c cb 9a bd 3a 9f cf 3c fe 6d 8e 3d
       0.07074132 -0.07558271 0.02534448 0.06954573
0000d0 fb 2c 2c 3e 5d c1 ba bb 64 b0 61 bd 2c ba c6 3c
       0.16814034 -0.00569932 -0.05509986 0.024258696
0000e0 07 91 e2 3d 39 ed e6 bd 8a 6f a9 3c 40 d5 b4 3d
       0.11062818 -0.112757154 0.020683069 0.08829737
0000f0 2c 2e 9f 3c 79 4d 95 bd b1 d0 e8 bd 16 6b 31 3e
       0.019431196 -0.07290167 -0.1136793 0.17326006
000100 07 82 ac 3d 24 4c 93 3d f5 01 27 3e db 30 48 3d
       0.08423238 0.07192257 0.1630934 0.048874717
000110 60 b5 44 be be 6e 3c be fb 1f 67 bd af 3e 64 be
       -0.19209814 -0.1840162 -0.056426983 -0.22289537
000120 b8 2f db bd 46 49 3f be e2 e5 a3 bc 41 48 25 be
       -0.10702461 -0.18680295 -0.020007078 -0.16140844
000130 fc d8 02 3d da 3e 5b be 0d ac 0c be 39 e1 70 bd
       0.031945214 -0.21410695 -0.13737507 -0.05880854
000140 77 f9 1b be 48 bc 84 bd 5d f3 0e 3e 53 91 ac 3d
       -0.15231882 -0.06481224 0.13960023 0.08426156
000150 87 7a 4e bd ae 64 93 3b 9a db 89 bc 7c 1a 25 3c
       -0.05040982 0.004498086 -0.016828347 0.010077115
000160 be 5a 46 bd c3 f2 ad 3d 09 9a ab 3c 7b be b6 3d
       -0.048426382 0.08493569 0.020947473 0.0892305
000170 54 a6 3d 3c c7 b1 c9 bc 1c 8d 12 3d c1 16 cf 3b
       0.0115753 -0.024620904 0.035779104 0.006319851
000180 8b f4 fb 3d 10 76 22 be 21 c8 8b 3a 2f f9 a3 bd
       0.12302502 -0.1586535 0.0010664501 -0.080065124
000190 50 be d5 bd 86 fb 2c bd 78 1d f1 3d 77 c9 14 3d
       -0.1043669 -0.04223206 0.11773199 0.036324944
0001a0 c0 30 65 be e2 f8 b5 3d 6a 25 21 3b 99 ac 46 be
       -0.22381878 0.08885361 0.002458895 -0.19401778
0001b0 f3 77 84 3d aa 63 55 be b4 9a 09 3d 86 b9 f7 3d
       0.06468191 -0.208388 0.033594802 0.12095933
0001c0 e6 da b6 bd e2 8f e1 bd 1f 96 28 3e f8 c8 15 3d
       -0.0892847 -0.110137716 0.16463517 0.03656861
0001d0 d3 48 a2 be b6 da 75 3e 08 a0 89 3c 12 52 51 be
       -0.31696185 0.24009213 0.016799942 -0.20441464
0001e0 23 f8 5c bd 62 08 f4 39 b3 97 9b be 82 18 a3 3c
       -0.05394758 0.00046545552 -0.30389175 0.019909147
0001f0 97 1a 75 bd 08 50 43 bd df d6 d6 bd 74 b3 36 be
       -0.05983981 -0.047683746 -0.10490202 -0.17841893
000200 fd 8a 41 be 2b 3b 59 bd 0e 6a 4a 3d 99 23 c0 3d
       -0.18900676 -0.053034943 0.049417548 0.0938179
000210 18 fd b1 3d f9 ab c1 3d 6c cb 88 bd f7 86 45 be
       0.08690852 0.09456629 -0.06679425 -0.19289766
000220 05 f1 8d bd 54 7e 89 bd fb 39 34 bd 08 fb c1 bd
       -0.069307365 -0.06713548 -0.044000607 -0.094717085
000230 67 86 21 bd 53 70 a5 bc b4 90 b3 bd fa 1c cf ba
       -0.039434817 -0.020195162 -0.08767834 -0.0015801482
000240 46 65 31 be 45 3f 7c 3d 38 8d a2 bd 7c 41 14 be
       -0.17323789 0.061583776 -0.079370916 -0.14478105
000250 62 0e 3f bc fd 9f a1 3d 84 bb 2d be 83 9d 09 3d
       -0.011661144 0.078918435 -0.16966063 0.03359748
000260 58 39 05 3e 79 06 f3 bd 70 54 58 bd 2a b2 d0 bd
       0.13010156 -0.11866469 -0.0528149 -0.10190232
000270 05 33 44 bd bf e7 18 3e b0 ab 6c 3d d8 c2 38 3d
       -0.04790022 0.14932154 0.05778092 0.045107692
000280 73 e8 2c be b3 7e d3 3d 41 82 b7 3d 50 a1 61 3d
       -0.16885547 0.103269 0.08960391 0.05508548
000290 d8 2a 3f bc 38 c7 9a 3c c5 99 78 3c 31 ef 0e be
       -0.01166793 0.018893823 0.01517338 -0.13958432
0002a0 ee e5 f1 3d 2c 98 bf 3d 69 3c 74 bc b2 5a 56 bc
       0.11811434 0.09355196 -0.014906981 -0.013083147
0002b0 7e 8a fb 3d e8 80 15 bb e7 22 b0 3d 0b 73 58 3e
       0.12282275 -0.002281243 0.08600407 0.21137635
0002c0 7d a1 00 3c 19 8a 40 3c 01 fe 43 bc 5a c9 c4 bb
       0.007851002 0.011751675 -0.011962415 -0.0060054483
0002d0 c2 85 dc bd 57 91 98 bd 5b bb a0 3d 54 03 03 be
       -0.107677 -0.074495964 0.07848235 -0.12794238
0002e0 c5 f5 d3 3d 19 85 26 3e 9b c2 63 3d df 12 12 bd
       0.10349611 0.1626171 0.055605512 -0.035662528
0002f0 85 3c cd bc b3 bf fb 3c c7 85 b3 3d 6a c3 3d be
       -0.025053272 0.030731058 0.087657504 -0.18531576
000300 8d 7e 00 3e 58 4d 97 3d be 8b a8 bd 6a e4 39 3c
       0.12548275 0.07387799 -0.08229779 0.011345962
000310 73 31 db bd 34 d8 09 bc 67 04 0d 3e 6d 97 49 be
       -0.10702791 -0.008413363 0.1377121 -0.1968667
000320 6d 58 51 3c 35 c0 f2 bd bf 3a 57 bd 4e 32 da bd
       0.01277743 -0.11853067 -0.05254626 -0.10654126
000330 98 b8 69 3d c5 5e 68 be c5 6b 84 be 68 db 8d 3c
       0.057060808 -0.22692402 -0.25863472 0.017316535
000340 f0 95 68 be ff 33 18 be a7 47 3f be 0d 4d 21 3d
       -0.22713447 -0.14863585 -0.18679677 0.039380122
000350 41 8c 5a 3d c8 40 6f be c2 63 24 bd f5 61 d4 bd
       0.053356413 -0.23364556 -0.0401342 -0.10370246
000360 da 0c 20 3e e6 1f b7 bd 6b 76 f2 3d cf 5c f9 bd
       0.15629902 -0.08941631 0.11838993 -0.12175905
000370 fc 30 44 3e 05 4c 2c be 9b 2d e2 3c 08 64 14 bd
       0.19159311 -0.16825874 0.027609637 -0.03622821
000380 38 a4 6e bb f2 e7 f9 bd 25 9c 7b 3d 71 52 10 be
       -0.00364138 -0.12202443 0.061428208 -0.14093949
000390 05 2a 3e 3e cf 20 91 3c ee 0e 91 bd 88 a3 50 bd
       0.18570717 0.01771584 -0.07082926 -0.050937206
0003a0 8a 60 be bd 98 e0 26 be 9b 31 30 3e 7f 64 02 be
       -0.09295757 -0.16296613 0.17206423 -0.12733649
0003b0 99 ae af 3d c7 2a 30 be ba 95 0d 3e 30 2a b5 bd
       0.08578224 -0.17203818 0.13826647 -0.08845937
0003c0 7a ef 52 bd dc 24 b6 bd f4 30 9e 3d 8c 7f e1 3d
       -0.051497914 -0.08893749 0.07724181 0.11010656
0003d0 ef 3a 8f be 68 a0 07 3e 59 98 4b 3e 25 d7 d3 bd
       -0.2797465 0.13244784 0.19882335 -0.1034377
0003e0 84 8c b2 3c 31 cf b7 3d 87 c2 41 3c b5 4a 58 3d
       0.021795519 0.089750655 0.011826164 0.05280562
0003f0 a9 54 ad 3c 14 08 34 3e de 81 7d 3b c5 e1 ef bd
       0.021158533 0.17581207 0.0038682143 -0.11712984

layers.1.lin_self.bias f4 [64]
000000 6b 82 11 be b3 66 32 3e 62 a9 1b 3e dd ad ab 3d
       -0.14209907 0.17421989 0.15201333 0.08382771
000010 5c 73 cf bb 6b 0a 21 bd b7 6d 9f bc 4f 1e 76 3c
       -0.0063308906 -0.039316576 -0.019461496 0.015021875
000020 7e dc a3 bd b2 c2 bd bd 5c 3f 43 be ab b7 1e 3e
       -0.0800104 -0.09265651 -0.19067138 0.15499751
000030 3c e5 bc bd 5c 06 d6 3c 18 cc 9c bd 49 bf 8b 3c
       -0.092234105 0.02612608 -0.07656115 0.017058985
000040 8b a5 76 3d 90 3c 96 3d 56 4b 28 be 39 77 ba bc
       0.060216468 0.0733577 -0.16434988 -0.022761928
000050 a9 b0 85 3e 24 4c b5 3d 91 10 57 3d 21 a4 11 3d
       0.26111344 0.08852413 0.052506033 0.035556916
000060 67 03 40 be eb 61 14 bd bd c8 af 3c 89 6d b4 bd
       -0.18751298 -0.036226194 0.021458024 -0.08809955
000070 b6 60 62 bc bc 72 04 be 8a 04 37 3e a2 56 21 be
       -0.013817003 -0.12934393 0.17872825 -0.15755704
000080 5e bd 8a 3d 6b 97 82 bd 66 79 9a bb 92 91 85 3d
       0.067744 -0.06376537 -0.004714179 0.06521906
000090 cc c9 00 3e 43 a4 d9 3c c0 04 42 3c 2c ca 49 3e
       0.1257698 0.026567584 0.011841953 0.19706029
0000a0 56 94 de 3c 54 5a 2d 3e 42 d8 66 be 9d 6f a8 3c
       0.027170341 0.16928989 -0.22543433 0.020561034
0000b0 78 f1 22 be 54 c5 58 bc d1 bb 2c be 3e 83 fe 3d
       -0.15912426 -0.01323064 -0.16868521 0.12427376
0000c0 91 1b cf bd bf 5d 26 be 82 4c 1d be 01 e1 e3 3b
       -0.1011268 -0.16246699 -0.15361217 0.006954313
0000d0 f0 81 cf bd 09 33 b2 bd 91 72 e1 3d 40 96 ee bb
       -0.101322055 -0.087011404 0.1100818 -0.007281095
0000e0 5d c6 02 3d 57 ec 09 3e 6f 14 13 3e 68 74 96 bd
       0.031927455 0.13469063 0.14363264 -0.073464215
0000f0 0f e6 4c be 36 f5 5a be d5 6f ce bd f7 1f 33 bd
       -0.20009635 -0.21382603 -0.10079924 -0.043731656

layers.1.lin_neigh.weight f4 [64, 64]
000000 30 3f 8f bd 6e ba 5f 3e d4 12 da 3c d9 34 aa 3d
       -0.06994474 0.21848461 0.026620306 0.08310861
000010 ae 84 c8 3d 47 90 45 3e 18 96 a6 3d e0 f4 ab 3c
       0.09790932 0.19293319 0.08134097 0.020990789
000020 0a 61 d3 bd 73 30 1d bd 08 87 f2 bc b5 f3 f6 3d
       -0.10321243 -0.038376283 -0.029605404 0.12058202
000030 59 9a bb 3d ca ce de 3c 7f ac de 3d 45 7e 8c bc
       0.09160299 0.027198214 0.10872745 -0.017150054
000040 4f 9c 81 3d 4b 83 21 3e b7 c6 58 bc d6 a9 14 3e
       0.063286416 0.1577274 -0.013230971 0.14517912
000050 2b 08 ab 3d 59 f7 8a bb 30 a6 82 3d 3c 41 95 3c
       0.08351167 -0.004240912 0.06379354 0.018219583
000060 d7 4c 5e 3e 3c 58 67 bc 6f 26 b4 3d b4 9f 16 bd
       0.21709 -0.014120158 0.08796393 -0.0367734
000070 e0 2c ef bb 66 d1 9f 3d 87 4b 74 bd af ce 2c bb
       -0.0072990507 0.078036115 -0.05964234 -0.002636831
000080 bd 9b 21 bd e6 0b b8 bd 9d c9 1a 3e 10 08 47 be
       -0.039455164 -0.089866444 0.15115972 -0.1943667
000090 3c 34 54 3d a8 48 ce 3b 9d 80 b3 bb 58 1a 31 3e
       0.051807627 0.0062952824 -0.0054779784 0.17295206
0000a0 47 13 53 bc ef 58 f1 3c 6e 12 a4 3d 7c 9f e4 bd
       -0.012883014 0.029461352 0.08011328 -0.11163232
0000b0 0b 13 9c be c4 86 cd 3d bc 18 ac 3c 63 db 0c bc
       -0.3048328 0.1003547 0.021007888 -0.008597228
0000c0 ad 6b 3d 3d 98 1f 01 be 36 a6 c4 bc ba b0 1b 3e
       0.046245266 -0.12609708 -0.024005037 0.15204135
0000d0 6e 72 02 be 65 ca 40 3d ea 76 8d 3d 80 7c ac bd
       -0.12738964 0.04706802 0.06907447 -0.08422184
0000e0 8b ce 02 3e 05 8f 7b be d6 6e 82 bd d1 6c 72 3e
       0.12774102 -0.24566276 -0.063687965 0.23674323
0000f0 d1 0a 26 be 1e a6 23 3e 76 6b 4e be 0c 4b 7d 3d
       -0.16215064 0.15981337 -0.2015818 0.06183915
000100 39 db 81 bd 96 de 02 be 13 65 99 3e 82 5d 09 be
       -0.063406415 -0.12780222 0.29959926 -0.13414577
000110 c0 84 98 3d 69 4a 01 be eb d7 b8 bd 98 6e 96 be
       0.07447195 -0.12626041 -0.09025558 -0.2938125
000120 c8 32 06 3d 4b f8 1a be 49 93 b0 bc 30 31 4c be
       0.032763273 -0.15133779 -0.021554606 -0.19940639
000130 df bd 3e bd ae df 4c bd 91 2c 69 3d 2f 6f 86 3d
       -0.046567794 -0.050018005 0.056927267 0.06564175
000140 d1 f5 c3 bd c8 18 86 be 6a 42 c3 bb ea d7 5e bc
       -0.0956837 -0.26190782 -0.005958845 -0.013601283
000150 27 7c 46 bc a7 1e db 3d 0d 04 11 3e f9 09 47 3d
       -0.012114561 0.10699206 0.14161702 0.048593495
000160 5f f8 73 be c5 41 e1 bd 8c b3 9b be af b4 09 3c
       -0.23825215 -0.10998873 -0.3041042 0.008404895
000170 73 35 ed 3c 4a 3b 56 be 52 cc 66 bd f4 f7 9a 3d
       0.02895615 -0.20921054 -0.0563472 0.075668246
000180 28 1f e5 3d 38 53 7e be 6d e9 00 bc 6c 6f 78 bd
       0.11187583 -0.24836433 -0.007868153 -0.060653135
000190 2e 50 0b be 31 dc 16 ba fa a6 a9 3c 74 e9 80 bd
       -0.13604805 -0.0005754857 0.020709503 -0.06294528
0001a0 c9 70 0d bd 6b b1 ce 3c 48 10 53 be e3 d3 2a be
       -0.03453139 0.025231084 -0.2061168 -0.16682391
0001b0 2e 2b 92 bd 66 0b 22 be d8 58 2c bd ca f4 83 3d
       -0.07137142 -0.1582466 -0.042076916 0.06443174
0001c0 16 0c 66 bd ae f4 a8 bd ab f6 ce 3d f3 d5 ca bd
       -0.05616387 -0.08249794 0.10105642 -0.09904089
0001d0 4b fb 0e be 93 02 49 bd b3 6e 44 be cb d3 74 be
       -0.13963048 -0.04907472 -0.19182853 -0.23908918
0001e0 c0 32 d3 bc d3 29 74 3d 25 6f 01 be dd 92 77 3d
       -0.025781035 0.0596102 -0.12640055 0.060442794
0001f0 e7 83 2d 3c f0 8c 63 3d 4b be 64 bb 3a 0c d2 bd
       0.01059053 0.05555433 -0.0034903463 -0.10256238
000200 04 1e 80 bd f0 65 84 bd 33 ee 7b 3d 06 a3 42 3d
       -0.06255725 -0.064647555 0.06150646 0.047518753
000210 cf a8 51 3b db f2 a7 bd 76 91 b9 3a 58 67 22 be
       0.0031991487 -0.08200618 0.0014157731 -0.15859735
000220 e3 f7 ac 3b cb f2 21 3d 20 ff b8 bd 1b 9d 43 3e
       0.005278574 0.039538186 -0.09033036 0.191029
000230 52 02 0b bd d9 0c eb bd 01 70 e2 bd ad 59 06 3d
       -0.03393776 -0.1147706 -0.11056519 0.032800365
000240 76 c3 6a 3d c2 44 a6 bd e5 af d3 3d a4 71 3a bd
       0.057315312 -0.08118583 0.103362836 -0.045518532
000250 92 42 0d 3c be 05 8c 3d 59 08 5e be 24 52 38 be
       0.008621829 0.06837033 -0.21682872 -0.18000084
000260 2c 9a 68 3c 1a 62 46 3e ef 1a 7c be b0 98 80 bd
       0.014196914 0.1937336 -0.2461965 -0.06279123
000270 85 e2 08 be 92 30 be bd 47 a5 18 3e 23 10 8a 3d
       -0.1336766 -0.09286608 0.14906798 0.06741359
000280 dc fe 88 3d 4f 96 27 3c cf 9b b3 bd 04 b4 1b 3d
       0.066892356 0.010228707 -0.087699525 0.038013473
000290 72 cc 18 bd 0e d2 06 be 80 d1 5d 3e 10 fb e2 bd
       -0.03730435 -0.13166067 0.21661949 -0.110830426
0002a0 d6 02 a5 bd 3b 2a 96 3d 4b 41 c7 bc 2e 89 51 3d
       -0.080571815 0.073322736 -0.024323126 0.051156215
0002b0 b7 1e ee bc c9 b5 98 bd 60 71 47 be 52 5d 82 3e
       -0.02906738 -0.07456548 -0.19476843 0.25461823
0002c0 bb 53 44 bb 9b cf ab bd 17 af 71 3d 1c a6 c2 3c
       -0.0029957134 -0.08389207 0.05900487 0.023760848
0002d0 e0 ba 02 be 43 a6 0e bd 44 57 2e be 8f 40 48 bd
       -0.127666 -0.03482653 -0.17025477 -0.048889693
0002e0 75 07 7f 3e 03 25 b1 3d 0d 13 31 be 72 74 b8 3c
       0.24905188 0.086496376 -0.17292424 0.022516463
0002f0 46 36 8e 3c f4 5c 1e be de 6f 16 be 83 e8 77 bd
       0.017359864 -0.15465146 -0.14691111 -0.060524475
000300 b9 85 9e bd e1 99 cb bd 73 28 76 bd d8 4f 9e bb
       -0.07740349 -0.099414594 -0.06009717 -0.0048312955
000310 46 fd 12 3d 60 bd f6 3b 2c 46 18 3d 4d 92 03 bd
       0.03588607 0.0075298995 0.037176296 -0.032121945
000320 72 a9 8c 3d 89 66 83 3c 18 72 60 3d 0f ff 5f bd
       0.06868257 0.016040104 0.05479631 -0.054686602
000330 6d 2f 9e 3c a4 da 1f 3d e3 3b 67 3d 75 e5 6b bd
       0.019309724 0.03902687 0.056453597 -0.057591874
000340 b1 9b 72 bd 23 16 40 3d 7d f6 44 be c2 09 db bd
       -0.05923051 0.04689611 -0.19234653 -0.106952205
000350 d5 c4 19 bd 85 ec 36 bd 7a aa 5d ba 93 22 f8 3d
       -0.03754123 -0.044659156 -0.0008455884 0.121159695
000360 d3 39 ed bd ce 98 52 be 89 2f 0a be 78 47 ae bd
       -0.11583295 -0.20566103 -0.13494696 -0.08509725
000370 f1 29 7c be 2e e5 63 be d3 ce 3b bd 50 19 00 be
       -0.24625374 -0.22255394 -0.04585154 -0.12509656
000380 3f 9c 92 bd 57 40 88 3d e5 c1 cc bd 9d 8c 89 3d
       -0.07158708 0.06652897 -0.0999792 0.06716273
000390 52 29 52 be 25 93 8d bd e7 8b 32 bd b7 cf 89 3c
       -0.20523575 -0.06912831 -0.043590453 0.016822679
0003a0 9d bc 5f bc 59 42 2a be b2 ff c9 bd 58 8c 73 3d
       -0.013655809 -0.16626872 -0.09863223 0.059460014
0003b0 9c 1d 0c bd 39 07 aa bd 4b bb 77 bc 86 cb df bd
       -0.034207925 -0.08302159 -0.015120338 -0.10927491
0003c0 51 0d 08 bd a4 f0 2a 3e c4 17 54 3d 0a 8f 58 bd
       -0.033215825 0.1669336 0.051780477 -0.052870788
0003d0 96 d6 f4 bd a7 6e 43 be 01 b4 db bd b0 10 27 bd
       -0.119549915 -0.1908518 -0.107276924 -0.0407874
0003e0 6a f7 2f 3e 82 46 2f 3d 70 ad 3e be 4e 29 31 bb
       0.17184225 0.04279185 -0.18620849 -0.0027032676
0003f0 40 7f 50 3b a8 b1 e0 3d 0d 97 5f bd 3f ab 92 bd
       0.0031814128 0.10971385 -0.054587413 -0.07161569

layers.1.bn.weight f4 [64]
000000 53 20 93 3f c0 7f 81 3f d1 db 6e 3f 23 13 77 3f
       1.149424 1.0117111 0.93304163 0.96513575
000010 37 ac 70 3f 31 c9 7a 3f 85 ce 7b 3f 1a 8b 88 3f
       0.9401278 0.97963244 0.98362 1.066745
000020 ce 84 8f 3f 58 06 8b 3f 53 b8 80 3f 86 2a 3a 3f
       1.1212404 1.0861311 1.0056251 0.72721136
000030 c9 61 90 3f 9c 20 7a 3f 24 a0 7b 3f 89 fa 8f 3f
       1.1279842 0.9770601 0.9829123 1.1248332
000040 c2 db 8c 3f bc e4 6f 3f e1 2b 83 3f 36 6b 5d 3f
       1.1004565 0.93708396 1.0247766 0.86491716
000050 46 0f 41 3f a8 b9 7b 3f 79 e3 5e 3f 89 62 93 3f
       0.7541393 0.98330164 0.87065846 1.1514446
000060 9e ab 22 3f e7 30 97 3f 2d cc 76 3f 5b 75 69 3f
       0.6354312 1.1811799 0.964053 0.91194695
000070 f7 ed 87 3f 1f 31 86 3f b3 a4 60 3f 3c c8 8f 3f
       1.0619496 1.048374 0.8775131 1.1232982
000080 fe 93 61 3f a2 0d 4b 3f d1 d5 71 3f b6 e1 74 3f
       0.88116443 0.7931768 0.9446688 0.9565691
000090 5a f9 76 3f 07 c9 84 3f a5 67 94 3f ae e0 65 3f
       0.9647423 1.0373849 1.159413 0.8979596
0000a0 f3 a4 8b 3f 6c 6e 6c 3f 7d bd 87 3f 13 85 75 3f
       1.0909714 0.9235599 1.0604702 0.9590618
0000b0 3a 0f 87 3f 18 61 8e 3f 34 c8 91 3f 97 89 4a 3f
       1.0551522 1.1123381 1.1389222 0.79116195
0000c0 6c a6 8e 3f 6e b6 9c 3f 69 39 6f 3f 41 60 79 3f
       1.1144538 1.2243173 0.93446976 0.97412497
0000d0 f8 36 8b 3f b9 dc 86 3f ce 4e 8a 3f 61 d6 8f 3f
       1.087615 1.0536109 1.0805299 1.1237298
0000e0 c3 46 95 3f 55 cc 64 3f 23 bd 6a 3f 1f 22 8f 3f
       1.166222 0.89374286 0.9169485 1.1182288
0000f0 e1 1a 84 3f 9c b7 89 3f 5d c0 87 3f 96 17 8f 3f
       1.0320703 1.0759158 1.060558 1.1179073
