outputs/models/nowcast_s4.pt (torch, 272162 bytes, 14 tensors)

in_lin.weight f4 [96, 15]
0.04262306 0.0148934275 -0.19912107 -0.1653597 -0.2544836 -0.23807906 0.2516493 0.30722636
0.1156627 0.28441778 -0.07742137 -0.055828493 0.24265218 -0.03630265 0.08504458 0.12514111
0.14027368 -0.17437823 -0.095630094 -0.23828995 0.011375749 -0.08859583 0.1538276 0.065235205
0.26007885 0.037030388 0.22667268 0.11353393 0.20256683 -0.13427807 0.21400148 0.17055446
-0.1046073 0.14364865 0.23870395 -0.1459916 -0.10812038 0.27069297 0.2595693 0.10554745
0.093944415 0.28341863 0.24381639 -0.17486647 -0.12513599 0.22631711 0.12095275 -0.11220547
-0.10608464 0.25056887 -0.16171606 0.16037528 0.20056075 -0.2309736 -0.25072384 0.07475096
0.17514603 0.23506877 0.024758274 0.20416506 -0.2308384 0.2036234 -0.29803646 0.2176676
0.027992819 0.15949059 0.1509053 -0.21076655 0.040615324 0.07144125 0.09948293 -0.25543576
-0.07835064 -0.1753724 -0.19110858 0.23131867 0.13295667 0.117796205 -0.09048833 -0.20949274
0.054945193 0.23692396 0.20490615 -0.15850618 0.014870034 0.02521491 0.25234583 0.1311645
-0.19754004 -0.2670769 0.081757836 0.109971344 0.15320851 0.16168469 0.22824325 -0.10777828
-0.258072 0.22027324 0.29870915 -0.15215789 -0.11981207 0.31332588 0.2218628 -0.03852107
-0.16860808 0.040188927 -0.2600384 -0.10938128 -0.04072406 -0.06153805 0.10638966 -0.0016742556
-0.21054955 -0.03244763 0.016868437 0.15421055 0.007402836 -0.11582692 0.09150851 0.13697015
0.04920943 -0.08706915 0.07007827 0.088513315 0.14493908 -0.070547946 0.0027487443 0.21826944
0.0073308405 0.15733808 -0.03333645 0.3082178 0.025380919 -0.0777847 0.055524163 -0.019154413
0.19943535 -0.042389404 0.16629663 -0.0667662 0.02268212 0.07580824 -0.23043004 0.11636373
0.19672525 0.17105934 0.017883943 -0.032303747 0.087048344 0.08342552 -0.13612382 0.12091944
-0.23054834 0.030206904 -0.08877526 -0.10803406 -0.19291818 0.2339901 0.0015085983 -0.023378205
-0.106295295 -0.073001765 -0.18235183 0.032796353 -0.209314 -0.12878282 0.11625596 0.19778647
-0.09604527 -0.25435406 0.2525128 0.12633136 0.27791035 -0.0012822421 -0.020005055 0.035607822
0.15282634 0.015297389 -0.13018098 0.23616248 0.12363691 0.016477434 -0.21686769 -0.087341316
-0.09005372 -0.043065365 0.09215035 0.05556388 0.141587 -0.12496515 -0.04112169 0.2131443
0.28676155 -0.24339218 -0.01290836 0.061444573 0.056672744 -0.020760918 0.2457033 -0.2565553
0.15289111 -0.14629003 -0.010786566 0.24938142 -0.062170953 0.10984645 -0.26330146 0.059910547
0.07532591 0.06640484 0.056712713 -0.0043557594 -0.11812994 0.22665574 0.076257125 0.09187059
0.1324134 -0.058887735 0.04562159 0.300209 0.3080674 -0.24252531 -0.21671548 -0.067576475
0.03507548 -0.14435208 0.10141431 -0.24067952 -0.05773032 0.16643141 -0.06590846 -0.09321965
0.1237585 0.22433157 0.06984109 -0.0063962215 0.059919495 -0.20338252 -0.11143954 0.27203763
-0.19310193 0.14221554 -0.11241198 0.10774264 0.11462544 0.18260156 -0.13987689 -0.097374804
-0.15459494 0.07512977 -0.06650426 -0.037426826 -0.19739361 -0.079978615 -0.2374347 -0.24986638
00000000: 8595 2e3d 9003 743c 65e6 4bbe 0e54 29be
00000010: ad4b 82be ffca 73be 2dd8 803e c64c 9d3e
00000020: 91e0 ec3d 359f 913e 188f 9ebd 6bac 64bd
00000030: d079 783e 16b2 14bd da2b ae3d fe24 003e
00000040: e7a3 0f3e 3590 32be b6d9 c3bd 4802 74be
00000050: 5961 3a3c bb71 b5bd fb84 1d3e 099a 853d
00000060: 0e29 853e 2dad 173d e21c 683e 7a84 e83d
00000070: ae6d 4f3e 3180 09be 3423 5b3e d4a5 2e3e
00000080: 5a3c d6bd a218 133e cf6e 743e d27e 15be
00000090: 386e ddbd 4598 8a3e 44e6 843e 4329 d83d
000000a0: ee65 c03d 3f1c 913e 01ab 793e 3210 33be
000000b0: a623 00be acbf 673e 13b6 f73d fbcb e5bd
000000c0: e742 d9bd 904a 803e e598 25be 6b39 243e
000000d0: cc5f 4d3e 5884 6cbe e05e 80be 0817 993d
000000e0: 7b59 333e deb5 703e ddd1 ca3c a510 513e
000000f0: e760 6cbe a782 503e 3c98 98be 41e4 5e3e
00000100: 3251 e53c 8051 233e eb86 1a3e 30d3 57be
00000110: 415c 263d ca4f 923d b5bd cb3d 7ac8 82be
00000120: 4d76 a0bd d394 33be f8b1 43be cdde 6c3e
00000130: cb25 083e 233f f13d f251 b9bd 4485 56be
00000140: 360e 613d 329c 723e ebd2 513e 724f 22be
00000150: 71a1 733c 808f ce3c 7933 813e fd4f 063e
00000160: f047 4abe 4ebe 88be a770 a73d a838 e13d
00000170: b1e2 1c3e ac90 253e 99b8 693e dcba dcbd
00000180: 0322 84be 4f8f 613e 68f0 983e 47cf 1bbe
00000190: 0860 f5bd 406c a03e 0030 633e 45c8 1dbd
000001a0: 99a7 2cbe 259d 243d c123 85be 4b03 e0bd
000001b0: 46ce 26bd 530f 7cbd d2e2 d93d b272 dbba
000001c0: 4d9a 57be cee7 04bd ad2f 8a3c 5fe9 1d3e
000001d0: 7d93 f23b aa36 edbd d068 bb3d e741 0c3e
000001e0: d48f 493d 4f51 b2bd 3285 8f3d 7846 b53d
000001f0: e96a 143e 717b 90bd 4724 343b 0682 5f3e
00000200: 8c37 f03b 3c1d 213e cd8b 08bd b9ce 9d3e
00000210: a5eb cf3c 964d 9fbd 4e6d 633d b7e9 9cbc
00000220: c838 4c3e 83a0 2dbd aa49 2a3e b8bc 88bd
00000230: dacf b93c 5a41 9b3d daf5 6bbe 1b50 ee3d
00000240: 5872 493e 2e2a 2f3e 5981 923c ef50 04bd
00000250: 6746 b23d 00db aa3d 0b64 0bbe 9da4 f73d
00000260: dd14 6cbe 7874 f73c cecf b5bd f640 ddbd
00000270: 588c 45be 1a9b 6f3e 29bc c53a a683 bfbc
00000280: 59b1 d9bd f381 95bd 70ba 3abe 7855 063d
00000290: 6956 56be a5df 03be 9b17 ee3d 8988 4a3e
000002a0: 62b3 c4bd b23a 82be 5c49 813e 025d 013e
000002b0: 444a 8e3e e810 a8ba a4e1 a3bc 82d9 113d
000002c0: 827e 1c3e e6a1 7a3c 2a4e 05be 94d4 713e
000002d0: 5935 fd3d affb 863c 9012 5ebe 01e0 b2bd
000002e0: 166e b8bd 4f65 30bd 53b9 bc3d f396 633d
000002f0: 2ffc 103e bbed ffbd 386f 28bd 8042 5a3e
00000300: 69d2 923e cd3b 79be 967d 53bc 4ead 7b3d
00000310: ae21 683d cd12 aabc a599 7b3e 375b 83be
00000320: 7d8f 1c3e 0ecd 15be 23ba 30bc d85d 7f3e
00000330: f8a6 7ebd 2df7 e03d 73cf 86be c364 753d
00000340: 7844 9a3d 43ff 873d 974b 683d c2ba 8ebb
00000350: 1cee f1bd 7118 683e b22c 9c3d a626 bc3d
00000360: 6197 073e 4434 71bd b4dd 3a3d feb4 993e
00000370: 03bb 9d3e 8e58 78be aaea 5dbe 8965 8abd
00000380: 4eab 0f3d 08d1 13be 4eb2 cf3d b174 76be
00000390: a176 6cbd ff6c 2a3e 04fb 86bd f2e9 bebd
000003a0: 1975 fd3d 2db7 653e d808 8f3d 6597 d1bb
000003b0: 256e 753d 8243 50be 6a3a e4bd 8448 8b3e
000003c0: 83bc 45be f3a0 113e 4138 e6bd 2ca8 dc3d
000003d0: bec0 ea3d e7fb 3a3e e33b 0fbe 716c c7bd
000003e0: 234e 1ebe a3dd 993d 6333 88bd df4c 19bd
000003f0: 8d21 4abe d4cb a3bd 1522 73be f9dc 7fbe

in_lin.bias f4 [96]
0.17485927 0.21944669 0.14759107 0.24510355 0.11701437 -0.11477163 -0.19763899 0.20034513
0.20050725 -0.062253837 0.030256703 0.2166936 0.23834868 -0.09312542 0.020667562 -0.21379852
0.021370612 -0.2177823 -0.04651384 0.07163959 0.24632807 0.0056469394 -0.18828619 0.12146584
0.22395799 -0.10175524 0.1404825 -0.011847885 -0.099049486 -0.021778101 -0.21766363 0.046615794
-0.055153526 -0.118281014 0.016460294 0.1783581 -0.053321593 -0.16179107 0.04377801 -0.054936092
0.24801075 0.049521077 0.077523455 -0.028397657 -0.07263443 0.115527 0.20353772 0.24213833
-0.05794195 -0.06482998 0.26964462 0.18058358 0.058879837 -0.135832 -0.12595536 -0.10323211
0.23521407 0.27588004 0.09541831 0.22382075 0.0064813043 0.21968979 0.0066335644 -0.13050605
-0.1995974 0.17002413 0.16744943 0.08268724 0.20994078 0.005463417 0.14496247 0.1856433
0.25819123 -0.13291351 -0.21809305 -0.03193879 0.003659828 0.098682195 0.0069189724 0.15545528
-0.08394361 0.019931117 -0.074998684 0.037185818 -0.082809694 -0.20142059 -0.01909715 -0.07655865
0.28641483 -0.11144484 0.014311494 0.06534809 0.16937517 0.2311101 0.18268156 -0.054127723
00000000: 4f0e 333e a2b6 603e 1d22 173e 6dfc 7a3e
00000010: 3ba5 ef3d 630d ebbd e061 4abe 4627 4d3e
00000020: c651 4d3e e1fd 7ebd e8dc f73c ede4 5d3e
00000030: ad11 743e 8ab8 bebd 054f a93c 00ee 5abe
00000040: 6c11 af3c 5302 5fbe 4c85 3ebd c7b7 923d
00000050: 6d3d 7c3e f609 b93b 18ce 40be 15c3 f83d
00000060: 3e55 653e 0d65 d0bd a5da 0f3e a21d 42bc
00000070: 75da cabd fd67 b2bc 37e3 5ebe 34f0 3e3d
00000080: aae8 61bd 513d f2bd bdd7 863c 81a3 363e
00000090: be67 5abd 8fac 25be 9250 333d ab04 61bd
000000a0: 88f6 7d3e 9dd6 4a3d 9ec4 9e3d 34a2 e8bc
000000b0: 5cc1 94bd 6b99 ec3d 316c 503e 1cf3 773e
000000c0: 8a54 6dbd 95c5 84bd dc0e 8a3e e7ea 383e
000000d0: fc2b 713d 8b17 0bbe 71fa 00be 5b6b d3bd
000000e0: f5db 703e 2640 8d3e ad6a c33d 4431 653e
000000f0: 1f61 d43b 5cf6 603e 5f5e d93b 61a3 05be
00000100: 4363 4cbe ce1a 2e3e dd77 2b3e ed57 a93d
00000110: b7fa 563e 7706 b33b 0b71 143e 4719 3e3e
00000120: a431 843e 7b1a 08be c953 5fbe 40d2 02bd
00000130: bad9 6f3b e419 ca3d 8cb8 e23b ab2f 1f3e
00000140: a1ea abbd 9546 a33c e998 99bd 2850 183d
00000150: 2198 a9bd 3341 4ebe a071 9cbc c8ca 9cbd
00000160: f7a4 923e 313d e4bd c27a 6a3c 38d5 853d
00000170: af70 2d3e 20a8 6c3e e010 3b3e 08b5 5dbd

layers.0.lin_self.weight f4 [96, 96]
-0.047452338 0.07935269 0.07656634 -0.047576286 -0.14352977 0.11360912 0.01247288 0.09377509
0.081792615 -0.06294144 0.092071615 0.04656792 0.13975786 -0.07092344 -0.13138437 0.04915127
-0.083038054 0.045250144 0.027262045 0.105982766 0.08647918 0.0134814195 0.043444682 -0.06782503
0.092842065 0.02102862 0.08549557 -0.01434382 -0.08607311 0.024472592 0.13486797 0.047694802
0.042688537 -0.02235327 0.08971395 -0.0045988746 0.03248669 -0.008219186 -0.07458108 0.08867348
0.13769989 0.10717072 0.022585992 0.01970703 -0.012261417 -0.0644347 0.09646586 0.02865497
0.021608574 -0.012438503 -0.024081916 0.019597517 0.08304576 -0.111201145 -0.11174366 -0.08762073
0.027754208 0.01321891 -0.014392427 -0.052354276 -0.008483576 0.09205044 -0.014393688 -0.08773158
-0.06002414 0.11032279 0.09537633 0.15225866 -0.07825721 0.13550915 0.04896612 -0.0397662
0.036767974 0.047783103 0.08542145 -0.16194724 -0.049448747 0.057341013 0.041543547 0.094912015
-0.050098415 0.068433166 0.026506986 0.03900817 -0.058919415 -0.06516217 0.047689255 0.01649439
0.08746048 0.094287746 -0.05108947 0.12216499 0.029213665 0.015473518 -0.035244793 -0.0005843551
-0.055246234 -0.08905988 -0.06858954 0.026435714 0.06109091 -0.0060587074 0.037334044 -0.036910303
-0.1438103 0.12734963 -0.10021077 -0.11338986 -0.09441129 0.16367456 0.15256299 0.06444482
0.06511595 -0.022688644 -0.043813437 0.037091363 0.022974018 0.035112333 0.11974433 -0.07610219
0.10797742 -0.17319313 0.0063846204 0.028388467 0.0070782984 0.08727307 -0.110324115 -0.11801057
-0.031573057 0.14778793 0.054566637 -0.051360406 0.047379512 0.0095564565 0.04950795 -0.029757958
-0.07096336 -0.025856188 0.043223694 0.048632167 0.101095 -0.007655624 -0.027795278 -0.018245148
0.0051124003 -0.043406554 0.0110915275 0.047810152 -0.029183283 0.0057158163 0.15042329 0.14606713
0.1383695 0.015857115 -0.08775646 -0.019244198 0.10940164 0.04930416 0.03178491 0.120680206
0.008578633 -0.052827094 -0.058533262 -0.0036097795 -0.06405818 0.002150972 -0.032506008 0.112551294
0.11425101 0.10008829 -0.038133662 0.00020247565 0.09974699 0.12247944 -0.02876566 0.08273438
0.051284347 0.15358418 0.04704982 -0.009149371 -0.049536344 -0.025201146 -0.056249663 0.107552364
-0.05034296 -0.13069548 0.048031125 0.07738169 -0.029112892 0.110371955 -0.10116088 0.070411116
-0.035289206 0.06563773 -0.026836252 0.059444577 -0.022458943 0.09254056 0.08668444 -0.018696394
0.07221315 0.07222664 -0.028273435 -0.090793654 0.09694221 0.0065080794 0.07157825 0.066305965
0.0089596305 -0.06570918 -0.0040604603 0.013403284 0.064098366 -0.023230942 0.033600286 -0.06956907
0.094511196 0.04696266 0.09343944 0.070524246 -0.09037736 0.082429565 0.09990219 0.013675811
-0.015935099 -0.030581059 0.017923905 -0.073933855 0.06866329 -0.059213523 0.052074406 0.017383173
-0.057700798 0.023964996 -0.0057578725 -0.017382307 -0.030246183 0.054711007 0.08958121 1.4517993e-05
-0.03019231 -0.060816333 0.005092727 -0.041270364 0.04758685 -0.08323395 0.029599722 -0.03001344
-0.013836048 -0.07300028 0.052584875 0.018911535 -0.07873748 0.07724281 0.018516444 0.0843559
00000000: 625d 42bd aa83 a23d d0ce 9c3d 5adf 42bd
00000010: 78f9 12be e6ab e83d 0d5b 4c3c 280d c03d
00000020: e382 a73d 71e7 80bd 0b90 bc3d 01be 3e3d
00000030: af1c 0f3e 4f40 91bd a089 06be d852 493d
00000040: db0f aabd 3758 393d a754 df3c 7e0d d93d
00000050: ff1b b13d 2ce1 5c3c 0df3 313d d9e7 8abd
00000060: fb23 be3d 3644 ac3c 4d18 af3d 5702 6bbc
00000070: 1947 b0bd bf7a c83c d41a 0a3e a05b 433d
00000080: 2dda 2e3d 341e b7bc f3bb b73d 28b2 96bb
00000090: c310 053d c4a9 06bc f7bd 98bd 719a b53d
000000a0: 3301 0d3e 537c db3d 4206 b93c a370 a13c
000000b0: 1ce4 48bc 57f6 83bd e58f c53d d4bd ea3c
000000c0: 7704 b13c ddca 4bbc 7047 c5bc f98a a03c
000000d0: e513 aa3d 6dbd e3bd dcd9 e4bd 7f72 b3bd
000000e0: cb5c e33c 2194 583c 37ce 6bbc 7071 56bd
000000f0: b2fe 0abc f184 bc3d 81d3 6bbc 9dac b3bd
00000100: dfdb 75bd eaf0 e13d aa54 c33d b2e9 1b3e
00000110: 5145 a0bd e9c2 0a3e b390 483d e2e1 22bd
00000120: 049a 163d 37b8 433d 71f1 ae3d 7fd5 25be
00000130: c58a 4abd 69de 6a3d 9129 2a3d 3b61 c23d
00000140: ff33 4dbd b026 8c3d 2e25 d93c 08c7 1f3d
00000150: 7c55 71bd be73 85bd cf55 433d 3e1f 873c
00000160: 7b1e b33d ef19 c13d 3143 51bd a331 fa3d
00000170: 7f51 ef3c a384 7d3c d85c 10bd 682f 19ba
00000180: e049 62bd 0765 b6bd ac78 8cbd b68f d83c
00000190: 763a 7a3d 1f88 c6bb 95eb 183d 422f 17bd
000001a0: 0243 13be f167 023e 4e3b cdbd f138 e8bd
000001b0: b55a c1bd 4e9a 273e 7939 1c3e a5fb 833d
000001c0: 835b 853d 89dd b9bc b875 33bd 1ded 173d
000001d0: 0234 bc3c f3d1 0f3d 843c f53d 77db 9bbd
000001e0: 4423 dd3d 8a59 31be 1436 d13b ee8e e83c
000001f0: 12f1 e73b 39bc b23d 9cf1 e1bd 87af f1bd
00000200: c052 01bd b855 173e 4481 5f3d 4a5f 52bd
00000210: 0511 423d af92 1c3c d9c8 4a3d f6c6 f3bc
00000220: 3d55 91bd 5bd0 d3bc 540b 313d 8632 473d
00000230: e50a cf3d 07dc fabb ecb2 e3bc d976 95bc
00000240: ec85 a73b 12cb 31bd 3db9 353c 94d4 433d
00000250: c811 efbc be4b bb3b 9008 1a3e 9f92 153e
00000260: bcb0 0d3e c8e6 813c a9b9 b3bd 02a6 9dbc
00000270: f80d e03d 29f3 493d e530 023d 2f27 f73d
00000280: 658d 0c3c 3961 58bd 93c0 6fbd 0d92 6cbb
00000290: ef30 83bd 52f7 0c3b 0525 05bd 4b81 e63d
000002a0: 6ffc e93d 17fb cc3d 0b32 1cbd a54f 5439
000002b0: 2648 cc3d 80d6 fa3d f6a5 ebbc a570 a93d
000002c0: 890f 523d 2c45 1d3e 50b7 403d 3ee7 15bc
000002d0: 9fe6 4abd a272 cebc 0c66 66bd 6a44 dc3d
000002e0: 6b34 4ebd 09d5 05be 49bc 443d 4b7a 9e3d
000002f0: 297e eebc b10a e23d 6f2d cfbd b433 903d
00000300: 6a8b 10bd 136d 863d b3d7 dbbc 287c 733d
00000310: d1fb b7bc e885 bd3d 9d87 b13d 2e29 99bc
00000320: 7de4 933d 90eb 933d b19d e7bc 06f2 b9bd
00000330: a389 c63d ba41 d53b 9e97 923d 6ccb 873d
00000340: 6acb 123c 8992 86bd 9c0d 85bb 7399 5b3c
00000350: 0146 833d d14e bebc 74a0 093d 3b7a 8ebd
00000360: 168f c13d eb5b 403d 2d5d bf3d 046f 903d
00000370: c417 b9bd d5d0 a83d 8599 cc3d 8210 603c
00000380: 538a 82bc 2185 fabc 27d5 923c a26a 97bd
00000390: 579f 8c3d e189 72bd f94b 553d 2867 8e3c
000003a0: ac57 6cbd 3d52 c43c 89ac bcbb 5765 8ebc
000003b0: d8c6 f7bc a618 603d 5a76 b73d 4e92 7337
000003c0: dd55 f7bc 8c1a 79bd e4e0 a63b 1d0b 29bd
000003d0: 6eea 423d 9076 aabd 1e7b f23c bfde f5bc
000003e0: 97b0 62bc 2c81 95bd 3d63 573d 5dec 9a3c
000003f0: 1e41 a1bd 7a31 9e3d ccaf 973c c9c2 ac3d

layers.0.lin_self.bias f4 [96]
-0.054168403 0.06916505 -0.039214 0.071014404 0.04581933 -0.02512151 -0.068559445 -0.056360967
0.09899206 -0.041490056 0.094761066 0.040903714 0.032078203 0.04092894 0.02875175 -0.025116317
0.04320634 -0.020527346 0.026246265 0.09050284 -0.0148391295 -0.016685432 -0.042136554 -0.008231007
-0.035649367 0.07764403 0.11696169 0.09399085 0.09487822 -0.0051268516 -0.06074769 0.03133145
-0.008086276 0.01219728 0.10805668 0.039547883 -0.030704597 0.08976346 0.09496048 0.020866096
0.0960355 0.07446105 0.08998661 0.03122932 0.08739785 -0.036656797 0.056978375 0.055477392
0.038843643 0.110302486 0.110902175 0.10687724 -0.029624045 0.04820819 0.09224379 0.049877442
-0.05662854 -0.08419537 0.09612521 0.043116454 -0.01291745 0.02565362 0.04634768 0.104689956
0.084317915 0.11697795 -0.08424805 -0.04622122 -0.029892948 0.0906431 -0.03548939 0.0026796723
0.03449161 -0.052729994 -0.039681066 -0.06810762 -0.024417896 0.06397266 0.035838455 -0.060695164
0.024862489 0.01810689 0.0044736248 0.07922432 0.006866852 -0.071547486 0.035223644 0.023415739
0.010221662 0.024639193 -0.04770279 -0.09825042 0.035296436 -0.073652655 0.05931446 -0.05974946
00000000: b0df 5dbd 68a6 8d3d dc9e 20bd 0070 913d
00000010: 0dad 3b3d a0cb cdbc e568 8cbd c2da 66bd
00000020: 59bc ca3d 7af1 29bd 1712 c23d a78a 273d
00000030: 6f64 033d 1ba5 273d ca88 eb3c bcc0 cdbc
00000040: 22f9 303d f728 a8bc 6802 d73c 8e59 b93d
00000050: d21f 73bc e3af 88bc 6197 2cbd 58db 06bc
00000060: 1205 12bd d503 9f3d 9c89 ef3d 467e c03d
00000070: 834f c23d 26ff a7bb 92d2 78bd 6855 003d
00000080: 4d7c 04bc 1ad7 473c d24c dd3d f6fc 213d
00000090: 3588 fbbc e8d5 b73d a47a c23d 60ef aa3c
000000a0: 43ae c43d 097f 983d e64a b83d a2d4 ff3c
000000b0: a5fd b23d 7025 16bd 2862 693d 433c 633d
000000c0: 831a 1f3d 45e6 e13d ae20 e33d 74e2 da3d
000000d0: 20ae f2bc f375 453d 50ea bc3d 4a4c 4c3d
000000e0: 54f3 67bd 9f6e acbd 4bdd c43d e19a 303d
000000f0: b6a3 53bc 8a27 d23c 11d7 3d3d b067 d63d
00000100: dfae ac3d 2392 ef3d 3e8a acbd 7652 3dbd
00000110: 0ee2 f4bc 17a3 b93d 535d 11bd 719d 2f3b
00000120: 1347 0d3d 68fb 57bd 9d88 22bd 027c 8bbd
00000130: 0a08 c8bc 1904 833d 58cb 123d 7e9b 78bd
00000140: 6bac cb3c e754 943c 7c97 923b 5c40 a23d
00000150: 5403 e13b 7d87 92bd ab46 103d 5dd2 bf3c
00000160: c278 273c 22d8 c93c 0064 43bd 8437 c9bd
00000170: ff92 103d 34d7 96bd b8f3 723d dabb 74bd

layers.0.lin_neigh.weight f4 [96, 96]
0.053178884 -0.013117438 0.017942382 -0.050170306 0.0035019256 0.03164188 0.08585465 0.09094974
0.09215017 -0.083759226 -0.030565543 0.05831214 -0.039881967 -0.07174541 -0.069753416 0.130676
-0.05666679 0.01580828 0.074511684 0.053477734 -0.065777496 0.07662945 0.033186093 -0.056030817
0.0117016565 0.16278228 0.11339045 -0.12844118 -0.07571171 0.026860073 0.07823517 0.14417
-0.01068348 -0.16700514 0.093575895 0.05501822 0.09758938 0.06290681 0.0962896 0.090042144
0.05572044 0.09042385 0.10986816 -0.07818746 0.040845796 0.009544741 0.06998413 -0.0033259701
-0.06153433 0.14590886 0.056537677 0.12721656 0.14219067 0.009344765 -0.1668948 -0.10893648
0.0425156 0.030667773 -0.022305813 0.11015096 -0.057627488 -0.040713556 -0.013980688 -0.11254757
-0.05824065 -0.06724933 -0.031719774 0.010913054 -0.002607512 0.10804585 0.12031189 -0.011179656
-0.077397496 -0.086141005 0.14355302 -0.011273386 0.0013289866 0.105801396 0.02738478 -0.06937409
-0.06373945 -0.03889699 0.098396316 0.02372975 0.036694895 -0.072001144 -0.06768285 -0.10886003
-0.01594068 0.16537845 -0.0768229 0.08271986 -0.058580477 0.06064948 0.023727182 -0.012480137
-0.04729106 -0.09255501 -0.10699491 0.015473818 0.1264005 -0.05074761 -0.024263375 -0.09329542
-0.10000246 0.14025426 -0.0007833872 0.06767123 -0.017479498 0.19504492 0.16253972 -0.093879305
0.11817361 -0.033240642 -0.10467452 -0.08943065 0.069710195 -0.015097898 0.03982232 0.12472839
0.080298394 -0.12799022 -0.06888837 0.07214141 0.10542185 -0.04917193 -0.06468692 -0.07638307
0.045850854 0.112564325 0.07262862 -0.00883761 -0.03634105 -0.058654837 -0.048179556 -0.05366904
0.03576032 -0.027415575 -0.02422459 0.06745075 0.034584504 0.027363481 -0.056527458 0.030274956
-0.10883394 -0.031977925 0.07594212 -0.020986674 -0.09561085 0.029436352 0.1616804 0.049790505
-0.037964076 0.042064115 0.01997323 -0.05201544 -0.07363545 0.07301346 -0.02959702 -0.01451073
-0.09208891 -0.07318848 -0.0016806559 -0.025173387 -0.07177159 0.013927244 0.11570252 0.047040444
0.0966272 0.03645488 -0.06847261 0.09227878 -0.022631781 -0.038296185 0.097025186 0.103491284
0.0726678 -0.015855612 -0.007675691 -0.08009911 -0.0723727 0.10105843 0.049897324 0.06895509
-0.025710335 -0.0088309925 0.10949091 -0.008894098 0.054143846 -0.067365415 -0.05574996 -0.09261967
0.039842054 0.0516387 -0.017383868 -0.024011757 -0.07097016 -0.049185764 0.08911979 -0.042381685
-0.015123654 -0.009883983 0.04710852 0.015120497 0.13059458 -0.033797376 0.06160162 -0.015215474
-0.07809292 0.051846348 0.0572092 -0.006224142 0.04131218 0.06479476 0.049506776 0.09297377
-0.066813886 -0.047622304 0.007877436 -0.02244006 0.04734584 -0.029007865 0.019873187 -0.027270854
0.09680202 -0.13215224 -0.09040719 0.074939206 -0.01878487 -0.003371576 0.08133987 0.012706714
0.05548916 -0.020049369 0.08529449 -0.067224905 0.10249437 0.00019562356 -0.072195895 -0.10069796
-0.0855718 0.10592799 -0.09715213 -0.005102629 0.13144088 -0.08359476 -0.10312368 -0.10194869
0.07721321 -0.012569865 0.10720805 -0.015505667 0.03651343 -0.045456678 -0.008335538 -0.100810185
00000000: 1ad2 593d 86ea 56bc e7fb 923c 617f 4dbd
00000010: 9080 653b ea9a 013d 90d4 af3d db43 ba3d
00000020: 3ab9 bc3d f589 abbd 9764 fabc b6d8 6e3d
00000030: 465b 23bd 42ef 92bd e1da 8ebd eecf 053e
00000040: 701b 68bd 5e80 813c 9599 983d 780b 5b3d
00000050: 5ab6 86bd e7ef 9c3d 24ee 073d 9280 65bd
00000060: 4eb8 3f3c 66b0 263e 4139 e83d 1686 03be
00000070: be0e 9bbd a809 dc3c c339 a03d 4da1 133e
00000080: c309 2fbc 6503 2bbe b8a4 bf3d c95a 613d
00000090: f1dc c73d 49d5 803d 7b33 c53d 0468 b83d
000000a0: 1e3b 643d 2430 b93d 8f02 e13d bf20 a0bd
000000b0: ec4d 273d 8c61 1c3c d753 8f3d 85f8 59bb
000000c0: 6c0b 7cbd 2269 153e 0d94 673d 0f45 023e
000000d0: 6e9a 113e c91a 193c 78e6 2abe 171a dfbd
000000e0: d624 2e3d fb3a fb3c aeba b6bc d496 e13d
000000f0: cd0a 6cbd 42c3 26bd 410f 65bc 577f e6bd
00000100: bf8d 6ebd 04ba 89bd 98ec 01bd abcc 323c
00000110: cbe2 2abb 2547 dd3d 1566 f63d e02a 37bc
00000120: 9482 9ebd b26a b0bd 90ff 123e 02b4 38bc
00000130: 6431 ae3a 67ae d83d 0c56 e03c 0114 8ebd
00000140: d489 82bd 7352 1fbd 0284 c93d e564 c23c
00000150: 634d 163d 5675 93bd 4e9d 8abd 02f2 debd
00000160: 0796 82bc f858 293e 5355 9dbd 0869 a93d
00000170: 15f2 6fbd 976b 783d 825f c23c 7d79 4cbc
00000180: 45b4 41bd 7b8d bdbd 2620 dbbd e685 7d3c
00000190: 226f 013e badc 4fbd fcc3 c6bc ab11 bfbd
000001a0: 17ce ccbd d09e 0f3e 3a5c 4dba 3797 8a3d
000001b0: 2a31 8fbc dbb9 473e d070 263e cb43 c0bd
000001c0: 0105 f23d 5727 08bd 985f d6bd 6b27 b7bd
000001d0: 38c4 8e3d 2d5d 77bc bb1c 233d 9971 ff3d
000001e0: 7c73 a43d de0f 03be 5915 8dbd e0be 933d
000001f0: 69e7 d73d 8168 49bd 937a 84bd ba6e 9cbd
00000200: 1bce 3b3d 2088 e63d 50be 943d 9fcb 10bc
00000210: 5ada 14bd 0e40 70bd ed57 45bd 11d4 5bbd
00000220: 6a79 123d a196 e0bc a672 c6bc 9e23 8a3d
00000230: 7ba8 0d3d 6129 e03c 5689 67bd 2f03 f83c
00000240: 54e4 debd 49fb 02bd 8b87 9b3d 3fec abbc
00000250: 9fcf c3bd 8124 f13c 8c8f 253e 21f1 4b3d
00000260: 3880 1bbd 6c4b 2c3d e69e a33c 240e 55bd
00000270: 2fce 96bd 1588 953d 7375 f2bc 6abe 6dbc
00000280: 1c99 bcbd d8e3 95bd 7449 dcba 6b38 cebc
00000290: fcfc 92bd 182f 643c 71f5 ec3d 7bad 403d
000002a0: 7be4 c53d b651 153d 5e3b 8cbd a8fc bc3d
000002b0: 4966 b9bc 76dc 1cbd 24b5 c63d 3df3 d33d
000002c0: dbd2 943d a1e3 81bc 5d84 fbbb 010b a4bd
000002d0: 2338 94bd b9f7 ce3d 2361 4c3d 5438 8d3d
000002e0: 7b9e d2bc deaf 10bc c53c e03d 8db8 11bc
000002f0: f0c5 5d3d e1f6 89bd 125a 64bd 62af bdbd
00000300: 6c31 233d 1a83 533d 9d68 8ebc 4eb4 c4bc
00000310: ce58 91bd 0377 49bd 7084 b63d 6b98 2dbd
00000320: 34c9 77bc 6ef0 21bc ddf4 403d f6bb 773c
00000330: 96ba 053e 1e6f 0abd fb51 7c3d 534a 79bc
00000340: 2eef 9fbd d65c 543d 3254 6a3d e3f3 cbbb
00000350: f636 293d 1db3 843d 9ec7 4a3d 0869 be3d
00000360: b8d5 88bd 9b0f 43bd 5c10 013c 37d4 b7bc
00000370: b6ed 413d e7a1 edbc 18cd a23c 2067 dfbc
00000380: 2340 c63d eb52 07be 6827 b9bd ba79 993d
00000390: bae2 99bc a9f5 5cbb 8595 a63d d22f 503c
000003a0: 9a48 633d 933e a4bc e1ae ae3d 36ad 89bd
000003b0: 91e8 d13d 4d20 4d39 71db 93bd bb3a cebd
000003c0: 4540 afbd c6f0 d83d b2f7 c6bd f433 a7bb
000003d0: 7098 063e bb33 abbd 8232 d3bd 7aca d0bd
000003e0: f621 9e3d d6f1 4dbc e58f db3d 7b0b 7ebc
000003f0: 1b8f 153d c830 3abd c891 08bc 9275 cebd

layers.1.lin_self.weight f4 [96, 96]
0.08605012 -0.121925704 -0.08089301 0.05983459 -0.045042835 0.01495507 0.046737805 0.0014998093
0.010351096 -0.0734125 0.060161706 -0.022335516 -0.03531229 0.074772075 0.09967741 0.04545935
0.119403094 0.08093539 -0.04454418 -0.06391188 0.054185178 -0.0022955018 0.113107316 0.117079236
0.034873195 -0.040177148 -0.0074457712 -0.016389016 0.027417475 0.03469047 -0.027489245 -0.06841108
-0.063071236 -0.05286177 0.07605206 0.07741355 -0.038490485 0.012102435 0.032450132 0.103104115
0.024856519 0.015979655 0.048593275 0.107512996 -0.07616171 0.009691183 0.07621828 -0.07629151
0.04973588 0.05309132 -0.10648327 0.07546022 -0.03150538 -0.020661686 0.023580004 -0.05348247
-0.04219498 -0.008435593 -0.10568549 -0.040018074 0.021510413 -0.010500795 0.08143592 -0.11278818
0.07056372 -0.021829762 -0.057191852 0.107763745 -0.07001267 -0.0026161296 0.08662099 0.050017282
-0.051248882 -0.01992794 0.10827089 0.026122438 -0.11180683 -0.043032825 -0.040651128 0.029454026
0.010159721 0.11774305 0.03241856 -0.021751624 0.0780983 -0.04857481 -0.109509006 -0.036034644
0.023505546 0.039131448 -0.0005717217 -0.05463466 0.10956371 0.10254388 0.041579403 -0.078590065
-0.0016119343 -0.030369965 -0.04208958 0.110224105 0.060098797 0.0069107674 0.07765768 0.08289524
-0.049209945 -0.06832615 -0.025488192 -0.07142728 0.054468513 0.03135694 -0.06402147 -0.04315485
-0.0060742362 0.014249403 0.09031501 -0.05210156 -0.044802003 -0.068875745 0.038317565 -0.06310995
0.109828584 0.043099135 0.04219286 0.04095706 0.11033568 -0.046139672 0.028063642 0.07172386
0.03698201 0.10601145 -0.011751235 0.063845955 -0.025212338 -0.07310324 -0.035832807 0.11429779
0.09767028 0.0673345 0.011538672 0.0782783 -0.079805695 -0.07750348 0.041452967 0.02531291
0.08129938 0.13000348 -0.026732428 -0.04353775 -0.024539683 -0.02415252 -0.007740163 -0.073128805
-0.03661736 0.027462656 -0.08227359 -0.040487234 -0.060391128 -0.0730551 -0.046995696 -0.028198674
0.051299892 -0.059001412 0.03194382 -0.014955231 -0.015197461 0.09561845 -0.00393679 -0.015739314
-0.05504723 0.006551321 -0.08085693 0.0354567 -0.13029458 0.03753998 0.08794216 0.029778212
0.08432482 -0.030802894 -0.07522478 -0.05846566 -0.043308098 -0.05832927 -0.066471346 -0.036765397
0.062960364 0.09617632 0.0074481172 -0.006423904 0.028671093 0.058793474 0.03497874 -0.035117917
0.07685688 -0.056760818 -0.054338377 0.005675907 0.10155884 -0.0053613232 0.04612965 0.06578242
-0.010921601 0.04984983 0.050153963 -0.010652832 0.05407283 0.07254431 -0.052920103 0.08312721
-0.03134518 -0.015965072 0.022623258 0.05841305 -0.074945815 0.0011060615 0.01371007 0.06580355
0.046730634 0.056713965 0.06652585 0.009775594 0.0196875 0.10375524 0.05898989 -0.05686768
-0.08781288 0.06834405 0.023764113 0.06557162 0.07689736 0.13612206 -0.003515521 0.1212232
0.050908998 0.05168479 0.120951995 -0.031562652 0.030514015 0.101976976 0.062017944 -0.052058958
0.10203761 0.13823777 0.11280753 0.01577874 -0.028368639 -0.047798168 -0.06243404 -0.033647653
-0.016463105 0.12538238 -0.019813258 0.034982696 0.049134415 -0.011120522 0.11736544 0.0073332554
00000000: 0c3b b03d 2fb4 f9bd 3cab a5bd 1d15 753d
00000010: d67e 38bd 1c06 753c 2470 3f3d 4095 c43a
00000020: a597 293c 4b59 96bd 1f6c 763d f9f8 b6bc
00000030: 9fa3 10bd 1a22 993d ac23 cc3d 9533 3a3d
00000040: 9c89 f43d 74c1 a53d f573 36bd 3be4 82bd
00000050: 47f1 5d3d 2170 16bb cfa4 e73d 3dc7 ef3d
00000060: 32d7 0e3d cb90 24bd a8fb f3bb 4242 86bc
00000070: 9d9a e03c 9817 0e3d 2031 e1bc 1c1b 8cbd
00000080: 7e2b 81bd 9585 58bd 2fc1 9b3d ff8a 9e3d
00000090: 33a8 1dbd 4b49 463c 6eea 043d 4028 d33d
000000a0: e69f cb3c c4e7 823c be09 473d c62f dc3d
000000b0: acfa 9bbd c5c7 1e3c 5418 9c3d b93e 9cbd
000000c0: dab7 4b3d 4976 593d e713 dabd e38a 9a3d
000000d0: c90b 01bd b242 a9bc da2a c13c 6f10 5bbd
000000e0: a5d4 2cbd 7135 0abc a271 d8bd fee9 23bd
000000f0: 9b36 b03c 870b 2cbc e0c7 a63d 7dfd e6bd
00000100: b683 903d 54d4 b2bc 0142 6abd 3db3 dc3d
00000110: cd62 8fbd 5f73 2bbb 5866 b13d ecde 4c3d
00000120: 59ea 51bd eb3f a3bc 21bd dd3d b9fe d53c
00000130: fbfa e4bd 3043 30bd cc81 26bd 9249 f13c
00000140: f574 263c 4523 f13d 53c9 043d 7630 b2bc
00000150: 00f2 9f3d 61f6 46bd 4246 e0bd 1099 13bd
00000160: b48e c03c 4c48 203d 98df 15ba 98c8 5fbd
00000170: f062 e03d 8702 d23d 2a4f 2a3d d4f3 a0bd
00000180: 8a47 d3ba 6fca f8bc 2066 2cbd 2dbd e13d
00000190: 282a 763d b873 e23b fd0a 9f3d fbc4 a93d
000001a0: 5e90 49bd 95ee 8bbd 9dcc d0bc 7748 92bd
000001b0: 601a 5f3d 2270 003d b01d 83bd 24c3 30bd
000001c0: 630a c7bb 5476 693c 13f7 b83d 7268 55bd
000001d0: 4e82 37bd ba0e 8dbd e1f2 1c3d ca3f 81bd
000001e0: cfed e03d b888 303d 6cd2 2c3d 97c2 273d
000001f0: acf7 e13d f4fc 3cbd b9e5 e53c f6e3 923d
00000200: 737a 173d 881c d93d 4188 40bc abc1 823d
00000210: 1b8a cebc 27b7 95bd 6cc5 12bd f614 ea3d
00000220: 5b07 c83d ace6 893d b30c 3d3c 6050 a03d
00000230: 2b71 a3bd 25ba 9ebd 96ca 293d 055d cf3c
00000240: 4a80 a63d a21f 053e f7fd dabc a454 32bd
00000250: 7207 c9bc 81db c5bc 31a1 fdbb 8ec4 95bd
00000260: 16fc 15bd 5df9 e03c 0e7f a8bd f1d5 25bd
00000270: b05c 77bd ea9d 95bd 8f7e 40bd e800 e7bc
00000280: d61f 523d 77ab 71bd 86d7 023d c906 75bc
00000290: c5fe 78bc 9bd3 c33d 3000 81bb bcef 80bc
000002a0: 3479 61bd 77ac d63b 5198 a5bd 0b3b 113d
000002b0: f16b 05be 86c3 193d 051b b43d 70f1 f33c
000002c0: 7eb2 ac3d 5a56 fcbc 730f 9abd b079 6fbd
000002d0: d563 31bd acea 6ebd 2122 88bd 5097 16bd
000002e0: 5df1 803d 17f8 c43d 560f f43b 9d7f d2bb
000002f0: a4df ea3c 6dd1 703d de45 0f3d ced7 0fbd
00000300: 2467 9d3d 087e 68bd eb91 5ebd f5fc b93b
00000310: 15fe cf3d 0aae afbb 72f2 3c3d efb8 863d
00000320: 84f0 32bc 562f 4c3d 3e6e 4d3d 3789 2ebc
00000330: 797b 5d3d 1c92 943d c0c2 58bd 993e aa3d
00000340: ce63 00bd 2fc9 82bc 6954 b93c 8642 6f3d
00000350: 317d 99bd 44f9 903a 34a0 603c 03c4 863d
00000360: 9f68 3f3d e74c 683d b43e 883d d029 203c
00000370: ae47 a13c a17d d43d 629f 713d 16ee 68bd
00000380: 3dd7 b3bd f7f7 8b3d f5ac c23c 6a4a 863d
00000390: 5d7c 9d3d 9563 0b3e a864 66bb de43 f83d
000003a0: f485 503d 6eb3 533d aeb5 f73d d747 01bd
000003b0: 87f8 f93c 4ed9 d03d 8706 7e3d c63b 55bd
000003c0: 18f9 d03d 348e 0d3e a207 e73d 6b42 813c
000003d0: 5965 e8bc 03c8 43bd d6ba 7fbd 1fd2 09bd
000003e0: a2dd 86bc 3d64 003e 6a4f a2bc 044a 0f3d
000003f0: 2b41 493d da32 36bc 4b5d f03d ce4b f03b

layers.1.lin_self.bias f4 [96]
-0.06442584 -0.045199215 -0.04735496 0.0030712532 -0.11176746 0.042878676 0.0712379 0.03348199
0.10028943 0.11777662 0.012667315 0.10860178 0.04274094 -0.0034628278 0.0860289 -0.010814274
0.11490252 -0.00044210584 -0.07031546 -0.06918713 -0.01497729 0.08861433 -0.046610985 0.06838529
-0.03375704 0.037958425 0.08611273 0.06874374 0.038667437 0.017426977 0.06980731 -0.039281376
0.09480383 0.02837736 0.09656135 -0.0032601485 0.061585233 -0.026208023 0.022793457 0.070916414
0.009519633 -0.06752695 0.079882294 0.02991809 -0.015366257 -0.05585916 0.019034939 0.10409168
-0.054547045 0.10913507 0.093309686 -0.03310622 -0.023488339 -0.028164728 0.0035833367 -0.017948564
0.10856029 0.11302424 0.05433086 -0.016720612 -0.054663077 -0.01401897 0.11150832 0.05132287
0.007957781 0.120266125 -0.033461288 0.096472524 -0.08994042 -0.011262465 0.042506192 -0.028303826
0.075853325 -0.058219753 0.102914244 0.04626663 0.09074223 0.060636185 -0.018518018 -0.053227574
-0.017748551 0.07531394 0.09620625 -0.07234243 0.066804886 0.10471945 -0.069352515 0.08079111
-0.0024749637 -0.0059094606 0.016215144 -0.027951617 -0.018883703 -0.003562222 0.074828364 0.078632265
00000000: b2f1 83bd d022 39bd 46f7 41bd 1447 493b
00000010: 57e6 e4bd 8da1 2f3d 2de5 913d 6924 093d
00000020: 8b64 cd3d de34 f13d 928a 4f3c 9c6a de3d
00000030: 2011 2f3d 9cf0 62bb ec2f b03d 5a2e 31bc
00000040: 0352 eb3d 71ca e7b9 8d01 90bd fbb1 8dbd
00000050: 4f63 75bc 6e7b b53d 29eb 3ebd 960d 8c3d
00000060: d244 0abd 4b7a 1b3d df5b b03d 85c9 8c3d
00000070: bf61 1e3d 05c3 8e3c 23f7 8e3d 82e5 20bd
00000080: 8328 c23d a377 e83c f5c1 c53d 37a8 55bb
00000090: cc40 7c3d 35b2 d6bc 58b9 ba3c a03c 913d
000000a0: 3cf8 1b3c 924b 8abd 5499 a33d c816 f53c
000000b0: c1c2 7bbc 93cc 64bd 29ef 9b3c 052e d53d
000000c0: b96c 5fbd 3582 df3d 2619 bf3d 639a 07bd
000000d0: 9e6a c0bc b7b9 e6bc 6ad6 6a3b de08 93bc
000000e0: db54 de3d 4179 e73d 098a 5e3d aaf9 88bc
000000f0: 64e6 5fbd d2af 65bc 795e e43d ee37 523d
00000100: 5a61 023c 164e f63d b40e 09bd 6393 c53d
00000110: af32 b8bd 3486 38bc f91a 2e3d 6ddd e7bc
00000120: fd58 9b3d d677 6ebd b4c4 d23d 1482 3d3d
00000130: 10d7 b93d a65d 783d 19b3 97bc 2805 5abd
00000140: 6965 91bc 323e 9a3d c807 c53d 4528 94bd
00000150: 00d1 883d 2777 d63d b108 8ebd cf75 a53d
00000160: 0033 22bb 26a4 c1bb 9fd5 843c cafa e4bc
00000170: ffb1 9abc 2b74 69bb 9d3f 993d f409 a13d

layers.1.lin_neigh.weight f4 [96, 96]
0.11757487 -0.1332919 -0.024215633 0.061811555 0.10023843 0.064133875 0.018117113 0.055008594
-0.013026225 -0.0043021496 -0.02347198 0.06589366 -0.025500132 0.031860333 -0.07450604 0.046141498
0.02522281 -0.04906357 -0.05151981 0.095449165 0.0036588795 -0.0022700857 0.0792739 0.11073624
-0.08110691 0.00048282393 0.06866992 0.06966121 0.08376056 -0.020328686 0.055435434 0.09192568
0.019504914 -0.023719488 -0.015646135 0.029779352 0.05365885 0.03354349 -0.052779675 -0.060734686
0.016703874 0.056895178 -0.037485726 -0.026832236 -0.0617777 -0.026159944 -0.03382408 0.10681088
0.119137906 0.025682274 -0.08851741 -0.054675765 -0.059782483 0.020567168 -0.037785124 -0.10676692
0.047614146 -0.06062128 -0.066548094 0.08406587 -0.010747487 0.015284267 0.11931806 -0.056001496
0.09524224 -0.0077309255 -0.014451346 -0.034560136 -0.062407274 -0.03603815 0.016281066 -0.063492596
-0.048012737 0.079476304 -0.048867084 -0.01888236 -0.12402477 -0.005106312 0.06819859 -0.007038688
0.031655308 0.06937384 0.021784756 0.026756927 0.07205573 0.09477931 0.07777356 -0.08361927
0.0425837 -0.0708011 0.03528721 -0.08983627 0.099572144 -0.057696253 0.09444885 -0.023390796
0.08876691 0.056491952 0.11078554 0.04818718 -0.0036663369 0.05049894 -0.040051218 0.09318232
-0.07904776 -0.0058371187 0.017062902 -0.1088452 -0.06173679 -0.08226947 -0.047233522 -0.023118248
0.03236918 0.05121511 -0.08342958 0.10158021 -0.10020415 0.011571103 0.097013496 -0.039838742
-0.06289664 0.044995416 0.029019888 0.026092147 -0.035998177 0.08001245 0.0983235 -0.08723064
0.045544673 -0.08456087 -0.10390954 0.05188989 0.06318893 0.058400784 -0.07325886 -0.03674617
-0.05317186 0.016460948 -0.014069107 -0.08767514 0.11142584 0.09378728 0.09119756 0.09977516
0.09269297 0.11341241 0.07961207 0.041389674 -0.055896293 -0.044785205 0.04669877 0.0042786426
0.0037189124 -0.062175587 -0.064454444 0.09443023 -0.038003486 -0.028473107 0.026252868 0.034327086
-0.063735746 0.073802836 0.020040471 0.06375182 -0.035649635 -0.05445219 0.09376451 -0.010206648
0.0315961 -0.06834687 0.056163456 -0.030826196 -0.039965037 -0.15535097 0.031961035 0.0276179
0.024935292 -0.0809502 0.057497937 -0.05957683 0.0706518 -0.05019773 -0.07416772 -0.05466486
0.028033122 -0.040541064 -0.055558447 -0.020531379 0.018141985 -0.07869748 0.035458617 0.07285177
0.06050298 -0.0467409 0.04078003 0.033059105 0.031309597 0.104879946 0.04070645 0.09621078
0.015499913 0.059492037 -0.046499085 0.028217252 -0.00897784 -0.08447248 0.006263825 0.04518612
-0.0124513935 0.09018491 0.014389408 0.016770482 -0.011771033 0.07550588 -0.023007616 0.04701326
0.03212536 0.057197705 0.07664196 -0.04420497 0.027305584 -0.01485233 0.13035214 0.113836534
0.0053316513 0.010017227 -0.06153672 0.0020773986 -0.0030133747 -0.032904617 0.028276848 0.063548654
0.09662643 0.043210886 0.115438186 0.056641687 -0.012823291 0.13452338 0.11216192 0.0375448
0.14567424 -0.042969454 0.025639988 -0.009912531 -0.06013637 0.03984317 0.11597342 -0.08630751
-0.06804416 -0.04824033 -0.16217422 -0.004870882 0.09007896 -0.09519998 0.1202815 -0.03411166
00000000: 18cb f03d ac7d 08be dd5f c6bc 1d2e 7d3d
00000010: ce49 cd3d 9f58 833d 576a 943c b150 613d
00000020: f36b 55bc 0cf9 8cbb 4f48 c0bc 41f3 863d
00000030: a7e5 d0bc fb7f 023d 9f96 98bd defe 3c3d
00000040: 11a0 ce3c e2f6 48bd 7006 53bd da7a c33d
00000050: d0c9 6f3b b8c5 14bb 5b5a a23d afc9 e23d
00000060: 611b a6bd 8823 fd39 d1a2 8c3d 89aa 8e3d
00000070: a88a ab3d 5888 a6bc 4410 633d 8843 bc3d
00000080: c5c8 9f3c 5f4f c2bc 532c 80bc d4f3 f33c
00000090: 62c9 5b3d e664 093d 802f 58bd efc4 78bd
000000a0: 90d6 883c eb0a 693d a28a 19bd 47cf dbbc
000000b0: 9d0a 7dbd 614d d6bc 1e8b 0abd aabf da3d
000000c0: 93fe f33d a263 d23c 9e48 b5bd b2f3 5fbd
000000d0: 7ade 74bd 7a7c a83c 93c4 1abd 9da8 dabd
000000e0: 0d07 433d 054e 78bd 5e4a 88bd ba2a ac3d
000000f0: 3a16 30bc dd6a 7a3c 075d f43d d361 65bd
00000100: 5d0e c33d b453 fdbb 57c5 6cbc ee8e 0dbd
00000110: c59e 7fbd bd9c 13bd df5f 853c 6808 82bd
00000120: 01a9 44bd 79c4 a23d da28 48bd 2eaf 9abc
00000130: b300 febd da52 a7bb b4ab 8b3d cba4 e6bb
00000140: ffa8 013d df13 8e3d f275 b23c 5831 db3c
00000150: f491 933d a81b c23d bf47 9f3d 9440 abbd
00000160: 3f6c 2e3d 2b00 91bd 5289 103d 14fc b7bd
00000170: 7bec cb3d e852 6cbd 666e c13d 0e9e bfbc
00000180: 6dcb b53d 1b64 673d 87e3 e23d ec5f 453d
00000190: ed46 70bb fad7 4e3d bf0c 24bd 5fd6 be3d
000001a0: cbe3 a1bd 4d45 bfbb 80c7 8b3c 3bea debd
000001b0: b7df 7cbd e57c a8bd f077 41bd 7b62 bdbc
000001c0: 8c95 043d efc6 513d 21dd aabd 4909 d03d
000001d0: d537 cdbd b994 3d3c 03af c63d f32d 23bd
000001e0: f4cf 80bd 1d4d 383d 1ebb ed3c 33bf d53c
000001f0: d372 13bd 91dd a33d d55d c93d faa5 b2bd
00000200: 0d8d 3a3d 402e adbd 86ce d4bd 7e8a 543d
00000210: 3369 813d a935 6f3d be08 96bd 2783 16bd
00000220: bcca 59bd 1cd9 863c 1d82 66bc 068f b3bd
00000230: 3b33 e43d 8c13 c03d c9c5 ba3d eb56 cc3d
00000240: d0d5 bd3d c444 e83d a70b a33d 3888 293d
00000250: 83f3 64bd b170 37bd 3647 3f3d db33 8c3b
00000260: ffb8 733b d4ab 7ebd b100 84bd a364 c13d
00000270: 8ba9 1bbd 6f40 e9bc 4110 d73c 8f9a 0c3d
00000280: e387 82bd f125 973d ea2b a43c 5090 823d
00000290: 5a05 12bd 4209 5fbd 9b07 c03d c939 27bc
000002a0: ea6a 013d 72f9 8bbd a70b 663d 3887 fcbc
000002b0: 61b2 23bd 5314 1fbe 93e9 023d ef3e e23c
000002c0: 1945 cc3c 38c9 a5bd f582 6b3d d606 74bd
000002d0: e4b1 903d 239c 4dbd 3fe5 97bd 43e8 5fbd
000002e0: b8a5 e53c 630e 26bd 4191 63bd 6c31 a8bc
000002f0: 809e 943c 252c a1bd 0e3d 113d 4f33 953d
00000300: f9d1 773d 6373 3fbd f608 273d fc68 073d
00000310: 7e3e 003d 4ccb d63d cebb 263d 280a c53d
00000320: 59f3 7d3c ecad 733d d375 3ebd de27 e73c
00000330: ca17 13bc e8ff acbd c640 cd3b 1515 393d
00000340: ee00 4cbc deb2 b83d 8dc1 6b3c 4062 893c
00000350: 4adb 40bc d4a2 9a3d 787a bcbc fa90 403d
00000360: e295 033d 2448 6a3d 76f6 9c3d 4510 35bd
00000370: f6af df3c 3057 73bc 087b 053e 2123 e93d
00000380: 22b5 ae3b 4c1f 243c ed0d 7cbd f724 083b
00000390: 0a7c 45bb fec6 06bd d9a4 e73c cc25 823d
000003a0: 14e4 c53d e6fd 303d db6a ec3d 1d01 683d
000003b0: c818 52bc 7fc0 093e 26b5 e53d 94c8 193d
000003c0: a12b 153e bd00 30bd f40a d23c 2b68 22bc
000003d0: 8e51 76bd 9832 233d 7983 ed3d fec1 b0bd
000003e0: bd5a 8bbd a797 45bd 0011 26be eb9b 9fbb
000003f0: 517b b83d 35f8 c2bd 2656 f63d abb8 0bbd

layers.2.lin_self.weight f4 [96, 96]
-0.023250215 0.09620954 0.0666482 0.0265356 -0.06129037 -0.023574928 0.09371812 0.020323064
0.041384548 0.019351704 0.023751277 -0.013004064 0.053540453 -0.10632422 0.07304302 0.008762503
-0.044159826 0.073064126 -0.07068587 -0.10257177 0.003730294 0.052781247 -0.07684262 0.029496193
-0.03220156 -0.07513446 -0.054755025 -0.020751957 -0.06441687 0.046919424 0.09913642 0.0034812875
-0.025563315 0.027492393 -0.042629473 -0.037458923 0.011836266 0.03956588 -0.061739784 0.08420903
-0.050173737 0.10074385 -0.010864846 0.03560257 -0.044195063 -0.03635537 -0.08489157 0.06540272
0.041888706 0.00268982 -0.059239905 0.0018022894 0.07292185 -0.084018975 -0.011130323 -0.033014312
-0.03611108 0.10504972 -0.09668158 0.06849781 0.025643637 -0.08575289 0.036265414 -0.06993012
0.06803565 0.003957693 -0.0888441 -0.051998112 -0.063909315 -0.016515706 -0.055086594 -0.061329048
0.025117958 -0.07206106 0.0016827348 -0.028836159 -0.07295101 0.09239281 -0.035098497 0.055715874
0.02581756 0.054607823 -0.06315662 -0.08724942 -0.067606844 -0.030945003 0.021878172 -0.09504079
0.02808685 -0.05090825 0.04558676 0.04515494 0.016845172 0.015491668 0.059637524 -0.058654845
0.03531878 0.00058925216 0.10697291 -0.07024724 -0.08513219 0.10810758 -0.03288144 -0.049148064
-0.0014992426 -0.020862142 -0.14362785 0.08712934 -0.1024868 0.06399318 0.0649625 -0.06485811
-0.021351743 -0.054375887 -0.10287632 -0.037544552 0.11039445 0.013937901 0.10333786 0.12422351
-0.036526877 0.01939785 0.0072877705 -0.009662091 0.09370834 -0.021724746 -0.029020961 0.1195537
-0.1038564 -0.09192461 0.012349996 0.09792041 -0.08158691 0.036747064 0.06744934 0.11164628
-0.13217059 0.02349748 0.043655038 0.08517725 0.106256686 0.10605312 0.07203324 0.097621605
-0.09292387 0.063407406 -0.020322884 -0.054089047 -0.014047484 0.081120454 -0.0194408 -0.0032206133
0.06505499 0.038726535 0.06486854 0.036045108 -0.07162058 0.08637637 0.11238397 -0.013255514
0.063073024 -0.009011906 0.03241713 0.049484156 -0.036998775 -0.029007139 0.033755645 -0.022930715
0.061759636 -0.086436 -0.05220342 0.041664068 -0.020537797 -0.023354344 -0.08017815 -0.009752717
0.11732687 -0.07244756 0.021931674 0.039937813 0.087416865 0.05524159 -0.047090214 0.025114832
0.032060746 0.10615304 0.0673591 -0.01471265 0.12520029 0.047509816 0.08580989 -0.014421711
0.0890021 0.07524614 0.010572839 0.1411457 0.0085774725 0.061338697 0.0870696 0.13095753
-0.047130357 -0.06765934 0.14486398 0.0023688024 -0.060543478 0.07176686 -0.06255943 0.10731665
-0.009145681 0.0720996 -0.031365614 -0.02319982 0.07725456 -0.072560094 -0.024658222 0.043022774
0.08161736 0.107555844 -0.009200106 0.087055676 -0.09983869 -0.042581253 -0.036714226 -0.0011440921
0.11116911 0.049594454 -0.081594504 0.068017475 -0.028955761 0.08004268 -0.00039497105 -0.008383198
0.062098626 0.07914755 0.14188339 -0.09504596 0.0213804 -0.040768024 0.024908554 -0.060765922
0.07808071 0.017717775 -0.080078885 -0.033334486 0.07158794 -0.06489946 -0.051829387 -0.003339825
0.037350122 -0.04466009 -0.032948446 -0.04329833 0.063051164 -0.018478768 -0.07038321 0.037273306
00000000: 3c77 bebc 8209 c53d da7e 883d 3061 d93c
00000010: 9c0b 7bbd 3520 c1bc 49ef bf3d 8e7c a63c
00000020: d882 293d 7787 9e3c 0a92 c23c ff0e 55bc
00000030: 3c4d 5b3d 83c0 d9bd 9497 953d 9a90 0f3c
00000040: efe0 34bd a5a2 953d c1c3 90bd 2611 d2bd
00000050: f377 743b 2631 583d aa5f 9dbd 00a2 f13c
00000060: c8e5 03bd 19e0 99bd ce46 60bd 0200 aabc
00000070: feec 83bd 952e 403d 0908 cb3d 5026 643b
00000080: 286a d1bc ba37 e13c 3e9c 2ebd 876e 19bd
00000090: e6ec 413c d50f 223d dbe2 7cbd c975 ac3d
000000a0: fa82 4dbd cb52 ce3d 7802 32bc 00d4 113d
000000b0: e205 35bd 5ee9 14bd a2db adbd dcf1 853d
000000c0: 7e93 2b3d b147 303b 8ba5 72bd cc3a ec3a
000000d0: 0d58 953d 2412 acbd f55b 36bc 043a 07bd
000000e0: 36e9 13bd 4f24 d73d fe00 c6bd 9448 8c3d
000000f0: 9b12 d23c 369f afbd 0b8b 143d 8637 8fbd
00000100: 4656 8b3d 89af 813b e5f3 b5bd f9fb 54bd
00000110: e3e2 82bd f24b 87bc 7ba2 61bd 2b34 7bbd
00000120: 2dc4 cd3c c094 93bd 368f dc3a cf39 ecbc
00000130: 5767 95bd 7138 bd3d 71c3 0fbd 5436 643d
00000140: 597f d33c 74ac 5f3d 4258 81bd d3af b2bd
00000150: 7575 8abd 6080 fdbc da39 b33c bfa4 c2bd
00000160: 6516 e63c 2b85 50bd 2fb9 3a3d 63f4 383d
00000170: e3fe 893c c4d0 7d3c 7a46 743d 1040 70bd
00000180: 6daa 103d 0b78 1a3a 9d14 db3d c9dd 8fbd
00000190: c959 aebd 8267 dd3d b0ae 06bd 7b4f 49bd
000001a0: 3c82 c4ba 15e7 aabc 2e13 13be de70 b23d
000001b0: 99e4 d1bd db0e 833d 0f0b 853d 54d4 84bd
000001c0: dae9 aebc 40b9 5ebd d2b0 d2bd 51c8 19bd
000001d0: 7c16 e23d cb5b 643c cda2 d33d e568 fe3d
000001e0: 359d 15bd 3de8 9e3c 40ce ee3b bf4d 1ebc
000001f0: 28ea bf3d 18f8 b1bc 5ebd edbc 92d8 f43d
00000200: aab2 d4bd f842 bcbd a357 4a3c 7f8a c83d
00000210: 0a17 a7bd 1784 163d e122 8a3d cea6 e43d
00000220: ba57 07be ca7d c03c a0cf 323d 6971 ae3d
00000230: 1b9d d93d 6132 d93d 2a86 933d d6ed c73d
00000240: df4e bebd bedb 813d 2d7c a6bc 7a8c 5dbd
00000250: 6b27 66bc 7b22 a63d 5042 9fbc ed10 53bb
00000260: 8d3b 853d b79f 1e3d ccd9 843d 09a4 133d
00000270: d0ad 92bd 18e6 b03d 9129 e63d a82d 59bc
00000280: 6e2c 813d aca6 13bc d3c7 043d e6af 4a3d
00000290: 078c 17bd 61a0 edbc 5c43 0a3d 32d9 bbbc
000002a0: acf7 7c3d 5c05 b1bd 41d3 55bd f1a7 2a3d
000002b0: e23e a8bc 9c51 bfbc 7134 a4bd dcc9 1fbc
000002c0: 1249 f03d 635f 94bd 0eaa b33c d595 233d
000002d0: 9d07 b33d 0145 623d abe1 40bd 9fbd cd3c
000002e0: 2152 033d c466 d93d 91f3 893d 540d 71bc
000002f0: 8134 003e a799 423d 18bd af3d 0a49 6cbc
00000300: bc46 b63d a61a 9a3d b339 2d3c 8088 103e
00000310: 8788 0c3c 493e 7b3d 8c51 b23d bb19 063e
00000320: c30b 41bd fb90 8abd 3957 143e e93d 1b3b
00000330: 70fc 77bd 81fa 923d 291f 80bd d5c8 db3d
00000340: c4d7 15bc f5a8 933d 3b79 00bd 8d0d bebc
00000350: a437 9e3d 639a 94bd 0a00 cabc a638 303d
00000360: 0127 a73d 3d46 dc3d 0bbc 16bc 3f4a b23d
00000370: 3a78 ccbd ae69 2ebd a861 16bd 5cf5 95ba
00000380: a1ac e33d 8e23 4b3d 051b a7bd bf4c 8b3d
00000390: a234 edbc 6bed a33d 1e14 cfb9 ae59 09bc
000003a0: 215b 7e3d 1c18 a23d e149 113e 75a7 c2bd
000003b0: f325 af3c 5ffc 26bd 060d cc3c b0e5 78bd
000003c0: c7e8 9f3d de24 913c 6600 a4bd be89 08bd
000003d0: b39c 923d 02ea 84bd 0d4b 54bd f7e0 5abb
000003e0: 71fc 183d 80ed 36bd f3f4 06bd 9759 31bd
000003f0: f820 813d c960 97bc 1325 90bd e5ab 183d

layers.2.lin_self.bias f4 [96]
-0.0041588354 -0.050084937 -0.046933692 0.05424204 0.08236444 0.11855485 -0.10690117 0.08250393
0.019634143 0.023137571 0.07298858 -0.01323344 0.12373722 0.07789108 0.031773474 -0.0021365888
-0.07509411 0.0061591137 -0.016211526 0.08731543 -0.03567483 -0.07210179 0.1046029 0.043273352
-0.044360902 0.11638644 0.06768165 0.10305645 -0.04461155 -0.03802959 -0.032081563 0.08572146
-0.017625237 -0.06262182 -0.009991234 0.012319051 0.025812024 -0.05947857 0.106658585 0.04398824
-0.054535683 0.08258567 0.020835757 -0.0896488 -0.05883852 0.028081832 0.016981209 -0.0011445954
0.021976104 -0.056467894 0.10710961 0.04184713 0.08263216 -0.021936778 0.05151965 0.0896595
0.11586045 0.09604629 0.0321908 0.060895234 0.12608099 -0.0062812017 0.019172318 -0.07773863
0.088061646 0.05150892 0.12138454 -0.06455013 0.10808008 0.040257975 0.0996208 0.07750381
-0.024641704 0.0525266 -0.092223234 -0.026350603 -0.032164685 -0.010809678 0.0674253 0.021738464
0.021010851 -0.07527555 -0.0035321035 0.112774014 0.039430887 0.0032520138 0.07620479 0.11996473
0.09013637 0.12517177 -0.08072198 0.0664113 -0.018203452 -0.035983384 0.013744654 0.0037771526
00000000: d746 88bb dd25 4dbd 8b3d 40bd e72c 5e3d
00000010: b0ae a83d e3cc f23d 00ef dabd d2f7 a83d
00000020: c8d7 a03c 018b bd3c 097b 953d 12d1 58bc
00000030: f169 fd3d 5c85 9f3d e724 023d 0306 0cbb
00000040: f1ca 99bd 64d2 c93b 09ce 84bc 6fd2 b23d
00000050: c51f 12bd 1aaa 93bd 0c3a d63d 663f 313d
00000060: c7b3 35bd 045c ee3d ad9c 8a3d 430f d33d
00000070: 9aba 36bd eac4 1bbd f567 03bd bc8e af3d
00000080: cd62 90bc de3f 80bd 46b2 23bc d8d5 493c
00000090: bd73 d33c cd9f 73bd d16f da3d 032d 343d
000000a0: cf60 5fbd ad22 a93d c0af aa3c ca99 b7bd
000000b0: a900 71bd df0b e63c 2d1c 8b3c 4006 96ba
000000c0: 3b07 b43c e14a 67bd 495c db3d e567 2b3d
000000d0: 0d3b a93d c2b4 b3bc 4506 533d 669f b73d
000000e0: 3e48 ed3d ebb3 c43d 80da 033d 486d 793d
000000f0: 601b 013e 8ad2 cdbb 440f 9d3c 6e35 9fbd
00000100: aa59 b43d 04fb 523d 7598 f83d dc32 84bd
00000110: 1759 dd3d 8ce5 243d fd05 cc3d 51ba 9e3d
00000120: 66dd c9bc 2226 573d 89df bcbd 38dd d7bc
00000130: 1ebf 03bd 131b 31bc 4716 8a3d dd14 b23c
00000140: f31e ac3c 112a 9abd dd7a 67bb 10f6 e63d
00000150: 4882 213d bd1f 553b 4211 9c3d 12b0 f53d
00000160: 6b99 b83d 072d 003e 9151 a5bd a602 883d
00000170: 681f 95bc 5063 13bd 4231 613c 1b8a 773b
