outputs/models/nowcast_fix_s4.pt (torch, 197090 bytes, 11 tensors)

in_lin.weight f4 [96, 15]
0.12450007 0.010798185 -0.116737135 -0.16926572 -0.2544836 -0.23807906 0.24523845 0.48267308
0.23050345 0.39053383 -0.018307889 0.102965996 0.1540547 0.04604488 0.05318748 0.16173314
0.13706034 -0.13325307 -0.09882514 -0.23828995 0.011375749 -0.09507969 0.29982382 0.1304264
0.32283854 0.056471583 0.35510147 0.034366585 0.15354492 -0.046194367 0.27961826 0.13801108
-0.03877031 0.11109428 0.23870395 -0.1459916 -0.13939197 0.41093433 0.34027106 0.17561236
0.11574244 0.40857127 0.194794 -0.12793635 -0.07430695 0.2309216 0.101319484 -0.1079932
-0.12649 0.25056887 -0.16171606 0.17347148 0.15627599 -0.19121121 -0.19311263 0.17911717
0.10288196 0.16061482 0.07599932 0.13529053 -0.21803187 0.1666548 -0.28340068 0.1809498
0.027992819 0.15949059 0.10424829 -0.2804153 0.060575716 0.07590956 0.14732133 -0.3134595
-0.08638014 -0.16956799 -0.19217755 0.25477445 0.06090007 0.1409809 -0.16285853 -0.20949274
0.054945193 0.18716261 0.3070978 -0.10028839 0.07237741 0.036155175 0.33932176 0.062795185
-0.13614112 -0.19213781 0.15841402 0.09577383 0.23016576 0.14771831 0.22824325 -0.10777828
-0.2733817 0.37940484 0.3802127 -0.08146561 -0.10408654 0.4629261 0.17263745 0.008995255
-0.10524024 0.1265348 -0.17683978 -0.022732273 0.042804956 -0.06153805 0.10638966 0.04985243
0.04312337 0.13073345 0.15363583 0.22884291 0.24235442 -0.105511665 -0.00025005473 -0.025659882
0.10717373 -0.096477486 0.12837866 0.07722774 0.14493908 -0.070547946 0.004626603 0.3717733
0.09366661 0.24457733 0.01805218 0.44396213 -0.06475309 0.0033812383 -0.0042119343 0.039715435
0.1015505 0.02761517 0.067488365 -0.0667662 0.02268212 -0.019769935 -0.12239385 0.124550074
0.19826047 0.0996221 0.1244015 -0.04769566 0.0815675 0.07168498 -0.08263246 0.090400845
-0.17386232 -0.0003667102 -0.08877526 -0.10803406 -0.21202359 0.42148936 0.13905713 0.0993752
-0.025374377 0.096641555 -0.23119242 -0.015568778 -0.15487601 -0.097456716 0.06854434 0.22923617
-0.1441521 -0.25435406 0.2525128 0.07881128 0.41772932 0.07414024 0.05202888 0.06854538
0.27667654 -0.06964001 -0.045098122 0.11257089 0.19436862 -0.005618511 -0.14637774 -0.10872021
-0.09005372 -0.043065365 0.11834792 0.19905421 0.22604266 -0.052031465 -0.0013577855 0.33824077
0.20661227 -0.16568512 0.044120047 0.09161993 -0.0725908 0.015315391 0.11571457 -0.2565553
0.15289111 -0.2756063 0.003178719 0.11149786 -0.16215695 -0.04245706 -0.29259175 0.06649431
0.18033126 0.1811099 0.01713663 -0.05680407 -0.15823615 0.17251092 0.076257125 0.09187059
0.10356333 -0.09131303 0.050059546 0.29661214 0.31721348 -0.27789795 -0.26985586 -0.017582884
0.02462603 -0.087552786 0.065531485 -0.18809023 -0.09486286 0.16643141 -0.06590846 -0.11963795
0.16433047 0.2374536 0.081191786 -0.00498547 0.09140021 -0.26224148 -0.08149879 0.22060202
-0.120504625 0.07511649 -0.034319583 0.040738992 0.11462544 0.18260156 -0.20284803 0.11710824
-0.08176716 0.13369551 -0.07902558 0.16694416 -0.2654851 -0.03750045 -0.1589041 -0.21596317
00000000: e5f9 fe3d dfea 303c e113 efbd fe53 2dbe
00000010: ad4b 82be ffca 73be ca1f 7b3e ed20 f73e
00000020: 1909 6c3e 0df4 c73e 6dfa 95bc d6df d23d
00000030: 84c0 1d3e 8e99 3c3d 1ddb 593d 5f9d 253e
00000040: 8c59 0c3e 7e73 08be d664 cabd 4802 74be
00000050: 5961 3a3c 24b9 c2bd 8282 993e 808e 053e
00000060: 184b a53e bf4e 673d dccf b53e fac3 0c3d
00000070: e13a 1d3e 4e36 3dbd 202a 8f3e c752 0d3e
00000080: 9ecd 1ebd 6685 e33d cf6e 743e d27e 15be
00000090: c5bc 0ebe fc65 d23e 0238 ae3e bad3 333e
000000a0: 5f0a ed3d 4130 d13e 1478 473e bf01 03be
000000b0: 3e2e 98bd b676 6c3e 9780 cf3d 8a2b ddbd
000000c0: 9886 01be 904a 803e e598 25be 82a2 313e
000000d0: d006 203e dfcc 43be 51bf 45be 7e6a 373e
000000e0: c7b3 d23d 3678 243e 88a5 9b3d 9a89 0a3e
000000f0: bf43 5fbe 8ea7 2a3e e519 91be e84a 393e
00000100: 3251 e53c 8051 233e 2180 d53d 9892 8fbe
00000110: 3e1e 783d 7976 9b3d 67db 163e c37d a0be
00000120: 12e8 b0bd 3ba3 2dbe 31ca 44be cc71 823e
00000130: 5a72 793d 4c5d 103e 63c4 26be 4485 56be
00000140: 360e 613d 8ea7 3f3e ec3b 9d3e 0064 cdbd
00000150: 9c3a 943d 7317 143d 95bb ad3e c39a 803d
00000160: 9468 0bbe c6bf 44be 4937 223e 1225 c43d
00000170: 93b0 6b3e 7843 173e 99b8 693e dcba dcbd
00000180: b0f8 8bbe 5a41 c23e 3dab c23e 71d7 a6bd
00000190: 532b d5bd a604 ed3e dfc7 303e d660 133c
000001a0: 3288 d7bd 5792 013e 7d15 35be 0839 babc
000001b0: 4054 2f3d 530f 7cbd d2e2 d93d 1032 4c3d
000001c0: 21a2 303d fdde 053e b652 1d3e cc55 6a3e
000001d0: c22b 783e 8016 d8bd c719 83b9 ac34 d2bc
000001e0: e77d db3d fd95 c5bd b275 033e 9429 9e3d
000001f0: e96a 143e 717b 90bd c29a 973b 1259 be3e
00000200: 48d4 bf3d 7b72 7a3e 2ae2 933c 014f e33e
00000210: 459d 84bd c497 5d3b 4404 8abb a7ac 223d
00000220: b5f9 cf3d 3639 e23c 5737 8a3d b8bc 88bd
00000230: dacf b93c 8ff4 a1bc a0a9 fabd 1c14 ff3d
00000240: cb04 4b3e ac06 cc3d 37c6 fe3d 865c 43bd
00000250: dd0c a73d 93cf 923d 353b a9bd 1424 b93d
00000260: f708 32be 0343 c0b9 cecf b5bd f640 ddbd
00000270: b61c 59be 74cd d73e fe64 0e3e 3a85 cb3d
00000280: eddd cfbc 02ec c53d b5bd 6cbe 3014 7fbc
00000290: d197 1ebe 6397 c7bd fa60 8c3d e3bc 6a3e
000002a0: 9c9c 13be b23a 82be 5c49 813e cf67 a13d
000002b0: 9ee0 d53e d7d6 973d 3c1c 553d 8561 8c3d
000002c0: 8ca8 8d3e 6c9f 8ebd cfb8 38bd 918b e63d
000002d0: 9108 473e 7c1b b8bb 0ce4 15be b4a8 debd
000002e0: 166e b8bd 4f65 30bd 6560 f23d ded4 4b3e
000002f0: ba77 673e f21e 55bd b9f7 b1ba e52d ad3e
00000300: 2b92 533e 5ca9 29be 39b7 343d 3ba3 bb3d
00000310: 7caa 94bd 68ed 7a3c c3fb ec3d 375b 83be
00000320: 7d8f 1c3e 451c 8dbe 0e52 503b fd58 e43d
00000330: 790c 26be 74e7 2dbd 96ce 95be 2b2e 883d
00000340: c2a8 383e e074 393e 1e62 8c3c 62ab 68bd
00000350: a808 22be b4a6 303e b22c 9c3d a626 bc3d
00000360: 0319 d43d 5302 bbbd 3d0b 4d3d 8cdd 973e
00000370: ce69 a23e a448 8ebe 8c2a 8abe fb09 90bc
00000380: 87bc c93c e04e b3bd 5f35 863d ba9a 40be
00000390: 7647 c2bd ff6c 2a3e 04fb 86bd be04 f5bd
000003a0: 3f46 283e 0927 733e e147 a63d 275d a3bb
000003b0: 0930 bb3d 8444 86be d6e8 a6bd 7fe5 613e
000003c0: 21cb f6bd add6 993d b192 0cbd eedd 263d
000003d0: bec0 ea3d e7fb 3a3e 65b7 4fbe 72d6 ef3d
000003e0: 8a75 a7bd 7ae7 083e 2ad8 a1bd 69f3 2a3e
000003f0: aaed 87be 129a 19bd c2b7 22be 7325 5dbe

in_lin.bias f4 [96]
0.077571064 0.1398772 0.09972487 0.17880929 0.103558384 -0.18192194 -0.24718688 0.10213222
0.09559824 -0.09218441 -0.022780228 0.11951883 0.15806238 -0.12491345 -0.034399007 -0.27037472
-0.051380884 -0.2510865 -0.030080523 -0.006523064 0.16682875 -0.05869442 -0.2513549 0.0555176
0.16166368 -0.22460173 0.06406605 -0.011585446 -0.16946352 -0.0930363 -0.21033117 -0.04241373
-0.12587787 -0.12197734 0.006221445 0.0763945 -0.11669884 -0.25529367 0.0149561325 -0.116955444
0.17355421 -0.025280545 0.040073525 -0.0485263 -0.13418539 0.063158646 0.11973021 0.13338248
-0.042211995 -0.040505487 0.18021162 0.113995396 0.016119143 -0.23832838 -0.09299646 -0.10645518
0.19789152 0.16146472 0.056833155 0.18510583 -0.07096519 0.11197916 -0.05032971 -0.18214001
-0.2622307 0.09506541 0.10291471 0.04723956 0.14405373 -0.058733057 0.06461277 0.13295786
0.23097593 -0.18187012 -0.26165655 0.025552075 -0.057001494 0.02664416 -0.063939266 0.1504933
-0.15080228 -0.06001772 0.038211834 0.0045735077 -0.15083939 -0.31218866 -0.12655562 -0.1945854
0.17517559 -0.11719211 -0.047182858 0.013705865 0.09367754 0.29827246 0.114845574 -0.115824655
00000000: 94dd 9e3d f83b 0f3e 8d3c cc3d c819 373e
00000010: 6b16 d43d bf49 3abe 8f1e 7dbe b32a d13d
00000020: 03c9 c33d 2ecb bcbd 9a9d babc 4ac6 f43d
00000030: 1bdb 213e 9fd2 ffbd f9e5 0cbd 8e6e 8abe
00000040: c374 52bd 698e 80be 6e6b f6bc 6dbf d5bb
00000050: 28d5 2a3e 8f69 70bd 97b1 80be 6c66 633d
00000060: 2a8b 253e fffd 65be 1035 833d e2d0 3dbc
00000070: d887 2dbe d189 bebd 0e61 57be 05ba 2dbd
00000080: 21e6 00be 41cf f9bd 43dd cb3b b874 9c3d
00000090: cdff eebd dab5 82be 910a 753c 5686 efbd
000000a0: 32b8 313e 2519 cfbc 2324 243d 83c3 46bd
000000b0: e567 09be 5259 813d 1d35 f53d 6b95 083e
000000c0: 7ce6 2cbd 15e9 25bd 6589 383e 6b76 e93d
000000d0: 4b0c 843c 5b0c 74be ee74 bebd 2c05 dabd
000000e0: 13a4 4a3e 0257 253e e2c9 683d 628c 3d3e
000000f0: 3356 91bd 5455 e53d 8726 4ebd e982 3abe
00000100: 1a43 86be a7b1 c23d f3c4 d23d 457e 413d
00000110: d282 133e 1392 70bd b353 843d 1b26 083e
00000120: f484 6c3e 293c 3abe d9f7 85be 9652 d13c
00000130: 667a 69bd da44 da3c 97f2 82bd ea1a 1a3e
00000140: ea6b 1abe 24d5 75bd 0384 1c3d 5ddd 953b
00000150: a475 1abe 31d7 9fbe cc97 01be 6541 47be
00000160: 3b61 333e 6b02 f0bd d042 41bd 908e 603c
00000170: 03da bf3d 2bb7 983e 2834 eb3d 7a35 edbd

layers.0.lin_self.weight f4 [96, 96]
-0.029648254 0.110439606 0.09150707 -0.09705039 -0.17913793 0.12552772 0.04622331 0.08985172
0.13395669 -0.050922032 0.0980742 0.076253325 0.12243463 -0.039634466 -0.16042107 0.06862859
-0.04885556 0.10505632 0.06681103 0.11176961 0.03978552 -0.055144243 0.056221575 -0.13525625
-0.002118424 -0.09001701 0.030828139 -0.043691263 -0.14511868 0.047724728 0.18822524 -0.01281646
-0.04495341 -0.03660467 -0.005159077 0.046349473 0.04013395 -0.03121679 -0.17272525 0.119153865
0.14928287 0.14536974 -0.07082415 -0.07956931 0.010407591 -0.053425327 0.08517462 0.008480094
0.06237752 0.048452042 -0.07751713 0.06567868 0.14963157 -0.09676392 -0.18103483 -0.09078234
-0.09141177 0.03256507 0.010758529 -0.016247706 -0.019051813 0.06769884 0.05258336 -0.11689349
-0.1494979 0.11748101 0.0921868 0.21625833 -0.17158256 0.1953696 -0.048689745 -0.13277882
-0.017671246 0.047436096 0.13809556 -0.266234 -0.14389439 0.06684013 -0.051298898 -0.010154559
-0.05683533 0.027202955 -0.0781074 0.104572 -0.06445628 -0.025031883 0.082161985 0.07850269
0.1202447 0.16781166 -0.14638202 0.20653689 0.05399686 -0.07968745 -0.031944335 -0.16287242
-0.0007594462 0.023326414 -0.013404871 0.02657356 -0.115293115 0.06450776 0.15027474 -0.01836703
0.043910645 0.061109733 -0.027415631 -0.040054254 0.009887231 -0.02579184 0.03522897 0.15785563
-0.0074869543 0.13698345 0.025989674 0.09566026 -0.09046765 0.029427394 0.116228305 -0.112868145
0.046289343 -0.115180045 -0.024408862 -0.13009267 0.017077126 0.09549698 -0.02392325 -0.079819374
-0.06337109 0.00032027272 0.018831737 0.07112757 0.06188547 0.07815666 -0.08557399 0.011003349
-0.030050565 0.031888425 -0.013010449 -0.0006139484 0.12308193 0.019548504 0.027012514 -0.1189922
0.06599724 0.08400599 0.00680608 0.15536368 0.13875735 -0.015252402 -0.096291654 -0.0001687681
-0.010296785 0.027870087 -0.01382667 0.05047978 0.0781447 0.09685915 0.18543941 -0.00871465
-0.01519511 -0.093489066 -0.081465796 0.2026376 -0.13019434 0.18083233 -0.062992714 0.11628672
-0.038357403 0.081830494 0.12843297 -0.27547807 0.08960154 0.12667316 -0.07522922 0.02315019
0.032578643 0.034175206 -0.02873877 0.1976563 -0.077769846 0.015454755 -0.041389924 0.026817812
0.045680836 0.0589084 0.045117777 0.17077656 0.069823526 0.0071472474 -0.014172133 -0.036905248
-0.029143153 -0.01121118 -0.025052367 0.09545997 0.084706455 0.09228509 0.02457268 -0.007806568
-0.036771167 0.071688406 -0.027311053 -0.13045038 0.063143864 0.011058947 0.1410075 0.04725269
0.028154552 -0.15595998 -0.05943221 0.047217295 0.1315582 -0.028302394 -4.310334e-05 -0.093392484
0.11066318 0.077829696 0.12797962 0.17159495 -0.05933643 0.104053564 0.025527282 0.027984694
0.045073576 -0.0003350958 0.05502416 -0.15677437 0.08200401 -0.09565825 0.15897311 -0.029163616
-0.08572176 -0.03878585 0.05589861 0.011131618 -0.069677204 0.06298526 0.095918365 0.06422648
-0.08653462 -0.1615883 0.038819954 -0.099269964 -0.07386371 -0.111702666 0.17152467 -0.029451817
0.0766331 -0.088153765 0.021319803 -0.03351546 -0.057067435 0.107354335 -0.0975583 0.0903047
00000000: e5e0 f2bc 292e e23d 0f68 bb3d 5bc2 c6bd
00000010: ef6f 37be 578a 003e a754 3d3d 2e04 b83d
00000020: f12b 093e 9f93 50bd 20db c83d b42a 9c3d
00000030: 02bf fa3d c057 22bd 6c45 24be 258d 8c3d
00000040: c51c 48bd c527 d73d 39d4 883d 77e7 e43d
00000050: 24f6 223d eede 61bd 9848 663d 9d80 0abe
00000060: 42d5 0abb d75a b8bd 4b8b fc3c 9cf5 32bd
00000070: fe99 14be 017b 433d 1ebe 403e 21fc 51bc
00000080: 1121 38bd c7ee 15bd 790d a9bb f2d8 3d3d
00000090: 7f63 243d 5bba ffbc e3de 30be f106 f43d
000000a0: 9cdd 183e cedb 143e 410c 91bd 3cf5 a2bd
000000b0: 9a84 2a3c 84d4 5abd 0870 ae3d 18f0 0a3c
000000c0: 927f 7f3d a675 463d 4dc1 9ebd 8b82 863d
000000d0: 0539 193e 292c c6bd 3261 39be 17ec b9bd
000000e0: 1836 bbbd f362 053d 8b44 303c e919 85bc
000000f0: 8c12 9cbc b0a5 8a3d a661 573d db65 efbd
00000100: fa15 19be e299 f03d 6fcc bc3d d372 5d3e
00000110: 57b3 2fbe f80e 483e e66e 47bd 2cf7 07be
00000120: 4ac3 90bc 5a4c 423d ec68 0d3e d34f 88be
00000130: 0d59 13be 7ae3 883d cb1e 52bd 4f5f 26bc
00000140: 2acc 68bd bbd8 de3c c6f6 9fbd d829 d63d
00000150: a701 84bd aa0f cdbc 8b44 a83d 05c6 a03d
00000160: da42 f63d d2d6 2b3e 2be5 15be 687e 533e
00000170: d02b 5d3d 2c33 a3bd 10d8 02bd 07c8 26be
00000180: 9215 47ba 0917 bf3c 1ba0 5bbc cbb0 d93c
00000190: cc1e ecbd a51c 843d 9fe1 193e 7476 96bc
000001a0: a6db 333d 334e 7a3d bf96 e0bc ee0f 24bd
000001b0: 0dfe 213c 6949 d3bc 414c 103d e8a4 213e
000001c0: 2055 f5bb 6445 0c3e 4ce8 d43c 87e9 c33d
000001d0: 1a47 b9bd b811 f13c 1b09 ee3d 6a27 e7bd
000001e0: e599 3d3d 84e3 ebbd 18f5 c7bc 0337 05be
000001f0: 54e5 8b3c ec93 c33d b1fa c3bc 5778 a3bd
00000200: b4c8 81bd 47ea a739 0445 9a3c 55ab 913d
00000210: 9e7b 7d3d 9910 a03d 6b41 afbd 6447 343c
00000220: 9a2c f6bc 709d 023d c729 55bc 61f1 20ba
00000230: 6112 fc3d 2f24 a03c 5949 dd3c 2fb2 f3bd
00000240: 9029 873d 550b ac3d 8a05 df3b a817 1f3e
00000250: 6816 0e3e 36e5 79bc 8f34 c5bd 58f7 30b9
00000260: d9b3 28bc cf4f e43c 4289 62bc e3c3 4e3d
00000270: 540a a03d 175e c63d d4e3 3d3e e4c7 0ebc
00000280: e9f4 78bc 3277 bfbd 8ad7 a6bd 3b80 4f3e
00000290: aa51 05be 1c2c 393e 5302 81bd bb27 ee3d
000002a0: a71c 1dbd bf96 a73d ef83 033e 760b 8dbe
000002b0: 0381 b73d 9cb6 013e c711 9abd 78a5 bd3c
000002c0: 2f71 053d 4dfb 0b3d 926d ebbc 6a66 4a3e
000002d0: cc45 9fbd f135 7d3c 7b88 29bd 07b1 db3c
000002e0: d41b 3b3d ef49 713d 6bcd 383d 0de0 2e3e
000002f0: a3ff 8e3d 7533 ea3b 3c32 68bc f529 17bd
00000300: 9fbd eebc 19af 37bc 9f3a cdbc 8480 c33d
00000310: 947a ad3d f7ff bc3d a54c c93c 3dce ffbb
00000320: 5d9d 16bd 5fd1 923d 6ebb dfbc c994 05be
00000330: 9251 813d 9630 353c 4564 103e 098c 413d
00000340: 60a4 e63c f9b3 1fbe 306f 73bd ec66 413d
00000350: 31b7 063e 6cda e7bc dcc9 34b8 8f44 bfbd
00000360: 61a3 e23d 2d65 9f3d 170d 033e 96b6 2f3e
00000370: c20a 73bd 091a d53d 971e d13c 2840 e53c
00000380: 129f 383d ccaf afb9 0361 613d 7689 20be
00000390: b8f1 a73d 79e8 c3bd d9c9 223e 89e8 eebc
000003a0: e48e afbd e9dd 1ebd f1f5 643d 6461 363c
000003b0: ecb2 8ebd 6afe 803d d970 c43d 2c89 833d
000003c0: 1039 b1bd 6777 25be ac01 1f3d 0d4e cbbd
000003d0: db45 97bd 5ec4 e4bd 2aa4 2f3e f044 f1bc
000003e0: d1f1 9c3d f689 b4bd dea6 ae3c 8247 09bd
000003f0: 8bbf 69bd 97dc db3d a5cc c7bd acf1 b83d

layers.0.lin_self.bias f4 [96]
-0.106869064 0.039341625 -0.0064535425 0.022653915 -0.0015241059 -0.068033196 -0.13557433 -0.06365373
0.027968073 -0.059285063 0.094761066 0.0744958 0.001519481 0.013700682 -0.021403749 -0.06403085
-0.01625643 -0.04717065 -0.01759155 0.065152824 -0.020006793 0.010317691 -0.10132777 -0.07606157
-0.073963344 0.046265382 0.05525506 0.07376213 0.0421113 -0.04918914 -0.08563516 0.08212018
-0.025808658 -0.042848106 0.059923295 0.007136823 -0.0777348 0.086163156 0.13706109 -0.04942154
0.08315425 0.08277222 0.03762544 -0.017908212 0.052455157 -0.07885184 0.014091448 0.016525274
-0.026608035 0.054130033 0.07635453 0.12469666 -0.08204319 0.0073099923 0.020896954 0.041353654
-0.03540608 -0.12575647 0.10641449 0.047029383 -0.053124834 0.057156812 -0.017708374 0.054527164
0.01914341 0.06691758 -0.11072508 -0.089261614 -0.008825236 0.09993562 -0.06270952 -0.043399274
-0.03378343 -0.107200295 -0.07266686 -0.12795414 -0.06260868 0.028910793 -0.01064202 -0.10023786
-0.023402143 -0.021824948 -0.047208972 0.02448902 -0.041438997 -0.08753978 -0.010884156 -0.0143007655
0.0039325887 -0.025234435 -0.07505033 -0.0976599 -0.01252765 -0.10550073 0.006791215 -0.060844824
00000000: 2bde dabd af24 213d 3d78 d3bb b494 b93c
00000010: 82c4 c7ba fd54 8bbd ffd3 0abe e35c 82bd
00000020: 4d1d e53c e5d4 72bd 1712 c23d 4191 983d
00000030: 5229 c73a d378 603c ea56 afbc 9b22 83bd
00000040: 342c 85bc 0336 41bd 271c 90bc d86e 853d
00000050: 49e5 a3bc 880b 293c ef84 cfbd 2bc6 9bbd
00000060: 187a 97bd c580 3d3d 2153 623d 9a10 973d
00000070: e67c 2c3d 8d7a 49bd 7d61 afbd a02e a83d
00000080: ae6c d3bc 7f81 2fbd 2172 753d 03dc e93b
00000090: 6c33 9fbd 4f76 b03d be59 0c3e 3e6e 4abd
000000a0: c74c aa3d 7b84 a93d 221d 1a3d 3eb4 92bc
000000b0: 38db 563d 137d a1bd d1df 663c 0360 873c
000000c0: 18f9 d9bc 74b7 5d3d c45f 9c3d f660 ff3d
000000d0: 4306 a8bd a988 ef3b 1730 ab3c 7362 293d
000000e0: f705 11bd 4ec6 00be d7ef d93d e2a1 403d
000000f0: 6d99 59bd 431d 6a3d 2711 91bc e057 5f3d
00000100: a4d2 9c3c 160c 893d d5c3 e2bd cbce b6bd
00000110: b997 10bc 0cab cc3d d96d 80bd 70c3 31bd
00000120: 7e60 0abd d48b dbbd 5dd2 94bd 6906 03be
00000130: fb38 80bd 54d6 ec3c de5b 2ebc 8249 cdbd
00000140: dab5 bfbc 3cca b2bc 325e 41bd 339d c83c
00000150: f0bb 29bd 0e48 b3bd 7653 32bc c24d 6abc
00000160: f2dc 803b 72b8 cebc fdb3 99bd ea01 c8bd
00000170: c640 4dbc c410 d8bd d788 de3b 6c38 79bd

layers.0.lin_neigh.weight f4 [96, 96]
-0.0073765405 -0.10163388 -0.06762626 -0.12037122 -0.046718657 -0.010388276 0.007154861 0.048515894
0.015693361 -0.108519726 -0.10797175 -0.0023503376 -0.13166983 -0.034574334 -0.051309932 0.049102683
-0.11380322 -0.019080466 0.034470357 0.017356677 -0.12710622 0.04920991 0.006805169 -0.10224287
-0.04054887 0.07214588 0.055454873 -0.18741366 -0.09992156 -0.029790837 0.05128155 0.06749777
-0.06453 -0.1732726 0.041959137 0.013317929 0.0581806 0.023518933 0.054764576 0.012484828
-0.010503056 0.0056134583 0.06175861 -0.121693425 -0.039046712 -0.040442403 0.038151804 -0.07496952
-0.0861398 0.10703172 0.012057753 0.052796263 0.10716908 0.01711916 -0.19766675 -0.107161894
0.0028665974 -0.0049098865 -0.08136384 0.068356454 -0.14016952 -0.13979357 -0.0645382 -0.11152045
-0.10824641 -0.14139637 -0.088602245 -0.028486293 -0.04953128 0.034263775 0.067353636 -0.056506403
-0.13156715 -0.1152208 0.09137269 -0.081648074 -0.048919596 0.055319592 -0.020747095 -0.12288694
-0.111916676 -0.10759168 -0.008278563 -0.05374838 -0.021229187 -0.073591895 -0.080213696 -0.012607919
-0.069467545 0.10711154 -0.11913026 0.03678557 -0.12084311 -0.032573607 -0.074410684 -0.07407328
-0.033147994 -0.012559466 -0.08751647 -0.020921048 -0.02911886 -0.047726735 0.048763085 -0.10696152
-0.034418914 0.12597537 0.026983077 0.072336294 0.004629106 -0.005615823 0.12459126 -0.014409789
0.024581544 0.13796034 -0.046219103 -0.056085274 -0.018380633 -0.03437024 0.028807253 0.063214295
0.03343224 -0.090102345 -0.108281486 -0.06943424 0.073418334 -0.032016393 0.02856187 -0.07748635
0.016590925 -0.04064391 0.04659261 0.03633485 -0.022327172 -0.026139362 -0.12694661 -0.005202313
0.020041486 0.018053645 -0.065227985 0.020003423 0.05314693 0.0027503758 -0.078079715 -0.061824225
-0.030671744 0.061265565 0.03182066 0.052636504 -0.007997536 0.0030150826 -0.0443211 -0.1063476
-0.13363779 0.050740696 0.0022350843 -0.028786719 -0.11172706 0.083582394 0.010765325 -0.10598072
-0.09263903 -0.09947539 -0.03197911 0.15626599 -0.12045134 0.0732658 0.076556236 0.0056360494
-0.03199361 0.03655322 -0.009566135 -0.14158309 -0.06092595 -0.06640675 0.070947625 0.064060904
0.046988457 -0.12369924 -0.07912661 0.09001102 -0.091825396 0.10666568 0.0681017 0.013826295
0.0476802 0.1525192 0.067239836 0.025491334 0.07878285 -0.16906272 -0.040388055 -0.12540247
0.08389254 0.016248947 0.022538824 0.018347867 -0.03005105 -0.006849668 0.08875169 0.028146185
0.00577504 -0.015403077 0.02590456 0.052730754 0.16010581 0.03876626 0.08080403 -0.036541127
-0.041692264 0.02277695 0.054100193 0.049247332 0.07202782 0.10119853 0.049616776 0.13140637
-0.049265563 -0.046494637 0.06214424 0.019719977 0.085496545 0.00029164308 -0.011177606 -0.014663568
0.16114877 -0.09052164 -0.04062439 0.10240491 0.018897817 -0.0115212845 0.13541774 0.002026814
0.089216284 -0.060462885 0.14460072 -0.018925028 0.07735987 0.042069945 -0.04200584 -0.067200385
-0.13738205 0.09843411 -0.063070506 -0.03275565 0.15878072 -0.06267612 -0.07345339 -0.06583827
0.1059529 0.011449161 0.19333391 -0.0063390825 0.066933595 -0.03977996 -0.022180863 -0.029661253
00000000: e8b6 f1bb 6c25 d0bd a37f 8abd 3085 f6bd
00000010: 105c 3fbd 9633 2abc 5373 ea3b 9ab8 463d
00000020: 5d8f 803c 973f debd 4b20 ddbd 1f08 1abb
00000030: 75d4 06be d19d 0dbd 5d2a 52bd e51f 493d
00000040: aa11 e9bd a34e 9cbc ca30 0d3d 972f 8e3c
00000050: 2228 02be 5590 493d e5fd de3b b664 d1bd
00000060: 9216 26bd 38c1 933d a624 633d 5ee9 3fbe
00000070: ada3 ccbd ea0b f4bc 9a0c 523d 453c 8a3d
00000080: 4e28 84bd 5f6e 31be 58dd 2b3d 7133 5a3c
00000090: c84e 6e3d c7aa c03c d250 603d 2a8d 4c3c
000000a0: 0315 2cbc 1af1 b73b 99f6 7c3d 673a f9bd
000000b0: 72ef 1fbd efa6 25bd 1145 1c3d 9f89 99bd
000000c0: 106a b0bd 7233 db3d e28d 453c e540 583d
000000d0: 767b db3d 7b3d 8c3c 2769 4abe b277 dbbd
000000e0: 86dd 3b3b 1de3 a0bb 16a2 a6bd 78fe 8b3d
000000f0: 9988 0fbe 0c26 0fbe 9b2c 84bd d564 e4bd
00000100: 4bb0 ddbd 36ca 10be 1875 b5bd 165c e9bc
00000110: 50e1 4abd 2c58 0c3d b4f0 893d 4273 67bd
00000120: 8ab9 06be e2f8 ebbd 9b21 bb3d 1b37 a7bd
00000130: ea5f 48bd cc96 623d d0f5 a9bc 26ac fbbd
00000140: 9234 e5bd 0759 dcbd cfa2 07bc 4327 5cbd
00000150: d5e8 adbc 59b7 96bd 1447 a4bd 7291 4ebc
00000160: 0045 8ebd 4c5d db3d 91fa f3bd 77ac 163d
00000170: 987c f7bd e76b 05bd a164 98bd bbb3 97bd
00000180: 31c6 07bd 38c6 4dbc d63b b3bd 9e62 abbc
00000190: ad8a eebc 1c7d 43bd cdbb 473d a40e dbbd
000001a0: d9fa 0cbd b0ff 003e 9d0b dd3c 0d25 943d
000001b0: c1af 973b f004 b8bb b429 ff3d 0917 6cbc
000001c0: 3c5f c93c 7a45 0d3e 3e50 3dbd acb9 65bd
000001d0: fb92 96bc cfc7 0cbd 30fd eb3c 7f76 813d
000001e0: 3ff0 083d 9487 b8bd afc2 ddbd 8a33 8ebd
000001f0: 5a5c 963d 9f23 03bd 95fa e93c 2ab1 9ebd
00000200: b1e9 873c 3b7a 26bd e5d7 3e3d dad3 143d
00000210: 79e7 b6bc 3722 d6bc 4bfe 01be 2a78 aabb
00000220: 0b2e a43c 3de5 933c 4096 85bd 38de a33c
00000230: 98b0 593d a63f 343b 42e8 9fbd 663b 7dbd
00000240: 4f43 fbbc 9af1 7a3d 6156 023d 6099 573d
00000250: 1908 03bc b198 453b 0b8a 35bd c5cc d9bd
00000260: 58d8 08be 7ad5 4f3d 7e7a 123b 20d2 ebbc
00000270: 28d1 e4bd 3f2d ab3d 0c61 303c 6b0c d9bd
00000280: 88b9 bdbd c1b9 cbbd 87fc 02bd 3104 203e
00000290: 31af f6bd 610c 963d 84c9 9c3d 9cae b83b
000002a0: bb0b 03bd d4b8 153d 47bb 1cbc 28fb 10be
000002b0: 7d8d 79bd 4300 88bd fd4c 913d 5d32 833d
000002c0: f876 403d 0756 fdbd 220d a2bd b357 b83d
000002d0: f40e bcbd 8973 da3d e778 8b3d af87 623c
000002e0: 504c 433d fe2d 1c3e 0ab5 893d 34d3 d03c
000002f0: e758 a13d c71e 2dbe f26d 25bd 8169 00be
00000300: dacf ab3d 831c 853c 57a3 b83c 444e 963c
00000310: 9f2d f6bc 2e73 e0bb 72c3 b53d d492 e63c
00000320: 8c3c bd3b 305d 7cbc cd35 d43c 34fc 573d
00000330: c7f2 233e 5fc9 1e3d 957c a53d 26ac 15bd
00000340: 82c5 2abd ba96 ba3c 2a98 5d3d 92b7 493d
00000350: 5283 933d 2d41 cf3d f63a 4b3d 648f 063e
00000360: b0ca 49bd 2971 3ebd f58a 7e3d ca8b a13c
00000370: d018 af3d ace7 9839 4722 37bc 763f 70bc
00000380: 2f04 253e 6963 b9bd c365 26bd aab9 d13d
00000390: 98cf 9a3c c5c3 3cbc f3aa 0a3e 4cd4 043b
000003a0: 07b7 b63d eea7 77bd 3612 143e a908 9bbc
000003b0: da6e 9e3d 8951 2c3d 510e 2cbd 5ba0 89bd
000003c0: e1ad 0cbe d397 c93d 1c2b 81bd ca2a 06bd
000003d0: 6a97 223e 565c 80bd bb6e 96bd 37d6 86bd
000003e0: d6fd d83d 4395 3b3c 53f9 453e 14b8 cfbb
000003f0: 7b14 893d 50f0 22bd a4b4 b5bc 28fc f2bc

layers.1.lin_self.weight f4 [96, 96]
0.043090764 -0.08753488 -0.0875094 0.036555387 -0.07430424 -0.0020513867 0.012449091 -0.03292018
-0.042136066 -0.0734125 0.060161706 0.008480213 -0.072072044 0.057187572 0.057987604 0.003959349
0.061974484 0.07905749 -0.07156946 -0.1054296 0.09080851 -0.030552879 0.08314137 0.099016346
0.017099388 -0.08677431 -0.036914386 -0.019758405 0.016922036 0.015079224 -0.074557714 -0.090699814
-0.063071236 -0.113410704 0.038725834 0.0859788 -0.057401538 -0.015132828 0.06974529 0.085857145
0.018748106 -0.018417172 0.026359776 0.07955359 -0.0929852 -0.027370354 0.056802023 -0.042480893
0.0069873882 0.023191897 -0.09912281 0.05445449 -0.04666537 -0.033158742 -0.013135701 -0.053208034
-0.07825054 -0.06586233 -0.051433966 -0.04130023 -0.009249033 0.007949513 0.032418054 -0.12124627
0.039139874 -0.07012973 -0.057191852 0.07112409 -0.064458594 -0.035936803 0.08472669 0.029118584
-0.081923574 -0.04664387 0.09604086 -0.003583318 -0.040354546 0.009432764 -0.067733966 0.094502345
-0.026052345 0.07883199 0.01063113 -0.06961046 0.04011858 -0.05261347 -0.076783456 -0.061515328
0.012592145 -0.00047709586 -0.019467391 -0.036032625 0.07821821 0.06849897 0.014157606 -0.08079897
-0.050637186 -0.0003084271 -0.05102104 0.07605738 0.030333545 -0.011837296 0.04356553 0.055628065
-0.094415806 -0.06832615 -0.025488192 -0.039197948 0.022995282 0.031152118 -0.10503485 -0.07351533
-0.032620206 0.014249403 0.0562809 -0.098722905 -0.028496653 -0.08655318 0.011668691 -0.07397763
0.09618941 -0.0005929546 0.009010235 0.0056955675 0.1000906 -0.061303604 0.0070755114 0.04474077
0.03698201 0.067066066 -0.05054932 0.04542675 -0.03897452 -0.09458829 -0.02568678 0.07511106
0.093528025 0.038063888 -0.029332973 0.041655734 -0.099215314 -0.11165521 0.023024062 0.053862788
0.04183313 0.09984157 -0.033501435 -0.1047674 -0.035898596 -0.03324306 -0.038885236 -0.09762038
-0.06215541 -0.009764362 -0.02980647 -0.05016998 -0.06669704 -0.056360893 -0.06839788 -0.03733138
0.019532947 -0.08014757 0.03194382 -0.035731703 -0.01613258 0.07353909 -0.004878346 -0.042539105
-0.083041 -0.0058530336 -0.09234468 -0.0015510279 -0.07676404 0.073185205 0.0506472 0.085657015
0.042547807 -0.05832553 -0.08791459 -0.09530137 -0.074643664 -0.072285935 -0.031475473 -0.052334595
0.053855974 0.06047756 -0.00743645 0.010450519 -0.010055788 0.043003306 -0.017232958 -0.035117917
0.00064089487 -0.029899146 -0.0717078 -0.024601711 0.072018825 -0.044109814 -0.006281355 0.0009334299
-0.08025562 0.04984983 0.050153963 0.01062329 0.0042116246 0.063699745 -0.10906208 0.023936013
-0.09650189 -0.015965072 -0.034648187 -0.004458086 -0.04218398 -0.031321444 -0.03733289 0.036716476
0.0005857089 -0.0013953402 0.012144357 0.0030842924 -0.01229844 0.050466813 0.0033753298 -0.091776066
-0.08781288 0.009983296 -0.03269259 0.041690044 0.05005235 0.094603494 0.022402765 0.06839773
0.036135044 0.0113328425 0.057880234 -0.06963945 -0.0131388875 0.03940173 0.016845137 -0.034375235
0.049987644 0.080265366 0.08424141 -0.039775223 -0.06609633 -0.080248356 -0.12025299 -0.060895447
-0.042710613 0.05052913 0.03065476 0.0173265 -0.0100292135 0.030733978 0.0508477 -0.0032573154
00000000: f17f 303d 7d45 b3bd 2138 b3bd 1abb 153d
00000010: d22c 98bd 8f70 06bb 46f7 4b3c 50d7 06bd
00000020: de96 2cbd 4b59 96bd 1f6c 763d 97f0 0a3c
00000030: 829a 93bd 843d 6a3d 6984 6d3d 6dbd 813b
00000040: f5d8 7d3d e5e8 a13d 0293 92bd 79eb d7bd
00000050: d0f9 b93d 084a fabc 0646 aa3d 15c9 ca3d
00000060: 0414 8c3c bbb6 b1bd 8a33 17bd 61dc a1bc
00000070: 15a0 8a3c d90e 773c b7b1 98bd d3c0 b9bd
00000080: 7e2b 81bd df43 e8bd fb9e 1e3d a715 b03d
00000090: e01d 6bbd aeef 77bc 9ed6 8e3d dfd5 af3d
000000a0: a195 993c 9cdf 96bc 75f0 d73c feec a23d
000000b0: 066f bebd cb37 e0bc 3da9 683d 7200 2ebd
000000c0: 76f6 e43b effc bd3c e600 cbbd ac0b 5f3d
000000d0: 3024 3fbd 76d1 07bd 2037 57bc abf0 59bd
000000e0: d241 a0bd d4e2 86bd 6cac 52bd 6e2a 29bd
000000f0: 4289 17bc ad3e 023c cbc8 043d f74f f8bd
00000100: 2251 203d 2da0 8fbd 0142 6abd 82a9 913d
00000110: de02 84bd 7832 13bd 3085 ad3d 198a ee3c
00000120: 8cc7 a7bd a50d 3fbd 12b1 c43d 1ad6 6abb
00000130: cf4a 25bd e18b 1a3c 1bb8 8abd 728a c13d
00000140: ba6b d5bc ab72 a13d 312e 2e3c ee8f 8ebd
00000150: 6153 243d 3981 57bd a540 9dbd 7ff7 7bbd
00000160: 494f 4e3c b922 fab9 147a 9fbc f296 13bd
00000170: de30 a03d 3049 8c3d 4ef5 673c ee79 a5bd
00000180: f068 4fbd 62b4 a1b9 70fb 50bd f9c3 9b3d
00000190: 0e7e f83c 38f1 41bc c571 323d 41da 633d
000001a0: 135d c1bd 95ee 8bbd 9dcc d0bc 078e 20bd
000001b0: 9a60 bc3c ba32 ff3c 831c d7bd 358f 96bd
000001c0: c49c 05bd 5476 693c cd86 663d 3c2f cabd
000001d0: d071 e9bc cb42 b1bd 0a2e 3f3c 9581 97bd
000001e0: f4fe c43d 8270 1bba aa9f 133c e2a1 ba3b
000001f0: 4dfc cc3d 7d19 7bbd b1d9 e73b 1942 373d
00000200: 737a 173d ef59 893d ce0c 4fbd 6611 3a3d
00000210: bfa3 1fbd 81b7 c1bd 156d d2bc d4d3 993d
00000220: 9f8b bf3d e1e8 1b3d b44b f0bc 349f 2a3d
00000230: 6631 cbbd 7dab e4bd f59c bc3c 3a9f 5c3d
00000240: 3759 2b3d bd79 cc3d cd38 09bd 4a90 d6bd
00000250: 680a 13bd e029 08bd 2046 1fbd 32ed c7bd
00000260: ac96 7ebd b4fa 1fbc b32c f4bc 097f 4dbd
00000270: 7598 88bd aeda 66bd 3014 8cbd cae8 18bd
00000280: 8f03 a03c 6924 a4bd 86d7 023d 685b 12bd
00000290: 7928 84bc aa9b 963d 88da 9fbb 7c3d 2ebd
000002a0: 6611 aabd ceca bfbb 351f bdbd dc4b cbba
000002b0: 7736 9dbd 20e2 953d 7073 4f3d f26c af3d
000002c0: 9c46 2e3d c0e6 6ebd 910c b4bd 5d2d c3bd
000002d0: c7de 98bd a60a 94bd 6dec 00bd cd5c 56bd
000002e0: 1598 5c3d 51b7 773d 77ad f3bb a738 2b3c
000002f0: 08c1 24bc 3c24 303d 222c 8dbc ced7 0fbd
00000300: ba01 283a 0eef f4bc 8adb 92bd 8789 c9bc
00000310: 9b7e 933d 7eac 34bd d3d3 cdbb 6cb1 743a
00000320: 0f5d a4bd 562f 4c3d 3e6e 4d3d 4f0d 2e3c
00000330: ab01 8a3b 0375 823d f15b dfbd 7515 c43c
00000340: c8a2 c5bd 2fc9 82bc 42eb 0dbd 2315 92bb
00000350: 1cc9 2cbd ea4a 00bd 5fea 18bd 0464 163d
00000360: 428a 193a d9e3 b6ba 20f9 463c d721 4a3b
00000370: 657f 49bc 4ab6 4e3d a334 5d3b 17f5 bbbd
00000380: 3dd7 b3bd fa90 233c aae8 05bd 2ec3 2a3d
00000390: b103 4d3d 7abf c13d 0186 b73c 1c14 8c3d
000003a0: 5702 143d 63ad 393c d313 6d3d 219f 8ebd
000003b0: 7d44 57bc b563 213d d0fe 893c 0ccd 0cbd
000003c0: d8bf 4c3d 2b62 a43d c386 ac3d 58eb 22bd
000003d0: 835d 87bd 4059 a4bd 3347 f6bd 816d 79bd
000003e0: 53f1 2ebd a2f7 4e3d b11f fb3c 4ef0 8d3c
000003f0: 9251 24bc d3c5 fb3c ae45 503d af78 55bb

layers.1.lin_self.bias f4 [96]
-0.09785829 -0.09215404 -0.100463174 -0.05765343 -0.12356497 0.029617885 -0.0013149749 0.007016063
0.055409703 0.06747727 0.011475134 0.03464332 0.04584127 -0.031396758 0.10482288 -0.06478686
0.10057648 -0.03607759 -0.045243055 -0.16449206 -0.09903933 0.03864023 -0.07125701 0.039292417
-0.08301023 -0.033200458 0.059922725 0.02230097 -0.0118914405 -0.04902485 -0.011882975 -0.10395609
-0.02803753 -0.037814528 0.023236016 -0.07410644 0.013302017 -0.052103166 -0.004728855 0.042656116
-0.054830443 -0.11506523 0.041819304 -0.02974525 -0.06325502 -0.07265622 -0.033906426 0.051884174
-0.10251124 0.06998679 0.032580312 -0.090136476 -0.06370357 0.0010821612 -0.046453614 -0.08155138
0.04309445 0.07724299 0.025135962 -0.070010364 -0.10765684 -0.042039353 0.11601229 0.014811334
-0.06403054 0.095414236 -0.07722929 0.05910649 -0.1318049 -0.07958512 -0.04785407 -0.07404708
0.032272637 -0.121273644 0.06689836 -0.0087895505 0.03578814 0.045685668 -0.026070965 -0.09776602
-0.045857273 0.023974141 0.041788366 -0.083648965 0.018506207 0.052342262 -0.11644729 0.015635421
-0.05636372 -0.07846975 -0.015041091 -0.09754594 -0.084152125 -0.057218548 -0.04166357 0.075142175
00000000: ed69 c8bd 42bb bcbd a3bf cdbd 0126 6cbd
00000010: a20f fdbd 35a1 f23c 3c5b acba 01e7 e53b
00000020: 49f5 623d 8631 8a3d 3302 3c3c 27e6 0d3d
00000030: 0ec4 3b3d e399 00bd 61ad d63d f9ae 84bd
00000040: 0bfb cd3d 18c6 13bd c850 39bd 9b70 28be
00000050: 22d5 cabd 3845 1e3d 32ef 91bd 16f1 203d
00000060: 4401 aabd 34fd 07bd 8871 753d 86b0 b63c
00000070: 51d4 42bc 48ce 48bd cfb0 42bc eee6 d4bd
00000080: f6ae e5bc 68e3 1abd 7559 be3c 1ec5 97bd
00000090: b4f0 593c 216a 55bd 83f4 9abb 2eb8 2e3d
000000a0: e395 60bd 52a7 ebbd b84a 2b3d 4fac f3bc
000000b0: d98b 81bd c9cc 94bd 77e1 0abd 8084 543d
000000c0: 6af1 d1bd 3c55 8f3d ef72 053d 7999 b8bd
000000d0: 0477 82bd 4ed7 8d3a 2546 3ebd 6904 a7bd
000000e0: ce83 303d 9331 9e3d efe9 cd3c 9861 8fbd
000000f0: 307b dcbd 7531 2cbd da97 ed3d 3dab 723c
00000100: 7222 83bd 8a68 c33d 642a 9ebd a619 723d
00000110: ddf7 06be 86fd a2bd a102 44bd ffa5 97bd
00000120: 5030 043d 515e f8bd 0202 893d 0c02 10bc
00000130: 9696 123d e520 3b3d c792 d5bc 8d39 c8bd
00000140: d6d4 3bbd 6b65 c43c 472a 2b3d 2650 abbd
00000150: 549a 973c d764 563d eb7b eebd db15 803c
00000160: a5dd 66bd c0b4 a0bd e86e 76bc 2ac6 c7bd
00000170: f357 acbd ff5d 6abd 6ba7 2abd 24e4 993d

layers.1.lin_neigh.weight f4 [96, 96]
0.065376595 -0.10175673 -0.06636325 0.046819463 0.08105162 0.03866799 -0.022457229 0.009354209
-0.04273283 -0.0043021496 -0.02347198 0.07448458 -0.047512364 0.011332136 -0.100132935 0.025218764
-0.012473841 -0.049116444 -0.08154312 0.080388546 0.034245234 -0.02627891 0.04637647 0.09277551
-0.09708029 -0.041268364 0.038929287 0.092630304 0.05577349 -0.061471377 0.023320539 0.077861965
0.019504914 -0.066226006 -0.038066037 -0.01034652 0.033678927 0.0008405093 -0.03422711 -0.08160874
0.01956667 0.02424825 -0.08629093 -0.040561605 -0.0878625 -0.06167452 -0.05929457 0.07698135
0.062594056 -9.448715e-05 -0.100831956 -0.09370109 -0.0793687 0.010921804 -0.072675586 -0.122343615
0.025069242 -0.104401834 -0.007865288 0.09070564 -0.051426392 0.038686413 0.08320653 -0.060993597
0.07002325 -0.046222404 -0.014451346 -0.050756402 -0.06931875 -0.05829932 -0.0059265494 -0.07503886
-0.0702128 0.044764377 -0.06654314 -0.056431282 -0.043958236 0.04163819 0.040165056 0.05512675
0.023616167 0.038960084 0.008158194 -0.011350204 0.03568019 0.09856371 0.09703159 -0.092589796
0.019468823 -0.110881545 0.009853456 -0.072900265 0.059737947 -0.10285557 0.055930793 -0.018532034
0.0632274 0.07527247 0.07562159 0.015973635 -0.035861634 0.032843612 -0.07321666 0.058712926
-0.09739422 -0.0058371187 0.017062902 -0.084439255 -0.07115644 -0.08293009 -0.07122697 -0.019146215
0.02030441 0.05121511 -0.11441381 0.07328277 -0.121875025 -0.024915788 0.07048288 -0.048677705
-0.09227041 0.0009812661 -0.006848288 0.018335314 -0.07510703 0.040241927 0.08691517 -0.10166777
0.045544673 -0.12699808 -0.10795802 0.014079332 0.045759186 0.024636397 -0.074334994 -0.059166748
-0.056975987 0.0020345554 -0.059983473 -0.09574391 0.093001805 0.06411383 0.06464292 0.06983
0.039717715 0.09713319 0.048981354 0.021659289 -0.061146278 -0.04447511 0.03427498 -0.0042653275
-0.02619299 -0.09918509 -0.036447894 0.08252447 -0.07497989 -0.019550655 0.0069693197 0.020968841
-0.085217126 0.042570233 0.020040471 0.04446013 -0.047488328 -0.07626583 0.08667882 -0.021955479
0.026323052 -0.10921641 0.041297447 -0.06993519 0.012387172 -0.12302324 0.0063003637 0.07216037
0.001230067 -0.10780293 0.049880795 -0.099147804 0.05920797 -0.048141167 -0.057126094 -0.060619164
0.0043429043 -0.052818604 -0.073946305 -0.02908727 -0.022600789 -0.1156578 -0.0038852238 0.07485735
-0.011335963 -0.008409491 -0.004993605 -0.017016133 -0.020379713 0.06832681 -0.021345584 0.022969112
-0.032198425 0.059492037 -0.046499085 0.031686515 -0.054013412 -0.121712506 -0.02971596 -0.00056138524
-0.061638586 0.08609813 -0.040855993 -0.032840885 0.03782434 0.04347052 -0.07702247 0.017909916
0.002527454 -0.0025662358 0.02680603 -0.04778631 -0.006091276 -0.07451827 0.09416423 0.078709
0.0053316513 -0.053372614 -0.1153104 -0.043923803 -0.021315867 -0.07193531 0.06078598 0.012450877
0.09808809 0.013563309 0.053233292 0.015721533 -0.055823315 0.07207327 0.051230676 0.005402378
0.07806868 -0.083636545 -0.022049861 -0.07272526 -0.093322456 0.016014744 0.06336216 -0.093248375
-0.09459247 -0.116688445 -0.100998715 -0.025260916 0.021108102 -0.08382276 0.08009843 -0.05043824
00000000: 2ae4 853d d565 d0bd 75e9 87bd c4c5 3f3d
00000010: 64fe a53d 5462 1e3d 39f8 b7bc 6542 193c
00000020: 9f08 2fbd 0cf9 8cbb 4f48 c0bc 5f8b 983d
00000030: 539c 42bd 6caa 393c 7f12 cdbd 9597 ce3c
00000040: 155f 4cbc 532e 49bd 1400 a7bd c0a2 a43d
00000050: bb44 0c3d de46 d7bc 41f5 3d3d 1601 be3d
00000060: 08d2 c6bd 0409 29bd 5174 1f3d f5b4 bd3d
00000070: be72 643d 69c9 7bbd b70a bf3c 1876 9f3d
00000080: c5c8 9f3c 80a1 87bd 22eb 1bbd 7384 29bc
00000090: eaf2 093d a055 5c3a ba31 0cbd 7c22 a7bd
000000a0: 484a a03c 44a4 c63c 4db9 b0bd ed23 26bd
000000b0: 41f1 b3bd 6c9e 7cbd ddde 72bd 66a8 9d3d
000000c0: 5031 803d 6727 c6b8 fc80 cebd 5be6 bfbd
000000d0: 0f8c a2bd 5ef1 323c f0d6 94bd 4a8f fabd
000000e0: 035e cd3c a1d0 d5bd 69dd 00bc e1c3 b93d
000000f0: 7ba4 52bd a575 1e3d 2f68 aa3d 6cd4 79bd
00000100: 5a68 8f3d b453 3dbd 57c5 6cbc f2e5 4fbd
00000110: fdf6 8dbd 45cb 6ebd 8033 c2bb f9ad 99bd
00000120: bacb 8fbd da5a 373d c547 88bd 7d24 67bd
00000130: 8d0d 34bd cf8c 2a3d 1d84 243d 96cc 613d
00000140: b176 c13c 9c94 1f3d f2a9 053c 35f6 39bc
00000150: 6425 123d c5db c93d 80b8 c63d b89f bdbd
00000160: 157d 9f3c dd15 e3bd 6470 213c bc4c 95bd
00000170: c7af 743d f1a5 d2bd b017 653d 7ed0 97bc
00000180: 5e7d 813d 7428 9a3d 7edf 9a3d 24db 823c
00000190: a6e3 12bd 0687 063d 9ef2 95bd f77c 703d
000001a0: 9f76 c7bd 4d45 bfbb 80c7 8b3c 7dee acbd
000001b0: 78ba 91bd 40d7 a9bd 72df 91bd 86d8 9cbc
000001c0: 6f55 a63c efc6 513d ca51 eabd 4715 963d
000001d0: 9d99 f9bd 321c ccbc 5459 903d 4662 47bd
000001e0: 45f8 bcbd d49d 803a 9a67 e0bb f133 963c
000001f0: b7d1 99bd b8d4 243d 9500 b23d 3137 d0bd
00000200: 0d8d 3a3d c90b 02be 1819 ddbd 00ad 663c
00000210: fc6d 3b3d 45d2 c93c f23c 98bd d558 72bd
00000220: a75f 69bd 2d56 053b 3bb1 75bd 6215 c4bd
00000230: bb77 be3d 1d4e 833d 8263 843d 0803 8f3d
00000240: 0baf 223d c4ed c63d aca0 483d d26e b13c
00000250: 8574 7abd 882b 36bd ec63 0c3d 29c4 8bbb
00000260: ae92 d6bc 8d21 cbbd 634a 15bd 9702 a93d
00000270: 0e8f 99bd b228 a0bc e45e e43b d9c6 ab3c
00000280: 5186 aebd 205e 2e3d ea2b a43c d31b 363d
00000290: 1f83 42bd 4231 9cbd aa84 b13d fadb b3bc
000002a0: 71a3 d73c daac dfbd 8327 293d 2e3a 8fbd
000002b0: 91f3 4a3c 9cf3 fbbd 4873 ce3b d1c8 933d
000002c0: 333a a13a c8c7 dcbd ce4f 4c3d 010e cbbd
000002d0: 0e84 723d ac2f 45bd 0dfd 69bd cd4b 78bd
000002e0: ec4e 8e3b 5258 58bd 2971 97bd 6d48 eebc
000002f0: 4a25 b9bc ffdd ecbd 3d9f 7ebb cf4e 993d
00000300: 7aba 39bc f6c7 09bc 65a1 a3bb 6b65 8bbc
00000310: 5bf3 a6bc edee 8b3d efdc aebc b829 bc3c
00000320: 7fe2 03bd ecad 733d d375 3ebd b8c9 013d
00000330: 2b3d 5dbd 6844 f9bd e36e f3bc ed29 13ba
00000340: be78 7cbd 3754 b03d 9d58 27bd 2a84 06bd
00000350: b2ed 1a3d 250e 323d f5bd 9dbd d1b7 923c
00000360: a4a3 253b 4b2e 28bb 5298 db3c 94bb 43bd
00000370: 5499 c7bb 099d 98bd 2dd9 c03d 2f32 a13d
00000380: 22b5 ae3b 3e9d 5abd dc27 ecbd 72e9 33bd
00000390: 9d9e aebc d252 93bd b8fa 783d c3fe 4b3c
000003a0: 69e2 c83d a438 5e3c 270b 5a3d 72ca 803c
000003b0: fda6 64bd 279b 933d 42d7 513d 6e06 b13b
000003c0: 79e2 9f3d a349 abbd e9a1 b4bc fbf0 94bd
000003d0: d81f bfbd 5a31 833c 05c4 813d 01f9 bebd
000003e0: b2b9 c1bd 5afa eebd 6ad8 cebd fbef cebc
000003f0: e6ea ac3c 44ab abbd a50a a43d 5498 4ebd

mlp.0.weight f4 [96, 96]
-0.029354965 0.09475203 0.052880786 0.06159715 -0.064991735 -0.08657658 0.07281281 0.034533717
0.047139127 0.0122607425 0.12278154 -0.04119047 0.04764925 -0.036039945 0.09198867 -0.00074889447
-0.06749519 0.0850677 0.00919247 -0.12180224 -0.020217668 0.020031229 -0.034197483 0.026577547
-0.015302263 -0.10351581 0.008001015 -0.08374653 -0.05683056 0.018754706 0.071206845 0.0073583275
0.100711785 0.031312175 -0.070241556 0.01064148 0.020123072 0.08505911 -0.035500243 0.11239738
-0.04941164 0.06695175 -0.02638443 0.012078692 -0.053383965 0.08718284 -0.08755459 0.07007163
0.068965524 0.0028808985 -0.034328435 -0.015976777 0.06172886 -0.051060453 -0.03615733 -0.042579006
-0.038875952 0.09514071 -0.06605986 0.06875536 0.048514042 -0.051603947 0.020580435 0.13396652
0.03647337 -0.0531355 -0.08807607 -0.015045339 -0.058306668 -0.017922377 0.0674782 -0.08814834
-0.024786996 -0.06887935 -0.10511909 -0.0637612 0.043436285 0.034254845 -0.033800997 0.054242477
0.053928845 0.050655123 -0.09269726 -0.08807866 -0.10137725 0.0035990684 -0.01305932 -0.09015975
0.023078468 -0.026467022 0.068630084 0.018359873 -0.017939089 0.0013045593 0.06633539 -0.013879101
0.0033418918 -0.01892618 0.10015186 -0.013272116 -0.10527713 0.13020329 -0.044495333 -0.020761328
0.03889196 -0.06998233 -0.15946712 0.07804965 -0.08224609 0.09147269 0.015480376 -0.088577285
-0.072874926 -0.0013200191 -0.06351567 0.018524677 0.0020597 0.046426147 0.12640817 0.07834853
0.0055637443 0.013589478 0.08372424 -0.049124792 0.12323859 -0.025306894 -0.03463506 0.12201021
-0.008493092 -0.09096799 0.0032355078 0.04310088 -0.069694 0.09722995 0.059709713 0.05616458
-0.048596304 0.05167786 0.108223036 0.10276201 0.051492196 0.08591778 0.05671173 0.09008193
-0.08586135 0.04970907 -0.018885912 0.000488945 0.039746735 0.08547177 -0.033705108 -0.029314296
0.06843114 -0.0054439674 -0.009411611 0.029724726 -0.0011396998 0.11499831 0.10983038 -0.02669914
0.11759194 -0.02316914 0.020790951 0.019707289 -0.06559835 -0.053259484 -0.031504493 0.026573548
0.056440867 -0.093001574 -0.07681295 0.05756238 0.03325973 -0.118731745 -0.086894214 -0.009319872
0.09487269 0.024892835 0.041026503 0.026219029 0.112249054 0.10364985 -0.0005340589 0.017106317
0.015907051 0.075154535 0.04424547 -0.014525359 0.094844244 0.044183075 0.000977731 -0.07866428
0.09486542 0.05194605 0.016358325 0.07989136 -0.014019366 0.0640228 0.098032035 0.07516297
-0.04055205 -0.060024343 0.06563179 0.0045699887 -0.055038802 0.04123009 -0.06965964 0.0982545
-0.022935268 0.033627808 -0.07081355 -0.026124137 0.06796126 -0.0687415 -0.045076862 0.051106945
0.036501132 0.081749864 -0.016942142 0.090054676 -0.114565834 -0.037460163 -0.060109317 0.00653184
0.03965913 0.04063741 -0.078945376 0.068017475 -0.032275423 0.0370221 -0.020348124 -0.013305519
-0.007942155 0.047440354 0.072160386 -0.09535625 0.020349348 -0.051911827 0.020512102 -0.047564283
0.038692337 0.012440597 -0.08893629 -0.029082919 0.082052425 -0.07487791 -0.0480218 0.013924405
0.008042673 -0.042686682 -0.03429838 -0.054079454 -0.0124616055 -0.035921395 -0.06171945 -0.0022240144
00000000: d379 f0bc 5a0d c23d 8699 583d 4b4d 7c3d
00000010: 631a 85bd 104f b1bd e21e 953d 3a73 0d3d
00000020: f514 413d 48e1 483c e374 fb3d 57b7 28bd
00000030: dc2b 433d 9f9e 13bd 8e64 bc3d 7551 44ba
00000040: eb3a 8abd f937 ae3d 049c 163c 7473 f9bd
00000050: 869f a5bc 8818 a43c a912 0cbd 28b9 d93c
00000060: 58b6 7abc 1900 d4bd b016 033c 4d83 abbd
00000070: 29c7 68bd 78a3 993c e5d4 913d 201e f13b
00000080: fb41 ce3d 3241 003d ceda 8fbd 9a59 2e3c
00000090: 24d9 a43c 7833 ae3d b468 11bd 9930 e63d
000000a0: dc63 4abd 001e 893d 2924 d8bc b5e5 453c
000000b0: 25a9 5abd eb8c b23d d24f b3bd b781 8f3d
000000c0: cc3d 8d3d 75cd 3c3b f99b 0cbd bbe1 82bc
000000d0: 67d7 7c3d c424 51bd b519 14bd 5367 2ebd
000000e0: 643c 1fbd 22d9 c23d 644a 87bd 9ccf 8c3d
000000f0: a9b6 463d a95e 53bd 4d98 a83c 852e 093e
00000100: 1a65 153d 9ca4 59bd 3a61 b4bd ba80 76bc
00000110: f9d2 6ebd f3d1 92bc 0332 8a3d 1e87 b4bd
00000120: 190e cbbc 9e10 8dbd ad48 d7bd 3b95 82bd
00000130: 3fea 313d cf4e 0c3d ea72 0abd 5c2d 5e3d
00000140: 7ee4 5c3d bf7b 4f3d 10d8 bdbd 9662 b4bd
00000150: e09e cfbd 59de 6b3b c2f6 55bc ada5 b8bd
00000160: 0e0f bd3c 5ed1 d8bc ee8d 8c3d 7267 963c
00000170: fff4 92bc bffd aa3a d9da 873d 2b65 63bc
00000180: a403 5b3b 140b 9bbc 6b1c cd3d 4a73 59bc
00000190: 899b d7bd 0354 053e bd40 36bd a913 aabc
000001a0: 2d4d 1f3d e552 8fbd 594b 23be 7fd8 9f3d
000001b0: a370 a8bd 0956 bb3d 67a1 7d3c 0268 b5bd
000001c0: 733f 95bd 7e04 adba 8114 82bd 10c1 973c
000001d0: 08fc 063b 5829 3e3d 2571 013e 3275 a03d
000001e0: 1250 b63b 67a6 5e3c 9d77 ab3d 1437 49bd
000001f0: 8464 fc3d 6750 cfbc 7edd 0dbd 7de0 f93d
00000200: 9c26 0bbc 6d4d babd d00a 543b 8c8a 303d
00000210: babb 8ebd 7f20 c73d 2c92 743d d50c 663d
00000220: eb0c 47bd 2aac 533d 0aa4 dd3d e474 d23d
00000230: 7be9 523d a9f5 af3d 8f4a 683d e07c b83d
00000240: 13d8 afbd bd9b 4b3d a1b6 9abc 8b2c 003a
00000250: 79cd 223d d30b af3d 5e0e 0abd 8924 f0bc
00000260: a025 8c3d 4f63 b2bb 2833 1abc 4581 f33c
00000270: fb61 95ba 3c84 eb3d c0ee e03d 28b8 dabc
00000280: 0bd4 f03d 35cd bdbc c951 aa3c 2e71 a13c
00000290: 6d58 86bd 9e26 5abd db0a 01bd c5b0 d93c
000002a0: 8a2e 673d 9c77 bebd 1c50 9dbd 88c6 6b3d
000002b0: 5b3b 083d a129 f3bd 98f5 b1bd 60b2 18bc
000002c0: 9d4c c23d 0fec cb3c 680b 283d 4ac9 d63c
000002d0: d5e2 e53d 5f46 d43d 1600 0cba 8c22 8c3c
000002e0: 814f 823c 9fea 993d bd3a 353d c5fb 6dbc
000002f0: b33d c23d 50f9 343d 3527 803a bd1a a1bd
00000300: cd48 c23d 62c5 543d e501 863c 159e a33d
00000310: 7cb1 65bc 631e 833d 05c5 c83d 0bef 993d
00000320: e819 26bd 16dc 75bd f669 863d d8bf 953b
00000330: 5e70 61bd e2e0 283d b7a9 8ebd a839 c93d
00000340: bee2 bbbc 50bd 093d b206 91bd 4902 d6bc
00000350: 462f 8b3d 58c8 8cbd 84a2 38bd 8455 513d
00000360: 3682 153d 796c a73d 3fca 8abc 966e b83d
00000370: 7ea1 eabd d46f 19bd 3035 76bd 0c09 d63b
00000380: 9d71 223d 6a73 263d 1dae a1bd bf4c 8b3d
00000390: 3c33 04bd 7ca4 173d 1cb1 a6bc 64ff 59bc
000003a0: d01f 02bc d150 423d d3c8 933d 234a c3bd
000003b0: adb3 a63c 7fa1 54bd ff08 a83c c4d2 42bd
000003c0: db7b 1e3d a5d3 4b3c 3b24 b6bd 4d3f eebc
000003d0: 1a0b a83d 9759 99bd 82b2 44bd 3023 643c
000003e0: 6ac5 033c 3bd8 2ebd 757c 0cbd 6b82 5dbd
000003f0: c32b 4cbc 5022 13bd 89cd 7cbd c5c0 11bb

mlp.0.bias f4 [96]
0.10469303 -0.07579878 -0.09360595 0.0156002045 -0.015238934 0.062114824 -0.13661829 0.07864208
0.02655991 0.032550704 0.031406213 0.012646602 0.1053679 0.093917996 -0.01829941 -0.053443503
-0.113458894 -0.041982885 -0.06834046 0.059802044 -0.09693726 -0.07251392 0.026915133 -0.017544731
-0.109238 0.059384566 0.019816864 0.08697906 -0.09794158 -0.07060604 -0.01680842 0.041949786
-0.06268722 -0.12030329 -0.019776054 -0.0108247325 0.04257939 -0.026536653 0.09861687 -0.009305704
-0.10025431 0.0010410235 0.0152256265 -0.12160289 -0.07647981 -0.04106508 -0.009301103 -0.07446168
-0.020822007 -0.09249908 0.044352457 0.05618223 0.0026930664 -0.07929758 -0.037097678 0.014851884
0.09256304 0.05021384 0.015440096 0.07537202 0.028910883 -0.07319808 -0.004047245 -0.109249026
0.020754045 0.025465598 0.06772871 -0.13778827 0.05300817 0.012704625 0.07842097 0.052663315
-0.014599445 0.05961817 -0.089548506 -0.1061016 -0.06568206 -0.074307874 0.02656445 -0.0014700833
-0.009494233 -0.100729756 -0.03567898 0.042474695 0.020892192 -0.050467543 -0.010553072 0.08768881
0.10391391 0.06282368 -0.13616133 0.022050053 -0.08102273 -0.071570665 -0.101905376 -0.053065937
00000000: 4d69 d63d 643c 9bbd 7ab4 bfbd 0098 7f3c
00000010: b9ac 79bc 1d6c 7e3d aae5 0bbe 190f a13d
00000020: 2b94 d93c e353 053d cda3 003d b133 4f3c
00000030: 20cb d73d 1458 c03d a5e8 95bc 93e7 5abd
00000040: 235d e8bd 3ff6 2bbd 15f6 8bbd fdf2 743d
00000050: 0b87 c6bd 2e82 94bd 207d dc3c f8b9 8fbc
00000060: 2cb8 dfbd 3b3d 733d fa56 a23c 1422 b23d
00000070: 9895 c8bd e699 90bd d0b1 89bc 8ad3 2b3d
00000080: 2862 80bd 9261 f6bd 6401 a2bc 385a 31bc
00000090: ba67 2e3d 6563 d9bc a4f7 c93d f476 18bc
000000a0: 2252 cdbd f472 883a e874 793c f00a f9bd
000000b0: 72a1 9cbd db33 28bd a763 18bc 5e7f 98bd
000000c0: ea92 aabc 2870 bdbd ecaa 353d 571f 663d
000000d0: 287e 303b c566 a2bd bcf3 17bd 5155 733c
000000e0: b191 bd3d 07ad 4d3d 75f8 7c3c a55c 9a3d
000000f0: 84d6 ec3c e0e8 95bd c09e 84bb f4bd dfbd
00000100: 6304 aa3c 3b9d d03c 5ab5 8a3d 5e18 0dbe
00000110: 181f 593d 0f27 503c 2c9b a03d 7db5 573d
00000120: 8332 6fbc 2f32 743d 3565 b7bd cc4b d9bd
00000130: 5184 86bd ba2e 98bd b09d d93c cfaf c0ba
00000140: b38d 1bbc 674b cebd 1f24 12bd f2f9 2d3d
00000150: 1a26 ab3c 0eb7 4ebd cbe6 2cbc 3196 b33d
00000160: d1d0 d43d b4a9 803d e06d 0bbe 50a2 b43c
00000170: 3fef a5bd a493 92bd c4b3 d0bd ab5b 59bd

mlp.2.weight f4 [1, 96]
-0.041656595 0.05488259 0.0019385164 0.082150765 0.03154254 0.011283905 -0.07438749 0.15055402
0.12774397 -0.053621605 0.0026670978 0.076521344 0.08103258 -0.07526766 0.11239101 0.06528497
-0.00035064013 -0.03955548 0.03370075 -0.07497015 0.022716517 0.12470731 0.0028616919 -0.0071097887
0.029670885 0.058993723 0.08565053 0.13256787 0.07754613 0.016084863 0.1103299 0.09060559
0.14801884 -0.035633832 -0.058553405 0.029839532 0.03138491 -0.044911977 -0.0071456158 0.07667528
-0.0039065867 0.007741908 0.06005895 0.0012783564 -0.041359518 0.054446317 0.1279164 -0.044549607
-0.011468089 0.14381146 0.0126721095 0.0053447047 -0.012679485 0.03267911 -0.006594252 0.0013150793
0.033626497 0.008761497 0.107886665 -0.03529688 0.05953539 0.011147961 0.15131754 -0.033172227
-0.011265374 -0.08458703 -0.016244095 0.033184085 0.0059369844 0.011569001 0.054042026 -0.13353844
0.05459451 0.0941584 0.14517401 0.008639167 0.0039401487 -0.03084573 0.030656254 0.052943807
0.11756588 -0.0027144952 0.0855694 0.084618755 0.047106065 0.094996735 -0.012507006 0.13035046
-0.08885012 0.10415861 0.022478016 0.030404912 0.021032538 0.028996933 0.036054187 0.1278359
00000000: 1ba0 2abd 91cc 603d d115 fe3a a93e a83d
00000010: c032 013d 21e0 383c 7858 98bd d52a 1a3e
00000020: 51cf 023e 54a2 5bbd 7aca 2e3b 39b7 9c3d
00000030: 69f4 a53d ee25 9abd 422d e63d 20b4 853d
00000040: 1fd6 b7b9 ed04 22bd cc09 0a3d f389 99bd
00000050: fd17 ba3c 8c66 ff3d 398b 3b3b 3bf9 e8bb
00000060: 5b10 f33c 67a3 713d 8c69 af3d dfbf 073e
00000070: 81d0 9e3d 67c4 833c a5f4 e13d 6c8f b93d
00000080: 4092 173e c8f4 11bd b2d5 6fbd 0972 f43c
00000090: 778d 003d 9ff5 37bd c525 eabb ee07 9d3d
000000a0: d302 80bb d5af fd3b 6000 763d 868e a73a
000000b0: 9968 29bd 1a03 5f3d 84fc 023e a679 36bd
000000c0: a7e4 3bbc 5043 133e ae9e 4f3c a222 af3b
000000d0: 9dbd 4fbc 88da 053d 9814 d8bb bd5e ac3a
000000e0: f0bb 093d 628c 0f3c aff3 dc3d 7693 10bd
000000f0: 62db 733d f0a5 363c fcf2 1a3e 9adf 07bd
00000100: 6792 38bc f73b adbd 5612 85bc 09ec 073d
00000110: 098b c23b e88b 3d3c 2c5b 5d3d 4dbe 08be
00000120: 7e9e 5f3d 1fd6 c03d 7fa8 143e 4b8b 0d3c
00000130: 5d1c 813b 2fb0 fcbc d322 fb3c 9bdb 583d
00000140: 61c6 f03d ace5 31bb 023f af3d 994c ad3d
00000150: 4af2 403d a68d c23d 2fea 4cbc 977a 053e
00000160: 0df7 b5bd 1c51 d53d d123 b83c b913 f93c
00000170: 6e4c ac3c fa8a ed3c 8ead 133d 6ae7 023e
