outputs/models/nowcast_10_lag1_seed999.pt (torch, 272537 bytes, 14 tensors)

in_lin.weight f4 [96, 15]
00000000: 964c 993d 1b84 d03d bca9 80be a29f 803e
00000010: a8a1 7cbb 67d0 833e ad4d 203e 69e3 92be
00000020: 53ab 94bd 9fbc 723e 3413 6ebe 9a26 58be
00000030: 52dc b4bc 27e3 333c ac94 5b3e dc5f 80be
00000040: d1ac 1b3e 7bc5 d6bd dc08 613c 43eb 1abe
00000050: d44b 10be 52f9 333e 343b 533e 1b53 213e
00000060: 28cb 033e 9ed5 7bbd 1253 f83d 4553 1bbe
00000070: 8a09 70be 81bd a53d 6611 263d e059 2abe
00000080: 29b1 1c3e 982b 673d e6dc e93d 052b 8ebd
00000090: 62c7 fc3d 83fa e33d 2b23 8cbd 765c 263e
000000a0: 5c6d 53bd c785 9d3e 5e53 c3bc 8883 f73d
000000b0: d32a 443e c58c 6c3d c811 7c3c 7794 febc
000000c0: 20a4 65be 9ff3 153e 3a64 593e a47d 663e
000000d0: bf30 8cbe abe7 58be 2dfa 1d3e 93c6 c53d
000000e0: 16d6 1c3e a8ef 783e ad20 41be b28d 60be
000000f0: 80aa 86be d90d 23be abb9 51be 57de 6d3e
00000100: 2b9a e1bd c453 11be 125b 2ebe b2c3 7b3e
00000110: 287c 643e 76dd e5bd a428 e1bd eb42 953e
00000120: acc3 a8bd 10bc 42bd e0a5 753e 6bec 923d
00000130: 7563 3d3c f827 47be d682 b03c 1eab 343e
00000140: ca40 51be b6fb f5bd fdd7 a43e 86a8 583d
00000150: dd35 1dbe 7bbb 093e 12b3 803e d0b8 7a3e
00000160: a94c d4bd cc5f 6bbe 3726 713e e8a2 12be
00000170: 06fc 623e 8fad 7dbc f5e9 acbd 04b6 43be
00000180: b00e b43d cd68 46be db17 88be 12be cdbd
00000190: 84da d33d 1fc9 8ebd b476 f93d 4019 903d
000001a0: 6ae1 1f3e 1715 74be 13ef e53d cef8 47be
000001b0: 5ffd 20be f951 8d3d 360c 0d3d 4bec a63d
000001c0: e4ba 923e 8cee 1fbe 5731 0cbe 1fea 63be
000001d0: 12de 703e 77d5 983e 8749 16be 2e4b 50be
000001e0: a852 d0bd 81bf 03be 6fe0 863e 33cd 61bd
000001f0: 78de 00be f331 f3bc 7168 0abd 3a90 833d
00000200: 588f c1bd b2cc ddbd f273 fd3d 8e14 4cbe
00000210: 6a69 613e 6e21 263d 5630 20bd ef95 85be
00000220: 27f2 45be ba81 49be 0625 9e3d 0210 5bbe
00000230: fca9 6b3e e37e 833e 75ae 4b3e de42 0dbe
00000240: af09 713e cf7e 44be 56da 833e 4f1a 7a3e
00000250: bd1f fcbd 058b 213e 4b56 b0bd 4cee a0bc
00000260: bcb4 d23d 3e09 4c3e 8164 d73c 7141 83be
00000270: f2f9 a3bd 6060 85be f172 443e 603e 22be
00000280: 3e3f 103e 6a00 d6bd 13b4 55be 189e 18be
00000290: e066 81bd a0be 10be 7543 433e 29d8 433e
000002a0: 518e 08bd e295 cbbd 03dd 1e3e aa21 793e
000002b0: f57b 00be b930 943e 56c4 333c 2e62 12be
000002c0: 21af 6d3e 0a96 753e d259 d5bd 3f1c 503e
000002d0: 47f4 1ebe 25b8 323e 4b4b 04be 08b7 243e
000002e0: 032a 6ebe 40ee 8abd f8c6 773e dc60 8a3e
000002f0: 1f7e e23c 89e8 91bc b315 b73d 3ea3 3b3d
00000300: 93ec 4cbe 7329 69be 1d49 88bb 332b 44be
00000310: 5f53 7ebe 15b6 7b3e d2e9 10bd 2ad8 2e3e
00000320: 7bf9 8dbd dafa 4fbd 9e52 1fbe c3e0 25be
00000330: 17b2 803e 1693 fc3d 4a80 35be 3d39 ec3d
00000340: 7cb5 e43d 0d9c 823d b27d 34be 1c9b 80bd
00000350: 5053 2cbe f167 113e 76ff 803e 8693 a4bd
00000360: 520b 02be 9967 8f3e 3462 8b3e c36a 323e
00000370: 5357 7b3d 7451 403e ff2f 4dbd af6e 043c
00000380: 8eb8 9abd 6129 5bbd 506a 66bc a2ff 5ebe
00000390: b765 b93d 683b 79be 43be 2f3e 139d 0cbe
000003a0: 25b5 893e 1188 453d d1ce 0a3e 20ab 47be
000003b0: a433 593e 55a2 713c b0dc a0bd 684d 73bd
000003c0: b3ea 7ebe ae5e dfbb bda0 59bd d783 783e
000003d0: e01d 02be aea4 0ebd 004c ff3c a591 96be
000003e0: fc55 c7bd dc8e 05be 7710 973d f9be e83d
000003f0: 5a27 5abe 5065 2f3e 8a89 5c3e 9776 f53c
0.07485311 0.10181447 -0.25129497 0.2512179 -0.0038548503 0.25744936 0.15654631 -0.28689125
-0.0725924 0.23704766 -0.23249513 -0.21108475 -0.022077713 0.01097945 0.21443433 -0.25073135
0.15202643 -0.10486885 0.013735022 -0.15128808 -0.14091426 0.17575577 0.20628053 0.15754358
0.12870467 -0.061483018 0.121252194 -0.15168484 -0.23441139 0.080927856 0.040543936 -0.16635847
0.15301956 0.05643806 0.11419086 -0.06941799 0.12342717 0.11131766 -0.06842645 0.16246209
-0.051617965 0.30766127 -0.023843464 0.120856345 0.19156961 0.057751436 0.015385099 -0.031076653
-0.2242589 0.14643715 0.2122964 0.22508866 -0.2738094 -0.21182124 0.15427466 0.09657016
0.15316042 0.24310172 -0.18860121 -0.21929052 -0.26301956 -0.15923251 -0.20480983 0.23229347
-0.11015733 -0.1419211 -0.17026928 0.2458637 0.22312987 -0.11223881 -0.1099408 0.29152617
-0.082404464 -0.04754263 0.23989058 0.071739994 0.011559357 -0.1944884 0.021546762 0.17643401
-0.20434871 -0.12010901 0.32196036 0.05289509 -0.15352578 0.13450424 0.2513662 0.24484563
-0.10366184 -0.22985762 0.23549734 -0.14319956 0.22166452 -0.015483274 -0.08443061 -0.19112402
0.08791864 -0.19375916 -0.265807 -0.10046019 0.10344413 -0.069719546 0.12180844 0.07036066
0.15613332 -0.2383617 0.112272404 -0.19528505 -0.15721653 0.06900401 0.034435473 0.08150538
0.2865821 -0.15618342 -0.13690697 -0.22257279 0.23522213 0.2985036 -0.14676486 -0.20341179
-0.101720154 -0.12866022 0.26343104 -0.055127334 -0.12584865 -0.029686904 -0.03379101 0.064239934
-0.09451169 -0.10830058 0.123756304 -0.19929716 0.22012869 0.040559225 -0.039108597 -0.26090953
-0.19330655 -0.19678393 0.077219054 -0.21392825 0.23014063 0.25682744 0.19890769 -0.13795039
0.2353885 -0.19188999 0.25752515 0.24424098 -0.12310741 0.15775688 -0.08610209 -0.019644879
0.102883786 0.199254 0.026293041 -0.25635865 -0.08006658 -0.2605009 0.19184472 -0.15844107
0.14086625 -0.10449298 -0.20869474 -0.14904058 -0.0631845 -0.14135218 0.19068702 0.19125427
-0.03333885 -0.09940697 0.15513997 0.24329248 -0.12547286 0.28943422 0.010972103 -0.14295265
0.23211338 0.23983017 -0.104175225 0.20323275 -0.15522872 0.17453058 -0.12919347 0.16085446
-0.23258214 -0.06783724 0.24196994 0.27027023 0.02764803 -0.017811077 0.08939686 0.045809977
-0.20012121 -0.22769718 -0.0041591064 -0.19157104 -0.24836491 0.24581178 -0.03537924 0.17074648
-0.0693235 -0.05077634 -0.1555886 -0.16199021 0.25135872 0.12332742 -0.1772472 0.11534355
0.11167428 0.063774206 -0.17626074 -0.06279585 -0.16828656 0.14199807 0.251949 -0.0803595
-0.12699631 0.28008726 0.2722336 0.17423539 0.061362576 0.18781072 -0.0500946 0.00808303
-0.07554732 -0.05350626 -0.014063433 -0.21777204 0.09052604 -0.24339068 0.17162423 -0.13731794
0.26896015 0.048225466 0.13555457 -0.19498873 0.21211106 0.014748176 -0.07854593 -0.059399992
-0.24894218 -0.0068167066 -0.053131808 0.24269043 -0.12706709 -0.03482502 0.03116417 -0.29407993
-0.09733197 -0.13042778 0.07376187 0.1136455 -0.21304074 0.17128491 0.21536842 0.029963775

in_lin.bias f4 [96]
00000000: 36f9 863e f465 843d 5a3b 8f3e ca8c 3fbe
00000010: 8e1f 0f3e c220 01be 0255 a43d 080e 98bd
00000020: b066 373e 2ab2 d2bd 85e5 03be d194 ac3b
00000030: e950 95bc 33f8 d53d 5443 1ebd e47b 3ebe
00000040: c6be d93d a80b d63b 49b3 253c 9a14 6f3e
00000050: 5883 fe3d 41b3 5c3d b1a6 9cbb 7e3b 09be
00000060: fd66 5ebe ba3a e5bd 42a2 cd3c eba8 773e
00000070: b366 47bd d843 4fbe cd1f 61be e707 573e
00000080: 5f05 35bd 7959 39bc fa3c 1a3d 9b2a 7a3e
00000090: d6bd 0d3d a115 183e 0e79 fd3c 5d24 a83d
000000a0: 1818 5dbe 0b87 423e 274a 8e3d a33f 623d
000000b0: 547e 243e b34e 37bd 1f2b f83d b7b4 5cbe
000000c0: a59d 823e 6859 75bc 3630 603e 25de d0bc
000000d0: dc7e e7bc ff7e 5f3e 4350 143e a5ce 273e
000000e0: 13f5 6d3b 902f adbc 5d4b 07bc 1b28 623e
000000f0: 8c2a 43be e3b2 60be 5ea4 6f3e 02ef 213d
00000100: 0f01 403e 491f 403e aef7 573e bf05 40bb
00000110: 732c 3c3d 28aa 393e e8a3 30be 1990 75be
00000120: d8bd 6c3e b901 5a3e 27b5 68be a2d1 863e
00000130: aab0 49bd 69dd 52be 88bb 543e 5339 043e
00000140: a6e9 9fbd 94a2 0d3e d37a cf3c ce9b 523e
00000150: f1d4 de3c 8c3b 663d 6eac 293e 020b ecbb
00000160: b106 703e 31ab 3ebe 46fd 5cbe 556c 0abd
00000170: 934d 6cbd 23d4 1c3c c2c3 c4bc de61 073e
0.26362008 0.064647585 0.2797497 -0.1870605 0.13976881 -0.12610152 0.080240265 -0.07424551
0.17910266 -0.10287888 -0.12880524 0.0052667637 -0.018227058 0.10447731 -0.038638428 -0.18601948
0.1063209 0.0065321513 0.010113546 0.23347703 0.124273956 0.053881887 -0.0047806134 -0.134016
-0.21718974 -0.11192842 0.025101785 0.24185531 -0.048681926 -0.20240724 -0.21984787 0.20999108
-0.044194575 -0.011312836 0.037655808 0.24430315 0.03460487 0.14852001 0.030941512 0.08210061
-0.21591222 0.18996827 0.06947737 0.05523647 0.16063815 -0.044752788 0.121176 -0.21553312
0.25510898 -0.014974929 0.21893391 -0.025496552 -0.028258733 0.21825789 0.14483742 0.16387422
0.0036309406 -0.021140844 -0.008257714 0.22085612 -0.19059199 -0.2194324 0.23402545 0.039534576
0.18750404 0.18761934 0.21090576 -0.00293003 0.045940828 0.18131316 -0.17250025 -0.2398075
0.23119295 0.2128972 -0.22725354 0.26331812 -0.049240746 -0.20592274 0.20774662 0.12912492
-0.07808237 0.1383155 0.025327122 0.20567247 0.027201148 0.056209132 0.16569683 -0.0072034607
0.23440053 -0.18619992 -0.21580991 -0.03379472 -0.057691168 0.009572062 -0.024019126 0.13220927

layers.0.lin_self.weight f4 [96, 96]
00000000: faf2 29bd cd68 8abd f0db 9d3c 423b 1ebd
00000010: 299d 13bd 7b1a 5e3d 001b d63d 4426 d2bc
00000020: 1a1e cc3d f3dc 403d 34f3 15be ade7 dabc
00000030: e10e 23bd 9a48 86bc 6aca 5ebc 810d 053e
00000040: a3cd 523d b5ab bfbd e191 3ebd ef93 db3d
00000050: e2ab bdbc e8ee 0bbd 4434 543d 7a4f 4b3c
00000060: 5230 0dbd ce40 9c3d fd79 e83d 1875 8a3d
00000070: bc15 153e 2a74 b23b 83a3 263d cae2 e43d
00000080: 2ff6 7cbd 6e02 7fbd 69d7 123d 9475 973d
00000090: 0ab4 83bd c426 3c3d 5008 023e a3b9 aabd
000000a0: cb95 28bd fc4b 803d 31e6 463d 739a 643d
000000b0: 4fb2 943b a56f ea3b 7784 a63d 8394 2bbd
000000c0: e2fe 1c3d c6b1 d53d cbea c33d 1ea2 7d3c
000000d0: 5266 0e3d 2b79 de3d 862c d63d 8b1d 443b
000000e0: 4db6 bfbd c79f c23c 5773 763d 7d13 cd3b
000000f0: 81ab a3bd 6d15 6e3d 4f74 ec3d 26ed 25bb
00000100: 24c9 ec3c 8448 a0bd eb97 eb3b e760 c4bd
00000110: 8ab0 a9bd 84b4 913c ec78 adba 73a2 b5bd
00000120: 5695 0dbd 5777 e0bc fb81 d13d b960 dabc
00000130: d550 c43d 560e 67bd 1e24 f4bd 77f6 a9bd
00000140: 6499 9a3d eed5 e13c eccc 8bbd 886d 023c
00000150: 00cd 77bc d4e0 743d fcac 2d3d 5e0f 37bd
00000160: a00d a1bb c1f5 06bc 3b6b 513c 2cf9 cd3d
00000170: 279c 55bd 3296 cabd 6e90 ff3b 4ed9 183e
00000180: 7c87 cebc a79b 9d3d be8d e6bc 77a2 483c
00000190: 3e53 a1bc d399 f93d 5192 d23d bba0 2f3d
000001a0: 65c4 70bd 651a ae3d 0f30 74bd 32f5 313c
000001b0: 8bb9 9ebc 26e9 95bd d3f0 21bd 1a62 d7bc
000001c0: 9615 763c 606e 90bd 331f 903d a4db 3a3d
000001d0: 293e 863d 0eee cd3d 5c74 d93c ac21 d1bd
000001e0: d249 933c 5085 d4bc ee2b 0a3d ea6a a13b
000001f0: d873 b1bc d22b 06bc a9b0 a63b 6fb0 8ebd
00000200: 32be 5c3d 05b9 953d 14c4 f9bb 90a1 043e
00000210: 348a da3d 86ba 5cbd d8a3 84bd 3bef b0bd
00000220: bf6b 0f3d 6f98 683d 63fc 243d c84d 6c3d
00000230: dfb0 6b3d 55ed 033d 48f7 2b3d 42f0 473d
00000240: 42ec a03d 564b ad3d 25e5 88bd 7ea1 b4bc
00000250: 12c8 f23d dc44 003e 697e 0b3e ded6 44bd
00000260: 8fbd b03b cd98 8dbb 147b 223d 64c6 2abd
00000270: caaa 30bd 26a8 aebc e3f4 da3c f4fa bc3d
00000280: ba7f bbbc b4a0 ca3d 19df 063e c9f9 69bd
00000290: 478d 31bd 68f1 7bbd 43f3 843d 3cae 9b3c
000002a0: 81cc 1d3d 6c8f 00bd 65d0 85bc 6f7c d53d
000002b0: 0035 d13d 24c1 b4bd 3dea 713d 59d1 d43d
000002c0: aecb 31bd dfe3 bd3d a968 313d bc77 e93c
000002d0: 9cfc a23d 864b 9b3d e749 dfbb ff8e b13d
000002e0: 484c 36bd a4a0 e03d 124e 3fbd c798 aebd
000002f0: 7e5e a03d e3fb f8bc 8492 613d 903b efbc
00000300: deec c0bc 360c 753d 4f16 c83a 5a18 d63c
00000310: 4019 8c3d cc8b d53d d08f b2bd 74ff d73d
00000320: 6843 6b3d 8710 023e 1227 01bd 3a79 96bd
00000330: f15c 773c cf93 3c3d e1ac a83c e941 c0bc
00000340: fad1 bdbd c763 823d aaad b3bd fb03 51bd
00000350: e78d 9b3c 6380 203d 9211 433d ba0f a33c
00000360: 877e abbd 949c 84bc 7d41 73bd 1367 823d
00000370: 9c18 27bd 235d 4b3d 824a ac3c 7a2d 2ebd
00000380: 62ba db3d 7bf7 f1bc cddb b23d 6e8e 1abd
00000390: 2905 36bd e0da 6bbc 74ab 993c d4e7 323c
000003a0: 03eb b13d a11a 463d 60cf 38bb 86ae 6bbc
000003b0: e3e1 f6bb ffa5 853c 60b3 b4bd 1ae7 cd3b
000003c0: 8302 13bd ae28 ec3d b330 efbb 0f98 68bd
000003d0: 4985 4dbc 394e b5bb eed5 c7bc ab66 903d
000003e0: 94db b2bc e773 a3bd 363d d33d 7ca6 273d
000003f0: 0815 30bd 0f5e 843d 87d1 64bd c9ac 4c3c
-0.041491486 -0.067582704 0.019269913 -0.03863073 -0.03603855 0.054224472 0.104543686 -0.025653012
0.09966679 0.047085714 -0.14643556 -0.0267218 -0.03980911 -0.016392041 -0.013598064 0.12993433
0.05146564 -0.093589224 -0.04652584 0.107215755 -0.02315325 -0.034163386 0.051807657 0.012409085
-0.03446991 0.07629548 0.113513924 0.06760615 0.14559072 0.0054459767 0.04068328 0.11176069
-0.061758216 -0.062258177 0.035849962 0.07395473 -0.06430824 0.045935407 0.12698483 -0.08336189
-0.04115848 0.06264493 0.04855937 0.055811357 0.0045378576 0.0071544223 0.081307344 -0.04188968
0.038329013 0.10434298 0.095662676 0.015480546 0.03476555 0.10862955 0.10457711 0.0029924836
-0.09360943 0.023757828 0.06016859 0.0062584267 -0.07991696 0.058125902 0.115456216 -0.0025318353
0.028904505 -0.07826331 0.007189741 -0.09588795 -0.08285625 0.017786272 -0.001323489 -0.08868875
-0.034566246 -0.027400656 0.1022987 -0.02665745 0.0958573 -0.056410156 -0.11920951 -0.082989626
0.07548788 0.02756783 -0.06826195 0.007960685 -0.015124559 0.059784725 0.0424013 -0.04469239
-0.0049149543 -0.008237303 0.012781913 0.100572914 -0.05215087 -0.09891929 0.0077992 0.14926645
-0.025211088 0.07695704 -0.02814376 0.012245766 -0.019693013 0.12187543 0.10281814 0.042877894
-0.058781046 0.08501128 -0.059616145 0.010861682 -0.019375583 -0.0731986 -0.03953631 -0.026291896
0.015019795 -0.07052302 0.07037201 0.045619622 0.06554825 0.10055171 0.026544742 -0.102115005
0.017979536 -0.025942475 0.0337333 0.004926075 -0.021661684 -0.0081891585 0.0050869775 -0.06967246
0.053892322 0.0731068 -0.0076222513 0.12952256 0.106708914 -0.05388882 -0.06476563 -0.086393796
0.035014864 0.056785997 0.040279757 0.057691365 0.057541724 0.03220876 0.041983873 0.048813112
0.078575626 0.08461635 -0.06684331 -0.022049662 0.11854567 0.12526268 0.1362244 -0.048056476
0.005393691 -0.004321194 0.039668158 -0.041693106 -0.043131627 -0.021320414 0.0267281 0.09227553
-0.022888053 0.09893933 0.13171043 -0.05712298 -0.043347623 -0.06150952 0.06491711 0.01900398
0.03852511 -0.031386778 -0.016334722 0.104241244 0.10215187 -0.08825901 0.059061278 0.103914924
-0.043407135 0.092719786 0.043312702 0.028499477 0.07958338 0.07582764 -0.00681423 0.086698525
-0.04450634 0.1096814 -0.046705313 -0.08525234 0.07830523 -0.030393546 0.05507137 -0.029203206
-0.023550447 0.0598261 0.0015265438 0.026134659 0.068407536 0.10427055 -0.08718836 0.10546771
0.05743733 0.12701617 -0.0315314 -0.07347341 0.015097843 0.0460394 0.020590248 -0.023468928
-0.092685655 0.06366687 -0.08773358 -0.051029187 0.018988563 0.03918494 0.04762418 0.01990496
-0.083737426 -0.016187944 -0.059388626 0.06367316 -0.040794954 0.04964937 0.021031622 -0.04252384
0.10728909 -0.029536953 0.0873333 -0.037733488 -0.044438515 -0.014395446 0.018758513 0.01091953
0.08687403 0.04836524 -0.0028199777 -0.014384871 -0.007534252 0.016314505 -0.088232756 0.006283653
-0.035891067 0.115311965 -0.0072995066 -0.05678564 -0.012543985 -0.0055330065 -0.024394002 0.07050832
-0.021833219 -0.07981091 0.103144094 0.040930256 -0.042988807 0.06463253 -0.055863883 0.012492367

layers.0.lin_self.bias f4 [96]
00000000: 9a3e 31bd 0f19 cd3a 9c8a 89bd a7e0 3d3d
00000010: 64b6 a03c b4d1 79bd 67ab 92bd 8fd9 19bc
00000020: 7388 983d 8b4f ea3c eb82 0a3d d0b7 66bc
00000030: 8593 a13d 9b08 933d dcf6 3c3d 1f74 8a3d
00000040: c7f9 d93c c9df 953d 4d32 52bd 754c c03d
00000050: 5d23 1c3d 3bb8 c3bc 4c35 a03d f789 c9bb
00000060: a816 ebbc 25ad 78bb 0fb8 9cbd a7a8 f8bc
00000070: 5b43 de3b 0126 65bd ce66 c93b 68f9 97bd
00000080: 1ff0 893d 28a4 b7bd 219f e03c efb5 d1bb
00000090: 9de4 8e3d 6e18 d73d 5191 e13d bda0 81bd
000000a0: 35d9 97bd 7e96 033d 3011 39bd 1fd5 d93c
000000b0: 20b2 863d 8b04 173d 4144 afbd b779 b83d
000000c0: efb3 5dbd 1961 e93d 9533 dc3c 7410 813d
000000d0: 4459 e23d c2e7 dc3d 3c59 423d 7de2 a7bb
000000e0: 6ee0 53bd e1ee 783d bbe4 9fbd 49cf 3f3d
000000f0: 1352 05bd e293 69bd 7382 bc3d 42b2 34bd
00000100: b133 563d 9123 26bb 796e 8abd fe2d 9e3d
00000110: a4fb 8b3d 87b7 833c 5944 87bd b3c6 563d
00000120: 02a0 cc3d 0df0 cc3d d0d5 93bc b1fd 2fbd
00000130: 219a 04bd 060d a03d 68cb a33d a3ff b1bb
00000140: ed1e aabc 046e 053e eafe b23d 7367 afbb
00000150: 4eb1 783d db5a abbd abf8 b4bc a59a d93d
00000160: e465 8f3c e8c2 12bc 5dfa 953d b664 403b
00000170: 6aba 94bd ed7b b4bd 6d8b abbc ecf5 c43d
-0.043272592 0.0015647727 -0.06715891 0.046356823 0.01961822 -0.060991004 -0.07161599 -0.009390249
0.074479006 0.028602382 0.03381626 -0.01408191 0.07889465 0.07179376 0.04613386 0.067604296
0.02660836 0.07318074 -0.0513175 0.09389583 0.038119663 -0.023891559 0.078226656 -0.00615048
-0.028697327 -0.0037945 -0.07652294 -0.030353857 0.0067829317 -0.055944446 0.0061462885 -0.07420617
0.067352526 -0.08966857 0.027419629 -0.006399862 0.06977198 0.105027065 0.11014045 -0.063294865
-0.07414476 0.032125942 -0.045182407 0.026590882 0.065769434 0.036869567 -0.0855794 0.0900759
-0.054126676 0.11395473 0.026880065 0.06301966 0.11052182 0.10786392 0.04744838 -0.005123435
-0.051727705 0.060774688 -0.07807299 0.046828542 -0.032548975 -0.057025798 0.09204569 -0.044115312
0.05229539 -0.002535079 -0.06759352 0.07723616 0.06835106 0.016078724 -0.06604833 0.052435588
0.099914566 0.100067236 -0.01804629 -0.04296655 -0.03237355 0.07814984 0.07997781 -0.0054320856
-0.0207667 0.13030249 0.08740027 -0.0053529083 0.060715966 -0.08366939 -0.02209123 0.10625199
0.01750464 -0.008957602 0.07323144 0.0029356903 -0.07262118 -0.088126995 -0.020940507 0.096172184

layers.0.lin_neigh.weight f4 [96, 96]
00000000: 34a4 b0bd e5f4 da3d a05d 243d 1874 a93c
00000010: d096 2abd 4092 21bc 7066 e03d 55f6 07bd
00000020: 6bdc e23d c0bb 123c c9f3 10be ea55 643d
00000030: 05fb c2bc 3474 92bd ca61 773d 7c94 1f3e
00000040: 910f fbbd 52af 27bd 9ca7 c4bd d532 c13d
00000050: 3f3c 6fbd 50cc 58bc 24cf e9bc e6ec f6bd
00000060: 1d33 863d 4070 3cbd 3ef7 9d3b 8341 90bd
00000070: 7f3a 4b3c a43a 05be 67fc 303c b11b f23c
00000080: abbf 64bd 24ee 953d 8cf1 df3d 068f afbc
00000090: 8c1a a8bb 4d60 82bc 53c6 e23d ee10 9fbd
000000a0: 0e1b 2a3d b6d6 88bd 77df 89bc ab8c ad3c
000000b0: ae46 15bd 708f 80bd 4c03 b23d dc12 093d
000000c0: 3881 0dbc afd8 8f3d 729f 4f3d 3f9b 713d
000000d0: 19f9 60bd cbfc dc3c a1d9 52bd ad3a 913d
000000e0: 0757 e1b9 267e e03d 69a2 433d 635d de3c
000000f0: 3268 353c fa80 e73c 0a44 1f3d 32c8 063d
00000100: af20 48bd 0e98 b33d 3f11 92bc 7879 673d
00000110: a760 833d 823c ccbd b431 4d3d 153a a9bd
00000120: 76da b0bd 9939 88bc e752 6a3d ca06 1dbd
00000130: fa51 783d fe11 37bd 96f0 213d e72b ae3c
00000140: e3c0 0fbd 71e2 93bc 3858 e73d eaa1 8ebc
00000150: a47b 893d 2112 953d 16dc a13c 311e 59bd
00000160: 609f 9dbc 30c1 c93d bd82 d33d 1e2e 56bd
00000170: 5fc1 8f39 f379 61bd 57bf b33d 4cbd 173e
00000180: 1228 0bbe 92b7 883c 57d8 7f3c e2d3 8c3c
00000190: e7e7 b43d bfe4 c13d b6a5 983b 35d2 023d
000001a0: d728 2dbd 278b be3d 0540 e7bb 9c8d 2b3d
000001b0: 48f0 0fbc 0b3f 12bc 96b1 bb3d 2589 c0bb
000001c0: 65b7 6d3d ed4f b63b 93a2 bb3d 676b 133d
000001d0: ec26 c8bc 3e11 063e 1a6b e13d f97b 983c
000001e0: 258a b33d 60ce 2abd 5d4d a03d 6afd 6a3b
000001f0: d7a0 923c 6ba7 97bd f170 c33d 97fe 003d
00000200: e2fe d73b ca4a 9dbd 80f3 ff39 216d fa3d
00000210: b61e 6dbd a33b 623d 1976 8e3c f1e9 fabd
00000220: 3da4 6c3b 2626 f9bb 3fa1 1dbd ba64 bebd
00000230: 9d6d bbbd 2560 7fbc 4ff7 07bd 49f5 d33d
00000240: 3e78 9c3c c225 c2bb c0ed 24bb 1925 3e3d
00000250: 71f9 463d 392e d03c b5a7 d43d 7c36 183d
00000260: 5d5c 7cbd da42 96bc 8388 23bd e234 793d
00000270: f8e3 853c f24b 6c3c e204 dc3d 8699 70bd
00000280: bae9 fabd f4d9 8cbd eb22 e73d 12b9 9b3d
00000290: d140 1b3d 30fc 383b e818 a83d 778e f9bc
000002a0: cdea b5bd 935c 703d 2b60 193c 3c29 86bd
000002b0: 6994 02bc 70c4 68bc e521 123c 3315 0cbd
000002c0: 2611 28bd f110 9abd 04f4 94bd 767c 563d
000002d0: 2d4d e53d 1c75 6abd 1f8c a93d 7496 f239
000002e0: 8662 e53d 574c 85bc db8a 9e3c c089 5c3d
000002f0: d5e0 a03d d9e3 76bd 92a9 da3d 648c 783c
00000300: 02f4 bbbd d8a1 ab3d b937 c83b 7616 e23c
00000310: 0e57 003c 4d23 4c3d 8b6b 823d aeb5 103e
00000320: c5a8 9e3c 4cf6 653b fe54 40bd 33de 25bd
00000330: bedd 503c 10cf 73bd 2981 923d 77a4 973d
00000340: 5042 39bb 6e6e 44bc 7275 b8bd 2f09 343b
00000350: 695e 9b3c 50d4 d03d 4ad5 153e 6e23 27be
00000360: 3ab4 6bbd a77e c53d 68bb 87bb a79f f83c
00000370: d047 8a3d ca50 15be f5fa a3bc de2f df3d
00000380: eb7e 9c3d 6ec1 d43d 3125 13bc 2292 d1bc
00000390: 20bd e73d be89 163d b2e8 4bbd 2dfc ecbc
000003a0: 5f96 86bd 4f1a 713d cdf2 dc3d 95f5 01bd
000003b0: 0480 713d bb12 8d3d ef16 483d bdab 1d3d
000003c0: 839e 89bd 33a6 b03d b097 813d accc b43d
000003d0: ba97 db3d e7d6 813d c16d e43d 5916 efbc
000003e0: 57d9 053d 40b0 113d 9c7e 26bc f6cb b73a
000003f0: fa7b 8d3d 754b e83c e273 afbc 5dc6 893d
-0.08625069 0.10691241 0.04012835 0.02068524 -0.041647732 -0.009861529 0.109570384 -0.033193905
0.11077198 0.008955896 -0.14155497 0.055745997 -0.023801336 -0.0715107 0.060395993 0.15583986
-0.122588284 -0.040938683 -0.096022815 0.094335236 -0.058407065 -0.013232306 -0.028541155 -0.120569035
0.06552718 -0.046005487 0.0048207333 -0.07043745 0.012404083 -0.13010651 0.010802365 0.02955422
-0.05584685 0.07320812 0.10934743 -0.021430504 -0.0051301178 -0.01591506 0.110729836 -0.07766901
0.041529708 -0.06681578 -0.01683019 0.02118524 -0.03644436 -0.062773585 0.08692035 0.03346525
-0.008636765 0.07023751 0.05068917 0.058985945 -0.054925058 0.02697601 -0.05147708 0.0709127
-0.00042980185 0.10961561 0.04776231 0.02714414 0.011072205 0.028259743 0.038883246 0.032905765
-0.048859295 0.087692365 -0.01783049 0.056512326 0.06414919 -0.099724784 0.05009623 -0.082630314
-0.08635418 -0.016629027 0.057207968 -0.038336553 0.060625054 -0.044694893 0.03953608 0.021261169
-0.03509606 -0.018052312 0.11296123 -0.017411191 0.06713036 0.072788484 0.019758265 -0.05300731
-0.019241035 0.09851301 0.10327671 -0.052290075 0.00027419158 -0.05504794 0.087767296 0.14818305
-0.13589504 0.016689096 0.015615544 0.017190877 0.08833294 0.09467458 0.004658426 0.03193875
-0.042275276 0.09303885 -0.0070571923 0.041883096 -0.008785315 -0.008926163 0.09164731 -0.005875724
0.058036227 0.005563727 0.09161868 0.0359911 -0.024432622 0.13092515 0.11006756 0.018613802
0.08766583 -0.04170072 0.07827256 0.0035856613 0.01789896 -0.07404979 0.09543026 0.031492796
0.0065916637 -0.076802805 0.00048818812 0.12227846 -0.057890616 0.055232655 0.017390298 -0.12251652
0.0036108636 -0.0076034246 -0.038483854 -0.09296556 -0.091517664 -0.0155868875 -0.033194836 0.10349519
0.019100305 -0.0059249112 -0.0025166124 0.046422098 0.04857773 0.025412666 0.1038355 0.037161335
-0.061611522 -0.018342424 -0.03992511 0.06084145 0.016344056 0.014422404 0.10743119 -0.05874016
-0.12251611 -0.06877509 0.11285957 0.07603659 0.03790361 0.0028226487 0.082078755 -0.03046344
-0.08882675 0.058682036 0.009361307 -0.065508336 -0.007969954 -0.014206991 0.008919214 -0.034199905
-0.04103198 -0.075227626 -0.07273105 0.05236479 0.11196361 -0.05724059 0.08278679 0.00046269933
0.112004325 -0.016271753 0.01935332 0.053842306 0.07855383 -0.060275886 0.10676874 0.0151701905
-0.091774 0.083804786 0.0061101583 0.0275986 0.007833255 0.049838353 0.063681684 0.14131805
0.019367585 0.0035089431 -0.046956055 -0.04049511 0.01274818 -0.059523642 0.071535416 0.07404416
-0.0028268285 -0.011989219 -0.09006776 0.0027471294 0.018965917 0.101967454 0.14632145 -0.16322109
-0.057544924 0.09643298 -0.0041422136 0.030349566 0.067519784 -0.145816 -0.020017127 0.10897802
0.07641395 0.10388456 -0.008981035 -0.025582377 0.113153696 0.036752455 -0.049782462 -0.02892884
-0.0657165 0.05886298 0.10788498 -0.031728346 0.058959976 0.06888338 0.048849996 0.03849386
-0.06719687 0.0862545 0.0632776 0.088281006 0.10722299 0.063398175 0.111537464 -0.02918546
0.032677975 0.035568476 -0.010162022 0.0014022577 0.06908412 0.028356293 -0.021417562 0.06727288

layers.1.lin_self.weight f4 [96, 96]
00000000: 2f67 30bd 6f59 a1bd ad7f 813d a88d 79bd
00000010: d407 6b3d 29d2 7b3d 2852 c4bd 4d44 7a3d
00000020: 3b3f 0f3d 2aef 41bd 4c1d ac3d 7d2c 893d
00000030: c8f2 af3d 54a0 c3bd ba4c 433d a9d7 823d
00000040: a5a9 c73d 0ab2 fb3c f24b acbc 9d99 723c
00000050: a3fc 0dbd 37ac c9bc 22be be3d 477e 3a3d
00000060: 10c8 61bd acad 813c 70b4 4e3d 1009 23bd
00000070: 2014 0ebd b5fd 5cbc ec7e 55bd 2c50 30bd
00000080: 855e 5f3d 6ee6 b3bd e729 dfbd 747b a1bd
00000090: c53c 5ebd 94e7 06bd d8c3 9a3d 918a 36bd
000000a0: 3771 b83d 5414 713d 4dd5 2f3d 8c89 9d3d
000000b0: c8fd b63d 5fa4 473d e829 a0bd 5751 d7bd
000000c0: e2cf b9bd 0902 0d3d db83 aa3d 722b 843d
000000d0: d7b4 ab3d 555f df3b fa4e 7c3b c7c7 89bd
000000e0: a37c d2bc 7644 91bd 1a80 9ebd 8a41 54bc
000000f0: be48 5cbc 473e b6bd d33f 013d 20d9 353d
00000100: b569 ccbd 0f2b 673d 6791 8fbd 0abf 1c3c
00000110: daf3 41bd e681 60bd d5d4 a83d af54 133d
00000120: 9500 adbd b1ca 9dbd 972b 04bd 66c2 79bd
00000130: 824c a73d e6d2 18bc c3c3 593d 326c 693d
00000140: 4f3a 423c 3a82 6dbd 77e4 26bc e057 693d
00000150: 670c e3bd 8233 f23b 0c7c c2bd f821 d13b
00000160: 1120 7fbb b933 cbbd 28b4 5d3d a96a 5ebc
00000170: 238f 45bd aa1d e63c 8a6b 59bd fbd6 b5bd
00000180: 14cb 3d3d ff27 033e 5d65 953d 21b9 e93d
00000190: aa0a 833c b5a0 043e 17b2 043e 90c7 b03d
000001a0: 330b 94bd f053 953d 4893 59bd 7b79 303d
000001b0: ccfe 83bd f770 233d 7e7c e13d 2a95 b83d
000001c0: 29be b2bc 8277 de3d 7c51 133d 3f25 c0bc
000001d0: d476 ba3d e1ed 20bd 2789 853d 208a 903d
000001e0: 4836 8f3d b703 c73d 2d6b 913d 9dd3 be3c
000001f0: 164b 02be 97d2 2abd 12d8 6dbd d60b 05bd
00000200: 013e 7d3d 072d 69bd 79c3 923d ec10 d33c
00000210: 812e bb3d 3789 9e3d 90eb ad3d 0ce8 f53d
00000220: 2c17 313d 1e66 013e e64e 483d 1a6c 903d
00000230: cd48 da3d b741 473c 2e9b 77bd e913 0fbd
00000240: 06cc cebc e381 98bb 2b41 e83d d357 fa3c
00000250: 8666 6a3d b552 683d 33f4 043e bce2 a13b
00000260: 2797 0b3d 0dc4 0cbe 353d aa3d 67b6 cabc
00000270: 4215 813c a832 7e3a 52d2 42bd a85d 81ba
00000280: 5765 91bd 8f05 863c 3dcc 02bd b43c bcbb
00000290: 0a6c 2e3b ed19 1c3c 4837 3dbd 7626 6f3c
000002a0: 89d5 013d 4187 7cbc da20 68bd 686a 8e3d
000002b0: 9e2b 813d d2b8 83bd 508a 663d 7f85 bbbb
000002c0: ebf3 36bd b4dc 87bd 1486 ec3c 7c12 84bd
000002d0: 09ec 063d e62d c23c fa20 82bd b47e 0cbd
000002e0: 9834 c23d c991 62bc 4db4 3a3d a302 283c
000002f0: b135 2e3d 4739 ec3d 3a9d 8a3d 801a 2c3d
00000300: 2fbf 6cbd bb83 13bd 1019 e2bc c64a 19bd
00000310: 8e5c 803b 7317 7e3d d065 503d b904 873d
00000320: 2ad3 7bbd 45c5 433d a5c7 753d 2564 05bd
00000330: eb7a 5fbd b38e 1ebc 7ffd edbc 193c 813c
00000340: eec8 0ebd 78f3 503c f9cf 873d aabd ba3c
00000350: 853d d63d 3321 3ebc e36a 8e3d 603b 943d
00000360: 13ea 8fbd 4543 be3d d18c ac3d 3154 ae3c
00000370: 63f6 5bbd 541f a6bd b6e1 b53d bf23 543d
00000380: 8474 053e 6438 383d eba3 29bd 8fa5 843d
00000390: d6b2 eebc 4170 8c3d 4837 c13d bdc2 d73c
000003a0: 6f15 b33d 14d1 56bd dbf8 9a3c ea2e da3d
000003b0: f07c 8abb b85d f936 6455 99bd d1d6 41bd
000003c0: 7bbc f43d 0824 86bd 39b4 fa3a 7c53 93bd
000003d0: 5e2a 8b3d d4aa 9b3d 537e a23c 4382 8a3d
000003e0: f786 b33c 1bae cdbd 8d32 e23d 418a 993d
000003f0: f67a b23d 7529 c13d e19b 47bd 1449 f33b
-0.043067154 -0.07878386 0.0632318 -0.06092611 0.057380512 0.06147972 -0.095859826 0.061100293
0.03497241 -0.047347225 0.084040254 0.066979386 0.08591229 -0.095520645 0.047680594 0.0638879
0.09749154 0.030724544 -0.021032307 0.014807132 -0.03466476 -0.024618251 0.09313609 0.045530584
-0.055122435 0.015829884 0.050465047 -0.039803565 -0.03468716 -0.013488223 -0.052122995 -0.043045208
0.0545335 -0.08784185 -0.10896664 -0.07884875 -0.054257173 -0.032935694 0.075568855 -0.04456574
0.09005969 0.058857277 0.04292803 0.076922506 0.08935124 0.04874074 -0.07820493 -0.10513561
-0.090728536 0.03442577 0.08325931 0.06453599 0.08384102 0.0068167844 0.0038499222 -0.06727558
-0.025694197 -0.07093136 -0.07739277 -0.012955079 -0.013445077 -0.08898597 0.03155501 0.04439652
-0.099810995 0.05643755 -0.07010155 0.009567032 -0.047351696 -0.05481138 0.082437195 0.035969432
-0.08447377 -0.07704676 -0.032268133 -0.06097641 0.081688896 -0.009327626 0.05316521 0.05698795
0.011854722 -0.05798552 -0.010186306 0.05696857 -0.1108635 0.007391394 -0.09496316 0.006382223
-0.0038929025 -0.09921975 0.05412689 -0.013575234 -0.04823221 0.028090317 -0.053081073 -0.08878895
0.04633625 0.12808226 0.07294724 0.11412264 0.015996296 0.1295193 0.12958561 0.086318135
-0.072286986 0.072914004 -0.053118974 0.043084603 -0.06445083 0.039902654 0.11010073 0.09012826
-0.021819191 0.10862638 0.03596638 -0.02345526 0.09104696 -0.03928936 0.065203 0.07057595
0.06992775 0.097175054 0.0710052 0.023294264 -0.12723956 -0.04170474 -0.05806739 -0.03248199
0.06182671 -0.056927707 0.0716619 0.025764905 0.09139729 0.077410154 0.084921956 0.1200715
0.04323499 0.12636611 0.04890337 0.07051869 0.10658417 0.012161664 -0.060450725 -0.034931097
-0.02524377 -0.0046541556 0.11340555 0.030559456 0.05722668 0.0567195 0.1298378 0.004940359
0.034079697 -0.13746662 0.083124556 -0.02474518 0.015757207 0.00096968794 -0.04756386 -0.0009869831
-0.07099407 0.016360072 -0.031933058 -0.005744541 0.002661469 0.009527666 -0.0461953 0.014596572
0.031697784 -0.015413106 -0.056671955 0.06953889 0.063071474 -0.06431736 0.05628425 -0.005722701
-0.044666212 -0.06633893 0.028872527 -0.06448838 0.032939944 0.023703527 -0.06353946 -0.03430052
0.09482688 -0.013828703 0.045582104 0.010254535 0.042531673 0.11534362 0.0676827 0.04201746
-0.057799514 -0.0360143 -0.027599841 -0.037424825 0.0039172834 0.06203408 0.050878346 0.06592698
-0.06148068 0.047795553 0.06000485 -0.03256621 -0.054560583 -0.009677577 -0.02905154 0.015775727
-0.03485959 0.01275336 0.066314645 0.022795517 0.10460953 -0.011604595 0.06953981 0.072378874
-0.07027068 0.092901744 0.08425296 0.02128038 -0.05370177 -0.08111444 0.088809416 0.051791903
0.13032728 0.044975653 -0.04141609 0.0647689 -0.02913801 0.06857348 0.09434372 0.026337976
0.087443225 -0.052445486 0.018917492 0.106534794 -0.0042263195 7.4316886e-06 -0.0748699 -0.047324006
0.11950012 -0.06549841 0.0019127197 -0.07193658 0.0679519 0.07600942 0.019835627 0.06763127
0.021914942 -0.100429736 0.11044798 0.07497073 0.08714859 0.094317354 -0.048732642 0.007424483

layers.1.lin_self.bias f4 [96]
00000000: 9c27 d9bd ae70 0fbd ba74 093d 59cf b03d
00000010: 3a27 8d3d 6fc5 753c 30df 883d 3b5b 8cbd
00000020: 3df2 7abc 5cc0 193d 969a 443d 4ea1 92bd
00000030: a4d9 d93c 5b0b 49bd 487d 11bd 600d 2cbd
00000040: a2c7 7e3c d809 693d 08b3 b0bd 04e9 d73d
00000050: f25e a5bc 1906 c23d df36 96bd f65a 8dbd
00000060: 23ed 38bd 6a0f c13d 37a8 c83c 6e98 553d
00000070: 86b1 d0ba a46e 543d 2579 a2bd 86b3 c2bc
00000080: c036 f43d e37d d93d 371a dd3d e8ad c43d
00000090: 8c40 b3bd 9b97 753d b640 743d e10e bc3d
000000a0: c519 57bd 4c98 29bd 223b 123c 6282 903d
000000b0: c90b ba3d a8b8 ae3c 2eb9 03bd ab2c 65bb
000000c0: 7e6f d33d 8c26 d03d f0cd 2abd 13f2 9bbc
000000d0: c4e7 3c3d 84ef aabc 2b81 9abd 41fe a9bd
000000e0: 3fe3 de3c 2552 1abd 7a3e d43c 7872 db3d
000000f0: 6cbf 16bd 19ea bd3c 1dc9 d13b f2ce 98bd
00000100: b71a 4bbd ba06 92bd ed6a 013c d124 e1bc
00000110: bd93 87bd fb5f cc3d eb67 ce3c 96a6 87bd
00000120: 67dc 8fbc 3e89 763d 664c d4bc fe0b 98bc
00000130: 52ff a43d 42b6 063d 690d 513d 8f84 193d
00000140: bbc2 ce3d d10d a63d f24c 4abb b684 3dbd
00000150: 00b2 903d 2160 023d 074a a33c 7ce5 563d
00000160: 583e 7e3b 97b0 8abd 14f8 27bd 0033 9c3d
00000170: 1818 e1bd 7b4e 0bbd a13e ac3c ae86 1abc
-0.10603258 -0.03501957 0.033558585 0.086332984 0.068922475 0.015000685 0.06683195 -0.06853338
-0.015316543 0.037536964 0.047998987 -0.07159673 0.026593037 -0.049083095 -0.035519868 -0.042004943
0.015550526 0.056894153 -0.086278975 0.10542491 -0.020186875 0.09473819 -0.073346846 -0.06902115
-0.045148026 0.09426768 0.024494274 0.05214732 -0.0015922047 0.051863328 -0.07933263 -0.023767244
0.11924505 0.10619714 0.10796016 0.096034825 -0.08752546 0.059959035 0.059632026 0.091825254
-0.05251481 -0.041405007 0.008925231 0.070561185 0.09084279 0.021328285 -0.032159023 -0.003496925
0.10324 0.10163602 -0.041700304 -0.019036328 0.046119466 -0.020866163 -0.07544168 -0.08300448
0.027207969 -0.037675995 0.025908697 0.107151926 -0.036803648 0.023182916 0.0064021484 -0.07461347
-0.049586024 -0.07130189 0.007899028 -0.027483376 -0.06619976 0.09979244 0.025196036 -0.066235706
-0.01756115 0.060189478 -0.025915336 -0.018560406 0.08056511 0.03288866 0.05103818 0.037479933
0.10095736 0.08108104 -0.0030868617 -0.04626914 0.07065201 0.031829957 0.01993276 0.052464947
0.0038794484 -0.06771963 -0.04100807 0.07626915 -0.10990924 -0.03401039 0.021025958 -0.009431524

layers.1.lin_neigh.weight f4 [96, 96]
00000000: 5524 a3bd 5d14 643c 870e 79bc ebfc da3c
00000010: cc56 88bd 2b12 d4bd 7d11 7b3d 83a6 a9bd
00000020: 8f1c 3f3b 8b85 9abd 0a5c f4bc 41b0 99bd
00000030: d4a6 a43d 4c52 c8bc 2ebf 213d af8b 79bd
00000040: 3a09 73bd eff5 7f3b 035c d9bd 1dc8 bbbd
00000050: c7c8 f93a 5037 823c 39e0 8d3d 42ab a43c
00000060: 5ac9 723d a6b2 29bc 5947 163d 1e96 363c
00000070: 838f f539 3def 67bd 580a a03d a9f5 b1bc
00000080: 5f7b 0abd 7850 a83d b469 7b3d 3283 9cbd
00000090: f339 5e3d e035 88bd d0f0 69bd ea3a babd
000000a0: fbc2 bbbd a4d8 d6bd 1aa8 c23d 85e5 783d
000000b0: 79da 2c3d 5ce7 cbbd bd12 32ba 13e8 3d3d
000000c0: 0173 98bd 5ae2 e5bc e04f 6a3d a05b 873d
000000d0: 7b93 a93d f740 a8bd 938c b4bd 1807 9c3c
000000e0: 9143 c2bd 9ebc 9c3d 511d 31bd 89b1 1bbd
000000f0: 4c51 03bd 6844 cbba d99d 8abd 1ece 5b3d
00000100: acb9 cbbd 63de 693d 8aa7 aa3d f3c7 c2bd
00000110: ee67 a03c 9a38 e7bc 202a a4bd 5b44 2c3b
00000120: e931 83ba 0954 9c3b b207 b1bd 348c f2bc
00000130: 6181 6abd 147c 7a3c 7f2c b3bd 43b8 27bd
00000140: 672d 203c d52b 683d 4757 18bc 3582 c63c
00000150: 5a1d 69bd fec6 00bd 099d b83d 135d 363d
00000160: 93b6 50bc 238c 90bd 5c70 7d3d 4950 c93d
00000170: efc2 edbc c7b3 a53d 82cf b33d 4575 a53d
00000180: 8d53 963d a2fc ac3d acac 8a3d df19 7cbd
00000190: 8eea f9bc 19af 9b3d d7f2 963d 7e45 203d
000001a0: b1dd 9e3c 88f5 e63d 0dd6 1cbd 4b21 e33d
000001b0: 910b 9d3d 972e e33d 5c40 423d 8541 f13c
000001c0: fc40 bbbc 44fb 8c3d 78b7 cd3d d3df 71bd
000001d0: 5828 a0bd 8f66 e4bc 4d2d f23d 675b 68bc
000001e0: 138a 043e a0ba 953d 2c47 7f3d f9e4 75bc
000001f0: 768b 52bd 1aa0 1f3d 2f85 593d 0ed7 fa3d
00000200: 5071 ba3d 90aa 813d 8171 9a3d 8518 f83d
00000210: fd50 21bd 27fa 43bc 9f38 333d 274a b93b
00000220: 0e2c be3d b377 8e3d db5f 193d 6e5f bf3d
00000230: 96f5 88bc 279c a63d abce 4cbd 1e6e d43d
00000240: e6a4 dcbc b50d 6cbd 35f4 e33c 7413 7a3c
00000250: ac08 cc3d 6b38 c63d 0a9e e2bc 4f0e 8abb
00000260: d350 863d 5681 8abc 2cb8 f73d 62e4 03bd
00000270: 3375 1b3d b8b5 a03a cc58 0d3d bf0c 0abd
00000280: 858f c73d 30e2 4bbc b731 1c3d 2cc8 6d3d
00000290: 5700 a2bc 60ad f13c 24ce 9dbd 3b33 4cbd
000002a0: a0c4 0fbd 7439 64bd c155 833d d905 a6bc
000002b0: 2662 a23c 5b7b 263d 019f 94bd 6772 81bd
000002c0: 1a30 873d 4d27 023d 071d 403d ce9c 873c
000002d0: 3078 3e3c f403 2cbb f204 0cba 3002 0c3b
000002e0: 562c be3d b8ca 313d bc62 e6bc e1fa 213c
000002f0: a853 73bd d70f a03d 907e ad3d ed7e 4ebd
00000300: af5e 95bd 2990 e03d f5bb 87bd 64b7 d33d
00000310: f886 4a3d de95 8cbc 6801 9c3d a050 e73c
00000320: 8c36 9bbc 8a2b 7339 ec8e eeba 583c 123d
00000330: 0988 d13d 8db5 a6bd 9ad9 7fbd 3c3f 5f3d
00000340: 04ff 42bd 9529 a6bc 4c4e 023e 10cb b23c
00000350: 20fa 54bd cb9b eebd 8101 eabc e401 183b
00000360: b528 acbc 52fd 103d a779 f43d 8ec9 a9bc
00000370: 0968 693d 0b3c 1fbd b101 c43d 3ba7 7f3d
00000380: fdcf a4bd e6f8 41bd 91cc 803d da67 66bd
00000390: fa7f 883d c352 0f3d 7830 8d3c 4ca7 f03c
000003a0: e4b4 86bd c7f7 0f3c faa6 153d 3e75 7f3d
000003b0: b01e 1ebc e1e9 503d 6272 bd3d 18de 9f3d
000003c0: 9540 74bd 5e71 6fbc 20fd 473d ea67 c43d
000003d0: 44fd ec3c 214a f5bc ecd8 c4bc e187 00bd
000003e0: 49d6 8ebd 9293 df3b cb64 393c cd44 f83d
000003f0: 3054 3dbc 0204 4f3d 93e5 b3bc 796c 50bd
-0.07965914 0.013920871 -0.0152012175 0.026731929 -0.0665718 -0.10355028 0.061295975 -0.08283713
0.002916131 -0.075450025 -0.029829044 -0.07504321 0.080396324 -0.024453305 0.039488964 -0.06092423
-0.05933497 0.00390565 -0.10613253 -0.09169028 0.0019057029 0.015895516 0.06927533 0.020101193
0.059274055 -0.0103575345 0.036689136 0.011144189 0.00046836966 -0.05662464 0.07814473 -0.021723585
-0.033809062 0.08218473 0.061380103 -0.07642211 0.054254483 -0.06650901 -0.057114422 -0.09093268
-0.09168049 -0.1049054 0.09504719 0.060765762 0.04220054 -0.09956238 -0.00067929534 0.0463639
-0.0744381 -0.028062034 0.05720508 0.06609273 0.08280083 -0.08215516 -0.08815875 0.019046351
-0.094855435 0.076531634 -0.04324085 -0.038011108 -0.032059953 -0.0015508058 -0.06768388 0.053663366
-0.099475235 0.05709685 0.08332737 -0.095107935 0.019580808 -0.028225232 -0.08015847 0.002628586
-0.0010009381 0.00477076 -0.08644046 -0.02960787 -0.05725229 0.015288372 -0.08748721 -0.04094721
0.00977645 0.056682426 -0.009298152 0.02423201 -0.056912757 -0.031439774 0.09014327 0.044522356
-0.012738842 -0.07057979 0.061874732 0.09829766 -0.029023616 0.080909304 0.08779813 0.08079008
0.07340155 0.084466234 0.06771216 -0.06154811 -0.030507352 0.076017566 0.07370537 0.039128773
0.01939282 0.112773 -0.038290072 0.110903345 0.07668222 0.11092871 0.04742466 0.029450187
-0.022858135 0.068838626 0.100447595 -0.059051346 -0.07820195 -0.027880935 0.11825047 -0.014181948
0.12943296 0.073109865 0.062323734 -0.015008205 -0.05140253 0.038971044 0.05310553 0.1224805
0.09103644 0.0633136 0.075411804 0.12114052 -0.039383877 -0.011961496 0.04375517 0.0056545916
0.092857465 0.069564246 0.03744493 0.09344374 -0.016718667 0.081352524 -0.05000178 0.10372566
-0.026934098 -0.05763026 0.027826408 0.015263427 0.099625915 0.096787296 -0.02766325 -0.0042131315
0.06558385 -0.016907375 0.12095675 -0.032200225 0.037953567 0.0012261188 0.03450851 -0.033703562
0.09744171 -0.012444064 0.03813335 0.058052227 -0.019775553 0.029501617 -0.07705334 -0.049853545
-0.035099626 -0.055718854 0.06412841 -0.02026646 0.019822191 0.040644985 -0.0725689 -0.06320649
0.066009715 0.03177576 0.046902683 0.016554262 0.011625335 -0.0026247473 -0.0005341313 0.0021363609
0.092858 0.04340622 -0.028123252 0.009886474 -0.059405953 0.07815521 0.084714055 -0.050414015
-0.0729345 0.10964996 -0.06627647 0.10337713 0.049445122 -0.017161306 0.07617456 0.028236687
-0.018946908 0.00023190505 -0.0018200553 0.03570208 0.10231025 -0.08140097 -0.06246338 0.054503664
-0.047606483 -0.0202835 0.1272518 0.021825343 -0.05199635 -0.11650809 -0.02856517 0.0023194486
-0.021015504 0.035397835 0.11937266 -0.020725992 0.05698398 -0.03887562 0.09570635 0.062415343
-0.08047483 -0.04735651 0.06289018 -0.056251384 0.066650346 0.034991037 0.017235026 0.029376648
-0.06577471 0.008787102 0.036536194 0.06236767 -0.009650871 0.051004294 0.092503324 0.07806033
-0.059631903 -0.014614431 0.048825383 0.095901325 0.02892936 -0.029942574 -0.024029218 -0.031379584
-0.069744654 0.0068230117 0.011315535 0.12122498 -0.011555716 0.05054093 -0.021960055 -0.050884698

layers.2.lin_self.weight f4 [96, 96]
00000000: baea a93d 6b74 86bd 370c cfbb 0c22 feba
00000010: e76a b53d 85e9 963d ccca 90bb f2af 4e3a
00000020: 83a7 103d a3b4 c73d e75e 963d d365 9e3d
00000030: f716 ffbc b3f7 663d ffcd 9c3d 8673 dbbc
00000040: e705 b1bd fe6e 8dbd 14f1 863c 4a7b 90bd
00000050: 470e 30bd 7f81 e43c defd dd3c 149d 30bc
00000060: 6d7a ab3d 5e04 a43d 9b64 b2bd 1281 cb3c
00000070: 7ffa 963d 8e28 983b 1a9f b9bd 5c30 b93d
00000080: 9cae b7bc 60c9 bebd 3a2e 963c baa3 0c3d
00000090: 9543 b43d 134c c4bd 2ee9 a73d d565 9fbd
000000a0: 81c7 d93d 4111 943d 693f 7a3d cd80 57bd
000000b0: a691 913d e55c 9fbd 43f9 6fbd 3457 683d
000000c0: bf98 143d 0808 523c c94e a0bc 89b3 693d
000000d0: 7c27 683d af8e 81bc 09fe 9f3c a72a 3f3c
000000e0: 31b4 463d ed26 babb ffcb 93bb 3d23 29bd
000000f0: 1ead e1bc 6e6f aa3c 94de 8e3c aeda ae3c
00000100: d65b 5d3d d85f 9c3d 7a4a 963d 2d39 86bd
00000110: e3cd 48bd c3dc cb3c cfc5 88bd 9e7a dc3d
00000120: da30 9a3d 9eae efbb a953 943d 7469 22bc
00000130: 8055 b9bd e933 9f3d cff3 153d 3959 c5bd
00000140: a6df a03d d3f2 9abd de49 7e3b e737 383c
00000150: ed47 443c 17fc 353d ee9e 54bb edcd b2bd
00000160: f74d fd3c 3be9 643b d4dc 97bd 7c1a 93bc
00000170: 9c2f c33d c276 a3bd f880 e43d 5ea3 8f3c
00000180: eca8 5c3d 5755 d0bd 768a babc bbe5 e83c
00000190: efb3 5c3a 3490 a63d 5172 ad3d fcca cdbd
000001a0: d536 bdbd e2b2 993d 1feb 983d b529 fa3c
000001b0: 8f2a 293d a35c 9cbd 3cda 6dbb b658 223d
000001c0: d018 973b 2507 dbbc d363 993c a57b 9cbc
000001d0: a061 e3bc f20d 51bd f5cb 243d e051 6abd
000001e0: 04c3 c8bd 3abb 66bd b9bb c5bd a805 ccba
000001f0: 651a 173d 2788 c1bd 90d5 a1bd a016 8d3d
00000200: 66c3 ba3d 4239 86bd b931 27bd 114d 8e3c
00000210: 04c2 bc3d aacd 33bd ace1 3bbd 8e1f 8cbb
00000220: 521e a8bd 8f7c 1e3d 7d89 5bbd bb31 71bd
00000230: 6117 cfbd 3585 8f3c 26f4 9fbc 33ee 693d
00000240: 7c7f aabd 9bb7 ca3c 611f efbc ead0 94bc
00000250: 76ea a23c 6a65 97bd 060c b5ba 6149 ae3c
00000260: 44d8 41bd aaf9 26bd e82c 373d c629 3abd
00000270: 73f7 bfbd 4064 cbbd ee1d 993d fd2b ab3d
00000280: 6729 7ebd fa5d f5bc b8cb 93bd 12ac 143d
00000290: 3285 223c 1ab9 c4bb 6e62 b9bc 0edf dc3c
000002a0: d927 c03d 05ac 093d a22c 8b3d acdf 0abd
000002b0: 9f0a a2bc 1a25 adbd 8feb cdbd 2231 67bd
000002c0: e57b a03d 2d65 6ebd 945c 323c aa23 67bc
000002d0: 56ed 07bd 7e6d d93c 8219 4c3c 234e cfbb
000002e0: b3ab 23bd 7807 a53d d8f2 953d 6420 7bbd
000002f0: f046 f53c 01b5 cebd d51d 6bbd bb1a cfbd
00000300: ba3a 7fbd 92a0 ba3d fad9 cdbd d510 debc
00000310: d1fc c6ba 42fc 7cbd 88ac a43d feb3 adbd
00000320: 8d5f 7cbd 9aa4 d23c e89d 83bc eae2 94bd
00000330: 98e5 953d 91f7 56bd 2c76 18bd 800a b63d
00000340: acba 92bc 3ade 963d c3e5 f8ba 0633 6fbd
00000350: c455 c8bd 253d a63c d667 243d 7ffd e4bb
00000360: f077 56bd eb7f b13d 54f2 d9bc ebf7 c53c
00000370: 07e3 043c 0b01 5d3d ff60 48bc 1775 a73d
00000380: 568f babc b58b 37bd 0c7a c8bc 1995 a13c
00000390: fb1a 9c3c 3c5b c73d 8fee 653c 7664 843d
000003a0: 010f cbbd 4b41 52bc 36a5 233b bc3c a2ba
000003b0: 2a99 323c 7a98 6abd 5d65 363d dcbc b6bc
000003c0: a8af 783d 1445 0a3d bac9 bebc e978 823d
000003d0: cb71 c63d 11a2 b9bd 5396 1bbd b44d 803d
000003e0: 8e07 8cbd db16 8f3d 4018 babd 0aa1 32bd
000003f0: 7e45 313c e7ad afbd c71a fbbb 1092 97bc
0.08296724 -0.06565174 -0.006318595 -0.0019388809 0.08858281 0.07368759 -0.0044187065 0.0007884494
0.035316 0.097512506 0.0734232 0.07734265 -0.03113888 0.056388568 0.07656478 -0.026788484
-0.08643704 -0.06905936 0.016472377 -0.070547655 -0.042982366 0.02789378 0.027098592 -0.010779638
0.0837296 0.080086455 -0.08710595 0.024841819 0.07371997 0.0046435064 -0.09063549 0.09042427
-0.022422127 -0.09315753 0.01833259 0.03433583 0.08801953 -0.095848225 0.08198772 -0.07783095
0.106337555 0.072298534 0.06109563 -0.05261307 0.07107858 -0.0778139 -0.058587324 0.05672379
0.036278483 0.012819298 -0.019568818 0.057055984 0.05667828 -0.015815107 0.019530313 0.011667884
0.048511688 -0.00568091 -0.004510402 -0.04129337 -0.027548369 0.020805087 0.017440118 0.021344509
0.05404266 0.07635468 0.07338424 -0.06553874 -0.049024474 0.02488554 -0.06678354 0.10765575
0.07528849 -0.007314517 0.072425194 -0.009912837 -0.09049511 0.07773573 0.036609467 -0.096361585
0.078551576 -0.07565846 0.0038801352 0.011243797 0.011980039 0.044429865 -0.0032443362 -0.087306835
0.030920966 0.0034929055 -0.074151665 -0.017956965 0.09530565 -0.07981636 0.11157411 0.017533954
0.053872034 -0.10172527 -0.022771101 0.028429857 0.0008419146 0.08132973 0.0846907 -0.10048482
-0.09238974 0.07504822 0.07466721 0.030537466 0.041300353 -0.076348566 -0.0036293408 0.039635383
0.004611112 -0.026736805 0.018724358 -0.019101927 -0.027756512 -0.05103869 0.04023357 -0.05720699
-0.09802821 -0.056330897 -0.09654946 -0.001556565 0.036890406 -0.09449797 -0.07902062 0.06889081
0.091193005 -0.0655389 -0.040818904 0.017370733 0.09216693 -0.04389731 -0.045869514 -0.0042762225
-0.08208908 0.038693007 -0.053597916 -0.058885317 -0.10111881 0.017519573 -0.019525599 0.05711193
-0.08325097 0.024745753 -0.029189767 -0.018166024 0.01988719 -0.0739239 -0.0013812787 0.021275224
-0.047325388 -0.040765442 0.04472056 -0.045449995 -0.09373369 -0.099312305 0.07476412 0.083579995
-0.062051203 -0.029952038 -0.07216591 0.03629691 0.009919452 -0.006003511 -0.022629943 0.02696183
0.093826 0.033611316 0.067956224 -0.033904716 -0.019780455 -0.08454342 -0.10054695 -0.05644334
0.07836131 -0.058201957 0.01088633 -0.014107624 -0.033185326 0.026541468 0.012457253 -0.0063264533
-0.039958667 0.08058065 0.073217094 -0.061310187 0.029941052 -0.100931175 -0.057401497 -0.1011252
-0.062311865 0.091126576 -0.10051341 -0.027107636 -0.0015181546 -0.06176401 0.0804072 -0.084815964
-0.06161456 0.025713254 -0.016066507 -0.07269843 0.07319182 -0.05248219 -0.037222072 0.088887215
-0.017911278 0.07366605 -0.0018989373 -0.05839827 -0.097819835 0.020292828 0.04013809 -0.006988227
-0.052360475 0.086669765 -0.026604809 0.024166068 0.008110768 0.053956073 -0.012230157 0.0817663
-0.022773426 -0.04481097 -0.024472259 0.019724416 0.019055834 0.097341985 0.014033928 0.06464474
-0.09914971 -0.01283295 0.00249703 -0.0012377719 0.010900775 -0.05727432 0.04453026 -0.022306852
0.060714394 0.033757284 -0.02328955 0.06370718 0.09689673 -0.09064115 -0.037985157 0.06264821
-0.068373784 0.06986781 -0.090866566 -0.04361061 0.010819791 -0.08578091 -0.007663104 -0.018502265

layers.2.lin_self.bias f4 [96]
00000000: c095 973d 36ff a43c 0a0e a1bd 4e21 2d3d
00000010: fe3e b8bd 977c 77bd cd4b bebd 6027 84bd
00000020: bb4e a83d ea6d 933d 7399 9e3d 5c01 c0bd
00000030: 379f 87bc ea6c 17bd da0d 9e3d 9fa5 82bd
00000040: 46dd 5f3d 41cd 27bd f5b7 1bbd 4acb b63d
00000050: ba79 343b 6b72 653d 9f21 7dbd fd01 95bd
00000060: 7896 92bd 101e e73d 1647 da3b 1a17 a1bb
00000070: 276b 163d 9c68 883d 13fb 8b3d 0484 70bd
00000080: 142f 43bd 6051 9fbd 3fa3 613d 4bbc a33c
00000090: 238e afbc ecc8 a93d 5e9f ba3d 93e4 44bd
000000a0: 2216 113d 770a 83bd afb6 b53d 6e38 a2bd
000000b0: 2018 af3c abff 743d 3c7d 073d d99f 543d
000000c0: 9076 243d 6077 b23c d4f7 6b3d bc49 bcbc
000000d0: 1077 c8bc 95db a6bd 027a c1bd de51 633d
000000e0: 7440 48ba b207 7bbd 6356 df3d 7355 b33d
000000f0: ff5d 5abd e1be a9bc 6996 873d e8f2 893d
00000100: 7f28 133c 781e 493d 43c9 6cbb 87eb cc3d
00000110: bb50 88bc e9c6 bbbd 484e 0bbd 1a26 d73c
00000120: 00b1 153d 0ad1 b23d a1cf b13d 68ff 8e3d
00000130: 335d c53d 41d5 e23d dad0 abbd 8b30 47bd
00000140: acd7 9fbd 759d 963c 8c2a 493d 09d6 edbc
00000150: 39df 023d a0d7 9dbd 71bf a13d 6e55 e43d
00000160: 2246 a1bd e764 a83d eaee 9e3d 2476 203c
00000170: c4a2 9c3d ce8c 6dbd ad5a d6bc 5f7a 103d
0.074016094 0.020141225 -0.07864006 0.04226809 -0.0899639 -0.060421553 -0.092918016 -0.06452823
0.08218142 0.07198699 0.07744112 -0.09375259 -0.016555412 -0.036969103 0.07717486 -0.06379246
0.054654382 -0.04096723 -0.038017232 0.08925493 0.0027538375 0.05601732 -0.06179964 -0.0727577
-0.07157606 0.11285031 0.006661306 -0.004916084 0.036723282 0.06660578 0.06834998 -0.05871965
-0.04765232 -0.07779193 0.055087324 0.019987246 -0.02143008 0.08290276 0.09112428 -0.048069548
0.035421498 -0.063984804 0.08872735 -0.07920919 0.021373808 0.059814136 0.033078417 0.051910255
0.040152133 0.021785438 0.057609394 -0.022984378 -0.024470836 -0.08147351 -0.09447099 0.055497997
-0.0007638999 -0.061286636 0.10905149 0.087565325 -0.053312298 -0.020720901 0.06620485 0.06735784
0.008981823 0.049101323 -0.0036130704 0.10005861 -0.016640058 -0.091687985 -0.0340102 0.026263285
0.036545753 0.08731277 0.0868218 0.069823086 0.09636917 0.11075831 -0.08389445 -0.04863028
-0.07804808 0.018385628 0.04911284 -0.029032724 0.031951163 -0.07707143 0.07897843 0.11149107
-0.07874705 0.082223706 0.07760413 0.009793792 0.076482326 -0.05799561 -0.026166284 0.035272952
