outputs/models/nowcast_10_full_seed123.pt (torch, 272537 bytes, 14 tensors)

in_lin.weight f4 [96, 15]
000000 05 f5 fc bd 30 27 fb ba 95 25 16 be c8 f6 b1 3d
       -0.12351421 -0.0019161459 -0.14662774 0.08689648
000010 98 47 61 be 4a d0 41 3e 10 78 4e be 5c c1 64 be
       -0.21999967 0.18927112 -0.20162988 -0.22339386
000020 87 9f 39 be 1e 02 d1 3d ba 76 e8 bd 86 d2 a0 3d
       -0.18127261 0.10205482 -0.1135077 0.07852654
000030 45 24 57 be 27 20 32 be 0b d5 f5 bd 9b 0f 15 bd
       -0.2100993 -0.17395078 -0.12003525 -0.036391836
000040 9f b2 28 be 71 d4 3b 3e 8f 49 e9 bc 4a bc a9 3d
       -0.16474389 0.18342759 -0.028477458 0.082878664
000050 37 f7 3a 3e 7f 65 8c 3d 81 8b 21 3e 3d 72 a0 3e
       0.18258367 0.06855296 0.15775873 0.31337157
000060 bd bf 7e bd 39 70 e7 3d f5 1a e3 bc 25 c7 73 3e
       -0.062194575 0.11300702 -0.027722815 0.23806436
000070 16 fe 2b 3e ae 69 85 be 9a b5 6d 3e f4 5f ca 3d
       0.16796145 -0.2605719 0.23213807 0.09881583
000080 85 70 fe 3d cc 8d a7 3d b8 ca 5b 3e 8a a4 0b bd
       0.12423805 0.081813425 0.2146405 -0.034092464
000090 d6 dc 59 be 64 17 b8 bd 62 78 4c be 1e 00 61 3c
       -0.21275648 -0.089888364 -0.19967797 0.013732938
0000a0 b3 ae 79 bd be fe 1d be f9 67 42 bd 64 e3 6d 3e
       -0.06095762 -0.15429208 -0.047462437 0.23231274
0000b0 39 61 87 3c 7e 59 da 3c c7 5e 77 bd aa d9 71 3d
       0.016525852 0.026654001 -0.06039312 0.05904547
0000c0 5c f7 56 3e 12 ad 21 3e 58 b3 bb 3d e5 48 7b 3d
       0.20992798 0.15788677 0.091650665 0.061348815
0000d0 0d 51 ca 3d 2a 67 05 3e 1d 25 2b bc f1 ff 6b be
       0.098787405 0.13027635 -0.01044586 -0.23046853
0000e0 93 61 f9 bd 01 2c 64 3e c0 36 04 bc 95 b8 6e be
       -0.12176814 0.22282411 -0.008069694 -0.233126
0000f0 d8 74 30 3c f7 bc 57 3e e3 e5 8b be 9b b7 34 be
       0.010770045 0.21068178 -0.27323827 -0.17648165
000100 72 99 d2 bd 86 cb 29 3c da d0 81 bd 48 f7 7d 3d
       -0.102831736 0.010363465 -0.063386634 0.062003404
000110 42 79 43 be e5 01 28 3e d4 5e 7b 3e aa 27 7e 3e
       -0.19089225 0.16406973 0.24547893 0.24819818
000120 49 17 16 be 44 60 71 be 79 a6 00 3e 6c ca 5f bc
       -0.1465732 -0.23571879 0.12563504 -0.013659101
000130 25 03 1c 3e 69 60 8b be 0f c8 fe 3c a0 76 3a 3e
       0.15235575 -0.27221993 0.031101255 0.18209314
000140 f5 4f f5 3d 62 67 66 3d d9 e2 38 bb 0e 85 6c 3a
       0.11978141 0.056250937 -0.0028211384 0.0009022512
000150 28 64 c3 bd 48 81 ab bc 5f e8 57 be 03 b8 8b 3e
       -0.09540588 -0.02093567 -0.21084736 0.27288827
000160 9a cf f1 3d c3 6f a1 3c 2e 74 42 be fb cb 3b 3e
       0.11807175 0.019706612 -0.18989632 0.18339531
000170 c0 6b b6 3d 1a b3 26 3e 71 05 d0 bd 4a 34 60 3d
       0.089072704 0.1627926 -0.10157288 0.054737367
000180 e8 a0 7e 3e 3e f1 7e 3e b4 36 85 3e c8 c2 80 bc
       0.24866068 0.24896714 0.26018298 -0.015717879
000190 98 46 5c 3e 86 f9 01 be 2d c2 11 3d dd b0 22 be
       0.21511304 -0.12692842 0.03558557 -0.1588778
0001a0 94 4f 98 bd af 00 92 bd 13 dc 3e bc 7a 57 6b 3e
       -0.07437053 -0.07129037 -0.0116491495 0.22982588
0001b0 7f 58 c6 3d 6c 5d 8f ba 1a ae 3b 3e 41 a5 19 be
       0.09684848 -0.0010937876 0.18328133 -0.15004446
0001c0 66 6b 06 3e 63 13 1a bd c2 dd 52 bd 12 f2 99 3c
       0.13126907 -0.037616145 -0.051481016 0.018792186
0001d0 28 65 4c be f5 96 42 39 94 c5 b8 3d 74 af 6d 3e
       -0.19960463 0.00018557518 0.0902206 0.23211461
0001e0 5b 41 8b bd cd a3 a0 3d 23 7d 8a 3e ed 46 00 be
       -0.06799575 0.078437425 0.27048597 -0.12527056
0001f0 1f 55 7b 3e 35 45 03 be 0f 65 e7 3d 06 e6 45 3e
       0.2454419 -0.12819369 0.11298572 0.19326028
000200 11 09 0a 3e 00 d6 7e 3e 69 58 ab bd ec d1 23 3e
       0.13480021 0.24886322 -0.08366472 0.15998048
000210 f0 6b 9e 3c fc 0d 5c be e1 20 2e bd 0c 25 35 be
       0.019338578 -0.2148971 -0.042511825 -0.17689914
000220 4e a4 bf 3d e2 3c 9d 3c 01 75 9a 3b 78 6b a0 bd
       0.093575105 0.01919407 0.004713655 -0.07832998
000230 e0 bb a2 3a 1a 8d cf bd b3 9b 18 3e a7 29 99 3e
       0.001241561 -0.10134335 0.14903145 0.2991459
000240 03 2d 90 3d e7 0d d9 bd 03 b5 a9 bd 40 e6 de 3c
       0.07039835 -0.10598355 -0.08286478 0.027209401
000250 a1 41 46 be 45 e9 3d be bb 29 42 be 41 bb a7 bd
       -0.19360973 -0.18546017 -0.18961231 -0.08190013
000260 4e bb ca ba 07 03 3c 3e 5a d2 cc 3d f8 8e 4a 3e
       -0.0015467198 0.1836053 0.10001059 0.19781101
000270 ba 51 20 be 7a 94 df 3d f8 03 2f be 87 c1 3b 3e
       -0.15656176 0.109169915 -0.17091358 0.18335544
000280 d4 7c 87 3d 43 9a ac 3e dd e4 10 be 25 75 3e 3e
       0.06615606 0.33711442 -0.14149804 0.18599375
000290 a5 5a 58 3e 50 c5 57 3e 39 2f a5 bb ad 68 72 3e
       0.21128328 0.21071362 -0.00504103 0.23672743
0002a0 b3 a4 05 3e 98 42 45 3e 25 67 89 bc a9 5a 55 be
       0.13051109 0.19263685 -0.016772816 -0.20835365
0002b0 cb c1 8b bc cb 51 c7 3c f8 b3 49 be 3f 35 2f be
       -0.017060181 0.024330994 -0.19697559 -0.17110156
0002c0 76 d5 85 be 67 5b 05 be 9d 48 60 3e e1 24 8c 3d
       -0.2613942 -0.13023148 0.219027 0.068429716
0002d0 ad 27 30 bc cd d2 3d bb 11 01 2a 3e da b4 76 be
       -0.010751647 -0.0028964758 0.1660197 -0.24092427
0002e0 45 01 4c be b6 ce af bd a3 18 13 be e1 58 f5 3d
       -0.1992236 -0.08584349 -0.14364867 0.11979843
0002f0 33 3c 2d 3e a2 0d 87 be 3e f8 6d be 2d 87 87 be
       0.16917495 -0.2637759 -0.23239228 -0.26470318
000300 46 f5 eb 3d 66 97 45 3e 72 8b 59 be b1 c5 21 be
       0.115213916 0.19296035 -0.212446 -0.1579807
000310 43 e8 f7 3d 17 86 54 be 71 33 84 3e 56 96 76 3d
       0.12104847 -0.20754276 0.25820497 0.060201965
000320 f3 34 93 bd 1c 4f 61 3d cc bd d7 3c 41 d9 d2 bd
       -0.07187834 0.055007085 0.02633562 -0.10295344
000330 1c 72 39 be d9 70 39 3d 32 96 4a bd 8f a8 90 3c
       -0.18109936 0.045273636 -0.049459644 0.0176585
000340 dc 59 a2 bd 11 48 4e 3e 1f a4 80 bd 73 ab 35 bd
       -0.079272956 0.20144679 -0.062813036 -0.04435296
000350 74 5e ec 3d 4f aa 39 be a3 96 8d 3d 1f d9 69 bd
       0.11541453 -0.18131374 0.06913497 -0.05709183
000360 30 2a 08 3e 82 b1 23 be 36 1b 21 bc ed cb c0 3b
       0.13297343 -0.15985683 -0.009833148 0.005883685
000370 90 92 68 be 09 18 54 be 32 32 ce 3d c0 41 bb bd
       -0.22712159 -0.20712294 0.10068168 -0.091434
000380 e3 15 3c 3e dc f0 8a be dc 5d 13 be c4 91 6a be
       0.18367724 -0.27136886 -0.14391273 -0.22907168
000390 3d 1f b2 3d 32 49 f5 bb 06 43 45 bd ed fc 72 bd
       0.086973645 -0.007485532 -0.04815962 -0.05932324
0003a0 49 a5 5f be 36 43 69 3d 79 34 21 bc ef 20 47 be
       -0.21840395 0.056948863 -0.009839171 -0.19446157
0003b0 72 a5 a5 3d 2f b0 1c bb dc 55 87 be 97 22 30 3e
       0.08088197 -0.0023908725 -0.26432693 0.17200695
0003c0 91 e1 e7 3d 74 02 3f bd 19 fa 4f be 12 f2 4a 3c
       0.1132232 -0.0466332 -0.20310248 0.012386816
0003d0 f3 81 47 3e 0a 03 72 3e 4e 1c 46 be b3 06 51 bd
       0.19483165 0.23633972 -0.19346735 -0.05103178
0003e0 d7 98 81 3e f1 a5 2a 3e 76 c6 36 3e 3e da 80 bd
       0.2531192 0.16664864 0.17849144 -0.062916264
0003f0 f5 24 7d 3e ac ba 6e be 91 c5 a9 bb 9c f3 83 bb
       0.24721129 -0.23313397 -0.0051810225 -0.0040268432

in_lin.bias f4 [96]
000000 60 77 5d be 57 55 5e be 9d f4 0e be e5 9e 26 3e
       -0.21627569 -0.21712242 -0.139605 0.16271551
000010 9b d3 1c be e0 a4 56 3e f1 57 89 3c 4a ea f5 3d
       -0.15315096 0.20961332 0.016765567 0.12007578
000020 9f f9 15 3e f6 62 4a 3e ea 9f 29 3e c1 84 80 3e
       0.14646004 0.19764313 0.16564909 0.25101283
000030 2c 4d 23 bd b7 4f d2 bd 37 54 db 3d 9d a5 65 3e
       -0.03986852 -0.10269111 0.10709422 0.22426458
000040 56 2e 63 bd b8 27 83 3e 9a a5 6d 3e eb 47 07 3e
       -0.05546411 0.2561624 0.23207703 0.13211028
000050 5f 6a 7d 3e 14 fc 15 3d c5 99 1a 3e ca 3d 61 be
       0.24747609 0.036617354 0.15097721 -0.21996227
000060 f0 02 bd 3d 1b b3 c4 3d d1 36 d8 3d 3f 74 eb 3d
       0.09229076 0.09604474 0.105573304 0.114967816
000070 49 cc 98 bd c0 cb 43 3e a6 97 87 3e c6 df 25 be
       -0.07460839 0.19120693 0.26482886 -0.16198644
000080 d5 03 04 bd f2 42 cb 3d 00 52 cd 3d 75 2d ee bd
       -0.032230217 0.09924878 0.10025406 -0.11629764
000090 85 b9 02 bc 40 ea 61 be af eb 33 be e0 9f 37 3e
       -0.007978802 -0.22062016 -0.17570375 0.17932081
0000a0 32 02 57 3e 70 0c 34 3e 7d 61 83 bc 30 7d 35 3e
       0.20996931 0.1758287 -0.016037697 0.17723536
0000b0 ed c2 88 bd 3f bc bb 3d ab 67 2e 3e 65 99 38 3e
       -0.06677804 0.091667645 0.17031734 0.18027265
0000c0 a9 e8 34 3d 2a 66 27 bd 9f a9 8c 3c 89 89 08 3e
       0.044167195 -0.040868916 0.017170725 0.13333715
0000d0 56 8a 44 3e 10 e0 6d be 54 60 25 bb c8 a4 6c be
       0.19193396 -0.23230004 -0.0025234418 -0.23109734
0000e0 da fb 69 bd 60 6f a0 3d 62 77 06 be 85 cb b4 bd
       -0.05712495 0.07833743 -0.13131478 -0.08827881
0000f0 23 e9 57 be a9 cd c1 3d a9 8d aa 3d 1c 37 1f 3d
       -0.21085028 0.09463055 0.08327801 0.038870916
000100 aa f4 03 3e 08 5c ce 3d dc 69 34 bd 78 74 48 3e
       0.128863 0.10076147 -0.044046268 0.1957568
000110 32 35 6d be 4d f0 53 be 71 22 40 be 77 9b 9d 3c
       -0.23164824 -0.20697136 -0.18763138 0.01923917
000120 85 88 55 be 43 36 32 3d 83 a4 26 bc d5 60 55 be
       -0.2085286 0.04350878 -0.010171059 -0.2083772
000130 2c f7 84 3e 0b 26 2e bd 85 0a 48 3e 28 1f 82 3e
       0.25969827 -0.04251675 0.19535263 0.25414395
000140 14 f0 7a bd d2 09 56 bd b4 9c 89 3e 3f 19 40 3d
       -0.061264113 -0.05225546 0.26877367 0.046899077
000150 ee f7 73 3e 75 53 b8 3d da 03 1e 3e 9b ed 47 be
       0.23825046 0.09000293 0.15431157 -0.19524233
000160 04 e3 da bc e6 50 50 3e b5 93 18 3b b2 76 4e be
       -0.026719578 0.2034336 0.00232814 -0.20162466
000170 f8 71 48 3d ab c3 4f 3d c4 3a 94 bc 78 5a 21 3e
       0.048936814 0.050723713 -0.018094428 0.15757167

layers.0.lin_self.weight f4 [96, 96]
000000 1a 29 3b 3d 48 de d4 bb 8a f8 17 bd f7 6d 85 bd
       0.045693494 -0.0064962246 -0.03710226 -0.06515115
000010 fd df b7 3d 0c 43 cb bd 3e 2e 19 bd 0d 3c 53 bc
       0.08978269 -0.099248976 -0.037397616 -0.012892735
000020 e4 88 e4 3d 4d 82 ee 3d 87 26 d4 bc c7 61 e6 bd
       0.11158922 0.11645947 -0.025897278 -0.11249118
000030 99 3a 91 3d 59 69 97 bd d2 6b ce bd da 17 df bb
       0.07091255 -0.0739314 -0.10079159 -0.0068082632
000040 fd 62 e6 3d e7 1b 80 3c 3b d2 58 3b 88 18 26 bd
       0.11249349 0.015638305 0.0033084291 -0.04055074
000050 18 a5 a8 3d c2 82 0e 3e d8 48 00 3e ec 99 9a 3d
       0.08234614 0.13917068 0.12527788 0.075488895
000060 70 06 d9 bc fb 30 bd bd d1 46 ca 3b f0 0f 61 3c
       -0.026492327 -0.09237858 0.0061729928 0.01373671
000070 81 22 36 b9 49 c7 a4 3b 34 1f d8 3c 99 52 8b bc
       -0.00017369726 0.0050286395 0.026382066 -0.01700716
000080 0c d0 d6 3d 00 5a aa 3d ca 2b 69 3c e9 da 4e 3d
       0.104889005 0.083179474 0.0142316315 0.050501738
000090 7f ef e8 3b 46 08 0d 3c 9f 6d 91 bb 04 41 88 bc
       0.0071086283 0.00860793 -0.0044381167 -0.016632564
0000a0 16 b3 d5 3d c6 8c 92 bd 40 f9 70 3d 63 43 4b bd
       0.104345486 -0.07155757 0.058831453 -0.04962481
0000b0 de d1 93 bd 2e a1 c6 bb 9d 1c b5 3c 6e b3 53 3c
       -0.07217763 -0.0060616946 0.02210837 0.012921197
0000c0 d3 f7 64 bd ac ae 14 bc a6 94 0a 3d b0 52 56 3c
       -0.055900406 -0.009074848 0.03383317 0.013081238
0000d0 16 9c d3 bd 73 a7 4e 3d 48 a1 5f 3d a2 28 a9 3c
       -0.103325054 0.05045266 0.05459717 0.020649258
0000e0 94 7d 1c bd cc 46 56 3d 78 88 50 3d aa 3f 19 bc
       -0.038205698 0.05231361 0.050911397 -0.009353558
0000f0 f5 bd b2 bd 6f 54 ae bd e0 15 33 ba cd 1a 97 bd
       -0.08727638 -0.08512198 -0.0006831568 -0.07378159
000100 0d ec 09 be ba 2f df 3c 09 33 ad 3c 98 68 fe bc
       -0.13468952 0.027244437 0.0211425 -0.031055734
000110 5e 70 52 3d 12 95 9e 3d 3a 1a b9 3d 8b 4c 86 bd
       0.051376693 0.07743277 0.090382054 -0.06557568
000120 3b 85 74 bd 32 c4 ac 3d 42 c4 0f 3e f7 89 14 3e
       -0.05969737 0.08435859 0.1403971 0.14505754
000130 a5 09 65 3c 00 ba bb 3d 77 11 c0 3c 17 07 83 bd
       0.01397935 0.09166336 0.023445828 -0.06397837
000140 b9 47 df bd 9a 3c 13 bd 9b e9 06 3c 26 e7 a3 bd
       -0.10902352 -0.035946466 0.008234407 -0.080030724
000150 68 e9 07 3d 00 87 e1 3c 76 07 71 3c d5 06 88 ba
       0.033181578 0.027530193 0.0147112515 -0.0010378013
000160 3e f2 fe 3d 6b 6c c6 3d 6e 46 aa 3c af 79 ee 3c
       0.12448548 0.09688648 0.020785537 0.029110758
000170 98 24 49 bb d6 e6 45 3d ee e1 8a bd 7a bf e0 3d
       -0.0030691978 0.048315845 -0.06781374 0.10974021
000180 f0 75 e5 3b c9 fe 73 bd 90 64 00 bd 77 ad e5 bc
       0.0070025846 -0.059569154 -0.031345904 -0.028036816
000190 d5 8c a0 bd 4c a2 35 bb 5b f0 9c bd 52 98 3d 3d
       -0.078393616 -0.0027715145 -0.07663032 0.046287842
0001a0 a3 45 07 bd 6c 7a f3 3c 42 b3 92 bd 49 b0 05 bd
       -0.033025395 0.029721461 -0.07163097 -0.03263882
0001b0 08 b2 00 bd 13 24 b4 3c ac a0 81 bd b9 d9 a1 bd
       -0.031419784 0.021989858 -0.06329474 -0.079028554
0001c0 ce a3 30 3d 2f 0d 8d bd 6b 20 d5 3d 7b bf 94 3d
       0.043124966 -0.0688728 0.10406574 0.072630845
0001d0 79 53 a4 3d b6 cf 2f 3d 9b c0 7d bd 68 d6 e5 3c
       0.08023734 0.042922698 -0.06195126 0.028056338
0001e0 cc 7c 12 3d 81 71 d2 3d 84 30 ac bd 6f 48 fe 39
       0.035763547 0.102755554 -0.08407691 0.00048500623
0001f0 79 00 44 3d fe 6b 94 3d bc 7d ad bd 69 7b dd 3d
       0.047852013 0.072471604 -0.084712476 0.10814554
000200 2f a1 6f 3d cd 6f bb 3d a2 84 bf bc b3 b1 60 bd
       0.058503326 0.09152184 -0.023378674 -0.054856967
000210 72 d5 57 3d fb 9d b4 3d 6d 59 99 3d ed a5 5b bd
       0.05269379 0.08819195 0.0748776 -0.053625036
000220 9d f6 f6 3c af a2 3b bc 47 6f 4b bd 86 a1 6c 3d
       0.030146891 -0.011452361 -0.04966667 0.05777123
000230 bd c0 96 3d 87 5a 17 3d b8 c3 56 bd 37 81 e1 3d
       0.07360981 0.036951568 -0.052432746 0.11010974
000240 6c cd 3e b9 65 61 63 3c 48 30 05 bd 36 f8 a7 bd
       -0.00018196338 0.013878201 -0.032516748 -0.08201639
000250 d2 a1 32 3c c1 87 10 3d 05 15 9d 3a d6 fa b3 bc
       0.010902839 0.035285715 0.0011984414 -0.021970194
000260 d1 f9 ec 3d 8d bf 08 3c 6a bb 82 bd 81 f3 5e 3c
       0.11571086 0.0083464505 -0.06383403 0.013607861
000270 0a bf 15 bc d8 39 a9 3d 18 70 bc 3d a4 1a 5d 3d
       -0.009139786 0.08262986 0.09201068 0.053980485
000280 d7 54 03 3e e1 77 af 3d 0e 71 5b 3c e8 5c af 3d
       0.12825333 0.08567787 0.013393654 0.08562642
000290 69 58 69 3d 8a c0 b8 3c 76 73 dc 3d 95 5a 28 3c
       0.05696908 0.022552747 0.1076421 0.010275503
0002a0 55 cf d4 bd 03 74 92 bd 7f d5 71 3d 89 37 a9 bd
       -0.10391108 -0.07151034 0.059041496 -0.082625456
0002b0 d7 6b 68 3d 3e 6c bc 3a 1f b4 bc bd e2 27 89 bc
       0.05674347 0.001437552 -0.09214043 -0.01674265
0002c0 e3 c1 76 3d 64 c0 a0 3c cd 06 59 3d 47 58 47 bb
       0.0602435 0.019622989 0.052985 -0.0030417608
0002d0 e0 4b 25 bd 15 bc d9 3b dc 2f 05 be 5a ca ce bb
       -0.040355563 0.0066447356 -0.13006538 -0.0063107433
0002e0 a1 c6 81 3c e3 2c 5b 3d 89 18 ce bc 48 3b 9f 3d
       0.015841784 0.053509604 -0.025158184 0.07774979
0002f0 d9 a7 f2 3b 72 c9 69 bc 8f d2 3b bc ee bb 99 3d
       0.007405263 -0.01426922 -0.011463775 0.07506548
000300 1f 66 73 3c 04 3f 19 bd e0 c5 88 bd b6 56 cf bb
       0.014855891 -0.037413612 -0.06678367 -0.0063274754
000310 5e ed 10 3d 71 26 cc bd 00 75 ce bd 21 75 23 3d
       0.03538262 -0.099682696 -0.1008091 0.039906625
000320 b4 9f 4a 3d 90 b5 2b bd 9e 54 c3 bc 0d 5e 9b 3d
       0.04946871 -0.0419212 -0.02384406 0.07586298
000330 19 00 8c bd de 50 2f 3d b2 b8 82 bd 8f 53 34 3d
       -0.06835956 0.04280173 -0.06382884 0.044025
000340 c5 5b 6d 3c 12 94 17 3d ad 9c 1f 3d 99 f5 48 bc
       0.014487212 0.037006445 0.038967777 -0.012265586
000350 b0 61 c9 bd d3 92 2b 3d bd 94 41 3d 88 a2 0b bc
       -0.098330855 0.04188807 0.04726099 -0.008522637
000360 74 83 22 3d 8b ac ce 3d f4 3b 0e bd 94 44 1a bc
       0.039676145 0.10091504 -0.034725145 -0.009415764
000370 6d c3 51 3d 2a bb 36 3d bc e6 e8 bc ce 60 cb bd
       0.051211763 0.044612087 -0.028430335 -0.099305734
000380 ac 5d 6e bc 75 e2 88 3c a5 49 cf bd 72 bc cd 3d
       -0.0145487 0.016709546 -0.101214685 0.10045709
000390 7f 04 8f 3d c1 18 76 3c b1 ff 7d bd 6b a4 c4 bd
       0.069832794 0.01502055 -0.062011424 -0.09601673
0003a0 9d 12 f9 3d 9d 3a 6c bd b8 18 72 3d 94 0f ea 3d
       0.12161753 -0.057673085 0.059105605 0.114287525
0003b0 4a 97 78 bd 08 a3 1c 3d 87 3a bf bb 30 e7 23 3d
       -0.060691155 0.038241416 -0.0058358344 0.0400154
0003c0 85 a7 2e 3d 2d 03 69 3b de 91 01 3d 81 84 86 bc
       0.042640228 0.0035554871 0.03163325 -0.016420605
0003d0 cc 94 77 ba 2a 22 00 3d 0e 39 8b 3d b6 67 bd 3d
       -0.00094444747 0.03128258 0.06797992 0.09248297
0003e0 e1 16 83 bc db bb 91 3d 7a 09 05 be 2d 4e 90 bd
       -0.01600212 0.07115909 -0.12991896 -0.07046161
0003f0 aa 36 be bd e9 ac 3e bd 55 ba ab 3d 0a cb af bd
       -0.0928777 -0.04655162 0.083851494 -0.085836485

layers.0.lin_self.bias f4 [96]
000000 2e ac c2 3d 5c 49 04 bd 8f 13 0c bc f4 22 42 bb
       0.09505497 -0.032296523 -0.008549585 -0.0029622884
000010 30 1e 9d bb d6 c3 ba 3c bc 49 65 3d 73 c7 e6 bb
       -0.0047948584 0.02279846 0.05597852 -0.007042819
000020 95 9a 60 3d 84 b8 2c bc ce f6 c5 3d b4 be 39 3d
       0.05483492 -0.010542039 0.09666215 0.045347884
000030 15 47 7d bd f5 7d 59 3d e2 4e cb 3c bf a0 26 3d
       -0.061835367 0.053098638 0.024817888 0.040680643
000040 25 7a 35 bd f9 95 90 bd 70 4f 00 bd 97 f8 b5 3d
       -0.04430594 -0.07059855 -0.031325758 0.088853054
000050 48 e6 9b 3d e6 0d 3f bd 7c 0e 8d bc 70 b2 13 3c
       0.07612282 -0.046644114 -0.01721882 0.009014711
000060 9d ea 37 bc cb a0 bd 3c a7 1b 8f bd 74 3e b8 3d
       -0.01122537 0.023147961 -0.06987696 0.08996287
000070 f4 02 90 bd e5 1f 22 bd 9c 0f 92 bd 6a 1e 7b bd
       -0.07031813 -0.0395812 -0.071318835 -0.061308302
000080 d2 4e 8e 3a b9 a2 b0 3d c0 01 84 3b 0c 07 42 bc
       0.001085723 0.08624787 0.004028529 -0.0118425
000090 b9 7e 7e 3d 4f 4c 27 bd 85 91 89 3d 01 53 95 bd
       0.06213257 -0.040844258 0.06717209 -0.07291222
0000a0 c5 2e 37 bd 90 11 8d 3d 9c ac b0 bd 6f 7a 9d bd
       -0.044722337 0.068881154 -0.086266726 -0.07689368
0000b0 04 ad f2 bc 02 8b 3b bd e5 3a 2e bd 94 1d 86 3d
       -0.029623516 -0.045786865 -0.042536635 0.0654861
0000c0 15 72 79 bc 4c 6a da 3d 97 ec 6c 3c 4a 45 7d bd
       -0.015224953 0.10664806 0.014460704 -0.061833657
0000d0 46 0f 17 bd c2 fe f6 3d af 8c 45 3d 69 42 de 3d
       -0.0368798 0.1206031 0.04822987 0.108525105
0000e0 5d af 93 bd 06 24 1e bd 30 16 d1 3d a8 25 8f 3c
       -0.07211182 -0.038608573 0.1020931 0.01747401
0000f0 ce 09 5e 3c 63 3e 0e bc 17 0c 07 bd 2a 58 9d bd
       0.013552142 -0.008681866 -0.032970514 -0.076828316
000100 0d f2 21 bd e4 2e 68 bd 15 8b ac bd 6b cf d0 3d
       -0.03953748 -0.056685343 -0.08424965 0.10195812
000110 e1 0a c7 bb 4b ff 35 3d ef f0 77 3d 9f 95 be 3d
       -0.006074295 0.04443292 0.060532507 0.09305882
000120 84 bd 54 bd 43 e3 50 3d b7 09 c9 3d 43 4c 09 bc
       -0.05193855 0.050997984 0.09816306 -0.008379999
000130 45 c2 1d bd f8 70 03 3d 2e 0a a3 3d 17 fc 6e 3d
       -0.038515348 0.032090157 0.07960926 0.05834588
000140 82 0a 33 bd d8 0a 9f 3c 69 6c a1 3d ab 40 87 3c
       -0.043711193 0.01941435 0.07882006 0.016510328
000150 cc 79 36 bd c9 d0 ee 3d 32 47 60 bd 21 fb 62 3b
       -0.04454975 0.11660916 -0.054755397 0.0034634548
000160 5b ea f4 ba d5 66 d7 3c 6c 0f 6f bd 3c 17 cb 3d
       -0.0018685566 0.026294151 -0.058364317 0.09916541
000170 45 8e 8a 3d d8 72 29 bd 39 29 a4 3d cf c2 dc bc
       0.06765417 -0.04136929 0.08015675 -0.02694836

layers.0.lin_neigh.weight f4 [96, 96]
000000 31 4e c0 bc 8b 9a fa 3d 0c b8 59 3d 56 32 bc bd
       -0.023474785 0.12236508 0.053154036 -0.09189288
000010 13 b6 fa 3d 5c 32 89 bd 1e 3d ee 3b 9a e5 db bc
       0.12241759 -0.066990584 0.0072704693 -0.026842881
000020 d7 a1 37 3d bb 1c 89 3d 6e 9f fc 3d 9a 0f 60 bd
       0.044832077 0.06694933 0.12335096 -0.05470238
000030 87 0b ab 3d a4 29 e7 bc ff 57 59 3d d3 cc ad 3d
       0.08351808 -0.028218098 0.053062435 0.08486333
000040 67 ca 00 3d 07 bc bd 3d 0b b9 1e bc b5 72 1e 3d
       0.031443026 0.09264379 -0.009687672 0.038683612
000050 80 84 a0 bd 4e 0f dc 3d 2f 8c 83 3d b4 2b 82 bd
       -0.07837772 0.10745107 0.06423222 -0.06355992
000060 a4 fd 56 b9 04 24 c1 3d 7e eb 23 3d 2e 19 32 bd
       -0.00020503119 0.094306976 0.040019505 -0.043481044
000070 83 df 54 3d 9b 3c 91 bc 42 a4 9e 3c 84 0e 97 3d
       0.05197097 -0.017729094 0.019365434 0.073758155
000080 cd f0 0a 3e e9 50 98 3d e6 a2 a2 bd 58 88 43 3d
       0.1356842 0.074373074 -0.07941227 0.04773745
000090 c6 0a b3 bd d7 61 01 3d 59 c0 c7 3d 64 d2 d6 3d
       -0.08742289 0.031587448 0.09753484 0.104893476
0000a0 0d 04 e3 3d 77 2a a1 bd 21 e4 e1 3d f2 91 7e 3b
       0.11084757 -0.07869428 0.1102984 0.0038844314
0000b0 2c 00 e0 bc a7 60 de 3c a8 8d 87 3a 5a 79 b2 3d
       -0.027343832 0.027145697 0.00103419 0.08714552
0000c0 ee 5c c6 bd dc d7 30 bd 96 66 dd 3d ce 42 71 3d
       -0.09685694 -0.04317461 0.10810582 0.0589016
0000d0 f4 57 89 bd e5 28 ea bb a5 01 21 3d c9 00 72 3d
       -0.06706229 -0.0071459883 0.03930821 0.05908278
0000e0 e9 b4 7e bd a1 f7 c7 bc 98 19 cb 3b 4c f0 a4 bd
       -0.062184248 -0.02441007 0.0061981194 -0.080536455
0000f0 97 e5 cb 3d dd dc f9 3c 16 f2 b7 3d 97 d4 41 3d
       0.099559 0.030500824 0.08981721 0.047321882
000100 07 e7 00 be 18 51 d6 3d e8 e2 8a 3d da 28 6f bb
       -0.1258813 0.10464686 0.0678156 -0.0036492855
000110 a7 c7 3a bd 1d a6 f7 3d f7 4b b7 3d 41 39 0d bc
       -0.04560056 0.120922305 0.08950036 -0.008619607
000120 4a b2 7c 3d c4 ab ff 3c 49 bd df 3d d7 c0 d0 bc
       0.061693467 0.031209834 0.10924775 -0.025482578
000130 22 c6 10 3d 00 91 e5 3d 98 5f cf 3d 81 ba 96 bd
       0.035345204 0.11209297 0.10125655 -0.073597915
000140 78 ce ce bd fd 55 81 3d a2 d1 13 3c 2f c9 a5 bc
       -0.100979745 0.06315229 0.009022148 -0.020237533
000150 90 dd 8d bd 82 ff b0 3b 74 40 cb 3d 22 ca 95 3d
       -0.06927025 0.0054015527 0.09924403 0.073139444
000160 c6 a8 a8 3d bd f8 29 3d de 0c 81 3d db 88 b2 3c
       0.08235316 0.04149698 0.06301282 0.021793773
000170 c1 90 01 3d 94 25 e3 bc b6 32 ba bd 8f bc 88 bc
       0.03163219 -0.02772788 -0.090917036 -0.016691474
000180 c7 ea 25 bd 8b 3e c2 bd b6 43 7e bd 57 ae 07 3e
       -0.040507104 -0.094845854 -0.062076293 0.13250099
000190 be 0d 8e bd 57 47 e3 3d 4d 55 6d 3d e8 a7 60 3d
       -0.06936215 0.11097591 0.057942677 0.054847628
0001a0 4f 98 c1 bd f5 9b 34 3d 48 e0 ae 3b 89 3a b3 3c
       -0.09452879 0.044094045 0.005336795 0.021878498
0001b0 74 99 20 3d d4 14 ef 3d 71 59 64 3d ba 37 15 bd
       0.039208844 0.116738945 0.05574936 -0.036430098
0001c0 1e 3d 2c 3d fd a0 41 3d 33 05 9f 3d be ba 19 bc
       0.042050473 0.04727267 0.077646635 -0.009382902
0001d0 e3 12 db 3d f5 41 1f be 92 cd e1 bd 2c a4 bf bc
       0.10696962 -0.15552504 -0.110255376 -0.023393713
0001e0 23 37 d2 3d 85 b4 f5 3d e6 be 34 bd ec 52 cc 3d
       0.10264423 0.11997322 -0.044127367 0.099767536
0001f0 c2 5c 11 bd 6b af 8d 3c 9d b1 2a bd 1b 52 9c 3d
       -0.03548885 0.01729556 -0.04167329 0.07632848
000200 b8 90 b7 bd 9d 9b 22 bd 2a 75 95 bd f2 c9 2c 3d
       -0.0896315 -0.039699186 -0.07297738 0.042184778
000210 c3 1d 9e 3d 42 bd d2 3d bd 9f b6 bc f3 86 86 bc
       0.0772052 0.10290004 -0.022292966 -0.01642177
000220 ce 82 e1 3c 55 60 28 3d 06 9b 21 bd d1 75 84 bd
       0.027528193 0.041107494 -0.039454482 -0.06467784
000230 48 22 2e ba 4f 61 e6 3d 00 bd 26 3d 45 68 f1 3d
       -0.00066426815 0.11249029 0.04070759 0.11787466
000240 2d 12 2a bd bb b9 b7 3d 77 c3 50 3d a3 fb 41 3b
       -0.04152124 0.08970972 0.05096766 0.002959945
000250 ab a4 e1 3d 07 50 28 bd a8 f9 98 bd 0a 63 a5 3d
       0.11017736 -0.041091945 -0.07469493 0.08075531
000260 8b 06 db 3d d7 0b 50 bd 5a c8 f9 bc e6 04 0d 3e
       0.10694607 -0.05079254 -0.030491043 0.137714
000270 cc 3e 86 3d 3b 32 60 bd 78 d7 97 3c 14 17 bb 3c
       0.06554946 -0.054735404 0.01853536 0.022838153
000280 78 c4 3f 3d 35 a6 e0 bd d7 0d c8 bd 06 d1 d1 3c
       0.046818227 -0.109692015 -0.09768265 0.025612365
000290 7f c1 e6 bc 8e 18 c5 3c 62 30 2a bd 40 55 f5 3c
       -0.028168438 0.02405956 -0.041550048 0.029947877
0002a0 af 41 ff bd e5 26 b6 3d 6b 6c df bc 41 ca f3 bd
       -0.124637 0.08894137 -0.027273377 -0.11903811
0002b0 2b fd 22 3d 9b b0 5a 3d e5 ce f9 bc b8 3d b7 bd
       0.03979222 0.05339108 -0.030494163 -0.08947319
0002c0 a3 95 20 3c c2 57 2a 3a 78 0a ad 3d 47 ae 60 3d
       0.009801301 0.0006498062 0.084492624 0.054853704
0002d0 c0 23 68 3c 5b be 83 3d 1e 0e 3a be 0e 15 b7 3c
       0.01416868 0.06432792 -0.18169448 0.022348907
0002e0 7b 3d dd 3c 4a 18 e0 bc 58 7e a3 3c ef 2d 9d bd
       0.027006855 -0.027355332 0.019957706 -0.07674777
0002f0 0f a4 08 3d 63 62 da 3d ef d2 d4 3c 78 8a 8f 3c
       0.033359583 0.10663297 0.025979487 0.017522082
000300 cf c6 e6 3b 6b 0d b7 3d a3 4d 85 3c b8 47 3b 3d
       0.007042743 0.08938106 0.016272372 0.045722693
000310 7b 54 c0 3d d8 3e 11 be cb c1 b7 3d 81 a3 7b bd
       0.09391113 -0.14184129 0.0897251 -0.061435226
000320 18 e9 5e bd 53 2d 7b bd c6 84 e2 3d 58 3f d5 bd
       -0.054421514 -0.06132252 0.11060481 -0.104124725
000330 65 68 69 3d 86 db aa 3c a0 66 02 bd 84 b8 66 3c
       0.056984324 0.02085663 -0.031836152 0.014082078
000340 bd 49 48 3d 9b 73 cb 3d 07 66 54 bc b7 c4 68 3d
       0.048898447 0.09934159 -0.012963778 0.056828227
000350 6e 31 bb 3b 15 bb 5c 3d 29 f3 f2 3d f0 f1 88 3b
       0.0057126796 0.053889353 0.11862785 0.004179232
000360 b4 85 bf bd 80 81 ad 3c 70 9d 6b 3d 17 81 0e 3d
       -0.09351674 0.021179914 0.05752319 0.03479108
000370 0f e1 d7 3a 1c f4 e4 bd 5b 18 7c bd 2d 53 9a 3d
       0.0016470271 -0.11179373 -0.061546665 0.07535396
000380 b0 71 da 3d 83 4b 22 3d a3 2c 8c bc 08 f2 39 3b
       0.106662154 0.039622795 -0.017111128 0.0028373022
000390 29 e6 11 bd dd 59 2b 3d 1a c3 9e 3d 5d 79 6e 3d
       -0.03561989 0.041833747 0.077520564 0.05822121
0003a0 b7 61 83 3d 70 3f 17 3b 06 35 e3 3d 99 2b af 3c
       0.06415122 0.0023078583 0.11094098 0.021383094
0003b0 0f c0 c6 3d fc 84 28 3d 0f c8 77 3d d9 2c 78 bd
       0.09704601 0.04114245 0.060493525 -0.060589645
0003c0 e2 c4 7d 3d f7 85 b5 bd 99 ed 56 bd 65 2d d1 3d
       0.06195534 -0.088634424 -0.052472685 0.102137364
0003d0 ea 42 b5 bd b1 a1 b4 3c 64 62 f7 3c a7 05 3d 3d
       -0.088506535 0.022049757 0.030198283 0.04614797
0003e0 f1 45 4a bd 24 d2 97 bd 39 85 3f 3d cd 16 21 bd
       -0.049383108 -0.07413128 0.04675791 -0.039328385
0003f0 34 56 18 bc e1 df 93 3d b0 bc 01 bb 28 33 df 3d
       -0.009297896 0.07220436 -0.0019796304 0.10898429

layers.1.lin_self.weight f4 [96, 96]
000000 f5 13 98 3d 6a 0c 07 bd 96 85 c0 3d b5 78 66 bd
       0.074256815 -0.032970823 0.094004795 -0.05626746
000010 77 74 ce 3d 5c b0 ee 3d 04 90 a8 3d 1a bd 88 3d
       0.10080808 0.11654732 0.08230594 0.06676693
000020 a2 45 70 3d 2a 2c 1a bd b1 b3 1f bd 31 df 22 bb
       0.058660157 -0.037639774 -0.038989726 -0.002485227
000030 7f ab 75 bd b2 e0 db 3d 9b e3 e9 bd ab 9f 01 3e
       -0.059978005 0.107362166 -0.114203654 0.12658565
000040 68 43 9f 3d 63 e3 01 3e a1 80 bf 3d 94 91 0c bc
       0.077765286 0.12684397 0.09350706 -0.00857963
000050 86 65 70 3d 2c 14 e7 bc 69 4b 90 bd 3c 6b 4a 3d
       0.05869057 -0.02820786 -0.07045633 0.049418673
000060 a2 65 a1 3d f0 34 92 bd 11 3e c3 3d 65 67 02 3d
       0.07880713 -0.07139003 0.095333226 0.031836886
000070 93 bb d6 3d 1f 71 8e bc 43 6d 97 ba 14 06 19 bd
       0.10484996 -0.017387925 -0.0011552948 -0.037359312
000080 5a a0 8b 3d 70 a2 67 3c f5 60 a3 3d 98 a1 9f 3c
       0.06817694 0.014137849 0.079774775 0.019486234
000090 53 21 52 bd 14 b9 aa 3c ef a8 96 3d a9 36 1e 3d
       -0.05130131 0.020840205 0.0735644 0.038626347
0000a0 6c 03 bd bc 1b 47 c1 3d bb eb 14 3d 2a 44 05 bd
       -0.02307292 0.094373904 0.036357623 -0.03253571
0000b0 a8 06 0c 3e e1 cc ba 3d 9e fe c0 3d 2b 3b 43 bd
       0.13674414 0.09121109 0.094235644 -0.04766385
0000c0 0b 46 05 3e d6 5a 90 3d 53 45 69 3d 7d 3d c6 3c
       0.13015 0.070485756 0.05695088 0.024199242
0000d0 0f 97 91 3d 74 d4 f5 3d 5c 99 5e bc 29 d7 81 3d
       0.0710889 0.12003413 -0.013586368 0.06339867
0000e0 ce 4c 85 bc 78 70 da ba 83 c6 a0 3d d0 8c 2f 3d
       -0.016271975 -0.0016665598 0.07850363 0.0428589
0000f0 a3 0d 1a bd 2d 81 7c 3d 94 dd 10 bc 85 71 b4 3a
       -0.03761066 0.06164663 -0.008841891 0.0013766742
000100 e7 39 08 bd 76 1b 0e 3e 4f 6d 06 3d 7d a5 09 3e
       -0.033258345 0.13877663 0.03281909 0.13442035
000110 6b 7a 11 bc ff 91 0d 3d 54 d7 0e bc 4d cd cb 3d
       -0.008879284 0.03456306 -0.00871833 0.099512674
000120 80 71 cb 3d 80 7f 1c 3c bb fb 7f 3c 57 e9 cf 3d
       0.09933758 0.009551883 0.015623982 0.10151928
000130 57 70 c3 3d cb f3 c5 bd 27 31 7f 3d f3 37 87 3d
       0.095429115 -0.096656404 0.062302735 0.06602468
000140 e0 1f a4 3d 15 bb 02 be 1b bf 10 3e d0 bb 90 3c
       0.08013892 -0.12766679 0.14135401 0.017667681
000150 79 c5 f2 bc 90 54 4f 3c 98 dc f0 3d 0a 82 c6 3d
       -0.029635178 0.012654439 0.11760825 0.09692772
000160 59 a2 0e 3e 4c b5 94 bc 45 bc 4d bd 0c 37 a7 bd
       0.13929118 -0.018152855 -0.050228376 -0.08164796
000170 e3 85 0c 3d d4 4a 19 be a0 20 29 bc 8e 13 e9 3c
       0.03430737 -0.14969951 -0.01032272 0.028451707
000180 8b 3c 9f bc d4 e8 00 3d e7 11 4f bc 30 69 4f bb
       -0.019438049 0.031472042 -0.012638546 -0.003164839
000190 94 5f ba bd 8e af ad bd 5c b3 d4 bd ae 3c 18 3d
       -0.09100261 -0.0848075 -0.103857726 0.037167244
0001a0 67 b8 e5 3c 84 e8 d4 3d 7d 74 f7 3c 06 62 d8 bd
       0.028042031 0.10395911 0.030206913 -0.105655715
0001b0 9b 8d b4 bd 4f eb cb 3c 28 a2 ed 3c 8a 41 58 bc
       -0.088160716 0.024892477 0.029007986 -0.0131992195
0001c0 51 9a 00 3d d0 53 0f bd 6c c4 85 bd ed dd cd bd
       0.031397168 -0.03499204 -0.06531605 -0.100520946
0001d0 b0 c3 ad 3c c6 1a 7e bd 1b dd 29 3d 3d 8c 2b 3c
       0.021211475 -0.062037252 0.04147063 0.010470447
0001e0 df 7b 22 3d fa 3b ab 3d d7 cd 80 bd 34 83 d6 b6
       0.039668914 0.08361049 -0.06289261 -6.392971e-06
0001f0 3e 28 d3 bd 32 88 0b 3c 9e 5d 4a 3c 33 8a b4 ba
       -0.1031041 0.008516358 0.012351422 -0.0013774097
000200 b7 26 c6 bd 7a fd 37 b9 28 a6 be bd 8f 86 2c 3c
       -0.09675353 -0.00017546667 -0.093090355 0.010530128
000210 51 95 2a bd 23 39 af bd 1f 21 b6 bd b9 68 27 3d
       -0.041646305 -0.0855582 -0.08893036 0.040871356
000220 ce 55 36 3d 1f 28 cd 3c d1 ac af bd 21 4e b2 3d
       0.044515423 0.025043545 -0.08577884 0.08706308
000230 e7 7a 26 3d 47 ed 0f 3c 9f d2 04 3c 8a e3 3e 3d
       0.040644553 0.008784599 0.008106857 0.046603717
000240 e7 06 16 3c a6 ec 15 3d 86 b0 7c 3d 6c 38 25 bd
       0.009156919 0.03660264 0.061691783 -0.04033701
000250 1f 20 83 3d d5 0e aa 3d 8c c4 53 3d 0b e0 98 3d
       0.06402611 0.0830361 0.051701114 0.07464608
000260 7b d1 92 3d 23 f5 55 3d 5b 4c 0c bd ea f1 5f 3d
       0.071688615 0.052235734 -0.034252506 0.054674067
000270 94 30 ca 3b 1a ec d5 3d 3a 12 38 bc 15 c8 28 bd
       0.0061703417 0.104454234 -0.011234814 -0.041206438
000280 ae 61 70 3d 9e c0 f6 bd ba ca 64 3d 43 da 43 bd
       0.058686905 -0.120484576 0.055857398 -0.047815572
000290 84 9a 83 3d 42 08 64 bd d8 a1 70 bd ee 65 a1 bb
       0.06425956 -0.055671938 -0.058748096 -0.004925481
0002a0 d8 e7 48 bd ea 1a ce bb 02 14 40 3d b1 e8 70 3d
       -0.04904923 -0.0062898295 0.04689408 0.05881566
0002b0 80 7a 2d 3d 60 6e 48 bc aa 31 97 3d bd 0f b2 3d
       0.042353153 -0.012233347 0.073825195 0.08694408
0002c0 c4 94 6b 3c fa 63 f2 3c 17 f8 1b 3d 5b 7a fb bc
       0.01437873 0.029588688 0.038078394 -0.030697992
0002d0 9b 8a 39 bc 89 8d 2a 3d 0b c3 24 bd 07 ab dc bb
       -0.01132455 0.041638885 -0.04022507 -0.0067342552
0002e0 cb 61 9f bc 08 a7 81 3d 4e bb 91 3c b8 35 e9 3d
       -0.019455811 0.06330687 0.01778951 0.11387199
0002f0 a3 0a fb 3c 00 92 c2 3d 28 28 3f bc d7 10 0a bc
       0.03064472 0.095005035 -0.011667289 -0.0084268665
000300 7d d2 e4 3d f9 0b 44 bd 23 31 55 3d 9b 33 c6 3d
       0.1117296 -0.04786298 0.052048814 0.09677812
000310 3e f1 c3 3d 2a 71 0e 3d bf c5 f3 3d 53 72 a4 bc
       0.09567498 0.03477589 0.119029514 -0.020074045
000320 f0 4c 4c bd 71 43 6f bd 12 90 4c bd 0c ca d3 3c
       -0.04987806 -0.058413927 -0.049942084 0.02585318
000330 be 46 ec 3d e0 1e 83 bd f8 25 0a be 40 22 4a 3d
       0.115369305 -0.06402373 -0.13491046 0.04934907
000340 83 6c 63 3d 12 87 f7 3c 3e 2c ad 3d 22 86 4a 3c
       0.055523407 0.030215774 0.08455704 0.012361081
000350 ba 01 98 bd 36 59 14 3d 66 e7 ac bd d5 98 9b bd
       -0.07422204 0.03621789 -0.08442573 -0.0759751
000360 d0 01 3a 3d 79 bc 53 bd ed 76 e7 3c 93 37 5e 3d
       0.045411885 -0.051693413 0.02825495 0.05425222
000370 07 47 d9 3d 32 89 25 3d 12 90 c0 ba 76 03 b1 3d
       0.106092505 0.040414043 -0.0014691374 0.08643238
000380 d6 67 56 bd 30 08 c6 3d 9f a1 7d 3d f9 23 c6 3d
       -0.05234512 0.096695304 0.061921712 0.0967483
000390 6c 58 d1 bd a7 ca d9 39 c5 fa cc bd 36 fa 7b bd
       -0.10221943 0.00041540453 -0.10008768 -0.061517917
0003a0 3d cd 29 bd 7a fc 6e 3d fc 9b 26 bd ec 95 42 bd
       -0.041455496 0.05834625 -0.040676102 -0.047506258
0003b0 ec 46 00 3d 0c 11 30 3c c4 31 4b 3d 1d 50 78 3d
       0.031317636 0.010746252 0.049608007 0.060623277
0003c0 61 10 00 3e 5c 9d 5d 3a 1b 4c 87 3d b2 62 33 bd
       0.12506248 0.00084539293 0.06606313 -0.043795295
0003d0 42 d8 9e bb c7 3e f3 3d 31 2a 02 be c7 4b 61 bd
       -0.0048475573 0.11877208 -0.12711407 -0.055003908
0003e0 62 b8 b2 bc 4a ac 03 3d ac 38 ef bc 1d cb ab 3d
       -0.021816436 0.03214673 -0.029201828 0.0838835
0003f0 23 4e be bd 46 ac 40 bc 40 5e 93 bd 2b ad 83 3b
       -0.09292247 -0.011759823 -0.07195711 0.004018446

layers.1.lin_self.bias f4 [96]
000000 34 3f bc bc d5 82 25 3b e2 68 f3 3d 93 a7 c7 3d
       -0.022979356 0.0025254984 0.11885239 0.09748759
000010 2b c7 f6 3c 95 44 d1 3d d2 ef 68 3d e9 5c 8c 3d
       0.030124268 0.10218159 0.056869335 0.06853659
000020 a5 59 06 3d c0 ed 8d bd 52 09 a5 bd f0 e5 5e bd
       0.032800335 -0.06930113 -0.08058418 -0.054418504
000030 84 73 a2 bd 8b 0f a6 3d cb fe 0a 3d ce 33 ca 3d
       -0.07932189 0.08108433 0.033934396 0.09873162
000040 f8 86 b7 3d dc be b7 bc 9d e6 4d bd cd 22 7f bd
       0.0896129 -0.022429876 -0.050268758 -0.062289048
000050 68 e6 a3 bc 62 94 e4 3c e4 e6 8d 3d 15 a6 8c 3d
       -0.020007327 0.027902786 0.069288045 0.06867615
000060 00 91 48 3a f6 2f a5 3d 6d 53 ef 3d 01 5e 00 3d
       0.0007651001 0.080657884 0.11685834 0.03133965
000070 1c 5e e9 3d 9a 46 f7 3d 7f 26 03 ba e8 94 a7 3c
       0.11394903 0.12074013 -0.000500299 0.020456746
000080 33 e1 bb bd 54 de 34 3d 71 af 9a bd a8 5d 35 bb
       -0.09173813 0.04415734 -0.07552994 -0.0027674232
000090 80 d4 61 3d dc 47 05 3d 17 da 9c 3d 0d 43 7a bd
       0.055134296 0.032539234 0.07658785 -0.0610991
0000a0 41 40 50 bc 55 67 97 bd 03 cf 22 bc 41 9a 1f 3d
       -0.012710632 -0.07392756 -0.009937051 0.038965467
0000b0 3e a2 94 3d f4 e0 af 3c c7 8a dc 3d 0d f4 1f bd
       0.07257508 0.02146957 0.10768657 -0.039051104
0000c0 fc 46 9a bd 3f 01 86 bc 25 7f 02 3d ae ee d9 3d
       -0.075330704 -0.016358016 0.031859536 0.10641228
0000d0 b1 44 08 bc 87 b3 ab 3d 41 8c cf 3d 13 cb 80 bd
       -0.008317159 0.083838515 0.10134173 -0.06288733
0000e0 7a 4a 9d bd 7b 51 73 bc 6f 5a 46 3d ec 88 92 3c
       -0.07680221 -0.014850969 0.048426088 0.017887555
0000f0 02 a3 90 bd cc 7a 4c bc 91 36 77 bd d6 0f 39 3c
       -0.07062341 -0.012480449 -0.060354773 0.0112952795
000100 51 50 5d 3c 68 c2 49 3a 9b 14 02 3c a8 d7 f6 3d
       0.013507918 0.00076965103 0.007939483 0.12052852
000110 cc da 7f 3d 30 d2 c0 bc c0 42 2b bd 52 d9 5a bd
       0.06246452 -0.023537725 -0.041811705 -0.05342991
000120 d8 3b 91 3d f7 d8 44 ba 48 35 92 bd a9 63 2f 3d
       0.070914924 -0.0007509137 -0.07139069 0.042819653
000130 fb c4 7d 3d e0 60 9a 3d 07 b5 ec 3d 19 13 80 bd
       0.061955433 0.07538009 0.11557966 -0.062536426
000140 35 b1 dc 3d 0c 05 88 bd a2 74 f5 3d 64 c4 8b bd
       0.10775987 -0.066415876 0.119851366 -0.06824568
000150 50 02 34 bd 59 29 a3 b7 46 95 0c bd d9 85 ca 3d
       -0.043947518 -1.9450368e-05 -0.034322046 0.09888811
000160 d4 24 60 3d d7 3f 17 3d 51 bd 80 3d ba 07 b4 bd
       0.054722622 0.036926117 0.06286109 -0.08790536
000170 6a 1b b8 3c 0f d0 b8 bd 9f 21 b9 3d 42 31 0a bd
       0.02247401 -0.09024059 0.09039616 -0.033738382

layers.1.lin_neigh.weight f4 [96, 96]
000000 63 bc 7c bc a2 e5 e2 3c 80 36 82 3d a3 a4 29 3d
       -0.015425774 0.027697388 0.06358051 0.041416775
000010 6c c1 cc 3d d5 91 53 3d d2 82 82 3d 53 fe 15 3d
       0.0999783 0.05165275 0.06372608 0.036619496
000020 cd 95 b4 bc 35 ff 01 3e d8 c1 0b bb 9a 44 07 3e
       -0.022044087 0.1269501 -0.0021325257 0.13209763
000030 1b a2 6c bd 0d bf a3 bc ef 4d ec bd 8a 36 64 ba
       -0.057771783 -0.019988561 -0.11538302 -0.0008705637
000040 de 8e f2 3d e7 c7 28 39 06 3e 3e 3d 80 17 89 bd
       0.11843656 0.00016096198 0.04644587 -0.066939354
000050 53 ef f5 bc e7 c4 d4 3c db a3 a7 3c 5c fe 5d bd
       -0.030021345 0.025972797 0.020463875 -0.054197654
000060 c6 b0 9a bc f4 ce 73 3d ed 8a 9c 3d 15 0a 66 3d
       -0.01888312 0.059523538 0.076436855 0.05616196
000070 bc 27 71 3d cf 56 1b 3d f7 cf 9f 3d d8 f9 a1 bd
       0.058875784 0.037924584 0.07803338 -0.07908982
000080 45 f8 ba 3d 38 52 b8 3d 89 c1 d8 bc 5a 74 50 b9
       0.09129385 0.09000057 -0.026459472 -0.0001987977
000090 4c a3 9a 3d 8b bd 46 bd a9 a7 6a 3d 70 7f cd 3c
       0.07550678 -0.048520606 0.0572888 0.025085181
0000a0 4c b5 5d bc 85 ce 35 3d 2b 70 ac 3d 1a ca c7 3d
       -0.013531994 0.044386405 0.08419832 0.09755345
0000b0 39 d7 c2 3d fe 59 18 3c 39 31 37 3c b4 34 0d bc
       0.09513707 0.0092988 0.011181169 -0.008618522
0000c0 05 60 9c 3c 52 da bc 3d 90 b4 0a bd 33 d0 90 3c
       0.019088754 0.09221329 -0.033863604 0.017677402
0000d0 a6 2a 02 3e 0a fb 71 3d b8 a4 f1 bd 59 78 af 3d
       0.12711582 0.0590773 -0.11798996 0.08567876
0000e0 89 b6 5f bd d7 bc 84 3d 27 6c 92 3d 4b ac 70 bd
       -0.05461744 0.06481331 0.07149535 -0.05875806
0000f0 35 7f 88 3d 27 ba e4 3d a1 ba 80 3d d0 1f 3b 3d
       0.06664888 0.11168318 0.06285597 0.045684636
000100 b3 f4 f4 bc ed 34 bc 3d 31 30 27 bd 2a 90 1f bd
       -0.029901838 0.09189782 -0.040817443 -0.038955845
000110 c8 49 aa 3d a2 c6 d5 bc 37 42 59 bd d9 bc f9 3d
       0.08314854 -0.026095692 -0.053041663 0.12194223
000120 b1 ee 95 3c 26 cf 74 3d fe 07 f3 bc af 20 0f 3d
       0.018302293 0.059767865 -0.029666897 0.03494328
000130 8a 11 a8 bd 7b 60 b2 bc 03 6c 4f bd 92 8c 8e bd
       -0.0820647 -0.021774521 -0.050640117 -0.069604054
000140 58 cd 4a bd 4c c6 29 bd f4 c9 f3 3c f2 ab 6e 3d
       -0.049512237 -0.041448876 0.029759385 0.05826945
000150 da e4 99 3c 8a 7d e8 3d 28 56 dc 3a 7c e7 fd 3d
       0.018785883 0.1135207 0.0016810345 0.12397668
000160 68 74 d5 3c cd 3c bb 3d 4b 28 8a 3d 71 46 15 bd
       0.026056483 0.09142456 0.067459665 -0.03644413
000170 4b 31 88 3d 63 7a e9 bd d6 f3 2d bc 7c bf cd 3d
       0.06650027 -0.114002965 -0.010617217 0.10046288
000180 27 df 64 bd 4b aa b7 3d 8b b7 c5 bc db 03 fa 3c
       -0.055876877 0.08968028 -0.024135372 0.030519417
000190 3e c4 80 3d 57 d7 e5 bd 81 83 13 3d 3f 65 d2 3c
       0.0628743 -0.112227134 0.036014084 0.025683044
0001a0 7a e7 56 3d ee 2a b3 3d 0b f3 81 bb 75 14 b7 3c
       0.052466847 0.087484226 -0.0039657406 0.022348622
0001b0 76 e4 54 bd f8 77 a0 3c 3d a1 8b bb d2 f0 34 bd
       -0.05197569 0.019588456 -0.0042611645 -0.044174977
0001c0 eb f1 bd 3d 28 7e 87 3c 9f 6b ca 3c 31 cf ec bc
       0.09274658 0.016539648 0.02470952 -0.02890739
0001d0 ad ab 17 bd 90 40 1d bd 0e 79 bd bd 5f c1 c3 3d
       -0.037028957 -0.03839165 -0.09251605 0.09558367
0001e0 90 36 87 bd d5 b8 7c bd c0 a8 1f 3d d3 07 27 bc
       -0.06602204 -0.061699707 0.038979292 -0.0101947365
0001f0 1e 22 75 3d 45 43 b7 3d 5c de 58 bd f8 e7 86 bb
       0.05984699 0.089483775 -0.052946433 -0.0041170083
000200 c9 16 b3 bd 82 70 73 3d dd 60 a5 bd d7 0f 0d 3b
       -0.0874458 0.059433468 -0.08075116 0.0021524334
000210 dd 35 51 bc c3 3a cc bb 65 4c c4 bd 42 f0 4e 3d
       -0.01276919 -0.006232591 -0.095848836 0.050522096
000220 52 f8 97 3d fc c6 82 3d bf 4e 94 3d 1d 1e dc 3c
       0.0742041 0.063856095 0.07241582 0.026869828
000230 90 4b ab bc 4d 66 85 3d 69 b0 9e 3d 1b 6d 2b bc
       -0.020910054 0.06513653 0.07748491 -0.0104630245
000240 01 fa 67 3d b9 d2 00 bd 63 ca 04 3d f8 2a 7b bd
       0.056634907 -0.03145096 0.032419574 -0.061320275
000250 04 0c df bd 9d 78 54 bc 8b 2f 12 3e 4b 46 e3 bd
       -0.10890964 -0.01296821 0.14275949 -0.11097392
000260 1c d9 7d 3d 62 95 b5 bc 42 7e 72 3d 6b cb 11 bd
       0.06197463 -0.022165958 0.05920244 -0.035594385
000270 12 73 8b 3d 3e f9 5d 3c 23 8b eb bc e2 2e 7f 3d
       0.06809057 0.0135481935 -0.028752869 0.06230057
000280 5d ac 9d 3c ac 5b 8a bd 11 03 cc bd 6a a4 ef bd
       0.019247228 -0.06755766 -0.09961522 -0.11701281
000290 c4 55 88 bd 50 1d c0 3d 06 91 b6 bd 66 07 6b 3c
       -0.066569835 0.09380591 -0.0891438 0.014345026
0002a0 fd d9 c4 bc a1 39 42 bc fe 70 b0 bd 52 1b 3d 3d
       -0.024029726 -0.01185456 -0.086153015 0.046168633
0002b0 e3 55 12 3c 0c 70 f4 3a 52 fe 44 bc 71 02 47 3d
       0.00893161 0.0018649115 -0.012023525 0.048586313
0002c0 52 1b 96 bc a1 df ae 3d b4 53 b7 bd ff 84 02 3c
       -0.018323574 0.085387476 -0.08951512 0.007966279
0002d0 70 61 4a 3d 69 24 b9 bd 8f 35 4a bd 5e f5 97 3d
       0.04940933 -0.09040148 -0.049367484 0.07419847
0002e0 70 93 40 3d b4 03 86 bc 41 33 f4 3c 19 33 d9 3d
       0.047015607 -0.016359188 0.029809596 0.10605449
0002f0 5d d9 95 3d 6d a6 2a 3d a1 97 58 3d 96 6a 0c bd
       0.073168494 0.041662622 0.05287898 -0.034281336
000300 eb 2e f3 3c 0d a0 f0 bd 80 05 35 3d b2 2f c4 3d
       0.029685458 -0.11749277 0.0441947 0.0957941
000310 63 c2 72 bc 1b 91 67 3c ab 81 9f 3d ae ef e5 3d
       -0.014816853 0.014133717 0.07788404 0.11227356
000320 70 b3 8c 3c e7 00 d9 3d 21 21 db 3c 9d 83 c3 3c
       0.017175406 0.10595875 0.026749196 0.023866469
000330 9f 25 02 bd 22 5c bf 3d 55 e9 1c bd db f4 48 3d
       -0.03177416 0.09343745 -0.03830846 0.049061637
000340 f8 cc 78 3d 1c d8 f0 bc 6e b7 9f 3d bf 78 b4 3d
       0.06074235 -0.029399924 0.07798658 0.08812093
000350 27 a8 a1 bd 28 b6 f7 3d 5f 47 a1 3d c2 51 3e 3d
       -0.07893401 0.120952904 0.07874941 0.04646469
000360 d9 64 b0 3d 11 ef c6 bc d2 c4 92 3d 21 fa 92 3d
       0.08612985 -0.024283918 0.07166447 0.071766146
000370 71 5f 58 3d 67 b3 af 3c 66 29 d9 3d 39 bf bc bd
       0.052825395 0.02144785 0.10603599 -0.0921616
000380 3b 83 ed 3d 44 2d 24 bd 12 6e 6f bc e8 7c 4d 3d
       0.11597296 -0.04008223 -0.014613645 0.050167948
000390 9f 48 41 3d 13 6c 16 3c b1 41 af 3d da 22 d8 3c
       0.047188397 0.00918104 0.085574515 0.026383806
0003a0 66 fc 92 3d e5 98 b8 3d 18 e7 4a 3d 2a c5 a2 3d
       0.071770474 0.09013537 0.049536794 0.07947762
0003b0 f7 ab b4 3d 05 26 96 bd ea 08 fd 3d db a8 a5 3d
       0.08821862 -0.073314704 0.12355216 0.08088847
0003c0 c8 55 71 3c 5f e7 2a 3d 94 75 ef 3d d5 d1 3d bd
       0.0147299245 0.04172456 0.11692348 -0.04634269
0003d0 8c 55 00 bd 77 cd 2e bd d2 d2 66 3d dc 75 53 3d
       -0.031331584 -0.042676415 0.056353398 0.05162607
0003e0 32 42 75 3c 4c fb 9c 3c 9f 25 d6 3d 9d a9 d4 3c
       0.0149693955 0.019162796 0.104563944 0.025959784
0003f0 93 f9 30 3d 9b 0c ee 3d 6e b3 f1 3c 37 f1 c6 3d
       0.043206763 0.11623498 0.029504504 0.09713977
