outputs/models/nowcast_hybrid6.pt (torch, 272321 bytes, 14 tensors)

in_lin.weight f4 [96, 15]
0.20567234 0.1997631 -0.05220082 0.22265492 -0.0565723 0.05210213 -0.12900487 0.2338978
0.27121088 -0.15583247 0.23370998 0.13058631 0.20759031 0.016906815 0.09904853 -0.044614952
0.17457111 0.029584048 -0.14501667 0.06581446 -0.118961684 -0.0558478 -0.11133825 0.1468686
-0.22777143 -0.14241005 -0.07958227 -0.1496635 0.012936815 -0.26557964 0.22788252 -0.17511177
0.19405062 0.08728364 -0.08383835 0.15955399 0.055246804 0.28378412 0.07219878 -0.04850312
0.08133634 0.0051505226 0.1705267 0.19014288 0.08433724 -0.100860484 0.11868949 0.057515148
0.10075989 -0.15737353 -0.25559327 -0.13020648 -0.17185515 0.24902101 0.100442156 0.12680799
0.10784739 -0.01742077 0.2161019 -0.17191567 0.020106982 -0.18519336 0.08346796 -0.09769385
0.07911634 -0.05379354 0.21794824 -0.16237333 -0.16295357 -0.16296287 0.22327086 0.077080496
0.25825652 -0.21980661 -0.26573557 -0.24286394 -0.09949716 0.06452503 0.1666654 0.21454376
-0.13334046 -0.101313666 0.22884862 -0.046667412 0.19587737 -0.035129942 0.23956539 -0.118215054
-0.16444775 0.076321214 0.059601955 -0.11032348 0.15890591 0.1310136 -0.18723895 -0.13784418
0.22103584 -0.11941542 -0.09318769 -0.27822116 -0.14867328 0.03220135 -0.038986035 -0.19935809
0.05412543 -0.17658699 -0.21926904 -0.14240721 -0.22606623 -0.16440506 0.2580979 0.048561558
0.079231545 -0.24103619 -0.16979648 -0.08616077 0.040156808 -0.22875789 -0.11012449 -0.14572401
0.012746555 -0.11518869 -0.0055369646 -0.19407418 -0.17722647 -0.1506337 -0.10757611 -0.22262421
0.19766636 -0.07006369 0.20321086 0.061617274 -0.237429 0.20664805 -0.06467131 -0.107476346
-0.1649606 -0.2652798 0.123246446 -0.056401964 0.100522794 -0.16267177 0.22822927 -0.17253588
-0.045442387 0.04175326 0.16983052 0.22201142 0.2242652 -0.20614162 0.06741766 -0.082289904
-0.025844121 -0.16433156 0.23518269 -0.1895052 0.15031722 0.17064658 0.13148421 -0.10619816
0.24664779 0.13665463 0.067811064 -0.24666528 0.06309471 -0.032123104 -0.13332471 0.22839504
0.042990055 -0.14285536 -0.13068451 -0.0057883537 0.12912129 -0.08102579 -0.16236901 -0.10346559
-0.20794109 0.10719606 0.1832248 -0.2565529 0.066800974 0.09851333 0.053629715 -0.1268525
0.13476488 0.13568692 0.08504374 -0.07326935 -0.06723395 0.01241896 -0.055016816 -0.10484194
0.15987581 0.22080773 -0.032172043 -0.05663537 0.008542968 -0.013260033 0.0668654 0.07235601
-0.23451088 -0.090623096 0.28772444 0.123121776 -0.0038158372 -0.16349185 -0.08766904 -0.20566425
-0.08042179 0.08287146 0.15431252 0.14185141 -0.23709327 -0.13261212 -0.040748082 0.24976857
0.060085222 0.009455123 0.14280297 -0.073752806 -0.16733012 0.26479065 -0.093631476 -0.05778703
-0.2630396 0.17901275 0.18245186 0.10032408 -0.19319612 -0.25482678 -0.2097037 0.18780492
0.20766872 0.26224026 0.17058724 0.07682227 0.08118571 -0.17644386 -0.2325836 -0.2554895
0.09081043 -0.14162676 -0.06692144 -0.1634055 -0.04704992 -0.18172939 -0.18367617 0.07066968
-0.09159074 0.14454192 -0.09768743 -0.20426165 -0.032814234 -0.13998628 -0.047731135 -0.25125024
00000000: c59b 523e b38e 4c3e 87d0 55bd a7ff 633e
00000010: 5bb8 67bd 0b69 553d da19 04be e882 6f3e
00000020: 27dc 8a3e 8c92 1fbe ab51 6f3e 6bb8 053e
00000030: 8e92 543e 2980 8a3c f5d9 ca3d 2bbe 36bd
00000040: c5c2 323e 3f5a f23c 407f 14be bbc9 863d
00000050: 2fa2 f3bd aac0 64bd 4f05 e4bd b964 163e
00000060: ea3c 69be f1d3 11be 07fc a2bd 6341 19be
00000070: eff4 533c 0efa 87be 095a 693e 8050 33be
00000080: 35b5 463e c4c1 b23d 71b3 abbd 1f62 233e
00000090: 794a 623d 274c 913e f4dc 933d 35ab 46bd
000000a0: ab93 a63d b7c5 a83b 8d9e 2e3e d1b4 423e
000000b0: 01b9 ac3d f18f cebd 7a13 f33d 0195 6b3d
000000c0: 345b ce3d 8726 21be 1fdd 82be d954 05be
000000d0: ccfa 2fbe 5dff 7e3e 9eb4 cd3d f4d9 013e
000000e0: 18df dc3d 01b6 8ebc d149 5d3e a90a 30be
000000f0: 66b7 a43c 54a3 3dbe 40f1 aa3d b713 c8bd
00000100: bf07 a23d 9d56 5cbd d32d 5f3e 3245 26be
00000110: 4ddd 26be bddf 26be 1ea1 643e 61dc 9d3d
00000120: 333a 843e fc14 61be 7e0e 88be 53b1 78be
00000130: 2bc5 cbbd b325 843d 56aa 2a3e 5cb1 5b3e
00000140: 678a 08be 8a7d cfbd 4b57 6a3e 5426 3fbd
00000150: 1494 483e 6ae4 0fbd a150 753e bc1a f2bd
00000160: fe64 28be 4c4e 9c3d 2e21 743d 47f1 e1bd
00000170: 3bb8 223e 6e28 063e 91bb 3fbe 0627 0dbe
00000180: 3857 623e 1290 f4bd 30d9 bebd 0173 8ebe
00000190: cf3d 18be 90e5 033d d2af 1fbd 8724 4cbe
000001a0: a0b2 5d3d 38d3 34be 1088 60be 32d3 11be
000001b0: e87d 67be cd59 28be 6825 843e 7ce8 463d
000001c0: 2644 a23d 31d2 76be 21df 2dbe 0f75 b0bd
000001d0: 777b 243d 823f 6abe f388 e1bd ad38 15be
000001e0: edd6 503c 0ce8 ebbd 6d6f b5bb 62bb 46be
000001f0: db7a 35be b83f 1abe dd50 dcbd 9af7 63be
00000200: 0d69 4a3e 8d7d 8fbd 8216 503e 6562 7c3d
00000210: 9620 73be 8c9b 533e 6472 84bd 8f1c dcbd
00000220: 6eeb 28be c1d2 87be a268 fc3d bf05 67bd
00000230: e5de cd3d 6e93 26be efb4 693e 3fad 30be
00000240: cc21 3abd 7705 2b3d 0de8 2d3e f656 633e
00000250: c7a5 653e ca16 53be 4512 8a3d 9c87 a8bd
00000260: 0db7 d3bc 8846 28be bbd3 703e a70d 42be
00000270: c2ec 193e fabd 2e3e cca3 063e 6c7e d9bd
00000280: 3d91 7c3e 31ef 0b3e 87e0 8a3d d395 7cbe
00000290: cd37 813d 8493 03bd 4686 08be 64e0 693e
000002a0: 5716 303d ad48 12be 29d2 05be 3bac bdbb
000002b0: 5f38 043e d9f0 a5bd 1044 26be c4e5 d3bd
000002c0: 82ee 54be 9c89 db3d 489f 3b3e e75a 83be
000002d0: f3ce 883d 5bc1 c93d d5aa 5b3d 9fe5 01be
000002e0: ceff 093e 83f1 0a3e 6a2b ae3d 3e0e 96bd
000002f0: f4b1 89bd e578 4b3c 5059 61bd 5fb7 d6bd
00000300: 7cb6 233e 6c1b 623e d5c6 03bd 7dfa 67bd
00000310: cef7 0b3c 9c40 59bc baf0 883d 632f 943d
00000320: 9f23 70be 9a98 b9bd 9e50 933e 4527 fc3d
00000330: 2013 7abb 686a 27be d38b b3bd a699 52be
00000340: 2eb4 a4bd 83b8 a93d 1a04 1e3e 7f41 113e
00000350: 94c8 72be 79cb 07be 76e7 26bd 55c3 7f3e
00000360: ec1b 763d a9e9 1a3c f13a 123e b60b 97bd
00000370: 9658 2bbe a492 873e dcc1 bfbd 18b2 6cbd
00000380: 20ad 86be 1e4f 373e a9d4 3a3e b676 cd3d
00000390: 34d5 45be a878 82be 91bc 56be ef4f 403e
000003a0: 1ca7 543e 5b44 863e 6cae 2e3e ff54 9d3d
000003b0: b244 a63d b3ad 34be 652a 6ebe 85cf 82be
000003c0: d2fa b93d 9b06 11be 1c0e 89bd c553 27be
000003d0: 6bb7 40bd 4517 3abe 9b15 3cbe 44bb 903d
000003e0: ed93 bbbd cc02 143e 5910 c8bd f729 51be
000003f0: 3868 06bd 9058 0fbe b981 43bd dfa3 80be

in_lin.bias f4 [96]
-0.12703514 -0.001539978 -0.014796576 -0.22781338 -0.23702674 -0.12882318 0.1268954 0.11823118
-0.23704611 -0.08856678 0.028053159 -0.2076673 0.14903556 0.23270398 0.056229677 -0.17660017
0.07545592 0.09972618 0.22034973 -0.12267869 -0.2476523 0.11478087 0.017897673 -0.07310363
-0.101348296 -0.12807083 0.21854037 -0.02788573 0.22202143 0.23937789 0.06347334 0.069207385
0.003301784 0.1885164 -0.21816744 0.0930858 -0.020103838 0.15697911 0.060599003 -0.08527499
-0.007977071 0.15450718 -0.16497521 -0.13442294 -0.06640893 -0.083300345 0.11643399 0.1938111
-0.0072158333 0.2666487 -0.09365265 -0.14489073 -0.09822043 -0.16113222 -0.16123125 -0.18654698
-0.18354811 0.08107382 0.17785574 0.25590643 0.24936976 -0.0062779053 0.06592045 -0.0800039
0.11907867 -0.22763367 0.1267703 0.05895061 0.073821664 0.10850398 -0.110605575 0.23007987
0.14856118 0.1817384 0.052467357 0.16997676 0.18490951 0.08385178 0.19194871 -0.013851933
0.17704952 0.075278506 0.16471884 0.26569787 0.08254206 -0.09589502 -0.010983351 0.08547983
0.06594859 -0.07174923 0.1884952 0.17422265 -0.15579872 -0.0075860117 -0.0031945216 -0.14311825
00000000: 8015 02be 16d9 c9ba 576d 72bc e947 69be
00000010: 23b7 72be 39ea 03be def0 013e 3023 f23d
00000020: 37bc 72be 8062 b5bd bdcf e53c bda6 54be
00000030: c79c 183e f449 6e3e 1751 663d add6 34be
00000040: a288 9a3d 3d3d cc3d 5ca3 613e f73e fbbd
00000050: 9198 7dbe 3c12 eb3d 249e 923c 5bb7 95bd
00000060: b28f cfbd 0025 03be 0cc9 5f3e 9d70 e4bc
00000070: 9659 633e 7a1f 753e 4ffe 813d 9abc 8d3d
00000080: be62 583b 710a 413e 4967 5fbe c5a3 be3d
00000090: ceb0 a4bc 22bf 203e a936 783d a7a4 aebd
000000a0: 43b2 02bc 2137 1e3e 43ef 28be 2ba6 09be
000000b0: 6801 88bd 5f99 aabd f274 ee3d 6b76 463e
000000c0: cc72 ecbb 2e86 883e f6cc bfbd 3c5e 14be
000000d0: cb27 c9bd d8ff 24be ce19 25be 2c06 3fbe
000000e0: 09f4 3bbe 080a a63d d11f 363e 2b06 833e
000000f0: c95a 7f3e e3b6 cdbb 4d01 873d 16d9 a3bd
00000100: 85df f33d cd18 69be 13d0 013e 3276 713d
00000110: d02f 973d 5637 de3d 2d85 e2bd 0f9a 6b3e
00000120: 6c20 183e a219 3a3e 03e8 563d 630e 2e3e
00000130: eb58 3d3e 7bba ab3d 348e 443e 38f3 62bc
00000140: 784c 353e 9e2b 9a3d 0eac 283e 8d09 883e
00000150: d00b a93d 9c64 c4bd 83f3 33bc 0d10 af3d
00000160: 0e10 873d 43f1 92bd e304 413e 6c67 323e
00000170: b389 1fbe 1494 f8bb 2e5b 51bb 978d 12be

layers.0.lin_self.weight f4 [96, 96]
0.029315015 -0.03820285 -0.023168352 -0.035878 -0.032169025 0.1622125 0.034706645 0.10641189
0.031531576 0.06875067 0.080999285 0.02023434 -0.09092895 0.0041746665 0.04476175 0.024451964
0.04842126 0.059957992 0.08891355 0.025443064 -0.005226485 -0.063157566 -0.07187173 -0.01558596
0.035474557 0.058178414 0.1623256 0.01939711 -0.06440627 -0.010996971 0.07238679 0.04967887
0.028731339 0.027226076 0.0146374125 0.042624764 0.01206201 -0.09358239 -0.032641023 -0.009940163
-0.02793679 0.055831093 0.018350538 0.02726621 -0.06420481 -0.008581918 -0.08357319 0.06666123
-0.04540246 0.12358715 0.039381325 0.008160092 0.065601744 0.0662004 -0.018432911 -0.012467341
0.058344014 -0.043197554 0.049176928 -0.04204755 0.019788956 -0.04195357 -0.0646014 0.025782151
-0.051560163 0.08003608 -0.08701402 0.008624369 0.016424872 0.08191536 -0.03162099 0.034708876
0.08769227 0.07060961 0.060396012 0.030318767 -0.050872266 -0.055928666 0.13089716 -0.08607439
-0.01626889 0.008410314 0.13092832 -0.011215657 -0.00409465 -0.021060478 0.056145757 0.047781363
0.12809965 -0.062334497 0.12870161 -0.0765294 0.04476726 0.05886653 0.12115042 0.0040524546
-0.017421678 -0.000121179015 -0.05992094 -0.11424246 -0.08869564 0.031552415 0.07949564 0.002575333
-0.025123503 0.064551495 -0.06028982 0.030057972 -0.0074088173 -0.024803316 0.11341306 -0.061765384
-0.00029482812 -0.086433366 -0.0047001783 -0.042790584 0.018157845 -0.043153707 0.035644133 -0.049031943
0.039789192 -0.106208414 0.07925375 -0.047366787 -0.03592044 -0.010089007 0.08913101 0.04711421
-0.0604532 -0.00052191206 -0.05733065 0.053634893 0.007996331 -0.027605992 -0.1206357 0.043195464
-0.10347961 0.04087074 0.057362214 0.089505 0.041432112 -0.088218935 0.08831434 -0.026633572
-0.018777603 0.015815869 0.08929958 0.07847825 0.045721643 0.04302057 -0.074030496 -0.008721637
-0.13342726 0.05966063 -0.042882103 -0.047489557 0.121413186 0.09799292 -0.08818494 -0.11817476
0.026574021 0.0964121 -0.046437386 -0.018294644 -0.08169114 0.07394622 0.112600505 -0.04462605
0.10008041 0.055026766 0.09591351 -0.0015650447 -0.006373314 0.076976776 0.075256966 0.11890107
-0.031373616 0.07967092 0.09503141 -0.084613994 0.05525068 0.0041350867 0.084486805 -0.030736996
0.050512694 0.0614364 -0.040703516 -0.057080694 -0.037459325 0.054875072 0.0830821 -0.057406034
0.018770587 -0.06475194 -0.028501485 0.07305238 0.06664399 0.01594103 0.01869463 0.021129038
0.010585982 0.0027918473 -0.03925299 0.086185485 0.016360588 0.09729121 0.023448825 0.0592669
0.078577176 0.06517573 0.045042768 0.11618049 0.012110624 0.038718328 0.093049444 0.12587196
-0.048290074 0.08305502 0.09924093 0.02352622 0.033451892 -0.04365484 0.12362264 0.10215972
-0.056286916 -0.053422105 -0.09149104 -0.027864683 -0.06417306 -0.06294118 -0.025521277 0.082279384
0.06395551 0.06409649 0.05109621 -0.040305644 -0.11137982 0.021996435 0.08738655 0.02906008
-0.052928705 -0.028976437 -0.036638062 -0.07867595 0.10228849 -0.03543962 -0.07669319 -0.062149532
0.032667533 -0.004239519 0.035554767 0.060575604 -0.05365382 -0.065599 -0.006611189 -0.15054077
00000000: 0b26 f03c 977a 1cbd 8ecb bdbc cff4 12bd
00000010: abc3 03bd 091b 263e 8e28 0e3d 7aee d93d
00000020: 4127 013d 27cd 8c3d f4e2 a53d 7dc2 a53c
00000030: f538 babd a4cb 883b 1958 373d 7c4f c83c
00000040: 5f55 463d 8396 753d 4f18 b63d f96d d03c
00000050: ef42 abbb c158 81bd 7c31 93bd 415c 7fbc
00000060: c54d 113d 7d4c 6e3d af38 263e b0e6 9e3c
00000070: 6fe7 83bd a42c 34bc 863f 943d 127c 4b3d
00000080: fc5d eb3c 3809 df3c c2d1 6f3c 4e97 2e3d
00000090: bd9f 453c 20a8 bfbd 98b2 05bd 11dc 22bc
000000a0: b2db e4bc 25af 643d de53 963c 635d df3c
000000b0: d07d 83bd 2c9b 0cbc 6c28 abbd af85 883d
000000c0: eef7 39bd 421b fd3d 504e 213d e8b1 053c
000000d0: 355a 863d 1394 873d 9e00 97bc d143 4cbc
000000e0: 22fa 6e3d ebef 30bd bf6d 493d 0d3a 2cbd
000000f0: 731c a23c 82d7 2bbd bd4d 84bd 1735 d33c
00000100: c030 53bd f5e9 a33d 6834 b2bd 3a4d 0d3c
00000110: 748d 863c 3ec3 a73d 0385 01bd e52a 0e3d
00000120: 0198 b33d c59b 903d cf61 773d 105f f83c
00000130: 705f 50bd 7515 65bd e809 063e c547 b0bd
00000140: 5646 85bc 6acb 093c 1312 063e e0c1 37bc
00000150: 6a2c 86bb 0687 acbc 18f9 653d 64b6 433d
00000160: 8e2c 033e 7552 7fbd 5bca 033e 72bb 9cbd
00000170: e05d 373d 081e 713d b61d f83d 74ca 843b
00000180: e8b7 8ebc 7d21 feb8 a96f 75bd f3f7 e9bd
00000190: 0fa6 b5bd 1b3d 013d 9cce a23d ebc6 283b
000001a0: cecf cdbc 9333 843d 75f2 76bd 233c f63c
000001b0: aac5 f2bb 5330 cbbc 1b45 e83d b3fd 7cbd
000001c0: 2993 9ab9 fa03 b1bd f403 9abb 2e45 2fbd
000001d0: c3bf 943c f1c1 30bd 95ff 113d b8d5 48bd
000001e0: fef9 223d cc83 d9bd ca4f a23d ad03 42bd
000001f0: 5021 13bd 5d4c 25bc 528a b63d d4fa 403d
00000200: c69d 77bd edd0 08ba 8bd3 6abd 43b0 5b3d
00000210: 0b03 033c f625 e2bc da0f f7bd baed 303d
00000220: 1eed d3bd 1468 273d a4f4 6a3d 664e b73d
00000230: b8b4 293d 21ac b4bd 26de b43d a62e dabc
00000240: 7dd3 99bc 4890 813c b3e2 b63d 34b9 a03d
00000250: 9e46 3b3d 5636 303d 4d9d 97bd 32e5 0ebc
00000260: 28a1 08be b45e 743d 25a5 2fbd 6984 42bd
00000270: 7aa7 f83d 83b0 c83d 4e9a b4bd 9c05 f2bd
00000280: c3b1 d93c b573 c53d 2135 3ebd a6de 95bc
00000290: af4d a7bd 1e71 973d 189b e63d cec9 36bd
000002a0: f5f6 cc3d bf63 613d 4d6e c43d 3022 cdba
000002b0: 3cd7 d0bb 00a6 9d3d 5320 9a3d 6782 f33d
000002c0: 9f81 00bd 822a a33d d49f c23d 1a4a adbd
000002d0: 894e 623d 9f7f 873b 6b07 ad3d 27cc fbbc
000002e0: 66e6 4e3d bca4 7b3d bbb8 26bd 72cd 69bd
000002f0: f36e 19bd afc4 603d f326 aa3d 9722 6bbd
00000300: c6c4 993c aa9c 84bd f27b e9bc 7c9c 953d
00000310: a57c 883d c396 823c 7b25 993c ce16 ad3c
00000320: d470 2d3c 6df7 363b bec7 20bd 0482 b03d
00000330: a406 863c 9d40 c73d c017 c03c d9c1 723d
00000340: 12ed a03d da7a 853d c47e 383d 09f0 ed3d
00000350: a46b 463c 1c97 1e3d b590 be3d 94e4 003e
00000360: d0cb 45bd c018 aa3d d43e cb3d 0fba c03c
00000370: da04 093d 6bcf 32bd de2d fd3d 1e39 d13d
00000380: 1c8d 66bd 23d1 5abd a85f bbbd 7a44 e4bc
00000390: 2a6d 83bd 4ee7 80bd ff11 d1bc 1882 a83d
000003a0: 1bfb 823d 0545 833d 424a 513d 8817 25bd
000003b0: 1a1b e4bd de31 b43c b8f7 b23d 680f ee3c
000003c0: c5cb 58bd fe5f edbc cb11 16bd db20 a1bd
000003d0: a17c d13d 2329 11bd 5211 9dbd 8290 7ebd
000003e0: 64ce 053d aaeb 8abb e0a1 113d 201e 783d
000003f0: 1cc4 5bbd c558 86bd aca2 d8bb 5c27 1abe

layers.0.lin_self.bias f4 [96]
0.034149937 0.08978375 0.025333175 0.015336294 -0.012864805 0.033905663 -0.08943297 -0.10182901
-0.011830556 -0.05575731 -0.055731624 0.004281543 0.06852614 0.072189614 0.0028765714 0.0020707147
0.11192772 0.0350873 0.07906937 -0.04220476 -0.06652214 -0.039396416 0.018288186 -0.015739108
-0.04158655 0.11627915 -0.085776635 0.01924803 0.06166774 -0.022194684 0.06392942 0.019791832
-0.048908055 -0.051064648 -0.028300233 -0.097343855 0.079581946 0.10855243 -0.011968833 0.017007116
0.03106705 0.03549363 -0.04484083 -0.04928895 0.115934245 0.05193624 0.11722091 0.06498866
0.0055646654 0.08436095 0.005521336 0.007844479 -0.04221833 0.09190829 -0.012047116 0.01176378
-0.072188765 0.05022504 -0.053806037 -0.01037218 0.007323634 0.045226786 0.019704621 0.0461689
-0.0579038 -0.06134472 0.039127007 -0.026810698 -0.08113255 -0.016691104 -0.09027097 0.036755804
0.024898916 0.10225747 -0.056280393 -0.037859887 0.03863762 -0.017468814 0.10727165 0.0022976857
0.014665566 -0.0082978895 0.06166682 -0.034031242 0.053282484 0.080710456 -0.07477011 -0.071679875
-0.043554038 0.042826403 -0.040269006 0.020233348 0.04877866 0.049518224 -0.037184574 0.017956387
00000000: cee0 0b3d 8be0 b73d 8587 cf3c 1445 7b3c
00000010: e7c6 52bc aae0 0a3d a228 b7bd ba8b d0bd
00000020: f3d4 41bc c761 64bd d846 64bd 304c 8c3b
00000030: 6f57 8c3d 26d8 933d dc84 3c3b d4b4 073b
00000040: 5c3a e53d b3b7 0f3d 1fef a13d e6de 2cbd
00000050: c23c 88bd 235e 21bd 1bd1 953c 4def 80bc
00000060: a956 2abd c323 ee3d a9ab afbd 0bae 9d3c
00000070: 5097 7c3d a0d1 b5bc 6eed 823d 7b22 a23c
00000080: d053 48bd 2a29 51bd e4d5 e7bc 375c c7bd
00000090: dcfb a23d bd50 de3d ed18 44bc 8252 8b3c
000000a0: 5380 fe3c c561 113d 05ab 37bd 36e3 49bd
000000b0: ef6e ed3d 18bb 543d 8411 f03d c618 853d
000000c0: cc57 b63b 6fc5 ac3d 53ec b43b 2186 003c
000000d0: 21ed 2cbd 6a3a bc3d 4461 45bc dfbc 403c
000000e0: b4d7 93bd c6b8 4d3d b863 5cbd 13f0 29bc
000000f0: 18fb ef3b b93f 393d 966b a13c 9a1b 3d3d
00000100: 892c 6dbd 9a44 7bbd a443 203d 1ca2 dbbc
00000110: d328 a6bd c8bb 88bc fcdf b8bd 418d 163d
00000120: d0f8 cb3c 5d6c d13d 4586 66bd f812 1bbd
00000130: 7b42 1e3d c21a 8fbc 3db1 db3d c594 163b
00000140: d847 703c dff3 07bc 5996 7c3d 5864 0bbd
00000150: bc3e 5a3d 864b a53d 1221 99bd e6cc 92bd
00000160: b865 32bd bd6a 2f3d 1df1 24bd 68c0 a53c
00000170: 22cc 473d 9fd3 4a3d da4e 18bd 4619 933c

layers.0.lin_neigh.weight f4 [96, 96]
0.09216763 0.051915642 0.04429206 -0.07302513 0.057705916 0.03392876 0.07347385 0.053587187
-0.014948119 0.08339475 -0.0073264265 0.025834717 -0.0044172676 0.06073066 0.10601644 0.124750406
-0.031602137 0.12821746 -0.006868167 0.10730263 0.059141643 0.020823343 -0.024794998 -0.0023430223
-0.09470218 -0.039751418 0.06299768 0.14048722 -0.0019311081 0.037836637 -0.027692433 0.09477535
0.10783812 -0.020343678 0.049751893 -0.07102183 0.006196137 -0.060918264 -0.14647204 0.0025632347
0.054381218 0.0448127 0.11098482 0.110562466 -0.11704065 -0.02184239 0.064806476 -0.04598857
-0.048073824 0.09346381 -0.029608658 0.0875493 -0.031711966 -0.09518832 -0.039542455 -0.105683655
0.081171006 0.058158386 -0.03280126 0.1106356 -0.025315223 0.091610715 0.044030212 -0.087840445
0.11984884 0.055451773 -0.078939 0.07052145 0.11072822 -0.06559454 -0.013166969 -0.071500495
0.11780551 0.06923918 0.13039167 0.024657035 -0.0041034156 0.008104409 -0.03281533 0.044906195
-0.03248717 0.031565063 0.033344932 0.04280595 -0.010854681 -0.007434322 0.056299705 -0.06458544
0.00038929388 -0.104504414 -0.013878792 0.12481012 0.09816992 0.07893879 -0.02256706 0.0675916
0.03279472 0.021182511 0.042723592 -0.08020189 0.020044014 -0.054266255 0.074595325 0.042133786
-0.06613467 -0.07162938 0.003385925 0.07361722 -0.05405132 0.08414432 0.123630285 -0.07179277
0.04089833 0.044420872 -0.04515222 0.09891844 -0.095925905 0.11010826 -0.101831034 0.118816614
-0.047536526 -0.11022746 0.09510288 -0.016412605 -0.036881935 0.04922406 0.04473973 0.04725344
-0.08613902 -0.1073579 -0.022610262 -0.08823353 -0.06297292 0.018004635 -0.07699382 0.002903597
-0.044663515 0.038742546 -0.046567727 0.012275536 0.023849683 0.0642975 0.00030744952 0.03551685
-0.048882745 0.11389464 0.03546761 0.017169569 0.07528149 -0.12257266 0.06311656 0.058083743
0.019748298 0.08968358 -0.06675275 0.07037602 0.08504569 -0.093089 0.06921845 0.011347217
-0.009537981 0.17353797 -0.02412873 0.08452204 -0.10378584 -0.06368342 0.038755603 0.008073039
-0.016583541 -0.05379141 0.07042322 0.07767246 -0.08351753 -0.042361382 0.014732267 0.033631068
-0.10071535 0.11142515 -0.051479943 0.05380459 0.011222608 -0.07687054 0.048118208 -0.033856332
0.12344378 -0.022361828 0.09474862 0.094984815 -0.044358682 -0.05367598 0.081915535 0.1149069
0.03745312 0.069646396 0.08007421 0.06229208 -0.003575978 0.17092147 -0.03883446 0.009161332
-0.027302338 0.030450767 0.09207936 0.07612456 0.006237377 0.12268166 0.14023903 0.07088209
-0.02251306 0.08501228 0.088347405 0.08540784 0.060479037 0.080411136 -0.06962833 0.06981492
-0.09406402 0.06449005 0.07542435 0.030552072 0.00024931354 -0.0029032775 0.1099364 0.07554474
-0.016486697 -0.06764514 0.007972464 -0.05460245 -0.002439467 0.013329181 -0.029687082 -0.023464765
-0.0069559687 -0.068453014 -0.035241056 0.05527443 -0.07918424 -0.0920351 -0.0945047 -0.047413424
-0.09463544 0.08156515 -0.010752233 0.06742477 0.088227086 -0.10299268 0.060784925 -0.12734628
0.12937668 0.10469398 0.061793312 -0.036780063 0.041564047 -0.06196187 0.016933259 0.043918204
00000000: 62c2 bc3d 7fa5 543d 976b 353d 338e 95bd
00000010: 0a5d 6c3d e2f8 0a3d 7579 963d 3d7e 5b3d
00000020: f5e8 74bc deca aa3d 8512 f0bb 54a3 d33c
00000030: babe 90bb b6c0 783d 261f d93d 247d ff3d
00000040: 3e71 01bd 704b 033e 5c0e e1bb 7bc1 db3d
00000050: 823e 723d b795 aa3c e11e cbbc 648d 19bb
00000060: 37f3 c1bd 62d2 22bd ed04 813d e2db 0f3e
00000070: 3c1d fdba 97fa 1a3d 3edb e2bc 9419 c23d
00000080: 3bda dc3d c9a7 a6bc a4c8 4b3d e573 91bd
00000090: f708 cb3b 6e85 79bd c4fc 15be f1fb 273b
000000a0: d7be 5e3d 868d 373d 024c e33d 936e e23d
000000b0: 02b3 efbd d0ee b2bc 42b9 843d 835e 3cbd
000000c0: 0fe9 44bd f469 bf3d db8d f2bc 0c4d b33d
000000d0: 68e4 01bd 18f2 c2bd 45f7 21bd ac70 d8bd
000000e0: fc3c a63d 7d37 6e3d 9d5a 06bd eb94 e23d
000000f0: df61 cfbc 669e bb3d 0659 343d b1e5 b3bd
00000100: 4f73 f53d 6621 633d c5aa a1bd 8d6d 903d
00000110: 7ac5 e23d 6e56 86bd 45ba 57bc da6e 92bd
00000120: 0444 f13d 45cd 8d3d 6585 053e 8dfd c93c
00000130: f275 86bb 5bc8 043c 5e69 06bd 8fef 373d
00000140: 4411 05bd 5e4a 013d b294 083d 4b55 2f3d
00000150: d5d7 31bc 9d9b f3bb 859a 663d 5f45 84bd
00000160: 241a cc39 6906 d6bd df63 63bc 739c ff3d
00000170: 500d c93d a9aa a13d 8ede b8bc 776d 8a3d
00000180: c253 063d f286 ad3c effe 2e3d e340 a4bd
00000190: 5833 a43c 4b46 5ebd 6fc5 983d 7a94 2c3d
000001a0: 9d71 87bd 6db2 92bd 65e6 5d3b a0c4 963d
000001b0: eb64 5dbd db53 ac3d e031 fd3d 1608 93bd
000001c0: 0285 273d a9f2 353d 89f1 38bd c095 ca3d
000001d0: cd74 c4bd 7080 e13d ca8c d0bd 2056 f33d
000001e0: a9b5 42bd efbe e1bd 4cc5 c23d ba73 86bc
000001f0: 8311 17bd 2b9f 493d 0241 373d d38c 413d
00000200: a869 b0bd 75de dbbd 2839 b9bc c8b3 b4bd
00000210: f2f7 80bd 757e 933c f0ae 9dbd 464a 3e3b
00000220: 17f1 36bd 81b0 1e3d cdbd 3ebd 541f 493c
00000230: 6960 c33c 68ae 833d 2d31 a139 1e7a 113d
00000240: 4639 48bd 9841 e93d 7c46 113d 32a7 8c3c
00000250: 2f2d 9a3d 6007 fbbd 4143 813d 38e9 6d3d
00000260: 2fc7 a13c 06ac b73d aab5 88bd 4e21 903d
00000270: 6f2c ae3d 72a5 bebd 67c2 8d3d ade9 393c
00000280: 3145 1cbc f0b3 313e 9da9 c5bc e419 ad3d
00000290: ac8d d4bd 746c 82bd 32be 1e3d c844 043c
000002a0: 35da 87bc 6254 5cbd 0d3a 903d bd12 9f3d
000002b0: 3d0b abbd 2183 2dbd 9b5f 713c bbc0 093d
000002c0: d943 cebd de32 e43d a2dc 52bd 3462 5c3d
000002d0: 08df 373c 4d6e 9dbd 9917 453d f0ac 0abd
000002e0: 18d0 fc3d 2730 b7bc 910b c23d 6687 c23d
000002f0: 73b1 35bd 58db 5bbd 55c3 a73d 4f54 eb3d
00000300: 7168 193d c5a2 8e3d f3fd a33d fb25 7f3d
00000310: f55a 6abb 0a06 2f3e e210 1fbd 6919 163c
00000320: 27a9 dfbc e373 f93c 1a94 bc3d 31e7 9b3d
00000330: e962 cc3b 8640 fb3d d29a 0f3e a12a 913d
00000340: 4f6d b8bc eb1a ae3d 7cef b43d 4eea ae3d
00000350: deb8 773d 98ae a43d 4c99 8ebd 20fb 8e3d
00000360: a3a4 c0bd 5c13 843d 1578 9a3d 5748 fa3c
00000370: 4cb6 8239 ea44 3ebb 5626 e13d 33b7 9a3d
00000380: 1c0f 87bc 8989 8abd f09e 023c d2a6 5fbd
00000390: 77df 1fbb a362 5a3c 5332 f3bc 2e39 c0bc
000003a0: e5ee e3bb 1831 8cbd ed58 10bd 7167 623d
000003b0: 592b a2bd e67c bcbd ae8b c1bd 9434 42bd
000003c0: 3ad0 c1bd a10b a73d 222a 30bc ff15 8a3d
000003d0: 67b0 b43d d4ed d2bd 9df9 783d 1067 02be
000003e0: 527b 043e cc69 d63d fc1a 7d3d b1a6 16bd
000003f0: 103f 2a3d bbcb 7dbd 9eb7 8a3c 93e3 333d

layers.1.lin_self.weight f4 [96, 96]
0.0532008 0.09059011 -0.0684508 0.04710814 0.076275535 0.0336832 -0.02621176 -0.045691468
0.055941075 0.04520712 0.03420205 -0.07125196 -0.08609143 0.099024035 -0.024917204 0.09230656
-0.08186516 -0.0466578 -0.07676026 0.09440384 0.020886803 0.050386313 0.09231183 0.011343272
0.038940866 -0.057893697 0.032558646 0.0879215 -0.0014796979 -0.0804282 -0.05848351 0.008200783
0.080679424 0.026590472 -0.053966366 0.02196423 -0.032169595 0.0133653935 0.068750575 -0.08700521
-0.029326793 -0.044689514 0.101249546 -0.07339908 -0.013762734 -0.09053597 -0.057086624 -0.04074798
0.0049036825 -0.075765185 -0.052931685 -0.048797257 0.08945593 -0.07125432 -0.07216195 -0.025887227
-0.0768755 -0.029332476 0.03165959 -0.07555771 -0.027430527 0.0679997 0.09341097 0.09059066
0.08679234 0.098290116 -0.005245378 -0.045299314 0.018130735 0.024485376 0.020548688 -0.068641216
0.10584918 -0.019190917 0.07715448 0.029339088 0.053107474 0.010161697 0.050441172 -0.061988275
0.0562527 -0.05549352 0.051554464 -0.044618 0.035299852 -0.076460555 -0.06097597 0.099658966
0.08116257 -0.09000507 -0.044820033 -0.09996641 0.06828278 -0.02945242 0.007430807 0.0356648
0.048345406 0.037379928 0.03867267 -0.087994434 0.024267757 -0.090601645 -0.028573127 -0.033924032
-0.05955111 0.0046829465 0.062424734 -0.0028778224 -0.0121989185 -0.04555838 -0.02212077 -0.080750205
0.09295058 0.022529239 -0.052125383 -0.0073107677 0.039751988 0.12941097 -0.03004263 -0.07131962
-0.024824025 -0.034369033 0.07611129 0.027096245 0.1068399 -0.03318056 -0.081921235 0.0347191
0.07760065 0.09760172 0.017048463 0.013407817 0.06188831 0.067932226 -0.11120395 -0.03495767
0.07576274 -0.029023265 -0.067536004 -0.07182948 -0.034289718 -0.012909802 0.026780361 -0.08505436
0.11523277 0.042928226 0.095173314 -0.035975903 0.092581704 0.042766433 -0.08393857 0.07091702
0.0785568 -0.051973555 0.08207663 -0.010781081 -0.013167684 -0.029700449 -0.0458177 0.08110238
-0.013108809 -0.034841474 0.10231008 -0.069197476 -0.04815939 -0.036952443 0.11714525 -0.052235182
-0.04350792 -0.04329959 0.06608672 0.0113718705 -0.061657812 -0.04271166 -0.06312922 0.037012417
-0.04329278 -0.04964914 0.06944312 0.07314249 -0.10120232 0.063792884 0.084600605 0.092229225
0.061695118 -0.0010140873 -0.029835977 -0.027547896 -0.12225561 -0.06885329 0.072203904 0.11291262
0.0887141 0.042583723 0.030386785 -0.006770998 -0.085353896 0.002945155 0.030313546 0.007290595
0.046962187 0.06636081 0.09801867 0.054191515 -0.05906838 0.04341444 -0.018515915 -0.0770685
0.03884342 0.08424795 -0.033311855 0.047817226 -0.029653717 0.068567194 0.07012149 0.06376595
-0.028409291 -0.016290344 -0.04802231 -0.015169481 0.06760844 -0.034794874 0.08801794 0.084380515
0.12293387 -0.038533144 0.054352242 0.10749082 0.06443488 0.0058211866 0.08021622 0.09019135
0.03150983 -0.0014662171 -0.02540847 0.11242187 0.035263497 -0.009534143 0.044057336 -0.054414634
0.07595248 0.059530366 -0.00070847425 -0.0005322888 0.06354382 0.11819265 0.083973385 0.081259444
0.06993844 0.0883674 -0.030017456 -0.054678094 0.08878311 0.037611805 0.037943225 0.037016932
00000000: 15e9 593d 4f87 b93d ef2f 8cbd 77f4 403d
00000010: 5936 9c3d 65f7 093d 0bba d6bc fa26 3bbd
00000020: 7822 653d 1a2b 393d 7317 0c3d 8cec 91bd
00000030: b450 b0bd 1dcd ca3d 2a1f ccbc 390b bd3d
00000040: eca8 a7bd 401c 3fbd 7c34 9dbd cd56 c13d
00000050: cd1a ab3c e161 4e3d fc0d bd3d 22d9 393c
00000060: 7580 1f3d f121 6dbd 375c 053d 3010 b43d
00000070: 6cf2 c1ba 8ab7 a4bd 688c 6fbd 945c 063c
00000080: 413b a53d 43d4 d93c d60b 5dbd 54ee b33c
00000090: 44c4 03bd 86fa 5a3c 1acd 8c3d ca2f b2bd
000000a0: be3e f0bc 5a0c 37bd ec5b cf3d 4252 96bd
000000b0: 177d 61bc ec6a b9bd aad3 69bd 5be7 26bd
000000c0: 12af a03b c72a 9bbd e5ce 58bd a2df 47bd
000000d0: ac34 b73d c9ed 91bd a5c9 93bd 7311 d4bc
000000e0: e770 9dbd a94a f0bc 7cad 013d 00be 9abd
000000f0: fcb5 e0bc 6d43 8b3d 404e bf3d 9987 b93d
00000100: 2fc0 b13d 544c c93d 6be1 abbb c68b 39bd
00000110: e886 943c 8e95 c83c b955 a83c c493 8cbd
00000120: 74c7 d83d 4536 9dbc 2b03 9e3d 8758 f03c
00000130: 3987 593d 3f7d 263c 679b 4e3d 6be7 7dbd
00000140: 3b69 663d 2c4d 63bd c62a 533d 5dc1 36bd
00000150: 9496 103d 5a97 9cbd f0c1 79bd 001a cc3d
00000160: 9038 a63d 9454 b8bd 3695 37bd 30bb ccbd
00000170: d8d7 8b3d 3446 f1bc 217e f33b 4115 123d
00000180: d505 463d b21b 193d 3c67 1e3d 6d36 b4bd
00000190: 2dcd c63c 5b8d b9bd 3112 eabc edf3 0abd
000001a0: ddeb 73bd 6773 993b 14b1 7f3d d999 3cbb
000001b0: f9dd 47bc 6d9b 3abd 9e36 b5bc 5d60 a5bd
000001c0: e05c be3d 3d8f b83c 6d81 55bd 2a8f efbb
000001d0: fbd2 223d 4f84 043e f61b f6bc 0510 92bd
000001e0: c15b cbbc 8bc6 0cbd 3ce0 9b3d f2f8 dd3c
000001f0: e1ce da3d 57e8 07bd 52c6 a7bd 9d35 0e3d
00000200: 17ed 9e3d 69e3 c73d 38a9 8b3c 76ac 5b3c
00000210: 997e 7d3d 0d20 8b3d e6be e3bd c62f 0fbd
00000220: 7f29 9b3d 33c2 edbc 5150 8abd 561b 93bd
00000230: 6073 0cbd a283 53bc 7d62 db3c fb30 aebd
00000240: 29ff eb3d 82d5 2f3d 3aea c23d 785b 13bd
00000250: 7a9b bd3d db2b 2f3d fce7 abbd f13c 913d
00000260: 63e2 a03d 39e2 54bd cb17 a83d 22a3 30bc
00000270: 45bd 57bc 5b4e f3bc 57ab 3bbd 0119 a63d
00000280: 54c6 56bc efb5 0ebd f287 d13d 68b7 8dbd
00000290: c842 45bd 725b 17bd d9e9 ef3d 8ff4 55bd
000002a0: 5c35 32bd e95a 31bd 7958 873d 1551 3a3c
000002b0: e78c 7cbd 6cf2 2ebd e449 81bd 559a 173d
000002c0: c553 31bd e65c 4bbd 3238 8e3d bbcb 953d
000002d0: 2943 cfbd d8a5 823d 1543 ad3d ade2 bc3d
000002e0: 05b4 7c3d 20eb 84ba 946a f4bc 20ac e1bc
000002f0: 2661 fabd f402 8dbd a4df 933d bb3e e73d
00000300: bdaf b53d 456c 2e3d b5ed f83c 3fdf ddbb
00000310: 06ce aebd 8003 413b 1d54 f83c f2e5 ee3b
00000320: 6c5b 403d 2de8 873d 03be c83d ecf7 5d3d
00000330: b0f1 71bd 57d3 313d b0ae 97bc 17d6 9dbd
00000340: 471a 1f3d 308a ac3d 0372 08bd ffdb 433d
00000350: 5aec f2bc f56c 8c3d db9b 8f3d b997 823d
00000360: 9aba e8bc 5473 85bc 0bb3 44bd 6a89 78bc
00000370: 4b76 8a3d 1285 0ebd c042 b43d b1cf ac3d
00000380: c1c4 fb3d eed4 1dbd 75a0 5e3d 2624 dc3d
00000390: 6ff6 833d a7bf be3b 6748 a43d 3eb6 b83d
000003a0: 7410 013d 152e c0ba 6c25 d0bc 703d e63d
000003b0: 7570 103d 1835 1cbc 7775 343d e1e1 5ebd
000003c0: f98c 9b3d 1dd6 733d e7b8 39ba 4c89 0bba
000003d0: 4323 823d fd0e f23d 3dfa ab3d 5a6b a63d
000003e0: e33b 8f3d f8f9 b43d 2be7 f5bc 23f6 5fbd
000003f0: ebd3 b53d d60e 1a3d 5b6a 1b3d 119f 173d

layers.1.lin_self.bias f4 [96]
-0.029040333 0.008580179 0.058156684 0.035248183 -0.08559893 -0.066561766 -0.056566276 0.08828296
0.009257718 -0.005143066 0.02154853 0.011762484 0.06396388 -0.08412051 0.026114127 0.09970391
0.011537345 0.11260014 0.09020038 0.009348994 0.099194854 -0.012619135 0.071368225 -0.0024012434
-0.09357213 0.04306872 0.03131366 -0.05771927 0.054194346 -0.06462803 -0.08381002 -0.0140444115
0.031603146 0.076470524 -0.05736367 -0.06746999 0.030345056 0.11331973 0.11309974 0.012064045
0.004708189 -0.0049896464 0.11145734 0.023137957 -0.0050842883 0.03797831 -0.06573968 0.0075768256
-0.06777031 0.017410502 0.085375346 0.036923237 -0.013967567 0.08812989 0.03541409 -0.074765675
-0.078838326 0.043744545 0.09480348 0.10837114 0.03521619 -0.032373693 -0.056941945 0.02136222
0.072925664 -0.0053882464 0.049143586 0.07838473 0.05560755 -0.030917697 -0.007272314 -0.08594577
0.011176431 -0.07754905 0.08794408 0.035831958 0.05433663 0.08572423 -0.035764076 0.026610624
-0.043120526 0.05924426 0.050690006 0.09843871 0.0025632975 0.080408245 -0.042102233 -0.049204707
-0.07591439 0.07192384 -0.06806196 -0.039835837 -0.014323962 8.394519e-05 0.09531254 0.10780316
00000000: fee5 edbc e193 0c3c b435 6e3d 6660 103d
00000010: 7e4e afbd 8951 88bd 0ab2 67bd b2cd b43d
00000020: afad 173c 2a87 a8bb 8b86 b03c 6fb7 403c
00000030: 7fff 823d 6047 acbd 4bed d53c 9031 cc3d
00000040: 2207 3d3c e79a e63d faba b83d 862c 193c
00000050: ac26 cb3d 7dc0 4ebc 8129 923d 2e5e 1dbb
00000060: bfa2 bfbd d368 303d c142 003d 0b6b 6cbd
00000070: e4fa 5d3d b35b 84bd 96a4 abbd 881a 66bc
00000080: 4d72 013d 949c 9c3d 2bf6 6abd b52d 8abd
00000090: 3296 f83c 2d14 e83d d6a0 e73d 46a8 453c
000000a0: 2747 9a3b 3080 a3bb bf43 e43d d08b bd3c
000000b0: 1a9a a6bb 258f 1b3d 86a2 86bd 0547 f83b
000000c0: 29cb 8abd 78a0 8e3c 45d9 ae3d d23c 173d
000000d0: 39d8 64bc 727d b43d 5d0e 113d bf1e 99bd
000000e0: fd75 a1bd 7b2d 333d 5428 c23d b0f1 dd3d
000000f0: da3e 103d 479a 04bd f53b 69bd d3ff ae3c
00000100: 0d5a 953d e38f b0bb c94a 493d 2c88 a03d
00000110: bec4 633d 1c47 fdbc 974c eebb 5604 b0bd
00000120: 591d 373c 09d2 9ebd 071c b43d 88c4 123d
00000130: 1690 5e3d 2f90 af3d 5a7d 12bd 86fe d93c
00000140: 269f 30bd 1caa 723d 53a0 4f3d 3c9a c93d
00000150: fffc 273b 14ad a43d 6473 2cbd e08a 49bd
00000160: 0179 9bbd ce4c 933d 1264 8bbd e72a 23bd
00000170: 0daf 6abc bb0b b038 3933 c33d e7c7 dc3d

layers.1.lin_neigh.weight f4 [96, 96]
-0.030862978 0.017625783 -0.06893093 -0.06736884 0.011149295 -0.013671082 0.07428643 -0.02289844
0.028173199 -0.07003737 -0.022464147 0.021976376 -0.017033918 0.08967064 0.06585195 0.10827709
0.05858784 0.05151957 -0.08987501 0.049962774 -0.06457478 0.11018705 0.07438728 -0.03454378
0.021443583 0.08298878 -0.090496294 0.024131663 -0.0032746575 0.038808275 0.086824186 -0.045581467
-0.08446135 -0.058386225 0.018808126 -0.01592831 -0.04800801 -0.034893427 0.06897561 -0.050244078
0.06930054 0.04776066 -0.023768416 -0.006183503 0.029096784 0.0629653 -0.00029503266 -0.05758069
0.10277498 -0.004954747 0.09307477 0.09605327 0.028666442 0.10105605 -0.02025317 -0.039323468
0.049988095 0.10798387 0.10153919 0.12320717 0.041033853 -0.0785882 0.08959675 0.10557279
-0.08494172 0.006801277 -0.009738558 0.002181885 0.024711238 0.005061431 -0.040852178 -0.0769005
-0.018040339 -0.043249995 -0.052516405 0.07337363 0.0030812554 -0.056254845 -0.059576206 0.031503916
-0.02537346 0.14481564 0.041133694 -0.044929434 -0.056793842 -0.044924304 -0.08829796 0.077934854
-0.07496654 0.053456616 -0.055514056 0.0363752 0.050142843 0.111536175 0.062159307 0.08088373
0.098682664 0.15744548 -0.006387344 -0.041171227 -0.06687011 -0.011727209 0.01871889 -0.045264766
-0.079821065 0.007952806 0.122430116 0.11838443 -0.019810794 0.11394423 -0.09935606 -0.00075975334
-0.07147703 0.108176656 -0.067262046 0.028223237 -0.05189984 0.10584097 -0.061569363 0.06438911
-0.06658152 -0.05200031 0.07360013 0.11722585 0.021921765 0.11665236 0.09818565 0.09842199
0.09335537 -0.004557968 0.03608049 -0.05297651 0.04162612 0.08342296 -0.010692135 -0.067503214
-0.040838227 0.075317495 -0.049603924 0.105467156 -0.01834082 -0.013141725 0.011689406 -0.024967331
-0.06543644 0.026031375 -0.047941446 0.079526074 0.011721543 0.01904735 0.07351932 0.09760831
-0.036208875 -0.008913385 -0.014812686 0.10456385 0.014922909 -0.0028326442 -0.015995799 0.00088859076
-0.08062614 -0.06526246 0.060426842 0.029155169 -0.048057787 -0.06769309 -0.011882897 0.07068926
0.092721984 0.10839697 0.027972301 0.12687466 0.11012872 -0.00540445 -0.030961609 -0.0023246359
0.09250457 -0.023075694 -0.035783112 0.0068837623 0.082246594 0.06522473 0.10907736 0.061375562
-0.010692223 -0.08835808 0.08860106 -0.047005367 -0.13162513 -0.05545603 0.025954952 -0.05464296
0.095968254 0.10982021 0.0048748204 0.008218627 -0.06684554 0.08536896 0.08671549 -0.09045266
-0.029433053 0.032617375 -0.05719595 -0.048354544 0.054776765 0.014718226 -0.17992519 0.10123127
-0.038828854 -0.07522906 0.035048634 -0.07677675 0.12780318 0.021427453 -0.009889563 0.060736634
-0.022837792 -0.07625427 0.074020945 0.12269396 -0.06702852 0.11815918 -0.058586124 0.07845654
-0.04588429 0.0075805034 -0.029897368 0.112561524 0.07406457 0.033741124 0.06296965 -0.052665263
-0.050078876 0.10978993 0.09653193 0.060281888 -0.0068832585 -0.036232628 0.13500041 0.012688208
-0.07344015 0.11192236 -0.013592779 -0.08365869 -0.029519074 -0.05319773 0.0037647504 0.019236043
0.013129442 0.08927547 -0.05211845 0.12388655 -0.053012315 -0.058106814 0.031689264 0.11142963
00000000: 5bd4 fcbc f263 903c a92b 8dbd adf8 89bd
00000010: 88ab 363c adfc 5fbc 7c23 983d 8295 bbbc
00000020: 7bcb e63c c16f 8fbd bb06 b8bc cd07 b43c
00000030: b78a 8bbc 3ea5 b73d 63dd 863d 61c0 dd3d
00000040: cef9 6f3d 2f06 533d 6410 b8bd c4a5 4c3d
00000050: c83f 84bd c0a9 e13d 5c58 983d c77d 0dbd
00000060: 74aa af3c 06f6 a93d 1f56 b9bd c4af c53c
00000070: a39b 56bb 6df5 1e3d e1d0 b13d a2b3 3abd
00000080: 13fa acbd 6526 6fbd 8013 9a3c 167c 82bc
00000090: 0ca4 44bd 69ec 0ebd 1643 8d3d bccc 4dbd
000000a0: 71ed 8d3d afa0 433d fbb5 c2bc fc9e cabb
000000b0: 615c ee3c f4f3 803d 9dae 9ab9 bbd9 6bbd
000000c0: b07b d23d 6e5b a2bb fc9d be3d 94b7 c43d
000000d0: e3d5 ea3c 79f6 ce3d fae9 a5bc a511 21bd
000000e0: 51c0 4c3d a626 dd3d c7f3 cf3d 0a54 fc3d
000000f0: 1d13 283d daf2 a0bd 807e b73d 8c36 d83d
00000100: edf5 adbd 3fdd de3b 798e 1fbc f5fd 0e3b
00000110: 396f ca3c 5cda a53b 9d54 27bd 027e 9dbd
00000120: 55c9 93bc e826 31bd 711b 57bd ea44 963d
00000130: e3ee 493b 7b6b 66bd 2e06 74bd 400a 013d
00000140: 01dc cfbc 8d4a 143e ce7b 283d ed07 38bd
00000150: a9a0 68bd 8c02 38bd 90d5 b4bd 4f9c 9f3d
00000160: 0f88 99bd 53f5 5a3d b562 63bd 29fe 143d
00000170: 9562 4d3d 146d e43d c29a 7e3d 5ea6 a53d
00000180: 231a ca3d 6339 213e ed4c d1bb 29a3 28bd
00000190: 32f3 88bd 7b23 40bc 5c58 993c 8c67 39bd
000001a0: 3a79 a3bd 7c4c 023c a4bc fa3d 8973 f23d
000001b0: 3f4a a2bc 985b e93d 317b cbbd 2f2a 47ba
000001c0: 8d62 92bd b98b dd3d afc0 89bd 6b34 e73c
000001d0: ed94 54bd 27c3 d83d 2830 7cbd 70de 833d
000001e0: e45b 88bd 47fe 54bd aabb 963d 1b14 f03d
000001f0: 4695 b33c 6fe7 ee3d 8f15 c93d 7891 c93d
00000200: 1a31 bf3d 025b 95bb 23c9 133d e6fd 58bd
00000210: 2780 2a3d a8d9 aa3d 112e 2fbc 203f 8abd
00000220: fc45 27bd 0f40 9a3d 7c2d 4bbd 2aff d73d
00000230: 7d3f 96bc 6450 57bc ec84 3f3c 4a88 ccbc
00000240: 8a03 86bd c03f d53c 405e 44bd 91de a23d
00000250: b70b 403c 3009 9c3c 4c91 963d dee6 c73d
00000260: c24f 14bd 7209 12bc e8b0 72bc 9225 d63d
00000270: 387f 743c e2a3 39bb 9f09 83bc 51f0 683a
00000280: 511f a5bd 53a8 85bd 2382 773d d2d6 ee3c
00000290: 3ed8 44bd ada2 8abd 7bb0 42bc 88c5 903d
000002a0: 06e5 bd3d 3bff dd3d 2b26 e53c 6eeb 013e
000002b0: 2b8b e13d d017 b1bb 33a3 fdbc eb58 18bb
000002c0: 0973 bd3d 3d09 bdbc 5091 12bd 2f91 e13b
000002d0: e770 a83d 8b94 853d f363 df3d f164 7b3d
000002e0: 6f2e 2fbc 15f5 b4bd 7974 b53d b388 40bd
000002f0: bdc8 06be dd25 63bd 7b9f d43c 4cd1 5fbd
00000300: 018b c43d 6be9 e03d f5bc 9f3b 6ca7 063c
00000310: 51e6 88bd ecd5 ae3d e497 b13d 3f3f b9bd
00000320: 961d f1bc cc99 053d 4d46 6abd 6a0f 46bd
00000330: 9a5d 603d b724 713c 4f3e 38be 5752 cf3d
00000340: 010b 1fbd b211 9abd 288f 0f3d 213d 9dbd
00000350: d6de 023e a088 af3c d507 22bc fac6 783d
00000360: 5216 bbbc 332b 9cbd 4b98 973d f946 fb3d
00000370: 4046 89bd 71fd f13d 01f8 6fbd d3ad a03d
00000380: 2af1 3bbd df65 f83b 53eb f4bc a886 e63d
00000390: 2aaf 973d 2234 0a3d 3bf6 803d 88b7 57bd
000003a0: 821f 4dbd 8bd9 e03d 88b2 c53d 24ea 763d
000003b0: f58c e1bb aa68 14bd 8c3d 0a3e 34e2 4f3c
000003c0: ca67 96bd 8d37 e53d 3fb4 5ebc 3f55 abbd
000003d0: fcd1 f1bc dde5 59bd 08ba 763b e894 9d3c
000003e0: df1c 573c 0fd6 b63d 287a 55bd 3bb8 fd3d
000003f0: 7123 59bd 6901 6ebd 9acc 013d 3835 e43d

layers.2.lin_self.weight f4 [96, 96]
-0.01678275 -0.02220981 0.017888036 0.029210247 -0.047801882 -0.10272157 0.07983066 -0.019045565
-0.07156198 0.02388754 0.004690987 -0.08939665 0.016248008 0.07764585 0.040591147 0.066072054
-0.05179956 -0.018921757 -0.076705895 0.040072415 -0.086010784 -0.00070147245 -0.08040135 -0.023995794
-0.03924251 0.08629376 -0.018898679 0.027066803 -0.06469454 -0.051770546 0.02071683 0.016693695
-0.035118844 -0.060542837 -0.012970958 0.011453253 0.03546218 0.022730244 -0.09496912 0.09940819
-0.0148547115 -0.041017346 -0.041020405 -0.035013992 0.10605372 -0.062266856 -0.101491906 0.03442402
-0.102700114 0.08806879 0.046265807 0.07305169 -0.051322013 0.085474014 0.036442146 0.07301706
-0.023550337 -0.04256525 0.09505254 -0.047363915 -0.0045289695 0.072833486 0.05733244 0.018346539
-0.032952294 0.035258286 -0.039087072 -0.057247795 0.008395558 0.014810104 -0.09187369 -0.0465561
-0.03493869 -0.011259289 0.08447939 -0.07649647 -0.056095354 0.10277796 0.0136592155 -0.056474052
0.0058541037 -0.055900857 -0.0065187095 0.0039893966 0.010252534 0.05638782 0.09121407 0.03381163
0.0029321995 0.07382942 0.114338145 -0.059503905 -0.07141828 -0.00218979 -0.04498719 0.042067215
0.13332167 0.008564162 -0.029349271 0.029908141 -0.09308676 0.04024407 -0.0418417 -0.08047945
-0.031472996 0.16413164 -0.05448353 -0.05557989 0.13708343 -0.021975134 0.03942396 0.050001025
0.03249659 0.026722306 0.08363598 -0.09341683 -0.046071906 0.061235864 -0.076908305 -0.018908314
0.016861027 0.019061362 0.00847689 -0.05964069 0.028534349 -0.08111667 0.002293154 -0.01365283
0.072417006 -0.096530065 -0.06726876 0.08867444 0.09354755 -0.01831179 0.053198252 0.019556522
0.07825481 -0.07278152 -0.059974182 -0.0015203306 -0.044851735 0.054173145 -0.05181366 0.056993596
-0.09682443 -0.065930516 -0.050529394 0.010524944 0.08360327 0.03017813 -0.08448829 -0.11414739
0.029314332 0.040934138 0.064486004 -0.092288055 -0.083583675 0.14800288 0.08603961 -0.005568326
-0.113544054 0.12821037 0.039352708 -0.05591993 -0.042320047 -0.0049620457 0.07706887 -0.0051536025
0.0518921 0.028545735 -0.061255254 -0.10928851 0.051590066 -0.057498917 0.040758613 0.047434386
-0.027876167 -0.07251566 0.081072584 0.02418479 0.08313011 0.1306662 0.078918844 0.088292226
-0.018853968 0.06031136 -0.06097284 -0.0019122986 -0.072510205 -0.08474681 0.03854017 -0.05917586
-0.022336688 -0.10109094 -0.060346477 0.032159872 0.085749015 0.020194335 -0.013636937 -0.06398424
-0.06866427 -0.058387797 0.070869006 -0.048787512 0.037520908 0.033821825 -0.06257998 -0.06195487
-0.036279306 -0.07918027 0.094855234 -0.056467313 -0.09160577 -0.07402736 0.005624635 0.095545374
-0.09446186 0.0109594995 -0.0049408954 -0.008728228 0.016456226 -0.045524605 0.033838466 0.022492642
0.08207296 0.08149391 0.017999256 -0.059372135 -0.004722111 -0.08317535 0.029845195 0.022915302
-0.0050721634 -0.101811305 -0.06737482 0.0468964 0.076483436 -0.066985354 -0.07147788 0.013596338
0.04499333 -0.03460513 -0.01524922 0.08678238 -0.047301985 0.040613335 -0.019122284 0.07591861
0.035386123 0.032255776 0.075197145 -0.008285859 -0.03597395 -0.084645584 0.087652445 0.06000528
00000000: fa7b 89bc 59f1 b5bc ee89 923c 544a ef3c
00000010: e8cb 43bd b05f d2bd 427e a33d 7205 9cbc
00000020: 168f 92bd cdaf c33c dab6 993b 9715 b7bd
00000030: 8b1a 853c ca04 9f3d e742 263d c950 873d
00000040: c72b 54bd cd01 9bbc fb17 9dbd f922 243d
00000050: 6c26 b0bd 05e3 37ba 77a9 a4bd d492 c4bc
00000060: c1bc 20bd c8ba b03d 67d1 9abc 33bb dd3c
00000070: 927e 84bd 5a0d 54bd 57b6 a93c 37c1 883c
00000080: c7d8 0fbd c4fb 77bd 2484 54bc 6da6 3b3c
00000090: ca40 113d c734 ba3c 2c7f c2bd 8596 cb3d
000000a0: 2d61 73bc ce01 28bd 0305 28bd d56a 0fbd
000000b0: b132 d93d 880b 7fbd fdda cfbd 3400 0d3d
000000c0: 7054 d2bd 695d b43d 3781 3d3d 209c 953d
000000d0: 0837 52bd 000d af3d 5c44 153d f889 953d
000000e0: a3ec c0bc e658 2ebd e8aa c23d aa00 42bd
000000f0: c067 94bb b929 953d 6cd5 6a3d 7b4b 963c
00000100: fcf8 06bd fe6a 103d c419 20bd aa7c 6abd
00000110: 868d 093c 14a6 723c 4628 bcbd 9cb1 3ebd
00000120: df1b 0fbd e278 38bc 8803 ad3d 2eaa 9cbd
00000130: 3ec4 65bd 407d d23d e7ca 5f3c 5651 67bd
00000140: c8d3 bf3b 4cf8 64bd e69a d5bb 7cb9 823b
00000150: 3ffa 273c eaf6 663d 71ce ba3d 107e 0a3d
00000160: 252a 403b e133 973d 1e2a ea3d 5eba 73bd
00000170: bf43 92bd 9482 0fbb 7d44 38bd ac4e 2c3d
00000180: 7a85 083e b350 0c3c e26d f0bc eb01 f53c
00000190: 45a4 bebd f7d6 243d 3462 2bbd 69d2 a4bd
000001a0: d4e9 00bd 2012 283e 1f2a 5fbd bda7 63bd
000001b0: 995f 0c3e 3205 b4bc 057b 213d e0cd 4c3d
000001c0: 251b 053d bde8 da3c 5749 ab3d 5351 bfbd
000001d0: e5b5 3cbd 75d2 7a3d 1a82 9dbd 9ce5 9abc
000001e0: 2320 8a3c 9326 9c3c a7e2 0a3c cc49 74bd
000001f0: dec0 e93c 7f20 a6bd bd48 163b 1fb0 5fbc
00000200: 5e4f 943d 8eb1 c5bd 34c4 89bd f29a b53d
00000210: dc95 bf3d 9b02 96bc 69e6 593d 0035 a03c
00000220: 0f44 a03d 7a0e 95bd 7da7 75bd d445 c7ba
00000230: 74b6 37bd a9e4 5d3d 8f3a 54bd 1e72 693d
00000240: e34b c6bd 9406 87bd e9f7 4ebd d170 2c3c
00000250: 3138 ab3d 2038 f73c 3208 adbd 1bc6 e9bd
00000260: 9c24 f03c 8eaa 273d 3d11 843d 8501 bdbd
00000270: eb2d abbd 118e 173e 8935 b03d 8176 b6bb
00000280: c989 e8bd 9449 033e 4e30 213d 4c0c 65bd
00000290: c957 2dbd a898 a2bb 49d6 9d3d 8ddf a8bb
000002a0: d08c 543d bfd8 e93c cae6 7abd a8d2 dfbd
000002b0: 1b50 533d fc83 6bbd 81f2 263d 8f4a 423d
000002c0: 8f5c e4bc 1783 94bd 6209 a63d 2e1f c63c
000002d0: 1e40 aa3d 5ccd 053e 34a0 a13d 8ed2 b43d
000002e0: a373 9abc 0b09 773d a8be 79bd 18a6 faba
000002f0: 3b80 94bd bc8f adbd 4cdc 1d3d 6362 72bd
00000300: 6efb b6bc c408 cfbd de2d 77bd 12ba 033d
00000310: 2e9d af3d 976e a53c 766d 5fbc 2b0a 83bd
00000320: da9f 8cbd 0b28 6fbd c523 913d 6ad5 47bd
00000330: 86af 193d c188 0a3d ef29 80bd 64c4 7dbd
00000340: 9c99 14bd 4429 a2bd 7643 c23d 454a 67bd
00000350: ce9b bbbd a89b 97bd dc4e b83b 4bad c33d
00000360: 3875 c1bd 798f 333c 3ce7 a1bb d700 0fbc
00000370: 35cf 863c 0278 3abd 349a 0a3d 7d42 b83c
00000380: de15 a83d 47e6 a63d 2d73 933c 3230 73bd
00000390: f0bb 9abb d757 aabd e97d f43c dfb8 bb3c
000003a0: 6434 a6bb 7282 d0bd cffb 89bd 7116 403d
000003b0: 59a3 9c3d 9e2f 89bd ff62 92bd 2dc3 5e3c
000003c0: ed4a 383d 1cbe 0dbd ddd7 79bc f6ba b13d
000003d0: babf 41bd 2b5a 263d 56a6 9cbc 377b 9b3d
000003e0: 0af1 103d a21e 043d f600 9a3d 69c1 07bc
000003f0: 6c59 13bd aa5a adbd 2083 b33d 19c8 753d

layers.2.lin_self.bias f4 [96]
0.048803937 0.11447176 0.09109378 0.025312364 0.033205938 0.120028876 0.09435363 0.107211955
-0.059550233 -0.049302664 0.06932759 0.075836204 0.04526609 -0.04114898 0.08073548 -0.03422291
-0.027275259 -0.06462493 0.044108015 -0.05561069 0.0014863317 -0.07591478 -0.037784338 -0.035594653
-0.013397643 0.0039612604 0.019584872 -0.053597946 -0.04846247 0.05856596 -0.054995067 0.00032522698
0.039376397 0.021792186 -0.03228585 0.03932259 -0.02851497 -0.09529836 0.1124957 -0.005725891
-0.051347815 -0.047787942 0.112240925 0.08696351 0.10806612 -0.08677916 -0.023265239 -0.0942669
0.013236144 0.022144575 -0.048912335 0.005990991 -0.07338933 0.10168889 0.07910301 0.0057896203
0.031850614 0.07908554 -0.084825784 0.12115527 -0.054301154 -0.006333437 0.10206207 0.007065912
0.0678344 -0.019774148 0.07254727 -0.02103298 -0.062730685 0.046137348 -0.007105759 -0.016650792
-0.06023065 0.096238054 -0.034507282 0.0111365905 -0.08544307 0.08669318 -0.08012469 0.09289691
-0.021002317 -0.06737486 -0.010337406 -0.06313403 -0.012952657 0.08706494 0.03236877 0.10316004
0.030531242 0.09396242 -0.028279375 -0.075521275 0.050578985 -0.014023371 0.10578897 0.09549608
00000000: a3e6 473d 2c70 ea3d 608f ba3d e05b cf3c
00000010: f302 083d b3d1 f53d 7a3c c13d f191 db3d
00000020: f2ea 73bd 97f1 49bd a0fb 8d3d 0350 9b3d
00000030: f068 393d d58b 28bd a558 a53d 522d 0cbd
00000040: 5d70 dfbc 135a 84bd 9baa 343d 09c8 63bd
00000050: 04d1 c23a 3579 9bbd c0c3 1abd b3cb 11bd
00000060: ca81 5bbc 76cd 813b 7470 a03c 8589 5bbd
00000070: 9580 46bd dce2 6f3d 8242 61bd 3a83 aa39
00000080: 2549 213d 8785 b23c 2b3e 04bd b910 213d
00000090: 3a98 e9bc c92b c3bd 2564 e63d 41a0 bbbb
000000a0: 1652 52bd 4abd 43bd 92de e53d ed19 b23d
000000b0: c551 dd3d 46b9 b1bd be96 bebc 010f c1bd
000000c0: 69dc 583c 8a68 b53c 4d58 48bd 1350 c43b
000000d0: 254d 96bd 4442 d03d c200 a23d dbb6 bd3b
000000e0: ca75 023d 99f7 a13d 24b9 adbd 4120 f83d
000000f0: e36a 5ebd b888 cfbb eb05 d13d 2a89 e73b
00000100: c3ec 8a3d 65fd a1bc aa93 943d 5b4d acbc
00000110: f278 80bd 84fa 3c3d 6dd7 e8bb 3e67 88bc
00000120: 6ab4 76bd 7518 c53d 8257 0dbd 3f76 363c
00000130: c7fc aebd 328c b13d 6a18 a4bd bc40 be3d
00000140: 0d0d acbc d5fb 89bd 395e 29bc 6a4c 81bd
00000150: 6237 54bc 1a4f b23d 1e95 043d 9245 d33d
00000160: a81c fa3c 5f6f c03d 26aa e7bc e6aa 9abd
00000170: e92b 4f3d 48c2 65bc e3a7 d83d 7393 c33d
