outputs/models/nowcast_sage_noar1_seed42.pt (torch, 272575 bytes, 14 tensors)

in_lin.weight f4 [96, 15]
00000000: b4ea 533e 16e3 4c3e 2790 50bd 4355 643e
00000010: 5bb8 67bd 0b69 553d 836e 02be 178a 743e
00000020: aa88 903e 95e3 16be 8e48 763e baef 453d
00000030: c51b 5b3e a5ee 1e3c f97e cf3d 26e3 21bd
00000040: 9ae3 2f3e b13d 0c3d 295f 17be bbc9 863d
00000050: 2fa2 f3bd 6b3e 6fbd a5ec 77bd 4233 463e
00000060: 4c5d 30be b60d 26be 3b51 95bd 8d7e 2fbe
00000070: 7514 9a3c b9d2 85be 235f 6a3e d4e8 2dbe
00000080: 93bd 473e a37d bd3d 71b3 abbd 1f62 233e
00000090: ad40 743d 2006 9b3e 86d3 aa3d a73f 1bbd
000000a0: f92f aa3d b865 8fbd 9729 3a3e 6b82 383e
000000b0: c27a 923d c277 d8bd c1b7 053e 87e4 463d
000000c0: cba9 e63d 8726 21be 1fdd 82be 6e40 f2bd
000000d0: 26f2 40be 8289 843e d9bf e53d a414 233e
000000e0: 753c a73d 60bb 56bc b6de 593e 782c 36be
000000f0: f260 9f3c b0ad 42be 4b9c a93d 74b6 d1bd
00000100: bf07 a23d 9d56 5cbd a579 5e3e 91d5 2abe
00000110: efe9 2bbe 5fec 2bbe 7c94 5f3e 6638 b03d
00000120: 2407 873e 5042 69be 1e4b 8abe 9332 7fbe
00000130: c6cf c2bd 09b8 6e3d ee25 2f3e 5cb1 5b3e
00000140: 678a 08be bfc1 c6bd 2e8a 723e 6aa0 16bd
00000150: a5ae 4e3e 85a8 ffbc 183f 173e ace7 dbbd
00000160: 1a81 31be b7a9 953d 5f62 753d e10d e2bd
00000170: e106 233e 9017 063e 91bb 3fbe 0627 0dbe
00000180: df91 633e 5820 ecbd 0c7d adbd 56d9 8dbe
00000190: f97c 17be 1118 843d 4295 7cbd c174 4dbe
000001a0: 82c5 363d 3280 33be 2233 5fbe 8d98 10be
000001b0: 5618 66be cd59 28be 6825 843e 542c 4c3d
000001c0: 43fe a33d fa7c 75be 048a 2cbe 20cb adbd
000001d0: 1960 253d 6472 84be 9d3b dbbd 777d 08be
000001e0: c506 f03b f283 d2bd edd9 38bc ba09 3abe
000001f0: db7a 35be b83f 1abe 46c0 c2bd 9c9f 57be
00000200: b2c0 563e a8a0 6dbd 398c 5c3e 0cc3 a43d
00000210: 89d3 66be 17f5 3d3e a6ea 83bd 0aeb d9bd
00000220: 1e19 63be a91d 87be 48ac 873d bf05 67bd
00000230: e5de cd3d bf92 60be d5a3 3c3e 7ab5 49be
00000240: 3a21 55bd 2e62 3e3d a77e 083e b662 653e
00000250: 570a 6d3e 41e8 58be a6ca 833d e922 a6bd
00000260: e0d1 ecbc 202a 27be bbd3 703e a70d 42be
00000270: a5c4 173e a973 2f3e b648 0f3e da87 ccbd
00000280: c2ad 803e 7b67 683d dec3 993d 60dc 7bbe
00000290: d031 813d 8502 07bd e176 52bd 410d 693e
000002a0: cb2c ff3d ad48 12be 29d2 05be 1c56 543c
000002b0: 484f 673e f263 f5bc c3de f5bd b093 0bbe
000002c0: fa85 45be 4cfd 1f3e d138 2a3e 73bc 75be
000002d0: a4a0 8e3d 3a06 f33d c548 673d 8f85 dabd
000002e0: ceff 093e 83f1 0a3e 0ffa ca3d fa6f a0bd
000002f0: eab4 0ebd 9608 ff3c 0aab aebc 9394 9dbd
00000300: 25d9 243e c313 553e c2df 27bd 60d4 6bbd
00000310: 4f64 113c 28f9 6bbc b6a2 893d 632f 943d
00000320: 9f23 70be 897e b8bd 74af 983e c693 0e3e
00000330: 2871 f13b 5cb5 1ebe 34c2 21be 59f9 58be
00000340: 4784 a3bd 0b25 833d 9e52 223e e5c6 183e
00000350: fcea 6dbe 5c43 00be 76e7 26bd 55c3 7f3e
00000360: 3ed4 873d 3118 f93c 41ca 1d3e 19ac 78bd
00000370: 64dc 4fbe a1fa 403e d09b a9bd 0d66 58bd
00000380: 96f1 83be 1d01 383e 7cdc 3b3e 3ddf ce3d
00000390: e8cb 44be a878 82be 91bc 56be 6574 413e
000003a0: f00b 603e 887b 8c3e ab5e 383e b8ce a63d
000003b0: 87b4 25bb 8bba 36be 58c8 70be a249 84be
000003c0: e025 bb3d 3071 10be 7ff0 87bd da9d 26be
000003d0: 6bb7 40bd 4517 3abe b27a 3bbe 7ea0 913d
000003e0: 2b6b babd 4497 143e 98e7 c6bd b6f3 41be
000003f0: 0757 51bd df07 0dbe 6bac 3abd a75f 80be
0.20695001 0.20008501 -0.050918724 0.2229815 -0.0565723 0.05210213 -0.1273747 0.23880802
0.28229266 -0.14735253 0.24051115 0.048324324 0.21397312 0.009700452 0.1013164 -0.039523266
0.17176667 0.03423852 -0.14782394 0.06581446 -0.118961684 -0.058409136 -0.060528416 0.19355491
-0.1722309 -0.16216168 -0.07290884 -0.17138119 0.018808583 -0.2613733 0.22887854 -0.16983348
0.1950591 0.09252479 -0.08383835 0.15955399 0.059631992 0.3027811 0.08341126 -0.0379025
0.08309931 -0.07001823 0.18179928 0.180185 0.071523204 -0.10569717 0.13058378 0.048557784
0.11262854 -0.15737353 -0.25559327 -0.11828695 -0.18842372 0.2588616 0.11218233 0.15925843
0.08165828 -0.013106197 0.21276364 -0.17790401 0.019455407 -0.19011569 0.08281764 -0.10239878
0.07911634 -0.05379354 0.21726091 -0.16683032 -0.16788457 -0.16789387 0.21833986 0.08604507
0.26372635 -0.22779202 -0.27010435 -0.24921636 -0.09512286 0.05828098 0.17104313 0.21454376
-0.13334046 -0.09704923 0.23685524 -0.036774077 0.20183809 -0.031208286 0.14770162 -0.10737547
-0.17334405 0.07307761 0.059908267 -0.110378034 0.15920593 0.13094926 -0.18723895 -0.13784418
0.22223614 -0.115296066 -0.084711164 -0.27704877 -0.14793767 0.06449903 -0.06166578 -0.2006407
0.044621952 -0.17529371 -0.2179685 -0.14120694 -0.22470221 -0.16440506 0.2580979 0.049846962
0.08007481 -0.23973456 -0.16849524 -0.08486009 0.04037485 -0.25868523 -0.1070473 -0.13329111
0.0073250257 -0.10279073 -0.011282426 -0.18167773 -0.17722647 -0.1506337 -0.095093295 -0.2105698
0.20971945 -0.058014542 0.21537866 0.08045015 -0.22541632 0.18550526 -0.0644124 -0.10640533
-0.2217755 -0.26389816 0.06624657 -0.056401964 0.100522794 -0.21930979 0.18421872 -0.19698134
-0.05203364 0.04648035 0.13329564 0.22400936 0.23148476 -0.21182348 0.064351365 -0.08112127
-0.02890867 -0.16324663 0.23518269 -0.1895052 0.14821108 0.17133965 0.13992581 -0.09986849
0.25132567 0.05673931 0.07508062 -0.24595785 0.06308329 -0.032961387 -0.051382903 0.22758962
0.124597155 -0.14285536 -0.13068451 0.012959983 0.22588837 -0.029954884 -0.12005379 -0.13630557
-0.19289389 0.15623969 0.16623236 -0.23997669 0.069642335 0.11866422 0.056465883 -0.106700055
0.13476488 0.13568692 0.09910976 -0.07833858 -0.0348405 0.031132024 -0.021321792 -0.07694354
0.16098459 0.2080832 -0.040984876 -0.057575583 0.008874013 -0.014402665 0.06720488 0.07235601
-0.23451088 -0.0900851 0.2982136 0.13923559 0.0073682256 -0.1549887 -0.15796739 -0.21188869
-0.07984214 0.0640355 0.15851828 0.14919622 -0.2323417 -0.12525696 -0.040748082 0.24976857
0.06632279 0.030407043 0.15409185 -0.060711 -0.20298916 0.18845607 -0.08281672 -0.0528317
-0.25770253 0.17969175 0.18345827 0.10101173 -0.19218409 -0.25482678 -0.2097037 0.18892057
0.21879554 0.27437997 0.18004863 0.08144897 -0.0025284605 -0.17844598 -0.23513925 -0.25837427
0.091380835 -0.14105678 -0.06637668 -0.16271153 -0.04704992 -0.18172939 -0.18308523 0.071106896
-0.09102472 0.14510828 -0.09712142 -0.18940625 -0.051108386 -0.13772534 -0.045574587 -0.25072977

in_lin.bias f4 [96]
00000000: 6bc5 f9bd 8171 d8bb d035 b3bb 2959 64be
00000010: b3b0 6dbe feb6 fabd 93c7 023e facd ef3d
00000020: f9d9 6cbe 58a8 b7bd a106 e13c 7551 45be
00000030: 07e0 223e 401e 6f3e 9aa6 543d 77c8 31be
00000040: fcf1 983d ecd7 ca3d 398c 653e def1 f9bd
00000050: cf78 76be 5c60 fe3d 85b1 5e3c 90cb a4bd
00000060: f661 debd a2e0 e1bd 4777 603e f891 c9bc
00000070: fbc8 6c3e 4aac 823e ea69 7d3d e261 943d
00000080: 0c78 0e3b 21e7 483e 3744 5ebe d10e c03d
00000090: 3cd3 8dbc a70d 1c3e edbe 7b3d 868f b4bd
000000a0: 5512 963c 97fd 1e3e b115 29be 2dcc 06be
000000b0: f060 70bd f6e6 a3bd 9676 fc3d c77d 463e
000000c0: f88d 93bb d4fc 863e dc4b bcbd 3c5e 14be
000000d0: 57b8 c7bd 087b 09be 683a 21be 28b2 4dbe
000000e0: fef8 3bbe 27d8 a13d 1ff8 363e 9ad6 853e
000000f0: ede2 793e c456 6bb8 11cb 543d 2789 0dbe
00000100: 1f70 ec3d 67fc 5fbe 9cc5 073e ccbd 6f3d
00000110: afaf 983d e629 e53d b792 e9bd c3ef 713e
00000120: e9a7 103e 6104 3c3e 7fb5 753d 728c 353e
00000130: efd7 3d3e adda cc3d 7809 493e 52f7 b7bc
00000140: eca0 393e 92e3 9e3d 49b7 243e e277 893e
00000150: c55f a83d 2f5d a1bd 1276 3ebc a441 af3d
00000160: 9dae 813d 2b3b 99bd 299b 3f3e d1de 463e
00000170: 0b30 1fbe f2e0 b2bb 92fa 5e3a b81b 12be
-0.121958576 -0.0066053276 -0.0054690614 -0.22299637 -0.23211937 -0.12241934 0.12771444 0.11709209
-0.23130025 -0.08967656 0.027468981 -0.19269355 0.15905772 0.23351383 0.051916696 -0.17361628
0.0746803 0.09904465 0.22416772 -0.12204336 -0.24069522 0.12420723 0.013592129 -0.08046639
-0.10858528 -0.110291734 0.219205 -0.024605736 0.23123543 0.2552207 0.061868586 0.07245232
0.0021739034 0.19619419 -0.2170571 0.09377826 -0.017312638 0.15239583 0.061461378 -0.088164374
0.018319288 0.15526424 -0.16512181 -0.13163824 -0.058686197 -0.08003037 0.12327306 0.19383918
-0.004503008 0.26364768 -0.091941565 -0.14489073 -0.09751957 -0.13425839 -0.15744936 -0.20087492
-0.18356702 0.07902556 0.17868088 0.2614029 0.24402972 -5.6109173e-05 0.05195147 -0.1382185
0.11544823 -0.21873628 0.13258976 0.058530614 0.07455384 0.11189632 -0.11404937 0.23626618
0.14126553 0.18361045 0.05998754 0.17729357 0.18539403 0.100026466 0.19632518 -0.022456799
0.18127793 0.07758249 0.16085543 0.26849276 0.082213916 -0.078791015 -0.01162483 0.08557442
0.06332133 -0.074819885 0.18711533 0.19420935 -0.1554567 -0.0054589445 0.0008505966 -0.14268386

layers.0.lin_self.weight f4 [96, 96]
00000000: 4b9e 013d a819 79bc 78e8 7cbc f122 36bd
00000010: b08c 09bd d906 263e 218e e63c d901 e93d
00000020: 7d08 023d f50d de3c 0272 9d3d 257c 883d
00000030: 10f7 babd 4044 983c 89ff 2e3d a1b6 eb3c
00000040: 1730 4a3d c6bc 863d e152 df3d 0b21 d33c
00000050: 6b66 06bd 4165 13bd 47aa babc 13ca 9ebc
00000060: f850 4a3d 0b13 a23d 66bb 293e fd31 f03c
00000070: b7da 7dbd e199 c53b 7057 963d cfac 873d
00000080: 6f14 e73c 5b9a 2a3d f329 7c3c 07b3 913d
00000090: 825e 453c fb24 aebd 62b6 edbc 09c2 18bc
000000a0: ceb7 7dbc 7c0d 5f3d 6206 073c beab 093d
000000b0: 7aab a8bd fb18 16bc 3314 9bbd eb57 7f3d
000000c0: 3f52 2fbd 18ef f43d 8ae6 463d e8b1 053c
000000d0: b362 593d 2932 033d 4216 c8bc 9f0a 1ebc
000000e0: cfd0 823d 886c 56bd 2d31 3a3d 7441 09bd
000000f0: 8769 3dbc d08b d9bc 8d48 29bd b29d 033e
00000100: a225 8cbd 19a8 c43d 298d 9bbd d381 213c
00000110: 17fc 913c a443 9c3d d8a6 20bd c3be 2d3d
00000120: 2346 153d 215a 843d e3a8 963d 3365 083d
00000130: 21a9 53bd 144b 1fbd 0a9d 063e f781 7abd
00000140: 3548 aa3a d71d e6bb d104 0b3e c61a 69bc
00000150: 753a a13c 7954 59bd 0868 653d 9a03 643d
00000160: 1a2d 023e c5aa bebc 70d1 043e 5560 13be
00000170: b22d 353d d9f6 733d a1c1 e33d 4a02 5b39
00000180: 7048 74bc 6824 733d 554b 13bd cb58 e4bd
00000190: e4b3 c7bd 9f1f 2c3d f86c 6c3d f62f 1a3d
000001a0: 82df cb3b 4daa 993d 7458 4ebd 9b5c f43d
000001b0: 5acb 19bd a900 9a3c 9d86 253e 3a42 72bd
000001c0: da15 aa3c 451a 9abd 6c5f 2e3d d017 33bd
000001d0: c2f7 af3c 9024 963c 5c54 183e 0c69 12bd
000001e0: e857 9e3d e410 89bd 09ee 1f3e d595 d3bb
000001f0: a01a 52bd 7000 ac3b 8135 033e 61aa 833d
00000200: d8c6 a5bd 41b6 023d 311e 9dbd b5c6 b33d
00000210: 9ce3 553d 74db 78bc 6873 44bc 7c34 d73c
00000220: c5eb 4ebd 8f7d 4f3d 5be4 9c3d b8f3 c13d
00000230: 5cb9 1a3d 4380 b6bd 14cb aa3d 3156 46bc
00000240: 62c6 6bbd 1ca7 473d 1610 d83d 34b9 a03d
00000250: 6614 193d bd34 b13d d2f4 a8bd e23b bdbc
00000260: 404a acbd 80a8 613d 8854 87bd 420e 03bd
00000270: f9b6 ec3d a13b b43d b1b7 03bd 60c9 e6bc
00000280: 8191 963c 6011 b03d 371b 8dba 511f c5bc
00000290: 4792 80bd 4d81 903d f80a e43d 516c 21bd
000002a0: c04f 6f3d c201 e63c 5b6a 063e 08bb ecbb
000002b0: e7d7 d23b a1c7 d53d 0657 c13d 7f74 193e
000002c0: b734 e8bc c128 8a3d f123 ce3d bc58 88bd
000002d0: af9d 043e 6afe 04bd b811 813d ed5d ffbc
000002e0: 00ae 793d 7949 a63d 3638 433b 60ed d7bd
000002f0: 4c82 80bd 1a47 8f3d bce6 b23d 2d46 c9bc
00000300: 55f0 c83c eb25 31bd 2ad3 b0bb cac9 863d
00000310: 5369 643d 5dc7 d03c faf8 233a 1ad5 753c
00000320: 0ce9 fe3c 182f 65bd b076 02bd 56cf f93d
00000330: 5257 a23a 7e83 de3d ab8a 103c 081b 933d
00000340: 5e8b 863d 95c4 983d 5bb2 643d 6761 d63d
00000350: cc73 43bc 0036 853d df49 023e aba3 053e
00000360: 00f3 2fbd 6e89 db3d dd81 c23d cc9c 183d
00000370: 59ab 7b3c 9028 a5bc aae0 023e b052 fa3d
00000380: e1e3 4ebd eaaa 06bd a9fb b2bd d1b9 7d3a
00000390: d7e2 67bd e0d0 8fbd eb9c adbc 49fc aa3d
000003a0: 767e a13d 11d9 4b3d b0b7 d03c a52d eabc
000003b0: e000 03be 9a27 303c ed01 c73d 2494 f43c
000003c0: a869 8cbd c56e 8fbc 148d bebc db20 a1bd
000003d0: c529 d03d be3f 83bd b515 9fbd 389b 82bd
000003e0: a270 1e3d 01d9 09bc b228 123d 96e5 973d
000003f0: c9c3 8fbd 112c 8ebd 4bbf 4b3b 3455 3bbd
0.0316451 -0.015203871 -0.015436284 -0.044466916 -0.033581436 0.1621355 0.028143944 0.113773055
0.031746376 0.027106265 0.07687761 0.06664304 -0.09129155 0.018587232 0.042724166 0.028773608
0.04936227 0.065789744 0.1090448 0.025772592 -0.032812517 -0.035985235 -0.022786273 -0.019383466
0.049393624 0.079137884 0.16575393 0.029320711 -0.06197616 0.0060303067 0.07340896 0.066247575
0.028207986 0.04165111 0.015390861 0.07114225 0.012046458 -0.08503147 -0.029017631 -0.009323605
-0.015485717 0.05445622 0.008241268 0.03361105 -0.082358316 -0.009161229 -0.07572212 0.062339704
-0.042803045 0.11959666 0.048559703 0.008160092 0.053072643 0.03203026 -0.024424676 -0.009646087
0.06387483 -0.052349597 0.045457054 -0.033509687 -0.011560804 -0.026555926 -0.041328955 0.12853125
-0.068431154 0.096023746 -0.075952835 0.009857613 0.017820401 0.07630089 -0.039221615 0.042418253
0.03644384 0.06462503 0.07356431 0.033299636 -0.051674966 -0.03888996 0.13145843 -0.0611591
0.001299149 -0.0070226 0.13576056 -0.014227575 0.019681195 -0.053059075 0.056007415 0.055667497
0.12712517 -0.023274789 0.12970519 -0.14392217 0.04423303 0.059561584 0.11120916 0.0002088632
-0.014909849 0.05936089 -0.035960514 -0.111497484 -0.09751108 0.042022344 0.05772111 0.037643395
0.0062217126 0.075031854 -0.050377324 0.119317256 -0.037547447 0.018799143 0.16164632 -0.05914519
0.020762373 -0.07524542 0.04257147 -0.04372388 0.021480445 0.018327981 0.1487593 -0.03574471
0.077316105 -0.06692675 0.15618147 -0.0064570704 -0.051294923 0.0052490756 0.12813379 0.064289816
-0.08094567 0.031912092 -0.07671774 0.08778135 0.05221902 -0.01518904 -0.011990406 0.026270144
-0.050517816 0.05065685 0.07660743 0.09470314 0.03777443 -0.08911183 0.08339515 -0.012105511
-0.05756224 0.048743352 0.10549943 0.07847825 0.03737297 0.08652637 -0.08249821 -0.023099843
-0.084125996 0.055092335 -0.0660792 -0.03199602 0.11558337 0.08800436 -0.032157604 -0.028172195
0.018379929 0.08597064 -0.0010765557 -0.024062784 -0.062779 0.07055912 0.111349046 -0.03940994
0.058425665 0.02807701 0.13126509 -0.0072244443 0.006434429 0.10438467 0.094404265 0.14985846
-0.028345449 0.067460544 0.10065449 -0.0665755 0.12950777 -0.03246919 0.06302208 -0.031172717
0.060956955 0.081194825 0.0029788143 -0.105433226 -0.06274852 0.069959834 0.08735415 -0.024569595
0.024528662 -0.043249052 -0.0053962665 0.06581457 0.055764508 0.025485689 0.0006255057 0.015004421
0.031116985 -0.055953115 -0.03185147 0.12197749 0.0012385643 0.10864924 0.0088221235 0.0718289
0.06569551 0.0745937 0.055834156 0.10467797 -0.011929464 0.0650444 0.12723492 0.13050716
-0.042956352 0.10719572 0.09497426 0.03725891 0.015360677 -0.020160943 0.12781015 0.12222803
-0.05051029 -0.03287784 -0.087394066 0.0009678873 -0.056612816 -0.070222616 -0.021192988 0.08348901
0.07885449 0.049767558 0.025478214 -0.028586218 -0.12793303 0.010751629 0.09717164 0.029855795
-0.0685609 -0.017508874 -0.02326063 -0.07867595 0.10164217 -0.06408642 -0.07767812 -0.06377262
0.038681634 -0.008413554 0.03568334 0.07416837 -0.07019765 -0.06941999 0.0031089361 -0.045735553

layers.0.lin_self.bias f4 [96]
00000000: b60a 143d f329 de3d c339 bf3c 72bc 533c
00000010: 56dc 18bd a951 093d c02a babd ba8b d0bd
00000020: f3d4 41bc 405f 64bd c63b 5abd 72ad 8e3b
00000030: e459 913d 840a 973d 6e59 193c cc9a d13b
00000040: 7dba e43d f370 143d a89d ae3d 5e04 ecbc
00000050: 65e4 9ebd 8841 25bd 952e 9d3c b8ef 41bc
00000060: 0418 26bd 1958 c73d 9a84 a8bd 5b06 b03c
00000070: 2e27 813d 1a2f 86bc 7b96 8c3d bd85 a23c
00000080: 02ba 44bd 50f0 2fbd 12e5 dabc b593 babd
00000090: d518 a73d 4f7a e33d 6718 e5bb 5c4d 9e3c
000000a0: a1af d03c 1160 123d 07c1 2ebd 9c24 3bbd
000000b0: 75b6 f43d 4dbe 9e3d 06de ed3d c960 873d
000000c0: b195 5f3b 4adc a53d 8917 98bb 280a db3c
000000d0: b517 31bd dd56 c43d 0290 b2bc cc24 c93b
000000e0: 3aa4 92bd 1be1 5b3d b3f5 12bd 2976 14bc
000000f0: 5275 273c 6917 543d 9550 9a3c 970d 483d
00000100: 24b1 6dbd 291e 6abd 0cfa 843d 47c4 cabc
00000110: 227f 83bd c2b5 06bd 65ed b4bd 542a 293d
00000120: 6b87 d93c 6e4e d73d 4586 66bd ae5c 14bd
00000130: 32c2 293d f187 62bc d1e2 ea3d 7643 ba3b
00000140: 5998 8e3c 324a 24bc 5996 7c3d 6a15 05bd
00000150: e692 613d dabb aa3d 29f2 90bd 9430 8fbd
00000160: 4750 28bd 6bdf 863d e221 19bd f716 b63c
00000170: 1eec 293d e3a9 953c fc22 0cbd e0d7 a73c
0.036143027 0.10847845 0.023342973 0.012923347 -0.037319504 0.033525143 -0.09090185 -0.10182901
-0.011830556 -0.0557549 -0.05327966 0.0043541724 0.070972234 0.073750526 0.009359701 0.006396627
0.11168382 0.03624053 0.08526164 -0.028810676 -0.077584065 -0.0403457 0.019187251 -0.011836939
-0.040550247 0.097336 -0.08228417 0.021487406 0.06306301 -0.016379882 0.06864639 0.019839162
-0.048028953 -0.04295379 -0.026720557 -0.09110204 0.08159033 0.11107313 -0.0069914344 0.019323997
0.025474371 0.035736147 -0.042664554 -0.04568921 0.119488634 0.07751141 0.11614613 0.06610257
0.0034116323 0.080986574 -0.0046414775 0.026738241 -0.0432355 0.0958688 -0.021797184 0.0061384197
-0.0716023 0.053681474 -0.03587885 -0.009061375 0.010220842 0.05178014 0.018837253 0.048841085
-0.058030263 -0.05715767 0.06493005 -0.024751795 -0.06420733 -0.03288818 -0.08834342 0.041300133
0.02655383 0.10513006 -0.056280393 -0.0362212 0.041444965 -0.013826356 0.11469043 0.0056843115
0.01740663 -0.010027455 0.06166682 -0.032491125 0.055071734 0.08336611 -0.070774384 -0.069916874
-0.041092183 0.06585582 -0.03738583 0.022227747 0.041484945 0.018269485 -0.03421305 0.02048868

layers.0.lin_neigh.weight f4 [96, 96]
00000000: 96ba b43d c2a2 893d 6f9b 4a3d 9fa8 b6bd
00000010: 0b25 713d 755f ef3c 7846 933d e060 6f3d
00000020: 2901 34bc 9ebd 293d 1a0b 38bc b83f 413d
00000030: cb4d aebb 44af 9c3d c007 953d a954 013e
00000040: a48e f1bc 791c 053e 3ecf 153b 3075 df3d
00000050: 9b13 f63c c21c 213d 1b15 47ba fbf8 28bc
00000060: 7a15 a8bd d331 b0bc 5cd8 183d 8fa4 193e
00000070: bc62 8539 f938 4d3d f008 e9bc c2ce df3d
00000080: db92 d53d d664 11bc 7d2a 543d 313f 40bd
00000090: c8e5 2c3b 4107 66bd 51b6 12be e66e 943b
000000a0: ea4a 833d 7515 3e3d cbc2 d63d 07e8 ea3d
000000b0: ebc3 14be f5f8 a4bc f961 8c3d 0d6b 5dbd
000000c0: 36e6 46bd 61a7 ad3d 1af9 bebc 0c4d b33d
000000d0: 77ef 30bd c072 f8bd 3c28 52bd 7212 ddbd
000000e0: 6069 b03d 8aa8 373d 5020 23bd 5d4c ef3d
000000f0: b11d 16bd 9b2c d33d c20f 5e3d 2e3c c33c
00000100: 815f d23d c48d a03d fbce 92bd 0229 963d
00000110: 8819 e73d 48d0 91bd 6b10 89bc eaab 88bd
00000120: bd82 b83d 4885 863d 3545 143e 41fc c93c
00000130: 2b54 59bb 8dd3 ad3c 2b58 10bd 0484 883d
00000140: 4ef1 9abc adce 803c 01b9 143d a75b 2e3d
00000150: 130c 703a a54c febc 6c51 6e3d 4dc0 77bd
00000160: 8c3f b0bb 3734 8cbd cbed 91bc 6177 233d
00000170: 4f4f cd3d a114 a63d 92b4 17bd 96a0 753d
00000180: 11e5 f73c 2aef 393d a08e ca3c c8fb 7ebc
00000190: 05cb 093d b798 18be 43d9 b43d e82b a23d
000001a0: b6c7 15bd 3847 8bbd cbe4 903b 23c9 323d
000001b0: 6dd6 f5bc c2f8 b9bc 6225 753d aefb 99bd
000001c0: 9add 943d 766e 263d fad3 1cbd e402 e93d
000001d0: deb9 c8bc 5721 8a3d 0d1d cabd 59cd 543d
000001e0: c1fa 3cbc 6403 c6bd 8938 d73c 72c2 74bd
000001f0: 9af2 d83d bf72 473d 07bf 57bd 89ca 503c
00000200: a04e b4bd 2e23 c2bd 46cc 82bc a764 85bd
00000210: 11ec 09be ed60 673d 545e dc3c 3512 1a3c
00000220: 6928 6bbc 7436 8b3d 805a b0bc e4ae 15bd
00000230: 324f 083d 50ad a03d 95bc 353c da36 1b3c
00000240: 26dc b73c 56d1 563d d249 9cbc 32a7 8c3c
00000250: de20 603d 1e69 9bbd 786b 403d b3fb 153e
00000260: 33a3 953c a30d a13d 0532 6bbd ab12 cc3d
00000270: b8e3 333d 42d6 abbd 9ab2 c83d 581b 203d
00000280: 3214 54bc 76c8 8a3d b2ed b83c ebd2 db3d
00000290: 678d 96bd d92f 8fbd 1f5f 803d 28bb bc3c
000002a0: 0de6 86bd 2637 a9bc 7619 83b9 3a04 ca3d
000002b0: af18 65bd 0ca6 3dbd 0df8 aebc 4a0f 823b
000002c0: 1a08 82bd c758 c83d 2f14 a3bd ef1a be3d
000002d0: 40e9 fabd 0e8f 51bd 72d8 673d df8e 07bd
000002e0: ebc9 0e3d 7178 42bb a5ff 38bd 9b98 0a3e
000002f0: e8ea 10bd 731a c7bc ae2f 273d 47ef 3f3d
00000300: 6bc5 ac3c d162 a93d 6df2 9a3d 7c38 e93c
00000310: d71a ecbb b2a2 153e aec3 25bd 68cd 283c
00000320: bb67 ddbc 4e82 d4bc e5d9 933d de85 ca3d
00000330: 261f a13b 5f93 013e 4c2c cd3d ee7e 6f3d
00000340: ea80 d0bc 1813 8d3d 4e32 c33d 75c9 a43d
00000350: e8be bc3c fbb5 c73d ce0a 3ebd 8efe 4e3d
00000360: a774 aabd 9b20 813d 7a9b 3d3d bd95 b53c
00000370: 2511 103b 4cef 30bb 19ce c73d 8ebd 983d
00000380: 9af4 2bbd ab9e 97bd f120 ba3b 87a1 44bd
00000390: abf8 c0bc 2b88 f93c 21c5 ecbc 9ca4 d3bc
000003a0: eeaa a0bc 4cfb 90bd 043a 53bd 48d8 233d
000003b0: 6465 c3bd f1a8 c2bd 6a0d cdbd 0114 9cbd
000003c0: 922a b7bd b666 713d bb3c aabc ff15 8a3d
000003d0: e439 833d 1757 03be 4a4b 093d 7751 f1bd
000003e0: 7aa5 e03d 5a58 a43d 65e8 323d 555a 3abd
000003f0: 38ac ae3c 7d4c 88bd 9939 bb3c 446f 1d3e
0.08824651 0.06720497 0.04946464 -0.08918881 0.058873218 0.029220322 0.07191175 0.058441997
-0.010986605 0.0414406 -0.011233116 0.047179908 -0.0053193322 0.07650617 0.07276869 0.12629952
-0.029486962 0.12999143 0.0022859122 0.109110236 0.030038645 0.039334066 -0.00075943925 -0.010313268
-0.08207221 -0.021508133 0.03731571 0.1500418 0.000254413 0.05010316 -0.028446645 0.10928108
0.10428401 -0.008874139 0.051798332 -0.046935264 0.0026382077 -0.05615926 -0.1432736 0.0045298217
0.06410773 0.04640718 0.104863726 0.11470037 -0.14527862 -0.020138243 0.06854624 -0.05405717
-0.04855939 0.084791906 -0.02331214 0.0875493 -0.04319712 -0.12131262 -0.0513079 -0.10794534
0.08613849 0.044838466 -0.039825737 0.11684487 -0.03664941 0.10311242 0.054214247 0.023832407
0.10272122 0.0783954 -0.07168385 0.0733204 0.112841666 -0.071198046 -0.016731462 -0.06673415
0.09009311 0.0656839 0.14479525 0.024656417 -0.003316174 0.02121904 -0.035240334 0.06665805
-0.018913891 0.01572355 0.036309246 0.042567875 0.00091570726 -0.031042406 0.05818312 -0.060486127
-0.005378669 -0.06845897 -0.017813584 0.03990877 0.100248925 0.081094034 -0.03703744 0.0599676
0.030260595 0.0453941 0.024726212 -0.015562959 0.03364088 -0.14902006 0.08830502 0.07918531
-0.036567412 -0.06800693 0.0044218055 0.04364885 -0.030009473 -0.022701625 0.059850104 -0.07518707
0.0726883 0.040632688 -0.038288094 0.113775045 -0.02450269 0.0674464 -0.09868822 0.051953647
-0.011534394 -0.096686155 0.026272075 -0.05975575 0.105931476 0.048693415 -0.052672412 0.012743601
-0.08804059 -0.09479366 -0.015966546 -0.065133385 -0.13468958 0.05648892 0.026900448 0.009403755
-0.014352896 0.067974955 -0.021527529 -0.03654374 0.03327865 0.07845557 0.011092325 0.009473527
0.022443842 0.052445732 -0.019078169 0.017169569 0.054718845 -0.07588409 0.04697749 0.14646797
0.018266296 0.07863929 -0.05742075 0.09964498 0.04391834 -0.08390476 0.097996905 0.039088577
-0.012944268 0.06776516 0.02257428 0.10733589 -0.07351189 -0.06991548 0.06268143 0.023038462
-0.065868475 -0.02065618 -0.00025005237 0.098640874 -0.055931743 -0.046300933 -0.021358514 0.0039691078
-0.063492015 0.09782558 -0.07962834 0.09282481 -0.1225152 -0.05116182 0.056602903 -0.033095237
0.034860533 -0.002967384 -0.045165677 0.13534777 -0.035380274 -0.024304604 0.040816955 0.046859052
0.02109023 0.08270801 0.0756577 0.028469317 -0.007205348 0.14612845 -0.040469818 0.010302879
-0.027027002 -0.02594104 0.072192945 0.098888144 0.0049170433 0.12653874 0.100182146 0.05847066
-0.025452096 0.068884075 0.09531079 0.080462374 0.02304025 0.09751507 -0.046397023 0.05053573
-0.08323031 0.06305047 0.046290852 0.022166127 0.0021982875 -0.00269981 0.09756107 0.0745803
-0.041981317 -0.074033104 0.0056801965 -0.048005607 -0.023556074 0.030460438 -0.028902592 -0.025835328
-0.019612756 -0.07079181 -0.051569 0.040001184 -0.09540823 -0.09504879 -0.10012324 -0.07621003
-0.089436665 0.058935843 -0.020780912 0.06742477 0.06407526 -0.12826191 0.033519067 -0.11783116
0.10969062 0.08024664 0.04367866 -0.045496304 0.021322355 -0.06655214 0.022854613 0.15374476

layers.1.lin_self.weight f4 [96, 96]
00000000: f03b 6d3d 4165 bf3d 1d0a ebbd 618c 063b
00000010: e8e6 5e3d 0804 803c 950d 16bd fa26 3bbd
00000020: 7822 653d 261d e03a dbf2 223d 946c a5bd
00000030: 2b39 8fbd 342c 3c3d 5048 033d 57e7 a83d
00000040: 0ebe acbd cab4 14bd 999d b0bd 4b4e c43d
00000050: 4c38 d83b 1ed0 1f3d ee51 833d 4424 ad3c
00000060: d0f9 763c 2b84 abbd e0da 623d f150 943d
00000070: 9512 34bc 161f b2bd 9005 68bd ee7d 553c
00000080: 73ea a13d 75bb c13c 255d 76bd af4f 463c
00000090: e359 94bc 5cb6 893c eed2 a83d ae48 9abd
000000a0: beb7 e2bc 626b 85bd f3fb a43d f30e 83bd
000000b0: ec8f 80bc d7a9 d7bd 8cc6 51bd 5be7 26bd
000000c0: 3862 a6bc 8826 e5bd 471c 2bbc cf5d 1ebc
000000d0: c063 a83d 90bc 36bd 1c48 87bd f757 1fbc
000000e0: 36d9 c7bd a6d5 7abc 00ea 783d 5b28 82bd
000000f0: 4201 39bd e298 963d 9b79 ad3d c426 4e3d
00000100: fe40 a23d 74f0 c53d 403c 3abc 974e 56bd
00000110: 3fe5 d0ba c80e 623c 8a3b d7bc 46f9 69bd
00000120: c0b7 e13d b27c 6fbc 2b03 9e3d 6d3e 9f3c
00000130: 2af6 903d 2d83 f33b 3a52 523d fbfc 7dbd
00000140: 77ce 613d 5da9 0cbc c62a 533d 874c f7bc
00000150: 719a 003d bef7 b8bd df4d 9abd b131 e83d
00000160: 9301 663d 7eb0 babd df20 8ebd 0c72 cebd
00000170: be85 a63d f7f3 e0bc c9aa ff3b af41 5e3b
00000180: df37 3d3d 33c7 42bd 10ee 9e3c fd92 c8bd
00000190: 30a1 a33d 0c43 b6bd 90b2 f4bc edf3 0abd
000001a0: ddeb 73bd f13a a9bb 0be7 6e3d a967 0fbc
000001b0: 76ec a4bc 4b00 61bd b469 36bc 02e8 a6bd
000001c0: 940d b03d f03b 8f3c f5a9 7dbd 63c0 1dbc
000001d0: 0793 f83c 1c92 033e bcd5 2fbd c562 8cbd
000001e0: e12c f9bc bc45 103c d0df 383d 6cd7 e53c
000001f0: 99e0 c13d 7b14 ffbc 2546 abbd 41b5 083d
00000200: 81b2 a03d fb20 c53d 3f47 8d3c d704 673c
00000210: 4ae6 683d 0580 7a3d a1cf 03be 2848 28bd
00000220: 690e 943d 75e2 3ebd 4fd0 a8bd b802 88bd
00000230: c75d 05bd 6a0a d13a 6c49 c03c a9c6 abbd
00000240: c94a 023e 9101 c03c 2fcb ce3d 04dd cebd
00000250: 4238 c73d c5d8 0e3d 4dac e7bd e6ab 8f3d
00000260: 228e 8b3d 5a0f 7cbd 8d97 8d3d e18a 7dbc
00000270: 5c59 40bc 12f3 04bd 316d 5abd 8efa a03d
00000280: 38e6 4cbc 2fdc 37bd 5e5a 913d 2b87 98bd
00000290: 843c e5bd 0541 563d b104 003e d9e4 62bd
000002a0: becf 56bd ddee 65bd 7958 873d aae8 1b3a
000002b0: a76c 81bd e76b 22bd 91e0 f0bd 230b 233d
000002c0: 5d2e 47bd aa38 5dbd 3238 8e3d 3136 863d
000002d0: d11b cebd 436f 923d c619 a93d 362d b93d
000002e0: c65c 7f3d e45e a93c 399a ffbc 2314 e5bc
000002f0: 1fd1 e3bd b6d8 e5bc f5c6 823d f7f0 d03d
00000300: 2852 b73d 11ab 9d39 af4d 193d e7f4 35bc
00000310: fb69 f3bc 9bfe 4a3b 57a5 f53c f2e5 ee3b
00000320: 6c5b 403d ae03 853d 826b db3d 8201 623d
00000330: b070 6cbd c91f 2e3d 5e65 bb3b 4e7d 90bd
00000340: 2bf7 233d 58a2 b23d dadc 12bd e671 3a3d
00000350: a663 57bd f81a 8e3d db75 963d 9680 863d
00000360: 95f5 e2bc 26c4 963d c8f2 c0bd 21dc 89bc
00000370: 610f 8b3d 8ba9 cdbc 9a3a bb3d f7f2 a83d
00000380: d5f4 fc3d 1c4f fabc 81d8 6c3d 6413 da3d
00000390: ab0a 883d 0a71 093c d90f 763d 81d6 bb3d
000003a0: 038b 103d 4384 bb3a 8ea0 d7bc f409 ed3d
000003b0: fe9b 0f3d 7da9 e73c 8865 313d 0c98 5cbd
000003c0: f1a4 ab3d eceb 443d 191f 973c 0b58 a3bd
000003d0: 3982 7b3d 0960 f23d a8f1 1c3d c8c7 c33d
000003e0: 2e1e 9b3d 0570 b03d 08a9 8cbd 204f 50bd
000003f0: f8a6 bd3d 9911 233d fba2 0c3d dabd 2f3d
0.05791849 0.093454845 -0.11476538 0.002053045 0.054419428 0.015626922 -0.036634047 -0.045691468
0.055941075 0.0017098531 0.039782386 -0.0807735 -0.06993326 0.045940593 0.032051384 0.082472496
-0.084346876 -0.036305226 -0.08623809 0.09585246 0.006598508 0.039016835 0.06412111 0.021135457
0.015074208 -0.083748184 0.055384517 0.07242001 -0.010990758 -0.086973354 -0.05664593 0.013030512
0.07906046 0.023648957 -0.060147423 0.012103959 -0.018109268 0.016810589 0.08243357 -0.07533394
-0.027675506 -0.06514622 0.08055868 -0.06399336 -0.015693627 -0.10530441 -0.05121474 -0.04074798
-0.020310506 -0.1118899 -0.010443754 -0.00966592 0.08222151 -0.04461342 -0.06605551 -0.009725562
-0.097582266 -0.015309727 0.060770035 -0.063553534 -0.045167215 0.07353379 0.0847046 0.05032994
0.079225525 0.096650034 -0.011366904 -0.052321043 -0.0015937461 0.013797469 -0.026273508 -0.05712249
0.11021376 -0.014617132 0.07715448 0.019438947 0.07078202 0.007431409 0.05134795 -0.06200884
0.05512854 -0.008585301 0.051554464 -0.030187858 0.031397287 -0.09031628 -0.07534384 0.11337603
0.056153845 -0.091156945 -0.069398634 -0.100803465 0.08130978 -0.027460082 0.0078023416 0.0033913662
0.04619586 -0.047553252 0.019400626 -0.09793661 0.079897285 -0.08899507 -0.029870301 -0.033924032
-0.05955111 -0.005164497 0.05832581 -0.008752742 -0.020132285 -0.05493192 -0.0111336 -0.08149721
0.0859634 0.017484635 -0.06192966 -0.009628388 0.030343546 0.12848705 -0.042928442 -0.06854776
-0.030416908 0.0088056885 0.04513532 0.028056823 0.09466667 -0.031137696 -0.083629884 0.033375982
0.07846547 0.09625431 0.017245887 0.014100275 0.056860246 0.061157245 -0.12872173 -0.04108444
0.07229311 -0.046602685 -0.08242857 -0.066411436 -0.032560136 0.0015948538 0.02347251 -0.08387501
0.12723841 0.023438247 0.10097348 -0.10100749 0.09727527 0.034874696 -0.11312161 0.07015209
0.06814219 -0.061538078 0.06913672 -0.015475006 -0.011740055 -0.032458372 -0.05332679 0.078602895
-0.01250606 -0.044887718 0.07097314 -0.07447656 -0.11193183 0.0523081 0.1250179 -0.055394027
-0.052444212 -0.056136 0.06608672 0.00059474504 -0.06319552 -0.039653685 -0.11761583 0.039805543
-0.0486282 -0.054009117 0.06944312 0.06553305 -0.10063899 0.07150128 0.08256869 0.090418264
0.062344335 0.02067513 -0.031201469 -0.027963703 -0.11123871 -0.028057437 0.06385604 0.102022104
0.08951217 0.00030072828 0.0374276 -0.011105753 -0.029713621 0.003097451 0.029986067 0.007290595
0.046962187 0.064948425 0.10713865 0.05517722 -0.057724655 0.04251078 0.005718871 -0.0705515
0.04003064 0.08722371 -0.03585515 0.04551878 -0.052585267 0.06938738 0.07346698 0.065674946
-0.027704993 0.07361631 -0.09421307 -0.016828598 0.06790043 -0.025105258 0.09142037 0.08249467
0.123513855 -0.0305553 0.05782366 0.1064823 0.0664266 0.008388767 0.060073707 0.09171773
0.035288822 0.0014306385 -0.026321676 0.11574164 0.035060875 0.02827906 0.04330972 -0.05385594
0.083810695 0.048076555 0.018447446 -0.07975777 0.061403487 0.118347235 0.0383164 0.095595896
0.07574116 0.08615116 -0.06868178 -0.05085671 0.092603624 0.039811704 0.034335118 0.042905666

layers.1.lin_self.bias f4 [96]
00000000: d848 8cbc e023 a93b 9288 713d 8793 0b3d
00000010: 8ff9 adbd 3aa2 82bd 89a3 75bd e009 b33d
00000020: de7c 333c 7306 41bd 2f49 8b3c f960 193c
00000030: b7fe 653d b893 9fbd 4424 023c c434 db3d
00000040: 99e2 453c 002a ea3d 22e6 b63d c71c 2c3c
00000050: d0aa d43d 520f 98bc 4c1a 813d 8ecb cf3a
00000060: 20b9 c1bd 3789 b73c 3c58 f43c aa26 5abd
00000070: 48ec cc3d 14fd 88bd 1af3 9fbd 2d46 54bc
00000080: b7b3 0e3d 8458 9d3d 5a08 73bb fe50 82bd
00000090: 3ca8 003d 8a7a df3d 11e1 e43d d709 613c
000000a0: 2e26 403b c6cc 8cbb 7ac8 ef3d 4009 c83c
000000b0: 9d33 f53b eab9 203d a128 7bbd 08ac 0f3c
000000c0: 99f0 8dbd 5ecb 663d 62e6 b23d 63a7 023d
000000d0: cf34 9bbc 3fbd b83d 7f95 0e3d e1b1 97bd
000000e0: 92f7 9abd 0c91 493d 1288 c53d 3875 d13d
000000f0: d05d 173d 797d 58bd 5a1b 60bd 967b 9f3c
00000100: 58ad 9a3d eec3 30bc 1706 563d b08c a63d
00000110: daaa 523d 46b1 56bc f870 cabb 0d10 93bd
00000120: a07c 7d3c e419 99bd 3193 b73d 3ed8 223d
00000130: f275 663d bcfd a73d 4b3e 1fbd 1ec7 dd3c
00000140: 088e b8bb 1f03 713d 1a69 2d3d 4695 543d
00000150: 89eb 1e3c fc89 aa3d 7ab2 15bd 2082 95bd
00000160: d0f1 98bd 0d35 973d b9b0 8abd 7a06 3bbd
00000170: b2a6 8ebc 6c98 8137 feb4 cd3d 0751 e43d
-0.017124578 0.0051617473 0.058968134 0.03407624 -0.08494865 -0.063785985 -0.059970412 0.08742118
0.010955064 -0.04712529 0.01700267 0.009361499 0.056151118 -0.07791847 0.007943217 0.107034236
0.012077951 0.11433792 0.08930613 0.010504908 0.103841424 -0.018561993 0.06303844 0.0015853511
-0.09459138 0.022404296 0.02982723 -0.05325953 0.100060046 -0.06688896 -0.0781004 -0.012956184
0.03483936 0.07682899 -0.0037083835 -0.06363104 0.03141044 0.10912044 0.111757405 0.013735256
0.0029319632 -0.004296872 0.1170816 0.024418473 0.0074829594 0.0392398 -0.061318044 0.008769043
-0.06930656 0.05634629 0.08735348 0.031897914 -0.01894608 0.09020471 0.03481054 -0.074069746
-0.075667515 0.049210593 0.09645094 0.10227436 0.0369547 -0.052854035 -0.054713584 0.01946811
0.07552594 -0.010788901 0.0522519 0.08132303 0.051432468 -0.013103789 -0.0061780177 -0.07180796
0.015471607 -0.07475641 0.089636214 0.039757006 0.056264825 0.08202693 -0.038877767 0.027072486
-0.005632166 0.058840867 0.04233656 0.05190017 0.009699711 0.083271 -0.03654716 -0.0730021
-0.07467997 0.073831655 -0.067719884 -0.045660473 -0.01741347 1.5448975e-05 0.10044287 0.11148267

layers.1.lin_neigh.weight f4 [96, 96]
00000000: 33e4 2bbd 43b7 873c 2388 ddbd 5cd6 bcbd
00000010: f7fa 10bd 26b5 64bc 00a1 743d 8295 bbbc
00000020: 7bcb e63c 3664 dfbd a189 d8bc eecb 493b
00000030: cbf6 bfbc e454 7c3d 4ef7 ed3c 8cc4 d13d
00000040: f4bf 563d e301 553d 3a38 d2bd bcec 6a3d
00000050: 3294 b0bd 662e c33d 7bd5 5c3d c21d 29bd
00000060: 1e5e bfb9 782a b3bb 1dd2 1abd c14a 203c
00000070: a57a 34bb d9e8 5a3a 1e42 883d 5944 4cbd
00000080: 3dd2 b8bd 4e28 7bbd 6380 c8b9 edbb 21bc
00000090: 5a9f 3cbd da84 f6bc f9df c03d 254e 68bd
000000a0: 71ed 8d3d 9a3c a53c 9127 24bd 6888 00bc
000000b0: 2511 a63c 91d0 213d 0133 a8bb bbd9 6bbd
000000c0: fcf6 3b3d ac25 45bd b0c5 0b3d 53da 183e
000000d0: 4be1 de3c 2995 cf3d a55e 0cbc 735f 5dbd
000000e0: 0662 c13c f920 cf3d b8fd 243e 0afe fa3d
000000f0: 61f3 3b3c 23b5 a4bd ea1d 943d 8bc9 9b3d
00000100: b6ff bdbd 7e52 9c3b 143c 823d 9d63 97bc
00000110: d216 e53d 3f11 61bd 6c6a adbd bab4 b0bd
00000120: 78af 32ba 2eab 2fbd 711b 57bd fbf0 9b3d
00000130: 648e 083c ef34 7abd 7b0a e0bc 2129 013d
00000140: 08e0 b8bc 1187 173e ce7b 283d aa5b 41bd
00000150: d4a0 7cbd 8918 66bd 8d42 d3bd c1e4 b23d
00000160: 8681 d0bd c408 1d3d de2d 89bd 172d a03c
00000170: 9707 b33d 6cb4 3f3d 080d 763d 4407 263d
00000180: 4ff0 c53d c602 c53d ddaa 7f3b 1dbc 3ebd
00000190: 9077 4fbc b74d 57bc 153f 823c 8c67 39bd
000001a0: 3a79 a3bd 4c4f b13b 262d 013e e753 f13d
000001b0: 2b00 b0bc b106 e53d db30 8fbd 2a7c 813b
000001c0: 8311 98bd 9ee5 e13d 251f 94bd a859 7b3b
000001d0: 3891 aabd 5668 d53d 9999 7cbd e0ce 833d
000001e0: d57b 87bd 77e7 383d d812 053d 047c e33d
000001f0: 4782 933c df2c f23d 5cb0 c93d 1d2b c53d
00000200: 296f ba3d 8645 eeb9 86d6 0a3d 1b67 5dbd
00000210: c46b 233d b243 a93d b9f4 c5bc 2d47 8dbd
00000220: e796 2cbd 0614 9b3d c430 57bd 61bd d73d
00000230: 3436 adbc 7a6c a93c b431 2f3c 6721 dbbc
00000240: ef4b 6bbd 13ff 4a3c 2e8b febc 5074 fcbb
00000250: b75f c43b d928 813c e37c 053d 7c33 d23d
00000260: 5e92 00bd 96a6 33bc 1c6e 71bd 967b d53d
00000270: 4903 883c a5f3 97bb b97a 9abc e061 483b
00000280: 3b13 aebd 6034 8cbd 9016 cbbc 056c d63c
00000290: ca72 2fbe 09d4 d03c 9802 00bc dbcc 933d
000002a0: ce2f b03d cb63 da3d 2b26 e53c f28a fb3d
000002b0: dd07 e13d f043 c1bb de73 f9bd 792b 8cbb
000002c0: cc69 b83d 1431 f0bc 5091 12bd cc62 b93b
000002d0: cf8a a63d e51a 923d 1a16 e63d 75d3 803d
000002e0: ba35 1abc b486 8abd 3dde b23d cfcc 4bbd
000002f0: 197e f7bd fcd0 34bb 3a94 b23c 07ec 5fbd
00000300: a2c8 c23d 1e12 193d 70eb 223c 778f 9bba
00000310: 46d6 8bbc ca82 ae3d 38fd ae3d 3f3f b9bd
00000320: 961d f1bc 3ee9 df3c 267a 5abd bf63 4dbd
00000330: 064a 5d3d cbfc 4c3c ea8f 1dbe 5dad d83d
00000340: 712c 23bd 83a2 94bd f7aa e63c a5e1 b5bd
00000350: af10 be3d a2bb b13c 8839 1dbc 58f3 803d
00000360: 4a17 bcbc 78bc 133c 7935 333d 499d f53d
00000370: 29fd 95bd 5983 f63d 5115 80bd d6c6 a23d
00000380: 6e58 3cbd f1ce 4d3c 3703 ffbc 963d ed3d
00000390: 5fed 993d f063 0c3d 7cd7 543d c328 5bbd
000003a0: 8a21 50bd e791 d23d 4f1c be3d 44a9 833d
000003b0: 1cdd 0abc 765f b63b beb7 0b3e 38ba 413c
000003c0: 5c14 86bd 328b c93d f1ef 053a 70f4 2dbe
000003d0: 1f7e fbbc d02f 65bd 1362 28bd f947 9b3c
000003e0: 6ec7 803c bcfe b43d 4ca0 adbd b073 ff3d
000003f0: b4ee 4ebd 157c 6ebd b2c4 d43c 55ba e93d
-0.041965675 0.016566878 -0.10816982 -0.09220573 -0.03539559 -0.013959205 0.059723854 -0.02289844
0.028173199 -0.109077856 -0.026432814 0.0030791718 -0.02343311 0.061604396 0.029048588 0.102425665
0.052429155 0.052003752 -0.102646306 0.057354674 -0.08622016 0.09530334 0.05391453 -0.041288145
-0.00036500482 -0.005467709 -0.037798036 0.009783448 -0.0027538922 0.0008350737 0.06653236 -0.04986987
-0.09024475 -0.061317734 -0.00038242628 -0.009871465 -0.046050407 -0.030092645 0.094177194 -0.05671515
0.06930054 0.020170499 -0.040076796 -0.007845022 0.020271847 0.039505545 -0.0051330333 -0.05758069
0.04588984 -0.04813163 0.034124076 0.14927034 0.027207037 0.10135872 -0.008567487 -0.054046106
0.023606312 0.10113711 0.16112411 0.12255485 0.0114716 -0.080423616 0.07232268 0.07606801
-0.092772886 0.004770576 0.06359115 -0.018480117 0.11185993 -0.054948088 -0.08467564 -0.08628221
-0.0006816308 -0.04288786 -0.052516405 0.07614323 0.00833473 -0.061085638 -0.027348747 0.031533364
-0.022567764 0.14797617 0.041133694 -0.04720656 -0.061676815 -0.056175742 -0.10315428 0.087350376
-0.10180955 0.038338438 -0.066982016 0.01955275 0.08741682 0.046802923 0.06007102 0.040534273
0.09664976 0.096196696 0.0039011755 -0.046566118 -0.012662783 -0.013141087 0.01589922 -0.045264766
-0.079821065 0.0054110643 0.12614879 0.11783581 -0.021484455 0.11182917 -0.0699174 0.003951569
-0.07425215 0.11030124 -0.07232503 0.0038353 -0.083284795 0.10420291 -0.06166992 0.06435943
-0.06615416 0.045142617 0.032488674 0.111076385 0.018006457 0.11824965 0.09848091 0.09627364
0.09103233 -0.00045446696 0.03389599 -0.054053407 0.039897695 0.08264865 -0.024164544 -0.06898341
-0.0421361 0.075721785 -0.05253674 0.10534168 -0.02114401 0.020681608 0.0106930025 -0.026749326
-0.057445463 0.012389916 -0.031072225 -0.007704295 0.0059928554 0.015766548 0.032589804 0.10263726
-0.031389587 -0.01096501 -0.0589429 0.10423963 0.016603129 -0.004637199 -0.018857347 0.0030575916
-0.08499762 -0.06845927 -0.024791032 0.026174555 -0.17133632 0.025491731 -0.007813118 0.072168075
0.08602868 0.10663565 0.027972301 0.12282361 0.10987828 -0.0058979914 -0.12180303 -0.0042776433
0.09004554 -0.029320277 -0.035783112 0.0056575295 0.081319444 0.07134036 0.11234684 0.06290332
-0.0094122235 -0.06763974 0.08733795 -0.049755868 -0.12084598 -0.0027590385 0.021799196 -0.054668453
0.09510924 0.037370794 0.009943828 -0.0011868317 -0.017069947 0.0852104 0.085443914 -0.09045266
-0.029433053 0.027332898 -0.053339146 -0.050143953 0.054025672 0.012511442 -0.1538693 0.105799414
-0.039837305 -0.07257559 0.028157694 -0.08880929 0.09280526 0.021695916 -0.009596236 0.06296414
-0.022960324 0.009017102 0.043752167 0.119928904 -0.07323677 0.12036771 -0.06254066 0.07948081
-0.04598277 0.012561546 -0.031129463 0.11584012 0.07515978 0.034274995 0.051963314 -0.05350567
-0.050813235 0.10281735 0.09282743 0.06428769 -0.008475568 0.005565579 0.13644311 0.011824183
-0.06546852 0.098410025 0.00051093014 -0.16987777 -0.030699788 -0.0559538 -0.041109156 0.018955218
0.015720095 0.08837649 -0.0847784 0.124732375 -0.050520614 -0.058223803 0.025972698 0.11412493

layers.2.lin_self.weight f4 [96, 96]
00000000: 8a77 533c 98a8 83bc cf6b 8c3c 649b 033d
00000010: 35db 3fbd 7345 d9bd 1bca a23d 4887 f6bc
00000020: 123c 8bbd e054 cebc 3011 843b b9a3 bcbd
00000030: 2ca6 ca3b 1b98 943d 3f02 b53c a22f 893d
00000040: 800b 57bd a15f b3bc 2ddb 98bd 8627 213d
00000050: ef20 a8bd c601 e13b 5f4e 97bd 1396 44bc
00000060: a4a2 fdbc ff1a 5a3d 48fa 90bc 9a8e b13c
00000070: 5a6a 86bc 0559 59bd f444 ac3c ca7c c33c
00000080: 6f8a 22bd 3fb2 45bd bb6e 443d 6da6 3b3c
00000090: 1d24 163d fe0c cd3c d640 c6bd 51c1 e03d
000000a0: af17 2dbc 5570 13bd 1588 2dbd 2df7 0cbd
000000b0: b6de d53d 7603 7bbd 0f02 cfbd b181 0a3d
000000c0: c88c d0bd 34e7 df3d 8797 403d 315c 9a3d
000000d0: 5abc 49bd 8403 af3d cf40 193d 643c 963d
000000e0: 2409 a4bc 71f8 37bd bf1b c43d 48a2 33bd
000000f0: edda 5cbb 5283 303d 155d 503d 6f62 893c
00000100: 833f 03bd 30e7 c43c d1a5 2dbd 406c 51bd
00000110: 12c0 1d3c d8e8 f63c 95f2 c0bd 6c63 3dbd
00000120: 78ec 22bd e21c 0fbc de7f ad3d 6bb5 a0bd
00000130: 99dd 6cbd 0959 e33d f68d 8b3c 13ad 54bd
00000140: cb78 813d 43f4 66bd 77f8 bdbb e8d4 54bd
00000150: f3c9 c23b 9da5 833d f71a da3d a14a 863d
00000160: 5680 ed3b e3c0 a33d b9bb f13d 4fea 1cbd
00000170: c845 8ebd 4cbd 27bb 6f3c 45bd 0b29 1f3d
00000180: 1561 aa3d 8747 043c ab02 e1bc fa6c 063d
00000190: f57e babd dfd8 2b3d 5dfb 2abd 2f34 97bd
000001a0: f772 f1bc 6272 c33d 8461 5ebd 7c73 9bbd
000001b0: c0b4 813d c252 b3bc 9490 e2bc ab76 4f3d
000001c0: 4ed8 183d ff5e a73c cde3 b03d e62a c2bd
000001d0: 9dd9 41bd e161 863d 829a b8bd e857 b3bc
000001e0: dd2e ab3c 3dd5 8c3b 34bf 3c3c 549e 84bd
000001f0: b8f7 e73c 8714 a2bd 8c1e d7ba 1fb0 5fbc
00000200: db91 8e3d b7e1 c5bd 8cff 93bd f29a b53d
00000210: 4da9 bd3d 6d17 72bc 05b3 683d e9e0 8abc
00000220: 9e47 a13d 852f 90bd fa46 85bd 7b31 ccba
00000230: 65ac 42bd 09d4 523d 8e4c 56bd 6809 693d
00000240: 1904 bcbd ca03 8abd 5b00 80bd 0d35 6e3c
00000250: 45ea b13d ba6a f33c 746d a8bd 2d18 e5bd
00000260: be0e f53c d242 333d 1101 7b3d c845 aebd
00000270: c181 a5bd b634 9c3d 04a3 983d 01d8 f4bb
00000280: cf55 e7bd d4d5 ba3d 6f70 123d 3140 58bd
00000290: e2dc 22bd da06 b7bb 0335 a23d fd8b 44bb
000002a0: 9638 553d d143 fe3c 44d6 82bd a8cb e2bd
000002b0: a83e 4d3d fc83 6bbd d362 153d 110c 4c3d
000002c0: 40c2 dbbc 676a 8ebd 668f be3d 98b2 65bd
000002d0: bc02 ac3d e7a4 ad3d 3cda af3d af04 c23d
000002e0: 7b7c 95bc f61d 813d 4dd6 bbbd c994 173b
000002f0: a360 91bd a8c0 abbd 90bd 233d 510a 71bd
00000300: 420c 1f3c 4194 cfbd 2d2d 58bd a484 013d
00000310: d905 b93d ec9d ab3c 745c 14bc 7788 6cbd
00000320: 17ad 8fbd 0b28 6fbd 586b 953d 7ebc c6bc
00000330: c238 c13d 6899 083d c41e 56bd 4807 7abd
00000340: 00fc 0fbd 5d40 9fbd 7e0e c83d f8ec 47bd
00000350: 853b c2bd 5401 8fbd 38e7 6a3b 7b8e d53d
00000360: b366 c2bd 977a 303c cbbd 1c3a b1e5 0bbc
00000370: 432e 863d bac9 33bd 3a51 183d 7d42 b83c
00000380: b4db aa3d 3d5d a63d d88a 8b3d 3230 73bd
00000390: 0fac 36bb e7b1 a6bd f53f 063d e9f8 933d
000003a0: 8d5b e73a 4cc9 bebd ac7f 74bd d06e 523d
000003b0: 015b 943d 1663 88bd 7d1d 9dbd faab 533c
000003c0: 9ef6 423d 87ac c93a cc8a 22bc 3e2f b53d
000003d0: af78 31bd 4cce 293d e005 6bbc 6e1e a23d
000003e0: afcd 1b3d 4647 063d 764d a13d 48bc aebb
000003f0: 4c9f 0bbd 03d1 afbd bb32 b63d 5e68 7d3d
0.012906918 -0.016071603 0.01714125 0.032130614 -0.04683991 -0.106089495 0.07948705 -0.030093804
-0.06798567 -0.025186956 0.004030369 -0.09210915 0.00618436 0.07255574 0.022095798 0.06698538
-0.0525012 -0.021896185 -0.074636795 0.039344333 -0.082094066 0.0068666665 -0.07387995 -0.011998671
-0.030961342 0.0532484 -0.017697468 0.021674443 -0.016408134 -0.05306341 0.021028973 0.023863215
-0.0396828 -0.04826569 0.047957163 0.011453253 0.036655534 0.02503061 -0.09680335 0.10974372
-0.010564729 -0.0359958 -0.042366106 -0.034415413 0.10442869 -0.061282597 -0.101078145 0.03381509
-0.10183102 0.1093277 0.047019508 0.07537115 -0.04925189 0.085455924 0.037415322 0.07335737
-0.02002389 -0.044914667 0.09575605 -0.043855935 -0.0033699826 0.043093987 0.05087002 0.01677057
-0.03204299 0.02403602 -0.042394463 -0.051128626 0.009628313 0.030140325 -0.09421269 -0.046237394
-0.039776295 -0.008734914 0.08471654 -0.07847103 -0.05782852 0.111009665 0.017035466 -0.05192287
0.063218676 -0.05638529 -0.0057974416 -0.051960856 0.0059444844 0.064280726 0.106496744 0.06557203
0.007247965 0.079957746 0.118033834 -0.03830939 -0.069469035 -0.0025595007 -0.048153337 0.0388575
0.08319298 0.008073694 -0.027467092 0.032818772 -0.091062464 0.04195487 -0.041743625 -0.07383
-0.029473765 0.09543301 -0.054292217 -0.07590386 0.063333035 -0.021890048 -0.02765683 0.05065028
0.03731566 0.02043104 0.086371996 -0.094808385 -0.047326673 0.06561638 -0.09013845 -0.021892503
0.02089637 0.004297881 0.011520196 -0.06475511 0.028316364 -0.079140715 -0.0016412302 -0.01365283
0.069614135 -0.09662192 -0.07226476 0.08867444 0.09260807 -0.014776093 0.05681135 -0.016952949
0.07874988 -0.07040314 -0.06507678 -0.0015578711 -0.04752769 0.051471744 -0.052319102 0.056893736
-0.09180469 -0.06739004 -0.06250068 0.0145390155 0.086872615 0.029713977 -0.082240015 -0.11186252
0.029914256 0.043764897 0.061280314 -0.085094035 -0.08081389 0.07627241 0.07452968 -0.0074720387
-0.112956636 0.09122816 0.035751756 -0.052795593 -0.03976143 -0.0055855336 0.079202674 -0.0029990666
0.052055918 0.031038197 -0.06388524 -0.110740006 0.05010858 -0.057498917 0.0364712 0.049816195
-0.026826024 -0.069538884 0.09304695 -0.056078523 0.08398959 0.08478718 0.08586547 0.094735496
-0.018247833 0.06304543 -0.09171734 0.0023129454 -0.0709851 -0.08386356 0.039975703 -0.05884773
0.009707512 -0.10135699 -0.052777458 0.031620637 0.090343185 0.020949326 -0.009055246 -0.05774733
-0.07015436 -0.058387797 0.07295865 -0.024259802 0.09434654 0.033349425 -0.052275434 -0.0610421
-0.035152435 -0.07775948 0.09768389 -0.048809975 -0.09484009 -0.06982675 0.0035843384 0.104275666
-0.094922446 0.010771415 0.0005979209 -0.008538649 0.065517925 -0.043893553 0.03718684 0.022492642
0.08342686 0.081232525 0.06813592 -0.059372135 -0.002787355 -0.08139401 0.032775838 0.0722521
0.0017651186 -0.09315738 -0.05969207 0.05137521 0.0724392 -0.06659524 -0.0767164 0.01291942
0.047598474 0.00153865 -0.009920787 0.08846901 -0.043327983 0.041456506 -0.014344662 0.0791596
0.038037952 0.032782815 0.078761026 -0.0053325035 -0.034087464 -0.08584788 0.08896395 0.06186711

layers.2.lin_self.bias f4 [96]
00000000: 961b 623d 1e8f ad3d b3d9 de3d 656e c03c
00000010: d40d f43c 508e da3d c392 c23d 5046 d33d
00000020: e026 71bd 3917 2abd b590 8e3d 64ae 973d
00000030: dd38 3d3d 1de9 36bd 4190 a83d 808f 0abd
00000040: 7118 dfbc 97b7 75bd d649 363d 411c 62bd
00000050: 3cff 843b e9d8 06bd e947 10bd 2e1a 0bbd
00000060: f803 6f3a 2c40 563b 343e 0f3d c38d 57bd
00000070: a089 4dbd 8bc3 623d 31be 5bbd c983 093a
00000080: 301e 183d cf5e ba3c f6e9 d7bc 188a 393d
00000090: 10f8 f5bc 2147 cabd 93c4 de3d bfd7 d7bb
000000a0: 9392 5abd 14be 3ebd 564b e93d 7f8d b83d
000000b0: 96e9 da3d 22d9 acbd a92c cdbc a469 c0bd
000000c0: e849 ba3b 8af5 903c 83af 54bd 23fe bf3b
000000d0: 475f 0ebd 95e4 ca3d 515e 9e3d 053f 763b
000000e0: 39a9 0a3d 275e 993d b2a5 aebd cf95 bc3d
000000f0: b94e a3bd 3c0c 00bb df6c cf3d 44ac 2c3c
00000100: df95 8e3d d807 0bbd 8206 943d ad58 a8bc
00000110: 427d 5fbd 25e5 133d 2c1a c1bb 3170 fabc
00000120: 32f7 8abd 15a1 bb3d 5766 0cbd aa32 713a
00000130: f419 b8bd 9ff9 043e 5406 a6bd 410f b33d
00000140: 5022 b7bc 2871 8abd 3493 26bc 3862 5cbd
00000150: 178e 6cbc d31d af3d b090 fc3c 6950 d43d
00000160: 2122 db3c 1e9f f33d 323d f3bc 4c83 98bd
00000170: 7f77 b43d e554 4abc b12e c63d 5b05 c93d
0.05520209 0.08474563 0.108813666 0.02349014 0.02979175 0.10671675 0.09500649 0.103161454
-0.058874965 -0.041526053 0.069611944 0.07406309 0.046196807 -0.044655908 0.08230639 -0.03382826
-0.027233334 -0.059989538 0.04450401 -0.055202726 0.0040587466 -0.032921705 -0.03522483 -0.033960514
0.0009117718 0.0032692058 0.03497143 -0.05262543 -0.050180078 0.055362266 -0.053648178 0.0005245773
0.037138164 0.022750286 -0.026356678 0.045297712 -0.030025512 -0.09876848 0.10877337 -0.0065869982
-0.05336244 -0.04656799 0.11391322 0.09011363 0.10689084 -0.08439852 -0.02504571 -0.09395149
0.00568508 0.017695207 -0.051925194 0.005859153 -0.034758832 0.0990688 0.07732833 0.0037574184
0.03385279 0.07488661 -0.085276976 0.09208261 -0.079739995 -0.0019538542 0.101281874 0.010539118
0.069621794 -0.033943027 0.07227804 -0.020550096 -0.054562815 0.0361072 -0.0058930125 -0.030571075
-0.0678543 0.09161583 -0.034277286 0.000920097 -0.08989325 0.12985848 -0.08106676 0.08743144
-0.022355229 -0.06759864 -0.010166932 -0.053804606 -0.014438174 0.085506104 0.030830711 0.103668995
0.026749672 0.118955836 -0.029692266 -0.07446918 0.088118546 -0.012349342 0.096768744 0.098154746
