outputs/models/nowcast_sage_no_next_seed999.pt (torch, 272248 bytes, 14 tensors)

in_lin.weight f4 [96, 14]
000000 b5 61 a6 3d 33 aa fd 3d 12 97 83 be a1 96 8e 3e
       0.08124105 0.123859785 -0.25701195 0.27849296
000010 cc bf 82 bb c7 70 88 3e 0b d5 38 3e b6 ca a4 be
       -0.003990149 0.26648542 0.1805002 -0.32185906
000020 fb 78 e9 bd c7 39 85 3e 68 57 3b be b0 47 23 be
       -0.11400028 0.26020643 -0.18295062 -0.15945315
000030 f9 78 8d bd 4d e3 ed 3c 62 91 73 3e 37 1d 3c be
       -0.06907839 0.02903905 0.23785928 -0.1837052
000040 7f 98 30 3e bb 36 06 bd 6a b8 8e 3c 3c 5b 20 be
       0.17245673 -0.03276704 0.01742192 -0.15659803
000050 99 07 ef bd 34 e5 89 3e 4a c0 4f 3e 92 a3 26 3e
       -0.11671371 0.2693268 0.20288196 0.16273335
000060 72 e3 2b 3e 63 27 6e bc 01 db c2 3c 97 93 4d be
       0.16785982 -0.014535758 0.02378607 -0.20075832
000070 e3 17 74 be 2a 50 dd 3d 0b 0d 7d 3c e7 79 65 be
       -0.23837237 0.10806306 0.015445004 -0.22409783
000080 5f b2 12 3e 2a 2d 97 bc 7d b7 0e 3e f1 b1 25 bd
       0.14325856 -0.018454153 0.13937183 -0.0404529
000090 9c bb eb 3d db b2 57 3d 71 47 17 be 53 f1 24 3e
       0.11510393 0.052660804 -0.14773346 0.16107683
0000a0 b5 6f 6a bd 78 f3 94 3e a8 61 fa bd dd 30 25 3e
       -0.05723544 0.29092002 -0.12225658 0.16131921
0000b0 7c 03 23 3e 28 57 3e 3d a1 3b 0b 3d 0a 4e 46 bd
       0.15919298 0.046469837 0.033992413 -0.048414268
0000c0 cd 7d 58 be 64 ea 7e 3e 20 96 8b 3e 1c e9 82 3e
       -0.21141739 0.248941 0.27262974 0.25568473
0000d0 ae 6e 7b be cd 24 26 be 24 ae 00 3e a6 a4 be 3d
       -0.2455394 -0.16224976 0.1256643 0.09308748
0000e0 32 df 25 3e 9c 6d 9f 3e c9 ad 42 be 16 99 0c be
       0.16198424 0.31138313 -0.19011606 -0.13730273
0000f0 7a 99 79 be a5 b5 47 be e7 ee dd bd 93 52 9f 3e
       -0.24374953 -0.19502886 -0.10836583 0.31117687
000100 17 7c 64 bd 85 94 db bd 06 15 6c be e0 f1 70 3e
       -0.055782404 -0.10721687 -0.23054895 0.23529768
000110 17 51 3e 3e 21 b8 fb bd ac 88 23 be 53 49 8f 3e
       0.18585621 -0.12290979 -0.15970105 0.2798563
000120 e6 75 3a be f4 cd 8d 3c f7 3a 7c 3e 64 cb ec 3d
       -0.18209037 0.01731012 0.24631868 0.11562231
000130 77 19 21 bd 5b 3f 6a be b6 da 32 bd e1 90 4b 3e
       -0.039330926 -0.2287573 -0.04366561 0.19879486
000140 bd b4 18 be 8a a1 44 be 8b 55 7d 3e 61 18 3d bd
       -0.14912696 -0.19202247 0.24739663 -0.046165828
000150 dc 95 24 be f8 ea 01 3e 31 53 3d 3e 98 15 38 3e
       -0.16072792 0.1268729 0.18488766 0.17976987
000160 b1 54 8d bd b6 b6 51 be cf ab 6d 3e 25 54 c0 bd
       -0.06900919 -0.20479855 0.23210071 -0.09391049
000170 01 c4 8f 3e 3a e9 54 3d 34 06 1a bd 43 50 41 be
       0.28079227 0.051980235 -0.037603572 -0.18878274
000180 59 67 9b 3d 12 0b 50 be e1 9d 8f be 36 93 fb bd
       0.075880714 -0.20316723 -0.2805014 -0.12283938
000190 c6 41 b4 3d bf 9d 9e bd 34 f0 07 3e a7 b2 b1 3d
       0.08801608 -0.077449314 0.13275224 0.08676653
0001a0 e2 c5 ff 3d 4c 2c 6c be 80 6d 20 3c 04 fb 3d be
       0.12488915 -0.23063773 0.009791732 -0.18552786
0001b0 db cd 89 be b2 e5 76 3d 2a b8 94 3c 02 23 27 3d
       -0.26914868 0.06027765 0.018154223 0.04080487
0001c0 5e dc 6f 3e 5f 4e 60 be 77 23 05 be ad 2f 6b be
       0.23423907 -0.21904896 -0.1300181 -0.22967406
0001d0 a8 67 2d 3e c0 02 80 3e 36 70 e3 bd f4 ab 36 be
       0.16934073 0.25002098 -0.11105387 -0.17839032
0001e0 06 ea ef bd de 24 e8 bd 48 8a 85 3e f4 3e 0f bd
       -0.11714558 -0.11335157 0.26082063 -0.034972146
0001f0 a8 e7 03 be db e3 03 bd d1 f4 d8 bc a8 b2 97 3d
       -0.12881339 -0.03219972 -0.026483925 0.07407123
000200 35 a0 6c bd dd 13 fe bd a2 2c 03 3e cf 7e 3f be
       -0.057769973 -0.12406132 0.12809995 -0.18700717
000210 f4 58 6b 3e 88 41 12 3e 22 90 bc bc 55 4b 6f be
       0.22983152 0.1428281 -0.023017947 -0.2336858
000220 ed b8 97 be 2d fc 31 be 18 cb 91 3c bb df 6c be
       -0.29633275 -0.17381354 0.017797038 -0.23132221
000230 ea e7 78 3e 4b 05 56 3e 7c ec 08 3e ab 59 58 be
       0.24307218 0.20900457 0.13371462 -0.21127956
000240 74 7f 79 3e 5a 64 4b be 06 75 40 3e 61 77 99 3e
       0.24365026 -0.198625 0.18794641 0.2997389
000250 2d c6 83 bd 58 e5 44 3e 6e c0 23 bd 5b 72 3d bd
       -0.064342834 0.19228113 -0.039978437 -0.046251636
000260 ee 2c 01 3e 7a 20 ff 3d ca e2 f3 3b b9 f6 91 be
       0.12614796 0.12457366 0.007442807 -0.28508547
000270 a7 e1 1f be 01 b8 81 be 8c fb 0d 3e 29 f0 27 be
       -0.15613423 -0.25335696 0.13865489 -0.16400208
000280 26 fa 00 3e 15 2f bc bd 5f 54 90 be 77 db fd bd
       0.12595424 -0.09188668 -0.2818937 -0.12395375
000290 65 1b 74 bd 34 0c cc bd fb 4c 62 3e ef 55 4f 3e
       -0.059596438 -0.09963265 0.22099678 0.20247625
0002a0 a7 e6 79 bc 1c c0 e0 bd 00 d8 33 3e 68 b0 75 3e
       -0.015252746 -0.10974142 0.17562866 0.23993075
0002b0 ff 8a 48 be ea da 82 3e ef 1c 7b 3c 54 74 8b bd
       -0.19584273 0.25557643 0.0153267225 -0.06809297
0002c0 09 55 61 3e 24 15 89 3e 1a 15 a2 bd eb c1 55 3e
       0.22005095 0.26773942 -0.07914181 0.20874755
0002d0 e0 74 1e be 65 91 5d 3e 9c cf fa bd 18 48 2c 3e
       -0.15474272 0.21637495 -0.122466296 0.16824377
0002e0 0c fa 7f be 4a 2c 95 bd 94 bb 82 3e c8 47 5d 3e
       -0.24997729 -0.07283838 0.25533736 0.21609414
0002f0 11 85 8b bc 84 6a c4 3d f9 3e fa 3d 16 ee b2 bc
       -0.017031224 0.09590629 0.12219042 -0.021842044
000300 4e d2 94 be 57 78 5a be 3e e9 6f bc ed 26 51 be
       -0.290667 -0.21334969 -0.014643012 -0.20425005
000310 0e 60 84 be 87 ea 82 3e b1 4e 19 bd 0d 1b 38 3e
       -0.25854534 0.25569555 -0.03742856 0.17979069
000320 25 f5 92 bd 2b 1f 5e bd be 52 16 be e0 bf 93 bd
       -0.07175664 -0.054228943 -0.14680001 -0.072143316
000330 ed d1 9e 3e 62 fc 2c 3e ac 78 1a be 9d 75 14 3e
       0.31019536 0.16893151 -0.15085095 0.14497991
000340 42 d6 ea 3d 99 0c f4 3c 7f fc 39 be ef 50 84 bd
       0.11466648 0.029791163 -0.18162726 -0.06460749
000350 c2 8b 30 be 0c ec 16 3e 87 86 85 3e 45 5a aa bd
       -0.17240813 0.14738482 0.260792 -0.08317999
000360 bc 3e 06 be 1e be 9f 3e 55 d2 94 3e a0 3d 63 3e
       -0.13109869 0.31199735 0.2906672 0.22191477
000370 7a 67 a4 3d 6f f4 09 3e e3 3f a6 bd 2b 62 23 3d
       0.08027549 0.1347215 -0.08117654 0.039888542
000380 b0 32 ac bd d3 10 df bb 71 f2 ca bd 90 8d 35 be
       -0.084081054 -0.0068074255 -0.09909523 -0.17729783
000390 6b 39 e7 3c 66 fd 80 be 6a cc 2b 3e 1d c9 0c be
       0.028225621 -0.25193328 0.16777197 -0.13748594
0003a0 3a 61 8b 3e c2 48 74 3d c0 80 26 3e 93 b2 35 be
       0.27222615 0.0596397 0.16260052 -0.17743902
0003b0 f3 db 09 3e b0 38 69 bd e5 29 4d bd bc 35 fd bc
       0.1346281 -0.056938827 -0.050088782 -0.030909412
0003c0 b2 29 74 be 93 b8 5a bd 7c f3 56 bc a1 11 69 3e
       -0.2384403 -0.05339868 -0.013119575 0.22760631
0003d0 29 fa 1d be d9 09 70 bd b5 2d 53 bc ef 53 8e be
       -0.1542746 -0.05860314 -0.012889315 -0.2779841
0003e0 69 f5 10 be 32 ae 33 be 00 f0 61 3d 64 75 43 3e
       -0.14156117 -0.17546919 0.055160522 0.1908775
0003f0 86 75 91 be 08 94 92 3e 25 5d 08 3e 76 d9 cd 3d
       -0.28409976 0.28628564 0.13316782 0.10051243

in_lin.bias f4 [96]
000000 06 00 40 bd 31 06 c2 3d 84 2a 6a 3e 0c 4c 17 3d
       -0.046875022 0.09473837 0.22867781 0.03693776
000010 50 d0 17 3e 3b af 8f 3d 2c 6e cb 3d 1a 19 12 3e
       0.14825559 0.070158444 0.09933123 0.14267388
000020 97 d5 10 be 5b a4 57 3e 36 f1 f1 bd 01 8f 50 be
       -0.14143978 0.2105879 -0.118135855 -0.20367052
000030 61 21 1f 3e eb 5c 60 3e 25 fd 10 3e f8 12 3f bd
       0.15540077 0.21910445 0.14159067 -0.04664895
000040 75 1d 57 bd 34 20 c1 bd 11 34 2a be 43 f6 88 3e
       -0.052518327 -0.094299704 -0.16621424 0.26750383
000050 e5 88 62 be 76 c8 96 3e 47 f7 88 bd 30 10 cb bd
       -0.22122534 0.29449815 -0.066877894 -0.09915197
000060 fe 91 50 3e 64 5b 8e 3e 22 d9 18 3e 2c a5 9c bd
       0.20368192 0.278041 0.1492658 -0.076486915
000070 a0 f8 20 be 90 a6 35 be f1 58 15 3e 40 ca 62 bd
       -0.15719843 -0.1773932 0.1458471 -0.055368662
000080 b9 e9 df 3d 9e 2f 1d 3e fa 63 41 bd 0c 0c 09 3e
       0.10933251 0.15350196 -0.047214486 0.13383502
000090 89 de 04 3d b2 99 a9 3b ab 0a 85 3e 8f 82 04 be
       0.03243879 0.0051757926 0.25984702 -0.12940429
0000a0 05 24 03 3e 1e 13 83 3e 2d 4c 38 3e 3b d7 71 be
       0.12806709 0.25600523 0.17997809 -0.2361726
0000b0 00 d1 45 3e 15 49 66 3e 62 1b 16 be b1 10 3c 3e
       0.19318008 0.22488816 -0.14658883 0.18365742
0000c0 68 ca 5c bc 85 00 c3 3d 09 88 35 3d 78 4c b1 3d
       -0.013475992 0.095215835 0.044319186 0.086571634
0000d0 e8 f7 dd 3c bb 94 6b 3e 9f 3d 0f bd 25 90 8d 3d
       0.02709575 0.23005955 -0.034970876 0.06912259
0000e0 b7 7d 0e 3e 80 10 ec 3d eb cb 54 be a0 85 95 3c
       0.13915144 0.115265846 -0.20780914 0.018252194
0000f0 2f 57 5b bd 29 55 0f be ab 14 33 3e e7 84 89 3e
       -0.05354994 -0.1399733 0.17488353 0.2685921
000100 b4 56 1f be c9 47 c1 bd 78 76 70 3e 57 55 8d 3d
       -0.15560418 -0.0943752 0.23482692 0.06901043
000110 a2 6c 25 be 9e ff ec bd a3 b9 83 3e 95 f6 b7 bc
       -0.16154721 -0.115721926 0.25727567 -0.022456447
000120 5f ea 81 3d c7 3b 84 3c a1 0e ce bd a8 33 2d bd
       0.06343531 0.016141785 -0.10061384 -0.04228559
000130 48 14 7f 3e f0 1f 03 3e 75 ee 10 bd bb 24 13 be
       0.2491008 0.12805152 -0.03538366 -0.1436948
000140 03 82 0f be f4 73 01 be b3 76 4c bd 0a 7b 57 be
       -0.1401444 -0.12641889 -0.049917888 -0.2104303
000150 5a ac 49 be c4 77 c2 bb 55 60 57 be c3 66 28 3e
       -0.19694653 -0.0059346873 -0.21032842 0.1644545
000160 4e 7b 70 3e ea 37 08 3e cf 60 b3 3d 5c 7f ce 3c
       0.23484537 0.1330258 0.08758699 0.025207214
000170 cc 5b e1 3d 22 70 7d 3e 30 2b 36 3d b7 b1 c5 3d
       0.11003837 0.24749807 0.04447478 0.09653037

layers.0.lin_self.weight f4 [96, 96]
000000 3a 32 95 3d 88 6d 32 3d 5f b0 02 3e c1 ff 15 bd
       0.072849706 0.04356149 0.12762593 -0.03662086
000010 dd 66 18 3e f0 b0 c2 bd 68 12 f0 3c 3f cd 14 bd
       0.14882989 -0.095064044 0.029305652 -0.03632855
000020 06 01 2b 3d dc 15 e3 bc e3 00 3f bd d2 e0 34 bb
       0.041749023 -0.027720384 -0.046631705 -0.0027599824
000030 a3 2e 08 bc 89 96 c3 3d b3 8e 47 bc 8c 20 80 bd
       -0.0083119 0.09550197 -0.012180018 -0.06256208
000040 3c f5 08 3d 3c ba d5 3c 93 58 62 bd 93 de 95 3d
       0.033437 0.02608978 -0.055260252 0.07317843
000050 d3 e1 60 3c 62 d1 46 3d 80 19 e8 3b 8c 6e ae bd
       0.013725716 0.048539527 0.007083118 -0.08517179
000060 34 66 d6 bd a6 8c 67 bd 0b 38 22 3d 4f 99 da 3d
       -0.104687124 -0.056530617 0.039604228 0.106737725
000070 6c 56 42 bc d0 16 d9 bd af 06 a5 bd 8d a4 8f 3d
       -0.011861425 -0.10600054 -0.080579154 0.070138074
000080 86 59 0a bd 3e 99 ea b8 4e 6b 9c 3c c2 51 f3 3d
       -0.033776782 -0.00011186533 0.019094136 0.118808284
000090 cc 47 61 3c 61 4b de 3d 1e 3a 57 3c 9f 3b 2c 3d
       0.013750028 0.10854221 0.013136415 0.042049047
0000a0 13 63 b3 bd 68 66 02 3e ee 31 0a 3d 5f 7d b5 ba
       -0.08759131 0.12734377 0.033739023 -0.0013846568
0000b0 bb 18 b3 3d 30 12 1e bd 77 4f f1 3c 51 4c b8 bc
       0.08744951 -0.038591564 0.029456837 -0.022497328
0000c0 74 28 ea 3d 5b 5d 2d 3c e9 63 c3 3d 45 52 7a bc
       0.11433497 0.01058134 0.09540541 -0.015278404
0000d0 12 12 8f 3c 13 fe 97 3d a4 47 1d 3d 0e 42 55 3d
       0.017464671 0.07421508 0.0383984 0.052064948
0000e0 b9 81 e1 3c a2 92 19 3d 60 89 03 3d 53 9b fc 3d
       0.027527677 0.037493356 0.032113433 0.12334313
0000f0 de 7f b4 bd 2a c9 e5 bd 0e 1e da 3d cc d5 e9 3c
       -0.08813451 -0.112200096 0.10650264 0.02854433
000100 ef 5e 69 3d 0b 34 c2 3d 2a c3 83 3d 5c 68 80 3c
       0.0569753 0.09482583 0.06433709 0.015674762
000110 29 eb 1b 3d ff 13 b7 3d 0e f2 aa bd 86 a6 99 bd
       0.038066063 0.08939361 -0.083469495 -0.07502465
000120 28 ce ae 3d 94 05 a6 3d 04 68 21 be 65 e3 e0 3d
       0.08535415 0.08106533 -0.15762335 0.10980872
000130 d9 75 b1 3b d3 44 b5 bd 70 59 7f 3d 51 2a 93 3d
       0.00541566 -0.08851018 0.062341154 0.071858056
000140 32 a4 00 3c 4b c3 2d 3d a7 cf 75 3d 1f 97 c0 3d
       0.007851647 0.042422574 0.060012486 0.09403824
000150 7a 0f 61 3d 9e 79 2e 3d 9c fd 9c 3c e9 84 4a bc
       0.0549464 0.042596452 0.0191639 -0.01236079
000160 b9 72 a2 3d 48 22 f4 bd 08 2a 8e bd e1 80 03 bd
       0.07932038 -0.11920601 -0.069416106 -0.03210533
000170 e3 34 5d 3a 44 27 8e bb 6c 26 57 3d 8f 98 1b 3c
       0.00084383617 -0.004338177 0.052526876 0.009496822
000180 f8 34 c7 bc 79 40 c7 bd 21 0d 88 bc cf 3c 25 bd
       -0.02431725 -0.09729094 -0.016607823 -0.040341195
000190 02 c0 b9 bd 2b db cc 3a ac 3c c0 3d 5b ae b5 bd
       -0.09069826 0.0015629282 0.09386572 -0.08871146
0001a0 77 aa be 3d 1d c9 b8 bc 95 12 c9 bd 40 e3 25 bd
       0.09309857 -0.022556836 -0.09817997 -0.040499926
0001b0 97 be 72 bd 73 69 e9 bc f9 3b 67 bd 6b de 96 3d
       -0.059263792 -0.028492665 -0.05645368 0.073666416
0001c0 aa df 88 3d 8f 53 d6 bd 09 50 66 bd 24 fd 4f 3d
       0.066832855 -0.10465156 -0.05622867 0.050778523
0001d0 e5 b6 bb bc 59 06 ac bd a1 73 23 bb 96 9d 73 3d
       -0.02291436 -0.08399648 -0.0024940746 0.059476458
0001e0 1c 34 55 bd 1d a2 84 3d f8 a1 c6 3d e6 97 93 3d
       -0.05205165 0.06476233 0.09698862 0.07206707
0001f0 dc d9 b1 3d 8c 99 22 3d bc 3e 25 3d ef 3f 96 3d
       0.086841315 0.039697215 0.04034303 0.07336413
000200 c8 cf 92 bd b8 f3 82 bd 84 91 05 3d 85 62 cd 3c
       -0.071685374 -0.06394142 0.032609478 0.025071392
000210 74 91 a6 bd 95 3a a6 3c 17 e4 a4 3d b5 ea 99 bd
       -0.08133212 0.020291606 0.08051317 -0.0751547
000220 a4 9d 3d bd b1 ac 5d 3d 8c c4 1f ba 45 97 a1 3d
       -0.046292916 0.05411977 -0.00060946564 0.078901805
000230 2f 40 8f 3c 02 59 38 bc 7f 92 8b 3d 90 82 39 bd
       0.01748666 -0.01125169 0.06815051 -0.04529053
000240 00 cf 10 3d ae e9 c3 3d ae 84 95 3d b8 dd 4b 3c
       0.03535366 0.09566055 0.07300697 0.012442999
000250 00 77 b3 3b 64 86 98 3d 47 ec 55 3d e7 f0 37 bd
       0.0054768324 0.07447508 0.052227285 -0.044907477
000260 9f fc bf bd 16 4b 29 3c c2 28 12 3d 4e ed 19 bb
       -0.093743555 0.010332843 0.0356834 -0.0023487392
000270 e6 fb aa bd 1f 6b 51 3d 31 78 bb 3d dc 6c 4e ba
       -0.08348827 0.05112755 0.09153784 -0.00078744977
000280 68 f6 46 3d 14 66 ae bd 40 8c 3f bd 69 c1 c8 bd
       0.048574835 -0.085155636 -0.046764612 -0.09802515
000290 f3 15 95 bd 81 bb e9 3c f0 b9 0e bd 36 33 c5 bd
       -0.07279577 0.028531792 -0.034845293 -0.09628908
0002a0 e6 a5 c0 bc bd 55 61 bd bc 11 7a 3d a8 ed 64 bd
       -0.023516607 -0.055013407 0.06105207 -0.05589071
0002b0 1f 26 49 3d 9f 8e 85 bd d6 ad d6 bd 1d c7 c5 bd
       0.04910862 -0.065213434 -0.10482375 -0.096571185
0002c0 ed 1d 5d 3d fe 68 b1 3c 56 69 97 bd ac 51 ef 3b
       0.053983618 0.02165651 -0.07393138 0.007303437
0002d0 3f 1b f9 bc 36 c2 25 3d b3 d5 19 3d d2 03 48 bd
       -0.0304085 0.040468417 0.037557315 -0.04883177
0002e0 c9 94 68 bd 40 c0 82 bd 77 3e 5f ba 84 cf bc 3d
       -0.056782518 -0.06384325 -0.0008516083 0.09219268
0002f0 3c c0 83 bd bd f8 d6 bd 3c d1 f1 bb 02 37 bd 3d
       -0.0643315 -0.10496662 -0.007379679 0.092390075
000300 70 aa 98 bd 0e 27 bc 3d 54 43 ce bc eb 7d 7f 3d
       -0.074543834 0.091871366 -0.025178589 0.062375944
000310 05 06 2d 3d e9 9c d6 3b 1e ff c6 3d 45 e5 16 ba
       0.04224207 0.006549467 0.097166285 -0.000575621
000320 2d a5 87 bd 34 c8 4d 3d 66 3d ee bb f4 c9 d5 bc
       -0.06623302 0.050239757 -0.007270503 -0.026097275
000330 8f 97 f6 bc a4 c6 32 bd 98 a7 96 bd 83 63 a1 bc
       -0.030101566 -0.04364647 -0.07356185 -0.019700771
000340 ec 5f 08 3d aa 8e 4e bd c2 93 e3 bc 28 f4 2a 3c
       0.033294603 -0.050429024 -0.027780417 0.010434188
000350 fc ed 40 3d af 08 e3 3d 80 74 22 3c 45 65 97 bd
       0.04710196 0.11085641 0.009915471 -0.073923625
000360 e1 e9 0c bd 80 b3 45 bd 3a 8e 88 3d d4 5d 46 3c
       -0.03440273 -0.048266888 0.066677526 0.012107331
000370 c6 16 05 bd 2b fd 81 bc 37 a2 04 3d 66 95 ab bd
       -0.03249242 -0.01586779 0.032381263 -0.08378105
000380 63 e9 79 3d 45 db 9c 3d 89 84 0a bc 59 64 08 3e
       0.06101359 0.0765901 -0.00845445 0.1331953
000390 48 b7 b9 3d ac fc df bc 49 95 ee bd ee 88 4f bd
       0.09068161 -0.027342163 -0.11649568 -0.050667696
0003a0 bc fe d2 3c 1d ca df 3d 20 b2 ae 3c b5 be b6 3d
       0.025756232 0.10927222 0.021325171 0.08923093
0003b0 ae ae e9 3d 2f c1 85 3c 2f f2 35 3d 20 b7 f3 3d
       0.11410271 0.016327469 0.044420417 0.11900163
0003c0 c0 4f cb 3d 78 54 e1 3d ed 67 89 bd ef 40 de bb
       0.099273205 0.11002439 -0.067092754 -0.006782643
0003d0 04 92 1b 3e ac 65 e3 3d 9e a5 d9 3d 9c d2 a3 bd
       0.1519242 0.11103377 0.10627292 -0.07999155
0003e0 15 83 54 3d e0 39 03 3d d3 ea 92 3d 72 7f f6 3b
       0.051882822 0.032037616 0.071736954 0.007522517
0003f0 0d 16 46 bd 21 1c 5e bd 0d 99 4f 3d 9e 5a fd 3d
       -0.048360873 -0.054226045 0.05068307 0.123707995

layers.0.lin_self.bias f4 [96]
000000 23 22 e9 3d 6b 1d dc 3b 7d f8 ad 3d bc 04 99 bd
       0.11383464 0.006717374 0.08494661 -0.07471606
000010 52 89 dc 3c d3 e1 fa bb b1 70 f2 3d cc 75 a2 3c
       0.026920948 -0.007656315 0.118379004 0.01983156
000020 db ec 82 bc 2e 18 d4 bd 10 fc d7 bc a3 d4 d2 3d
       -0.015982082 -0.103561744 -0.02636531 0.102944635
000030 2e 3b fb 3d 08 cf 54 3d 96 14 6b bd 54 63 c7 bd
       0.12267147 0.051955253 -0.05739268 -0.09735742
000040 8d 62 d2 3d 82 8e f5 3d d1 e7 e6 3d a7 c8 3f 3d
       0.10272703 0.11990072 0.11274684 0.046822216
000050 af 6c 51 3d 4f a1 a4 3d ee 1b b7 bd 55 6d 9e bd
       0.05112904 0.0803858 -0.08940874 -0.07735697
000060 e9 5a ef 3c ea f2 a4 3d f3 02 cc bd ec 7c bf 3d
       0.029218154 0.08054145 -0.099615 0.09349999
000070 0f d7 f6 3d 8b 61 9d 3d f0 53 2a 3d 68 d4 d6 3c
       0.12052738 0.076846205 0.041583955 0.02622433
000080 d4 2b 4f bc 65 94 1a 3c 1f 90 b3 bd b5 81 93 3d
       -0.012644727 0.009434794 -0.08767723 0.07202474
000090 c1 c9 ed bc 6a c4 aa 3d 7f 08 a0 bd 1c 6c 14 bd
       -0.029026868 0.08338244 -0.078141205 -0.036235914
0000a0 84 1d 82 3d 5f cc 55 3d c5 0b 23 3c 9d 80 b0 bd
       0.06353286 0.052196857 0.009951537 -0.08618281
0000b0 89 79 b7 bc d6 82 a9 3d bb ba c1 bd d5 5d 27 3d
       -0.02239682 0.08276908 -0.09459444 0.04086097
0000c0 1d b6 fb 3b f4 4f 09 3d e0 cc b8 bc 96 36 a9 bd
       0.0076816217 0.033523515 -0.02255863 -0.082623646
0000d0 18 a8 47 bd 92 5d be 3c 25 1a 0c 3d 4e f2 1a 3d
       -0.04874429 0.023237977 0.03420462 0.037828736
0000e0 56 e7 da 3d a1 5d 81 bd 91 a1 30 3d 63 ea 1d 3c
       0.10688655 -0.063166864 0.04312283 0.009638402
0000f0 35 cf ed 3d 9e 16 4a 3d b0 63 91 3d 71 34 6b 3d
       0.11611787 0.049337976 0.07099092 0.05742306
000100 12 5d 12 3d 1a 8b a5 3d f4 c4 9a 3d b9 79 dc 3c
       0.03573329 0.08083172 0.07557097 0.02691351
000110 44 99 62 bd 5c ea 75 bb 05 28 a0 bd 27 84 02 bd
       -0.055321947 -0.0037523722 -0.07820133 -0.03186431
000120 43 f1 72 bd 6c 41 84 3d 7a 1e 6a 3d ee 9a 69 3d
       -0.059312116 0.06457791 0.05715797 0.057032518
000130 74 84 ef bc 0b c5 98 ba c0 8f 61 3d 48 a6 54 bd
       -0.029237963 -0.0011655403 0.05506873 -0.05191639
000140 a3 06 a7 3d 3c d4 99 3d 87 df 8b 3d a1 a3 46 3d
       0.08155563 0.075111836 0.06829744 0.048495892
000150 f5 95 37 bd ce 6a b4 3d 2e 99 ed 3d a0 33 9e bd
       -0.044820745 0.08809434 0.11601482 -0.077246904
000160 02 c7 4a 3d 41 96 8f bd 36 7a 5f bd 81 d8 b0 bd
       0.049506195 -0.070110805 -0.05455991 -0.08635045
000170 a5 97 d7 3d aa 45 cb 3d 15 91 33 3c f7 5f a5 bd
       0.10526971 0.09925397 0.010959883 -0.080749445

layers.0.lin_neigh.weight f4 [96, 96]
000000 39 0e c5 bd d1 24 c0 3c 77 d2 80 bd 4e 80 95 3d
       -0.096218534 0.023455055 -0.06290143 0.07299863
000010 ae 97 01 3e 4d df 09 be 82 34 9d bd d3 32 87 bc
       0.12655517 -0.13464089 -0.07676031 -0.016503727
000020 be b8 68 3d 2f 7c 0d 3d d3 17 4c 3d 92 74 67 bd
       0.05681681 0.03454226 0.049827408 -0.056507654
000030 22 d8 a0 3d 91 3f bb 3d b1 1b de 3c 51 98 aa 3d
       0.07853724 0.09142984 0.027112814 0.08329833
000040 2b 1b 25 3c 32 2d a1 3d f0 1d 0b be 0b cb c9 3d
       0.010077278 0.078699484 -0.13585639 0.098531805
000050 1b d8 ed 3c 1c 98 57 3c 8e c2 cd 3d 90 ad f3 37
       0.029033711 0.013158824 0.10046874 2.9048679e-05
000060 41 b2 41 bd 5b 63 54 bc 5c e3 61 bd 54 12 1a bd
       -0.047289137 -0.012963141 -0.055148467 -0.037615135
000070 89 93 59 3b 60 d1 8f bd 66 3e 84 3c 25 1e 8c bd
       0.003319951 -0.07022357 0.016143035 -0.06841687
000080 20 bd 92 3d a5 f7 be bd 61 eb c8 3c 13 1b 30 3c
       0.07164979 -0.09324578 0.0245263 0.0107486425
000090 33 6d 61 3d da a3 13 3e aa 41 bf 3d 43 1c 45 bd
       0.05503578 0.14417973 0.09338696 -0.048122656
0000a0 09 e3 aa bd c3 71 4d 3d ef 90 31 bd 53 ed fd 3c
       -0.08344085 0.05015732 -0.04335111 0.030996954
0000b0 ea 37 c6 3d 11 48 9c 3c c3 06 7c bd 89 29 0d 3e
       0.096786335 0.019077333 -0.061529886 0.13785376
0000c0 a2 2c 58 bd cb 09 f5 3d 4d 9b dd 3c e0 25 71 3d
       -0.05277694 0.119647585 0.027051592 0.05887401
0000d0 6e 9b 0c 3e 75 ad e7 3d 86 b1 5e 3d 66 e8 17 bc
       0.13731167 0.11312381 0.05436852 -0.009271717
0000e0 6f e1 95 bc b9 43 a7 3d b8 af 3f bd 97 56 a3 3d
       -0.018295972 0.08167214 -0.046798438 0.079755
0000f0 6e 76 d6 bc 28 b5 6b bd 8f 13 06 3e cd 34 1a bd
       -0.026179519 -0.05754581 0.13093399 -0.03764801
000100 a5 41 60 3d 76 5c 63 3c 0b fb 83 bd d1 54 b3 3d
       0.054750104 0.013877025 -0.06444367 0.08756412
000110 dd fe 9f 3d db d7 f9 3c 1d fd 91 bd 43 a4 65 3d
       0.07812283 0.030498436 -0.07128356 0.056064855
000120 85 eb cb 3d 34 82 a4 3d 4d d3 97 bd a7 6e 41 bd
       0.09957031 0.08032647 -0.07413349 -0.047224667
000130 61 d3 a1 bc 66 0b 7a 3d 76 4d 95 3d fa 00 bb 3c
       -0.019754114 0.061046027 0.07290165 0.022827614
000140 0f df d3 3b cf 6a f3 3d 21 85 10 3e f2 06 2f 3b
       0.0064657996 0.118856065 0.14113285 0.002670702
000150 28 95 d8 3d e9 1a a6 bd e6 df c7 bd 5e ff c9 3d
       0.10575324 -0.081106015 -0.09759502 0.098631606
000160 9f 28 aa 3c 36 0d eb bc b4 c5 43 3d 6d ac ed bb
       0.020771323 -0.028692823 0.047795966 -0.007253221
000170 43 69 30 bd 61 34 b0 bd fa c6 b8 3c dd ba 18 3d
       -0.043069135 -0.086037405 0.022555817 0.03728758
000180 4e 01 51 bd 38 42 a6 3d b5 51 bb 3b 13 fb 45 3b
       -0.051026635 0.08118099 0.0057165273 0.0030209466
000190 bd 63 d0 bd 4a a8 9a bd b5 18 bb 3d 16 5a d5 bd
       -0.101752736 -0.0755163 0.09135572 -0.10417573
0001a0 ab 6d c1 3d 2a 1d 78 bd c8 ba 8b bd db a5 30 3d
       0.09444746 -0.060574688 -0.06822735 0.043126922
0001b0 2f bc 1d bd 38 78 b9 bd 7d 8a 1b 3b 17 f6 a8 3d
       -0.038509544 -0.09056133 0.0023733668 0.08250063
0001c0 be 6c b2 bd 41 c5 78 bd c4 73 c4 bd 40 92 1e 3d
       -0.08712147 -0.06073499 -0.09592393 0.038713694
0001d0 d6 14 64 bd 70 95 94 bd 20 16 ab bd 9f ae 4f bd
       -0.055683933 -0.072550654 -0.083538294 -0.05070364
0001e0 00 07 62 3d 55 65 42 bd 5a bc 9d bc ad a3 93 bd
       0.055182457 -0.04745992 -0.019254852 -0.07208953
0001f0 ae f2 7b bd db 75 9f bd d0 aa bb bb b4 34 a4 bb
       -0.061510734 -0.07786151 -0.0057271495 -0.0050111655
000200 69 52 93 bd fa a5 5a 3d 81 1c be 3d 1f 05 83 bd
       -0.07193453 0.053380944 0.092827804 -0.06397461
000210 6f 9d d9 bc 05 43 40 bd 0e 04 85 3d cf f0 72 bd
       -0.026564328 -0.046938915 0.06494914 -0.059311684
000220 fc d5 1b 3d 1a fd ad bd 26 a8 86 bd b1 73 78 3d
       0.03804587 -0.08495541 -0.065750405 0.060657207
000230 58 d4 11 bc 23 2e b6 bd 05 7d 8c 3d a2 00 81 3c
       -0.008900724 -0.08895519 0.06859783 0.015747372
000240 32 01 b0 bc 8b 28 62 3d 3b 3a df 3c e3 80 40 3d
       -0.021484945 0.055214446 0.027249446 0.046997916
000250 f6 be a7 bd 9a 4b 09 bb 1e 76 cc bd 09 6c 84 3c
       -0.0819072 -0.0020949603 -0.099834666 0.016164796
000260 41 e3 0a bc 96 a9 bb 3d 4f e6 aa 3c ac 15 29 3c
       -0.008477033 0.09163205 0.020861773 0.010320108
000270 1e b9 ae bb 10 26 e0 3c 79 67 68 3c 36 80 3c 3d
       -0.0053321263 0.0273619 0.014184826 0.04602071
000280 e3 c9 06 bc 16 9d 8d 3d b9 f3 91 bd 30 20 53 3d
       -0.0082268445 0.069147274 -0.071265645 0.05154437
000290 d2 84 c3 3d 84 1e d1 bd 9a 55 fc 3b 4e 34 cf bd
       0.09546818 -0.102108985 0.007700634 -0.10117398
0002a0 96 df 51 bd 42 24 29 bd 82 98 88 3c f2 fb 7c bd
       -0.05123862 -0.041294344 0.016674284 -0.06176371
0002b0 ed 98 21 3c ec 12 51 bd b5 ad 90 3d 6b 56 c4 38
       0.0098631205 -0.051043436 0.07064382 9.362105e-05
0002c0 d2 6e 77 bd 5b 9c 0a bd 22 f0 bf 3d 09 45 3e ba
       -0.06040842 -0.03384052 0.093719736 -0.0007258212
0002d0 36 fe 2d 3d 98 58 54 3d 5f 35 0d 3d 88 80 91 bd
       0.042478763 0.051842302 0.034474727 -0.071045935
0002e0 64 3f 9c bd 71 4c ff 3c bc 1e b4 3d 3f 6a 88 bd
       -0.07629278 0.03116438 0.087949246 -0.0666089
0002f0 de 9e aa bc 6b 5c 92 bd 78 35 86 3d 36 6c b0 3d
       -0.020827707 -0.071465336 0.06553167 0.086143896
000300 c5 d0 28 be 4d 6a 18 3d 79 94 53 3c b8 e3 95 3d
       -0.1648589 0.03721075 0.012913817 0.073188245
000310 1c 8a 0c 3e f5 0e 1e bd f6 a3 62 bb 86 41 4c bc
       0.1372456 -0.038588483 -0.0034582592 -0.012466794
000320 77 5b 40 bd 0e 0a 4c 3d ac e8 b9 3d 46 36 79 3b
       -0.046962228 0.049814276 0.09077582 0.0038026734
000330 d7 22 8a 38 40 7f 33 3c b8 a0 4e 3d 22 ab 0d bc
       6.586842e-05 0.010955632 0.050446242 -0.008646758
000340 c3 c4 ff 3d ad 3e 8c 3c 2c 27 92 3a 0a 53 02 3b
       0.12488701 0.01711973 0.001115059 0.001988592
000350 b0 ea 84 bc 81 49 0c 3e ca fc ad 3d 2b 52 c6 3d
       -0.016225189 0.13699915 0.08495481 0.09683641
000360 4f 90 4c 3d 0e a2 12 bd c8 f8 f7 3d d0 ff 98 3c
       0.04994231 -0.03579908 0.12107998 0.018676668
000370 f4 79 da bc b3 f2 f1 bc dd 60 fe 3d 30 a9 94 3c
       -0.02666948 -0.029534673 0.12420819 0.018147081
000380 6f 2d 19 3c 14 ff 92 bd 79 16 80 bb 37 44 f5 3d
       0.009349211 -0.071775585 -0.003908929 0.119759016
000390 bf 8d 8b bd f5 49 8b 3d 57 79 1f bd 94 8b 87 bd
       -0.06814145 0.068012156 -0.038934078 -0.06618419
0003a0 66 f3 43 3a 76 de 9a 3c 39 1a 78 bd a2 68 1a bd
       0.0007474929 0.018904906 -0.060571883 -0.037697442
0003b0 09 8c 95 bb 2c bb db bc e7 1c 07 bd 53 f9 20 3e
       -0.0045638126 -0.026822649 -0.032986548 0.1572011
0003c0 cc 59 37 3d 0f 8a be 3c d1 8e 24 3b 31 e3 60 3d
       0.04476337 0.02325919 0.002510954 0.054904167
0003d0 63 5d a0 3d 60 99 97 3c 3d 92 99 3d 77 c3 a4 3b
       0.07830312 0.018505752 0.07498596 0.005028184
0003e0 35 de 94 bb b9 0f f2 3c 82 0d 9f bb 85 d3 ec 3d
       -0.0045430907 0.029548513 -0.004853905 0.11563782
0003f0 bc 6f 48 3c 66 a9 df 3b 85 a8 fc 3d b0 e0 00 bc
       0.012233671 0.006825614 0.1233683 -0.00786607

layers.1.lin_self.weight f4 [96, 96]
000000 f5 60 71 3d 53 79 3b 3c 49 8e a2 3d d4 48 ae 3d
       0.058930356 0.0114425 0.07937295 0.085099846
000010 96 f5 a6 bc ca 59 00 bd 34 41 75 3d f7 a9 7c bd
       -0.020380776 -0.03133563 0.059876636 -0.06168553
000020 af e7 17 bd b6 cb 1c 3d 5e ed e0 bc 32 d1 97 3d
       -0.037086185 0.03828021 -0.027456935 0.07412948
000030 fb 14 8a bd 48 8b 1c 3d ff 35 d3 bd 06 8d c0 3d
       -0.06742283 0.038218766 -0.10313033 0.09401898
000040 fe ac ca bd 7d 21 c6 3d 52 51 b1 3d b6 78 8e 3d
       -0.09896277 0.09674356 0.08658089 0.069566175
000050 a0 32 4f 3b 57 68 73 3c 6a c6 96 bd bc f4 cd 3d
       0.0031615868 0.0148564195 -0.07362063 0.10056445
000060 33 da 96 bd 95 04 a5 3c 92 82 43 bd 0c 1e 2b 3d
       -0.07365837 0.020143786 -0.047731943 0.0417767
000070 fd 82 d8 bd 36 50 9f 3d 63 36 00 bd 95 06 89 3c
       -0.10571859 0.07778971 -0.031301867 0.016726771
000080 a8 c7 02 3e 7e 1a 5a bd ac 83 21 bd a2 9c 3f 3d
       0.12771475 -0.05324792 -0.039432213 0.046780236
000090 0d 59 9e bb 2c 4a 85 3d de 71 96 ba 5c c0 04 3e
       -0.004832393 0.06508288 -0.0011478027 0.12964004
0000a0 f8 61 05 3e 7a 31 9b 3d d4 34 57 bd f0 4b 81 3d
       0.13025653 0.07577796 -0.052540615 0.06313312
0000b0 c8 3a 6b 3d c2 1f e2 bc da 31 ba bd 80 35 8f 3c
       0.057429105 -0.027603034 -0.0909154 0.017481565
0000c0 8e e4 64 3d 0f 43 50 3a 87 48 e5 3c 27 c1 0e 3c
       0.05588203 0.0007944563 0.027988685 0.008713043
0000d0 96 3c 85 3d be f8 d8 3c 13 06 aa bc 06 1d bf 3d
       0.065056965 0.026485797 -0.02075485 0.09331708
0000e0 da dc bd bd 5f a6 5f 3d a5 f7 b4 3a 9e 82 cb ba
       -0.0927064 0.054602023 0.0013806714 -0.0015526598
0000f0 c7 07 4f bd d7 5f 20 3d 1b 8e e3 3d 6a e7 20 bb
       -0.050544526 0.0391539 0.11111089 -0.0024551996
000100 58 a5 a3 3d 2e 64 d2 bb b2 eb 80 bd c9 5a 61 bd
       0.07990521 -0.0064206338 -0.06294955 -0.05501822
000110 59 00 ab 3d 44 33 04 3c 8a 6c bd 3d 13 4a 98 3d
       0.08349676 0.008068863 0.09249218 0.074360035
000120 68 dc 81 3d d9 77 e5 3d c4 d3 f5 bc fe 73 e9 3d
       0.06340867 0.112045 -0.030008204 0.11399077
000130 e9 88 86 3d 9e b1 b8 bc 15 1d d3 3d e9 69 aa 3d
       0.06569082 -0.022545632 0.10308281 0.08320982
000140 76 7a 15 bd 85 0d 74 bc c5 32 c1 3c 49 97 e4 3b
       -0.03649374 -0.014895801 0.02358378 0.0069760424
000150 e5 c6 80 3d fa ca 0f bd 73 73 ad 3b 6b 13 04 3c
       0.06287936 -0.035105683 0.0052933036 0.00806127
000160 f3 a2 9a 3d 66 86 cd 3d 9d 87 df bd d2 ca 36 3d
       0.07550611 0.100354 -0.10914538 0.04462702
000170 20 9d 23 bd 53 63 fa 3a b7 8a 04 bd a9 33 e2 3b
       -0.039944768 0.0019103087 -0.03235885 0.006903131
000180 61 f5 69 bd b7 8c 9f bd 33 bf 89 3d 6d 89 92 bd
       -0.057118777 -0.07790511 0.067259215 -0.07155118
000190 f6 b3 31 3d 30 9b 8f 3d 06 72 d0 bd 2b 0c 5d 3d
       0.043384515 0.070120215 -0.10177998 0.053966682
0001a0 a6 78 3f bc 6d 3f 38 bd 3d a5 9e 3d 1d de 85 3d
       -0.01168648 -0.044982363 0.077463605 0.06536505
0001b0 b2 05 ab 3d 96 bf b6 bd 2d 84 02 3e 07 46 8d 3d
       0.08350696 -0.08923261 0.12745734 0.06898122
0001c0 3d ef 0d 3e ce 0f e0 3c b8 d3 ca bc 1c 86 cb 3c
       0.13860793 0.027351286 -0.024759158 0.024844222
0001d0 25 13 0b bd fe 29 b4 b9 f6 cb 14 3e 01 2e 38 3d
       -0.033953805 -0.00034363562 0.1453093 0.044965748
0001e0 43 b6 0b bd 39 fb 05 3c 62 c1 68 3d 4f ac cc bc
       -0.034109365 0.008177572 0.05682505 -0.024984507
0001f0 f1 5e 66 bc 77 1d 73 3c df de 1e bd 03 27 3c bd
       -0.014060722 0.014838568 -0.038786765 -0.045935642
000200 76 0c 80 3d 45 6a 9f bd 9f c9 00 be e9 e3 b9 bd
       0.06252377 -0.07783941 -0.12576912 -0.090766735
000210 b9 cd 85 bd 73 0f 1a bd 1e c4 05 3e 27 28 2e bd
       -0.06533379 -0.03761239 0.13063094 -0.04251876
000220 78 4f af 3d 48 44 29 3d f0 ce 3d 3d 67 8f 81 3d
       0.08560079 0.041324884 0.04633993 0.0632618
000230 54 c4 bb 3d 27 3a c5 3c ba 17 ae bd d8 03 b9 bd
       0.09168306 0.02407558 -0.08500619 -0.09033936
000240 22 27 d3 bd 56 25 cd 3c 78 05 8f 3d 69 85 87 3d
       -0.10310198 0.025042217 0.06983465 0.06617243
000250 72 09 91 3d 7b b0 db bb ef cf c6 bb 24 db 8d bd
       0.0708188 -0.0067043877 -0.006067268 -0.069265634
000260 11 99 74 3d 79 ad 81 bd 89 1b b4 bd 56 dd 06 bc
       0.059716288 -0.063319154 -0.087943144 -0.008231482
000270 11 d6 8b 3d 0a 56 de bd c2 f0 1e 3d 3d ef 3b 3d
       0.06827939 -0.108562544 0.038803823 0.045882452
000280 42 10 b2 bd 71 93 ce 3d e5 0b b9 bd 8e 4d ae 3c
       -0.08694507 0.10086716 -0.09035472 0.021277215
000290 57 59 40 bd 90 9a 4d bd d5 e5 a7 3d d3 f5 06 3d
       -0.0469602 -0.05019623 0.08198134 0.03294928
0002a0 26 58 8c bd 85 80 d7 bd 8f 0e fe 3b 67 52 41 bd
       -0.068527505 -0.1052256 0.0077532004 -0.047197726
0002b0 85 6d 94 3d 8f 08 16 3d c3 bb 80 3d 3f da 28 3d
       0.07247452 0.036629256 0.06285813 0.04122376
0002c0 bc 3b 15 3c f5 60 9d bd 98 c0 91 bc 0b fa 8e 3d
       0.00910848 -0.07684509 -0.017792031 0.06981286
0002d0 10 aa d3 bd 44 e3 a5 3c a2 ea cd bd 53 db 8e 3c
       -0.10335171 0.02024997 -0.10054518 0.017438566
0002e0 41 2e 76 bb 9f 88 f4 bd 3c 96 b6 3d 6f 73 09 bc
       -0.003756419 -0.11940121 0.08915374 -0.008389338
0002f0 08 b2 3e bd cf bb 00 3b e5 90 0d bd b9 74 83 bd
       -0.046556503 0.0019643193 -0.03456201 -0.064187475
000300 37 73 46 3d 70 b4 c5 3d 5e d9 91 3d 8b d1 c2 3d
       0.04844972 0.09653556 0.071215376 0.095126234
000310 73 94 7e 3d 71 54 cc 3d ac c9 f9 3d 5c 64 89 3d
       0.06215329 0.099770434 0.12196669 0.06708595
000320 ed c6 3d 3d 75 5e 17 3d bf c6 31 bd 5b bc 86 3c
       0.04633229 0.036955316 -0.04340243 0.016447237
000330 00 31 65 bd 96 5d 14 3d 6c 05 56 3b b2 94 53 3d
       -0.055954933 0.036222063 0.003265704 0.05165548
000340 6b 62 38 bc 10 90 de 3d 48 ef 21 3d c7 c7 07 bd
       -0.011253933 0.108673215 0.039534837 -0.033149507
000350 3e fe a1 3d 37 d2 75 3b 94 57 95 3c f7 84 c4 3d
       0.07909821 0.003750933 0.018230237 0.095956735
000360 89 9a cb 3c b2 18 d5 3d a4 cb 1a 3d 12 44 fe 3c
       0.024853962 0.10405101 0.037791863 0.031038318
000370 21 ec fe bd 41 87 23 bd 00 95 8d bd 3d 08 97 bd
       -0.12447382 -0.03992391 -0.06913185 -0.07374618
000380 52 89 8e 3d 22 7a 60 bd 86 85 44 3d 45 31 d6 3c
       0.069597855 -0.054803975 0.0479789 0.02614654
000390 71 15 d1 3d b3 96 a0 3d e8 a5 f6 3b 46 fe f6 3d
       0.10209168 0.078412436 0.007527102 0.120602176
0003a0 ea 0f 7f 3d 82 ea 0b 3e 55 90 29 3d 58 32 92 3d
       0.062271036 0.13663676 0.04139741 0.071385086
0003b0 90 dd e7 3d ec 8d 52 3c 5f fc 23 bd f7 5d 91 bc
       0.113215566 0.01285122 -0.0400356 -0.017745001
0003c0 38 b0 8d bc e7 7c 99 3b 3b 15 01 3e 3a fc b3 3c
       -0.017295942 0.004684079 0.12605755 0.021970857
0003d0 2d 2e 8b 3d eb 4c 98 3d 72 c0 0a 3e 03 b4 87 3c
       0.06795917 0.07436546 0.13549975 0.016565328
0003e0 41 ed d6 bc 6d 47 89 bd a7 79 ae 3d ed d3 03 bc
       -0.026236178 -0.067030765 0.08519297 -0.0080461325
0003f0 cf be c9 bd 7c 6b cc 3b dd 66 de bc 6f 80 e0 3a
       -0.09850847 0.006238399 -0.027148658 0.001712812

layers.1.lin_self.bias f4 [96]
000000 e6 5f 31 3d a1 45 1a bc c3 c1 e5 bb ab cd d7 3d
       0.043304347 -0.009416015 -0.0070116236 0.10537275
000010 c1 56 4e 3d 77 87 af 3d e9 a7 3e bc b0 be 88 3d
       0.050375704 0.0857076 -0.011636713 0.06676996
000020 40 3b d6 3d 78 ac 27 3d ca 62 89 bb f5 80 63 3d
       0.1046052 0.040935963 -0.004192685 0.055542905
000030 99 d4 b5 3c 85 8f 4e 3d dd 1d 86 3d 67 a2 be bd
       0.022196101 0.05042984 0.06548665 -0.093083195
000040 81 cf 5a bd c0 43 e9 3d 3e ef da 3d b6 d5 90 3d
       -0.053420547 0.113898754 0.10690163 0.07072012
000050 4e dc 91 bc fd 50 60 bd 19 72 97 bd 41 eb d7 bc
       -0.017805245 -0.054764736 -0.07394809 -0.026357295
000060 61 5f bc 3d 44 b8 f5 3c 8d 1c 0d bd 7a 6a b3 3d
       0.091978796 0.029995091 -0.034451056 0.08760543
000070 e5 83 c5 3c a5 ca a0 bc d6 e5 a7 3d b2 e8 68 3d
       0.024110744 -0.019627878 0.081981346 0.05686254
000080 0e 67 85 3d 4a a6 58 3d ce 3f 86 bd 42 8b cb 3d
       0.06513797 0.05289296 -0.065551385 0.09938671
000090 af 3d a7 3d f5 e9 9b 3d 5d 92 93 bd 19 96 0e bc
       0.08166062 0.07612983 -0.07205651 -0.008702778
0000a0 15 a7 83 3c 51 52 d3 3d 10 69 58 bd 76 03 2f bd
       0.016070882 0.10318435 -0.05283457 -0.04272791
0000b0 ee e2 a5 3d 83 c0 90 3d ba e7 97 3d d5 b0 d0 bd
       0.08099924 0.07067969 0.07417245 -0.10189978
0000c0 69 d9 47 3d d9 9c cb 3a 5e 8a 0a 3d 02 41 62 bd
       0.048791323 0.0015534415 0.033823363 -0.055237778
0000d0 0b 96 6e 3d 92 82 24 3d e8 af df 3d d6 68 c1 3d
       0.05824856 0.040163584 0.10922223 0.09443824
0000e0 fc 2a a3 bc b6 8c 7c bd 42 89 44 bd e8 82 69 bd
       -0.019917957 -0.06165763 -0.04798246 -0.057009608
0000f0 f5 06 77 bd f5 28 45 3d 28 34 80 bd 04 1c 0e bd
       -0.06030937 0.048134763 -0.06259948 -0.034694687
000100 df 81 2e 3d 7f 3d 0c bd b3 b1 0c bc 8f 57 dc 3d
       0.042604323 -0.034238335 -0.008587289 0.10758888
000110 72 c8 53 bd a9 62 f4 3c 36 c6 b9 3b c0 91 45 3d
       -0.05170483 0.029832201 0.0056693805 0.0482347
000120 a4 6f 90 3c fd 5c 4b 3d ac 2e e7 bc 4b e1 02 3e
       0.01763136 0.049649227 -0.028220497 0.12781255
000130 54 f5 77 3d 2f 85 8c 3d 5f 8d ce 3d fb 2a 05 bd
       0.060536698 0.0686134 0.10085558 -0.032511692
000140 a0 d0 51 bc b0 3b c0 bc 08 41 0f 3c 21 24 8d bd
       -0.012806088 -0.023465961 0.008743532 -0.06891657
000150 ae c1 0d 3d d8 d0 4d bd e2 f0 9f bd d4 81 40 3d
       0.034608535 -0.050247997 -0.078096166 0.046998814
000160 3d e7 f9 bb 35 a5 78 3d 67 42 df 3d 66 83 70 3c
       -0.0076264427 0.06070443 0.10901337 0.014679765
000170 38 44 9e 3d 59 26 84 3d 37 02 ab 3d 50 50 ad 3d
       0.077278554 0.06452627 0.08350032 0.08462584

layers.1.lin_neigh.weight f4 [96, 96]
000000 75 d5 80 bd 87 a4 2f bd 84 75 49 3d 30 2f b3 3d
       -0.06290714 -0.042881515 0.049184337 0.08749235
000010 ad 86 ac 3d e3 62 9f bb 90 f5 96 3d 34 32 1d bd
       0.08424125 -0.004864083 0.07371056 -0.038377956
000020 f3 f0 21 3d 34 ac e4 3c 0c cb 8c 3d 32 20 83 bd
       0.039536428 0.027914144 0.068746656 -0.06402625
000030 c2 a5 8c 3d d6 34 ed bc fd 5f ba bd de 57 4a bd
       0.06867553 -0.028955858 -0.091003396 -0.049400203
000040 18 e1 6a bc 36 5d 9b 3d e1 33 99 bd d8 0c db 3d
       -0.014335893 0.07586138 -0.07480598 0.10695809
000050 49 0f a6 bc b1 b0 c3 3d 03 dc c0 bd c5 9f 70 bd
       -0.02027096 0.095551856 -0.09416964 -0.058746118
000060 60 b6 dc bd dc 7d d3 3d 0d 82 6b 3c 56 63 07 3d
       -0.10776973 0.1032674 0.014374268 0.03305372
000070 dc 75 83 bd b0 a0 81 3d 16 1a 94 bd 07 88 62 bc
       -0.06418964 0.06329477 -0.07231538 -0.013826377
000080 9d 46 f2 3d 34 76 cc 3d 63 20 fa 3d 14 57 ec 3d
       0.11829875 0.09983483 0.122132085 0.11540046
000090 07 6f 87 bd 34 2e 95 3d 24 ab 30 38 2a d4 d8 3d
       -0.06612974 0.07284203 4.2121057e-05 0.10587342
0000a0 46 76 d0 bc ef 8f 92 bc ac a7 ab 3c f1 48 9b 3d
       -0.025447022 -0.017890899 0.020953976 0.07582272
0000b0 62 1b b0 3d 0e f0 0b 3d a3 33 34 bd 14 2e 76 3c
       0.08598973 0.03416448 -0.043994557 0.015025634
0000c0 ea 01 08 3e b9 ff 01 3e 92 2a d8 bc a0 9b 4c bc
       0.1328198 0.12695207 -0.026387487 -0.012488276
0000d0 fb 20 b5 3d 02 78 84 3b 12 88 5e bd 9e 9d 8d bd
       0.08844181 0.0040426264 -0.054328986 -0.06914829
0000e0 13 e3 da ba 66 c5 1d bc 8a 92 58 3d 27 5c 05 3e
       -0.0016699753 -0.009629583 0.052874126 0.13023435
0000f0 d4 09 b4 bd 99 b5 18 3d 48 82 42 3c 68 3f f6 bc
       -0.08790937 0.03728256 0.011871882 -0.030059531
000100 87 e3 bf bc 04 d5 cb bd 44 fd eb 3c 20 10 f4 bc
       -0.023423923 -0.09952739 0.02880729 -0.029792845
000110 e4 33 18 bd 8f 85 c0 3d 03 07 d9 3c f5 ba 1f bd
       -0.03715886 0.09400474 0.026492601 -0.038996655
000120 62 47 42 3c f3 84 65 3d f9 e5 fe bd c5 5a 91 bc
       0.011857839 0.056034993 -0.124462076 -0.017743478
000130 81 52 cc 3d 0a 8e cb 3c 1d 66 6e 3d 06 1b 86 3d
       0.09976674 0.024848003 0.05820285 0.06548123
000140 0e 63 f1 3d e2 eb ba 3d 75 b0 ed 3c 69 77 1d bd
       0.11786471 0.09127022 0.029014805 -0.038443957
000150 97 d3 84 3d 0b e6 11 3d a2 39 6f 3d f5 4b 83 3d
       0.0648567 0.035619777 0.058404572 0.06410972
000160 00 22 88 3c 56 6a 1a bd 63 94 ea bd d1 34 8a 3d
       0.016617775 -0.037699066 -0.11454084 0.06748355
000170 e1 84 9d bd 4d 39 6d bc 38 dc 22 3d d9 b9 6a 3b
       -0.0769136 -0.014478994 0.0397608 0.003581634
000180 ea a6 b3 bd 2f 43 8e 3c 0c c7 f4 3b d2 81 07 3d
       -0.08772071 0.01736602 0.0074700173 0.03308279
000190 31 0a b2 bd b3 1f c4 bd d7 8c a6 3d 11 d9 ac bd
       -0.0869335 -0.09576359 0.08132332 -0.0843984
0001a0 d7 14 67 3c 54 f6 8c bd 07 ca 23 bd 2d 28 8b bd
       0.01410409 -0.06882921 -0.03998759 -0.06794772
0001b0 f4 a3 b1 3d 3b 0e 25 bc f5 ca c3 3d d2 b3 76 bd
       0.0867385 -0.010074194 0.09560195 -0.060230084
0001c0 15 c5 68 bc c3 ae 01 3c e0 cf af bd 01 91 9c bd
       -0.014207144 0.007915202 -0.08584571 -0.07644845
0001d0 57 2b a5 3c 93 80 dd 3c e0 d5 fd 3d f3 c2 e7 3c
       0.020162268 0.027038848 0.12394309 0.028291201
0001e0 da ed c2 3d 42 c8 a7 bc 95 d7 25 3d ad fe ed 3c
       0.09518023 -0.020481233 0.0404888 0.029052103
0001f0 3c ec 33 3d 54 85 f4 bc a9 8c d2 3d 5c 2b 7d bc
       0.043926463 -0.029848732 0.10280735 -0.015452232
000200 84 7b 62 bc 16 fa ca 3d cc 83 35 3d a6 d4 ba bd
       -0.013823394 0.09910981 0.044315144 -0.09122591
000210 92 36 0a 3d 28 3d 94 bd 28 3d ea 3b b8 e6 9a bd
       0.03374345 -0.07238227 0.0071484037 -0.07563537
000220 9f 61 bb bd 52 fb d5 bd ca 75 e6 3d 45 f2 75 3d
       -0.09149479 -0.10448326 0.11252935 0.0600455
000230 5a 74 3b 3d 94 a1 f1 bd 15 7e e9 3a be 23 92 3d
       0.04576526 -0.11798397 0.0017814065 0.071357235
000240 49 65 ab bd 6a d6 2a bd 21 2e 29 3d a8 16 95 3d
       -0.08368928 -0.041708387 0.041303758 0.07279712
000250 ce f6 86 3d 1a bd cd bd 35 fd d3 bd 64 d3 c4 3c
       0.06590043 -0.10045834 -0.1035103 0.02402658
000260 78 dd 22 bd 65 7b a0 3d df 2c 63 bd 1d 6c 7e bc
       -0.03976199 0.07836036 -0.055462714 -0.015528706
000270 c9 3e 04 3d ba 91 99 bc ad a9 58 bd f3 d7 26 3d
       0.03228644 -0.018746246 -0.05289619 0.04073329
000280 4d 49 a0 bd 67 5b c6 3d 20 0f 87 3d 1b 3b 8b bd
       -0.07826481 0.09685402 0.06594682 -0.06798383
000290 a3 0a 84 3c 50 f7 c0 bc ba b4 92 bd 67 4f 37 3c
       0.016118353 -0.023555428 -0.07163377 0.011188365
0002a0 8d b2 b8 3c 48 4c 97 bc 46 0a 4f bc 56 43 ca bb
       0.022546077 -0.01846899 -0.012636727 -0.006172578
0002b0 7a 69 47 bd 8a d5 7b 3d 8b 68 6e bd 49 57 8c bd
       -0.048684575 0.061482944 -0.05820517 -0.06852586
0002c0 09 e3 06 3c b1 01 2e 3d 26 2d 32 bc e0 8c 29 3d
       0.00823284 0.04248208 -0.010875022 0.041394114
0002d0 27 e6 5b bd 76 27 d6 ba b0 d4 b8 3d c6 49 79 3d
       -0.053686287 -0.0016338665 0.09024942 0.06086137
0002e0 3d b8 20 3b a7 ae 93 bd e2 c7 13 3e 17 e1 cc 3d
       0.0024523877 -0.07211047 0.14431718 0.1000387
0002f0 d4 24 c4 bc ea 27 45 3d 9f 9b e2 3d 46 35 c3 3d
       -0.023943342 0.04813377 0.110648386 0.095316455
000300 65 42 a4 3d 51 4c 67 3d bf d3 8b 3d 66 1b 87 bd
       0.08020476 0.056469265 0.06827497 -0.06597023
000310 36 ad 33 bb 94 43 37 3d 96 c2 4f 3d 12 aa dd 3c
       -0.0027416474 0.044742182 0.05072268 0.027058635
000320 1c 12 0c 3e 99 a3 9e 3d e6 21 28 bd cb 4a d8 3d
       0.13678783 0.077460475 -0.041047953 0.105611406
000330 32 2e a3 3d 3d 38 e1 3d 3e 00 0f bd cc 15 cb bb
       0.079677954 0.10997055 -0.03491234 -0.0061976667
000340 6d 00 5b 3c 13 f3 90 3d 32 e3 b4 3d 81 80 8b bd
       0.013366801 0.07077613 0.088323966 -0.068116195
000350 2f eb b7 bd 31 2b e7 3c d1 f3 99 3d 5c 83 68 bc
       -0.089804046 0.028218837 0.075172074 -0.014191475
000360 d7 84 7c 3d 5b b8 a7 3d 7f 92 03 3d fd 4b f8 bc
       0.061650123 0.0818946 0.03212213 -0.030309672
000370 de 10 83 bd 4f 43 ec 3c af 96 0f 3d 8a 9b af 3d
       -0.063997015 0.028840689 0.035055812 0.085745886
000380 08 87 ab 3d dc ca 83 3d 86 92 82 3d c5 5a ef 3d
       0.083753645 0.06435177 0.063756034 0.11687235
000390 5f f4 1a bd d8 fc c6 bc a6 c3 0d bd 26 b1 f7 39
       -0.037830707 -0.024290487 -0.034610413 0.00047243497
0003a0 85 94 af 3d ba e4 89 3d 7e ae 91 3c 35 d2 85 3d
       0.0857325 0.06733079 0.0177834 0.065342344
0003b0 6d 1f 1e bd 7d c8 ab 3d 5b df ed bc b2 97 e1 3d
       -0.03860419 0.083878495 -0.029037168 0.11015262
0003c0 b0 c5 d8 bc 33 cd 3f bd 26 df 13 3d 9e 6a 88 3c
       -0.026461452 -0.046826553 0.036101483 0.016652402
0003d0 3e 67 e8 3d 6b 3c da 3d 76 bc 90 bc 68 62 ca bb
       0.11347817 0.10656055 -0.01766799 -0.0061762817
0003e0 88 88 03 3d 3a 03 6d 3d 3e 6e 02 3e c0 b2 d8 bc
       0.03211263 0.057864405 0.12737367 -0.026452422
0003f0 d2 db 31 bd f5 be fa bb d4 cc 6e 3d 4a 5b b7 bc
       -0.043422528 -0.0076521584 0.058300808 -0.022382397

layers.2.lin_self.weight f4 [96, 96]
000000 ec b9 cf 3d c6 0c 10 3c 41 b7 ef 3c f5 04 df 3d
       0.10142884 0.008792108 0.029262187 0.10889617
000010 e6 fc a8 3d 07 1d b1 3c 31 75 86 3c 1a f7 dd 3d
       0.082513615 0.021620287 0.016413303 0.108381465
000020 7a b8 43 bd 5d 7a 43 bd 9e 58 04 3c e1 ac 43 3d
       -0.047783352 -0.047724117 0.008077769 0.047772292
000030 e6 a6 32 bd f6 ca 6e 3d e1 b3 d6 bd d3 d8 e0 3d
       -0.043616198 0.058299027 -0.10483528 0.10978856
000040 a8 d8 ba bc 3a 32 f8 3d c4 5a 58 3d c1 f5 00 bc
       -0.022808388 0.12118955 0.052820936 -0.007871092
000050 9a a0 7f 3d 38 29 39 3d fb 39 17 bb 79 4c f4 3d
       0.06240902 0.045205325 -0.002307533 0.119286485
000060 da 5c f2 bc 2e 0b a8 3a 2d 41 a6 bd 56 1d e4 3b
       -0.02958529 0.0012820715 -0.081179 0.006961505
000070 5f b1 43 3c 9a 05 b9 3c 63 d2 61 3d 42 ec 23 3d
       0.011944144 0.022585679 0.05513228 0.040020235
000080 37 fb cb bd 8d 9c 90 bb b8 eb 39 3d fa d7 0a bd
       -0.09960025 -0.0044131936 0.045390815 -0.033897378
000090 8d 87 62 3d 29 ea ac 3d 9f 6a c3 3d 86 d1 22 3d
       0.055305053 0.084431 0.09541821 0.0397506
0000a0 bf c1 c3 3d 5c 7b 6a bd 45 a4 d9 3d d1 68 e5 3d
       0.095584385 -0.05724655 0.10627035 0.11201633
0000b0 09 3c b9 3d 95 d1 d9 3d 23 f8 c5 3d ee a3 a2 bd
       0.09044654 0.10635678 0.09666469 -0.07941423
0000c0 58 29 d5 3c b9 d8 cc 3d 61 df db 3d 14 3e 4d 3c
       0.02602069 0.10002274 0.107359655 0.012527008
0000d0 ec e1 9a 3c e6 60 ad 3d 2f 90 bb 3c 34 05 68 3d
       0.018906556 0.084657475 0.0228959 0.056645587
0000e0 c4 e2 8f 3c 1e af 2a bd 4a 9f 05 be f8 80 60 3d
       0.017564185 -0.04167091 -0.13049045 0.054810494
0000f0 4d 04 fc 3c 39 20 09 bd 86 f3 d4 3d de 21 bb 3d
       0.03076377 -0.033477996 0.10398011 0.09137319
000100 af d1 32 3d 52 19 7a bc 8c a0 a0 bd 8f ae ed 3d
       0.043657 -0.015264826 -0.07843122 0.1160556
000110 c5 08 aa 3d 72 bd ed 3d 36 03 be 3d 69 bd 39 3d
       0.08302454 0.116083995 0.09277956 0.04534665
000120 e8 f7 96 3d 1b 18 90 bd a8 9e fd 3c da da c2 3d
       0.07371503 -0.07035848 0.030959442 0.09514399
000130 bb cc c4 3c ed 3a d5 3d 90 da 53 3d 23 a9 3d 3d
       0.024023404 0.1041163 0.05172211 0.04630388
000140 11 c7 93 38 92 54 a8 3b 53 f1 e8 3d 10 87 92 3d
       7.046585e-05 0.0051370347 0.11374154 0.071546674
000150 1a 39 b6 3d c2 9d 9d bc c3 b2 3d 3d e3 fb 1a bd
       0.0889761 -0.019240264 0.04631306 -0.037837874
000160 aa cb 06 3d d6 dc b3 3d 13 e5 2e bd ac 8e 4e bd
       0.032909073 0.087823555 -0.04269893 -0.05042903
000170 2d f6 ab bd 2e 4f ed 3d 65 be 48 bd 9c 47 ef bd
       -0.08396564 0.11587368 -0.0490097 -0.1168358
000180 e9 b4 e8 3d 98 1c a1 bd 9f 95 18 3d 87 48 40 3d
       0.11362631 -0.07866782 0.037252065 0.046944167
000190 67 bd e8 3d ee 3d a5 3d 25 65 06 3d b4 bd c0 3c
       0.11364251 0.08068453 0.032811303 0.023527957
0001a0 34 dd 8e 3d ae 47 f7 3d 0d 3d 92 3d 75 f7 dd 3d
       0.06975785 0.12074219 0.07140551 0.10838214
0001b0 3e 74 94 b9 0e f9 ad 3d 02 99 4c 3b 63 96 c2 bb
       -0.00028315367 0.08494769 0.003121913 -0.0059383377
0001c0 fb cf 51 bd c5 66 0a bd fe 8f 59 3d ee 46 44 bd
       -0.051223736 -0.033789415 0.053115837 -0.047919206
0001d0 e9 86 9a bc 08 af 74 3d 6c f7 1c 3d 5d 5f 8b 3c
       -0.018863158 0.059737235 0.038321897 0.017013246
0001e0 34 dd b7 3d 87 3d 99 3b e8 76 ba bd 99 04 95 3c
       0.08977738 0.004676524 -0.09104711 0.018190669
0001f0 2e 5e c4 3d ca 27 26 3d 41 93 c1 bd 76 56 f7 3d
       0.09588276 0.04056529 -0.094519146 0.12077038
000200 dd e1 84 bd 04 2a 9e bd e0 60 de 3c 63 69 a0 3d
       -0.064883925 -0.077228576 0.027145803 0.07832601
000210 37 fd ea 3d 7a 7b a6 bd 2f 61 da 3d c4 87 32 bd
       0.11474078 -0.0812902 0.106630675 -0.043586507
000220 a7 0b 05 3e 11 33 82 3d 4d 3e ca 3d a2 3c 7a bc
       0.12992726 0.063573964 0.09875164 -0.015273245
000230 4b 26 c4 3d 4d 5d 4b bd 1d 9e 04 bd 96 36 42 3d
       0.09577616 -0.049649525 -0.03237735 0.04741534
000240 f4 de 52 3d 68 e9 31 3d 9b 76 a3 3c 3d 97 c6 3d
       0.051482156 0.043435484 0.019954016 0.09696815
000250 06 8a 82 3d e5 1c a2 3b 9b c7 0f 3d 29 74 4a 3d
       0.06373982 0.004947292 0.035102468 0.049427185
000260 7e 01 b9 3d 92 55 d4 3c 56 ed ac bd 74 7c dd bb
       0.09033488 0.02591971 -0.08443706 -0.0067592207
000270 08 53 b7 3b 4a c6 28 3d bc 6b 4a 3d 1a a4 3f 3d
       0.005594615 0.04120473 0.04941915 0.04678736
000280 50 7d b7 3d 55 cf a3 3d 4a 0a 58 3d d3 84 c9 bb
       0.08959448 0.0799853 0.052744187 -0.006149867
000290 24 b9 81 bc d4 b3 3d 3d 5a 5c 1e bd 10 67 6f 3d
       -0.015835352 0.046314076 -0.038662292 0.058447897
0002a0 82 92 d8 3d 02 b9 0d 3d 1c cf b3 3d d9 d0 04 3d
       0.10574819 0.034600265 0.08779737 0.032425735
0002b0 40 0e 59 bd 36 22 e4 3d a2 55 88 3d ae ea 8f bd
       -0.052992105 0.11139338 0.06656958 -0.070271835
0002c0 5b 4e dd 3d 97 b5 31 bd 86 7a 1d 3d 22 c9 2a 3d
       0.10805961 -0.04338607 0.038446926 0.04169572
0002d0 45 a4 2d 3d d5 24 9c 3d e8 49 f1 3c 07 92 aa bd
       0.042392988 0.07624213 0.029454187 -0.08328634
0002e0 6a d4 68 3d 77 1a 7a 3c c1 a0 22 bd 7f db c8 3c
       0.0568432 0.015265099 -0.039704088 0.024518726
0002f0 f3 fb f8 3d ec e8 60 bd 97 97 12 3e 58 9b f1 ba
       0.121574305 -0.05490963 0.1431564 -0.0018433137
000300 57 06 57 3d 2a eb d2 bd 09 b4 c1 bc 6b 66 df 3c
       0.05249628 -0.1029876 -0.023645418 0.027270516
000310 ef b3 5c 3a 9d 03 a5 3d 70 49 a7 3d 83 2b d1 bd
       0.0008419146 0.0805733 0.08168304 -0.10213377
000320 d3 e4 bf bd 2a 4d 97 3d b2 7d 96 3d 5c ea eb 3c
       -0.09369817 0.07387765 0.07348193 0.028798275
000330 75 67 23 3d 5a cc 9e bd 4f 7c a8 bb 32 73 1b 3d
       0.039893586 -0.07753821 -0.005141772 0.037951656
000340 a5 23 54 3b 3c b9 e9 bc 00 4b 89 3c 55 8a a5 bc
       0.0032369879 -0.02853071 0.016759396 -0.020207563
000350 f8 7b eb bc 34 ad 56 bd 23 80 20 3d 03 37 70 bd
       -0.028745636 -0.052411273 0.0391847 -0.058646213
000360 fd 3b c9 bd 3a bb 66 bd f2 09 c8 bd a8 05 cc ba
       -0.09825895 -0.056330897 -0.09767522 -0.001556565
000370 ae fa 0f 3d 1e 73 c5 bd 50 04 a5 bd c0 a4 8a 3d
       0.035151176 -0.096410975 -0.08057463 0.06769705
000380 14 e2 bc 3d 30 7b 83 bd b9 31 27 bd ec f0 83 3c
       0.092228085 -0.064199805 -0.040818904 0.016106091
000390 89 2c ba 3d aa cd 33 bd 1b 02 40 bd 8e 1f 8c bb
       0.09090526 -0.04389731 -0.046877008 -0.0042762225
0003a0 eb 63 aa bd 8f 7c 1e 3d 7d 89 5b bd d9 ca 75 bd
       -0.08319839 0.038693007 -0.053597916 -0.060007904
0003b0 61 17 cf bd c3 e1 83 3c cc 08 aa bc 33 ee 69 3d
       -0.10111881 0.016098863 -0.020756148 0.05711193
0003c0 14 e6 ac bd 22 ff c1 3c 5f f5 fc bc 5e 18 9d bc
       -0.084423214 0.023681227 -0.03087872 -0.019176658
0003d0 60 db a7 3c fe 7e 98 bd e6 dd 19 bb c9 e9 a3 3c
       0.020490348 -0.07446097 -0.002347821 0.020008938
0003e0 2e 9b 48 bd aa f9 26 bd e8 2c 37 3d c6 29 3a bd
       -0.048976116 -0.040765442 0.04472056 -0.045449995
0003f0 73 f7 bf bd 42 dc cc bd 65 7c 96 3d 8c 13 a9 3d
       -0.09373369 -0.10002948 0.07347945 0.082556814
